AutoEncoders/Conditional_VAE/saved_model/model1.pth (torch, 99005 bytes, 44 tensors)

encoder_faltten.0.BachNorm.weight f4 [10]
0	0x3f46ceaa	0.77659094
1	0x3f7d89ff	0.9903869
2	0x3f9864a4	1.1905713
3	0x3f4e53f7	0.8059687
4	0x3f923bdc	1.1424518
5	0x3f86f276	1.0542743
6	0x3f7c8726	0.9864372
7	0x3f7a412a	0.9775568
8	0x3f3cb492	0.7371303
9	0x3f5f1873	0.8714668

encoder_faltten.0.BachNorm.bias f4 [10]
0	0x3e8e20c7	0.27759382
1	0xbf1045e0	-0.5635662
2	0xbe7e862a	-0.24855867
3	0x3e974066	0.2954132
4	0xbe8799fc	-0.26484668
5	0xbf05fcb8	-0.52338743
6	0x3efc6b17	0.49300453
7	0x3deb727b	0.11496445
8	0xbd371cbe	-0.044705145
9	0x3cbd71a0	0.02312547

encoder_faltten.0.BachNorm.running_mean f4 [10]
0	0x3d825974	0.06364718
1	0xc01529a6	-2.330667
2	0xc06739ca	-3.6129022
3	0xbe213584	-0.15743071
4	0xbf9bae4b	-1.2162565
5	0xc023476a	-2.5512338
6	0xbe03e477	-0.12880121
7	0xbe58a48b	-0.21156518
8	0xbe19f09a	-0.15033188
9	0x3edb0470	0.42776823

encoder_faltten.0.BachNorm.running_var f4 [10]
0	0x3f9592d8	1.1685438
1	0x40404357	3.00411
2	0x41123972	9.139025
3	0x3f21b91d	0.63173085
4	0x4022b3e1	2.542229
5	0x40694e48	3.645403
6	0x40212213	2.5177047
7	0x3f79ab67	0.97527164
8	0x3f0ca1ad	0.549342
9	0x3f6d2bd5	0.9264501

encoder_faltten.0.cnn.weight f4 [10, 2, 3, 3]
0	0x3e561ec8	0.2091018
1	0x3b661383	0.0035106845
2	0xbe545b67	-0.20737992
3	0x3eaf9637	0.34294292
4	0x3cc9cac9	0.024632828
5	0xbe3335c5	-0.1750098
6	0x3f3039af	0.6883802
7	0x3e49cd85	0.19707306
8	0xbe2c01e6	-0.16797599
9	0x3d09e8b4	0.03366919
10	0xbe1f077b	-0.15530197
11	0xbbf4f53a	-0.0074755223
12	0xbd01be98	-0.031675905
13	0x3c5b05ad	0.013368052
14	0xbd55420d	-0.052064944
15	0xbdbef715	-0.09324471
16	0x3e1141b1	0.14185216
17	0x3e02cd15	0.12773545
18	0x3ec8eaf3	0.39241752
19	0x3e0fe980	0.14053917
20	0xbcbf311a	-0.023338843
21	0x3e94459e	0.28959364
22	0xbda8c821	-0.082412966
23	0xbdcc6453	-0.09980073
24	0x3dccd9af	0.10002457
25	0xbd3b63bb	-0.045749407
26	0x3c6b7db0	0.014373228
27	0x3d9393b9	0.0720591
28	0x3b4642a8	0.0030252133
29	0x3b7caf78	0.0038556736
30	0xbdd8db6d	-0.10588727
31	0xbe14dbfc	-0.14537042
32	0x3b1379e6	0.0022503077
33	0xbe0518d7	-0.12997757
34	0xbdb13e2e	-0.08654438
35	0xbe51162f	-0.20418619
36	0xbda72112	-0.081606045
37	0xbdef7e42	-0.11694004
38	0xbd6a1f48	-0.05715874
39	0xbe3522d8	-0.17689073
40	0x3b9bc36a	0.00475352
41	0xbe983eb9	-0.29735354
42	0xbf01ac6e	-0.5065373
43	0xbe36fcd0	-0.17869878
44	0xbed5d10d	-0.41761056
45	0xbe7c38d3	-0.24631052
46	0xbe5b84cd	-0.21437378
47	0xbe3f7713	-0.18697767
48	0x3d95a8ff	0.07307624
49	0xbe6d07db	-0.23147528
50	0xbe163d29	-0.14671768
51	0x3cab46df	0.020907817
52	0xbd90106f	-0.070343845
53	0x3dea1d6c	0.11431393
54	0x3c30ec26	0.01079849
55	0xbdb5a99b	-0.0887024
56	0xbdf0d148	-0.11758667
57	0xbd8c984b	-0.06864985
58	0x39d4855c	0.00040535151
59	0x3d2f942b	0.042865913
60	0xbbbb67f0	-0.0057191774
61	0x3e707577	0.2348231
62	0x3f2f7a71	0.68546206
63	0x3c614c1d	0.013751057
64	0xbe0f7f39	-0.14013375
65	0xbe1c01d7	-0.15235077
66	0xbd3993b0	-0.04530686
67	0x3de2e979	0.110796876
68	0x3dfb5934	0.122728735
69	0x3dcd6095	0.10028187
70	0xbe47eaff	-0.19523238
71	0x3e440efd	0.19146343
72	0xbe923b0f	-0.28560683
73	0xbe01774b	-0.12643163
74	0xbe6bad4c	-0.23015326
75	0xbe5e8fe9	-0.21734585
76	0x3c27298b	0.010202776
77	0x3cb9d27f	0.02268338
78	0xbea4a256	-0.32155102
79	0xbcb317b8	-0.021861896
80	0x3e706c57	0.23478828
81	0x3e3208c0	0.1738615
82	0x3c8a0eff	0.016852854
83	0xbdf0da8c	-0.117604345
84	0x3e237418	0.15962255
85	0x3c78ecae	0.015193148
86	0xbd06414d	-0.03277712
87	0xbe1b8558	-0.15187585
88	0xbe2cbab0	-0.1686809
89	0xbe86fb4b	-0.26363596
90	0xbccff489	-0.025385158
91	0x3e5b2771	0.21401764
92	0x3eab331f	0.3343744
93	0xbc24f2eb	-0.010067682
94	0x3ddb0012	0.10693373
95	0x3dfd3753	0.12364068
96	0xbcfac728	-0.030612543
97	0x3d3e92d6	0.046526752
98	0xbcdcd1ca	-0.026955504
99	0x3bf2df3d	0.007411866
100	0xbc9bece9	-0.019033866
101	0xbe05d262	-0.13068536
102	0xbe115e0c	-0.14196032
103	0xbe4d6206	-0.20056924
104	0xbe506d32	-0.20354155
105	0x3e3f2917	0.18668018
106	0x3d4cffaa	0.050048508
107	0xbe0eba31	-0.13938214
108	0x3e788208	0.24268353
109	0x3e8a17b3	0.26971206
110	0x3f2dde76	0.67917573
111	0x3ced9b0d	0.029004598
112	0x3e971c04	0.29513562
113	0x3e90e8fc	0.28302753
114	0xbd506cf8	-0.05088517
115	0x3da33243	0.07968571
116	0x3d62c35d	0.055362094
117	0xbdd24e28	-0.10268813
118	0xbe35c400	-0.1775055
119	0x3e00a9a5	0.12564714
120	0x3e781fc4	0.24230868
121	0xbe3fc20a	-0.18726364
122	0x3da88f29	0.08230431
123	0x3d9c14e7	0.07621174
124	0xbdd7b2a1	-0.10532118
125	0x3d664468	0.05621758
126	0xbded534e	-0.11588155
127	0xbebb29f9	-0.3655546
128	0xbe596ad0	-0.21232152
129	0x3dafce87	0.08584314
130	0xbe972701	-0.29521945
131	0x3e091ecd	0.13390656
132	0x3e8b0c92	0.27158028
133	0xbea2d865	-0.3180572
134	0xbe8b501e	-0.27209562
135	0xbe25226a	-0.16126409
136	0xbe3d21aa	-0.18469873
137	0x3e0f51ff	0.13996123
138	0x3e5c1452	0.21492127
139	0xbe3319b2	-0.1749027
140	0xbc6003f5	-0.013672818
141	0xbd5fcd43	-0.054639112
142	0x3e377a5c	0.1791777
143	0xbc9c33cc	-0.019067667
144	0x3e7cfc52	0.24705628
145	0x3e83859f	0.25687882
146	0x3ea0ad2c	0.3138212
147	0xbc2f7999	-0.0107101435
148	0xbd425a10	-0.04744917
149	0xbe5f5820	-0.21810961
150	0xbe3ea7c5	-0.18618686
151	0xbe5d0b82	-0.21586421
152	0xbead0da5	-0.33799472
153	0xbe233bb9	-0.15940751
154	0xbca55713	-0.020183122
155	0xbc741945	-0.014898603
156	0xbe00f8ae	-0.12594864
157	0x3d7f9573	0.062398385
158	0x3e80d515	0.2516257
159	0x3dcce751	0.100050576
160	0xbcd02a0c	-0.025410675
161	0xbd9c34a0	-0.07627225
162	0xbedb4e08	-0.4283297
163	0xbe5ee5aa	-0.21767297
164	0xbec80015	-0.39062563
165	0x3dd5e62e	0.10444294
166	0x3dccb6d2	0.09995808
167	0xbdf67110	-0.12033284
168	0x3e247077	0.16058527
169	0x3e911e01	0.28343204
170	0xbe21fc42	-0.15818885
171	0x3e3bdccf	0.1834595
172	0xbd9ec18d	-0.07751761
173	0x3dcf70ae	0.10128914
174	0x3da6c139	0.08142323
175	0xbdccc631	-0.099987395
176	0x3e16a3ed	0.1471097
177	0x3c5ca5d5	0.013467272
178	0x3d226c5e	0.03965413
179	0xbe8f149f	-0.2794542

encoder_faltten.0.cnn.bias f4 [10]
0	0x3e26278d	0.16226025
1	0xbd63419b	-0.055482488
2	0xbe4a5517	-0.19759022
3	0xbe0f46f5	-0.13991912
4	0x3e2ac707	0.16677485
5	0xbe7a1188	-0.2442075
6	0xbe195a78	-0.14975917
7	0x3d97442f	0.07386052
8	0xbe01b4dc	-0.12666649
9	0xbc7aecf4	-0.015315283

encoder_faltten.1.BachNorm.weight f4 [16]
0	0x3f7c2302	0.9849092
1	0x3f835ee2	1.0263331
2	0x3f6a3e59	0.91501385
3	0x3fa91a02	1.3211062
4	0x3f7f6402	0.99761975
5	0x3f799e34	0.97507024
6	0x3f5e49da	0.8683144
7	0x3f4c993b	0.7992131
8	0x3f775017	0.9660658
9	0x3f899779	1.0749351
10	0x3f7d62d3	0.9897892
11	0x3f685315	0.90751773
12	0x3f773e45	0.9657939
13	0x3f8f8c86	1.1214759
14	0x3f5a19b7	0.8519549
15	0x3f835a4c	1.0261931

encoder_faltten.1.BachNorm.bias f4 [16]
0	0x3d808c4c	0.062767595
1	0xbe2cf104	-0.16888815
2	0x3cec6933	0.028858757
3	0x3ec22743	0.3792058
4	0xbe1e6fe9	-0.15472378
5	0xbc96c2f4	-0.018403508
6	0xbd854f10	-0.065092206
7	0xbe299b35	-0.16563113
8	0xbd1cfb07	-0.038325336
9	0xbd99c44a	-0.07508142
10	0xbdfa9e42	-0.122372165
11	0xbe5983fa	-0.21241751
12	0xbd39f357	-0.045398083
13	0x3cfdc9fe	0.030980106
14	0xbd7300a4	-0.059326783
15	0xbd25513a	-0.040360667

encoder_faltten.1.BachNorm.running_mean f4 [16]
0	0x3fa7c725	1.3107649
1	0xbf283e2f	-0.65719885
2	0x3e9a5588	0.3014338
3	0xbf5b2882	-0.85608685
4	0x3e15269f	0.14565514
5	0x3f493050	0.78589344
6	0x3ec58d1d	0.38584223
7	0xbe82c846	-0.25543422
8	0xbe0eb4c7	-0.13936149
9	0xbeec7268	-0.46181035
10	0x3f4d728e	0.8025292
11	0xbe4409a8	-0.19144309
12	0xbedd41db	-0.43214306
13	0xbf1c0c02	-0.6095582
14	0x3f22bb49	0.63567024
15	0xbece6ec2	-0.40318877

encoder_faltten.1.BachNorm.running_var f4 [16]
0	0x3fc2a3ea	1.5206273
1	0x3f62472c	0.8838985
2	0x3f42f097	0.7614836
3	0x3fbb3e51	1.4628392
4	0x3f114b8c	0.567559
5	0x3f464a85	0.7745746
6	0x3f47213c	0.77785087
7	0x3ed292ba	0.41127568
8	0x3f1a7383	0.60332507
9	0x3fcbdce1	1.5926782
10	0x3fa85d9d	1.3153569
11	0x3f2817be	0.6566123
12	0x3f6d5f33	0.9272339
13	0x3f92a412	1.145632
14	0x3eb53cf7	0.35398075
15	0x3f041d50	0.5160723

encoder_faltten.1.cnn.weight f4 [16, 10, 3, 3]
0	0xbcbd9851	-0.02314392
1	0x3e4707e9	0.19436611
2	0xbd85bf69	-0.06530649
3	0x3d6b070a	0.05737976
4	0x3dea524c	0.11441478
5	0x3e52e7a8	0.20596182
6	0xbbbaa5c8	-0.005696032
7	0x3d93073c	0.07179114
8	0xbc3a72bf	-0.011379897
9	0xbb545226	-0.0032397597
10	0x3dd1b3ef	0.10239398
11	0xbd74d753	-0.05977566
12	0x3dd60802	0.10450746
13	0x3ca63f19	0.02029376
14	0xbdde217d	-0.10846231
15	0x3c5a10ed	0.0133096995
16	0xbd94edf0	-0.072719455
17	0xbd37bbbc	-0.04485677
18	0x3e7254c9	0.23665155
19	0xbdae3166	-0.08505516
20	0x3dec9b5a	0.115530685
21	0x3e88c7a5	0.26714817
22	0x3b9c34f5	0.004767055
23	0xbe157e06	-0.14598855
24	0x3e50f8dd	0.20407434
25	0x3da44621	0.080211885
26	0xbc6881ff	-0.01419115
27	0xbc9e0473	-0.01928923
28	0x3d5dce87	0.054152038
29	0xbd246794	-0.040137842
30	0x3cc174ad	0.023615206
31	0x3e08d8b3	0.13363914
32	0x3d9d8587	0.07691484
33	0xbcb0673e	-0.021533605
34	0xbd8df22e	-0.06930958
35	0xba3215f2	-0.0006793431
36	0x3defd7e8	0.11711103
37	0x3ca3c264	0.019990154
38	0x3c5331cb	0.01289029
39	0x3cf01fb5	0.029311994
40	0xbe68fc93	-0.227526
41	0xbdedd202	-0.116123214
42	0x3e296db0	0.16545749
43	0x3d9ed088	0.07754618
44	0xbdd9efb7	-0.10641425
45	0xbd44525c	-0.047930107
46	0xbdd0f150	-0.10202277
47	0xbd1aa1c6	-0.037751935
48	0x3de5d382	0.112219825
49	0x3c67b723	0.014142784
50	0xbd9c1c28	-0.07622558
51	0xbdd8715c	-0.105684966
52	0x3bbc6917	0.0057498324
53	0x3df0730a	0.11740692
54	0x3d7a230e	0.061068587
55	0x3e35074b	0.17678563
56	0xbcd6e2a9	-0.026231127
57	0x3db6166c	0.088909954
58	0x3e5a90e5	0.21344335
59	0x3e15b756	0.14620718
60	0xbd9a2f44	-0.075285465
61	0x3e008d34	0.12553865
62	0x3dbc1105	0.09182934
63	0x3e78e0f6	0.24304566
64	0x3d87725a	0.06613608
65	0x3da4c3d4	0.08045164
66	0x3dbe6d74	0.0929822
67	0x3ce12116	0.027481597
68	0xbdcaaace	-0.0989586
69	0x3d72cc66	0.05927696
70	0xbce04248	-0.027375355
71	0x3e08ec69	0.13371433
72	0x3df49a04	0.11943439
73	0x3c8d060f	0.017214803
74	0x3d95c22a	0.073124245
75	0x3b9ef4d9	0.0048509655
76	0xbd689688	-0.056784183
77	0xbd46d7ab	-0.04854552
78	0x3e003cb5	0.12523158
79	0x3ca90c27	0.020635678
80	0x3df04bc3	0.117332004
81	0xbdf158fb	-0.1178455
82	0xbdb1d37f	-0.08682918
83	0x3d596624	0.053075925
84	0x3de292b6	0.11063139
85	0x3db0885b	0.08619758
86	0xbd7849fe	-0.06061744
87	0xbb96995f	-0.00459592
88	0x3d838ceb	0.06423362
89	0x3de1c57c	0.11023995
90	0xbca57f1c	-0.020202212
91	0x3d28afc2	0.04118324
92	0x3da5eb87	0.08101564
93	0xbced1017	-0.028938336
94	0x3d8a565b	0.06754752
95	0x3bf8cfce	0.0075931316
96	0xbcf0387d	-0.02932381
97	0x3e11f273	0.14252643
98	0x3e208ccc	0.1567871
99	0xbae5c673	-0.0017530456
100	0xbb569b29	-0.0032746291
101	0xbe11a26f	-0.1422212
102	0x3d19e213	0.037569117
103	0xbdfb73eb	-0.12277969
104	0xbd978fd2	-0.074004784
105	0x3daa2760	0.083082914
106	0x3dc1e52b	0.094675384
107	0x3deedc60	0.11663127
108	0x3ca79e1d	0.020461136
109	0x3c355da1	0.011069686
110	0xbde639d9	-0.11241502
111	0xbd538a79	-0.05164573
112	0x3d1ec3ae	0.038760833
113	0xbc397bda	-0.011321032
114	0xbe610ea3	-0.2197824
115	0xbe6bd1f1	-0.23029305
116	0xbe6c787d	-0.23092838
117	0xb9159e6c	-0.00014268764
118	0x3c043435	0.008069088
119	0xbe975fc0	-0.2956524
120	0x3ce6e9d3	0.028187668
121	0xbbc57240	-0.0060255826
122	0xbd5f5571	-0.054524843
123	0x3c8465c4	0.016161807
124	0x3dcb004d	0.09912167
125	0x3d7de26f	0.061983522
126	0xbe0a20d1	-0.13489081
127	0x3d7dca93	0.061960768
128	0xbd5bc85c	-0.053657874
129	0xbe6f0139	-0.2334031
130	0x3d9cdab8	0.07658905
131	0xbe5e4c54	-0.21708804
132	0xbe038682	-0.1284428
133	0xbd65efd1	-0.05613691
134	0xbe728214	-0.23682433
135	0xbdc50e15	-0.096218266
136	0x3ca1aaae	0.019734707
137	0x3d001101	0.031266216
138	0xbd8ac06e	-0.06774984
139	0xbe4158c8	-0.18881524
140	0xbea3760d	-0.31926003
141	0x3d0fdb4d	0.03512125
142	0xba213d44	-0.0006150792
143	0xbdab2579	-0.08356757
144	0x3d9e7777	0.0773763
145	0x3ad3e15d	0.0016165186
146	0xbe987879	-0.29779413
147	0x3db02633	0.08601036
148	0x3cec24de	0.028826173
149	0xbe64e9f1	-0.22354867
150	0x3cc7c131	0.024384113
151	0xbb3ecb76	-0.0029112971
152	0x3d1cde5f	0.038298007
153	0xbd804378	-0.06262869
154	0xbbefcdc4	-0.0073182303
155	0x3b1e86e3	0.0024189285
156	0x3d69d5a9	0.057088528
157	0x3dee09d9	0.11622972
158	0x3cb39697	0.021922393
159	0xbd6bae5e	-0.057539336
160	0x3da47427	0.08029967
161	0x3dac888b	0.08424481
162	0x3ddee0ae	0.10882698
163	0xbe09f565	-0.13472517
164	0xbce276c2	-0.027644519
165	0x3d9b1031	0.07571448
166	0xbe031bc3	-0.12803559
167	0xbd8f6835	-0.07002298
168	0xbcc19a61	-0.023633184
169	0xbe750464	-0.23927456
170	0xbe263b43	-0.16233544
171	0xbd3a99ba	-0.04555676
172	0x3c1cd3ad	0.009571952
173	0x3e115117	0.1419109
174	0xbda65bf2	-0.08123006
175	0xbc3bf0c7	-0.01147098
176	0x3e22ff6d	0.1591775
177	0x3d89acec	0.06722435
178	0xbd4a2e65	-0.04936065
179	0x3d2c7ac3	0.042109262
180	0x3d82f4b4	0.0639433
181	0x3d0a45f7	0.03375813
182	0x3dc42111	0.095766194
183	0x3b4305a5	0.0029758003
184	0x3ddb070f	0.10694706
185	0x3d5af753	0.053458523
186	0x3db3deae	0.08782707
187	0xbcd6d9c7	-0.026226891
188	0xbda51fd8	-0.08062714
189	0xbe23e2b4	-0.16004449
190	0x3ede6ad7	0.43440887
191	0x3d2c5d3f	0.042081114
192	0x3e4451e2	0.19171861
193	0x3e222bd0	0.15837026
194	0xbe05d65f	-0.13070057
195	0xbd5fd4bd	-0.054646242
196	0xbd67fd3e	-0.056637995
197	0xbdc1edc5	-0.09469179
198	0x3d47f6f2	0.04881949
199	0x3da75ebc	0.08172366
200	0x3e046384	0.12928587
201	0xbe2c36a8	-0.16817725
202	0x3d0efda7	0.03490987
203	0x3cf73b93	0.030179774
204	0xbd92d7a9	-0.0717004
205	0xbe0b7b2b	-0.13621204
206	0xbd5979e7	-0.05309477
207	0xbd830508	-0.06397444
208	0xbdabd895	-0.08390919
209	0xbdc59f20	-0.09649491
210	0xbb9c427a	-0.004768667
211	0xba399a00	-0.0007080138
212	0x3d98605e	0.074402556
213	0x3b943181	0.004522503
214	0xbd4858ab	-0.048912685
215	0xbd4fc1f2	-0.05072207
216	0xbb9faad8	-0.004872661
217	0x3daefb59	0.085440345
218	0x3c1aa907	0.009439713
219	0xbdac3245	-0.08408026
220	0x3dd867c2	0.10566665
221	0x3d7678e0	0.06017387
222	0x3e272e44	0.16326243
223	0x3b3312dc	0.0027324473
224	0x3df1cc9c	0.11806604
225	0x3d8600b9	0.065431066
226	0x3e0850ea	0.13312116
227	0xbe33d4eb	-0.1756169
228	0xbd89a596	-0.06721036
229	0x3db475bc	0.088115185
230	0xbe1ece16	-0.15508303
231	0xbe23adca	-0.15984264
232	0x3c306242	0.010765614
233	0xbcaa5ed0	-0.020797163
234	0xbd4adabd	-0.04952501
235	0x3e5a87d6	0.2134088
236	0xbd10ee90	-0.03538376
237	0x3e167047	0.14691268
238	0x3e1e10e2	0.15436128
239	0xbc0995b3	-0.0083975075
240	0x3e011e5c	0.12609237
241	0xbdb846cf	-0.08997881
242	0xbd1a7a85	-0.0377145
243	0x3ddb94ef	0.10721766
244	0xbca5eaf8	-0.020253643
245	0x3e10aa30	0.14127421
246	0xbc3bf50b	-0.011471997
247	0x3d2e6a99	0.04258213
248	0x3df7a1f4	0.12091437
249	0xbcf56895	-0.029957095
250	0xbda17698	-0.07883948
251	0xbe17380e	-0.14767477
252	0x3e182568	0.1485802
253	0xbdc31ed6	-0.09527366
254	0xbd66bd6a	-0.056332983
255	0x3e2b231d	0.16712613

encoder_faltten.1.cnn.bias f4 [16]
0	0xbb7b39f4	-0.0038334103
1	0xbcf90671	-0.03039858
2	0xbdf5c554	-0.12000528
3	0xbd7fc78f	-0.062446173
4	0x3dca7b70	0.09886825
5	0x3e315435	0.17317279
6	0xbe29c23f	-0.16578005
7	0x3e1a338e	0.15058729
8	0xbdfff4c9	-0.12497861
9	0xbd8787c5	-0.06617693
10	0xbe2e5655	-0.1702512
11	0x3e3d527d	0.18488498
12	0x3dac6ebc	0.084195584
13	0x3c132940	0.008982003
14	0x3df2f554	0.11863199
15	0x3bdfe06c	0.006832173

encoder_unfaltten.0.BachNorm.weight f4 [10]
0	0x3f800000	1.0
1	0x3f800000	1.0
2	0x3f800000	1.0
3	0x3f800000	1.0
4	0x3f800000	1.0
5	0x3f800000	1.0
6	0x3f800000	1.0
7	0x3f800000	1.0
8	0x3f800000	1.0
9	0x3f800000	1.0

encoder_unfaltten.0.BachNorm.bias f4 [10]
0	0x00000000	0.0
1	0x00000000	0.0
2	0x00000000	0.0
3	0x00000000	0.0
4	0x00000000	0.0
5	0x00000000	0.0
6	0x00000000	0.0
7	0x00000000	0.0
8	0x00000000	0.0
9	0x00000000	0.0

encoder_unfaltten.0.BachNorm.running_mean f4 [10]
0	0xbaa14248	-0.0012303079
1	0xbb41baa1	-0.0029560702
2	0x3cb88511	0.022524389
3	0x3d3f50de	0.04670798
4	0xbd43991f	-0.04775345
5	0xbc417589	-0.011807808
6	0xbcbb01f7	-0.022828085
7	0xbca2e82f	-0.019886104
8	0xbc20d3de	-0.009816138
9	0x3c53bf4d	0.012924028

encoder_unfaltten.0.BachNorm.running_var f4 [10]
0	0x3f66f66c	0.9021976
1	0x3f673602	0.90316784
2	0x3f673658	0.90317297
3	0x3f67d1b9	0.90554386
4	0x3f67673b	0.9039189
5	0x3f675613	0.90365714
6	0x3f674591	0.90340525
7	0x3f670ea0	0.9025669
8	0x3f670bcf	0.90252393
9	0x3f671fc7	0.90282863

encoder_unfaltten.0.cnn.weight f4 [10, 2, 3, 3]
0	0xbd973ac2	-0.07384254
1	0xbe4374ff	-0.19087599
2	0xbd51143c	-0.051044688
3	0xbdb942f0	-0.090459704
4	0xbd260b0c	-0.04053788
5	0xbe6ef07b	-0.23333924
6	0x3ddd6ffa	0.108123735
7	0x3e2f34c1	0.17109968
8	0x3cc07a78	0.023495898
9	0x3e0b3b0f	0.13596748
10	0x3c0b97e0	0.008520097
11	0x3e5ec911	0.21756388
12	0x3db2b112	0.0872518
13	0xbdb00f9a	-0.08596726
14	0x3dd9e93e	0.106401905
15	0x3db01f16	0.08599679
16	0xbb80f840	-0.0039358437
17	0x3d5ff69c	0.054678544
18	0xbe253472	-0.16133288
19	0xbd13b0bc	-0.03605722
20	0xbe0c49e0	-0.13700056
21	0x3e30778b	0.17233102
22	0xbbd9e5c0	-0.006649703
23	0x3dfd8ada	0.123799995
24	0x3e34ff1b	0.1767544
25	0x3d3baaac	0.045817062
26	0x3e5d200d	0.21594258
27	0x3df67e72	0.12035836
28	0xbe456042	-0.19275
29	0x3e3d7cb7	0.18504606
30	0xbe707dce	-0.2348549
31	0x3e4c0b8d	0.19926281
32	0x3e09d425	0.13459833
33	0x3b711800	0.0036787987
34	0xbceeff88	-0.029174581
35	0xbe2229e2	-0.1583629
36	0x3dd8b202	0.10580827
37	0xbe3fc364	-0.1872688
38	0x3d703934	0.058648303
39	0x3dc5ddfe	0.09661482
40	0x3df09e82	0.11748983
41	0x3e56743f	0.20942782
42	0xbe1af006	-0.15130624
43	0x3d4dd6ec	0.050253794
44	0xbe39460b	-0.18093126
45	0x3dc63366	0.09677772
46	0xbc9a9d20	-0.018873751
47	0xbe2204f4	-0.15822202
48	0x3e2542ad	0.16138716
49	0x3e187133	0.14886932
50	0xbe052d12	-0.13005474
51	0x3df8e902	0.12153818
52	0xbe22545d	-0.15852495
53	0xbcf23020	-0.029563963
54	0x3e116845	0.14199932
55	0xbe26dbbc	-0.1629476
56	0x3e2dcf95	0.16973718
57	0x3e3de2e9	0.1854359
58	0x3e1fd049	0.15606798
59	0xbe0c0d00	-0.13676834
60	0xbdabc3c6	-0.0838695
61	0x3df00f96	0.11721723
62	0x3e5202e1	0.2050891
63	0x3e229fe3	0.15881304
64	0x3e3de123	0.18542914
65	0x3dab06c2	0.08350898
66	0x3dac08a6	0.08400087
67	0xbd076c20	-0.0330621
68	0x3e225377	0.15852152
69	0xbc843cc8	-0.016142264
70	0x3e6560a7	0.22400151
71	0xbda784b4	-0.08179608
72	0xbe15f136	-0.14642796
73	0xbe222fe6	-0.15838584
74	0x3e0fb823	0.14035086
75	0xbe705763	-0.23470835
76	0x3e1caf49	0.15301241
77	0x3e40320f	0.18769096
78	0xbc858730	-0.016299814
79	0xbc38c1d0	-0.011276677
80	0xbe085fa3	-0.13317733
81	0x3e5c3633	0.2150505
82	0xbe2726f7	-0.16323458
83	0xbe2c025a	-0.16797772
84	0xbe68f63e	-0.22750184
85	0xbddc15ba	-0.107463315
86	0x3c9c0178	0.01904367
87	0xbd547a74	-0.051874593
88	0xbcd97b88	-0.026548162
89	0x3d76bdcc	0.0602396
90	0x3d91f9a2	0.07127692
91	0x3c2ac030	0.010421798
92	0x3de79f5a	0.11309691
93	0xbe449da6	-0.19200763
94	0x3d814442	0.06311847
95	0x3dc862e6	0.097844884
96	0x3e477c8b	0.19481103
97	0xbc074780	-0.008256793
98	0x3e1c5d7b	0.15270035
99	0x3e0691c7	0.13141547
100	0xbdb25aa6	-0.08708696
101	0xbe4a21a2	-0.19739392
102	0xbe59d5d6	-0.21272978
103	0xbe6e35b9	-0.23262681
104	0x3e67d659	0.22640361
105	0x3db212b6	0.08694975
106	0xbe702def	-0.23455022
107	0xbe5fca62	-0.21854547
108	0xbe21f332	-0.15815428
109	0x3e48deff	0.19616316
110	0xbe399784	-0.18124205
111	0x3c4ee3d0	0.012627557
112	0x3e509b9b	0.20371859
113	0x3d336bfc	0.043804154
114	0xbe0b55d7	-0.13606964
115	0xbdd53118	-0.104097545
116	0xbe0be496	-0.13661417
117	0x3c5b1590	0.01337184
118	0xbe5a9e4d	-0.2134945
119	0xbe6b172b	-0.22958057
120	0x3dbf553e	0.093424305
121	0xbd458628	-0.048223644
122	0x3e47975d	0.19491334
123	0xbd2bf064	-0.0419773
124	0x3e6b3261	0.22968437
125	0xbe0e500a	-0.1389772
126	0x3e106b73	0.14103489
127	0xbe1769d0	-0.14786458
128	0x3d639cb4	0.055569366
129	0xbe112e25	-0.14177759
130	0xbd557ef0	-0.05212301
131	0xbe429a42	-0.19004157
132	0xbe2b2abb	-0.16715519
133	0x3c94a0c8	0.018143073
134	0xbde0edf6	-0.109828874
135	0x3d125e24	0.03573431
136	0x3e3649c5	0.17801578
137	0x3e140fc9	0.14459147
138	0xbcd4f368	-0.025994971
139	0x3e02171b	0.12704127
140	0x3d6a8784	0.057258144
141	0xbd2f59f0	-0.04281038
142	0xbc46ad60	-0.012126297
143	0xbe6f3d5d	-0.23363252
144	0x3e1717fd	0.14755245
145	0xbe28f7a1	-0.16500713
146	0xbe6fe29b	-0.23426287
147	0x3deaac36	0.11458628
148	0xbe1458e3	-0.14487033
149	0xbcaee068	-0.02134724
150	0xbc8deab8	-0.017323837
151	0x3cfadd08	0.030622974
152	0x3d896c86	0.06710152
153	0x3e576457	0.2103437
154	0xbc9482e8	-0.018128827
155	0xbc9deb78	-0.01927732
156	0x3e6525df	0.22377728
157	0xbd0436bc	-0.03227876
158	0xbdbb2222	-0.0913737
159	0x3e0cc899	0.13748397
160	0xbe1536c5	-0.14571674
161	0xbd8b6be0	-0.06807685
162	0xbcd59130	-0.026070207
163	0x3e0063a3	0.12538008
164	0x3da03abe	0.07823704
165	0x3e5e5dff	0.21715544
166	0xbc26b2c0	-0.010174453
167	0x3e488855	0.19583257
168	0x3e4f8ecf	0.20269321
169	0x3d160c5c	0.03663288
170	0x3df96042	0.12176563
171	0xbc544ed0	-0.0129582435
172	0xbcf91a20	-0.030407965
173	0xbe13e722	-0.14443639
174	0x3d51bc94	0.051205233
175	0xbdcda58e	-0.10041343
176	0x3e50ff5f	0.20409916
177	0xbe6c9714	-0.23104507
178	0x3bb908a0	0.00564678
179	0xbd15e2d4	-0.036593273

encoder_unfaltten.0.cnn.bias f4 [10]
0	0xbde66447	-0.11249595
1	0xbe58bcda	-0.21165791
2	0x3e22299f	0.1583619
3	0xbdf8131e	-0.12113021
4	0xbe401cd5	-0.18760999
5	0xbc8063a0	-0.015672505
6	0xbd6fb324	-0.05852045
7	0xbd22e3cc	-0.039768025
8	0xbdb100f0	-0.08642757
9	0xbe1aec46	-0.15129194

encoder_unfaltten.1.BachNorm.weight f4 [16]
0	0x3f800000	1.0
1	0x3f800000	1.0
2	0x3f800000	1.0
3	0x3f800000	1.0
4	0x3f800000	1.0
5	0x3f800000	1.0
6	0x3f800000	1.0
7	0x3f800000	1.0
8	0x3f800000	1.0
9	0x3f800000	1.0
10	0x3f800000	1.0
11	0x3f800000	1.0
12	0x3f800000	1.0
13	0x3f800000	1.0
14	0x3f800000	1.0
15	0x3f800000	1.0

encoder_unfaltten.1.BachNorm.bias f4 [16]
0	0x00000000	0.0
1	0x00000000	0.0
2	0x00000000	0.0
3	0x00000000	0.0
4	0x00000000	0.0
5	0x00000000	0.0
6	0x00000000	0.0
7	0x00000000	0.0
8	0x00000000	0.0
9	0x00000000	0.0
10	0x00000000	0.0
11	0x00000000	0.0
12	0x00000000	0.0
13	0x00000000	0.0
14	0x00000000	0.0
15	0x00000000	0.0

encoder_unfaltten.1.BachNorm.running_mean f4 [16]
0	0xbd33e3a2	-0.04391826
1	0x3d39860d	0.045293856
2	0x3bc7841e	0.0060887476
3	0x3d90c08d	0.07067976
4	0x3d0b299e	0.033975236
5	0x3d7604b3	0.060063075
6	0x3caea2ab	0.0213178
7	0x3c309e58	0.01077994
8	0x3bb3db0d	0.0054887594
9	0xbd045cee	-0.032315187
10	0x3dc4deb2	0.09612788
11	0xba079466	-0.00051719544
12	0x3c3f8cba	0.011691267
13	0xbd247239	-0.040147994
14	0xbd20e2c2	-0.039278753
15	0x38bc3e38	8.976128e-05

encoder_unfaltten.1.BachNorm.running_var f4 [16]
0	0x3f6bbfcf	0.9208955
1	0x3f6c3bb7	0.9227862
2	0x3f6a0694	0.9141629
3	0x3f70a750	0.940053
4	0x3f68be94	0.909158
5	0x3f6cfa71	0.92569643
6	0x3f68f627	0.910006
7	0x3f6a3cbf	0.9149894
8	0x3f696434	0.9116852
9	0x3f693be7	0.9110703
10	0x3f7332ff	0.9499969
11	0x3f68bbb7	0.9091143
12	0x3f6a3842	0.9149209
13	0x3f6a41a7	0.9150643
14	0x3f6ab727	0.9168572
15	0x3f690196	0.91018045

encoder_unfaltten.1.cnn.weight f4 [16, 10, 3, 3]
0	0x3d71e112	0.059052534
1	0xbd7597ff	-0.059959408
2	0xbd97c460	-0.074105024
3	0x3c18c1e0	0.009323567
4	0x380bc800	3.3326447e-05
5	0x3d41f002	0.04734803
6	0xbd4c6a88	-0.049906284
7	0x3dd6b5fd	0.1048393
8	0xbd041afa	-0.03225229
9	0x3d42a22e	0.047517948
10	0xbc681180	-0.014164329
11	0xbdd438d4	-0.103624016
12	0x3d9d4cc9	0.07680661
13	0xbd9f5a50	-0.077808976
14	0xbdb79979	-0.089648195
15	0x3c765680	0.015035272
16	0x3d3b2686	0.045691036
17	0x3c56ff58	0.013122402
18	0x3ce8894c	0.02838578
19	0xbd79a9a0	-0.060952783
20	0x3d0ca472	0.034336515
21	0xbd248028	-0.04016128
22	0x3c92a208	0.017899528
23	0xbdcdb797	-0.100447826
24	0x3b706180	0.0036679208
25	0xbcb37534	-0.021906473
26	0x3c8805d8	0.016604349
27	0x3d917167	0.07101708
28	0xbc28be48	-0.010299273
29	0xbdc38160	-0.09546161
30	0x3d93441b	0.071907245
31	0xbdcfd8ca	-0.10148771
32	0xbd3dad54	-0.046307877
33	0x3c4da080	0.012550473
34	0xbc95ee48	-0.018302098
35	0x3d895519	0.06705684
36	0xbb270380	-0.0025484264
37	0x3da45a2f	0.08025014
38	0xbdcd647a	-0.1002893
39	0x3d4051ba	0.04695294
40	0xbdbb0ce4	-0.09133318
41	0xbcefc80c	-0.029270194
42	0x3d934b61	0.07192112
43	0x3bffa550	0.007801689
44	0xbc82d408	-0.015970245
45	0x3bc926f0	0.006138675
46	0x3d138fd2	0.03602583
47	0xbc0c2dc0	-0.0085558295
48	0xbdd7016a	-0.104983166
49	0xbd736426	-0.05942168
50	0x3d0ca846	0.034340166
51	0x3c073bf0	0.008254036
52	0x3db1e8b7	0.08686965
53	0x3d5ac23e	0.0534079
54	0xbd65718b	-0.056016486
55	0xbd7017fe	-0.05861663
56	0x3dd41e31	0.10357321
57	0xbc5c9860	-0.013464063
58	0x3ce6c584	0.028170355
59	0x3dc27b19	0.09496135
60	0xbd001422	-0.0312692
61	0xbd5cd102	-0.053910263
62	0xbd0841ea	-0.033265986
63	0xbd81dacb	-0.063405596
64	0xbdb2b87c	-0.08726594
65	0xbcd7d844	-0.02634824
66	0xba44c900	-0.0007506758
67	0xbd5118ff	-0.05104923
68	0xbbf56b30	-0.0074895844
69	0xbd928304	-0.071538955
70	0x3dd2d8a3	0.102952264
71	0xbd7063f1	-0.05868906
72	0x3daf935d	0.08573029
73	0xbd692c68	-0.056927115
74	0xbdae309a	-0.08505364
75	0xbda6b09e	-0.08139156
76	0x3d279116	0.04090985
77	0x3c3ba9d8	0.011454068
78	0xbdb213f6	-0.086952135
79	0xbc55ac68	-0.013041593
80	0xbd8702a6	-0.06592302
81	0x3d81749f	0.06321072
82	0xbd116952	-0.035500832
83	0xbd134c1e	-0.035961263
84	0x3d877e83	0.06615927
85	0x3dc71ae3	0.09721925
86	0xbd8f5d4e	-0.07000218
87	0xbd71c68d	-0.059027243
88	0x3cb005e4	0.021487184
89	0xbda4c83a	-0.08046003
90	0x3cf18a3c	0.02948486
91	0x3d884295	0.066533245
92	0x3d85a973	0.065264605
93	0x3d35dcd2	0.044400044
94	0x3da30163	0.07959249
95	0xbdbe5547	-0.09293609
96	0xbc968f38	-0.018378839
97	0xbd283654	-0.041067436
98	0x3ce8a49c	0.028398804
99	0x3d074dbe	0.033033125
100	0xbd86b536	-0.06577532
101	0x3d1a2d8e	0.0376411
102	0x3dbb8a67	0.091572575
103	0xbb8679a0	-0.0041038543
104	0xbdb1184e	-0.08647214
105	0xbcdf9130	-0.02729091
106	0x3d397aa6	0.045282982
107	0x3dcc1f0b	0.099668585
108	0x3dbacf5f	0.09121584
109	0xbd7a6f4f	-0.06114131
110	0xbd7436b1	-0.05962247
111	0x3dcd9cb9	0.10039658
112	0xbdb77b23	-0.08959033
113	0x3d84a723	0.06477191
114	0xbdac04c9	-0.0839935
115	0x3d0abcf2	0.0338716
116	0x3dc2413d	0.094850995
117	0xbd5d7bf8	-0.054073304
118	0xbd2a841c	-0.041629896
119	0x3da93c13	0.082634114
120	0xbd9ceacf	-0.07661974
121	0xbdd5efc2	-0.10446121
122	0x3da80ca3	0.08205535
123	0x3d3a7f62	0.045531638
124	0xbd5d4260	-0.05401838
125	0x3d5b89ee	0.053598337
126	0x3db64b9d	0.08901141
127	0x3dc324f9	0.09528536
128	0xb9c4d500	-0.0003754273
129	0x3da52c47	0.08065086
130	0x3d180872	0.03711743
131	0xbd41149a	-0.047138788
132	0xbda41f06	-0.0801373
133	0x3d0079ba	0.031366087
134	0xbc9434d8	-0.018091604
135	0x3d74c0aa	0.05975405
136	0x3d835f61	0.064146765
137	0x3d66f0f2	0.056382127
138	0x3ca32d3c	0.01991903
139	0xbd905a1c	-0.07048437
140	0x3dc4ce65	0.09609679
141	0xbd32b7e6	-0.04363241
142	0x3cfcb264	0.030846782
143	0xbb6d0c20	-0.0036170557
144	0x3da1703f	0.07882737
145	0xbda07f48	-0.07836777
146	0x3d38d15a	0.04512153
147	0x3d7a8a56	0.061167084
148	0xbd53b3de	-0.051685207
149	0x3dc24731	0.09486235
150	0xbdb554ad	-0.08854041
151	0xbcbc421c	-0.022980742
152	0x3d013b52	0.031550713
153	0xbd37d2d8	-0.04487881
154	0xbd8737c3	-0.066024326
155	0xbc2a9288	-0.010410912
156	0xbda00498	-0.07813376
157	0xbc58a7e0	-0.013223618
158	0x3dcf6bfb	0.101280175
159	0x3c05f100	0.008175135
160	0x3d1cdd46	0.03829696
161	0x3d85f19b	0.06540223
162	0x3c698788	0.014253505
163	0xbd021800	-0.03176117
164	0x3cce063c	0.025149457
165	0x3d39ca9e	0.045359246
166	0xbd7a6824	-0.061134472
167	0xbd27622a	-0.0408651
168	0x3d48f8f2	0.049065538
169	0x3c7b07f8	0.015321724
170	0x3d548c1a	0.051891424
171	0xbdc31b2a	-0.095266655
172	0x3d920c9d	0.07131312
173	0xbdc41c8f	-0.095757596
174	0x3d27d0a6	0.040970467
175	0x3dc43827	0.09581023
176	0xbcb75660	-0.022380054
177	0xbd907d1c	-0.07055113
178	0x3d7f1e72	0.062284894
179	0x3dbd2da3	0.0923722
180	0xbd8378e6	-0.06419544
181	0xbc9cfdd0	-0.019163996
182	0x3d061396	0.032733522
183	0x3d395886	0.04525044
184	0xbdbf694b	-0.09346255
185	0x3d9a8ebd	0.075467564
186	0x3dc214bf	0.09476613
187	0x3d40c01e	0.047058217
188	0x3dc70b61	0.09718967
189	0x3dca4c73	0.09877863
190	0xbdc6c49d	-0.0970547
191	0xbc5e2bc8	-0.013560243
192	0xbd00ff8c	-0.03149371
193	0x3dd7d48d	0.10538588
194	0xbc211ce8	-0.009833552
195	0xbd6aab5c	-0.057292327
196	0xbdad6bf8	-0.08467859
197	0xbc91b1dc	-0.017785005
198	0xbcd1a140	-0.025589585
199	0xbc9b194c	-0.01893296
200	0xbdba0ac6	-0.09084086
201	0x3cb5addc	0.02217763
202	0x3d96d0b5	0.073640265
203	0x3d95a7ad	0.07307372
204	0x3c823750	0.015895516
205	0x3dd028f9	0.10164065
206	0x3db56e45	0.08858923
207	0x3d92ce29	0.07168228
208	0x3c57ccb8	0.013171367
209	0xbd88131a	-0.06644268
210	0x3c83c9c4	0.01608742
211	0xbd996d85	-0.07491592
212	0xbd8acd7e	-0.06777476
213	0x3da39dc3	0.07989075
214	0x3dd13c9d	0.10216639
215	0xbc916030	-0.017746061
216	0x3d06f412	0.032947607
217	0x3b0a5440	0.0021107346
218	0xbcd01dc4	-0.025404818
219	0xbb28ed60	-0.0025776252
220	0x3d144a86	0.036203884
221	0xbd99927c	-0.07498643
222	0xbdd41b0b	-0.103567205
223	0x3c3d88b8	0.011568241
224	0x3db60b6d	0.08888898
225	0x3dbe6a7b	0.09297653
226	0xbd0b624c	-0.03402929
227	0xbcf8cc90	-0.03037098
228	0xbb2d4a20	-0.0026441887
229	0xbd77889f	-0.060433026
230	0xbc820d10	-0.01587537
231	0x3bcd4cc0	0.006265253
232	0x3d3def52	0.04637081
233	0x3d1fb5aa	0.038991608
234	0xbd26acd6	-0.040692173
235	0xbcf1abac	-0.029500805
236	0x3be831c0	0.007086009
237	0x3d26f9ce	0.040765576
238	0xbdce0ac6	-0.100606486
239	0xbd55fad2	-0.052241154
240	0x3dd34c55	0.103172936
241	0x3dc8a509	0.09797103
242	0x3ca7e164	0.020493217
243	0xbdc935a8	-0.09824687
244	0xbd89e474	-0.06733027
245	0xbce60124	-0.028076716
246	0x3dba3a3d	0.09093139
247	0x3d4e54fa	0.05037401
248	0x3c393cb0	0.011305973
249	0x3dc3b7d7	0.09556549
250	0x3c4fd788	0.012685664
251	0xbd8ccef0	-0.06875408
252	0x3b883c50	0.0041575804
253	0x3c86fc78	0.016477808
254	0xbd7b1d89	-0.061307464
255	0xbdcecb59	-0.10097379

encoder_unfaltten.1.cnn.bias f4 [16]
0	0xbd1e1d4a	-0.03860215
1	0xbd8ac87c	-0.067765206
2	0xbc10dd58	-0.008841835
3	0xbca0f428	-0.019647673
4	0x3ccce06c	0.025009356
5	0xbbfa0320	-0.007629767
6	0xbbc64760	-0.006050989
7	0xbd945992	-0.07243647
8	0x3dc15b33	0.09441223
9	0x3c40be38	0.011764102
10	0xbc9f06b0	-0.019412369
11	0x3d5d1966	0.0539793
12	0x3dd69be7	0.10478955
13	0x3dc36f69	0.09542734
14	0x3d912a2d	0.070881225
15	0xbda3a1ee	-0.0798987

embedding.weight f4 [10, 8]
0	0x3f774ac7	0.96598476
1	0xbf9a34e4	-1.2047391
2	0xbfd0bf4a	-1.6308377
3	0x3f775fc3	0.96630496
4	0x3f9a0880	1.2033844
5	0xbdd3686b	-0.103226505
6	0xbe308062	-0.17236474
7	0xbfa70645	-1.3048788
8	0xbfcfe1af	-1.6240748
9	0xbf118689	-0.5684591
10	0xbe711b7b	-0.23545639
11	0x3fd7271f	1.6808814
12	0x3faf0189	1.3672343
13	0x3ee23a72	0.44185215
14	0xbf5a436c	-0.8525913
15	0x3f0d5d75	0.5522073
16	0xbf9b59ba	-1.2136757
17	0xc0285901	-2.6304324
18	0xbf81d2cb	-1.0142454
19	0xbe5b782e	-0.21432564
20	0xbdeaf2a7	-0.114720635
21	0xc00a22f1	-2.1583827
22	0xbcdc2d1b	-0.026876977
23	0x3f59deb8	0.85105467
24	0x3f264987	0.64955944
25	0x3f9ef9aa	1.2419941
26	0xbf47a9b1	-0.77993304
27	0xbfa2ccaa	-1.2718709
28	0x3f3f5176	0.74733675
29	0xc010b8af	-2.2612722
30	0x3dbacd5c	0.091212004
31	0x3e9e694c	0.3093971
32	0x3f0f24b7	0.559154
33	0x3bc9d084	0.00615889
34	0xbf918bc6	-1.137078
35	0xbed986ac	-0.4248556
36	0xbf907e14	-1.1288476
37	0xbdfe2b4f	-0.12410604
38	0xbec3cf1a	-0.38243943
39	0xbe9765da	-0.29569894
40	0x3e0b7278	0.13617885
41	0xbf397c26	-0.7245506
42	0x3ede9b6f	0.4347796
43	0xbf2e1ae9	-0.6800981
44	0x3f458b53	0.77165717
45	0x3e1947dd	0.1496882
46	0xbf8ddb2b	-1.108251
47	0xbfc7cba8	-1.5609026
48	0x3f4aaea7	0.7917275
49	0xbfdac864	-1.7092404
50	0xbf90ea37	-1.1321477
51	0xc0177887	-2.3667314
52	0x3e958901	0.29206088
53	0x3e6d79cd	0.23190995
54	0xbeb4c9e8	-0.35310292
55	0x3f8a9818	1.0827665
56	0x3f53ab05	0.8268283
57	0xbf1e2f4b	-0.61790913
58	0x3f0a59c5	0.5404323
59	0x3f7053c3	0.9387781
60	0xbf821040	-1.0161209
61	0xbfdbbc13	-1.7166771
62	0xbfa43211	-1.2827779
63	0x3dddff97	0.108397655
64	0xbe90f62d	-0.28312817
65	0x3f45c250	0.7724962
66	0xbe9769b7	-0.29572842
67	0xbf0fc780	-0.5616379
68	0x3d6817dc	0.05666338
69	0x3e8b8bf4	0.27255213
70	0x3f59ce98	0.8508086
71	0xbd054111	-0.032532755
72	0x3f8e071b	1.1095918
73	0x3fba2139	1.4541389
74	0xbf920cf8	-1.1410208
75	0x3d0b2dae	0.03397911
76	0x3f4ff6e2	0.8123609
77	0xbe67b513	-0.22627668
78	0xbfde7b3f	-1.7381362
79	0x3f449162	0.76784337

decoder.1.BachNorm.weight f4 [16]
0	0x3f850fac	1.0395408
1	0x3f7400d1	0.95313746
2	0x3f6215f8	0.8831477
3	0x3f85701f	1.0424842
4	0x3f7d3d8d	0.98922044
5	0x3f7c18d7	0.984754
6	0x3f8b7582	1.0895236
7	0x3f7efd22	0.99605
8	0x3f6a0276	0.91410005
9	0x3f6ff565	0.9373382
10	0x3f5c454d	0.86043245
11	0x3f8ec77b	1.1154627
12	0x3f81ca83	1.0139927
13	0x3f6f66c8	0.93516207
14	0x3f6a61d8	0.9155555
15	0x3f891727	1.071019

decoder.1.BachNorm.bias f4 [16]
0	0xbe7b896f	-0.24564146
1	0xbdf19e7a	-0.11797805
2	0xbde23474	-0.11045161
3	0xbebcf4ab	-0.36905417
4	0xbe86e92e	-0.26349777
5	0xbe4a6e93	-0.19768743
6	0xbea69bb6	-0.32540673
7	0xbe2ff3cb	-0.17182843
8	0xbd8cb579	-0.06870551
9	0xbe6da659	-0.23207988
10	0xbe73d25a	-0.23810712
11	0xbe19183b	-0.1495065
12	0xbe30cb71	-0.17265107
13	0xbdab21e7	-0.08356076
14	0xbd4daf86	-0.05021622
15	0xbe76c286	-0.24097642

decoder.1.BachNorm.running_mean f4 [16]
0	0x3cc83d83	0.024443394
1	0xbe4a82fe	-0.19776532
2	0xbbdd920a	-0.006761794
3	0xbe0cd91f	-0.137547
4	0x3db31f1c	0.08746168
5	0x3d84551c	0.06461546
6	0xbe642ba0	-0.22282267
7	0x3d1fc8c3	0.03900982
8	0xbd9a7b62	-0.07543065
9	0xbd73ea70	-0.05954975
10	0xbd439c3c	-0.04775642
11	0xbdcb744a	-0.0993429
12	0xbde34c09	-0.11098487
13	0x3cb4207f	0.021988152
14	0xbd405fc8	-0.046966344
15	0x3cbd9a1e	0.023144778

decoder.1.BachNorm.running_var f4 [16]
0	0x3f03b4d2	0.51447785
1	0x3f1612cd	0.5862244
2	0x3f0e2399	0.5552307
3	0x3f0cb877	0.5496897
4	0x3f0f7472	0.56037056
5	0x3f171555	0.59016925
6	0x3f194ad6	0.59879816
7	0x3f16f4be	0.58967197
8	0x3ef48108	0.47754693
9	0x3f0d0b98	0.55095816
10	0x3efa5d9e	0.4889955
11	0x3f1df1ea	0.61697257
12	0x3f072bdb	0.52801293
13	0x3f18f91d	0.59755117
14	0x3f06a141	0.52589804
15	0x3f080ed5	0.5314763

decoder.1.cnn.weight f4 [16, 16, 6, 6]
0	0xbdc6af0f	-0.097013585
1	0x3d041337	0.032244887
2	0xbd45b5ab	-0.048268955
3	0xbe0a50d1	-0.13507392
4	0xbdfe186b	-0.12407001
5	0x3cf3b660	0.02975005
6	0x3d043363	0.03227557
7	0x3dfe0309	0.12402923
8	0x3d6b5b6f	0.057460245
9	0xbd1a618e	-0.03769069
10	0xbd2ffe92	-0.042967387
11	0xbde637c3	-0.112411045
12	0x3d8822d7	0.0664727
13	0xbda86667	-0.08222657
14	0x3c84a56b	0.016192159
15	0x3d9f957e	0.07792185
16	0xbdd4bacb	-0.103871904
17	0x3de3bac9	0.11119611
18	0xbd765d24	-0.06014742
19	0x3e418538	0.18898475
20	0xbde09c61	-0.10967327
21	0xbd1840ec	-0.03717129
22	0x3e0a40f0	0.13501334
23	0x3d275be0	0.040859103
24	0x3bea04c5	0.007141682
25	0x3dbfde12	0.093685284
26	0x3e3144f5	0.17311461
27	0x3d475278	0.048662633
28	0x3d0c4382	0.034244068
29	0x3d803c54	0.06261507
30	0xbdd0c9d5	-0.101947464
31	0xbc8d3905	-0.017239103
32	0xbd224a45	-0.03962161
33	0xbe04708d	-0.1293356
34	0x3d3a2dd3	0.045453858
35	0x3e15519e	0.14581916
36	0xbd67e62c	-0.056615993
37	0x3d9b238d	0.0757514
38	0x3c842984	0.016133077
39	0x3e3154c3	0.1731749
40	0xbdd0330b	-0.10165986
41	0xbd6e2e59	-0.05814967
42	0x3c7ccaa9	0.015429177
43	0x3e5d7970	0.21628356
44	0xbde9856d	-0.11402402
45	0xbe196513	-0.14979963
46	0xbdecbb0f	-0.11559116
47	0xbd4379f2	-0.047723718
48	0x3c938056	0.018005531
49	0x3bdd87b6	0.006760563
50	0xbb2bada9	-0.0026196039
51	0x3d0a138a	0.03371004
52	0x3dd4fa73	0.10399332
53	0x3e23e353	0.16004686
54	0x3e0423cd	0.12904282
55	0x3d1e587e	0.03865861
56	0xbe163d32	-0.14671782
57	0x3e0c26e2	0.13686708
58	0xbccbb244	-0.024865277
59	0x3d07a9e6	0.033121012
60	0xbcd8a9f0	-0.02644822
61	0x3e0210ad	0.12701674
62	0x3c1b3c85	0.009474878
63	0x3dbdec28	0.09273559
64	0xbccc0338	-0.024903879
65	0x3c4e7e1a	0.012603307
66	0xbdb28e59	-0.08718557
67	0x3d6d4e5b	0.057936054
68	0x3cf61610	0.030039817
69	0xbddcceeb	-0.10781654
70	0x3bcb03d3	0.0061955242
71	0xbd1afaa4	-0.037836686
72	0xbda6be96	-0.0814182
73	0x3dba3e7f	0.090939514
74	0xbe0d55a5	-0.13802202
75	0xbe197a67	-0.14988099
76	0xbe11d589	-0.14241613
77	0xbd88054c	-0.06641635
78	0xbde9372e	-0.11387478
79	0x3e8127bc	0.25225627
80	0x3c3efa78	0.011656396
81	0xbd01261a	-0.031530477
82	0xbdae7e7e	-0.0852022
83	0x3e70b6da	0.23507252
84	0xbe3657b0	-0.17806888
85	0x3cebd20f	0.028786687
86	0x3db95cf0	0.090509295
87	0x3dbad927	0.0912345
88	0x3dccdcb0	0.1000303
89	0x3e7ed402	0.24885562
90	0x3d8bc21c	0.06824133
91	0x3daa1c00	0.08306122
92	0xbd255d2b	-0.040372055
93	0x3a48b34a	0.00076561107
94	0xbd5e6617	-0.05429658
95	0x3db3d3fe	0.08780669
96	0xbc70c6a4	-0.014695797
97	0x3d96ea35	0.0736889
98	0x3caae220	0.020859778
99	0x3d5d715b	0.054063182
100	0xbcce4ebf	-0.025184033
101	0x3e11e41c	0.14247173
102	0x3da93d47	0.08263641
103	0x3db324af	0.08747231
104	0x3d2610a8	0.04054323
105	0xbe1c526a	-0.15265813
106	0x3d50ed02	0.05100728
107	0x3cd2b0ba	0.025719035
108	0x3e08c157	0.13355003
109	0xbd949c3a	-0.0725636
110	0xbddfeda2	-0.10933997
111	0xbd47f93c	-0.048821673
112	0x3d9e0866	0.077164456
113	0xbe133627	-0.14376126
114	0xbd930e7d	-0.07180498
115	0x3d198d2c	0.037488148
116	0x3e1e6cd1	0.15471198
117	0x3bb9e18d	0.0056726397
118	0x3ddc28dc	0.10749981
119	0x3d7cc0de	0.06170737
120	0x3d37e920	0.04490006
121	0x3da81963	0.08207967
122	0x3dfdf163	0.123995565
123	0xbca8eb75	-0.020620087
124	0xbd09acdc	-0.033612117
125	0xbda7e4af	-0.08197915
126	0x3d85c1f7	0.065311365
127	0xbe120bcf	-0.14262317
128	0xbcf65711	-0.030070813
129	0x3dffb7eb	0.124862514
130	0xbdba2604	-0.09089282
131	0x3da3813d	0.079836346
132	0xbe2e44b2	-0.17018393
133	0xbc1e0c20	-0.0096464455
134	0xbcf91886	-0.030407201
135	0xbc7b4dc9	-0.01533837
136	0xbdda4933	-0.10658493
137	0x3e1aa4a8	0.15101874
138	0x3c20fa9e	0.009825377
139	0x3e0a9ccd	0.13536377
140	0x3d1000c0	0.035156965
141	0x3d9792fc	0.07401082
142	0xbdceac20	-0.10091424
143	0x3ceb2876	0.028705817
144	0xbe3cbc55	-0.18431218
145	0x391a927c	0.00014741154
146	0xbd2f8226	-0.04284873
147	0xbd2ee1e9	-0.042695913
148	0xbe0f88f6	-0.1401709
149	0x3d4ab0f1	0.04948515
150	0x3c7ca13c	0.015419301
151	0xbdae3793	-0.08506694
152	0xbd90adf4	-0.07064429
153	0xbd16790f	-0.036736544
154	0x3e25ed89	0.16203894
155	0x3d1220cf	0.03567582
156	0x3de1eb3f	0.11031198
157	0x3ddab79d	0.10679553
158	0x3de1df97	0.110289745
159	0xbdf4331f	-0.11923813
160	0x3d061bbc	0.032741293
161	0x3dc8b0e8	0.09799367
162	0xbe0a2ed8	-0.13494432
163	0x3d6846f1	0.05670828
164	0x3d0638bf	0.03276896
165	0xbd28aec4	-0.041182294
166	0xbc1c3699	-0.0095345015
167	0x3dec83df	0.1154859
168	0xbd00c6fb	-0.031439763
169	0xbd2a0c84	-0.041515842
170	0xbd64ff3d	-0.055907477
171	0xbd965850	-0.07341063
172	0x39f476d0	0.0004662783
173	0x3ea8d57a	0.3297537
174	0x3e0ff404	0.14057928
175	0x3d9af901	0.07567025
176	0xbe0d8988	-0.13821995
177	0xbe37e27b	-0.17957489
178	0xbde3214a	-0.11090334
179	0x3e62a569	0.22133411
180	0x3bc586d1	0.0060280343
181	0x3da15d35	0.07879106
182	0xbe7cd7b2	-0.24691656
183	0x3dcc0c43	0.09963276
184	0xbe04cd53	-0.1296895
185	0x3d9c6733	0.07636871
186	0x3dc58d0b	0.096460424
187	0xbd9b12a1	-0.075719126
188	0xbdaff6e7	-0.08592015
189	0x3cd78569	0.026308732
190	0xbd6c2f63	-0.05766238
191	0x3e00023d	0.12500854
192	0x3bb4c18d	0.005516237
193	0xbde1a9a9	-0.11018688
194	0x3dd5b7f9	0.104354806
195	0xbd84d419	-0.06485767
196	0x3e313898	0.17306745
197	0x3daa8a2b	0.08327135
198	0xbda399e3	-0.07988336
199	0x3c5e93b4	0.01358502
200	0x3e713c8f	0.23558258
201	0xbb112e30	-0.0022152774
202	0x3e3ca8f4	0.18423826
203	0xbdc60b54	-0.096701294
204	0xbe43ea16	-0.19132265
205	0x3db86f86	0.090056464
206	0xbc265841	-0.010152877
207	0xbddccc1e	-0.1078112
208	0x3d83b229	0.06430466
209	0xbdc11959	-0.09428663
210	0xbe1b2f4c	-0.15154761
211	0x3de85143	0.113436244
212	0x3d8a6af3	0.0675868
213	0x3d2de36a	0.042453207
214	0xbe29de56	-0.1658872
215	0xbda5c955	-0.08095042
216	0xbd39109a	-0.045181848
217	0x3db4966b	0.088177525
218	0x3e94208e	0.28931087
219	0xbc76de91	-0.015067712
220	0x3dbf49d7	0.09340256
221	0x3db9dfff	0.09075927
222	0x3da73779	0.081648774
223	0xbe48fdce	-0.19628069
224	0xbcd09afc	-0.025464527
225	0xbd3ab500	-0.04558277
226	0x3d0b12a1	0.033953313
227	0x3e8200ab	0.25391135
228	0xbd189200	-0.03724861
229	0xbad8f716	-0.001655313
230	0x3d8c712a	0.06857522
231	0x3dd7b0ee	0.105317935
232	0x3cfe164b	0.03101649
233	0xbb69a503	-0.0035651333
234	0x3d97e5f8	0.0741691
235	0x3dc5419b	0.09631654
236	0x3d880c61	0.06642986
237	0x3dad1720	0.08451676
238	0x3e21e19a	0.15808716
239	0xbd03620b	-0.032075923
240	0xbe0a5a96	-0.13511118
241	0xbd66ecb2	-0.056378074
242	0xbcfcfa25	-0.030880997
243	0x3e2e813f	0.17041491
244	0x3d9785a1	0.073985346
245	0x3da760a4	0.081727296
246	0xbd0903c2	-0.03345085
247	0x3b06d46f	0.0020573398
248	0x3ce0c9e0	0.027440012
249	0xbd2b4ecf	-0.041823205
250	0x3d94a575	0.07258121
251	0xbb4aca3b	-0.0030943293
252	0x3dc7dc95	0.097588696
253	0xbd17c3d0	-0.037051976
254	0x3cd80f2f	0.026374428
255	0xbd39e823	-0.0453874

decoder.1.cnn.bias f4 [16]
0	0x3d9c837d	0.07642267
1	0xbdb0fc63	-0.08641889
2	0x3e413024	0.1886602
3	0xbd81ca07	-0.06337362
4	0x3dc8b4d8	0.09800118
5	0x3d210d32	0.039319225
6	0xbde1d4e0	-0.11026931
7	0x3d5622c5	0.052279253
8	0xbd0f7905	-0.035027523
9	0xbc3f00ef	-0.011657937
10	0x3ce82af9	0.028340803
11	0xbdc9faef	-0.09862315
12	0xbd99d9f2	-0.07512273
13	0x3da2c82c	0.07948336
14	0xbdb1ccff	-0.08681678
15	0xba10f400	-0.0005529523

decoder.2.BachNorm.weight f4 [10]
0	0x3f801144	1.0005269
1	0x3f657501	0.8963166
2	0x3f3fe58b	0.7495963
3	0x3f83895c	1.0276294
4	0x3f824227	1.0176438
5	0x3f8682ba	1.0508645
6	0x3f813f2e	1.0097406
7	0x3f9ae871	1.2102185
8	0x3f5bdf3c	0.85887504
9	0x3f8955dd	1.0729328

decoder.2.BachNorm.bias f4 [10]
0	0xbd570e0e	-0.052503638
1	0xbe73822a	-0.23780122
2	0xbe80a397	-0.2512481
3	0xbe8aebd9	-0.27133062
4	0xbe8f8c8e	-0.28036922
5	0xbe433748	-0.19064057
6	0xbe29dfed	-0.16589327
7	0xbe42bd13	-0.19017439
8	0xbdc69eff	-0.09698295
9	0xbec29cd2	-0.3801027

decoder.2.BachNorm.running_mean f4 [10]
0	0x3ebaee69	0.36510018
1	0xbda0ea8e	-0.07857238
2	0xbe0d2098	-0.13781965
3	0xbd27bb28	-0.04094997
4	0x3deb7877	0.11497586
5	0x3e6e6ae3	0.23282962
6	0x3f074c6e	0.52851
7	0x3ea16349	0.3152106
8	0x3ecea786	0.40362185
9	0xbd8c74d1	-0.068582185

decoder.2.BachNorm.running_var f4 [10]
0	0x3f01b6ca	0.5066954
1	0x3ea408b0	0.32037878
2	0x3ec846aa	0.39116412
3	0x3ed56d7f	0.416851
4	0x3ecf9176	0.40540665
5	0x3eb807d6	0.35943478
6	0x3f29d28b	0.6633689
7	0x3f06ab07	0.52604717
8	0x3ec77159	0.38953665
9	0x3f046b76	0.5172647

decoder.2.cnn.weight f4 [16, 10, 6, 6]
0	0x3da9e06d	0.08294759
1	0xbd5862a4	-0.052828446
2	0xbd371317	-0.04469594
3	0x3d03d0ac	0.032181427
4	0xbbe0fe26	-0.0068662344
5	0x3db7cdd2	0.08974804
6	0xbd0cae22	-0.034345753
7	0x3d0cafa3	0.034347188
8	0x3cc431e1	0.023949565
9	0x3e444067	0.19165193
10	0x3c980751	0.018558176
11	0xbdacf097	-0.08444326
12	0xbd902dba	-0.07039972
13	0x3c4a7bd3	0.012358624
14	0x3d0a8bab	0.033824604
15	0x3e2a35fd	0.16622157
16	0x3dc615db	0.09672137
17	0xbe82a701	-0.2551804
18	0x3cea954e	0.028635647
19	0xbaa0ca6f	-0.0012267361
20	0x3e1f9217	0.15583073
21	0x3e52cc24	0.20585686
22	0x3d523fc1	0.05133033
23	0xbe4997f4	-0.19686872
24	0x3dd08848	0.101822436
25	0x3d8a017d	0.06738565
26	0x3ded53be	0.11588238
27	0x3d927b5f	0.071524374
28	0x3d5946e7	0.053046133
29	0x3c0dc245	0.0086522745
30	0x3d62b191	0.05534512
31	0xbb06e996	-0.0020586005
32	0x3d85ed5a	0.06539412
33	0xbcaab0f1	-0.020836325
34	0x3bb3b81c	0.005484594
35	0xbb5abfa9	-0.0033378399
36	0x3da8d781	0.08244229
37	0xbd3a6a38	-0.045511454
38	0x3e01fa5c	0.12693161
39	0xbd206f6c	-0.03916876
40	0xb90da42c	-0.00013507967
41	0xbd52ecf9	-0.051495526
42	0x3e0d1b5e	0.13779971
43	0x3dc5fa26	0.09666853
44	0x3e47d730	0.19515681
45	0x3d84d00b	0.064849935
46	0x3dfe9a56	0.12431781
47	0xbdac144a	-0.08402307
48	0xbd790a98	-0.06080112
49	0xbd6d2bdb	-0.057903152
50	0x3da73993	0.08165278
51	0xbbbf255e	-0.005833312
52	0x3c9fff5f	0.01953095
53	0xbbe70276	-0.007049854
54	0xbe1b925d	-0.15192552
55	0xbcb0459f	-0.021517573
56	0x3dcf5c18	0.10124987
57	0xbcfd6934	-0.030933954
58	0xbd9aa2d6	-0.0755059
59	0x3e59dfb3	0.2127674
60	0xbce28dee	-0.027655568
61	0xbc862199	-0.016373442
62	0x3ca79d9e	0.0204609
63	0x3ce20b4c	0.027593277
64	0xba459bdc	-0.00075381785
65	0x3e0bf826	0.1366888
66	0xbd91d723	-0.07121112
67	0x3e09e38d	0.1346571
68	0x3cad2896	0.021137517
69	0xbdb2c2b5	-0.08728544
70	0x3d026558	0.03183493
71	0xbe0fbf33	-0.1403778
72	0xbdd245bb	-0.10267206
73	0xbcc7fb22	-0.024411742
74	0x3df79bca	0.12090261
75	0xbcc1a6a0	-0.023639023
76	0x3cf86897	0.03032331
77	0x3d01c82f	0.03168505
78	0xbc9eed4d	-0.019400263
79	0x3c7be140	0.015373528
80	0x3cac01e9	0.020997005
81	0xbdcb4b7b	-0.09926506
82	0x3d7136f5	0.0588903
83	0x3c3b22f2	0.011421906
84	0xbd007892	-0.031364985
85	0x3d9ce731	0.07661284
86	0xbca75a32	-0.02042875
87	0xbe34cd63	-0.17656474
88	0x3cc4bf3f	0.024016974
89	0x3e6c290b	0.23062532
90	0x3d824a6c	0.06361851
91	0xbcdf52ff	-0.027261255
92	0xbe156c7c	-0.14592165
93	0xbe250c87	-0.1611806
94	0x3db6f53d	0.08933494
95	0x3e178f30	0.14800715
96	0xbd578045	-0.05261256
97	0xbd69cecc	-0.057081982
98	0xbe817f32	-0.25292355
99	0xbc81ec61	-0.015859785
100	0x3db4ac10	0.08821881
101	0x3d89f7e1	0.06736732
102	0xbe2cf173	-0.1688898
103	0xbd1ecac1	-0.03876758
104	0x3dd9fdfc	0.10644147
105	0x3e112581	0.14174463
106	0x3e106e7e	0.1410465
107	0x3bbb578e	0.0057172244
108	0xbdb56a51	-0.08858169
109	0x3e443623	0.19161277
110	0x3ce6e92c	0.028187357
111	0x3e34f886	0.17672929
112	0x3cb4cd6a	0.022070605
113	0x3da1a77c	0.07893273
114	0xbd423764	-0.047416106
115	0x3d07e5bb	0.033178072
116	0x3d4e1ca7	0.050320294
117	0x3de8257b	0.11335274
118	0x3de0116e	0.109408244
119	0xbe47ddaa	-0.19518152
120	0x3c495caa	0.012290159
121	0x3e30307e	0.17205998
122	0xbd47d52f	-0.048787292
123	0x3c414033	0.011795091
124	0xbdb8518f	-0.08999931
125	0xbd5b3067	-0.053512957
126	0x3cd40177	0.025879605
127	0xbb235c65	-0.0024926898
128	0x3d994126	0.07483129
129	0xbe265bb5	-0.16245921
130	0x3d391210	0.04518324
131	0x3d710118	0.058838934
132	0xbdb0bf4a	-0.086302355
133	0x3d56ef22	0.05247415
134	0x3e4b4707	0.19851314
135	0x3e01e29a	0.12684098
136	0xbe1bc749	-0.1521274
137	0x3d0f1139	0.034928534
138	0xbdd3f0fb	-0.10348698
139	0x3d713d64	0.058896437
140	0x3d1c0fa8	0.03810087
141	0xbbaf50fd	-0.0053502307
142	0x3b105cb1	0.0022027905
143	0xbc96a61f	-0.01838976
144	0x3c9ad334	0.018899538
145	0xbcfe4102	-0.031036858
146	0xbcb7cefc	-0.022437565
147	0xbe123332	-0.14277342
148	0xbd5f5f30	-0.054534137
149	0x3ceda1be	0.029007789
150	0xbc26750a	-0.01015974
151	0xbe42bc1f	-0.19017075
152	0xbe400764	-0.1875282
153	0xbc4a54d8	-0.01234933
154	0x3d63b8ce	0.055596165
155	0x3d00c124	0.031434193
156	0x3d5980d6	0.053101383
157	0xbd907b96	-0.07054822
158	0xbe8ddf2c	-0.2770933
159	0xbda08dfc	-0.07839581
160	0x3e196060	0.1497817
161	0x3e088531	0.13332058
162	0xbe8a8f88	-0.2706263
163	0xbea5adc9	-0.3235915
164	0xbdaae136	-0.08343737
165	0x3e3eb3e9	0.18623318
166	0x3dfbb909	0.12291152
167	0xbc8d18fd	-0.01722383
168	0xbc93ed03	-0.018057352
169	0xbdbfe8f2	-0.09370603
170	0x3d01fc3b	0.031734686
171	0x3d8be038	0.06829876
172	0x3d0d32b0	0.034472167
173	0x3dcb0588	0.099131644
174	0x3ce3c4ce	0.027803805
175	0x3c0f601c	0.008750942
176	0xbcac342f	-0.021020977
177	0x3cda04d8	0.026613638
178	0x3db55e8e	0.088559255
179	0x3d9ee2c8	0.07758099
180	0xbd9c52d4	-0.07632986
181	0xbc9dc71b	-0.01925998
182	0xbc7ba47e	-0.015359042
183	0xbdebec04	-0.11519626
184	0xbe1d2cef	-0.15349172
185	0x3d078133	0.0330822
186	0xbc7b8167	-0.015350676
187	0xbe363f1c	-0.17797512
188	0x3d10aa4b	0.035318654
189	0x3dbaec9e	0.091271624
190	0xbd980025	-0.074219026
191	0xbd23ca85	-0.03998806
192	0xbd38ee0e	-0.0451489
193	0x3e1153da	0.14192143
194	0xbcc97c95	-0.024595538
195	0xbe57ed1a	-0.21086541
196	0xbdb4ec51	-0.08834136
197	0x3e1a7ad6	0.1508592
198	0xbc4241e2	-0.011856528
199	0xbe378f5f	-0.17925785
200	0xbbeae835	-0.0071687945
201	0x3da4dd05	0.08049969
202	0x3c19abea	0.009379366
203	0x3cbfed26	0.02342851
204	0x3be1e86b	0.0068941615
205	0x3d813f7a	0.06310935
206	0x3e359743	0.17733483
207	0xbe006b01	-0.12540819
208	0xbd16b635	-0.03679486
209	0x3dffdd1e	0.12493347
210	0x3d2d795f	0.042352077
211	0x3cb9b525	0.022669384
212	0xbde17fa9	-0.11010677
213	0xbe2d1673	-0.16903095
214	0x3c7bf7a7	0.015378869
215	0x3c2b388d	0.0104504945
216	0xbce29a94	-0.0276616
217	0xbd8e7e78	-0.06957716
218	0xbd40adf3	-0.04704089
219	0xbe0ab04d	-0.13543816
220	0x3c1ee84f	0.009698941
221	0x3d643371	0.05571312
222	0x3d9648a9	0.073380776
223	0x3e3aa5c2	0.18227294
224	0x3dda874e	0.106703386
225	0xbd18bcd0	-0.03728944
226	0xbe20874c	-0.15676612
227	0x3e563e94	0.20922309
228	0x3dd72bf1	0.10506428
229	0x3e4fd3cb	0.20295636
230	0x3dd157d3	0.10221829
231	0xbdbf2e24	-0.093349725
232	0x3e26aef4	0.16277677
233	0x3e27ff5e	0.16406009
234	0xbcd3d613	-0.025858914
235	0x3da9e856	0.08296268
236	0x3e143287	0.144724
237	0x3dcac03a	0.098999456
238	0x3dcf5799	0.1012413
239	0xbe07b381	-0.13252069
240	0x3d8a4030	0.06750524
241	0xbce70ad5	-0.028203407
242	0x3dd4e346	0.103949115
243	0xbd476f6c	-0.048690245
244	0x3d1d9a7c	0.038477406
245	0xbd753803	-0.05986787
246	0xbd3cb83a	-0.04607413
247	0x3bf85df6	0.0075795604
248	0xbdb40807	-0.087905936
249	0x3d4967be	0.049171202
250	0x3c594edf	0.013263433
251	0xbb8871d1	-0.0041639586
252	0xbd474c23	-0.048656594
253	0xbd2a002e	-0.041504078
254	0x3e2d6ba7	0.16935597
255	0x3d9a241b	0.07526418

decoder.2.cnn.bias f4 [10]
0	0xbc898ad8	-0.016789839
1	0xbd6a0ac1	-0.057139162
2	0xbd774c2f	-0.06037539
3	0xbc1b34e7	-0.009473062
4	0x3dbda6a9	0.092603035
5	0x3e80973b	0.2511538
6	0x3e128301	0.14307787
7	0x3d816642	0.06318332
8	0x3d49f81f	0.049308892
9	0x3cfc430c	0.03079369
