AutoEncoders/Conditional_VAE/saved_model/model1.pth (torch, 99005 bytes, 44 tensors)

encoder_faltten.0.BachNorm.weight f4 [10]
00000000: 6e50 713f f86f 623f d58f 6a3f d984 7b3f
00000010: 2875 7b3f 60e8 7e3f 0997 8d3f e7a7 803f
00000020: e655 813f 4eaa 693f
0.9426335 0.884521 0.9162572 0.98249584 0.9822564 0.99573326 1.1061717 1.005124
1.0104339 0.9127549

encoder_faltten.0.BachNorm.bias f4 [10]
00000000: 4d37 94bd 552f 0cbe 771b cc3d 5f1c 94ba
00000010: 1cf6 203e 8d64 4f3e 1b5c b43e 67ca f23e
00000020: 6371 eb3e b5cc 16bd
-0.0723711 -0.1368993 0.09966176 -0.0011299959 0.15718883 0.20253201 0.3522652 0.47420046
0.45984945 -0.036816318

encoder_faltten.0.BachNorm.running_mean f4 [10]
00000000: 4059 afbf c556 afc0 e1b6 c5bf 8b38 84bf
00000010: 1750 123e 127c d03c 9c59 de3e 6211 bb3d
00000020: 3001 e53c cec3 87c0
-1.3699112 -5.479342 -1.5446435 -1.0329756 0.14288364 0.025449786 0.43427742 0.09134175
0.027954668 -4.242652

encoder_faltten.0.BachNorm.running_var f4 [10]
00000000: 6789 a33f 7817 6f41 f349 ce3f ad17 8c3f
00000010: 755a 813f c4b1 3e3f 97e9 f33f 05fc bc3f
00000020: 0dca 813f e20a 2141
1.2776307 14.94323 1.6116318 1.0944725 1.010573 0.7449 1.9055661 1.476441
1.0139786 10.065157

encoder_faltten.0.cnn.weight f4 [10, 2, 3, 3]
00000000: f64a a1bd 4f61 40be 69ea e2bc e77d ba3c
00000010: 9281 f5bd fa26 0e3e 66c7 893d f930 4c3e
00000020: eabc 573d e127 5fbc 455a a1bd 265d 57be
00000030: 7120 5fbe ff5e 6cbc b65b 213e fea0 363d
00000040: ed8d 48be e948 493e daf1 f3bc b248 1b3e
00000050: 971c 03be 059b 173d 1a7f 813c 9d5e 433e
00000060: 1308 463e a038 ae3d 1d2a 5f3e a50a 4abe
00000070: 6767 3fbe afb6 68be dc49 0abd 644d 61be
00000080: 971f 6cbe 49a4 78be 1a86 49be ffdb 403e
00000090: e593 aabe fe02 14be 98f4 a7bc d119 283d
000000a0: 38a3 dcbd b1ac 843e 972a 4cbe bcef 8abe
000000b0: 83e1 6f3d e5b5 373d 5ea7 2e3e ddc7 17be
000000c0: 7c50 10be 0957 c03d 7ea0 d8bd 45fe e6bd
000000d0: 4922 6abd d4cd e2bd 5540 e03d 37a6 c1bc
000000e0: 2872 32bb 7b49 513d e801 20be 25d4 98bd
000000f0: afa6 8f3c cba4 46be 110b 87be d38f d3bd
00000100: 0b90 07be a8c2 af3d 6154 d73d 0317 63be
00000110: 85f6 01be 4430 9f3d 244b fc3c 126c bb3c
00000120: 9cab ccbd 739e 3b3e a156 e73e 53aa dbbd
00000130: 4c59 0f3e ca5d 173e 4c7c 03be 838e c0bd
00000140: f5bc 91bd 37d3 403d aee4 693e b73c 423e
00000150: 8c2a 88bd 96e8 22be cb39 563e 0703 20be
00000160: 7f33 9dbd 30fe 5abe 223e 0ebd fa5e b7be
00000170: 05c1 94be 45c3 43bd 80d0 0abe 679c 3cbe
00000180: d1a0 8b3e 3855 143d e566 10be 4d2e bbbd
00000190: de29 f73c b503 553e e8bc 75be a588 ee3d
000001a0: 69ac 5dbe f228 423e 2cf5 8ebb 3edf fc3c
000001b0: 1188 813d 5516 2cbc 1f08 abbc 38c7 c8be
000001c0: b17d ccbd fbc8 75be 2d25 efbe d744 a8be
000001d0: 386b c8bd 9eab 4e3e 85f4 3a3d 375b f2bc
000001e0: 013c 633d 7a97 4dbe 29da c63d 2bd7 793e
000001f0: ac16 dfbd 53a4 44be b560 973e 8d9e 373e
00000200: 5c06 67bc 691d e53e fc61 3b3c 6e76 37bd
00000210: 5a4e cd3e 8dbb 113e 1bbd 7dbc 5dfb b23d
00000220: 2d0c ea3d 30de 14be 9a78 3d3e d0a1 3ebe
00000230: 7147 9b3d e631 2c3e f924 23be 5e85 0dbe
00000240: 7042 94bc 5cff 19bd e97b 1d3d 812e 173d
00000250: 5af2 493d 9ad2 553e 3113 cc3d 2673 7b3e
00000260: 916c ef3e 03e8 7fbd 83be 61be 4f12 9a3d
00000270: 1585 94bc 1b08 203e b0a3 40be e9aa 8fbd
00000280: 48a3 1c3e 75b3 263e 8f00 b33c 9639 a03d
00000290: 6e08 12bd ecfc fbbc a3e4 553e e240 17be
000002a0: 61a3 81be 27aa fe3d 9486 233e 7c26 b53d
000002b0: f5cb 9ebe b22f 45be bd83 88be 9cfe 82be
000002c0: 9eef 2bbe 670d 8abd c323 bb3d fdb9 23bc
-0.07875626 -0.1878712 -0.027699666 0.022765113 -0.11987604 0.13882056 0.06727485 0.19940557
0.052670397 -0.013620348 -0.07878546 -0.21031627 -0.21789719 -0.014426946 0.15757641 0.044587128
-0.1958539 0.1965672 -0.02977841 0.1516445 -0.12803875 0.037013073 0.015807677 0.19079061
0.19339018 0.08506894 0.21793409 -0.19730623 -0.18691789 -0.22725938 -0.033761844 -0.22002178
-0.23058926 -0.2428142 -0.19680062 0.18833922 -0.3331596 -0.14454266 -0.020502374 0.041040245
-0.10773319 0.25913003 -0.19938122 -0.27136028 0.058564674 0.044851203 0.17056033 -0.14822336
-0.14093202 0.09391601 -0.105774865 -0.11278967 -0.057161603 -0.11074415 0.1094977 -0.023638828
-0.0027228687 0.051095467 -0.15625727 -0.07462338 0.017535536 -0.19398801 -0.2637563 -0.10330167
-0.13238542 0.085820496 0.10514141 -0.22176747 -0.12691696 0.07772878 0.030797549 0.02287868
-0.099936694 0.18322162 0.4518328 -0.10725846 0.13998908 0.14781871 -0.12840384 -0.09402182
-0.07116119 0.04707643 0.2284114 0.18968473 -0.0664874 -0.15909037 0.20920484 -0.15626155
-0.07675838 -0.21386027 -0.034727223 -0.3581465 -0.29053512 -0.047793645 -0.13556099 -0.18419038
0.2727113 0.036214083 -0.14101751 -0.091396905 0.030171331 0.20802195 -0.23997843 0.116471566
-0.216478 0.18960932 -0.004362723 0.030868169 0.06324781 -0.010503371 -0.020877896 -0.39214492
-0.09984911 -0.24002449 -0.4670805 -0.3286502 -0.09786075 0.20182654 0.04564335 -0.02958451
0.055477146 -0.20077315 0.097095795 0.24398486 -0.10892996 -0.1920331 0.2956597 0.17931576
-0.014100637 0.44749 0.0114369355 -0.044790678 0.4009884 0.14231701 -0.015486981 0.0873935
0.114281036 -0.14537883 0.18503037 -0.18616414 0.07581986 0.1681591 -0.15932073 -0.13820407
-0.018098086 -0.037597045 0.038448248 0.036909584 0.04930339 0.2088112 0.09964598 0.24555644
0.46762517 -0.062477123 -0.2204533 0.07523023 -0.018129865 0.15628092 -0.18812442 -0.070150204
0.15296662 0.16279395 0.021850852 0.07823484 -0.03565257 -0.030760251 0.20887999 -0.14770845
-0.2531996 0.12434798 0.15969306 0.08845231 -0.31014982 -0.19256476 -0.26663008 -0.25584877
-0.16790625 -0.067408375 0.091376804 -0.0099930735

encoder_faltten.0.cnn.bias f4 [10]
00000000: a8be babd 6cf8 e7bd 5065 13be debd b9bc
00000010: 85ac 173e ec12 73bd 46a4 d13b a3a5 c83d
00000020: bda9 343d c0f0 a43d
-0.09118396 -0.113266796 -0.14394116 -0.022673544 0.14811905 -0.059344217 0.0063977567 0.09797218
0.044107188 0.08053732

encoder_faltten.1.BachNorm.weight f4 [16]
00000000: 874c a03f 10c0 833f 9848 7e3f 7ebf 793f
00000010: 1484 683f 28b3 903f ad70 643f 4dc4 773f
00000020: 7a29 7b3f 610b 843f f1d7 a73f 2979 6c3f
00000030: 2743 753f f624 853f e46e 713f fa57 833f
1.2523354 1.0292988 0.9932952 0.9755782 0.90826535 1.1304674 0.8923443 0.96783906
0.98110163 1.0315973 1.3112775 0.92372376 0.9580559 1.0401905 0.9430983 1.0261223

encoder_faltten.1.BachNorm.bias f4 [16]
00000000: 08bd 8f3e fced f1bc 1ce8 b6bb 6e8c 8ebd
00000010: ef5d 68bd c27b fb3c 33eb 243c 2da9 1abd
00000020: 3c30 b73c 19da 0e3d 1f73 2e3e b0ea b3bc
00000030: 9ea9 75bd 2ddf c1bd ef75 af3c 182a 3bbd
0.28073907 -0.029532425 -0.005581869 -0.069603786 -0.056730207 0.03069866 0.0100658415 -0.037758995
0.022361867 0.034875963 0.17036103 -0.021962494 -0.059976213 -0.094663955 0.02141854 -0.04569444

encoder_faltten.1.BachNorm.running_mean f4 [16]
00000000: 9a53 23be dd5b 9abe 3304 303e e56b cb3e
00000010: d2a5 e23e 7fdb 24bf 64d8 b33e 798b 373f
00000020: 3c5a 68be f15c 2e3f 7066 e8be e276 263f
00000030: d712 e5be 32b1 49bf 8b9d 573d b0fe 2fbf
-0.1594986 -0.3014821 0.17189102 0.39730754 0.44267136 -0.64397424 0.3512603 0.71697193
-0.22690672 0.6811057 -0.45390654 0.6502515 -0.44740936 -0.78786004 0.05264048 -0.68748

encoder_faltten.1.BachNorm.running_var f4 [16]
00000000: 98f1 1d3f 3843 a33e d61d 153f 942f 043f
00000010: e361 8c3e 7671 033f 017a 023f ff6f 1b3f
00000020: ceff 323f 2ac9 663f 843e 0d3f e20b 0e3f
00000030: 3c11 fa3e 1212 063f aee9 143f 48de f73e
0.6169677 0.3188722 0.5824865 0.516351 0.27418432 0.51345 0.50967413 0.6071777
0.69921577 0.901507 0.55173516 0.5548688 0.48841274 0.52371323 0.58169067 0.48411775

encoder_faltten.1.cnn.weight f4 [16, 10, 3, 3]
00000000: 5ea0 dcbd 5cac ec3a b6e5 61bd d828 883d
00000010: c745 9b3c bfc0 92bd 802f 5dbd d850 46be
00000020: 607f 3dbe 6196 3d3d 53cc aa3d e9ec 853d
00000030: ee80 bd3d f718 fb3d b610 533d 08aa 8f3b
00000040: c624 c53d f03d 8fbc 48ff 0b3c 5e43 c03d
00000050: a54f b0bc 80db c63d cf2e f13d b8cb 83bc
00000060: 935f 9ebc e6b4 f43b 4a93 5f3c c956 263d
00000070: 0876 d23d cb66 053d 6d79 3a3d ef14 a83d
00000080: e847 7abd 6784 c4bc 7213 e33d 56c1 12be
00000090: 0bf3 d0bc 3c5e 8f3c 4881 e8bd 940b 283d
000000a0: 8a2c bebd 33e7 f2bd 53ec 2cbd 34f1 c03b
000000b0: a3a4 8fbd 400b 6c3d 3f2a 1a3d a3b9 003e
000000c0: 4e10 e33c 14d0 6e3d 5c68 b93d f5ad 963d
000000d0: a9dd b4bd bbb2 993c 36d4 d23d a5f3 5e3d
000000e0: 94ed cd3d 4ca8 ed3c 1297 3c3e a54d 813d
000000f0: 849d 073e e500 883c 4025 1d3e dc08 ce3b
00000100: 21ae 5e3c edc2 b5bd 2226 683c ca3a 50bd
00000110: 4556 b1bd 6123 d8bc 1844 8dbd 8af2 17be
00000120: 1c20 b73c e52f a43c 8885 86bd 3068 0ebd
00000130: fa0b bfbd 8f65 f33c 8ae5 00bc 101a 0abe
00000140: cc7d 4bbe a9cf e1bc 8294 fe3d 149a 403b
00000150: 5377 de3d 09be 073e 2d7a ae3d de4a 7bbd
00000160: b8af 783d dce9 22bd ff86 423c f840 233e
00000170: a5d9 a5bd 51c0 aa3d 59ed 9dbd 9212 1cbe
00000180: ab50 753d aabd 9ebd 39b2 3e3d 47ec 543d
00000190: 7280 3b3b 36d6 e33b e2ba 12bd ef29 e8bd
000001a0: 8920 c7bc ba55 73bc fb7b ee3d 9f35 a7bd
000001b0: 9c9e bcbd 1125 853b a337 563d 5099 36bd
000001c0: 0eec 1b3e 3ec9 af3d 0987 ddbd 3cd8 c2bd
000001d0: 2d99 4abd a035 113c 576e b9bd 8486 8f3d
000001e0: 7a0a 493d 6629 fe3d 6a41 2cbd ede3 a5bc
000001f0: 3fa7 07bd 69d8 5ebc 1435 b2bd a568 fd3c
00000200: 3033 bb3c 8650 973d fc13 ec3d 388c a1bd
00000210: b00c d8bd fd87 23bd 9fcd 19bd c99a 3e3d
00000220: ed4a e5bc 6c2d b73c 6fd8 3bbd 4bd2 48bd
00000230: afd5 323e 78b9 8d3c bd67 2ebe 5ef9 0bbe
00000240: f7ec 923b 6526 693d d031 b3bd b6c0 063e
00000250: 5c85 35bd f173 0e3e 5213 3cbe 7370 ae3d
00000260: abc7 1b3e 7151 8f3c bd26 ae3c e550 a23d
00000270: 1c65 873d 5e86 6f3d 2f3c 423c 5416 ac3d
00000280: fa58 8ebc 566b 2abd 6ae4 8ebd 7e75 f03c
00000290: 98ec 9a3d 7a6b e63c c3a3 873d 84cd f6bd
000002a0: 306b be3d a265 4dbd ad95 86be 9e41 913c
000002b0: 4d05 cbbc 0471 99bc 660d 7abd 6ca7 143d
000002c0: 8d7d 21be d62a dbbc 8931 d83c dbd6 8939
000002d0: d4e0 92bd 1754 f7bd c853 c6bd c73f 283e
000002e0: 9b0b d63c 25aa 5abc a099 b7bd 9df1 9f3c
000002f0: eec4 b13c ef2e f3bd 3720 f63c 5251 16bd
00000300: 5830 c7bc 409d 4f3d 06e9 40bd d620 1d3d
00000310: e2a8 293d 7031 7ebd 6848 8a3d b827 45bc
00000320: 2270 8bbd d911 663d 46fa a93d 15cd 813d
00000330: e0cd 0bbd 8606 fa3d 43da 9cbd 7683 05bd
00000340: 2036 33be c402 b0bd 9d16 683c fff2 debb
00000350: 00a4 793c 732e e73b 6090 97bd ffb7 433d
00000360: afa8 803d 3941 b63d 52d4 d1bd c450 d13d
00000370: 41e2 2c3e 776b 9c3b 27d7 213d d790 8c3d
00000380: d19a 3f3d 2a94 253d 8e57 09bd 35ce 893c
00000390: e3f0 e23d c1d1 16bb 99ef 4d3d 3082 8fbd
000003a0: 22d9 593d 1c9b a23d 7a70 913d 2800 00bd
000003b0: c283 1a3e 7d0d 383d e794 89bd c8cc 6ebd
000003c0: c4a0 113e cab1 7f3d cb2a a8bc 3c94 e73d
000003d0: d7f3 da3d 79a9 c2bc d5fb 2b3d f22b 013e
000003e0: 59da 833d f13a 5fbd 3c69 08bc 11e0 bc3d
000003f0: 3d80 a5bd 3e40 8d3d 1a7d a1bd 8623 b03d
-0.10772775 0.0018056738 -0.05515071 0.06648415 0.01895417 -0.0716567 -0.054000378 -0.19366777
-0.18505621 0.04628599 0.08339753 0.06539328 0.09253107 0.12260621 0.05152961 0.004384283
0.096261546 -0.017485589 0.0085447505 0.09387849 -0.021522352 0.09709835 0.11776506 -0.016088352
-0.019332683 0.007467854 0.013645956 0.04061011 0.10276419 0.032568734 0.045525957 0.08207118
-0.06110373 -0.023988916 0.11087693 -0.14331564 -0.025506517 0.01750099 -0.113527834 0.041026667
-0.09285839 -0.11860504 -0.042217564 0.0058881287 -0.07013824 0.057627916 0.037637945 0.12570815
0.027717736 0.058303908 0.09053108 0.073573984 -0.08831341 0.018761983 0.10294382 0.054431576
0.1005508 0.029010914 0.18417004 0.06313638 0.13243681 0.016601989 0.15346241 0.006287677
0.01359132 -0.0887507 0.014169248 -0.050837316 -0.08659033 -0.026384057 -0.068977535 -0.14838615
0.022354178 0.02004237 -0.06568438 -0.03476733 -0.09328456 0.029711513 -0.007867226 -0.13486505
-0.19872206 -0.02756484 0.12430669 0.0029388713 0.10862603 0.13256086 0.08519397 -0.061350696
0.060714453 -0.039773807 0.011873006 0.15942752 -0.08098153 0.08337463 -0.07711286 -0.15241459
0.059891384 -0.07751019 0.046556685 0.051983144 0.0028610495 0.006953026 -0.035822757 -0.11336123
-0.024307506 -0.014851982 0.11644741 -0.08164524 -0.0920994 0.0040632566 0.052299153 -0.044579804
0.15226766 0.08583306 -0.108167715 -0.095139 -0.049462486 0.008862883 -0.09054249 0.07008079
0.049082257 0.1241024 -0.04205457 -0.020250285 -0.033118483 -0.013601401 -0.0870153 0.030933687
0.022851557 0.073884055 0.11527249 -0.07888073 -0.10549295 -0.03992461 -0.03754961 0.046534333
-0.027989829 0.022360526 -0.045860704 -0.049028676 0.17464326 0.017300352 -0.1703176 -0.13669345
0.004483815 0.05692138 -0.08749735 0.13159451 -0.044316635 0.13911416 -0.18366745 0.08517542
0.15212886 0.017494889 0.021258706 0.07925586 0.06611082 0.058477752 0.011855169 0.08402696
-0.017376412 -0.04160627 -0.0697716 0.0293529 0.07564658 0.02812742 0.06623032 -0.12050918
0.09297788 -0.050145753 -0.2628607 0.017731484 -0.024782801 -0.018730648 -0.061047934 0.03629248
-0.1577055 -0.026753824 0.026390808 0.00026290756 -0.07171789 -0.12076586 -0.09683949 0.16430579
0.02612858 -0.01334623 -0.089648485 0.01952439 0.021700349 -0.11874186 0.030044658 -0.036698647
-0.024315044 0.050687075 -0.04709723 0.038361393 0.041420825 -0.062058866 0.06752092 -0.0120333955
-0.06808497 0.056169365 0.08299689 0.063379444 -0.034131885 0.122082755 -0.076588176 -0.032596074
-0.17501116 -0.085942775 0.014165548 -0.0068038697 0.015236855 0.0070550977 -0.07400584 0.047782894
0.06282174 0.08899159 -0.10245575 0.10220483 0.16883184 0.004773553 0.039511826 0.068635635
0.046778504 0.040424503 -0.033530764 0.01682196 0.11081102 -0.0023013207 0.050277326 -0.07007253
0.05318559 0.07939741 0.07101531 -0.03125015 0.15089324 0.04493474 -0.06717854 -0.058300763
0.14221483 0.062425412 -0.020528218 0.1130757 0.1069104 -0.023762451 0.041988213 0.1261442
0.06438131 -0.05449957 -0.008325871 0.09222425 -0.080811 0.06897019 -0.07885189 0.086005256

encoder_faltten.1.cnn.bias f4 [16]
00000000: 866a d0bd 1b61 2fbe d091 fabd b11c 9a3c
00000010: 5416 d6bc 005f 15be 8bc1 f23c 885c ab3d
00000020: 4b53 213b 5595 14bd 527c febd 4257 0d3e
00000030: bb41 16bc 5ca2 9cbd 68b6 f93d b2d9 b5bd
-0.10176568 -0.17126887 -0.12234843 0.01881251 -0.026133694 -0.14587021 0.029633304 0.08367258
0.0024616297 -0.036275227 -0.12426056 0.13802817 -0.009170945 -0.07648155 0.12192994 -0.08879413

encoder_unfaltten.0.BachNorm.weight f4 [10]
00000000: 0000 803f 0000 803f 0000 803f 0000 803f
00000010: 0000 803f 0000 803f 0000 803f 0000 803f
00000020: 0000 803f 0000 803f
1.0 1.0 1.0 1.0 1.0 1.0 1.0 1.0
1.0 1.0

encoder_unfaltten.0.BachNorm.bias f4 [10]
00000000: 0000 0000 0000 0000 0000 0000 0000 0000
00000010: 0000 0000 0000 0000 0000 0000 0000 0000
00000020: 0000 0000 0000 0000
0.0 0.0 0.0 0.0 0.0 0.0 0.0 0.0
0.0 0.0

encoder_unfaltten.0.BachNorm.running_mean f4 [10]
00000000: dee0 fbba e5c9 0fbd 6e24 883d a524 65bc
00000010: 632a 5e3d fdca 36bc fe94 1c3d 72e3 043d
00000020: 8632 23bc c60c 183a
-0.0019216796 -0.03510465 0.066475734 -0.0139857875 0.054239642 -0.011156795 0.038228028 0.03244347
-0.009960776 0.0005800243

encoder_unfaltten.0.BachNorm.running_var f4 [10]
00000000: ecd1 663f 1f0d 673f 848b 673f 3af5 663f
00000010: 7dcd 673f e301 673f 861d 673f c860 673f
00000020: 4e52 673f 0f0b 673f
0.90164065 0.90254396 0.9044726 0.90217936 0.90547925 0.90237254 0.90279424 0.9038205
0.9035996 0.9025125

encoder_unfaltten.0.cnn.weight f4 [10, 2, 3, 3]
00000000: 222c babd 9c4f 83bd 3690 31be f8a3 c13c
00000010: bcda 47bd 007e 3e3a 9cd9 143d 9096 723c
00000020: 0017 ebbb dacd d63d 80d6 3fbb a006 c7bb
00000030: c6a0 e33d 98e0 5ebe 3252 fc3d 25c7 413e
00000040: 5dc7 48be 20a6 6fbc 008a a7bb e3d0 393e
00000050: c855 13be 0e5c c7bd c011 623b 0013 a0bb
00000060: f43d 63be 0054 c13b 5116 433e 7186 4fbe
00000070: a026 dabb ace3 1fbd 26e1 df3d c896 e43c
00000080: f0d1 70bd d3af 2dbe 3b0a 2e3e fad0 59be
00000090: 6102 5b3e c62f 91bd cc6d 743d 5818 8a3c
000000a0: 5436 613d f44c cebd 2bfc 0e3e 4d33 663e
000000b0: 34e4 12bd a4a9 43bd d3c6 1f3e d1fc 033e
000000c0: 8bf7 523e ee2c 5fbe a73b 463e 5e5c be3d
000000d0: 7e83 d53d fa2c 833d ab28 52be 7cba dfbd
000000e0: 9a2f 9b3d 0080 d03b 030a 3d3e cb67 373e
000000f0: bd31 053e 90c6 573c 268d fdbd 34ba 663d
00000100: a40a 353d 5081 8dbd 8686 0ebe e429 25be
00000110: bcb3 6b3d c8e0 d8bc 3a52 1abe 8ada 0dbe
00000120: a8a9 17be b7b6 4c3e 7833 6dbd 6c2e 36be
00000130: 8cce 61bd d6fc 4dbe d3c4 193e 70a8 c3bd
00000140: e925 5d3e 7341 353e e723 523e 7807 55be
00000150: 255f 653e ba27 bc3d 4818 a93c d3f9 4f3e
00000160: 3965 3f3e 30ea b0bc 3224 ab3d c8d1 ef3c
00000170: 74da 31bd 82e4 adbd 68d4 36bd a4b7 b5bd
00000180: 701e 13be e6f1 e2bd e753 133e 8360 463e
00000190: 2aea 8abd 0faf 493e 6e95 a93d a402 2a3d
000001a0: 7a37 6fbe 81fc 533e 90ea b4bd 2a83 41be
000001b0: 6c2e 393d c2c4 2ebe e069 4e3c f32b 413e
000001c0: 3303 2a3e f03a 463c be7b d6bd a4c2 293d
000001d0: dcfe 643d 7d3b 2d3e 30f5 19be b6f7 c73d
000001e0: b8f4 79bd e524 533e d2dc 97bd 2ae7 bdbd
000001f0: 8f94 483e 2a2a 41be 6055 c7bc c470 66bd
00000200: 83e3 533e 4faf 373e c34a 4a3e 91b6 4f3e
00000210: 7e0d cd3d a4c5 2fbe 47bb 0b3e 32c5 be3d
00000220: c24e cbbd ca02 9a3d d8ca e6bc d81f 41be
00000230: 7e4d 993d 6031 8d3b b20b dcbd 850b 033e
00000240: 3431 18be 1f69 393e e828 1bbd 8ca3 2abe
00000250: 2f68 4d3e 9694 06be 6912 59be b0b7 29bc
00000260: 9a9b 893d ae78 bb3d 752e 4d3e a02a bd3b
00000270: 7482 05be 4e2d 6fbe 748b d2bd 271d 3f3e
00000280: 477e 5ebe 637a 1fbe 56b5 b53d f380 5b3e
00000290: dc42 633d 5d5e 2c3e b5f1 373e a8d8 4fbe
000002a0: 70c6 dfbc 566e ea3d 101b 10bc 6ebd 69be
000002b0: d34b 28be 26c2 f63d cad1 e73d 38dd 6fbd
000002c0: 008d cdba 8ca4 6f3d 70e4 67bd 00e8 9ebd
-0.09090449 -0.06411669 -0.17340168 0.023637757 -0.048792586 0.00072667 0.03634034 0.014806405
-0.0071743727 0.10488482 -0.002927214 -0.006073788 0.111146495 -0.21765363 0.12320365 0.18923624
-0.19607301 -0.01462701 -0.0051128864 0.1814609 -0.14388192 -0.09734355 0.0034495443 -0.0048850775
-0.22191602 0.005899906 0.19051482 -0.20266129 -0.0066574365 -0.039035484 0.109316155 0.02790393
-0.058793962 -0.16961603 0.1699609 -0.21271124 0.21387626 -0.0708919 0.059675023 0.016857311
0.054983452 -0.100732714 0.13963382 0.22480507 -0.035862163 -0.047769204 0.15603189 0.1288941
0.20602243 -0.21794483 0.19358693 0.092949614 0.10425471 0.06405063 -0.20523326 -0.10924241
0.07577439 0.006362915 0.1846085 0.17910688 0.13007255 0.0131699 -0.123804376 0.05632992
0.0441996 -0.0690943 -0.13918504 -0.16129261 0.057544455 -0.026474372 -0.1507043 -0.13852897
-0.14810812 0.19991575 -0.057910413 -0.17791146 -0.05512862 -0.2011598 0.15016489 -0.09553611
0.21596493 0.17700748 0.20521508 -0.2080363 0.22399576 0.09187265 0.020641461 0.20310144
0.18690957 -0.021596044 0.08356513 0.029274836 -0.043421224 -0.0849085 -0.04463616 -0.08872917
-0.1436708 -0.11081295 0.14387475 0.19372754 -0.067829445 0.19695686 0.082804546 0.041506425
-0.23361006 0.20701791 -0.08833802 -0.18897691 0.045210287 -0.17067245 0.012598485 0.18864422
0.16602783 0.012099013 -0.10472821 0.04144539 0.055907115 0.16917224 -0.15034938 0.09764044
-0.061024398 0.20619543 -0.07415165 -0.09272607 0.1958792 -0.1886374 -0.024332702 -0.056259885
0.20692258 0.17937969 0.19755082 0.20284487 0.10012339 -0.17165238 0.1364566 0.09314956
-0.09927131 0.07520063 -0.028172895 -0.18859804 0.074854836 0.0043088645 -0.10744418 0.12797363
-0.1486252 0.18106507 -0.037880808 -0.1666395 0.20059274 -0.13142619 -0.21198429 -0.010358736
0.06719132 0.09153877 0.20037253 0.0057729036 -0.13038045 -0.23357126 -0.10280505 0.18663464
-0.21727858 -0.1557403 0.08872478 0.21435909 0.055483684 0.16832872 0.17963298 -0.20297492
-0.027316302 0.11446826 -0.008795515 -0.22826168 -0.16435175 0.120487496 0.11319311 -0.05856058
-0.001568228 0.058506534 -0.05661434 -0.07759094

encoder_unfaltten.0.cnn.bias f4 [10]
00000000: 5258 9b3d 10fe 13be 3984 183e f8bd c53c
00000010: 53e0 6e3e 48d9 76bd 9d72 6b3e d0ea 0d3c
00000020: 1f02 2d3e 5c13 f5bd
0.07585205 -0.14452386 0.14894189 0.024138436 0.2332776 -0.06026581 0.2299294 0.008661941
0.1689534 -0.11966583

encoder_unfaltten.1.BachNorm.weight f4 [16]
00000000: 0000 803f 0000 803f 0000 803f 0000 803f
00000010: 0000 803f 0000 803f 0000 803f 0000 803f
00000020: 0000 803f 0000 803f 0000 803f 0000 803f
00000030: 0000 803f 0000 803f 0000 803f 0000 803f
1.0 1.0 1.0 1.0 1.0 1.0 1.0 1.0
1.0 1.0 1.0 1.0 1.0 1.0 1.0 1.0

encoder_unfaltten.1.BachNorm.bias f4 [16]
00000000: 0000 0000 0000 0000 0000 0000 0000 0000
00000010: 0000 0000 0000 0000 0000 0000 0000 0000
00000020: 0000 0000 0000 0000 0000 0000 0000 0000
00000030: 0000 0000 0000 0000 0000 0000 0000 0000
0.0 0.0 0.0 0.0 0.0 0.0 0.0 0.0
0.0 0.0 0.0 0.0 0.0 0.0 0.0 0.0

encoder_unfaltten.1.BachNorm.running_mean f4 [16]
00000000: 1a4c 2f3c 3e2b ea3b f2b1 d8bc 3e9b c2bc
00000010: 793a 3f3c 2532 41bc 6df1 a73c 1aeb 63bc
00000020: 18a4 513d 0dfa 63ba f3b8 8c3d bd72 d53c
00000030: dee1 2bbb cad9 433c cb9d d1bc 8d62 3fbd
0.010699296 0.007146268 -0.026452038 -0.023755666 0.011671656 -0.011791741 0.020500863 -0.013911033
0.051181883 -0.0008696623 0.06871214 0.026055688 -0.0026227157 0.01195378 -0.025587937 -0.046724845

encoder_unfaltten.1.BachNorm.running_var f4 [16]
00000000: 78b3 693f 968a 683f c9c2 693f ba9b 6a3f
00000010: 1aa8 683f a278 683f b672 693f a76a 683f
00000020: 7d8e 6c3f 0b77 683f cf89 6d3f 2a96 6b3f
00000030: fb47 683f 54c2 6b3f 6f91 693f b27d 6f3f
0.9128947 0.90836465 0.91312844 0.9164387 0.908815 0.9080907 0.9119066 0.9078774
0.9240492 0.90806645 0.92788404 0.9202601 0.90734833 0.92093396 0.9123754 0.9355117

encoder_unfaltten.1.cnn.weight f4 [16, 10, 3, 3]
00000000: c0dc bebd 543e 8dbc 6534 ba3d 24ab fb3c
00000010: 5b55 6fbd e8ce 55bc f0f7 93bd 40ba 48bd
00000020: 0f8b 54bd 28ea 30bd bc24 53bd 746f fc3c
00000030: a7af bdbd ebee 883d 869a 513d 9f72 bb3d
00000040: e0ee a0bb 13b1 a7bd cd27 953d 9c97 d3bc
00000050: 48e2 0bbd e019 f9bb d405 a0bc 6531 ca3d
00000060: 988c 56bc 023e 1d3d 9492 a23c 02a9 0a3d
00000070: 620e 093d 2d2c b13d d0b3 57bd 69dc b3bd
00000080: 64df 973c cb61 96bd f5f3 d0bd 53cd d63d
00000090: c97c 913d eb07 833d 717d 4abd 27f8 bb3d
000000a0: 0e8f 6f3d 304a f0bc d7f8 8c3d 8847 e4bc
000000b0: ccdc b9bc f882 cbbd 0923 a53d 4dad cd3d
000000c0: 4a25 6dbd 03d6 aabd b9c4 ae3d 2222 173d
000000d0: 4d8d 51bd 58f0 263c 9842 91bd 03ba 873d
000000e0: 89a7 c33d cf6f 903d 3ae9 7bbd be98 573d
000000f0: b391 53bd a313 62bd cad9 5a3d 58fb 03bd
00000100: b927 c03d db5c 80bd 000e 6d39 8ee3 8abd
00000110: aea9 313d 19df 913d cee6 7b3d 44e5 873c
00000120: b040 5ebc d2eb 2d3d c22b 7a3d 586a 9c3c
00000130: 1738 c4bd 680f 193c 1497 e43c 82ef 103d
00000140: 3212 91bd c0b3 6dbc 5015 f9bb eb8c d1bd
00000150: b0ba d2bd c084 0ebd ba6b 4b3d 14ac f43c
00000160: d327 b93d 3c7b be3c c0b6 063c 5e9f 053d
00000170: 4f87 953d a054 003c ee2b 643d 3495 c6bc
00000180: 20d6 1f3b 1c8d afbc 0a74 653d 0cb2 83bd
00000190: c1ea afbd 6a41 503d 480a 833c f082 d5bc
000001a0: 40ed e73a 7e31 5b3d 44cb b63c 10d4 a2bb
000001b0: 38a3 71bc 8070 4cbc 52b6 83bd 04ba 7abd
000001c0: d8c1 46bc 9d45 d23d 8a75 103d 00b7 66ba
000001d0: d55c c93d 6039 243c 300b b53b a54b 4cbd
000001e0: fd87 cd3d d834 b9bc c034 6ebb 2ab3 5a3d
000001f0: a4f0 9f3c d8b3 153c e3d1 d4bd d224 6f3d
00000200: ab43 883d 405b faba 41a0 42bd b0e9 22bc
00000210: ec57 c5bc ab26 be3d ddfc ae3d 19ba c7bd
00000220: 3ed6 763d a0eb b8bb 7157 49bd 80a6 2cbb
00000230: fc23 fc3c 60b6 45bc f48e 9a3c 47c8 c5bd
00000240: 72f0 043d df50 90bd c413 cfbc f01f 3ebc
00000250: cc74 46bd a9b3 863d 407d ae3b 036e d03d
00000260: a09d c0bd 00ba 93bb e82f aabd 4639 8fbd
00000270: cc34 c4bd 2440 c33c d069 dc3b 86bf 5fbd
00000280: cb90 bb3d 7801 74bc 45f0 ac3d 227e 453d
00000290: 58db 433c be4d 9dbd 231a a73d 9405 98bd
000002a0: 80bd 82bd a46e b1bc b09d 6dbc 82b1 6a3d
000002b0: 65c2 cc3d f0a8 6e3c a648 203d d062 ccbc
000002c0: c0a8 013b 40d0 e5bc 6ae5 b9bd c018 42bc
000002d0: bcf1 83bc 6205 1cbd e993 c23d cde6 cebd
000002e0: c407 bebc a803 02bc 000c 66bc ea72 8cbd
000002f0: 00d1 6b3c 1cf4 77bd 0e56 aebd 98ab 053c
00000300: 8c54 a63c 2095 81bd 9b6f 953d 9f85 c93d
00000310: 1d1f 9d3d ebf3 bdbd 9bcc 44bd 6a81 663d
00000320: cc2d e23c 10bf 0e3c a0ea 76bc 3269 713d
00000330: 28a3 01bd c093 253c e9c6 c13d cb74 a8bd
00000340: 7b6e d1bd 3b6d 50bd 6fdb a03d 895f adbd
00000350: 0c13 d83c e8e1 a5bc 3c6a 58bd 7aaa 0cbd
00000360: a07d cabd 7816 96bc 3876 8b3c 830a c93d
00000370: 1a67 1bbd 8696 cfbd aa28 65bd fa1f 1d3d
00000380: 7dae 9a3d 6c33 aabc 1a01 303d 6dd6 cbbd
00000390: e1d9 b63d ea60 12bd 3147 aebd 0c90 7ebd
000003a0: 6617 a4bd f52d 953d ca07 17bd 160e 283d
000003b0: 7edd 053d 096f ab3d e01f 82bc 66df 9fbd
000003c0: c44c b6bc 8db0 a03d 217f b3bd 18ba 753c
000003d0: 0426 c93c eea2 b2bd fcf9 c7bc fe6a 92bd
000003e0: 6bc1 65bd 87f0 8e3d b97a c5bd a075 05bc
000003f0: 8ca9 e93c 4e3a 033d f48d e83c adfa d03d
-0.093194485 -0.017241634 0.09092025 0.030721255 -0.05843101 -0.013049819 -0.07225025 -0.049005747
-0.05189043 -0.04319206 -0.051548705 0.030814864 -0.09262019 0.06686195 0.051172756 0.091527216
-0.0049112886 -0.08188071 0.07282982 -0.025829129 -0.034151345 -0.0076019615 -0.019534029 0.098727025
-0.013095044 0.038389213 0.019845285 0.033852585 0.033460982 0.08651004 -0.052661717 -0.08782274
0.018539138 -0.07342871 -0.10202781 0.10488381 0.07103879 0.063979946 -0.049436036 0.09178191
0.058486037 -0.02933225 0.068834 -0.02786614 -0.022688292 -0.0993709 0.08063323 0.1004282
-0.05789689 -0.08341601 0.085336156 0.036897786 -0.051160146 0.010189138 -0.0709278 0.06627276
0.09553439 0.07052576 -0.06150172 0.0526359 -0.05165262 -0.05519451 0.053430356 -0.032222122
0.093825765 -0.06267711 0.00022607297 -0.06781684 0.04337471 0.071226306 0.06149941 0.016588815
-0.013565227 0.042461224 0.061076887 0.019093677 -0.09581011 0.009342052 0.02790407 0.035384662
-0.070835486 -0.014508188 -0.0076014176 -0.10231956 -0.10289514 -0.03479457 0.049663283 0.02986721
0.09040799 0.023252122 0.008222282 0.032622688 0.07301199 0.007832676 0.055705957 -0.024241067
0.0024389103 -0.02142959 0.056018867 -0.06430444 -0.08589698 0.050843634 0.015996113 -0.026063412
0.0017694607 0.053513996 0.022313721 -0.0049691275 -0.014748387 -0.012477994 -0.06431259 -0.061212555
-0.012131177 0.10267184 0.035268344 -0.0008801073 0.098321594 0.010023445 0.0055250153 -0.049876828
0.10035703 -0.022608206 -0.003634736 0.05339352 0.019523926 0.009137116 -0.10391595 0.058384724
0.06653532 -0.0019100681 -0.04751611 -0.009943411 -0.024089776 0.09284719 0.085443236 -0.09752292
0.06026291 -0.005643323 -0.049155656 -0.002634436 0.030778877 -0.012067407 0.018866993 -0.096573405
0.03245587 -0.07046675 -0.02527798 -0.011604294 -0.04845123 0.06577236 0.0053249896 0.10177233
-0.094050646 -0.004508257 -0.08309919 -0.06993346 -0.09580383 0.023834296 0.006726481 -0.05462601
0.091584764 -0.014892928 0.08444265 0.048215993 0.011954151 -0.07680844 0.08159282 -0.07422939
-0.063838005 -0.021659203 -0.014502928 0.05729819 0.09998015 0.014566645 0.039131783 -0.024949461
0.001978442 -0.028053403 -0.090769604 -0.011846721 -0.016106479 -0.03809107 0.09500868 -0.101026155
-0.023197062 -0.007935442 -0.014040947 -0.068578556 0.014393091 -0.060535535 -0.085125074 0.008158587
0.020303987 -0.063272715 0.07296678 0.09839939 0.0767195 -0.09275039 -0.04804669 0.056275763
0.027609728 0.008712545 -0.015070587 0.058938213 -0.03164974 0.010106027 0.09461767 -0.082254015
-0.102261506 -0.05088542 0.07854354 -0.084654875 0.02637627 -0.020249322 -0.052835688 -0.034342267
-0.09887242 -0.01832126 0.017024145 0.09816458 -0.037940122 -0.10136132 -0.055946983 0.038360573
0.07552812 -0.020776473 0.0429698 -0.09953008 0.08928276 -0.035736956 -0.085096724 -0.062149093
-0.080122754 0.07284156 -0.036872663 0.04102906 0.032681935 0.08370788 -0.01588434 -0.07806282
-0.022253402 0.078461744 -0.08764482 0.0149979815 0.02455426 -0.087224826 -0.024411194 -0.071493134
-0.05609266 0.06979471 -0.09642548 -0.00814572 0.028523229 0.032038026 0.028388001 0.102040626

encoder_unfaltten.1.cnn.bias f4 [16]
00000000: d219 97bd 58d2 8d3c 6e41 153d 82ca 2d3d
00000010: 9cdc ef3c 53ed c43d e07c 14bb 562c b8bd
00000020: 291f cf3d 9b1d 72bd 3c17 ff3c 825d 04bd
00000030: bd4d 873d 8768 883d fa7b b2bd f030 7a3c
-0.07377972 0.017312214 0.03643935 0.042429455 0.02928 0.096155785 -0.002265744 -0.089928314
0.10113365 -0.059110265 0.031139009 -0.03231574 0.06606624 0.06660562 -0.08715053 0.015270457

embedding.weight f4 [10, 8]
00000000: fbab 503e f9d2 41bf 3d64 f33e 3461 193f
00000010: 8293 9fbd 074f 6f3f 45d4 18bf 060d a0bf
00000020: 02de ba3f 69fc 11bf e12d 4f3f 3eb4 993f
00000030: 70ed ce3f ec18 39bf 50b4 1bc0 bca0 f33e
00000040: 5e66 e23f 4e79 3b3f b2ab d73e 8735 74bf
00000050: dee5 523e 6bec 14bf 5daa 9e3f 4ebb bcbe
00000060: 22b6 a13d e255 acbf 84cb 8abf b514 e3bc
00000070: a8a8 f03f 77c2 08bf fce3 0dbf c5ed f93c
00000080: 9c0a 5b3f 755b bcbf 6d7d 20be 2dc3 88bd
00000090: a1d2 db3d 8296 0b40 8365 3f3f f7f4 933f
000000a0: c5c9 db3f 8609 09c0 d583 edbe c96b 32c0
000000b0: d266 2cc0 a718 f83f e700 a23e b3be c93e
000000c0: fbb9 003f 7c6f 9c3c bd06 04be 9e13 1abf
000000d0: 4394 553f 3366 393f 945b a1bf ca96 f63f
000000e0: a9b3 a63c 55fc dc3d 00b0 5cbd 86c8 fe3f
000000f0: e474 03bd d9b9 0fbe c19c a5be 8878 043f
00000100: 53d7 8fbf 92d5 8a3e 24bf bfbe 8e12 c8be
00000110: 93e4 c63e 70f3 98bf 3e9e 1b40 753e d43d
00000120: 47a7 ac3e f3af 80bf 5ccf d83f ac05 e73f
00000130: fb07 e23d 8e15 903f a9d8 86bf 3ec2 523f
0.20378105 -0.75712544 0.47537413 0.59913945 -0.07791807 0.9347996 -0.596989 -1.2503974
1.4599001 -0.5702577 0.8092938 1.200813 1.616621 -0.7230365 -2.4328804 0.47583568
1.768749 0.7323197 0.4212318 -0.95394176 0.205955 -0.58173245 1.2395741 -0.36861652
0.07896067 -1.3463709 -1.0843358 -0.027719835 1.880147 -0.5342173 -0.55426 0.030508885
0.85563064 -1.471541 -0.15672846 -0.06677852 0.10733534 2.1810613 0.7476427 1.1559132
1.717095 -2.1412063 -0.46389642 -2.7878287 -2.6937757 1.9382523 0.31641313 0.39403304
0.50283784 0.019096129 -0.12893195 -0.60186183 0.83429354 0.7242157 -1.2606072 1.9264767
0.02034934 0.10790316 -0.053878784 1.9904945 -0.032093897 -0.14035739 -0.32346156 0.51746416
-1.1237587 0.27116066 -0.37450516 -0.39076656 0.38846263 -1.1949291 2.4315333 0.10363475
0.33721372 -1.0053695 1.6938281 1.8048606 0.110366784 1.1256578 -1.053487 0.8232764

decoder.1.BachNorm.weight f4 [16]
00000000: 98c3 683f f412 703f ad30 813f b50a 7e3f
00000010: 5e3c 713f 66c1 853f f2c5 883f b32c 8d3f
00000020: c9da 723f d2bb 7f3f 4297 723f e84c 6f3f
00000030: 6259 7e3f bba6 813f 4f53 7d3f 39fa 773f
0.9092345 0.9377892 1.009298 0.9923509 0.9423274 1.0449646 1.0685408 1.1029266
0.9486509 0.99895966 0.9476205 0.93476725 0.9935514 1.0129007 0.98955244 0.96866184

decoder.1.BachNorm.bias f4 [16]
00000000: 559a 8fbe e0e2 c8bd 1860 64bd c854 45be
00000010: f1db 6ebe 8645 26be dc77 4abe d549 fdbd
00000020: 1e99 a5bd 907f b7bd 88a0 61be ec27 11be
00000030: 102a debd ff24 c0bd 6bca ffbd 6adf 54be
-0.28047433 -0.09808898 -0.055755705 -0.19270623 -0.23326088 -0.16237459 -0.19772285 -0.12367598
-0.080858454 -0.089598775 -0.22033894 -0.14175385 -0.108478665 -0.093820564 -0.1248978 -0.2078835

decoder.1.BachNorm.running_mean f4 [16]
00000000: 95c0 583c 619d 25bd 9fe3 23be d026 69bc
00000010: 601c 3e3d ce96 363b 817a fc3c 4373 ab3b
00000020: 63eb 93bd 37a4 15bd b968 81bd 5c87 443d
00000030: b7a5 c5bc f8c1 b73c e930 083d 3d62 103c
0.013229509 -0.04043329 -0.160048 -0.014230445 0.04641378 0.0027860883 0.030820133 0.005232246
-0.07222631 -0.03653356 -0.063188024 0.04798065 -0.02412687 0.022431359 0.03324977 0.008812484

decoder.1.BachNorm.running_var f4 [16]
00000000: 091c 113e 4a88 133e 7616 1e3e 56bd 113e
00000010: c7f7 193e 4360 1b3e 4247 303e dece 1a3e
00000020: e850 173e 74be 063e 2a9f 263e 2af9 103e
00000030: e365 1b3e 1249 fa3d faec 203e 847b 2e3e
0.14170851 0.14407459 0.15438256 0.14232382 0.15035926 0.1517344 0.17214683 0.15117976
0.14776957 0.1315859 0.16271654 0.14157549 0.15175585 0.12220968 0.157154 0.17039305

decoder.1.cnn.weight f4 [16, 16, 6, 6]
00000000: 690e 07bb e7bc 4b3d 664b 3f3a 5b92 8fbc
00000010: d2d8 8b3a c372 2c3d 2659 b3bc ce84 0b3d
00000020: 1a02 853d 5e00 943c cf13 673c 76b9 9a3c
00000030: e4ff 503c 5be3 cabb 542e 453d 7bba 4f3d
00000040: 429e 55bd 5a7f 493d fa0d 19be b182 dfbc
00000050: 28a0 803d 00d9 2b3d a0df 45bd 2ab7 783d
00000060: 34c6 183d 189d 2cbd 0da6 513d bb38 c3bc
00000070: cf51 8b3c 42fd 883d bdd9 3cbd bae0 bf3b
00000080: 1b3a a03d ed1f 39bd c867 843d 3e3d 543e
00000090: 4283 a73c a70b 85bd 00a7 51bd 075a 5c3d
000000a0: 07cb f43c 4dc5 683d ed24 bdbc a0e6 fdbd
000000b0: f1f8 abbd 104b bf3d 7e18 8d3d c06d 543d
000000c0: 6988 a13c acd0 1bbd 7430 e33a 2484 cb3c
000000d0: a347 ae3d 2f07 843d 2369 88bd 8584 b9bc
000000e0: 8e22 023c d76a 11bd 3899 413d dda3 d23d
000000f0: 9c7c a7bd 44c1 85bd ffb2 45bd 2008 81ba
00000100: d46b ac3c 2486 d1bc 98f0 cdbc 8534 903d
00000110: e843 f0bc f236 4e3c d69c e0bc 1d75 49bd
00000120: 1a54 86bb 0503 5a3d e763 8a3d d443 253c
00000130: babc 483c 4b69 733d a7d0 5e3c 1d6f 2ebd
00000140: fb49 d3bc 54d1 73bc 536b ac3b 76da 7d3c
00000150: f41b 12bd 43a4 35bd 2a6e 873d 40a7 57bd
00000160: 0517 af3c d191 133c 19f4 503d 9dfa c9bc
00000170: 894c 5d3c ef24 36bc 1a13 77bd f853 feba
00000180: de4f febd 36f2 d7bd 28bc abbc 693f a5bb
00000190: 9e81 3ebd 265d 11bc 2905 d8bd 2402 7fbc
000001a0: 19e3 1abe 46fe d43a ce01 8bbd 6dfe 903d
000001b0: 0464 9abb a2c4 503c f1c4 113d 2aaf 77bc
000001c0: aad0 7d3b 213d a23d d2a6 2e3c b66b 1d3d
000001d0: 0cfa a2bd 78f4 083d 00a2 33bc 99b2 483d
000001e0: 1d36 cbba d284 943a d04b 40bc 96f8 a93c
000001f0: 3351 1abd 0d54 e4bd 260f 86bb 718a 3dbc
00000200: f5fe 6d3c 98e0 8bbd 8930 acbc 4cd9 313d
00000210: 8bad 933d 8eea 7c3d f891 49ba 9835 ae3c
00000220: bae2 f73c 0b70 753d 62e1 ba3c b14d 22bd
00000230: c668 8dbc f141 b8bc 553b bf3b 5091 bfbd
00000240: d7be ae3d 73af 673d 5556 14bd cb1b 213d
00000250: 13f2 9b3c 91e8 ccbc 84cf 56bd 77cc 74bd
00000260: a745 61bd 4271 40bd 0bcd eabd 2ecf 59bd
00000270: 2c72 f9bc 63aa 8ebc 4e99 eb3c 87a2 1c3d
00000280: d70a 25bd 0359 b63c cdfb d4bd 9ad7 a83c
00000290: c9b3 d13b 629b d53d 3868 a63d 56bb a13c
000002a0: 1bfb 9bbc 5478 9cbc f842 1a3d e57c 693d
000002b0: 91be 133d 35af 8dbc 9339 67bd 9d93 32bd
000002c0: 08ee 773d 5e53 1dbd 6789 1abc bc1e 063d
000002d0: 9fb2 94bc 89f6 ef3b 913f 8bbc 432d 093c
000002e0: 5fbb 17bd 45cd 9f3c 3743 90bd 5c63 1fbd
000002f0: e883 1bbd 5891 d4bc be44 ff3c 9433 113d
00000300: b9ef cd3c 7a3a da3c dd3f e13b d69d 8fbd
00000310: 9891 d23c 7ddb c53d 619c 903c e960 f33a
00000320: a5b2 30bc 527d e3bd 956e aa3c be32 81bc
00000330: b82e b63d 9ad1 4e3d 4b4a bfba a44a 99bd
00000340: f2ab d63d 7eb1 ab3c 317a 953d 0f7f ce3c
00000350: 9315 37bd 81b1 48bd 2d83 613e 75ea 6b3d
00000360: b78f a4bd c0a5 91bc 71c1 8f3d 2463 123c
00000370: 3fc1 8a3c d320 383d f82b 033d 2e56 0a3e
00000380: 48f2 5c3a b684 9c3d 01dc 113d 639c b63c
00000390: 45d0 f53c 5fd5 50bd 8556 f53c cf66 b73d
000003a0: b8cc 1dbc 24e8 eabc 6325 ed3c f458 c0bc
000003b0: dec6 33bd e49a 3a3d 36ae 7dbd 18f1 253d
000003c0: 683f 13bd 02a1 9abc 5e96 813d 0ecf 04bd
000003d0: 58d1 483c 5b84 ee3c 1d03 f73c 962e 3ebd
000003e0: c25d a8bc 652e b1bd 2ab6 0cbe 21bd bd3d
000003f0: 3f89 91bd 21f4 22bd 0e5d 133c 912a 8e3d
-0.0020607954 0.0497407 0.0007297307 -0.017525842 0.0010669476 0.042101633 -0.021893095 0.0340622
0.064945415 0.018066581 0.014103844 0.018887263 0.012756322 -0.0061916537 0.048139885 0.05071495
-0.05215288 0.049193718 -0.14946738 -0.027283998 0.062805474 0.041954994 -0.04830897 0.060721554
0.037298396 -0.042142004 0.05118375 -0.023830762 0.017006783 0.0668893 -0.04610609 0.005855647
0.07823583 -0.045196462 0.06465107 0.20726487 0.02044833 -0.06496363 -0.051184654 0.053796794
0.029881967 0.056828786 -0.023088897 -0.12397504 -0.08397091 0.09340489 0.06889437 0.05186248
0.019718366 -0.038040802 0.0017333166 0.024843283 0.08509757 0.06446683 -0.06660678 -0.022646198
0.007942809 -0.03550228 0.04726526 0.10285161 -0.08178064 -0.06531003 -0.048266407 -0.000984434
0.02104751 -0.025576659 -0.025139138 0.07041267 -0.029329255 0.012586342 -0.027418535 -0.049183954
-0.004099381 0.053225536 0.06757336 0.010086972 0.012252027 0.059426587 0.013599551 -0.042586435
-0.025792113 -0.014881451 0.0052618175 0.01549398 -0.03567119 -0.044346105 0.06612809 -0.052649736
0.021373281 0.009006933 0.05101404 -0.024655635 0.013507017 -0.011117204 -0.06032095 -0.0019403687
-0.12417577 -0.10544245 -0.020963743 -0.0050429595 -0.04651033 -0.008872306 -0.10547859 -0.015564475
-0.15125693 0.0016250096 -0.067874536 0.07079778 -0.00471163 0.012742193 0.03558821 -0.015117446
0.003872911 0.07921816 0.01065989 0.0384328 -0.07957849 0.03343627 -0.010963917 0.04899845
-0.0015503798 0.0011331087 -0.011736825 0.020748418 -0.037675094 -0.11148844 -0.0040911613 -0.011568652
0.0145261185 -0.06829947 -0.021019237 0.04342012 0.07210835 0.061747126 -0.00076892925 0.02126579
0.030259479 0.059921306 0.022812549 -0.039624874 -0.017261874 -0.02249238 0.0058359304 -0.09353888
0.085324936 0.056563806 -0.036215145 0.039333146 0.019036328 -0.02501324 -0.052443996 -0.059765305
-0.054998066 -0.04698301 -0.1146489 -0.053176098 -0.03044995 -0.017415231 0.028759625 0.038240936
-0.04029354 0.022259241 -0.1039959 0.02061062 0.006399606 0.104300275 0.08125347 0.019742649
-0.019040635 -0.019100346 0.037661523 0.057003874 0.03607041 -0.01729546 -0.05645139 -0.043597806
0.06052974 -0.038409583 -0.009432173 0.032744154 -0.01815158 0.0073230905 -0.016998084 0.008372608
-0.037043925 0.01950706 -0.0704407 -0.038913116 -0.037967592 -0.025948212 0.031160709 0.03544958
0.025138723 0.026639212 0.006874068 -0.07012527 0.02570419 0.09661005 0.017652692 0.001856831
-0.01078478 -0.11107887 0.020804683 -0.015771266 0.0889563 0.05049286 -0.0014594285 -0.0748494
0.10482015 0.020958658 0.07298697 0.02520707 -0.04469831 -0.048997406 0.22022696 0.057596643
-0.08035224 -0.017779231 0.07019318 0.00893477 0.01693785 0.04495318 0.032024354 0.13509437
0.00084284367 0.076425 0.035610203 0.022291368 0.030006537 -0.050984737 0.029948482 0.08955156
-0.009631328 -0.028675146 0.028948491 -0.023479916 -0.043890826 0.04555787 -0.06193372 0.040513128
-0.03594914 -0.018875603 0.063275084 -0.032424025 0.012256943 0.029115846 0.030152852 -0.046431147
-0.02055252 -0.08651427 -0.13741365 0.09264589 -0.07106256 -0.0397836 0.008994354 0.06941713

decoder.1.cnn.bias f4 [16]
00000000: a0f8 073b ddb4 b0bb 3fef 0abe 4853 bcbc
00000010: 3909 9cbc 06c0 21bc b1ad dd3b 8bba d4bc
00000020: dd30 8bbd 0549 1abd d662 8a3b e272 fb3c
00000030: f6dc b3bc ad29 303d 9a78 663d d313 873d
0.0020747557 -0.0053926543 -0.13567828 -0.02298893 -0.019047366 -0.009872442 0.0067650904 -0.025967857
-0.06796429 -0.037667293 0.004223208 0.030694429 -0.021955948 0.043008495 0.05626736 0.06595578

decoder.2.BachNorm.weight f4 [10]
00000000: 09fc 863f 95d2 763f a428 6e3f 7b61 653f
00000010: befb 7f3f 0ac6 893f dd8f 6c3f 01d1 7c3f
00000020: 98be 733f 6c03 513f
1.0545665 0.9641507 0.9303076 0.8960187 0.99993503 1.0763562 0.9240702 0.98756415
0.952127 0.81645846

decoder.2.BachNorm.bias f4 [10]
00000000: 4bf6 72be 8bb3 60be 4d06 37be 4880 20be
00000010: 397f dbbd fd15 87be 9ccb 88be c955 a2be
00000020: 02c4 79be 3e63 11be
-0.23726766 -0.2194349 -0.17873497 -0.15673935 -0.10717625 -0.26383963 -0.26717842 -0.31706074
-0.24391177 -0.14198014

decoder.2.BachNorm.running_mean f4 [10]
00000000: 42ed 193d 5538 703d 7dd5 adbb f0d0 d93d
00000010: c790 cc3d 4e44 473d 3255 1e3e cb77 363d
00000020: 0f58 d93d b69a 633e
0.037579782 0.058647472 -0.005304991 0.10635555 0.099885516 0.048649125 0.15462187 0.044547837
0.10612499 0.22226986

decoder.2.BachNorm.running_var f4 [10]
00000000: 3d68 413e c115 133e 538d 603e 35d1 683e
00000010: 2970 5c3e ed10 4e3e e49d 273e ce73 3a3e
00000020: 8275 2a3e 7865 853e
0.1888742 0.14363767 0.21928911 0.22736056 0.2152716 0.20123644 0.16368824 0.18208238
0.16646388 0.26053977

decoder.2.cnn.weight f4 [16, 10, 6, 6]
00000000: 6369 cabc 45f4 1eba f20e 0d3d 684a 0d3c
00000010: 6ae8 783b 6aa9 7bbc 50c8 b23a d772 243d
00000020: 6eb6 533d c8a6 523d 4ced 39bd d4d0 b6bd
00000030: f7b3 33bd 9e67 183d 048d 9fbc 0b78 d33d
00000040: 06a0 433d feb3 50bd 9054 3f3d 1ab0 913d
00000050: bbde 1ebd f05d 0ebe ccda aebc e5ee 85bd
00000060: 93c4 abbd c6de aebd 5773 70bc a277 393d
00000070: 7c33 903c 04c9 773d 789f c6bd 6ce1 9abd
00000080: 1e02 4fbc cb4c bb3d 1a00 a53d 4d67 ee3d
00000090: 3b47 843d 7fd6 a1bc 63c5 1f3d b871 9abd
000000a0: 6ae6 653d 9aef 2dbe befa 8d3d 949f 27bc
000000b0: c289 46bd 9b3f bf3b 2705 22be ff5a b7bc
000000c0: 683b 53bc 60aa 85bd d66c 38bc affd d7bc
000000d0: 3a5e 2f3d 23ed 833d 13b1 7fbc a56c 52bd
000000e0: 8fe1 8f3c f01c df3d eb04 693d 0d1f a23b
000000f0: c348 c8bc bf79 5e3c a675 913d 23f4 8b3d
00000100: aae8 f33c 97cd 11bd 7dd0 85bc 3bf0 1bbd
00000110: 8ecc 8d3d 0ee7 363d cf31 433c 765c a03d
00000120: e4d4 ba3d a63c 463d 63f5 793d b85e b3bd
00000130: f86c a2bd 0bd3 86bd db57 023d 0a09 663d
00000140: 4be6 3b3d 47e7 dabd d211 9fbd 3c1d 2bbe
00000150: bb5a ca3c eb39 ab3d ec28 503d 0c8b 03bd
00000160: dc8a e9bd 85a7 fabd f354 0c3d a3bc d73d
00000170: 69b8 933d 68a5 c4bb 51f1 d0bc b49f 3c3d
00000180: e637 863c 8ab2 f83c b175 263d ae22 fd3b
00000190: 3724 273d 43f7 913d 9438 bb3d d820 4e3d
000001a0: d605 3a3d 088e 223c 66bf 7b3d 68a4 ea3b
000001b0: 492c 263d 805b 17bd eb2a cb3b 9920 b6bd
000001c0: 9950 eabc 7893 c2bd a450 bcbc cd89 613d
000001d0: 9d6c 603d a488 bdbd c32e 1b3d e265 efbb
000001e0: a27c 27bc 68d8 27bc 3bc6 363c 6bca bb3c
000001f0: bf65 973d c360 283d 3f37 883c 57f3 cbbc
00000200: 0b90 203c b6f7 7f3d 8fb2 b8bc 4c7c 613d
00000210: 0498 ecbc 4c23 3bbd 7885 02bc 0531 e6bc
00000220: c1c0 32bd 8a60 7a3d ad0e 253d 301e 463b
00000230: 7b92 2cbc 7c7d 973b ee54 c839 55a3 ab3c
00000240: c879 85bc 7177 f03c 2b0a 14bc 0625 083d
00000250: 26b5 a4bd 0b06 b0bd 5328 45bc e43e 823c
00000260: 96bf b33d 5e52 94bd 3f7a ecbc 8e6a a83c
00000270: 323f 83bd 97bc 1a3c e889 7e3d b0d5 6a3b
00000280: 1c2d 49bc 80f4 073c 56a7 3ebd 3ec1 5ebc
00000290: 72df 23bd 887b 95bc 52e1 9e3c 31ae 973d
000002a0: 3c73 60bd e19a 783d 66e5 2a3d 6c4f 123d
000002b0: 8de4 923d c14e 373d d286 9bbd c42b e0bc
000002c0: ff36 233d 18f1 0d3c f59b ea3b 98f7 043d
000002d0: 1b6e c43b d9f9 c53c 964c 5b3d 0b74 2ebd
000002e0: b49e 66bd e580 fdbd 0e05 97bc cd0d 29bc
000002f0: 3f39 bc3d 8d8b 67bd d22c f0bd ce80 c9bd
00000300: 94d5 51bd ce4b 5c3d ff99 343d c8b9 31bd
00000310: 5c78 9a3c fa17 823c 00d0 2cbb bff1 c13d
00000320: 1022 5d3d f10d 763b dbb0 44bb a2c5 8db7
00000330: 485c c43c 1203 c93d 438e 283c 73f2 2b3d
00000340: 69f8 bd3c 5643 e73c 5904 7c3c 2de1 1f3c
00000350: 7a11 2a3d 9bda c93b 8c7e 313d 8794 64bd
00000360: 8862 56bd 431a 993c 189d 113c 0bda a13d
00000370: 51d1 4abc 9f4d 0d3d 446d d43d f171 4b3d
00000380: 3383 b63d e066 56bd a4e7 10bd 1c49 01be
00000390: a66a 8c3d 28c8 08bc 947e bb3d b97c 333d
000003a0: 7fa3 26be bdf8 58bd 11d3 283d dd1f 9bbb
000003b0: dab9 063e f5a0 82bd e0b1 c2bd ab2c 6a3c
000003c0: de7b 12bd b8b7 d63d 2305 613d 9556 84bc
000003d0: 7262 a43d 3963 f0bc c7f0 4c3c 6068 503c
000003e0: 2bcc d03b e60b d8bc 4dcd 9abb 200d 753c
000003f0: 8169 edbc d8da 55ba 54d7 223d e421 fabb
-0.024708455 -0.00060636207 0.03443808 0.008623697 0.0037980326 -0.015360216 0.001364002 0.040148582
0.05168765 0.051428586 -0.04539232 -0.089265496 -0.0438728 0.037208192 -0.019476421 0.10325631
0.047760032 -0.050952904 0.046711504 0.07113667 -0.03878663 -0.13903022 -0.021344565 -0.06539706
-0.08387103 -0.085385844 -0.014675937 0.045280106 0.017602675 0.060494438 -0.09698385 -0.07562527
-0.012634782 0.091455065 0.0805666 0.11640797 0.06458899 -0.0197556 0.039006602 -0.075412214
0.056127943 -0.16985932 0.06932591 -0.0102309175 -0.04847122 0.00583644 -0.15822278 -0.022382258
-0.0128925815 -0.06526637 -0.011256417 -0.026366083 0.04281447 0.064417146 -0.015606183 -0.051373143
0.01756361 0.10894191 0.056889456 0.004947549 -0.024448758 0.013578831 0.07102518 0.06833675
0.029774029 -0.035596456 -0.016334767 -0.0380709 0.06923781 0.044653945 0.011913731 0.078301355
0.09122637 0.048397683 0.061025035 -0.087583005 -0.079309404 -0.06583222 0.031822067 0.056160964
0.04587392 -0.10688644 -0.07767071 -0.16710371 0.024701467 0.08360656 0.050820276 -0.032115027
-0.114034384 -0.12238983 0.0342607 0.105340265 0.07212908 -0.0060011633 -0.025505694 0.046050742
0.016384076 0.030358572 0.040639583 0.0077250814 0.04080602 0.071272396 0.09141651 0.05032429
0.04541572 0.009921558 0.06146183 0.007160712 0.040569577 -0.036952496 0.0062001846 -0.08892936
-0.028602885 -0.09500784 -0.022987671 0.055063058 0.05479108 -0.09254578 0.037886392 -0.0073058465
-0.010222586 -0.010244466 0.01115566 0.022923669 0.073924534 0.041107904 0.016627906 -0.024896307
0.0097999675 0.062492095 -0.02254608 0.05505018 -0.02888108 -0.04568796 -0.007966392 -0.028099546
-0.043640856 0.061127223 0.0402972 0.0030230395 -0.010532971 0.004623113 0.0003821025 0.020951906
-0.016293421 0.02935383 -0.009035627 0.033238433 -0.08042364 -0.085949026 -0.01203354 0.01589913
0.087767765 -0.07242273 -0.028866885 0.020558622 -0.06408538 0.009444377 0.062143236 0.0035832934
-0.012278821 0.008298039 -0.046546303 -0.013595877 -0.040008016 -0.01824738 0.01939455 0.07406271
-0.054797396 0.06069458 0.041722678 0.035720274 0.07172499 0.04475284 -0.07594074 -0.02736462
0.03984737 0.008663438 0.007159705 0.032462686 0.005994571 0.024166988 0.053539835 -0.042591136
-0.056303695 -0.123781 -0.018435027 -0.010318232 0.09190606 -0.05652957 -0.11727299 -0.09839021
-0.051229075 0.05378323 0.044092175 -0.043390065 0.01885622 0.015880574 -0.0026369095 0.094699375
0.053987563 0.003754493 -0.003001264 -1.690054e-05 0.023969784 0.09815039 0.010287824 0.041979264
0.02318974 0.02823035 0.015381896 0.009758276 0.041520573 0.006160093 0.043333575 -0.05580571
-0.05234006 0.01868928 0.008887552 0.079029165 -0.0123790065 0.034497853 0.10372403 0.04966921
0.08911743 -0.052344203 -0.03537716 -0.12625545 0.06856279 -0.008348502 0.09155002 0.043820117
-0.16273306 -0.05297159 0.041216914 -0.004734023 0.13156834 -0.06378356 -0.09506583 0.014292876
-0.03576266 0.1048426 0.05493654 -0.016154567 0.080265895 -0.029344188 0.012508578 0.012720197
0.006371995 -0.026372861 -0.004724181 0.0149567425 -0.028980972 -0.00081579154 0.039756134 -0.0076334346

decoder.2.cnn.bias f4 [10]
00000000: 6a17 37bc f333 1b3c f420 e8bd d02e 84bd
00000010: 68e1 95bd 3168 96bb 1ba5 593d 842a c43c
00000020: 5f94 dcbc 2e83 88bd
-0.011175016 0.009472835 -0.1133441 -0.06454241 -0.073183835 -0.0045900573 0.053135972 0.023946054
-0.026926218 -0.066656455
