AutoEncoders/Conditional_VAE/saved_model/model1.pth (torch, 91517 bytes, 44 tensors)

encoder_faltten.0.BachNorm.weight f4 [8]
0.94701993 0.93044025 0.9075703 1.0591329 0.95068336 0.9509279 1.0202961 1.0439953
00000000: e66f 723f 5531 6e3f 8756 683f ab91 873f
00000010: fc5f 733f 0370 733f 1099 823f a3a1 853f

encoder_faltten.0.BachNorm.bias f4 [8]
0.028332543 0.09032608 0.21540478 0.21571496 0.18442753 0.41471896 0.3772225 0.01612671
00000000: a619 e83c e1fc b83d 1293 5c3e 62e4 5c3e
00000010: 92da 3c3e 0b56 d43e 4f23 c13e 2a1c 843c

encoder_faltten.0.BachNorm.running_mean f4 [8]
2.772407 -0.97493637 0.1496829 0.38366163 -0.1493179 -0.15348196 0.2249349 -1.3206869
00000000: 1e6f 3140 6e95 79bf 7946 193e 4c6f c43e
00000010: cbe6 18be 602a 1dbe 5655 663e 450c a9bf

encoder_faltten.0.BachNorm.running_var f4 [8]
4.158544 0.6916379 0.24628928 1.0646932 0.74662364 0.43255463 1.0896947 1.3540906
00000000: cb12 8540 2e0f 313f 4233 7c3e de47 883f
00000010: ba22 3f3f cd77 dd3e 1e7b 8b3f d752 ad3f

encoder_faltten.0.cnn.weight f4 [8, 2, 3, 3]
0.09876291 0.22563827 -0.1677761 0.27700597 0.05748595 -0.13966946 -0.05674075 0.15679766
-0.1053299 0.18404144 -0.16549024 0.17762943 0.0046123792 0.19164643 0.013633288 0.046553664
0.07092914 0.18345203 0.0013700355 0.11372067 -0.24878967 0.16678128 -0.0041083135 -0.106387064
0.039343517 0.25530154 0.05112964 0.12388289 -0.21244562 -0.013546381 -0.25846085 -0.042699065
0.17071517 -0.084749155 0.16508743 -0.05645602 -0.18199044 -0.041814618 -0.029505907 0.022685196
0.06483645 0.018375231 -0.037086133 0.23145683 0.24538787 -0.23846607 -0.2031279 -0.084204234
0.19259559 0.17836536 -0.004631214 0.10512712 -0.10573854 0.15148968 0.1300229 0.104122706
-0.1836502 -0.28531876 -0.16409367 -0.22922543 -0.1902567 -0.25889105 -0.082435794 -0.14399908
0.06832373 -0.051249567 0.077601224 0.041723423 -0.012046242 0.04293098 0.09793431 -0.013783911
0.060067736 0.036345154 0.28417364 -0.044367656 0.11433333 -0.07934601 0.0655566 0.16027088
-0.2324225 0.009140487 -0.16908391 -0.16392776 -0.09600444 0.24026717 -0.0914167 0.086813234
0.25748616 -0.067076385 0.35044834 0.044386197 0.053930186 0.17037569 -0.077441275 0.17670935
0.023715543 -0.14911978 0.06817672 -0.016942529 -0.00968036 0.21305703 -0.0935066 -0.17494163
-0.049935993 -0.053554676 0.23395096 -0.0501474 0.09573335 0.055721894 0.13754891 -0.002764513
0.061437014 0.13919532 0.2875284 0.17820461 0.29942736 -0.10911449 0.18677442 0.15161383
0.15282257 -0.009603091 -0.17311202 0.013350811 -0.16235144 0.02766621 -0.23287839 -0.07520612
0.035454515 0.015006625 -0.2870058 -0.0772513 0.29611048 -0.22820757 -0.2324988 -0.0764073
-0.19331059 -0.052518405 0.16909425 0.1405113 0.08756774 -0.09863506 -0.08962363 -0.17211792
00000000: 3544 ca3d b80d 673e 7fcd 2bbe bad3 8d3e
00000010: 6376 6b3d 8305 0fbe fd68 68bd 918f 203e
00000020: 34b7 d7bd 5c75 3c3e 4676 29be 7de4 353e
00000030: 7123 973b f63e 443e 285e 5f3c 0eaf 3e3d
00000040: 4c43 913d d9da 3b3e c392 b33a 62e6 e83d
00000050: b8c2 7ebe b6c8 2a3e 089f 86bb 76e1 d9bd
00000060: ab26 213d e2b6 823e 506d 513d 50b6 fd3d
00000070: 588b 59be a4f1 5dbc fb54 84be 37e5 2ebd
00000080: f5cf 2e3e f790 adbd ae0c 293e 6d3e 67bd
00000090: b45b 3abe ce45 2bbd 5fb6 f1bc 4ed6 b93c
000000a0: f9c8 843d a787 963c a1e7 17bd 0503 6d3e
000000b0: f546 7b3e 7330 74be c300 50be 4573 acbd
000000c0: c737 453e 69a5 363e 70c1 97bb e34c d73d
000000d0: 738d d8bd 1c20 1b3e b924 053e 493e d53d
000000e0: cc0e 3cbe 4d15 92be 2c08 28be 12ba 6abe
000000f0: a7d2 42be 5e8d 84be 19d4 a8bd 7f74 13be
00000100: 50ed 8b3d 11eb 51bd 64ed 9e3d 2ee6 2a3d
00000110: 9a5d 45bc 65d8 2f3d c991 c83d ead5 61bc
00000120: 9609 763d a8de 143d 357f 913e dcba 35bd
00000130: 9827 ea3d 2980 a2bd 8a42 863d 0d1e 243e
00000140: 2a00 6ebe fbc1 153c 5524 2dbe aedc 27be
00000150: fa9d c4bd 9908 763e ae38 bbbd 23cb b13d
00000160: 3ad5 833e 585f 89bd f76d b33e 4dce 353d
00000170: e6e5 5c3d f776 2e3e 8899 9ebd 4cf3 343e
00000180: 1947 c23c dbb2 18be 3ca0 8b3d 0fcb 8abc
00000190: 5f9a 1ebc 9f2b 5a3e 6380 bfbd e623 33be
000001a0: af89 4cbd 265c 5bbd d790 6f3e 5c67 4dbd
000001b0: d90f c43d a43c 643d 9fd9 0c3e d52c 35bb
000001c0: 61a5 7b3d 3889 0e3e ec36 933e 457b 363e
000001d0: 8b4e 993e 6b77 dfbd cb41 3f3e a840 1b3e
000001e0: 857d 1c3e 4856 1dbc 4744 31be 5cbd 5a3c
000001f0: 753f 26be 3fa4 e23c ac77 6ebe ab05 9abd
00000200: c138 113d 59de 753c 6df2 92be ee35 9ebd
00000210: cb9b 973e 3faf 69be 2a14 6ebe 6e7b 9cbd
00000220: 36f3 45be 8a1d 57bd 0b27 2d3e 32e2 0f3e
00000230: b756 b33d 2e01 cabd 988c b7bd ae3f 30be

encoder_faltten.0.cnn.bias f4 [8]
0.002229132 -0.15613268 0.16061741 -0.045118917 -0.15545838 -0.1661778 -0.09599022 -0.14031638
00000000: a116 123b 3fe1 1fbe e478 243e 9dce 38bd
00000010: 7b30 1fbe 832a 2abe 8596 c4bd 19af 0fbe

encoder_faltten.1.BachNorm.weight f4 [16]
1.0881282 0.9215244 0.99637973 1.01318 0.93882763 1.2267221 1.0576254 0.98614836
1.006181 0.9840587 0.9291584 0.9693884 1.1113681 1.015885 1.0194302 1.0499574
00000000: c947 8b3f 06e9 6b3f be12 7f3f e2af 813f
00000010: 0257 703f 3b05 9d3f 4560 873f 3874 7c3f
00000020: 8aca 803f 45eb 7b3f 53dd 6d3f d729 783f
00000030: 4f41 8e3f 8508 823f b07c 823f 0165 863f

encoder_faltten.1.BachNorm.bias f4 [16]
0.027388532 0.032000758 -0.0021377283 0.049334373 -0.011901991 0.082728215 -0.04765846 -0.03891533
-0.022212666 0.03355455 -0.052490517 -0.0006457807 0.07320967 0.008527301 0.007151834 -0.020599134
00000000: ea5d e03c 3a13 033d 2119 0cbb d712 4a3d
00000010: 9200 43bc 696d a93d 8435 43bd ae65 1fbd
00000020: 56f7 b5bc 7f70 093d 4c00 57bd 9c49 29ba
00000030: f4ee 953d 18b6 0b3c ef59 ea3b 84bf a8bc

encoder_faltten.1.BachNorm.running_mean f4 [16]
-0.43389755 -0.19477853 0.082939245 0.7335521 0.47415808 -0.30811346 -0.26268834 -0.23539142
-0.3247025 0.23342611 -0.1963202 0.51291275 1.0874574 0.22853586 0.01706291 0.80939066
00000000: d227 debe 0674 47be 0ddc a93d 12ca 3b3f
00000010: d9c4 f23e 0cc1 9dbe 167f 86be 730a 71be
00000020: 683f a6be 4107 6f3e 2a08 49be 404e 033f
00000030: ce31 8b3f 4e05 6a3e 84c7 8b3c 3a34 4f3f

encoder_faltten.1.BachNorm.running_var f4 [16]
0.90444803 0.36806348 0.5756122 0.9119462 0.5121455 0.5545991 0.5716612 0.35114518
0.32652977 0.5715346 0.66040236 0.5471902 1.2576413 0.19759881 0.32860848 0.5837284
00000000: e889 673f d172 bc3e 525b 133f 4e75 693f
00000010: f81b 033f 35fa 0d3f 6358 123f 4dc9 b33e
00000020: e92e a73e 1750 123f 2110 293f a814 0c3f
00000030: 64fa a03f 5857 4a3e 5f3f a83e 396f 153f

encoder_faltten.1.cnn.weight f4 [16, 8, 3, 3]
0.058571585 0.08913898 0.057061702 -0.0633338 0.009967539 -0.09863584 0.03473057 -0.024294375
0.06546209 0.11683075 -0.046015784 0.07515102 -0.07573166 -0.09812795 0.055493627 -0.085063726
0.021309275 -0.004698309 -0.0923782 -0.010567785 -0.0021271997 -0.04739062 -0.07522522 -0.12582937
-0.019760117 -0.061717324 0.021773944 0.115208834 -0.038701877 -0.009034016 0.0907021 0.12116898
0.045003247 -0.01809191 -0.015641104 0.09732064 0.01857453 -0.05640457 -0.09368877 -0.1354432
-0.06026965 -0.023985105 -0.041500133 0.022123447 -0.01508107 0.1360108 -0.06706256 -0.09861342
-0.018975228 -0.058500875 0.06840397 -0.10696127 0.044849277 0.043200597 0.14722203 -0.04135983
-0.1409604 -0.15546022 0.03669419 -0.07235961 -0.23056056 -0.11747208 -0.1726944 0.044611003
-0.008878156 -0.08091398 -0.10418048 -0.053094223 0.07016925 0.02803913 -0.037888616 -0.09506387
-0.03250473 -0.05790342 0.09419429 -0.0008214659 -0.017325984 0.03890132 0.08735845 0.09951963
0.036783893 0.21503064 0.06822839 -0.008769357 0.0008654712 0.04911207 -0.12387961 0.1297123
-0.10115505 0.017596673 -0.088310815 -0.08433593 -0.07367264 0.032818817 -0.03381123 -0.10632831
-0.015019586 -0.08339432 -0.12006887 0.0036559072 -0.08332883 -0.055923633 0.06976147 -0.06811704
0.099375196 0.05469379 -0.0024127644 0.08539446 -0.11782425 0.018985918 -0.009487431 -0.016930586
0.047875375 -0.05483287 -0.11322804 0.030294778 0.031989865 0.115382634 -0.1263015 0.0059014913
0.0156978 0.13468319 -0.048783343 0.09086862 -0.00079643185 -0.060250863 0.06890059 -0.03850245
-0.033379763 -0.047830813 0.10283734 -0.16676684 0.056539506 0.06939971 -0.18996757 0.021109449
0.0007727368 -0.08750961 -0.07283336 -0.025031036 -0.03858248 0.09496741 -0.0026087645 0.07134075
0.08768029 0.059347548 0.10920854 0.07748302 0.036609866 0.020350974 -0.104730114 -0.13636462
-0.039669055 0.059205335 0.05012817 0.11552408 0.09927281 0.046567045 0.10601822 -0.037757106
0.010844564 -0.0914173 -0.04574951 0.08151168 -0.03646563 0.037473988 -0.06346877 -0.018231181
-0.0515967 -0.25192767 0.005534357 0.17001721 0.052993797 -0.13672547 0.14391182 0.017736714
0.08658711 0.09716868 0.13621002 0.0071410835 -0.006001339 0.076415256 -0.051400904 -0.038936496
-0.041205868 0.023631152 -0.06485398 -0.12717178 -0.0218467 -0.066636115 0.028189624 0.11261779
-0.123921245 -0.07691979 0.10251153 -0.04373984 -0.0838737 -0.023134109 -0.08393465 0.025460761
0.017193183 -0.06702854 0.014960858 0.057025105 0.036270812 -0.23088576 0.10959275 0.16890399
0.12267985 -0.039207533 0.14624622 -0.01678691 0.09578673 0.07659162 -0.06729953 0.0070446637
-0.00013215345 0.014903336 0.021516271 -0.021414973 -0.020318856 0.04420987 0.069120996 -0.0204389
-0.101234525 0.06265285 0.108077236 0.02732137 0.20571324 0.026138386 0.09097538 0.07627836
0.08420988 -0.0772747 -0.015578952 0.013556898 0.02979723 -0.06615323 0.051553085 0.1809438
-0.0013721507 0.053076763 -0.019066669 -0.04615882 -0.0003630323 -0.017249046 -0.0010828563 -0.09534175
-0.14004631 0.08522409 -0.005235129 0.091469854 -0.09869539 0.11881718 0.123937316 -0.068523645
00000000: c2e8 6f3d 7f8e b63d 88b9 693d 27b5 81bd
00000010: e44e 233c 9601 cabd a441 0e3d ff04 c7bc
00000020: fd10 863d f644 ef3d 0c7b 3cbd c7e8 993d
00000030: 3319 9bbd 4ff7 c8bd 494d 633d e435 aebd
00000040: ca90 ae3c 46f4 99bb c830 bdbd 8124 2dbc
00000050: 7d68 0bbb ab1c 42bd ae0f 9abd 6ad9 00be
00000060: f8df a1bc 4ecb 7cbd 455f b23c 9cf2 eb3d
00000070: dc85 1ebd 6903 14bc 06c2 b93d 7127 f83d
00000080: 5355 383d 7c35 94bc c621 80bc 0b50 c73d
00000090: 9d29 983c 7a08 67bd e6df bfbd 9fb1 0abe
000000a0: 4fdd 76bd 697c c4bc 0bfc 29bd 3b3c b53c
000000b0: 9816 77bc 6a46 0b3e 1858 89bd d5f5 c9bd
000000c0: f071 9bbc 9d9e 6fbd 6117 8c3d 830e dbbd
000000d0: e0b3 373d 1cf3 303d 5fc1 163e ed68 29bd
000000e0: ec57 10be f730 1fbe a64c 163d 4631 94bd
000000f0: 1118 6cbe 3495 f0bd cdd6 30be 07ba 363d
00000100: af75 11bc 3bb6 a5bd 935c d5bd 5479 59bd
00000110: e5b4 8f3d 51b2 e53c 1831 1bbd d9b0 c2bd
00000120: ae23 05bd 232c 6dbd f0e8 c03d a557 57ba
00000130: 39ef 8dbc fe56 1f3d fde8 b23d f3d0 cb3d
00000140: b5aa 163d fe30 5c3e 53bb 8b3d 59ad 0fbc
00000150: cae0 623a bd29 493d 98b4 fdbd 4dd3 043e
00000160: 612a cfbd e626 903c 4ddc b4bd 51b8 acbd
00000170: aee1 96bd 066d 063d a57d 0abd a8c2 d9bd
00000180: b614 76bc a4ca aabd abe6 f5bd f297 6f3b
00000190: 4ea8 aabd 2e10 65bd 1adf 8e3d f280 8bbd
000001a0: 3985 cb3d 9806 603d 781f 1ebb 4ae3 ae3d
000001b0: d74d f1bd 5b88 9b3c 2b71 1bbc 03b2 8abc
000001c0: f818 443d 6e98 60bd 1ae4 e7bd c12c f83c
000001d0: ce07 033d bb4d ec3d 2e55 01be 4c61 c13b
000001e0: ac98 803c 64ea 093e 0bd1 47bd 5419 ba3d
000001f0: a3c7 50ba 9cc9 76bd c11b 8d3d bfb4 1dbd
00000200: 38b9 08bd 3eea 43bd 629c d23d edc4 2abe
00000210: f895 673d 6f21 8e3d dc86 42be b9ed ac3c
00000220: 7d91 4a3a 3d38 b3bd a829 95bd e30d cdbc
00000230: aa08 1ebd 467e c23d cef7 2abb 191b 923d
00000240: b991 b33d 6a16 733d baa8 df3d 6baf 9e3d
00000250: 3af4 153d 16b7 a63c be7c d6bd 2ba3 0bbe
00000260: 057c 22bd 4b81 723d 3253 4d3d e497 ec3d
00000270: 8b4f cb3d 16bd 3e3d 1520 d93d 32a7 1abd
00000280: 66ad 313c fe38 bbbd d763 3bbd 98ef a63d
00000290: fc5c 15bd 537e 193d eafb 81bd 8f59 95bc
000002a0: 1057 53bd aafc 80be 8d59 b53b fe18 2e3e
000002b0: 0610 593d c301 0cbe 9f5d 133e 964c 913c
000002c0: 9554 b13d 5f00 c73d a47a 0b3e c0ff e93b
000002d0: e1a6 c4bb 9a7f 9c3d c189 52bd e07b 1fbd
000002e0: 7cc7 28bd 1e96 c13c 2ad2 84bd 5239 02be
000002f0: daf7 b2bc 8478 88bd eded e63c 28a4 e63d
00000300: 6cca fdbd 1f88 9dbd 91f1 d13d 8c28 33bd
00000310: f9c5 abbd be83 bdbc eee5 abbd 1693 d03c
00000320: b8d8 8c3c 4246 89bd 631e 753c 2893 693d
00000330: b490 143d 516d 6cbe 2a72 e03d 2bf5 2c3e
00000340: 933f fb3d 1498 20bd 92c1 153e b484 89bc
00000350: d52b c43d 11dc 9c3d 56d4 89bd ecd6 e63b
00000360: ac92 0ab9 1f2d 743c e442 b03c 746e afbc
00000370: bb73 a6bc 6915 353d 4f8f 8d3d 7b6f a7bc
00000380: 0c54 cfbd 2350 803d 9957 dd3d 11d1 df3c
00000390: 7ea6 523e 2b20 d63c 4d51 ba3d d437 9c3d
000003a0: 3b76 ac3d 3342 9ebd dc3e 7fbc c01d 5e3c
000003b0: 5219 f43c 587b 87bd 5429 533d 5549 393e
000003c0: bdd9 b3ba 0567 593d b431 9cbc 0811 3dbd
000003d0: 5f55 beb9 df4d 8dbc a1ee 8dba 8942 c3bd
000003e0: 4d68 0fbe f889 ae3d 728b abbb 8c54 bb3d
000003f0: cf20 cabd 6c56 f33d d9d2 fd3d 2056 8cbd

encoder_faltten.1.cnn.bias f4 [16]
0.06507531 -0.10805575 -0.038259268 -0.06422493 -0.0170058 -0.08604558 0.047025353 -0.049020916
0.017871162 0.039741278 -0.0001102567 0.07283457 0.05285398 0.09076304 -0.088538095 0.049069386
00000000: 3446 853d 554c ddbd c0b5 1cbd 5c88 83bd
00000010: bf4f 8bbc aa38 b0bd a89d 403d 28ca 48bd
00000020: 8b66 923c c0c7 223d 9d39 e7b8 4b2a 953d
00000030: 6a7d 583d f9e1 b93d 7653 b5bd fbfc 483d

encoder_unfaltten.0.BachNorm.weight f4 [8]
1.0 1.0 1.0 1.0 1.0 1.0 1.0 1.0
00000000: 0000 803f 0000 803f 0000 803f 0000 803f
00000010: 0000 803f 0000 803f 0000 803f 0000 803f

encoder_unfaltten.0.BachNorm.bias f4 [8]
0.0 0.0 0.0 0.0 0.0 0.0 0.0 0.0
00000000: 0000 0000 0000 0000 0000 0000 0000 0000
00000010: 0000 0000 0000 0000 0000 0000 0000 0000

encoder_unfaltten.0.BachNorm.running_mean f4 [8]
0.005079354 0.045386143 0.007555359 0.029974058 -0.012176264 0.04716727 0.03556786 -0.0173775
00000000: b670 a63b d2e6 393d f292 f73b 288c f53c
00000010: f47e 47bc 7832 413d 9baf 113d 425b 8ebc

encoder_unfaltten.0.BachNorm.running_var f4 [8]
0.90305686 0.9039893 0.9033823 0.90202266 0.90405315 0.9033667 0.9036923 0.9035059
00000000: bc2e 673f d86b 673f 1044 673f f5ea 663f
00000010: 0770 673f 0a43 673f 6158 673f 2a4c 673f

encoder_unfaltten.0.cnn.weight f4 [8, 2, 3, 3]
-0.0068077594 -0.14990672 0.19365396 -0.13833009 -0.16744065 -0.053761587 -0.119307615 -0.10473208
0.19896267 0.055078372 0.21781437 -0.062579244 0.032466784 0.0413415 -0.22189784 0.21471103
0.21203937 -0.11175268 0.13846792 0.19991608 -0.039295077 -0.07292125 0.21389954 0.18834673
-0.10622397 -0.049547747 -0.024307162 0.045412943 -0.10519415 -0.01618877 0.10471822 0.16605704
-0.023412406 0.23053531 0.115503594 0.0032648146 0.12691538 0.06954099 -0.114071034 -0.11910812
-0.016839385 0.23254953 0.103168115 0.15906228 0.11390258 0.021576896 -0.029184535 -0.2045887
0.21590944 -0.17703888 0.17579637 0.21806528 -0.06154339 -0.17050631 0.16305156 0.18029864
-0.034327403 -0.012688145 -0.06323542 -0.08010942 -0.15406981 0.15876178 0.095771596 0.15269952
-0.053935036 0.12563889 -0.028402254 0.08022387 -0.16592947 0.04409413 0.043644115 -0.0337099
-0.20307595 0.14030372 0.11514692 0.20008712 -0.02065584 0.16636018 -0.16815531 -0.15120625
0.16858657 0.12642302 -0.031212881 0.090838745 -0.10972011 0.20824848 -0.20035867 -0.14818472
-0.1682285 -0.117465965 -0.025489062 0.102293745 0.17107902 -0.18440361 -0.22809158 0.16800319
-0.04255098 0.0631959 0.14883555 -0.021967277 0.19731547 0.19041322 -0.030935451 0.056712434
-0.031172544 -0.12197531 0.22480349 0.059318885 -0.0251946 0.17234938 0.19862022 -0.0975828
0.086938694 0.0334024 0.20452319 0.14802177 -0.13185717 0.19767748 0.0019839406 0.12519987
-0.09769119 0.10605706 -0.13383026 -0.08631557 0.1815279 0.039357796 0.14061804 -0.15859461
-0.16407967 -0.15494767 -0.21814889 4.068017e-06 0.11206843 0.19988184 -0.031998083 -0.104467124
0.19289409 0.040197417 -0.100374624 0.016499922 -0.21791562 0.009875089 -0.18448822 0.059222445
00000000: a013 dfbb 2681 19be 394d 463e 67a6 0dbe
00000010: 9075 2bbe 1c35 5cbd 8d57 f4bd c67d d6bd
00000020: dfbc 4b3e dc99 613d bb0a 5f3e 8c29 80bd
00000030: e4fb 043d b455 293d 3039 63be 35dd 5b3e
00000040: d920 593e 97de e4bd 89ca 0d3e cdb6 4c3e
00000050: e0f3 20bd bc57 95bd 7b08 5b3e f7dd 403e
00000060: f48b d9bd 94f2 4abd d01f c7bc ec02 3a3d
00000070: 0870 d7bd 509e 84bc 8276 d63d db0a 2a3e
00000080: 60cb bfbc 7311 6c3e 268d ec3d 80f6 553b
00000090: 1bf6 013e 826b 8e3d 139e e9bd f5ee f3bd
000000a0: c0f2 89bc 7721 6e3e ce49 d33d 39e1 223e
000000b0: c245 e93d 08c2 b03c 6814 efbc b37f 51be
000000c0: 5d17 5d3e ae49 35be f703 343e 814c 5f3e
000000d0: ec14 7cbd 3599 2ebe fdf6 263e 35a0 383e
000000e0: e49a 0cbd f0e1 4fbc 9281 81bd 6810 a4bd
000000f0: 7ac4 1dbe 7392 223e e623 c43d 435d 1c3e
00000100: fcea 5cbd 7ba7 003e d8ab e8bc 6a4c a43d
00000110: 6ae9 29be 0c9c 343d 2cc4 323d 6413 0abd
00000120: 24f3 4fbe c7ab 0f3e 26d2 eb3d a3e3 4c3e
00000130: 7036 a9bc 535a 2a3e e830 2cbe d0d5 1abe
00000140: f5a1 2c3e 0975 013e 28b2 ffbc aa09 ba3d
00000150: f0b4 e0bd 173f 553e d32a 4dbe bcbd 17be
00000160: 1844 2cbe ff91 f0bd 70ce d0bc 627f d13d
00000170: 572f 2f3e 4dd4 3cbe d790 69be 0709 2c3e
00000180: f049 2ebd da6c 813d 5968 183e b8f4 b3bc
00000190: 110d 4a3e affb 423e 586c fdbc 4c4b 683d
000001a0: 905d ffbc 31ce f9bd e332 663e 5cf8 723d
000001b0: e864 cebc 5b7c 303e 1963 4b3e 7ed9 c7bd
000001c0: ea0c b23d f4d0 083d 876e 513e 0593 173e
000001d0: 9105 07be f76b 4a3e 0005 023b 6534 003e
000001e0: 5212 c8bd 7234 d93d cd0a 09be 38c6 b0bd
000001f0: 73e2 393e a435 213d 2dfe 0f3e a066 22be
00000200: 8004 28be 9aaa 1ebe 6c62 5fbe 0080 8836
00000210: 2284 e53d d3ad 4c3e 6c10 03bd dcf2 d5bd
00000220: 0786 453e 0ca6 243d 3691 cdbd d82a 873c
00000230: 4625 5fbe 20cb 213c 7bea 3cbe 3c93 723d

encoder_unfaltten.0.cnn.bias f4 [8]
0.03834717 0.031667456 -0.16352522 0.11809535 -0.07617186 0.16876875 -0.04679112 0.0726534
00000000: ec11 1d3d bcb5 013d 2873 27be fadb f13d
00000010: feff 9bbd b7d1 2c3e 0ca8 3fbd 4ecb 943d

encoder_unfaltten.1.BachNorm.weight f4 [16]
1.0 1.0 1.0 1.0 1.0 1.0 1.0 1.0
1.0 1.0 1.0 1.0 1.0 1.0 1.0 1.0
00000000: 0000 803f 0000 803f 0000 803f 0000 803f
00000010: 0000 803f 0000 803f 0000 803f 0000 803f
00000020: 0000 803f 0000 803f 0000 803f 0000 803f
00000030: 0000 803f 0000 803f 0000 803f 0000 803f

encoder_unfaltten.1.BachNorm.bias f4 [16]
0.0 0.0 0.0 0.0 0.0 0.0 0.0 0.0
0.0 0.0 0.0 0.0 0.0 0.0 0.0 0.0
00000000: 0000 0000 0000 0000 0000 0000 0000 0000
00000010: 0000 0000 0000 0000 0000 0000 0000 0000
00000020: 0000 0000 0000 0000 0000 0000 0000 0000
00000030: 0000 0000 0000 0000 0000 0000 0000 0000

encoder_unfaltten.1.BachNorm.running_mean f4 [16]
-0.0017749894 -0.00774145 0.00448656 0.06495379 0.052991517 0.020261856 -0.035492625 -0.044051908
0.03285844 0.03515441 0.0039058481 -0.0154596 -0.026533097 0.043928865 0.0041244836 -0.024704514
00000000: c3a6 e8ba fdab fdbb fe03 933b 7e06 853d
00000010: a20d 593d 31fc a53c b760 11bd c66f 34bd
00000020: 9296 063d 12fe 0f3d 42f9 7f3b 434a 7dbc
00000030: f05b d9bc c1ee 333d ad26 873b 1f61 cabc

encoder_unfaltten.1.BachNorm.running_var f4 [16]
0.9087847 0.9216949 0.9083194 0.9350602 0.9291891 0.91113794 0.9141504 0.91486865
0.91841424 0.9205547 0.90890056 0.9171502 0.90934867 0.91836256 0.90788317 0.9201527
00000000: 1da6 683f 32f4 6b3f 9f87 683f 1b60 6f3f
00000010: 56df 6d3f 5640 693f c305 6a3f d534 6a3f
00000020: 321d 6b3f 79a9 6b3f b5ad 683f 5bca 6a3f
00000030: 13cb 683f cf19 6b3f 086b 683f 218f 6b3f

encoder_unfaltten.1.cnn.weight f4 [16, 8, 3, 3]
-0.03204242 -0.022435062 -0.041346073 0.08026547 -0.012603283 0.032612123 0.032331146 0.053646304
0.02944269 -0.07257719 -0.015402287 0.09874127 0.09352032 -0.096858434 0.03778898 -0.10348926
0.018988095 0.08612128 -0.105578616 0.030403055 -0.046721958 0.005553581 0.0745806 -0.044865787
-0.05941444 0.06621506 0.07807525 0.042466946 -0.07571882 0.1150232 -0.08531521 -0.05637367
-0.027216904 0.043941207 0.06601495 -0.062337127 0.0842522 0.034717448 -0.025290765 -0.042801067
0.09918309 0.07031854 -0.096357726 -0.032198578 0.0065593272 -0.04032751 0.090051316 -0.112007946
0.008977555 -0.0062087104 0.036456756 -0.110370785 0.08086205 0.06190344 0.05325853 0.08935513
-0.08384369 -0.03920556 -0.046374835 -0.06453508 -0.011258744 0.009677224 -0.11762608 0.024086498
0.07866397 -0.028097041 -0.059320368 -0.00050778687 -0.0026222244 -0.0367025 0.09836874 -0.11685651
-0.039522648 -0.11617029 0.09170442 0.09753988 -0.07728957 0.10223327 0.03867253 0.08422326
0.09258754 -0.020025037 0.10847416 0.032122366 0.06368918 -0.069258794 0.060198463 0.104208596
-0.1176578 -0.03842298 -0.0020498931 0.087206356 -0.09322839 0.11009946 -0.08374469 -0.014161512
-0.00231684 -0.009236537 -0.08315194 0.11595657 0.08379824 -0.0738893 0.043650515 -0.0011181161
-0.08997158 -0.09229407 0.027934857 -0.08271843 0.01622609 0.07624332 0.08987198 -0.0071080104
-0.0951157 -0.05504322 -0.05918453 0.06347702 -0.09453795 -0.013724811 0.0033391267 -0.103359066
-0.009574018 0.08441571 -0.031906217 0.0260543 0.042330287 -0.106921375 0.055688612 6.22347e-05
0.09818471 -0.038027346 0.046392597 0.0018598139 0.051209502 -0.10255922 -0.1135062 0.1172714
-0.050159678 -0.0064393207 0.03681431 0.11036215 -0.103501424 0.029597484 0.040976755 -0.11698791
0.00043477118 -0.008031264 -0.063115716 -0.035745785 0.05118642 0.07498982 -0.031614073 0.012707435
0.08663947 -0.07065391 -0.08453196 0.004278302 -0.07725981 0.11651573 -0.047868975 0.018886916
-0.09096338 0.10502594 -0.112609945 0.061677746 0.031624936 -0.05539914 -0.10133031 0.028770901
-0.07631211 0.059966274 -0.030120187 0.07380506 0.114061035 -0.030103102 0.068012945 -0.010137022
0.069929756 0.010966517 -0.03561136 0.0435294 -0.08038594 0.09514878 0.098435275 -0.012046412
-0.10641399 0.026571386 -0.046199307 -0.09626031 0.040732317 0.06329443 0.072743796 -0.056916777
0.004458025 0.0057735294 0.069401 0.01699648 0.08208244 0.07975992 -0.049164467 -0.02233763
0.042689227 0.0015178323 -0.08651599 -0.09654618 0.049991883 0.030255415 -0.06967765 0.060238577
-0.07167569 -0.060921922 0.013552718 0.07923917 0.022656687 0.08748638 0.033294357 -0.034143545
-0.0025018677 0.11329863 0.07054656 0.07629625 -0.11776239 0.075026385 0.10575671 -0.051571615
-0.082592845 0.033485882 -0.05812531 0.041075878 -0.0415615 -0.099116154 -0.053403497 0.037577815
-0.009679429 -0.11597974 0.026562698 0.05108773 -0.028991021 -0.09879411 0.019489579 -0.06435491
0.057810746 0.029899172 -0.06423332 0.03320252 0.042305045 0.032284714 -0.09213607 -0.008438446
-0.04222426 0.039127745 0.08814023 -0.09343143 0.07468478 0.10895767 -0.0709028 0.107921176
00000000: ea3e 03bd bcc9 b7bc 805a 29bd 3962 a43d
00000010: 007e 4ebc 4a94 053d aa6d 043d 3abc 5b3d
00000020: cc31 f13c 5aa3 94bd e059 7cbc dd38 ca3d
00000030: 9587 bf3d b75d c6bd 9ec8 1a3d 2df2 d3bd
00000040: ec8c 9b3c 5b60 b03d 9a39 d8bd d40f f93c
00000050: 865f 3fbd d0fa b53b b7bd 983d 30c5 37bd
00000060: 8e5c 73bd c39b 873d ebe5 9f3d d2f1 2d3d
00000070: 7812 9bbd 4991 eb3d beb9 aebd 14e8 66bd
00000080: fcf5 debc b2fb 333d d932 873d 3755 7fbd
00000090: 6b8c ac3d e233 0e3d 942e cfbc 2c50 2fbd
000000a0: 8120 cb3d 2b03 903d 3357 c5bd a8e2 03bd
000000b0: a0ef d63b 762e 25bd d36c b83d 6c64 e5bd
000000c0: 9816 133c 7072 cbbb ae53 153d 140a e2bd
000000d0: 019b a53d 768e 7d3d 9e25 5a3d d3ff b63d
000000e0: 3eb6 abbd 0296 20bd 8af3 3dbd f82a 84bd
000000f0: 9876 38bc 388d 1e3c f1e5 f0bd 0c51 c53c
00000100: 931a a13d c42b e6bc eaf9 72bd 001d 05ba
00000110: a0d9 2bbb 5c55 16bd 8d75 c93d 7752 efbd
00000120: 80e2 21bd b0ea edbd 87cf bb3d fdc2 c73d
00000130: fe49 9ebd ad5f d13d 1667 1e3d 3f7d ac3d
00000140: 899e bd3d 8c0b a4bc b327 de3d be92 033d
00000150: 796f 823d 8ed7 8dbd aa92 763d 516b d53d
00000160: 93f6 f0bd 6a61 1dbd 8057 06bb 3f99 b23d
00000170: 87ee bebd d37b e13d 5682 abbd b005 68bc
00000180: 20d6 17bb d854 17bc 904b aabd a37a ed3d
00000190: 699e ab3d 4653 97bd e2ca 323d c08d 92ba
000001a0: 0543 b8bd ac04 bdbd a4d7 e43c 4868 a9bd
000001b0: 94ec 843c 7525 9c3d cd0e b83d 50ea e8bb
000001c0: 05cc c2bd 0075 61bd 7a6b 72bd 3d00 823d
000001d0: 1d9d c1bd 08de 60bc 40d5 5a3b ebad d3bd
000001e0: 58dc 1cbc 25e2 ac3d 18b0 02bd d46f d53c
000001f0: 8662 2d3d 98f9 dabd be19 643d 0084 8238
00000200: 1115 c93d 90c2 1bbd 2a06 3e3d 00c5 f33a
00000210: 0ec1 513d 910a d2bd f075 e8bd fd2b f03d
00000220: 3c74 4dbd f000 d3bb 9aca 163d 8d05 e23d
00000230: 8ef8 d3bd 6c76 f23c 3ed7 273d 5b97 efbd
00000240: 00f2 e339 9095 03bc d042 81bd 2c6a 12bd
00000250: daa8 513d 4394 993d c27d 01bd d832 503c
00000260: 0970 b13d ffb2 90bd 181f adbd 0031 8c3b
00000270: 643a 9ebd cd9f ee3d 4212 44bd bcb8 9a3c
00000280: 024b babd d717 d73d 0ba0 e6bd cea1 7c3d
00000290: 2689 013d 35ea 62bd 4486 cfbd f4b0 eb3c
000002a0: 8649 9cbd 329f 753d 9cbe f6bc 1b27 973d
000002b0: d598 e93d c89a f6bc 5f4a 8b3d c015 26bc
000002c0: 5537 8f3d e8ac 333c 38dd 11bd e24b 323d
000002d0: 62a1 a4bd 5ddd c23d 6f98 c93d 505e 45bc
000002e0: 94ef d9bd 3cac d93c 7c3b 3dbd 2024 c5bd
000002f0: eed6 263d 83a0 813d b3fa 943d 9121 69bd
00000300: a014 923b e02f bd3b 1d22 8e3d 343c 8b3c
00000310: d71a a83d 2b59 a33d ae60 49bd 68fd b6bc
00000320: e6da 2e3d 00f2 c63a 4c2f b1bd 01ba c5bd
00000330: 4ac4 4c3d 34da f73c 28b3 8ebd babc 763d
00000340: b4ca 92bd 4489 79bd 380c 5e3c 2548 a23d
00000350: 849a b93c 0f2c b33d aa5f 083d 1ada 0bbd
00000360: 60f6 23bb 1d09 e83d b77a 903d 3541 9c3d
00000370: 682d f1bd 6fa7 993d f996 d83d c23c 53bd
00000380: 7026 a9bd 7e28 093d ce14 6ebd 2e3f 283d
00000390: 643c 2abd 69fd cabd a0bd 5abd 32eb 193d
000003a0: 7896 1ebc c986 edbd 049a d93c 5e41 513d
000003b0: 947e edbc 9154 cabd 9ca8 9f3c 82cc 83bd
000003c0: f6ca 6c3d 1cef f43c c28c 83bd 5eff 073d
000003d0: 0e48 2d3d fa3c 043d d6b1 bcbd 6841 0abc
000003e0: 58f3 2cbd 6a44 203d dd82 b43d fa58 bfbd
000003f0: 55f4 983d 3325 df3d 7d35 91bd c705 dd3d

encoder_unfaltten.1.cnn.bias f4 [16]
0.07720927 -0.111661784 -0.10394933 -0.07694204 -0.08215915 0.025858141 0.016882338 -0.0778913
0.049643867 -0.054995343 0.09509692 -0.02861993 0.058436193 -0.014466681 -0.07716951 0.01949016
00000000: e51f 9e3d efae e4bd 63e3 d4bd ca93 9dbd
00000010: 0e43 a8bd 74d4 d33c d44c 8a3c 7985 9fbd
00000020: 5e57 4b3d cc42 61bd 2dc2 c23d 5874 eabc
00000030: ca5a 6f3d a805 6dbc 0c0b 9ebd d4a9 9f3c

embedding.weight f4 [10, 8]
0.3190195 0.69478405 1.894233 0.3637674 -0.44514972 -0.41192827 -0.7097486 3.806177
-0.41251937 2.0006893 2.0113034 -0.65865725 0.53483844 -0.49432248 -0.019940848 -2.0744154
0.63372356 1.2473218 -1.0378397 1.1070781 0.009639717 -0.102075286 -1.45302 -0.932223
0.83407754 0.16438264 0.26971838 1.1528895 -0.6569845 1.0863261 0.21482429 0.32074305
-0.40041727 0.035042025 -1.0648906 0.6917876 0.2982437 0.5758369 -0.9118631 -1.590132
-1.7784473 -0.70019156 1.4138417 1.2692882 0.57173777 0.5496954 -1.4536469 0.04591775
-0.9951278 1.1290662 0.19772764 -1.067672 -0.5410173 -0.5701278 -1.0973464 -0.9014803
-0.69840324 1.7834786 1.044152 1.5467986 1.9055332 -1.6419288 -0.37696943 0.2545574
-2.0032697 -1.6209204 1.9972242 -0.6343967 0.09908475 -2.0221078 0.249498 -0.84568363
1.3480645 -0.38041592 -0.4232787 -0.19243613 -0.34348193 0.16633758 -0.0749949 0.1718888
00000000: 8656 a33e 5edd 313f 3a76 f23f b83f ba3e
00000010: aaea e3be 43e8 d2be 16b2 35bf 6798 7340
00000020: bd35 d3be 4b0b 0040 32b9 0040 c39d 28bf
00000030: 2ceb 083f d617 fdbe fd5a a3bc 39c3 04c0
00000040: b53b 223f 3ea8 9f3f eed7 84bf bcb4 8d3f
00000050: e7ef 1d3c d90c d1bd 8ffc b9bf 2ba6 6ebf
00000060: 1b86 553f ec53 283e 8718 8a3e e291 933f
00000070: 2330 28bf bc0c 8b3f e6fa 5b3e 6f38 a43e
00000080: 7e03 cdbe 3a88 0f3d 564e 88bf fe18 313f
00000090: 66b3 983e 0c6a 133f dc6f 69bf 7289 cbbf
000000a0: 29a4 e3bf c13f 33bf c4f8 b43f 0978 a23f
000000b0: 685d 123f d6b8 0c3f 1a11 babf 4014 3c3d
000000c0: b2c0 7ebf 3e85 903f 1d79 4a3e 7aa9 88bf
000000d0: 1c80 0abf e5f3 11bf d975 8cbf 6ac7 66bf
000000e0: 8eca 32bf 0749 e43f c6a6 853f 7ffd c53f
000000f0: 83e8 f33f b92a d2bf 2302 c1be 5955 823e
00000100: 9235 00c0 527a cfbf 0ba5 ff3f d267 22bf
00000110: f2ec ca3d 376a 01c0 677c 7f3e b97e 58bf
00000120: 618d ac3f e0c5 c2be fcb7 d8be fa0d 45be
00000130: dddc afbe 6654 2a3e ed96 99bd 9e03 303e

decoder.1.BachNorm.weight f4 [16]
1.0557481 0.9822629 0.9784139 0.9346518 0.97281194 1.024291 1.0101191 0.9946558
1.0515075 1.0211986 1.0033542 0.95191824 1.0068822 0.9546776 0.98040324 0.9996138
00000000: c122 873f 9575 7b3f 5579 7a3f 5745 6f3f
00000010: 340a 793f f81b 833f 954b 813f c3a1 7e3f
00000020: cc97 863f a3b6 823f e96d 803f eab0 733f
00000030: 84e1 803f c065 743f b5fb 7a3f b1e6 7f3f

decoder.1.BachNorm.bias f4 [16]
-0.11389294 0.007876209 -0.14022765 -0.0939705 -0.15060139 -0.14479126 -0.061276473 -0.092694655
-0.05437152 -0.030833276 -0.064878345 -0.120306134 -0.079430774 -0.16253705 -0.0985131 -0.0502325
00000000: b440 e9bd 370b 013c d697 0fbe 9b73 c0bd
00000010: 4037 1abe 2944 14be 0afd 7abd b2d6 bdbd
00000020: acb4 5ebd 1196 fcbc f0de 84bd 1063 f6bd
00000030: 9aac a2bd 1d70 26be 3cc1 c9bd 98c0 4dbd

decoder.1.BachNorm.running_mean f4 [16]
-0.06589599 0.06329659 0.027481599 -0.055657737 7.8287376e-05 -0.0011817461 -0.0033193978 -0.0070018573
0.048652492 0.03560744 -0.026055332 0.019384384 -0.011518729 -0.10637907 0.073264845 -0.07078995
00000000: 7af4 86bd a4a1 813d 1721 e13c 5ef9 63bd
00000010: 372e a438 d2e4 9aba 418a 59bb d66f e5bb
00000020: d647 473d 1bd9 113d fe71 d5bc 00cc 9e3c
00000030: 0db9 3cbc 45dd d9bd e10b 963d 52fa 90bd

decoder.1.BachNorm.running_var f4 [16]
0.07032867 0.083473854 0.08513166 0.07844188 0.07043095 0.07902281 0.07443283 0.082951054
0.0745493 0.07762507 0.08668716 0.07740865 0.076559976 0.07132687 0.0785619 0.068418674
00000000: 7a08 903d 57f4 aa3d 8259 ae3d 23a6 a03d
00000010: 1a3e 903d b6d6 a13d 3d70 983d 3ee2 a93d
00000020: 4ead 983d e5f9 9e3d 0a89 b13d 6d88 9e3d
00000030: 7acb 9c3d d213 923d 10e5 a03d 171f 8c3d

decoder.1.cnn.weight f4 [16, 16, 6, 6]
-0.04916426 0.0042692977 -0.0030642936 0.059635308 0.031701747 -0.072128184 -0.0320079 0.035146248
0.051246937 -0.04614395 0.06632229 -0.003357563 0.022484332 -0.023423124 -0.026642423 0.063008666
-0.014761791 0.05857413 -0.016909305 -0.006314231 -0.034824822 0.0012333966 -0.037125036 -0.05826783
-0.11946372 0.038802702 -0.04455888 -0.02288727 0.054997537 0.0503909 -0.026732082 0.0016197098
-0.07278697 0.00932143 0.045067377 0.036966495 -0.03359482 -0.021173686 0.0010743253 -0.032880735
0.037197676 0.034305543 -0.051905606 0.028016267 -0.03229107 0.03199121 -0.064504795 0.017976012
0.014505852 0.0065333056 0.03660117 0.077757046 0.032411657 0.037090503 -0.03842654 -0.07135678
-0.07195074 0.017527224 0.06483541 -0.11817805 0.0029525657 0.034641374 0.052599512 0.0462576
0.038490262 -0.0014002442 0.03669656 0.004338301 -0.00021171826 0.040782243 -0.006689558 -0.03430872
0.015655424 0.05527058 0.016419299 -0.012503911 0.030194387 -0.02706864 -0.00855142 -0.012184708
0.016649282 -0.046383563 0.029526884 -0.012407456 0.030114114 0.025118595 0.024703408 0.00401866
-0.051234227 0.024985852 -0.01325284 -0.02978063 0.024112903 0.02829144 0.024838429 0.010171566
-0.0051740077 -0.038960993 0.0582119 0.037378125 -0.03645678 -0.027755931 -0.028030235 0.013400798
0.02741401 -0.062222622 0.05236028 0.049482454 0.039494123 0.020209225 0.013408488 0.02104142
0.022249421 -0.11234126 -0.0005228253 -0.041697517 0.05764347 0.030862717 -0.09187916 0.0038269656
-0.016861124 0.05699336 0.011136956 -0.020965407 -0.08251319 -0.028240059 0.030278977 -0.019490544
0.0045289584 0.061010085 0.05300193 -0.04291122 0.0056679277 -0.043663956 -0.0592737 0.020209048
-0.054891948 -0.045368567 -0.009934588 0.017585628 -0.064832896 0.040553 0.022482254 -0.004120331
-0.024043666 -0.064647354 0.047830462 -0.012217126 0.046292674 0.0031538757 -0.022717379 -0.014747362
-0.009326014 0.115372986 0.09466496 0.020221977 7.2042836e-05 -0.15010397 -0.03566786 0.04633706
-0.025130987 -0.045395914 0.0019150937 -0.0025405204 -0.014508474 0.02018873 0.007824721 0.024950847
-0.050358437 0.026006315 -0.0041810283 -0.03710908 -0.04527918 -0.013290799 -0.059684865 0.0059089344
-0.029137911 0.06148312 -0.016502872 0.009450659 -0.022114422 0.01871837 0.02289523 0.040877372
-0.042824022 0.033906512 -0.037547674 0.002231443 -0.030153621 0.07809865 -0.010823561 -0.015352513
0.023183165 -0.019983523 -0.04412995 -0.03430723 -0.0064977496 -0.035909027 0.050726395 0.00453931
-0.009457592 0.053308584 -0.050875533 0.03108089 -0.02885668 0.056078974 -0.010344466 -0.019517977
0.01801354 -0.058347274 0.011399375 0.009713473 0.04727549 0.011196411 0.0343509 -0.075524256
0.06437744 0.028631488 -0.043281637 0.066523105 0.023137162 -0.060877357 0.006702564 0.011323332
-0.039237183 -5.8272344e-05 0.03382567 0.024023212 -0.013891406 -0.009990569 0.016521625 0.012011335
-0.042914376 0.003849818 -0.026959328 0.017850874 0.014714598 -0.0015859623 -0.053539686 0.018003287
0.034097515 -0.0316161 0.023330377 -0.020343041 -0.07158651 -0.031384006 -0.061923694 0.041382797
0.044592995 0.051708415 0.009575604 -0.015597393 0.03534185 -0.02306423 -0.0009526553 0.06039507
00000000: 7760 49bd 77e5 8b3b 51d2 48bb 2744 743d
00000010: b1d9 013d f1b7 93bd b71a 03bd 83f5 0f3d
00000020: 4fe8 513d 7001 3dbd fbd3 873d 8f0a 5cbb
00000030: 1031 b83c dae1 bfbc 3641 dabc b00a 813d
00000040: 70db 71bc 6deb 6f3d 6285 8abc 9ce7 cebb
00000050: 79a4 0ebd eca9 a13a 6c10 18bd 40aa 6ebd
00000060: 65a9 f4bd 95ef 1e3d 5f83 36bd 167e bbbc
00000070: 1945 613d b066 4e3d 3dfd dabc 714c d43a
00000080: 5611 95bd e9b8 183c 9298 383d 2e6a 173d
00000090: b99a 09bd 7074 adbc 60d0 8c3a f3ad 06bd
000000a0: 975c 183d f883 0c3d f99a 54bd 5f82 e53c
000000b0: a443 04bd 3709 033d 171b 84bd 6e42 933c
000000c0: f4a9 6d3c 5715 d63b 1ceb 153d 163f 9f3d
000000d0: 16c2 043d 36ec 173d 2665 1dbd 8123 92bd
000000e0: e95a 93bd 4195 8f3c 6dc8 843d 5507 f2bd
000000f0: d57f 413b 1de4 0d3d 9672 573d 9c78 3d3d
00000100: f7a7 1d3d 6688 b7ba 224f 163d 4e28 8e3b
00000110: b000 5eb9 480b 273d 1434 dbbb 4d87 0cbd
00000120: ce3f 803c 6763 623d c481 863c 34dd 4cbc
00000130: 385a f73c 0dbf ddbc 411b 0cbc 5fa2 47bc
00000140: 1364 883c b1fc 3dbd 5de2 f13c a448 4bbc
00000150: e0b1 f63c 83c5 cd3c cd5e ca3c f7ae 833b
00000160: fbda 51bd 21af cc3c 7122 59bc 82f6 f3bc
00000170: 6c88 c53c 73c3 e73c f679 cb3c a4a6 263c
00000180: b98a a9bb 9095 1fbd 9a6f 6e3d ce19 193d
00000190: b453 15bd 6860 e3bc aa9f e5bc 058f 5b3c
000001a0: 5993 e03c 26dd 7ebd bc77 563d 1dae 4a3d
000001b0: 97c4 213d d18d a53c 46af 5b3c 0e5f ac3c
000001c0: 6b44 b63c 2d13 e6bd 360e 09ba 04cb 2abd
000001d0: 8f1b 6c3d cfd3 fc3c 242b bcbd d4cd 7a3b
000001e0: 5720 8abc df71 693d c777 363c a5bf abbc
000001f0: adfc a8bd b257 e7bc 9e0b f83c a2aa 9fbc
00000200: a867 943b b6e5 793d 8d18 593d adc3 2fbd
00000210: 06ba b93b fad8 32bd fbc8 72bd 728d a53c
00000220: 61d6 60bd 64d4 39bd afc4 22bc bc0f 903c
00000230: 1cc7 84bd e71a 263d b42c b83c d703 87bb
00000240: 39f7 c4bc d565 84bd e0e9 433d 572a 48bc
00000250: 639d 3d3d 41b1 4e3b cc19 babc eb9e 71bc
00000260: 23cc 18bc ac48 ec3d b4df c13d 8fa8 a53c
00000270: b415 9738 dbb4 19be 7618 12bd eecb 3d3d
00000280: 80df cdbc 11f1 39bd e203 fb3a dc7e 26bb
00000290: f3b4 6dbc d662 a53c 4233 003c b865 cc3c
000002a0: a644 4ebd 320b d53c 0201 89bb b1ff 17bd
000002b0: a976 39bd a7c1 59bc 1e78 74bd bc9f c13b
000002c0: a1b2 eebc b9d5 7b3d 0831 87bc f0d6 1a3c
000002d0: 4e29 b5bc 4457 993c c78e bb3c 086f 273d
000002e0: 3e68 2fbd 8ee1 0a3d 97cb 19bd 673d 123b
000002f0: ba04 f7bc 2ff2 9f3d 4e55 31bc 1b89 7bbc
00000300: 9fea bd3c 7cb4 a3bc 9bc1 34bd bd85 0cbd
00000310: 13eb d4bb 5815 13bd 7bc6 4f3d 7ebe 943b
00000320: 04f4 1abc 1a5a 5a3d dd62 50bd 5a9d fe3c
00000330: d864 ecbc 11b3 653d d67b 29bc 2ae4 9fbc
00000340: 2291 933c 8dfd 6ebd 72c4 3a3c 4225 1f3c
00000350: f2a3 413d 2771 373c 88b3 0c3d 76ac 9abd
00000360: 52d8 833d 958c ea3c 1648 31bd 443d 883d
00000370: 258a bd3c 895a 79bd 2fa1 db3b 7f85 393c
00000380: 2bb7 20bd 7469 74b8 c98c 0a3d 54cc c43c
00000390: c898 63bc 7caf 23bc 5c58 873c 31cb 443c
000003a0: fcc6 2fbd 3a4d 7c3b cfd9 dcbc ff3b 923c
000003b0: 7f15 713c 10e0 cfba 6e4c 5bbd a17b 933c
000003c0: d6a9 0b3d e27f 01bd 591f bf3c 73a6 a6bc
000003d0: f39b 92bd 848c 00bd b3a3 7dbd 0281 293d
000003e0: 25a7 363d 34cc 533d ffe2 1c3c 358c 7fbc
000003f0: 9ec2 103d 32f1 bcbc 9dbb 79ba d260 773d

decoder.1.cnn.bias f4 [16]
-0.041204028 0.060802143 0.020363752 -0.059811313 0.006054587 -0.0028215293 -0.040005703 0.025561726
0.021124078 0.0059215766 -0.023029188 0.009504914 -0.002327978 -0.051703062 0.024134174 -0.058693096
00000000: 8ec5 28bd ab0b 793d e2d1 a63c b5fc 74bd
00000010: 8f65 c63b 68e9 38bb 05dd 23bd d366 d13c
00000020: 670c ad3c c909 c23b b5a7 bcbc 80ba 1b3c
00000030: fd90 18bb 97c6 53bd 08b5 c53c 2c68 70bd

decoder.2.BachNorm.weight f4 [8]
1.030487 0.9457404 1.011672 0.8466986 0.9707494 0.8237381 0.8959531 0.8973112
00000000: ffe6 833f 0b1c 723f 787e 813f 3dc1 583f
00000010: 0883 783f 80e0 523f 2f5d 653f 30b6 653f

decoder.2.BachNorm.bias f4 [8]
-0.22387864 -0.22159788 -0.14544186 -0.15373564 -0.10368935 -0.192883 -0.051746663 -0.23095046
00000000: 7140 65be 8eea 62be b6ee 14be e06c 1dbe
00000010: 155b d4bd 1f83 45be 4ff4 53bd 477e 6cbe

decoder.2.BachNorm.running_mean f4 [8]
0.24587043 -0.042015854 0.23207219 0.067854576 0.2004027 0.096123934 0.26775417 0.22169173
00000000: 75c5 7b3e d118 2cbd 55a4 6d3e 57f7 8a3d
00000010: 5e36 4d3e a0dc c43d 1317 893e 2803 633e

decoder.2.BachNorm.running_var f4 [8]
0.12440844 0.0709838 0.12828942 0.097607054 0.11676857 0.06976291 0.12981045 0.10564465
00000000: dac9 fe3d f45f 913d 4d5e 033e 35e6 c73d
00000010: 5c24 ef3d dbdf 8e3d 08ed 043e 395c d83d

decoder.2.cnn.weight f4 [16, 8, 6, 6]
-0.027273865 0.004797673 0.028010335 -0.024430208 -0.067193635 0.0012846679 -0.086369865 0.017676823
-0.016580377 -0.06436243 -0.10333947 -0.04121597 -0.06649472 0.08304739 0.067732744 -0.04153866
-0.115863055 -0.05276451 -0.025351318 0.06566643 0.05984918 -0.030323455 0.01079529 -0.0268802
-0.009326321 0.07663539 0.081180096 0.033152647 0.013819108 0.042154703 0.08296405 0.040955443
0.042039152 0.01128206 -0.018662745 0.039588343 0.047049996 0.07662647 0.0026946794 0.04926506
-0.04539013 -0.10143743 0.056757648 -0.01101226 -0.050732743 0.024915567 0.008400123 0.07981021
0.059717976 -0.03198684 -0.03560818 -0.044381365 0.0712356 0.0076732757 0.058505118 0.06898339
0.059649657 0.0001657806 -0.0005692261 -0.05954147 0.041076653 0.0069225878 0.021870106 0.0027960446
-0.03715692 0.050131023 -0.054672606 0.016824806 -0.048289508 -0.039798763 -0.026944168 -0.061614394
0.02040798 0.013899756 -0.059836738 -0.023666043 -0.042963147 -0.04721791 0.025105635 0.011725701
-0.05151903 -0.06212204 -0.099274844 -0.064504676 -0.008138462 0.03723733 -0.07656429 -0.13725793
-0.08307053 -0.027668407 0.030610168 0.030664992 -0.046003204 -0.07622042 -0.014176612 0.029876642
0.020190671 0.06827944 0.025033366 0.015732821 0.042919397 0.0029853438 0.03176884 0.06653944
0.034096632 0.026033446 0.035229243 0.049930353 -0.06925086 -0.031874828 0.010269135 0.06820628
-0.05244957 -0.023414165 -0.0529776 -0.013571374 0.0035160936 -0.0035970258 -0.025133595 -0.009159127
-0.028299069 0.008941977 0.105369404 0.0021213773 -0.041634366 -0.00041835208 0.039326277 0.13743192
0.084415965 0.05750497 0.019175725 -0.013154281 0.06604644 0.10887203 0.024029534 0.009589423
0.012160406 -0.0073875664 0.039030876 0.057084095 0.013898214 0.025909916 -0.026366076 -0.049363714
0.056420673 -0.03428514 0.019160789 0.034470152 -0.026022553 -0.093853585 0.044915073 0.057822388
0.042816162 -0.033180725 -0.011410815 -0.020000916 -0.11073637 0.019613806 0.032851342 -0.038222533
-0.03532998 -0.05551321 0.03524384 0.03183311 0.0035679108 0.011013068 -0.01424863 0.047422916
-0.037448756 0.033395436 0.03732966 0.009008447 0.039414212 -0.0026145312 -0.023471465 0.011601238
0.045843504 -0.028900921 -0.004658275 0.009976614 0.10972255 0.05632467 -0.058761526 0.025458869
0.048056558 0.07946077 0.055481743 -0.0010458173 0.07765722 -0.034468457 -0.00011984442 -0.0044209664
-0.037845254 0.0068425615 0.07220497 0.004815361 0.03850047 0.044822734 0.04541919 -0.014910409
-0.025410986 -0.03433475 -0.0061659818 0.036977317 -0.02247026 -0.02868509 -0.072809085 0.07640849
0.008682252 0.007116322 0.050463047 0.078934744 -0.03163725 -0.06787952 -0.034203503 -0.025231648
-0.049040355 0.0796952 0.056661047 -0.07271188 -0.039308343 -0.07162071 -0.018027017 0.053726748
-0.0027688316 -0.070353836 -0.039880432 -0.043484695 0.005389154 0.02291436 0.039900735 -0.061222523
-0.048847217 0.0029531114 0.010436786 0.08724006 0.057025522 0.019146042 -0.007984911 -0.020239135
0.0433468 0.006660605 0.043694783 0.0015312532 -0.017768152 0.04839235 0.05699105 0.058303636
0.045343876 -0.042110026 -0.013914069 0.03677253 0.022517974 -0.008329861 -0.07322368 -0.05393895
00000000: 716d dfbc cc35 9d3b ee75 e53c dc21 c8bc
00000010: d19c 89bd 4d62 a83a afe2 b0bd fcce 903c
00000020: 92d3 87bc 73d0 83bd a5a3 d3bd 14d2 28bd
00000030: 622e 88bd c014 aa3d 77b7 8a3d 7124 2abd
00000040: 9c49 edbd 991f 58bd 91ad cfbc 1f7c 863d
00000050: 6a24 753d e568 f8bc bade 303c dd33 dcbc
00000060: 6dcd 18bc 04f3 9c3d c041 a63d 12cb 073d
00000070: 8a69 623c 69aa 2c3d 0ee9 a93d e5c0 273d
00000080: 3f31 2c3d 64d8 383c 9de2 98bc 6327 223d
00000090: 7fb7 403d 57ee 9c3d 3899 303b 29ca 493d
000000a0: 00eb 39bd 6dbe cfbd b57a 683d c46c 34bc
000000b0: 23cd 4fbd bb1b cc3c aba0 093c 8973 a33d
000000c0: d69a 743d a204 03bd e2d9 11bd 3cc9 35bd
000000d0: f8e3 913d 1a70 fb3b 10a3 6f3d 2a47 8d3d
000000e0: 3353 743d 64d5 2d39 1e38 15ba c2e1 73bd
000000f0: fe3f 283d e0d6 e23b f028 b33c d83d 373b
00000100: db31 18bd 3056 4d3d 62f0 5fbd 2dd4 893c
00000110: 38cb 45bd 0704 23bd 04ba dcbc 605f 7cbd
00000120: a32e a73c cdbb 633c 5e17 75bd 4adf c1bc
00000130: 20fa 2fbd 9167 41bd 55aa cd3c 281d 403c
00000140: 9e05 53bd ae73 7ebd 9c50 cbbd 071b 84bd
00000150: 2f57 05bc 2c86 183d bdcd 9cbd 588d 0cbe
00000160: e220 aabd dba8 e2bc 2dc2 fa3c 2635 fb3c
00000170: db6d 3cbd 7419 9cbd 0545 68bc dcbf f43c
00000180: e866 a53c 17d6 8b3d c612 cd3c 1ee2 803c
00000190: 40cc 2f3d c2a5 433b 0b20 023d d445 883d
000001a0: e9a8 0b3d 1844 d53c 8a4c 103d c583 4c3d
000001b0: 65d3 8dbd 2e8f 02bd e03f 283c bcaf 8b3d
000001c0: 5cd5 56bd 10cf bfbc 0aff 58bd 785a 5ebc
000001d0: 436e 663b 14bc 6bbb f8e4 cdbc 2a10 16bc
000001e0: 73d3 e7bc 5f81 123c eacb d73d ce06 0b3b
000001f0: cc88 2abd 4456 dbb9 9714 213d f4ba 0c3e
00000200: 47e2 ac3d 558a 6b3d 6916 9d3c 0e85 57bc
00000210: 5b43 873d 4df8 de3d 96d9 c43c f51c 1d3c
00000220: 713c 473c 6613 f2bb d7de 1f3d 03d1 693d
00000230: 56b5 633c 0841 d43c abfd d7bc 9b31 4abd
00000240: 5d19 673d 936e 0cbd 16f7 9c3c 9330 0d3d
00000250: 402d d5bc 4f36 c0bd def8 373d 2bd7 6c3d
00000260: 0060 2f3d 83e8 07bd 6df4 3abc f6d8 a3bc
00000270: c0c9 e2bd 22ad a03c 218f 063d 3b8f 1cbd
00000280: 2bb6 10bd d261 63bd d85b 103d 6f63 023d
00000290: 9cd3 693b 2870 343c 1673 69bc 883e 423d
000002a0: de63 19bd a7c9 083d fce6 183d 2a98 133c
000002b0: cc70 213d 8e58 2bbb 3b47 c0bc 1e13 3e3c
000002c0: 66c6 3b3d a0c1 ecbc 71a4 98bb f474 233c
000002d0: 37b6 e03d b2b4 663d edaf 70bd 1e8f d03c
000002e0: f4d6 443d 54bc a23d d340 633d ce13 89ba
000002f0: c00a 9f3d cc2e 0dbd fc54 fbb8 c1dd 90bb
00000300: a003 1bbd 9137 e03b 33e0 933d 2dca 9d3b
00000310: abb2 1d3d 0b98 373d 7909 3a3d ca4a 74bc
00000320: b32a d0bc 98a2 0cbd 010c cabb 8775 173d
00000330: 8d13 b8bc fefc eabc ee1c 95bd 0e7c 9c3d
00000340: 0140 0e3c 0930 e93b 57b2 4e3d 8aa8 a13d
00000350: 1096 01bd 6b04 8bbd f918 0cbd 9ab2 cebc
00000360: 8ade 48bd 3d37 a33d 6a15 683d f7e9 94bd
00000370: c901 21bd e1ad 92bd 65ad 93bc 9410 5c3d
00000380: 4975 35bb ac15 90bd aa59 23bd 021d 32bd
00000390: 8097 b03b e5b6 bb3c f46e 233d 78c4 7abd
000003a0: 0514 48bd fd88 413b 0eff 2a3c ebaa b23d
000003b0: 9893 693d 29d8 9c3c 25d3 02bc 8bcc a5bc
000003c0: 6a8c 313d 3441 da3b 4df9 323d 55b4 c83a
000003d0: 848e 91bc 0f37 463d 726f 693d cbcf 6e3d
000003e0: 80ba 393d 907b 2cbd d6f7 63bc cb9e 163d
000003f0: 9d77 b83c f879 08bc 4cf6 95bd 17ef 5cbd

decoder.2.cnn.bias f4 [8]
0.061015185 -0.07248306 0.0052921614 0.027256645 -0.047660075 0.078961626 0.045677796 0.05174659
00000000: 0feb 793d 0072 94bd de69 ad3b 5449 df3c
00000010: 3637 43bd a2b6 a13d a418 3b3d 3bf4 533d

decoder.4.cnn.weight f4 [8, 1, 6, 6]
-0.036569428 0.0876751 0.096241616 0.012396241 -0.0051838662 -0.061860625 0.019204983 0.1980302
0.17076965 0.07412252 -0.009181369 -0.047146846 0.1257323 0.2851914 0.25592953 0.033200253
-0.056240276 0.03793414 0.08090951 0.21955684 0.20990147 0.01995665 -0.06480654 -0.033413827
0.12074424 0.0503526 0.03992064 -0.12006464 -0.16436411 -0.040512186 -0.023887707 -0.07219257
-0.08424855 -0.20624733 -0.1383294 -0.028392512 -0.011185235 -0.032937665 -0.03611758 -0.052091382
-0.0325079 -0.029380955 -0.030044176 -0.07372181 -0.09314026 -0.06410047 -0.060787708 -0.020346968
-0.04702001 -0.101267874 -0.113016 -0.15136494 -0.11520166 -0.03950157 -0.07735612 -0.16263346
-0.22074726 -0.18735637 -0.103331946 -0.0014419234 -0.10633792 -0.20309064 -0.19973359 -0.14683104
-0.08034317 -0.0010595482 -0.052184824 -0.10542087 -0.10429285 -0.07001943 -0.021014774 0.0106343925
-0.047528103 -0.10668405 0.0026351272 0.09811644 0.2010189 0.17960916 -0.06627844 -0.101489946
0.038262792 0.20057407 0.275929 0.16063991 -0.15741208 -0.028905347 0.08675663 0.2287419
0.20583206 0.0728976 -0.11671308 -0.116860606 -0.034209315 0.09187053 0.13075243 0.032966875
-0.12798227 -0.13620254 -0.10782976 0.04061332 0.061611343 0.0489297 -0.011992991 -0.06839378
-0.07740261 -5.4051925e-05 -0.004035758 0.04482541 -0.047010902 0.0056324922 0.021577075 0.050170895
-0.055526085 -0.04132076 0.023025902 0.0007569706 -0.00044090804 -0.0055758636 -0.16802996 -0.14002775
-0.037872095 -0.061982546 -0.1182559 -0.14410028 -0.2308791 -0.14648978 -8.040215e-05 -0.10347387
-0.059373878 -0.051299643 -0.11786324 -0.0537121 -0.026338127 -0.004577979 -0.08246508 -0.02311279
-0.035975784 0.008145186 -0.00954318 -0.036265854 -0.0801361 -0.0361033 0.05633357 0.06933187
-0.029146679 -0.019593058 -0.010895586 0.053351425 -0.026460271 0.0198189 0.0330474 0.063536726
0.08871168 0.03622419 0.05362645 0.055502437 0.027351353 0.08355573 0.02434293 0.060009737
0.050439987 0.06881171 0.15245645 0.22962432 0.15094525 0.054891657 0.0028195735 0.016545666
0.1396967 0.19734217 0.103092924 0.028252808 0.027591296 0.089902475 0.057563256 0.10938309
0.0729307 -0.01110297 -0.021998685 0.024229975 -0.04387613 -0.058179747 -0.03449216 -0.049398117
-0.08045283 -0.07556657 -0.031703334 -0.03554501 0.013860643 -0.017332138 -0.104501925 -0.108316265
0.0143145695 0.008945127 0.04150257 -0.0073476057 -0.09833485 -0.08683793 -0.015959851 -0.0019833974
-0.017253982 -0.057730585 -0.111281484 -0.09606774 0.007698088 0.0031856555 0.01056375 -0.058329146
-0.05391392 -0.09792007 -0.02164037 -0.018503359 -0.040229 -0.05189566 -0.080189556 -0.08463497
0.0018371776 0.033414677 0.06347639 -0.09180551 -0.071176596 -0.05125215 -0.011987772 -0.049854066
-0.01739688 -0.043119136 -0.02133476 -0.02642876 -0.041443054 0.018592177 0.106320135 -0.051363755
0.035348907 -0.04028395 0.04990074 0.10657915 0.0048156274 0.012212818 -0.07647503 -0.13380557
0.16156198 0.18580166 0.18190385 0.05724785 0.08437551 -0.10866585 0.14694175 0.17379291
0.1930166 0.13426872 0.06458972 -0.00014987974 -0.007906937 0.041596226 0.018141061 -0.14498799
00000000: d3c9 15bd 018f b33d 531a c53d 9a19 4b3c
00000010: 6cdd a9bb 9161 7dbd c553 9d3c 6ec8 4a3e
00000020: 3dde 2e3e 8ccd 973d 746d 16bc 0d1d 41bd
00000030: f8bf 003e 9b04 923e 3209 833e fdfc 073d
00000040: 345c 66bd d460 1b3d e3b3 a53d 82d3 603e
00000050: 69f0 563e 217c a33c 4bb9 84bd f0dc 08bd
00000060: c248 f73d 873e 4e3d d383 233d 73e4 f5bd
00000070: 114f 28be 1bf0 25bd 27b0 c3bc b3d9 93bd
00000080: 818a acbd 8032 53be 39a6 0dbe 6a97 e8bc
00000090: 4742 37bc a5e9 06bd 07f0 13bd c65d 55bd
000000a0: 0127 05bd 54b0 f0bc 341f f6bc 76fb 96bd
000000b0: 52c0 bebd 1b47 83bd 88fc 78bd afae a6bc
000000c0: 0e98 40bd 8865 cfbd ef74 e7bd 69ff 1abe
000000d0: d9ee ebbd 66cc 21bd e36c 9ebd 6389 26be
000000e0: 920b 62be 59da 3fbe b39f d3bd ecfe bcba
000000f0: b2c7 d9bd fef6 4fbe f686 4cbe e05a 16be
00000100: f68a a4bd 8ae0 8aba c1bf 55bd e6e6 d7bd
00000110: 7d97 d5bd 5966 8fbd 2d27 acbc e03b 2e3c
00000120: d4ac 42bd 2b7d dabd 19b2 2c3b 46f1 c83d
00000130: e6d7 4d3e 77eb 373e febc 87bd f6d9 cfbd
00000140: 72b9 1c3d 4a63 4d3e 9146 8d3e ca7e 243e
00000150: a230 21be e8ca ecbc 76ad b13d 513b 6a3e
00000160: a4c5 523e 564b 953d 4407 efbd 9d54 efbd
00000170: 111f 0cbd 9e26 bc3d f7e3 053e 4608 073d
00000180: c90d 03be ae78 0bbe d9d5 dcbd 275a 263d
00000190: 2d5c 7c3d 826a 483d 407e 44bc 0a12 8cbd
000001a0: 4285 9ebd d0b5 62b8 643e 84bb d99a 373d
000001b0: 818e 40bd c590 b83b 68c2 b03c ff7f 4d3d
000001c0: 526f 63bd f53f 29bd d1a0 bc3c 706f 463a
000001d0: ad29 e7b9 bcb5 b6bb 0c10 2cbe 6f63 0fbe
000001e0: c51f 1bbd 69e1 7dbd 2630 f2bd 068f 13be
000001f0: 926b 6cbe 6b01 16be 939d a8b8 1cea d3bd
00000200: 0632 73bd 931f 52bd 4862 f1bd 3801 5cbd
00000210: 0ec3 d7bc df02 96bb 74e3 a8bd 0957 bdbc
00000220: 585b 13bd 6373 053c ff5a 1cbc 818b 14bd
00000230: 651e a4bd 0ee1 13bd 08be 663d defd 8d3d
00000240: 04c5 eebc 9f81 a0bc 6683 32bc 0687 5a3d
00000250: 36c3 d8bc 3f5b a23c b65c 073d 8b1f 823d
00000260: 78ae b53d d15f 143d 69a7 5b3d 8656 633d
00000270: f20f e03c 441f ab3d d36a c73c c5cc 753d
00000280: 299a 4e3d 27ed 8c3d 8b1d 1c3e a322 6b3e
00000290: 6491 1a3e 13d6 603d 98c8 383b c78a 873c
000002a0: a70c 0f3e 1114 4a3e 6222 d33d 6f72 e73c
000002b0: 2407 e23c ca1e b83d 73c7 6b3d 3e04 e03d
000002c0: b15c 953d 3be9 35bc 9636 b4bc f17d c63c
000002d0: 75b7 33bd e34d 6ebd a747 0dbd ae55 4abd
000002e0: 74c4 a4bd a5c2 9abd 5bdb 01bd a597 11bd
000002f0: c017 633c 21fc 8dbc 1b05 d6bd ebd4 ddbd
00000300: a887 6a3c 958e 123c 99fe 293d 2fc4 f0bb
00000310: c863 c9bd 16d8 b1bd 3cbe 82bc e3fb 01bb
00000320: 3958 8dbc e876 6cbd 8ce7 e3bd 2abf c4bd
00000330: 3e40 fc3b 6ec6 503b 9413 2d3c 8bea 6ebd
00000340: d8d4 5cbd 518a c8bd 2547 b1bc 5b94 97bc
00000350: 2ac7 24bd 8b90 54bd 6c3a a4bd 1955 adbd
00000360: 73cd f03a d4dd 083d e9ff 813d 8704 bcbd
00000370: 09c5 91bd c6ed 51bd 5c68 44bc c733 4cbd
00000380: e783 8ebc b19d 30bd 3cc6 aebc 2081 d8bc
00000390: 31c0 29bd 9f4e 983c 5fbe d93d cd62 52bd
000003a0: 04ca 103d c800 25bd b864 4c3d 2b46 da3d
000003b0: 69cc 9d3b 4518 483c f19e 9cbd 5404 09be
000003c0: 8170 253e ca42 3e3e 0145 3a3e b97c 6a3d
000003d0: 11cd ac3d 338c debd e677 163e c5f6 313e
000003e0: 25a6 453e bd7d 093e 9d47 843d 0929 1db9
000003f0: 198c 01bc ce60 2a3d 909c 943c bb77 14be
