AutoEncoders/Conditional_VAE/saved_model/model1.pth (torch, 90941 bytes, 44 tensors)

encoder_faltten.0.BachNorm.weight f4 [8]
0	0x3f973417	1.1812772
1	0x3f664b8d	0.8995903
2	0x3f86b019	1.0522491
3	0x3f8232a0	1.01717
4	0x3f41d86a	0.75720847
5	0x3f818374	1.0118241
6	0x3f6e1628	0.9300256
7	0x3f937836	1.152106

encoder_faltten.0.BachNorm.bias f4 [8]
0	0x3eaa76aa	0.33293658
1	0x3e998dbb	0.29990944
2	0x3e09de14	0.13463622
3	0x3ef7f030	0.48425436
4	0x3e7e9ca4	0.24864441
5	0xbdeffff5	-0.11718742
6	0x3ef87f6d	0.48534718
7	0xbd455fb5	-0.048186976

encoder_faltten.0.BachNorm.running_mean f4 [8]
0	0x3e4c382a	0.199433
1	0xbea13106	-0.31482714
2	0xbe74b122	-0.23895696
3	0x3e99317c	0.29920566
4	0xbdb66b9c	-0.089072436
5	0xbe62b778	-0.221403
6	0xbe9dcb30	-0.30819082
7	0xbec01003	-0.37512216

encoder_faltten.0.BachNorm.running_var f4 [8]
0	0x3fbdd576	1.4830768
1	0x3f61de70	0.8823004
2	0x3f86b393	1.0523552
3	0x3f39c625	0.7256797
4	0x3ee65147	0.44983885
5	0x3ec5d40e	0.38638347
6	0x3f159cca	0.58442366
7	0x3eae5fe9	0.3405755

encoder_faltten.0.cnn.weight f4 [8, 1, 3, 3]
0	0xbc0f9671	-0.008763895
1	0xbe804f90	-0.250607
2	0xbe955ba6	-0.29171485
3	0x3db7d39e	0.0897591
4	0xbf031789	-0.51207787
5	0x3cd6b573	0.026209569
6	0xbe86b1b4	-0.26307452
7	0xbe85deb1	-0.26146463
8	0xbcaf51c6	-0.021401297
9	0x3e1653fb	0.14680474
10	0xbd797802	-0.060905464
11	0xbeb40f0f	-0.3516774
12	0x3e79a97c	0.2438106
13	0xbd70d133	-0.058793258
14	0xbdb788e9	-0.089616604
15	0x3f4c1d8e	0.79732597
16	0x3e4770b4	0.19476587
17	0xbd8799ee	-0.06621157
18	0xbf0644b7	-0.524486
19	0xbdb62119	-0.088930316
20	0xbe45f539	-0.19331826
21	0xbe774fa7	-0.24151479
22	0xbdb7d2a3	-0.08975723
23	0x3c6c53f1	0.01442431
24	0x3e2a2770	0.16616607
25	0xbdf6ca51	-0.120503075
26	0xbe8c7759	-0.27434805
27	0x3b806780	0.003918588
28	0x3d90d563	0.0707195
29	0x3df39c79	0.11895079
30	0xbde5acfa	-0.11214633
31	0x3e2dece7	0.16984902
32	0x3e5061e4	0.20349842
33	0xbdfdfded	-0.12401948
34	0x3e8c3c1e	0.27389616
35	0x3ebcb2c5	0.3685514
36	0x3e78754d	0.24263497
37	0x3eaef173	0.34168586
38	0xbe1ef1a1	-0.15521862
39	0x3e95363b	0.29142937
40	0x3e533d81	0.2062893
41	0x3e865306	0.26235217
42	0xbeb13240	-0.3460865
43	0xbe9eedda	-0.3104084
44	0xbd694f3a	-0.056960322
45	0xbda80a53	-0.08205094
46	0xbe7b31c7	-0.24530707
47	0xbe4afb7b	-0.19822495
48	0xbe12ff4e	-0.14355204
49	0xbd8fb358	-0.07016629
50	0x3d11622c	0.035494015
51	0xbdea317e	-0.11435221
52	0xbcf1d5a6	-0.02952082
53	0x3f11f76e	0.5701817
54	0x3e18d6e9	0.14925732
55	0x3e1498af	0.14511369
56	0x3ec50503	0.38480386
57	0x3e04da73	0.12973957
58	0x3cb7734c	0.022393845
59	0xbc753c9d	-0.014968065
60	0x3e26c77d	0.16287036
61	0x3d8b82cf	0.06812059
62	0xbdc1d095	-0.09463612
63	0xbe0c22b5	-0.13685115
64	0x3dff391f	0.12462067
65	0x3eb916d5	0.36150232
66	0xbe0cf56d	-0.13765498
67	0xbcc41751	-0.0239369
68	0xbe056f64	-0.13030773
69	0xbe8926a5	-0.26787296
70	0xbe380e61	-0.17974235
71	0xbe1d942c	-0.15388554

encoder_faltten.0.cnn.bias f4 [8]
0	0x3e499b5d	0.19688173
1	0xbea09edf	-0.3137121
2	0xbe776e3c	-0.24163145
3	0x3e9abd54	0.3022257
4	0xbdbc4e8d	-0.0919467
5	0xbe60fa9f	-0.21970604
6	0xbe9ba554	-0.30399573
7	0xbebfdce6	-0.3747322

encoder_faltten.1.BachNorm.weight f4 [16]
0	0x3f75bfaf	0.9599561
1	0x3f880ff1	1.0629865
2	0x3fb49985	1.410935
3	0x3f59ac6b	0.85028714
4	0x3f941da2	1.1571543
5	0x3f8a88b9	1.0822974
6	0x3f8b1322	1.0865214
7	0x3f81f071	1.0151502
8	0x3f8c5e1b	1.0966219
9	0x3f7a9d45	0.97896224
10	0x3f5bbbd9	0.8583351
11	0x3f88ac75	1.067763
12	0x3f7b55a9	0.9817758
13	0x3f735922	0.9505788
14	0x3f7251a3	0.9465582
15	0x3fad1b35	1.3523928

encoder_faltten.1.BachNorm.bias f4 [16]
0	0xbd1fa763	-0.03897799
1	0x3c8fcb14	0.01755289
2	0xbd0ce7f7	-0.034400906
3	0xbcd671a1	-0.02617723
4	0x3e020bbb	0.12699787
5	0x3cafd8ee	0.021465745
6	0x3dc31a08	0.095264494
7	0x3e0dad25	0.1383558
8	0xbe2b2e25	-0.16716821
9	0x3c980e27	0.018561436
10	0xbdcf81d5	-0.10132185
11	0xbd2b722f	-0.04185694
12	0xbdacface	-0.08446275
13	0xbbd4f5f8	-0.0064990483
14	0xbd84b778	-0.064803064
15	0xbcb79713	-0.022410905

encoder_faltten.1.BachNorm.running_mean f4 [16]
0	0xbee89368	-0.45424962
1	0x3e391c53	0.18077211
2	0xbf46cb2b	-0.7765376
3	0x3f7aaf96	0.9792417
4	0xbf53b22e	-0.82693756
5	0x3ed47b9a	0.4150055
6	0xbf0866aa	-0.5328165
7	0x3fa81215	1.3130518
8	0xbddad02a	-0.106842354
9	0x3ec21205	0.37904373
10	0x3eeef5e4	0.46671975
11	0xbec4392f	-0.38324878
12	0xbd80ed96	-0.06295316
13	0x3d83cdfe	0.06435774
14	0xbdd48c76	-0.10378353
15	0xbec0f459	-0.37686422

encoder_faltten.1.BachNorm.running_var f4 [16]
0	0x3f25afc2	0.6472131
1	0x3f5e6b11	0.8688212
2	0x3fa31115	1.2739588
3	0x3fdb52d8	1.7134657
4	0x402fa966	2.7447143
5	0x3f993ef0	1.1972332
6	0x3fee81c4	1.8633351
7	0x4016f72c	2.3588362
8	0x3f98ab85	1.1927344
9	0x3f38a45f	0.7212581
10	0x3f5eefe1	0.87084776
11	0x3f8fe8a9	1.1242877
12	0x3f051947	0.51991695
13	0x3f8caaf1	1.0989667
14	0x3f4b98ad	0.7952984
15	0x3fb55743	1.4167255

encoder_faltten.1.cnn.weight f4 [16, 8, 3, 3]
0	0xbe15ff97	-0.14648281
1	0x3c9a67dd	0.018848354
2	0xbd5ae32f	-0.053439315
3	0x3ba5fa51	0.0050652404
4	0xbd92b293	-0.071629666
5	0xbb08aa17	-0.0020853335
6	0x3d992c16	0.07479112
7	0xbd132fa4	-0.035934106
8	0xbd6542bf	-0.055971857
9	0xbb65e991	-0.0035081843
10	0x3d0db961	0.03460062
11	0x3d7ca300	0.061678886
12	0xbcfabd02	-0.030607704
13	0xbc97a63b	-0.018511882
14	0x3b4416ff	0.0029920933
15	0x3e43fc98	0.19139326
16	0x3b8b5183	0.0042516603
17	0xbc9cba55	-0.019131819
18	0xbc8c5597	-0.017130656
19	0xbd2b8986	-0.0418792
20	0xbcc11524	-0.023569651
21	0xbcb0125a	-0.021493126
22	0xbdeb7777	-0.114973955
23	0xbe11cb37	-0.14237677
24	0x3c1bc585	0.009507542
25	0xbd8ae27a	-0.06781478
26	0xbdc2beaf	-0.09509026
27	0xbd56238e	-0.05228
28	0x3dd5c711	0.104383595
29	0x3d862029	0.06549103
30	0x3d3a315d	0.045457233
31	0xbd2e655d	-0.042577136
32	0xbe62d68a	-0.22152153
33	0x3d243675	0.040090997
34	0xbdca72a3	-0.098851465
35	0xbdebe52c	-0.115183204
36	0x3998122d	0.0002900524
37	0xbbce1e40	-0.006290227
38	0x3d5136f6	0.051077805
39	0xbc20fa4f	-0.009825303
40	0xbaa1cc90	-0.001234429
41	0xbd4c9c8b	-0.04995398
42	0x3d568152	0.052369423
43	0xbd711255	-0.058855373
44	0xbce07bd2	-0.027402792
45	0xbd4a9243	-0.049455892
46	0x3db134ca	0.08652647
47	0x3dcf92f7	0.10135453
48	0x3da5f068	0.081024945
49	0x3c2c1dce	0.010505153
50	0xbe16db84	-0.14732176
51	0x3ca1c812	0.019748721
52	0xbd67a5f2	-0.056554742
53	0xbd2ca58a	-0.042150058
54	0xbdb13d68	-0.086542904
55	0xbcd66df2	-0.026175473
56	0x3e0a7582	0.13521388
57	0x3d0a23bc	0.033725485
58	0x3d0182b9	0.031618807
59	0xbd3264f7	-0.04355332
60	0x3e2750a8	0.16339362
61	0xbcf44115	-0.02981619
62	0xbdb870f3	-0.09005918
63	0xbd303f7b	-0.04302929
64	0xbc41b1f1	-0.01182221
65	0xbdee80ec	-0.11645684
66	0x3ca54162	0.020172779
67	0xbd7a4f75	-0.061110932
68	0xba52547e	-0.00080234546
69	0xbddf6f0f	-0.109098546
70	0xbd907c17	-0.07054918
71	0xbe0240d7	-0.12720047
72	0x3e049f10	0.12951303
73	0x3d78d44f	0.06074935
74	0x3dbbb5bf	0.09165525
75	0x3cf78fe1	0.030219974
76	0xbe80b490	-0.25137758
77	0xbdd9d0ed	-0.106355526
78	0xbc3f856c	-0.011689525
79	0xbd5191b4	-0.051164344
80	0x3d0989cb	0.033578675
81	0x3d5582f2	0.052126832
82	0x3dc49024	0.09597805
83	0x3bcb85d4	0.006211022
84	0x3d68a613	0.056799006
85	0x3dcf8bf8	0.10134119
86	0x3d92a7c2	0.071609035
87	0xbe87017e	-0.26368326
88	0xbe5145f4	-0.20436841
89	0xbd75a339	-0.059970114
90	0x3e22f57a	0.15913954
91	0xbe5ede84	-0.2176457
92	0xbe034516	-0.12819323
93	0xbca59b3e	-0.020215627
94	0xbc5b336f	-0.013378962
95	0xbe3344f3	-0.17506771
96	0x3e37e5a7	0.17958699
97	0xbbc5c90e	-0.0060359305
98	0x3d20ad3e	0.039227717
99	0x3c10d590	0.00883998
100	0x3d7a6193	0.06112821
101	0xbd40be9f	-0.04705679
102	0x3d829514	0.06376091
103	0x3d98c718	0.07459849
104	0x3dafb364	0.08579138
105	0xbdb29d2f	-0.08721387
106	0xbddcdbf5	-0.10784141
107	0xbd8b99f4	-0.068164736
108	0x3abff05d	0.0014643777
109	0x3ce59fbd	0.02803027
110	0x3d9e41b5	0.07727376
111	0xbd292cd3	-0.041302513
112	0x3e1908c3	0.14944749
113	0x3dadc6fa	0.084852174
114	0xbcd38807	-0.025821699
115	0x3c594362	0.013260694
116	0x3dbb4fc9	0.09146077
117	0xbc9f9877	-0.01948188
118	0x3d170928	0.036873966
119	0xbd342f15	-0.043990213
120	0xbd9bbd2b	-0.0760444
121	0xbb8d7392	-0.0043167556
122	0x3d487414	0.048938826
123	0xbd58b611	-0.052908007
124	0xbe00ecbc	-0.12590307
125	0xbde98a62	-0.114033476
126	0xbd2e10bc	-0.042496428
127	0x3cdcfffd	0.026977533
128	0xbc68ca7f	-0.014208435
129	0xbcbd1260	-0.023080051
130	0x3b6ae5f6	0.0035842634
131	0x3e1a99ff	0.15097807
132	0xbe30b3cd	-0.17256089
133	0xbe2c1e71	-0.16808487
134	0xbdb4fd8a	-0.08837421
135	0x3b499eaf	0.0030764749
136	0x3c934135	0.01797543
137	0x3e47bdfb	0.19506066
138	0x3d425d56	0.047452293
139	0x3ca34703	0.019931322
140	0xbcc37c75	-0.023863057
141	0x3e8d6d80	0.27622604
142	0x3e3ef0f0	0.18646598
143	0x3e31a788	0.17349064
144	0x3bf92502	0.0076032886
145	0x3ea01b3d	0.3127078
146	0x3e021ed1	0.12707068
147	0x3e7d6b3b	0.24747936
148	0x3e8273a9	0.25478867
149	0x3e1a2578	0.15053356
150	0xbe0049e7	-0.12528192
151	0xbd0e4bec	-0.034740373
152	0x3e2e4b1f	0.17020844
153	0x3d80d30e	0.062902555
154	0xbd80bb22	-0.06285693
155	0x3d6e5eed	0.058195997
156	0xbdf90a2a	-0.12160142
157	0xbd0a86dc	-0.03382002
158	0x3cd580ff	0.026062487
159	0xbec49b15	-0.38399568
160	0x3d0a0b8b	0.033702414
161	0x3d17932b	0.037005585
162	0x3e111f65	0.14172132
163	0x3e1c1e55	0.15245946
164	0x3d8186cc	0.063245386
165	0x3e548181	0.20752527
166	0x3cedb73b	0.029018035
167	0xbbcd0227	-0.00625636
168	0xbe3fc94c	-0.18729132
169	0xbcb852b8	-0.02250038
170	0x3d9afaac	0.07567343
171	0xbc83a640	-0.016070485
172	0xbdb7af52	-0.089689866
173	0xbd8f3151	-0.06991828
174	0xbd0ed61e	-0.034872167
175	0xbcef132e	-0.02918395
176	0xbd187fa4	-0.037231103
177	0xba909d5c	-0.0011033225
178	0xbd423a69	-0.047418986
179	0xbe029778	-0.12753093
180	0x3c341d9d	0.0109933885
181	0x3d5b393c	0.05352138
182	0x3c70ae4f	0.014689996
183	0xbd4a2657	-0.04935297
184	0xbd53e4f2	-0.05173201
185	0xbd067b02	-0.032832153
186	0xbe217137	-0.15765844
187	0xbd9ebb60	-0.07750583
188	0xbd3260fd	-0.043549526
189	0xbc640382	-0.013916852
190	0x3da9f842	0.082993045
191	0xbc8a4a1a	-0.016881038
192	0x3d9b8581	0.07593823
193	0x3d038587	0.032109763
194	0xbd5bbaa3	-0.053644788
195	0x3b9ad079	0.004724559
196	0xbceb3e6d	-0.02871629
197	0x3c29e316	0.010369083
198	0xbdacc67f	-0.084362976
199	0x3ba0eff2	0.004911416
200	0xbe2fe941	-0.17178823
201	0xbe2ff4ee	-0.17183277
202	0x3c6ff3ad	0.014645499
203	0x3d51a47f	0.051182266
204	0xbdbb93f6	-0.09159081
205	0xbd85c0c1	-0.065309055
206	0xbdf8b0b6	-0.1214308
207	0xbe1bc86c	-0.15213174
208	0x3c079385	0.0082749175
209	0xbd633af3	-0.05547614
210	0xbe11fc6d	-0.14256449
211	0xbe389de9	-0.18028988
212	0xbe0c5034	-0.1370247
213	0xbe329e8f	-0.17443298
214	0xbdefc1d6	-0.11706893
215	0xbe4c06c5	-0.19924457
216	0x3e07dce1	0.13267852
217	0x3db97f9d	0.090575434
218	0xbdca8712	-0.09889044
219	0x3e310906	0.17288598
220	0x3d18e7c0	0.03733039
221	0x3dc012fa	0.093786195
222	0x3da6f112	0.08151449
223	0x3dd8d45d	0.1058738
224	0x3de35185	0.11099533
225	0xbdacae0f	-0.084316365
226	0xbcb2abff	-0.02181053
227	0x3d56a71e	0.05240547
228	0xbdcbaa95	-0.09944645
229	0x3cdac0b2	0.026703212
230	0xbc45a4b1	-0.012063191
231	0x3d5235ac	0.051320717
232	0x3da761a9	0.08172924
233	0x3d83f324	0.0644286
234	0x3e1fd085	0.15606888
235	0x3de313ea	0.11087783
236	0xbdcb374c	-0.099226564
237	0x3e467576	0.19380745
238	0xbd37ae3b	-0.044843893
239	0x3d95a0c3	0.073060535
240	0x3d3711d5	0.04469474
241	0x3dd4b884	0.10386756
242	0x3ca685bc	0.020327441
243	0xbd23b63d	-0.039968718
244	0x3d43ab53	0.04777081
245	0x3df05d3f	0.11736535
246	0xbdf349ce	-0.118793115
247	0x3de128b7	0.10994094
248	0x3cda74cc	0.026667021
249	0xbe25aa13	-0.1617816
250	0x3de1e5cb	0.11030158
251	0x3d8964f1	0.06708706
252	0xbe0dfe5d	-0.13866563
253	0x3de3bd69	0.111201115
254	0x3d0fe76f	0.03513282
255	0xbdcbce25	-0.09951428

encoder_faltten.1.cnn.bias f4 [16]
0	0x3c7f7af1	0.015593276
1	0x3d52b340	0.051440477
2	0xbe183f76	-0.14867958
3	0x3dabb5ce	0.08384286
4	0x3c3a2917	0.011362336
5	0xbca954a4	-0.020670243
6	0xbda0dca3	-0.07854583
7	0x3df0f449	0.11765344
8	0x3c9dd5d9	0.01926701
9	0xbe67cb4b	-0.22636144
10	0xbde866bf	-0.11347722
11	0xbe2286fe	-0.15871808
12	0xbd835c72	-0.06414117
13	0xbe7fb2f8	-0.24970615
14	0xbc749271	-0.0149274925
15	0xbc8e454f	-0.017367033

encoder_unfaltten.0.BachNorm.weight f4 [8]
0	0x3f800000	1.0
1	0x3f800000	1.0
2	0x3f800000	1.0
3	0x3f800000	1.0
4	0x3f800000	1.0
5	0x3f800000	1.0
6	0x3f800000	1.0
7	0x3f800000	1.0

encoder_unfaltten.0.BachNorm.bias f4 [8]
0	0x00000000	0.0
1	0x00000000	0.0
2	0x00000000	0.0
3	0x00000000	0.0
4	0x00000000	0.0
5	0x00000000	0.0
6	0x00000000	0.0
7	0x00000000	0.0

encoder_unfaltten.0.BachNorm.running_mean f4 [8]
0	0xbbf845cd	-0.0075766803
1	0xbccab214	-0.024743117
2	0xbbe49362	-0.006975577
3	0xbcfca953	-0.030842459
4	0xbca2f218	-0.01989083
5	0xbd2929c9	-0.041299615
6	0xbd50950b	-0.05092339
7	0x3bae2626	0.0053146062

encoder_unfaltten.0.BachNorm.running_var f4 [8]
0	0x3f67492d	0.9034603
1	0x3f6739b7	0.9032244
2	0x3f67706f	0.90405935
3	0x3f674bea	0.9035021
4	0x3f675619	0.9036575
5	0x3f66f0d9	0.90211254
6	0x3f671635	0.9026826
7	0x3f673be3	0.90325755

encoder_unfaltten.0.cnn.weight f4 [8, 1, 3, 3]
0	0xbd93592c	-0.071947426
1	0xbe72a736	-0.23696598
2	0xbe5a3126	-0.21307811
3	0xbceccbc0	-0.02890575
4	0xbdd0b470	-0.10190666
5	0xbe6dfac6	-0.23240194
6	0x3e964313	0.2934805
7	0xbd215b40	-0.039393663
8	0x3dc36ea4	0.095425874
9	0x3ea5171f	0.32244202
10	0xbda538d0	-0.08067477
11	0x3c98f1d0	0.018669993
12	0x3e7f0346	0.24903592
13	0xbe9a74ea	-0.30167323
14	0xbe94e8a8	-0.29083753
15	0x3cd950d0	0.026527792
16	0xbe749b70	-0.2388742
17	0xbd6cb2a8	-0.057787567
18	0xbe5bbc5e	-0.21458575
19	0x3e66812a	0.2251021
20	0xbe1a42f3	-0.15064602
21	0x3e9e718f	0.30946013
22	0x3e321d5a	0.17394009
23	0xbea91e02	-0.33030707
24	0x3d88cfd0	0.06680262
25	0x3e0d1198	0.13776243
26	0xbdae5120	-0.08511567
27	0x3e8949f3	0.2681423
28	0xbd320ee0	-0.043471217
29	0xbe8503f7	-0.25979587
30	0xbd2c74f8	-0.042103738
31	0xbe932467	-0.2873871
32	0x3e9579fd	0.29194632
33	0x3e7f7b8e	0.24949476
34	0xbe8dceff	-0.27696988
35	0xbe0ee508	-0.13954556
36	0xbe8e1502	-0.27750403
37	0x3e948f37	0.29015514
38	0x3d3f5680	0.046713352
39	0xbe98f66c	-0.29875505
40	0xbdcc9360	-0.09989047
41	0xbe044f7b	-0.12920944
42	0x3e340e9e	0.17583701
43	0x3e9b3db3	0.3032051
44	0xbe14d758	-0.14535272
45	0xbe611176	-0.21979317
46	0xbd91c234	-0.071171194
47	0xbdf1e84c	-0.11811885
48	0xbd7cc728	-0.061713368
49	0xbde6c710	-0.11268437
50	0xbdae017c	-0.08496377
51	0xbe1eef60	-0.15521002
52	0xbc6c3220	-0.014416248
53	0xbd3880a8	-0.04504457
54	0xbe8c4db4	-0.27403033
55	0xbe89c8be	-0.26910967
56	0x3e38623a	0.1800622
57	0x3e0be4e6	0.13661537
58	0x3db2d080	0.087311745
59	0xbe253b70	-0.16135955
60	0xbde27ef6	-0.11059372
61	0x3d48d500	0.049031258
62	0xbe7b55c0	-0.2454443
63	0x3dd6c46c	0.10486683
64	0x3e69ef3e	0.2284517
65	0xbea1b62a	-0.31584293
66	0x3e21e530	0.15810084
67	0x3df20bd4	0.11818662
68	0xbdc34e3c	-0.095364064
69	0xbd8fd9e0	-0.07023978
70	0xbda705a0	-0.0815537
71	0xbe72fe73	-0.23729877

encoder_unfaltten.0.cnn.bias f4 [8]
0	0x3e20bd28	0.15697157
1	0xbdbfdf10	-0.09368718
2	0xbe0201fb	-0.12696068
3	0xbe50d4db	-0.20393698
4	0xbe0e1da3	-0.13878493
5	0xbce7e180	-0.028305769
6	0xbe7b3716	-0.24532732
7	0x3e0ba30e	0.13636419

encoder_unfaltten.1.BachNorm.weight f4 [16]
0	0x3f800000	1.0
1	0x3f800000	1.0
2	0x3f800000	1.0
3	0x3f800000	1.0
4	0x3f800000	1.0
5	0x3f800000	1.0
6	0x3f800000	1.0
7	0x3f800000	1.0
8	0x3f800000	1.0
9	0x3f800000	1.0
10	0x3f800000	1.0
11	0x3f800000	1.0
12	0x3f800000	1.0
13	0x3f800000	1.0
14	0x3f800000	1.0
15	0x3f800000	1.0

encoder_unfaltten.1.BachNorm.bias f4 [16]
0	0x00000000	0.0
1	0x00000000	0.0
2	0x00000000	0.0
3	0x00000000	0.0
4	0x00000000	0.0
5	0x00000000	0.0
6	0x00000000	0.0
7	0x00000000	0.0
8	0x00000000	0.0
9	0x00000000	0.0
10	0x00000000	0.0
11	0x00000000	0.0
12	0x00000000	0.0
13	0x00000000	0.0
14	0x00000000	0.0
15	0x00000000	0.0

encoder_unfaltten.1.BachNorm.running_mean f4 [16]
0	0x3c16975d	0.009191361
1	0x3bd08572	0.006363564
2	0xbd6befb6	-0.057601653
3	0xbc6a114b	-0.0142863495
4	0x3c81e9fe	0.015858646
5	0x3c18eb25	0.009333407
6	0xbcc1bec7	-0.02365054
7	0x3c4eb2ae	0.012615843
8	0x3cf1924d	0.029488707
9	0x3ccc1fee	0.024917569
10	0x3d450676	0.048101865
11	0x3c5de99b	0.013544465
12	0xbc98d76a	-0.018657405
13	0x3d78f04e	0.060776047
14	0xbc95ab33	-0.01827011
15	0x3d2e6dcb	0.042585175

encoder_unfaltten.1.BachNorm.running_var f4 [16]
0	0x3f67e461	0.90582854
1	0x3f6a22fb	0.91459626
2	0x3f6c0eda	0.9221016
3	0x3f697115	0.91188174
4	0x3f683497	0.90705246
5	0x3f69900c	0.91235423
6	0x3f68dd35	0.90962535
7	0x3f69533f	0.9114265
8	0x3f69aff1	0.9128409
9	0x3f69565d	0.91147405
10	0x3f6e08aa	0.9298197
11	0x3f6a6f82	0.915764
12	0x3f6b1fff	0.918457
13	0x3f69043b	0.9102208
14	0x3f69161c	0.9104936
15	0x3f6a5db0	0.91549206

encoder_unfaltten.1.cnn.weight f4 [16, 8, 3, 3]
0	0xbd76012f	-0.060059723
1	0x3dc9bd9b	0.098506175
2	0xbca52aec	-0.020162068
3	0xbcb08ef8	-0.021552548
4	0xbc47cb48	-0.012194462
5	0xbde55fe3	-0.111999296
6	0xbd1ded28	-0.038556248
7	0xbd27215e	-0.040803306
8	0x3d8908b9	0.06691117
9	0x3d7a195a	0.061059333
10	0x3cf1d35c	0.02951973
11	0x3d36af36	0.044600688
12	0x3de8a88d	0.113602735
13	0x3dac473f	0.084120266
14	0xbd858db2	-0.06521167
15	0xbd7dab06	-0.06193068
16	0x3de4cc69	0.11171801
17	0xbdd0a67a	-0.10188003
18	0x3dcb6dc7	0.09933048
19	0x3dc20abb	0.09474703
20	0x3cdce4dc	0.026964597
21	0x3cde5284	0.027138956
22	0x3ce1675c	0.027515106
23	0x3ded9201	0.11600114
24	0xbd8e24b0	-0.06940591
25	0x3d512a0e	0.051065497
26	0x3ccaaeec	0.024741612
27	0xbdad3a21	-0.08458353
28	0xbdb05b66	-0.08611183
29	0xbdf0758b	-0.117411695
30	0xbcd78fd4	-0.0263137
31	0x3d80a245	0.062809505
32	0xbc6df510	-0.0145237595
33	0x3c87405c	0.016510181
34	0x3d9326db	0.071851455
35	0x3d5ef1e6	0.05442991
36	0xbd6d8fd7	-0.057998504
37	0xbcc5a990	-0.024128705
38	0x3d738efa	0.059462525
39	0xbd17a21e	-0.03701984
40	0xbce314a8	-0.02771981
41	0xbdc05592	-0.09391321
42	0x3c31b078	0.010845296
43	0x3c68f2a8	0.01421801
44	0xbd8720aa	-0.06598027
45	0x3d938231	0.072025664
46	0xbd9685f8	-0.07349771
47	0x3d36b16a	0.04460279
48	0xbd4d74be	-0.050160162
49	0xbbaff310	-0.0053695515
50	0xbd0b49e0	-0.034006
51	0x3c5fb5d8	0.013654195
52	0xbcfce214	-0.030869521
53	0x3bce61f0	0.006298296
54	0x3db74073	0.089478396
55	0xbdd67a44	-0.10472539
56	0x3de5cd73	0.11220827
57	0xbceda184	-0.02900768
58	0xbc8c2a24	-0.017109938
59	0x3debf46b	0.115212284
60	0xbd2982de	-0.04138457
61	0x3d2ceb9e	0.04221689
62	0xbd3d1e78	-0.046171635
63	0xbc8c2528	-0.017107561
64	0x3d94e271	0.07269753
65	0xbdcad4b0	-0.09903848
66	0xbd276252	-0.04086525
67	0xbda16e26	-0.07882337
68	0xbdac0e80	-0.08401203
69	0x3de10df1	0.10988987
70	0x3d38921e	0.045061223
71	0xbd002932	-0.031289287
72	0xbd810698	-0.06300086
73	0x3d78369e	0.060598962
74	0xbcbeee94	-0.023307122
75	0x3d4c154a	0.04982499
76	0x3d9d9485	0.076943435
77	0x3dc9a7a3	0.09846427
78	0x3c604d98	0.013690375
79	0x3d6e4726	0.05817332
80	0x3d11c9ea	0.03559295
81	0x3d8b7491	0.06809343
82	0xbdbd2480	-0.092354774
83	0x3dd7bb73	0.105338
84	0xbdafdf88	-0.08587557
85	0x3da67469	0.08127672
86	0xbdc1962f	-0.09452473
87	0x3d62435a	0.055240013
88	0xbdd7409a	-0.10510369
89	0x3d9b812f	0.07592999
90	0x3d2701d6	0.040773235
91	0x3c95d2ec	0.018289052
92	0xbcbefafc	-0.023313038
93	0xbd50356a	-0.05083219
94	0x3dd38d59	0.10329694
95	0x3b7ef180	0.003890127
96	0xbb8f34b0	-0.0043702945
97	0x3c8fc3ec	0.017549478
98	0x3d1495ee	0.036275797
99	0xbd91ff18	-0.071287334
100	0x3cd484ec	0.025942288
101	0xbc628210	-0.013824955
102	0x3d9c0983	0.07619002
103	0x3db9acbd	0.0906615
104	0xbd2e84fe	-0.0426073
105	0xbdbdd9d8	-0.09270066
106	0xbc84e468	-0.016222194
107	0xbd6f7ce2	-0.058468707
108	0xbdee3228	-0.1163066
109	0xbd066ce6	-0.032818697
110	0x3d17aea2	0.037031777
111	0x3cb2803c	0.021789663
112	0x3d3c534e	0.045977883
113	0x3d50c992	0.050973482
114	0x3dda666f	0.10664069
115	0xbdd71bb5	-0.105033316
116	0xbdafe842	-0.085892215
117	0xbdac5174	-0.084139735
118	0xbc295bc8	-0.010336824
119	0x3d5c50b2	0.053787895
120	0xb851c800	-5.0015748e-05
121	0xbdd87682	-0.105694786
122	0xbd4eb90c	-0.050469443
123	0x3de5b88b	0.112168394
124	0x3d894339	0.06702275
125	0xbcbe2444	-0.023210652
126	0xbd566fc4	-0.05235268
127	0xbdb32f2c	-0.08749232
128	0xbcb94ce0	-0.022619665
129	0xbdac0538	-0.08399433
130	0x3cda1784	0.026622541
131	0xbda612ca	-0.081090525
132	0x3dc65601	0.09684373
133	0x3dcbe17d	0.09955118
134	0x3d4bccbe	0.049755804
135	0xbc9bcf90	-0.019019872
136	0xbda108a8	-0.07862979
137	0xbd26a91a	-0.04068861
138	0x3d6259c2	0.05526138
139	0x3dec4a67	0.115376286
140	0x3d455dc2	0.048185118
141	0xbd8cd0b0	-0.068757415
142	0x3d84cfe9	0.06484968
143	0x3b0d1860	0.0021529421
144	0xbdd3bbb6	-0.103385374
145	0xbd4ca4ca	-0.049961843
146	0xbcb2e64c	-0.02183833
147	0xbd7af8d4	-0.061272457
148	0xbda6d58a	-0.08146198
149	0xbd834e18	-0.064113796
150	0x3d97d9df	0.074146025
151	0xbdd4e9a9	-0.1039613
152	0xbdaa3455	-0.08310763
153	0x3dc0fb63	0.09422948
154	0xbde97a40	-0.114002705
155	0xbd400760	-0.046882033
156	0x3da992d5	0.08279959
157	0xbbff6ee0	-0.0077951998
158	0xbdea9c0a	-0.11455543
159	0x3d1457e2	0.036216624
160	0x3c479408	0.0121812895
161	0x3ddfdaa7	0.109303765
162	0x3d273f4e	0.040831856
163	0xbd571f4a	-0.052520074
164	0xbddccb0f	-0.10780918
165	0xbde923e8	-0.11383802
166	0x3b2c13a0	0.0026256815
167	0xbddccac6	-0.107808635
168	0x3d7d180e	0.06179052
169	0x3be846e0	0.007088527
170	0xbc91d770	-0.017802924
171	0x3d6d71d6	0.05796989
172	0xbd258170	-0.040406644
173	0x3d54f79a	0.051993944
174	0x391c1400	0.0001488477
175	0xbdc46252	-0.095890656
176	0x3d6c695e	0.057717673
177	0xbdeaf988	-0.114733756
178	0xbd3485b8	-0.044072837
179	0xbd7aea28	-0.061258465
180	0xbda8e53b	-0.08246847
181	0x3db20d3b	0.0869393
182	0x3cdb9294	0.026803292
183	0x3ca4604c	0.02006545
184	0xbdcf5012	-0.10122694
185	0x3c8e21d4	0.017350115
186	0xbdb25a41	-0.08708621
187	0xbd148540	-0.03625989
188	0xbceee374	-0.029161192
189	0x3db7e0fd	0.0897846
190	0xbc90476c	-0.017612182
191	0xbdc9dd06	-0.0985661
192	0x3d9a23ed	0.075263835
193	0xbdc421f7	-0.09576791
194	0x3d450a0e	0.048105292
195	0x3cbcb704	0.023036487
196	0xbcc6a2ac	-0.02424749
197	0xbde9f679	-0.11423964
198	0xbd1682e6	-0.03674593
199	0x3d9a72b3	0.075414084
200	0x3dc6a1d1	0.09698833
201	0x3c1b5898	0.009481572
202	0x3cda2acc	0.026631735
203	0x3d014846	0.031563066
204	0x3c3833e8	0.011242844
205	0xbdd04a72	-0.10170449
206	0xbcbd32ec	-0.02309557
207	0xbcac7fb4	-0.021056987
208	0x3d16e11e	0.036835782
209	0xbdc57f27	-0.09643393
210	0x3db60661	0.088879354
211	0xbd2d96e8	-0.042380244
212	0x3de9fb25	0.11424855
213	0x3d7fd46e	0.062458448
214	0xbd82bff0	-0.063842654
215	0xbd4f68f6	-0.050637208
216	0xbdb9f26c	-0.090794414
217	0xbd482202	-0.048860557
218	0xbd9e03e0	-0.07715583
219	0xbd969ffa	-0.07354732
220	0xb9deea00	-0.00042517483
221	0x3cf5832c	0.029969774
222	0xbc0ded60	-0.008662552
223	0xbd9dd3a6	-0.07706384
224	0x3d9ae7db	0.07563754
225	0xbd3006d4	-0.04297526
226	0x3cf06b34	0.029347993
227	0x3d95934b	0.073034845
228	0x3dd3499f	0.103167765
229	0xbd2524e2	-0.040318377
230	0x3d3dbe52	0.04632408
231	0xbd9cda13	-0.07658782
232	0xbd05ba96	-0.032648645
233	0xbdf0101a	-0.11721821
234	0x3db7062f	0.08936726
235	0xbd905fec	-0.07049546
236	0x3d14029e	0.03613531
237	0x3d00141a	0.03126917
238	0xbda1bd6f	-0.0789746
239	0x3daff019	0.08590717
240	0xbcb19784	-0.021678694
241	0x3c8ab554	0.016932167
242	0x3c7ea4f8	0.015542261
243	0xbd0f88fe	-0.035042755
244	0x3c3fa218	0.011696361
245	0xbbceda10	-0.006312616
246	0x3ce634a4	0.028101273
247	0xbd160e90	-0.03663498
248	0xbdc59e93	-0.09649386
249	0x3d253346	0.0403321
250	0x3d1c0a16	0.038095556
251	0xbdade786	-0.08491425
252	0xbd73ada7	-0.05949178
253	0x3d987081	0.074433334
254	0x3cfc95ac	0.030833088
255	0x3db40449	0.0878988

encoder_unfaltten.1.cnn.bias f4 [16]
0	0x3c1d6fc8	0.00960917
1	0x3c5d3f28	0.013503827
2	0xbd35f854	-0.044426277
3	0x3dbdd921	0.0926993
4	0xbc966028	-0.018356398
5	0xbbf74740	-0.0075463355
6	0x3db6d789	0.08927829
7	0xbd8b7b24	-0.068105966
8	0x3da66f29	0.08126671
9	0x3da7e1b5	0.08197347
10	0xbcaeb160	-0.021324813
11	0x3d7bf956	0.061517082
12	0x3deba1c9	0.115054674
13	0x3ddb6acf	0.107137315
14	0xbd01d1ea	-0.03169433
15	0x3d8d875f	0.069105856

embedding.weight f4 [10, 8]
0	0xbf588ba9	-0.84588104
1	0xbe914f5a	-0.28380853
2	0x3c0faec8	0.008769698
3	0x3f1db731	0.6160765
4	0xbfa411b3	-1.2817901
5	0xbfdc618e	-1.7217271
6	0x3e144b2a	0.14481798
7	0x3f998c87	1.199601
8	0x3d48abbc	0.048991904
9	0xbf50935d	-0.8147486
10	0xbfa2ea8e	-1.272783
11	0x3dd10a4c	0.10207042
12	0x3e83e16b	0.25757918
13	0x3fe07154	1.7534585
14	0xbe8d8172	-0.2763782
15	0x3d74f747	0.059806135
16	0xbdb5e466	-0.08881454
17	0x3f6b3752	0.9188129
18	0x3f53ff77	0.82811683
19	0x3e3db7ae	0.185271
20	0xbeacf7d3	-0.33782825
21	0x3fdc2e71	1.7201673
22	0x3fae7690	1.3629932
23	0xbe928535	-0.28617254
24	0xbc37bc90	-0.01121439
25	0x3f55fffb	0.8359372
26	0x3f8e0653	1.109568
27	0xbf78c0a9	-0.97168976
28	0x3f4bb842	0.7957803
29	0x3fe3ca71	1.7796155
30	0xbf345dd0	-0.70455647
31	0x3f051125	0.51979285
32	0x3f03f330	0.5154295
33	0x3ee5f0f3	0.44910392
34	0xbe657011	-0.22406031
35	0xbd9a495a	-0.07533522
36	0xbf048eb7	-0.51780266
37	0xbed44c69	-0.41464546
38	0xbf11aa98	-0.5690093
39	0xbfa2409c	-1.2675967
40	0xbf29a44a	-0.6626631
41	0x3fdd7175	1.7300249
42	0xbf588b8b	-0.84587926
43	0xbf680594	-0.9063351
44	0x3f23e971	0.6402808
45	0x3f87286c	1.0559211
46	0xbf77e8d8	-0.96839666
47	0x3fc62060	1.547863
48	0x3dc7c613	0.097545765
49	0xbf8782eb	-1.0586828
50	0xbe0645e0	-0.13112593
51	0x3f49c0c2	0.7880975
52	0xbf7c3d9f	-0.98531526
53	0x3fe8b021	1.817875
54	0xbd999c23	-0.07500484
55	0xbfbf3506	-1.4938056
56	0x3e268fce	0.16265795
57	0x3eef690f	0.4675984
58	0x3fb8a653	1.4425758
59	0x39c9c8cb	0.0003848731
60	0xbf803557	-1.0016278
61	0xbfa53bad	-1.2908837
62	0xbed1029b	-0.408223
63	0x3f84c08a	1.0371258
64	0xbdc1f506	-0.09470563
65	0x3ff6e9a7	1.9290055
66	0xbf98b949	-1.1931545
67	0x3dce77bb	0.100814305
68	0x3e656fb2	0.2240589
69	0xbf8b20e4	-1.0869412
70	0x3ceaf557	0.02868144
71	0x3cfcb13b	0.030846229
72	0x3f7f25c8	0.99667025
73	0xbdd2b29c	-0.10287973
74	0xbfb08fd9	-1.3793899
75	0xbdc3e137	-0.09564441
76	0xbf87a562	-1.0597346
77	0xbed525d3	-0.4163042
78	0x3fc5a59d	1.5441166
79	0x3ddcd1c1	0.10782195

decoder.1.BachNorm.weight f4 [16]
0	0x3f690818	0.91027975
1	0x3f7b0b0c	0.9806373
2	0x3f85236d	1.0401436
3	0x3f617278	0.8806529
4	0x3f6ee67c	0.9332044
5	0x3f7ce76b	0.98790616
6	0x3f8d3980	1.1033173
7	0x3f89e624	1.0773358
8	0x3f753cb3	0.95795745
9	0x3f826657	1.0187482
10	0x3f7c47d8	0.98547125
11	0x3f718fe3	0.9436018
12	0x3f76a9b2	0.96352684
13	0x3f81334c	1.009378
14	0x3f7fb285	0.99881774
15	0x3f80e88d	1.0070969

decoder.1.BachNorm.bias f4 [16]
0	0xbdc032b1	-0.093846686
1	0xbe3807d9	-0.17971744
2	0xbe39f943	-0.18161492
3	0xbc1c1838	-0.009527259
4	0xbdf2e9b6	-0.11860983
5	0xbe3e79f9	-0.18601216
6	0xbe6678fa	-0.22507086
7	0xbe6fbb6e	-0.23411343
8	0xbe764b10	-0.24052072
9	0xbe0a3d49	-0.13499941
10	0xbe0a18af	-0.13485979
11	0xbdddf9ab	-0.10838636
12	0xbdd45611	-0.10367978
13	0xbe0a00d0	-0.13476872
14	0xbe01f8a8	-0.12692511
15	0xbe9380f3	-0.28809318

decoder.1.BachNorm.running_mean f4 [16]
0	0xbe0f1b44	-0.13975245
1	0xbdc6507b	-0.09683319
2	0xbe18ab8d	-0.14909191
3	0xbe0ecbec	-0.13944978
4	0xbe01a08a	-0.12658897
5	0xbc50e8a0	-0.012750775
6	0xbca4b483	-0.020105606
7	0x3d1d8f2e	0.038466625
8	0xbce9e833	-0.028553104
9	0xbd478874	-0.048714116
10	0x3ba35e41	0.004985601
11	0x3b7ce376	0.0038587726
12	0xbc316196	-0.010826489
13	0x3ba40616	0.0050056083
14	0xbcad09b2	-0.021122787
15	0x3c4d902a	0.012546578

decoder.1.BachNorm.running_var f4 [16]
0	0x3e81b4c6	0.25333232
1	0x3e89ffc7	0.26952955
2	0x3e9124ad	0.28348294
3	0x3ea41987	0.32050726
4	0x3e84ba97	0.25923607
5	0x3e90e255	0.28297678
6	0x3e8c4dcc	0.27403104
7	0x3e8aff63	0.2714797
8	0x3e9a8d56	0.30185956
9	0x3e8c4a6b	0.27400526
10	0x3e91c9c9	0.28474262
11	0x3e90c09e	0.28271955
12	0x3e8bff8e	0.2734341
13	0x3e937f16	0.28807896
14	0x3ea4907c	0.32141483
15	0x3e928f17	0.28624794

decoder.1.cnn.weight f4 [16, 16, 6, 6]
0	0xbad370cf	-0.0016131642
1	0x3cf10440	0.029420972
2	0x3d4358d5	0.04769214
3	0xbdb8b2d7	-0.09018486
4	0xbcfeeb15	-0.031117955
5	0xbc94f42b	-0.018182835
6	0x3c946963	0.018116659
7	0x3d214b8f	0.0393787
8	0x3b1810d2	0.0023203385
9	0x3dd53a5c	0.10411522
10	0x3d2661eb	0.040620726
11	0x3ca81b7a	0.020520914
12	0x3d6e2fd4	0.05815108
13	0x3d21e0ca	0.039521016
14	0xbd2f7852	-0.042839356
15	0x3c02d0db	0.007984365
16	0x3d80869e	0.06275676
17	0x3cfd70f8	0.030937657
18	0xbd1167ad	-0.035499264
19	0x3dc904ec	0.09815392
20	0xbda0efce	-0.07858239
21	0xbd40423b	-0.046938162
22	0x3e099531	0.13435818
23	0x3de1e24e	0.11029492
24	0xbdd77786	-0.10520844
25	0xbc10cae2	-0.0088374335
26	0xbd404028	-0.046936184
27	0xbd2b42c5	-0.041811723
28	0x3dc48533	0.09595718
29	0xbd19872c	-0.037482426
30	0x3e1950e3	0.14972262
31	0xbd5e7cb4	-0.054318145
32	0xbd589026	-0.052871846
33	0x3d1dc2f6	0.038516007
34	0x3c6cab66	0.014445161
35	0x3cdbe46b	0.026842317
36	0xbd64ed77	-0.055890527
37	0xbc95e175	-0.018295983
38	0x3d14bc10	0.036312163
39	0x3d853ef5	0.06506149
40	0x3ce5143d	0.027963752
41	0x3ce9aa8b	0.028523704
42	0xbd9e316f	-0.077242725
43	0xbcaad91a	-0.020855475
44	0xbd4a99e2	-0.04946316
45	0x3d11c3ec	0.035587236
46	0x3cfda53d	0.03096258
47	0xbdd964a0	-0.10614896
48	0x3d9d034b	0.07666644
49	0x3dbc5d36	0.09197466
50	0xbbd49288	-0.0064871944
51	0xbd74889b	-0.05970059
52	0xbd38edd4	-0.045148686
53	0xbdd22c03	-0.10262301
54	0x3d0c9eb3	0.034331035
55	0xbd6a2ccd	-0.05717163
56	0xbd050070	-0.03247112
57	0xbc08c436	-0.008347562
58	0x3d1b282e	0.037880115
59	0x3bebede2	0.0071999887
60	0xbd790af3	-0.060801458
61	0x3cbc068d	0.022952342
62	0xbdaea7c0	-0.085280895
63	0xbc8bb66e	-0.017054763
64	0x3b34daf0	0.0027596317
65	0xbbcc2da8	-0.0062310286
66	0x3cd64614	0.026156463
67	0xbc32730c	-0.010891687
68	0x3de2f5c7	0.110820346
69	0x3ca44582	0.020052675
70	0xbd597bc8	-0.053096563
71	0x3af1b732	0.0018441437
72	0xbe05138f	-0.12995742
73	0xbc50a365	-0.012734269
74	0xbd061472	-0.032734342
75	0x3b27e1b5	0.002561671
76	0x3bc72364	0.006077217
77	0xbd42d5c1	-0.047567133
78	0x3c10024a	0.008789608
79	0xbdba51b2	-0.090976134
80	0xbdd3a36a	-0.10333903
81	0xbdcd6204	-0.100284606
82	0xbdd2789e	-0.10276912
83	0xbe05bec3	-0.13061051
84	0xbca37f87	-0.01995827
85	0xbc8f17e1	-0.017467441
86	0xbc5b0107	-0.013366944
87	0x3d9d39fb	0.076770745
88	0xbca1f590	-0.019770414
89	0x3cfb5209	0.030678766
90	0xbca2b603	-0.01986218
91	0x3d930e6a	0.07180484
92	0x3d6a9ab7	0.057276454
93	0x3d50146b	0.050800722
94	0xbd42e78e	-0.04758411
95	0x3d03fabb	0.032221537
96	0x3d50e041	0.050995115
97	0x3d8a449e	0.06751369
98	0xbd13eb12	-0.036112852
99	0xbb87b5e3	-0.0041415556
100	0x3dce6105	0.10077099
101	0x3d6393e9	0.05556098
102	0x3b9e6e80	0.00483495
103	0xbdca91a6	-0.098910615
104	0x3d8dec16	0.069297954
105	0xbbc907ad	-0.006134948
106	0xbccad221	-0.0247584
107	0xbc8fc4a0	-0.017549813
108	0xbc8298df	-0.015942035
109	0x3d8429f1	0.06453312
110	0x3c1d3b05	0.009596591
111	0x3bb9af48	0.005666647
112	0x3d60c9b2	0.05487985
113	0x3df0caae	0.11757408
114	0xbdb70aed	-0.08937631
115	0xbd4df83c	-0.050285563
116	0xbd701677	-0.058615174
117	0xbbbe4a7c	-0.005807219
118	0xbdab1b87	-0.0835486
119	0x3db4e95a	0.08833571
120	0x3d18287f	0.037147995
121	0xbc407011	-0.011745469
122	0x3c9cac5c	0.019125156
123	0x3df1d358	0.11807889
124	0x3bb13ebc	0.00540909
125	0x3db10047	0.08642631
126	0x3da99e73	0.08282175
127	0x3dc2ef90	0.09518349
128	0xbdaa4463	-0.08313825
129	0x3c208e11	0.009799496
130	0x3c3fbb2d	0.011702341
131	0x3d8d3957	0.06895702
132	0x3d0ac431	0.03387851
133	0x3e0b2396	0.13587794
134	0xbd9a29b7	-0.07527488
135	0xbdc592fd	-0.096471764
136	0xbd58015c	-0.05273567
137	0xbd177508	-0.036976844
138	0x3e841cb0	0.25803137
139	0x3d69d58c	0.05708842
140	0xbd7b378d	-0.061332274
141	0xbe659054	-0.22418338
142	0xbd71fb2f	-0.059077438
143	0xbdc1a528	-0.09455329
144	0x3df8f389	0.12155826
145	0x3d3140b6	0.043274604
146	0xbd00193b	-0.03127406
147	0x3d61f45b	0.055164676
148	0x3dcf4d07	0.10122114
149	0xbc1f7b27	-0.009733952
150	0xbdc92663	-0.09821775
151	0xbd850563	-0.06495168
152	0xbda2b2ea	-0.079442814
153	0x3dbd385f	0.092392676
154	0x3c65bc54	0.014021952
155	0x3adeeb1d	0.0017007325
156	0xbc60b3c5	-0.013714735
157	0xbc6a7b37	-0.014311603
158	0xbd0138b4	-0.031548217
159	0xbc63c7fb	-0.0139026595
160	0x3c6e2ca4	0.01453701
161	0x3c7cbf49	0.015426465
162	0x3d6824aa	0.05667559
163	0xbc51ed1e	-0.012812881
164	0xbc873798	-0.016506001
165	0xbd2c6596	-0.042089067
166	0x3d5d304e	0.054001145
167	0xbcedb268	-0.029015735
168	0x3d1b99f9	0.037988637
169	0x3c914aaa	0.017735798
170	0x3de29d92	0.110652104
171	0xbc79e3a5	-0.015252029
172	0xbd16aabd	-0.036783922
173	0x3bc49174	0.0059987847
174	0xbaea752a	-0.0017887701
175	0xbc77810b	-0.01510645
176	0x3c17ddc1	0.009269179
177	0xbd3dfa85	-0.046381492
178	0xbd939326	-0.07205801
179	0x3c304147	0.010757751
180	0xbc06aa30	-0.008219287
181	0xbc466547	-0.012109107
182	0x3d29b588	0.041432887
183	0x39220e6e	0.000154549
184	0xbdb75b4e	-0.08952962
185	0xbc463134	-0.012096692
186	0xbcd3e874	-0.025867678
187	0xba452056	-0.0007519772
188	0x3cf1f8af	0.029537527
189	0x3ba0b4da	0.0049043717
190	0x3c4a84d8	0.012360774
191	0xbbe4350a	-0.0069643306
192	0x3cb9e0f3	0.022690272
193	0xbd3d2645	-0.046179075
194	0xbd05b926	-0.032647274
195	0x3db244f6	0.087045595
196	0xbd28594b	-0.04110078
197	0x3d717ccf	0.058956917
198	0x3d9fd5c9	0.07804448
199	0xbc4065e6	-0.0117430445
200	0xbc51fd51	-0.012816743
201	0xbdfe71ba	-0.12424035
202	0x3dda20c1	0.106507786
203	0x3d778661	0.060430888
204	0x3e0a532b	0.13508289
205	0x3be216b9	0.0068996814
206	0x3c20faa3	0.009825381
207	0x3d09e33d	0.033663977
208	0xbd931044	-0.07180837
209	0xbd3f8f5d	-0.04676758
210	0xbc75aa6f	-0.014994248
211	0x3c031395	0.008000274
212	0x3db253a0	0.087073565
213	0x3d072e40	0.03300309
214	0x3d18afc0	0.037276983
215	0x3da5fa03	0.081043266
216	0x3dc90fba	0.09817453
217	0x3dbf87d3	0.09352078
218	0x3d604e03	0.054761898
219	0x3d32af4d	0.04362421
220	0x3d469160	0.048478484
221	0xbcbf2cdc	-0.02333682
222	0x3c114ba8	0.0088681355
223	0x3c3eb6db	0.011640276
224	0x3d997f37	0.074949674
225	0x3d8ecb7e	0.06972407
226	0x3dc57f87	0.096434645
227	0xbe108e02	-0.14116672
228	0x3d2851df	0.041093703
229	0x3d9dd55f	0.07706713
230	0xbbf837de	-0.0075750193
231	0xbc031ace	-0.008001996
232	0xbbf02846	-0.0073290197
233	0x3d505ee8	0.05087176
234	0x3dbd2da3	0.0923722
235	0xbc92a727	-0.01790197
236	0x3d440def	0.04786485
237	0x3d835e93	0.06414523
238	0x3d384774	0.044990018
239	0xbd8dfa25	-0.06932477
240	0xbceadd87	-0.028670086
241	0x3de25fb1	0.11053408
242	0xbdeeb1cd	-0.116550066
243	0x3ce88633	0.028384304
244	0x3d05262e	0.032507114
245	0xbd9f3312	-0.07773413
246	0xbcece173	-0.028916096
247	0x3bdd228a	0.006748502
248	0xba95a6be	-0.0011417491
249	0x3e3aba02	0.18235019
250	0xbdb0ec20	-0.08638787
251	0xbe0191b5	-0.12653239
252	0x3c809977	0.015698178
253	0x3cdc7cf3	0.02691505
254	0xbd51bd95	-0.05120619
255	0xbcad432d	-0.021150196

decoder.1.cnn.bias f4 [16]
0	0xbd49780c	-0.04918675
1	0xbd6fe256	-0.05856546
2	0xbdb3d99d	-0.08781741
3	0x3cde877c	0.027164213
4	0xbd928400	-0.07154083
5	0x3db56c98	0.08858603
6	0xbc66151d	-0.01404312
7	0xbcec7c1d	-0.028867776
8	0x3cf20782	0.029544596
9	0xbd8e09eb	-0.069354855
10	0x3d6839c7	0.056695726
11	0x3d64754b	0.05577592
12	0x3d53ec7e	0.05173921
13	0x3cadaa07	0.02119924
14	0x3d5ca4ac	0.05386798
15	0x3d17da1e	0.037073247

decoder.2.BachNorm.weight f4 [8]
0	0x3f93368c	1.1501021
1	0x3f884153	1.0644935
2	0x3f8fc73b	1.1232675
3	0x3f4d07cc	0.8009002
4	0x3f98d586	1.1940162
5	0x3f9dae92	1.23189
6	0x3f95b173	1.1694778
7	0x3f9a9f69	1.2079898

decoder.2.BachNorm.bias f4 [8]
0	0xbe233842	-0.1593943
1	0xbe4447de	-0.1916804
2	0xbe9a0cef	-0.30087993
3	0xbe85819f	-0.26075456
4	0xbe53e319	-0.206921
5	0xbe717ffb	-0.23583977
6	0xbe2f96ea	-0.17147413
7	0xbe58535e	-0.21125552

decoder.2.BachNorm.running_mean f4 [8]
0	0x3e174f48	0.14776337
1	0x3d255104	0.040360466
2	0xbd6afa63	-0.057367694
3	0xbe2f31ef	-0.17108892
4	0x3d87df9e	0.066344485
5	0x3d4f7e97	0.050657835
6	0x3d5cd150	0.053910553
7	0x3e5d19f4	0.21591932

decoder.2.BachNorm.running_var f4 [8]
0	0x3e87a2a4	0.26491272
1	0x3e33c0c0	0.17553997
2	0x3e33306a	0.17498937
3	0x3f01fb26	0.5077385
4	0x3e582917	0.21109425
5	0x3e663840	0.22482395
6	0x3e6e969c	0.2329964
7	0x3e947bc0	0.29000664

decoder.2.cnn.weight f4 [16, 8, 6, 6]
0	0xbd28b461	-0.041187648
1	0x3d494b6a	0.049144186
2	0x3c97bfa4	0.018523999
3	0x3d85e29c	0.06537363
4	0x3d9222c3	0.071355365
5	0x3d9d95d4	0.07694593
6	0x3c6f0e57	0.014590821
7	0xbaa3d501	-0.0012499393
8	0x3d0394d9	0.032124374
9	0x3d6d0de1	0.057874564
10	0x3d984ec5	0.07436899
11	0xbc553760	-0.013013691
12	0x3db9ef0d	0.090787984
13	0x3d91c7c4	0.071181804
14	0x3bbf5661	0.0058391546
15	0x3de84b38	0.11342472
16	0x3db8db7a	0.09026237
17	0x3cfe52e4	0.031045385
18	0x3c9872f9	0.01860951
19	0xbcbc763f	-0.023005603
20	0x3d361e45	0.04446246
21	0x3ce5cb87	0.028051151
22	0x3da7f489	0.08200938
23	0x3d52c93c	0.051461443
24	0xbe24cd12	-0.16093853
25	0xbdd9c241	-0.10632754
26	0xbcee2998	-0.029072568
27	0x3d7fb3b6	0.062427245
28	0x3d3d3d62	0.046201117
29	0x3dcd67b9	0.10029549
30	0xbdefff46	-0.117186114
31	0xbc969a45	-0.018384108
32	0x3cb1a3e4	0.021684594
33	0xbcc29686	-0.023753416
34	0x39a998bd	0.0003234799
35	0xbcebb6e1	-0.028773727
36	0x3d222bba	0.039592482
37	0x3d87ad5b	0.06624862
38	0xbd13254f	-0.035924252
39	0x3d8110f7	0.06302064
40	0x3d1982db	0.03747831
41	0x3dae2b0c	0.08504304
42	0xbe1d4129	-0.15356888
43	0x3d053e97	0.032530393
44	0x3cf67a2c	0.030087553
45	0x3df0f211	0.117649205
46	0x3d7ffe52	0.062498398
47	0x3e0568fe	0.13028333
48	0x3c63c072	0.013900863
49	0x3d782091	0.060577933
50	0xbe09f315	-0.13471635
51	0x3a56648b	0.0008178434
52	0xbda9cf64	-0.0829151
53	0x3d4483cb	0.04797725
54	0xbcbd47a4	-0.02310545
55	0xbd11e88d	-0.03562217
56	0x3d690356	0.056887947
57	0x3d7df216	0.06199845
58	0x3dc606c6	0.09669261
59	0x3daf13e3	0.08548715
60	0xbda8bd81	-0.0823927
61	0x3dd80aeb	0.105489574
62	0x3d98696a	0.07441981
63	0x3dbb2a74	0.09138957
64	0xbd7ee394	-0.062228754
65	0xbd3965dc	-0.045263156
66	0xbd83680e	-0.06416331
67	0xbbf4ec13	-0.0074744313
68	0x3d70b8af	0.058769878
69	0x3daf9d8c	0.085749716
70	0x3a139d24	0.0005631021
71	0x3c9d3dda	0.019194532
72	0x3b0074e3	0.001960092
73	0x3d758db4	0.05994959
74	0x3bb70504	0.0055853147
75	0x3e1312e9	0.14362682
76	0x3d5cb568	0.05388394
77	0x3d19925a	0.037493087
78	0xbdf40fff	-0.119171135
79	0xbd7bd4b9	-0.061482165
80	0x3e06df34	0.13171083
81	0x3da5d42e	0.08097111
82	0x3d8adde0	0.067806005
83	0x3cd639b2	0.026150558
84	0xbce01682	-0.027354483
85	0xbbc5ff2b	-0.0060423813
86	0x3ca6efdc	0.020378046
87	0x3bab96cf	0.0052364836
88	0x3cbecf0b	0.023292085
89	0x3e09d091	0.13458468
90	0xbd252bc5	-0.040324945
91	0xbd0d134d	-0.034442235
92	0x3d888fac	0.06668028
93	0xbd4aa970	-0.049477994
94	0x3d2005b0	0.039067924
95	0xbe2435d0	-0.16036153
96	0xbd847ac4	-0.06468728
97	0xbe03b066	-0.1286026
98	0xbdf6f250	-0.12057936
99	0x3c9c739b	0.019098094
100	0x3d05b8c9	0.032646928
101	0x3d751b3e	0.059840433
102	0xbdde6175	-0.10858432
103	0xbdeda139	-0.116030164
104	0xbd6194c2	-0.055073507
105	0xbd0486ac	-0.032354996
106	0x3cc62e07	0.02419187
107	0x3d9a36b2	0.075299636
108	0x3cbbb6b7	0.022914274
109	0xbd2995df	-0.041402694
110	0xbdf93057	-0.12167423
111	0xbd4b076b	-0.04956762
112	0xbc97c654	-0.018527187
113	0xbe0c2bf3	-0.1368864
114	0xbb748c4e	-0.0037315073
115	0x3d86ef61	0.06588627
116	0x3c860285	0.016358623
117	0x3b624ce4	0.0034530694
118	0x3e1e4faa	0.15460077
119	0xbcb9fa2c	-0.022702299
120	0xbdb1db58	-0.086844146
121	0xbceadd40	-0.028669953
122	0xbe15c9be	-0.1462774
123	0x3c528ad0	0.012850478
124	0xbd0f9eab	-0.035063427
125	0xbdd52af3	-0.104085825
126	0xbc81fd4f	-0.015867857
127	0xbdea5fd9	-0.11444063
128	0xbd843e34	-0.06457177
129	0x3cc29e2a	0.02375706
130	0xbab1aedc	-0.001355614
131	0x3d5c75c6	0.053823255
132	0x3d19cec9	0.03755072
133	0xbbdafbab	-0.006682833
134	0x3bc12680	0.005894482
135	0xbbfff877	-0.0078116017
136	0x3e11b517	0.14229237
137	0x3d82fa60	0.063954115
138	0xbcd147cf	-0.025546936
139	0x3d461d71	0.04836792
140	0xbca63003	-0.020286566
141	0xbe1b8ccf	-0.15190433
142	0x3c57a156	0.013161024
143	0xbdbacfd9	-0.09121675
144	0xbdbeb271	-0.09311379
145	0xbcf03604	-0.029322632
146	0xbd814bb3	-0.063132666
147	0xbe06a061	-0.13147117
148	0x3e68d793	0.22738485
149	0xbd806f26	-0.062712
150	0xbda1a7fd	-0.07893369
151	0xbdfe53b0	-0.12418306
152	0xbc094297	-0.008377693
153	0x3dac5eac	0.08416495
154	0x3d815a11	0.06316007
155	0x3d0bf2d7	0.034167137
156	0xbd836ef9	-0.06417651
157	0xbd46c023	-0.04852308
158	0x3d2dbbcd	0.04241543
159	0xbd829d0b	-0.0637761
160	0x3d716634	0.05893536
161	0x3d983f69	0.074339695
162	0xbac8f403	-0.001533151
163	0xbb7adcd5	-0.0038278599
164	0xbd1ff5ed	-0.039052892
165	0xbc2add45	-0.010428731
166	0x3d61b988	0.055108577
167	0xbd0d6076	-0.03451582
168	0xbd6bdc75	-0.05758329
169	0x3d441293	0.047869276
170	0x3a2ad991	0.0006517405
171	0xbca52ef1	-0.020163985
172	0xbc2505aa	-0.010072151
173	0x3db5573d	0.0885453
174	0xbd7707b8	-0.060310096
175	0xbd86931a	-0.06571026
176	0x3acbb79c	0.0015542391
177	0xbd61ee57	-0.05515894
178	0x3d210a06	0.0393162
179	0x3ca83519	0.020533131
180	0xbbbff867	-0.0058584693
181	0x3d11cab8	0.03559372
182	0xbd845b8f	-0.06462776
183	0x3d112aa7	0.035441067
184	0x3d0c5729	0.03426281
185	0x3ce6d56d	0.028177941
186	0x3c9f3360	0.019433677
187	0xbdd2d430	-0.10294378
188	0xbd0d8f3b	-0.034560423
189	0x3bd9cb5f	0.006646558
190	0x3cdd9752	0.027049694
191	0x3d053f6b	0.032531183
192	0x3d89d27a	0.06729598
193	0xbc32d9b9	-0.010916167
194	0x3b7592d5	0.0037471552
195	0x3d857816	0.06517045
196	0x3d604c40	0.054760218
197	0x3d25db00	0.040492058
198	0xbd9b938d	-0.075965025
199	0xbdcc7594	-0.09983364
200	0xbd9666e8	-0.073438466
201	0x3d8e27cd	0.06941185
202	0x3d8d3fbe	0.068969235
203	0x3dab5630	0.08366048
204	0x3c4a1036	0.012332967
205	0xbe07f01a	-0.13275185
206	0xbd1565fb	-0.03647421
207	0xbbe58bc7	-0.007005188
208	0x3db8042d	0.089851715
209	0x3d4b5dc5	0.049649972
210	0xbd91bf56	-0.071165726
211	0x3d0da04d	0.034576703
212	0xbd53f122	-0.051743634
213	0xbcf0e4e1	-0.029406013
214	0x3ce8f1d7	0.02843563
215	0x3cd7ac4c	0.026327275
216	0x3c9f4c87	0.01944567
217	0x3b9e4e1d	0.004831089
218	0x3d37cc73	0.044872712
219	0x3d131ab0	0.035914123
220	0x3d37e831	0.04489917
221	0x3d8bf089	0.06832988
222	0x3b9e24b0	0.004826151
223	0x3c89c863	0.016819185
224	0x3d3028dd	0.04300772
225	0x3dc0f6fa	0.09422107
226	0xbbdf9940	-0.0068236887
227	0x3d99e166	0.075136945
228	0xbd2ee0b2	-0.042694755
229	0x3d09a576	0.03360506
230	0xbd284bbc	-0.04108785
231	0x3dcbf4c0	0.09958792
232	0x3d8a5277	0.0675401
233	0x3dc50b5a	0.09621306
234	0xbd71fa52	-0.059076615
235	0x3b91d144	0.0044499952
236	0xbd6733b8	-0.056445807
237	0x3d85edc6	0.06539492
238	0x3dba36b4	0.09092465
239	0x3d9b5ea0	0.07586408
240	0xbd842240	-0.06451845
241	0xbc2ba671	-0.010476694
242	0xbdc28004	-0.09497073
243	0xbda278fc	-0.07933232
244	0x3ca55649	0.020182746
245	0x3d0e480c	0.034736678
246	0xbe4a8101	-0.19775774
247	0xbddbd181	-0.10733319
248	0x3c6647ca	0.014055202
249	0x3dd6735e	0.10471223
250	0x3d2f4f6d	0.042800356
251	0x3e207907	0.15671168
252	0xbd90f64f	-0.0707823
253	0xbcbdea7e	-0.023183104
254	0xbc60d7d4	-0.013723332
255	0x3c1c0341	0.00952226

decoder.2.cnn.bias f4 [8]
0	0xbd2ac7e8	-0.04169455
1	0xbd1445d2	-0.0361994
2	0xbd61eee3	-0.05515946
3	0x3d5f337f	0.05449247
4	0xbdc9cd2f	-0.09853589
5	0x3b7d24a9	0.0038626587
6	0x3b936b10	0.004498847
7	0x3d157019	0.036483858

decoder.4.cnn.weight f4 [8, 1, 6, 6]
0	0x3cbb6b76	0.02287839
1	0x3d2c08e6	0.042000674
2	0x3d9b1145	0.07571653
3	0x3dda980f	0.10673534
4	0x3da7196f	0.08159148
5	0x3d017aca	0.03161124
6	0x3c3216a1	0.010869653
7	0x3cf26eda	0.029593874
8	0x3df89da6	0.12139444
9	0x3e5ff099	0.21869124
10	0x3e396b37	0.18107305
11	0x3dba8f56	0.091093704
12	0xbc8d0f5c	-0.017219238
13	0xbc8be93e	-0.017078992
14	0x3d9ee0c0	0.077577114
15	0x3e6ffe84	0.23436934
16	0x3e6b3bda	0.2297205
17	0x3ddafd74	0.106928736
18	0xbda9d1c8	-0.08291966
19	0xbdf0d906	-0.11760144
20	0x3c60449f	0.013688236
21	0x3e3aa2df	0.18226193
22	0x3e4e85bb	0.20168202
23	0x3ddc38d3	0.10753026
24	0xbdcb5958	-0.0992915
25	0xbe077c70	-0.13231063
26	0xbd007fd9	-0.031371925
27	0x3dacd6a8	0.0843938
28	0x3dfc8db7	0.123317175
29	0x3d766227	0.0601522
30	0xbd5251a8	-0.051347405
31	0xbd8946fb	-0.067029916
32	0xbca45243	-0.020058757
33	0x3d1a7610	0.03771025
34	0x3d55aae6	0.052164935
35	0x3c610876	0.013734927
36	0xbc7d4b3a	-0.01545983
37	0xbc704d8d	-0.014666927
38	0x3a1ab076	0.00059009285
39	0xbcc05fbe	-0.023483153
40	0xbc905993	-0.017620837
41	0xbbeb59e7	-0.007182348
42	0xbcd37253	-0.02581135
43	0xbccc2997	-0.024922175
44	0xbd03cac8	-0.03217581
45	0xbd8a46ab	-0.0675176
46	0xbd9d8ec6	-0.076932475
47	0xbcf36e45	-0.029715667
48	0xbd693796	-0.056937777
49	0xbdc79ba0	-0.0974648
50	0xbe13c666	-0.14431152
51	0xbe436be5	-0.19084127
52	0xbe362432	-0.17787245
53	0xbdbea7de	-0.09309362
54	0xbd8acc3c	-0.06777236
55	0xbe11cbee	-0.14237949
56	0xbe6c4a2d	-0.23075171
57	0xbe909ebe	-0.2824611
58	0xbe74e634	-0.2391594
59	0xbe056cca	-0.13029781
60	0xbd4337df	-0.047660705
61	0xbdf5e70e	-0.12006961
62	0xbe5441a3	-0.20728163
63	0xbe88fd11	-0.26755574
64	0xbe570a50	-0.21000028
65	0xbdcbc467	-0.0994957
66	0xbc8ce8dc	-0.01720088
67	0xbd8a62ef	-0.06757151
68	0xbe07a50a	-0.13246551
69	0xbe2c0695	-0.16799386
70	0xbe08459b	-0.13307802
71	0xbd5fd700	-0.0546484
72	0xbd4d3468	-0.050098807
73	0xbdda4873	-0.1065835
74	0xbdda09b6	-0.106463835
75	0xbdc2188c	-0.09477338
76	0xbd72f98c	-0.059320018
77	0xbca47528	-0.020075396
78	0xbdaf200b	-0.085510336
79	0xbe09cad5	-0.1345628
80	0xbe03dd9a	-0.12877503
81	0xbdef9b66	-0.11699562
82	0xbd9ae414	-0.07563034
83	0xbd2264d6	-0.039646946
84	0xbd0a3867	-0.033745196
85	0xbd0ece20	-0.034864545
86	0x38918cd2	6.9403686e-05
87	0x3c91ff2b	0.017821869
88	0x3c9bef66	0.019035053
89	0x38686a78	5.5412267e-05
90	0x3d247809	0.040153537
91	0x3dc05d74	0.09392825
92	0x3e249380	0.16071892
93	0x3e3ca9f3	0.18424205
94	0x3e21e333	0.15809326
95	0x3da6572a	0.08122094
96	0x3d864fff	0.06558227
97	0x3e14e40e	0.14540121
98	0x3e62aacf	0.22135471
99	0x3e78d4f5	0.24299987
100	0x3e47b9c9	0.19504465
101	0x3dd40663	0.10352781
102	0x3d5a0d19	0.053235147
103	0x3dee89e4	0.11647394
104	0x3e1f5cfa	0.15562811
105	0x3e24d857	0.16098152
106	0x3dfa00fa	0.122072175
107	0x3d3d17bf	0.046165224
108	0x3d8f1c46	0.069878146
109	0x3df7c999	0.120989986
110	0x3da12804	0.078689605
111	0xbc1251f0	-0.008930668
112	0xbd8a184e	-0.06742917
113	0xbd828cc3	-0.063745044
114	0x3d2d3bde	0.042293422
115	0x3d1131ea	0.035447992
116	0x3d301527	0.042988922
117	0xbd3ee0c7	-0.046601083
118	0xbd667be9	-0.056270514
119	0xbbce73af	-0.0063004117
120	0xbd566ea0	-0.052351594
121	0xbd67ddc9	-0.056607995
122	0x3b50103a	0.0031747953
123	0x3b8f4698	0.004372429
124	0x3c9c6d76	0.019095164
125	0x3d46b336	0.048510753
126	0xbd0e7c5e	-0.034786575
127	0xbd219447	-0.03944805
128	0xbc51a1d1	-0.012794928
129	0xbceedb02	-0.029157165
130	0xbb95394e	-0.0045539504
131	0x3bfb2be2	0.0076651433
132	0x3c7a560a	0.015279302
133	0xbc1f2f99	-0.009715938
134	0xbdba556b	-0.090983234
135	0xbe40d495	-0.18831094
136	0xbe388a6c	-0.18021554
137	0xbdfa7627	-0.12229567
138	0x3d2bc836	0.041938983
139	0xbbab5be8	-0.005229462
140	0xbdc1f5f8	-0.09470743
141	0xbe3f2093	-0.1866477
142	0xbe2357f5	-0.15951522
143	0xbdc1e7f1	-0.094680674
144	0x3caa4cb6	0.020788532
145	0x3d98345d	0.074318625
146	0x3db03167	0.08603173
147	0x3d85dd6c	0.065363735
148	0x3ca4cf12	0.02011827
149	0x3ba043d9	0.0048909006
150	0x3d855d7a	0.0651197
151	0x3e0f0599	0.13966979
152	0x3df664e5	0.12030963
153	0x3d1b369d	0.03789388
154	0xbcf888e2	-0.030338708
155	0xbce9da42	-0.028546456
156	0x3d8c5aa3	0.06853225
157	0x3de3923e	0.11111878
158	0x3d315718	0.04329595
159	0xbdaddea1	-0.08489729
160	0xbe1d69b3	-0.15372352
161	0xbdc884d1	-0.09790958
162	0x3d456b78	0.048198193
163	0x3d30280c	0.04300694
164	0xbd9d2b2e	-0.076742515
165	0xbe6d4bd4	-0.23173457
166	0xbe84bf9c	-0.25927436
167	0xbe1db935	-0.15402682
168	0x3b3e4377	0.0029031911
169	0xbd0b42e3	-0.033999335
170	0xbe275196	-0.16339716
171	0xbe93aca2	-0.28842646
172	0xbe938779	-0.28814295
173	0xbe1d6c8c	-0.15373439
174	0xbc28407f	-0.010269283
175	0xbd1e0686	-0.03858044
176	0xbe0c7220	-0.1371541
177	0xbe56dc42	-0.20982459
178	0xbe487fbe	-0.1957998
179	0xbdb06154	-0.08612314
180	0xbc8298a1	-0.01594192
181	0xbd9e6a00	-0.07735062
182	0xbdcf20e8	-0.10113698
183	0xbd0cf00b	-0.03440861
184	0x3bd858d0	0.006602384
185	0x3be41c8b	0.0069614104
186	0xbd98a4ad	-0.074532844
187	0xbe2f5fb6	-0.17126355
188	0xbe098d96	-0.13432917
189	0x3ca94e2e	0.020667162
190	0x3dddcb9a	0.108298495
191	0x3d830248	0.063969195
192	0xbdea4d86	-0.11440568
193	0xbe4b398f	-0.19846176
194	0xbdd30c28	-0.10305053
195	0x3de74e86	0.11294274
196	0x3e4f1757	0.20223747
197	0x3dd8b920	0.10582185
198	0xbe00be08	-0.12572491
199	0xbe2bbbef	-0.1677091
200	0xbd2ca825	-0.042152543
201	0x3e3c94db	0.18416159
202	0x3e6f6514	0.23378402
203	0x3e098957	0.13431297
204	0xbdcc5943	-0.09977963
205	0xbdf03a6d	-0.11729894
206	0x3c1bac3a	0.009501511
207	0x3e2263bd	0.1585836
208	0x3e38f821	0.18063404
209	0x3da5f75d	0.081038214
210	0xbd8e141f	-0.069374315
211	0xbdb7deb9	-0.08978028
212	0xbc76fcff	-0.015074967
213	0x3d8d8805	0.06910709
214	0x3d8e6a5a	0.06953879
215	0x3cbe11a1	0.023201765
216	0xbaf76bc0	-0.0018876716
217	0xbd87c166	-0.06628685
218	0xbda8ffaf	-0.08251893
219	0xbd348ac6	-0.044077657
220	0x3cec1d9c	0.028822713
221	0x3d280611	0.04102141
222	0xbd586116	-0.052826963
223	0xbe0dd601	-0.13851167
224	0xbde8305e	-0.1133735
225	0xbc98e512	-0.018663917
226	0x3dd38aeb	0.10329231
227	0x3d9901f7	0.07471078
228	0xbdb0c03c	-0.08630416
229	0xbe115e11	-0.1419604
230	0xbd7e7e89	-0.062132392
231	0x3db8729f	0.09006237
232	0x3e53af0a	0.20672241
233	0x3e0551ec	0.13019532
234	0xbd21f310	-0.039538443
235	0xbd4f07fb	-0.05054472
236	0x3d810c9c	0.06301233
237	0x3e3da390	0.18519425
238	0x3e7ab489	0.24482931
239	0x3e0d9224	0.1382528
240	0xbc26dea8	-0.010184921
241	0xbbad8256	-0.0052950783
242	0x3dd5b5f2	0.10435094
243	0x3e3634a3	0.17793517
244	0x3e4152cd	0.18879242
245	0x3ddaade7	0.106777005
246	0xbc42b505	-0.011883979
247	0x3a2b73e5	0.0006540402
248	0x3d48fab8	0.04906723
249	0x3d87d4b7	0.06632369
250	0x3d702e43	0.05863787
251	0x3c872b56	0.016500156
252	0x3cd24c03	0.02567101
253	0x3d825362	0.0636356
254	0x3d67e1e7	0.05661192
255	0x3d255fff	0.040374752
