AutoEncoders/Conditional_VAE/saved_model/model1.pth (torch, 91517 bytes, 44 tensors)

encoder_faltten.0.BachNorm.weight f4 [8]
00000000: c655 773f 330e 5d3f 6e64 5e3f 945a 7a3f
00000010: 28c7 743f 06e7 8b3f 2232 683f ef6b 893f
0.96615255 0.8634979 0.86871994 0.9779446 0.9561639 1.0929878 0.90701497 1.0736064

encoder_faltten.0.BachNorm.bias f4 [8]
00000000: 4600 023e 0e8d b53e 3f4b 3a3d d747 8abd
00000010: 23d8 0f3e b49d 9f3e ec73 e6bd 9100 023f
0.12695417 0.3545918 0.045481917 -0.067519836 0.14047293 0.31175005 -0.11252579 0.50782114

encoder_faltten.0.BachNorm.running_mean f4 [8]
00000000: 819b 13be a002 3cbe 9e99 1f40 25bf c8bf
00000010: 177a a2bf e0a5 003e f2e0 b13f e1d1 de3d
-0.14414789 -0.18360376 2.493751 -1.5683333 -1.2693509 0.12563276 1.3896773 0.10879875

encoder_faltten.0.BachNorm.running_var f4 [8]
00000000: 9a30 ea3e 19d5 6c3f fb4d 8640 9152 0f40
00000010: f58e 0140 968c 6140 7092 1940 e253 b83f
0.45740205 0.9251266 4.197019 2.2394145 2.0243504 3.5242057 2.3995628 1.4400599

encoder_faltten.0.cnn.weight f4 [8, 2, 3, 3]
00000000: efd7 53be 74bc fe3c bdc0 983d 8201 35bd
00000010: 44a9 0ebe 11ff b23d f65d 863c 52e4 e73d
00000020: 10eb 9b3e 1591 37bd c0d2 a63c 15dc 143d
00000030: 62c8 03be e473 10be 65c1 e43d 35f9 bdbc
00000040: 0b5d c43c e445 103e 83e1 ca3e 0ded e13d
00000050: a895 27bc da9a d53e 98d4 cb3d 978f 1abe
00000060: 0faa 583e 0261 813c ffc6 e8b9 734d f43d
00000070: 568d 24be fe43 b73c 4d65 543d df0b c13d
00000080: 4b35 10be 0c12 023d 1a55 15bd 647a a33c
00000090: fb1e 44bd 7f7a a5bc 59e0 90bd 9b47 80be
000000a0: f79f a33d 395f 103d 21da 2c3d 2b76 bebd
000000b0: 16e5 5dbe 3d74 55be 2c87 e03d 3bbc b1bd
000000c0: 1710 213e fd74 4f3e c675 1ebe 16e8 853e
000000d0: 7288 8f3e 7920 843d cc80 d83d 7739 0f3d
000000e0: 54f7 23be 7047 73bd 3168 2abe dcae 1e3d
000000f0: 24f3 3e3e c09a 4cbe 945c a3be a9cc 62be
00000100: 5425 ab3d 1896 68be 2ce4 c33d 45ae 4dbe
00000110: de81 4f3e 5ca3 103d 6cd4 88be 42f7 433c
00000120: 059f e13d 067a 2f3e 1199 7c3e f469 d5bd
00000130: a805 3c3e 65dd d93d 549e 50be fa9c a53d
00000140: e12a 0cbe b49a 31be b31f a4bd fe1f f0bd
00000150: c265 9a3b 8a33 4bbe 9686 f2bd 3bc4 6c3e
00000160: 3cac b5bd 9482 7d3e c7a7 35bd 7b0d 5bbe
00000170: 5dcb f6bd 247b dbbd 61db c6be 1dc1 11be
00000180: 4f5b 25bf c4f4 c2be 342f b0bd 8b4f a73d
00000190: cbde fdbd 2766 11bd c74f 493e b2f6 12bd
000001a0: a949 50be 46e5 773d 55b0 633e ac3c d3bd
000001b0: 041d a63d 4708 0ebe 70e3 01be e9ab 143d
000001c0: 4a5f de3b 8f77 81be eb5c 563e 8e6b 2b3c
000001d0: c1b6 cd3d 7857 793e f11d 873d 24f5 a1bc
000001e0: 520d 0e3e ecc9 283e 47ea c13d be1c 4bbc
000001f0: f5b1 dabd b3b1 47be a75c 5d3d f945 763b
00000200: 48e3 203e 5179 03bc 4898 063e dedd 583e
00000210: b046 6b3e c5f0 743e df97 a33e 4d41 7e3e
00000220: c377 7bbd 4178 413e e0c8 07bc 8828 da3d
00000230: 05ff 4abe b436 39be 2ff5 3a3d a7a3 10be
-0.20687841 0.03109572 0.07458637 -0.04419089 -0.13931757 0.08740056 0.016402226 0.113228455
0.30452776 -0.044816095 0.020364165 0.0363427 -0.12869409 -0.14106709 0.111696996 -0.02319012
0.023970148 0.14089161 0.39625177 0.11031542 -0.010228552 0.41719705 0.099526584 -0.15093838
0.21158622 0.015793327 -0.00044398752 0.11928835 -0.1606954 0.022371288 0.05185442 0.09426092
-0.1408283 0.031755492 -0.036458112 0.019955821 -0.047881108 -0.020200012 -0.07074041 -0.2505463
0.07989495 0.03524706 0.04220021 -0.092998825 -0.2166942 -0.20845123 0.10963282 -0.0867848
0.15728794 0.20259471 -0.15474615 0.2615363 0.28033787 0.06451506 0.10571441 0.034966912
-0.16012317 -0.0593943 -0.16641308 0.038740978 0.18647438 -0.19980907 -0.3190657 -0.22148384
0.08356729 -0.22713506 0.09565005 -0.2008601 0.20264384 0.03531204 -0.26724565 0.011960806
0.11016659 0.17136392 0.24667765 -0.104205996 0.18361533 0.10637931 -0.20372897 0.080865815
-0.13688232 -0.17344171 -0.08013859 -0.11724852 0.0047118375 -0.1984388 -0.118420765 0.23121731
-0.08870742 0.24756843 -0.044349458 -0.21391861 -0.12050507 -0.107168466 -0.38839248 -0.14233823
-0.6459245 -0.38077366 -0.08602753 0.081694685 -0.1239601 -0.03549781 0.19659339 -0.0358798
-0.20340599 0.060521387 0.22235234 -0.103143066 0.08111003 -0.13870345 -0.12684417 0.03629676
0.0067862617 -0.25286528 0.20933883 0.010462655 0.10044623 0.24349773 0.06597508 -0.019770212
0.13872269 0.16483277 0.09468513 -0.012396989 -0.10678474 -0.1950138 0.05404344 0.0037578328
0.15711701 -0.00802453 0.13144028 0.21178386 0.22976184 0.23919971 0.31951806 0.24829598
-0.06139351 0.1889353 -0.008287638 0.10652262 -0.19823845 -0.18087274 0.04564398 -0.14124928

encoder_faltten.0.cnn.bias f4 [8]
00000000: f415 e2bd 2709 54be 7673 163d 3ad3 923e
00000010: 9f2e 11be 71f3 04be 4f5a a8bd c0ca 093e
-0.110393435 -0.20706616 0.036731206 0.28676778 -0.14177941 -0.1298349 -0.0822035 0.13456249

encoder_faltten.1.BachNorm.weight f4 [16]
00000000: 50bc 9c3f 045e 843f 3e94 893f b037 6f3f
00000010: b660 853f 0b93 833f c117 813f de06 5b3f
00000020: e49e 743f d10b 6c3f c220 823f b995 903f
00000030: cc45 5e3f a308 913f a6e0 7c3f 2968 853f
1.2244968 1.0341191 1.0748365 0.9344435 1.0420139 1.0279249 1.0085374 0.85557353
0.9555495 0.9220553 1.0166247 1.1295692 0.8682525 1.1330761 0.98780286 1.0422412

encoder_faltten.1.BachNorm.bias f4 [16]
00000000: 59d3 0c3e aa56 043d a2bc 363d 18fe 2fbd
00000010: c152 3d3c f414 cb3d 789d c53c fe18 c3bd
00000020: f715 90bc c6cd a3bd e49c 1d39 7c84 533c
00000030: 22d3 85bd 7d0b 273d c52c 083d 372b 43bd
0.13752498 0.03230921 0.044613488 -0.042966932 0.011555375 0.09916106 0.024122939 -0.09526251
-0.017588599 -0.079982325 0.00015031133 0.012910005 -0.06534411 0.04078244 0.03324582 -0.047648635

encoder_faltten.1.BachNorm.running_mean f4 [16]
00000000: 3749 9ebe d53d 8dbe 2e64 ac3e ce8d 5abd
00000010: 181b a8bd d38c 173f 9ba9 46bf db55 76be
00000020: 74e0 e1be 191b b4bd 5ab1 97bd 6506 52bf
00000030: 5a6c 693d 9c22 b5be 57d5 a73e 59d7 4fbe
-0.30915233 -0.27586237 0.3367018 -0.05335789 -0.08208293 0.59199256 -0.7760255 -0.24056189
-0.44116557 -0.08794231 -0.07406874 -0.8204101 0.056988098 -0.35377967 0.32779953 -0.20296992

encoder_faltten.1.BachNorm.running_var f4 [16]
00000000: 5742 7a3f 9605 083f 75e8 183f 0086 0e3f
00000010: 208c d73e e083 4e3f e052 aa3f e771 b13e
00000020: b162 033f 7da7 a83e c859 f33e 3d3d 633f
00000030: 3a73 6e3e b052 443f 3468 f93e bf37 0b3f
0.97757477 0.53133523 0.597297 0.5567322 0.42099094 0.80669975 1.3306541 0.34657213
0.51322466 0.32940283 0.47529435 0.8876532 0.23286143 0.7668867 0.48712313 0.54381937

encoder_faltten.1.cnn.weight f4 [16, 8, 3, 3]
00000000: 6306 a13c 6528 a43d fea4 1bbe 016a f3bc
00000010: a5e3 e0bd 18f9 edbd 94e0 e5bc 8106 98bd
00000020: 79be 62be f7a4 4a3c 910f 073e b140 dcbd
00000030: 0068 1a3d 0944 47bd a614 d1bd fed6 c8bb
00000040: 2f2c d7bd b3d5 94bd 1fe8 b6bc 8135 c0bc
00000050: b47d 42bb 1462 243d 76c7 e23c 4994 ae3d
00000060: 64df b4bd b3b5 053c 46eb dabc ffee 1bbd
00000070: 7f89 123e d73c 603d fb18 f33d 97cb 95bc
00000080: b101 a1bc 6b72 21bd b34a 9bbd 32b3 013d
00000090: 053a 3abc 744b a23d 151c 8c3d 8fad c33d
000000a0: 7e80 45bd 3382 d3bd e7a8 aabd fa70 713d
000000b0: cb1f 0bbe 2f82 043d 2ff5 cebc 5b5e 353e
000000c0: c9fd 72bc d765 133e 28ca 593e c38b 033e
000000d0: 12b7 0b3c c2fb 143e aad2 7e3d d2ea 5c3d
000000e0: dd09 6d3d b9b0 d4bc 726b 2bbd d26c bb3d
000000f0: e390 c53d 938c 12be 57c4 ef3d 29da 3e3d
00000100: 8195 23bd 1234 5dbe ac1b 21bd c991 4cbd
00000110: 0349 91bd 956a 40bd 731a 35be 036b 51be
00000120: 8fce d3bd de67 47bc 03d2 f5bc 741b d2bd
00000130: 7ab0 ee3c d343 683d 9a7d 253d 6352 65bd
00000140: ef64 19be a63b 8bbd 8c84 efbd 0b9d e43b
00000150: 6d73 a33c fb65 0cbd f0e5 3bbd b138 873c
00000160: a2ce 38bd ed4d d93b e15b aa3c a71e 403a
00000170: d5d0 d8bd 166c acbc 5919 d33d 3809 84bd
00000180: 7d00 ab3c e54e ebbb cae7 8b3d 0528 00bd
00000190: 608a 323d b42e a7bd 2c8d 883d 5746 123d
000001a0: 3e5d 1a3d 910f e13c 7f7c ae3d 03f4 37bd
000001b0: 0485 b03d 198b a33d eaed a63d 5aeb 263c
000001c0: 77a4 ffbd e5fc 84bc aab7 f43c 80c0 86bd
000001d0: 920c f3bd 9d3e 853d 5b1b 73bc 84e0 3abd
000001e0: 6ca5 d53d 8615 833e 19cb 263e bec6 2fbc
000001f0: 0f5c 02bb d6b1 133d ed5e e13c 50a6 9abd
00000200: 29ef a73c 2742 4d3d d977 1ebd 3917 88bd
00000210: 71d6 8f3d bbe6 5dbc 9c3d 5abd 4c2f 873d
00000220: be86 e1bd aab5 c7bb 4edc 02bd cfdf 8cbd
00000230: 0ef8 9dbd ef09 093e 72fd c6bd c120 d0be
00000240: 2a53 053e 8ae4 82bd 2997 e13c 236f 1c3d
00000250: 3448 84bb 2446 30bd 6bfc b53d 4d8d 9d3d
00000260: 3cb6 ad3d 946a 463d 4ea3 60bc 9e52 ff3c
00000270: 73fe a2bd dfbc 22bb e9ed bc3c 8ae5 a63d
00000280: 814b 973d b15d 173d 193b 4f3b eb8a f43b
00000290: 07cb 4d3d 98af aebc 6251 0d3d cecb 653d
000002a0: 74a5 83bd 8d75 ffbc e2cb e5bd 4fef ac3c
000002b0: 5d06 633c 29b2 79bd e1a3 e23c 91e2 8e3d
000002c0: 191c ebbd b923 ce3d b387 9c3d 8123 bebb
000002d0: 0a86 1b3d e046 f6bc 28c7 083e 656c ea3d
000002e0: aebf 6b3d 74bf d63c 6f0a d73d 9429 8f3b
000002f0: f880 86bc 855a fb3c d243 b5bc 9069 20be
00000300: 8c4f 593d 5876 2cbe d2c7 57be 283f babd
00000310: be72 11bc 557d 20be 4ace 9dbd e8cd b7bd
00000320: 8346 993d 28cd 6d3d 3339 9cbd 0bd8 c83c
00000330: c8f8 0dbe 4cc6 7d3d ed95 c83c ab80 343d
00000340: 20bb 243d ac52 e93d d2a5 cfbd 53ce 213e
00000350: acd3 a73d 5a65 673d b789 f23d 275b 193e
00000360: 1fe0 aabc 4a6e cebd 4de3 eebd 0e52 abbc
00000370: 4172 703c 7754 1abd 8bbc 223d def8 b2bc
00000380: 8c4c 26bc 9fa6 333d d624 09bb a97d 32be
00000390: 4fb0 823d 86eb e8bc 98a4 03be ef83 9e3d
000003a0: 32f1 e83c 09b0 9d3d 8ec5 59bd 81e5 903c
000003b0: d737 21bd bcf0 9ebd 8bb9 a23d 99c5 a9bd
000003c0: ca82 c83d 078a 7a3c 497e e53d 0a49 c1bb
000003d0: 5cf8 5b3d 12ea 473d b7f2 e93d f10f 9cbc
000003e0: cf0e b1bd 30c6 103d 9193 be3d 7108 c43d
000003f0: 0495 163e 1903 c4bc 2483 07be 539b 393d
0.019656366 0.08015517 -0.15199658 -0.029713633 -0.1098092 -0.116197765 -0.028061189 -0.074231155
-0.22142972 0.012368432 0.13189532 -0.107545264 0.03769684 -0.048648868 -0.102090165 -0.0061291447
-0.10506474 -0.072673224 -0.02232748 -0.023463013 -0.0029676976 0.040132597 0.027683001 0.08524377
-0.08831671 0.008160996 -0.026723515 -0.03806972 0.14310263 0.05474552 0.11869999 -0.018285556
-0.019654127 -0.039415758 -0.07582607 0.031665035 -0.011366372 0.07924548 0.06841294 0.09554588
-0.048218243 -0.10327568 -0.08332997 0.058945633 -0.13586347 0.032350715 -0.025263397 0.17711775
-0.014831015 0.14394318 0.21268523 0.12846284 0.008527534 0.14549163 0.062212624 0.05393488
0.057870734 -0.025963174 -0.041850515 0.09151615 0.096467756 -0.14311437 0.11707371 0.046594772
-0.0399375 -0.21601894 -0.03933303 -0.04994372 -0.07094004 -0.046976645 -0.17685871 -0.20450978
-0.10342132 -0.01217076 -0.030007368 -0.102591425 0.029136885 0.056705307 0.040402986 -0.055986773
-0.1497991 -0.067984864 -0.11695203 0.006976729 0.0199525 -0.034276944 -0.045873582 0.016506525
-0.045118935 0.006631604 0.020795764 0.00073287863 -0.105867065 -0.021047633 0.10307569 -0.06447071
0.020874256 -0.007181036 0.0683132 -0.031288166 0.043588996 -0.08163205 0.066675514 0.035711613
0.03768658 0.027473243 0.085198395 -0.044910442 0.08619121 0.07985515 0.08150847 0.010187948
-0.12482541 -0.01623387 0.029872734 -0.06579685 -0.11867632 0.06506083 -0.014838065 -0.04562427
0.10431942 0.2560236 0.16288413 -0.010728536 -0.0019891297 0.03605827 0.027511084 -0.07551253
0.020499783 0.050111916 -0.038688514 -0.06645054 0.07023323 -0.01354378 -0.05328141 0.06600818
-0.11012028 -0.006094654 -0.03194838 -0.068786256 -0.07713328 0.13382696 -0.097163096 -0.4064999
0.13020006 -0.063912466 0.0275379 0.038191926 -0.0040369276 -0.04303564 0.088860355 0.076929666
0.08482024 0.048441485 -0.01371081 0.031167325 -0.079586886 -0.0024831814 0.023062663 0.0814925
0.07387448 0.036954585 0.0031620918 0.0074628494 0.05024245 -0.021323964 0.03450144 0.056102566
-0.06428042 -0.031183982 -0.11220528 0.021110205 0.013856498 -0.060960922 0.027666034 0.06976808
-0.114799686 0.10065407 0.0764307 -0.0058025722 0.037969626 -0.030063093 0.13357222 0.11446456
0.057555847 0.026214339 0.10500037 0.00436897 -0.016418919 0.030682812 -0.022127066 -0.15665269
0.053054377 -0.1684202 -0.21072319 -0.09094077 -0.008877454 -0.1567281 -0.07705362 -0.089748204
0.07484152 0.05805698 -0.076280974 0.02451708 -0.13864434 0.06195669 0.024485553 0.04406802
0.04021752 0.113927215 -0.101390496 0.15801363 0.0819467 0.05649314 0.11842673 0.14976178
-0.020858822 -0.1007963 -0.11664448 -0.02091315 0.014675678 -0.03767821 0.03973059 -0.021847185
-0.010150086 0.043860074 -0.0020926497 -0.17430748 0.063812844 -0.028432619 -0.12855756 0.07740008
0.028435323 0.07699592 -0.05316692 0.017687561 -0.039359894 -0.0776076 0.07945546 -0.08289642
0.09790571 0.015291697 0.112057276 -0.0058985995 0.05370365 0.04880721 0.11423247 -0.01905057
-0.08645403 0.035345256 0.0930549 0.095719226 0.14705282 -0.023927258 -0.1323362 0.045314144

encoder_faltten.1.cnn.bias f4 [16]
00000000: af37 c83d 609d 7f3d 28e1 f0bd ba78 653c
00000010: ec18 533d 5601 c9bc 7399 083e ec5a 1a3d
00000020: 83ad d33b 9348 4e3d 8d76 183e a9bf 25be
00000030: b4d7 813d 8490 483d 51a5 0bbd 5912 9abd
0.09776246 0.062405944 -0.11761695 0.014005834 0.05153744 -0.02453677 0.13339786 0.037684366
0.006459893 0.05036218 0.14888974 -0.16186394 0.0633997 0.048965946 -0.034093205 -0.07523031

encoder_unfaltten.0.BachNorm.weight f4 [8]
00000000: 0000 803f 0000 803f 0000 803f 0000 803f
00000010: 0000 803f 0000 803f 0000 803f 0000 803f
1.0 1.0 1.0 1.0 1.0 1.0 1.0 1.0

encoder_unfaltten.0.BachNorm.bias f4 [8]
00000000: 0000 0000 0000 0000 0000 0000 0000 0000
00000010: 0000 0000 0000 0000 0000 0000 0000 0000
0.0 0.0 0.0 0.0 0.0 0.0 0.0 0.0

encoder_unfaltten.0.BachNorm.running_mean f4 [8]
00000000: 4ec9 3ebc 06b0 433d dbf4 083d a523 eabc
00000010: a524 b2bb d791 09bd d4dd 253c 321b 2e3c
-0.011644674 0.04777529 0.033436637 -0.02858145 -0.0054364973 -0.03358635 0.010123689 0.010626601

encoder_unfaltten.0.BachNorm.running_var f4 [8]
00000000: 6550 673f 3436 683f e48b 673f 9637 673f
00000010: 5f67 673f 06f9 663f a32c 673f 21dc 663f
0.9035705 0.9070771 0.9044783 0.9031919 0.90392107 0.9022373 0.90302485 0.9017964

encoder_unfaltten.0.cnn.weight f4 [8, 2, 3, 3]
00000000: 50bf 0ebd c1ad 243e cdd0 493e 33fe 2e3e
00000010: bc44 b2bd 280d c43c e057 08be de81 ec3d
00000020: fb1a 08be 249a 6bbd 8e94 6abe 1ca2 29be
00000030: 81ae 4b3e 428d a63d 8391 5cbe 7c02 39be
00000040: 7a07 62be 6b87 383e 5be2 663e 6510 6b3e
00000050: d978 373e 3b6e 193e 274d 14be f412 51bd
00000060: 929c b23d 0f0f 5dbe f8e0 57bd 4348 3e3e
00000070: 767e eb3d 3275 823d 3653 f33d b9be 393e
00000080: 320e b43d a510 463e 019a 2bbe 7a71 e6bd
00000090: 5458 283d b068 89bc e298 3fbe 7e4e e43d
000000a0: 91e6 503e 6938 6abe 1baa 3f3e 24c4 73bd
000000b0: 7faf 5e3e b00a 00be 5164 233e 00e9 2dbe
000000c0: d06e 3ebe 2668 c9bd 322f d03d 1a65 bdbd
000000d0: 8163 4b3e d9c5 6c3e ffe7 083e f58e 223e
000000e0: 86b2 c6bd cdfb 53be fe74 cdbd 6e89 d93d
000000f0: 9cac 21bd 42ac 36be 17db 463e e0d7 43bd
00000100: 23f0 333e 5fc3 6bbe 7550 51be 0510 5f3e
00000110: 80a4 fabb 3bc4 54be bcce 193d fcfe afbd
00000120: b45c a7bd 54f9 8bbd 810a 1c3e 3985 54be
00000130: b3b2 38be 49ae 1f3e 0f43 383e f950 3c3e
00000140: 7207 833d c1ca 38be 795e 57be 5fcd 5cbe
00000150: fe86 bc3d 3e28 973d bcec 3b3d 07ca 273e
00000160: ace8 c4bd 0c12 66bd d069 98bd 2800 39be
00000170: 2874 ddbd 5cdc 1dbe c707 0a3e 9cac 4b3d
00000180: b68b e33d 1b49 263e 72d4 a7bd cc26 69bd
00000190: b08f 67bc 80da bfbd d4c2 693d 5858 20be
000001a0: 70a1 f0bc 700e edbc 586e ccbd 8a5b acbd
000001b0: dd4a 6f3e b0c1 2bbe 179c 3abe 1e7c f33d
000001c0: a722 3f3e 919e 1d3e 1202 e73d f433 6ebd
000001d0: 155f 123e 8074 b5bc 24c2 643d 787e e53c
000001e0: 2f19 633e b00d ddbc 7449 6dbd 80b8 d8bb
000001f0: b870 43bd 1894 b5bd 5143 093e d0f9 ddbd
00000200: 4369 0abe 0003 e23b 0406 ccbd faf4 8b3d
00000210: def3 85bd 9574 033e 610c 57be ee1a b43d
00000220: 20ee bdbc 94f0 b5bd 5492 99bd bdd5 1b3e
00000230: 4275 b33d 54c5 483d f061 613c 633c fbbd
-0.03485042 0.16081907 0.19708557 0.17089157 -0.08704516 0.023932055 -0.13314772 0.11548208
-0.13291542 -0.057520047 -0.22908232 -0.16565746 0.19890787 0.081324115 -0.21539883 -0.18067354
-0.22073165 0.18020408 0.22547285 0.22955473 0.17917193 0.14983456 -0.14482556 -0.051043466
0.0872127 -0.21587776 -0.05270478 0.18582253 0.1149873 0.063700095 0.118811056 0.18139161
0.0879177 0.19342287 -0.16757967 -0.11252113 0.04109986 -0.016773552 -0.18710664 0.11147784
0.20400454 -0.22873081 0.18717234 -0.059513226 0.21746634 -0.12504077 0.15956236 -0.16983414
-0.18596959 -0.09834318 0.10165252 -0.09247799 0.19862176 0.23122348 0.1336975 0.15874846
-0.097020194 -0.20701523 -0.1003208 0.10621916 -0.039471254 -0.17839149 0.19419514 -0.047813296
0.17572074 -0.23023747 -0.20440848 0.21783455 -0.0076490045 -0.20777981 0.037550673 -0.08593556
-0.081719786 -0.06834665 0.15238382 -0.20753945 -0.18036918 0.15593828 0.17994331 0.18390264
0.063979045 -0.18046094 -0.21032132 -0.21562718 0.09205435 0.073807225 0.045880064 0.16385661
-0.09614691 -0.056169555 -0.07442057 -0.18066466 -0.10813171 -0.15416092 0.1347953 0.04972516
0.11110632 0.16238825 -0.081948176 -0.056921765 -0.014133379 -0.093678474 0.05707057 -0.156587
-0.029373854 -0.028937548 -0.09981984 -0.08415897 0.23368402 -0.16773105 -0.18223606 0.11888908
0.18665563 0.1539252 0.11279692 -0.058155015 0.14294083 -0.022150278 0.05584921 0.028014407
0.22177576 -0.026984066 -0.05793138 -0.006613791 -0.04771492 -0.08866137 0.13404585 -0.108386636
-0.13516717 0.0068973303 -0.09962085 0.06833835 -0.065406546 0.12837441 -0.21000816 0.08794199
-0.023184836 -0.08883777 -0.07498613 0.15218253 0.087625995 0.04901631 0.01375626 -0.12267377

encoder_unfaltten.0.cnn.bias f4 [8]
00000000: 683d bb3c e005 023c 8102 593e 34cb f3bd
00000010: f8ec be3c 1436 57bd c744 22be 8d9b 443e
0.02285643 0.007935971 0.21192361 -0.11903992 0.023306355 -0.052541807 -0.15846549 0.19199963

encoder_unfaltten.1.BachNorm.weight f4 [16]
00000000: 0000 803f 0000 803f 0000 803f 0000 803f
00000010: 0000 803f 0000 803f 0000 803f 0000 803f
00000020: 0000 803f 0000 803f 0000 803f 0000 803f
00000030: 0000 803f 0000 803f 0000 803f 0000 803f
1.0 1.0 1.0 1.0 1.0 1.0 1.0 1.0
1.0 1.0 1.0 1.0 1.0 1.0 1.0 1.0

encoder_unfaltten.1.BachNorm.bias f4 [16]
00000000: 0000 0000 0000 0000 0000 0000 0000 0000
00000010: 0000 0000 0000 0000 0000 0000 0000 0000
00000020: 0000 0000 0000 0000 0000 0000 0000 0000
00000030: 0000 0000 0000 0000 0000 0000 0000 0000
0.0 0.0 0.0 0.0 0.0 0.0 0.0 0.0
0.0 0.0 0.0 0.0 0.0 0.0 0.0 0.0

encoder_unfaltten.1.BachNorm.running_mean f4 [16]
00000000: 2db0 803b 49f2 c7bc a591 533d 91cd 223c
00000010: 67fe 333c ba09 0d3d 9a64 ad3b ee40 c53c
00000020: a6e0 1a3d 663f 81bc 3b8e b8bc dd35 11bc
00000030: 78d5 91bb 73cd e1bc 6df0 e9bc 7335 5f3d
0.003927252 -0.024407523 0.05165257 0.009936706 0.010985947 0.034433104 0.0052915337 0.024078812
0.037811898 -0.015777301 -0.022528758 -0.00886294 -0.0044504963 -0.027563786 -0.028557027 0.054494333

encoder_unfaltten.1.BachNorm.running_var f4 [16]
00000000: af21 693f 4e66 683f 7063 6b3f 6c82 693f
00000010: 96b7 6a3f 6771 693f 0c72 683f 422f 6b3f
00000020: d425 6a3f f170 6b3f 83f6 693f 611b 683f
00000030: 55b0 683f 97a4 683f 2c31 693f 8b26 6a3f
0.9106702 0.90781105 0.91948605 0.91214633 0.9168638 0.91188663 0.9079902 0.91868985
0.9146397 0.9196921 0.9139177 0.90666777 0.9089406 0.90876144 0.91090655 0.9146506

encoder_unfaltten.1.cnn.weight f4 [16, 8, 3, 3]
00000000: e2fb 2d3d 96cf 88bd 20b5 d8bd 2581 bb3d
00000010: 3c5a 913c e56d ebbd 3076 79bd a689 7d3d
00000020: 836b e03d 6c24 e3bc 407f aabc 68f3 103c
00000030: 6512 7fbd 3809 57bd ab5d db3d b769 8c3d
00000040: fab3 cabd b219 c0bd acb8 943c 6f2a cb3d
00000050: b1cd a63d ec77 893c 7b1f cc3d 294a 93bd
00000060: ba38 abbd d3d4 bd3d 3cbb c1bc 1891 d9bc
00000070: e36f ab3d 73af bbbd b00a e6bc 44e9 fcbc
00000080: ac12 d0bc 8c28 8c3c 82f4 023d 823f 2e3d
00000090: 66ae 63bd 247f c03c 4aa5 003d 3459 b43c
000000a0: f6d1 86bd 83f0 803d 54d6 ba3c 32e5 67bd
000000b0: 660c 073d 7133 95bd 8006 ceba 70b4 55bd
000000c0: a53f 86bd 74c1 a4bd 5013 dbbc ee04 653d
000000d0: 4b8a b13d b1ce ba3d f0e4 da3b 310e 983d
000000e0: be96 cbbd c0bd 5bbd d696 333d 2897 57bc
000000f0: 383d cabd 99ea c63d 9683 e4bd 0550 dc3d
00000100: 6acd 053d daf0 cdbd a755 b53d 3df6 eabd
00000110: b787 8a3d 43e7 8a3d 1024 863b c0b2 84ba
00000120: 700e a53b d4bb 933c ffec c83d 6b76 863d
00000130: 4055 61bc 4a20 8abd e43d e8bc 72d5 4d3d
00000140: d557 963d fdcb cebd de35 7c3d 9ed4 333d
00000150: cc2f c9bd 280b 063c b40a edbd 2c5d 9abd
00000160: b86d 17bc 221b 6c3d f229 0d3d bdc7 82bd
00000170: 496d e23d 82b9 2d3d ed67 9a3d b8f6 adbd
00000180: e236 5d3d 7705 c53d 92f5 82bd 77a0 d83d
00000190: f895 39bc 7083 e03b c6df 393d 4d3e a63d
000001a0: b0e8 ed3b b781 9c3d 6f9c c0bd 9051 c23b
000001b0: f7fb e8bd f44e e43c 74c7 c1bc d971 cb3d
000001c0: cca0 89bd 466d 5ebd 3518 a33d 2a53 46bd
000001d0: b2d6 073d 86c0 9dbd a1bd 7dbd 80f9 babd
000001e0: 4688 dcbd 689b 653c 3f4d 93bd 9fba a9bd
000001f0: 2326 913d 4f44 c9bd fe77 1abd f0ad b7bd
00000200: 0402 da3c ba3d 063d aee9 153d bc44 a9bd
00000210: 98fa 11bc 7c6c b6bd 3dd5 96bd aa43 393d
00000220: d0b2 7fbc 8077 97ba 6e40 653d a140 c93d
00000230: e430 ce3c b98b 64bd 60f3 d6bb 24aa f03c
00000240: c349 963d c2b9 663d 4adf d6bd 8c18 c33c
00000250: 400f 203b 969d a1bd 7590 bb3d 0019 36bb
00000260: 666d 23bd 8d31 b53d f7cb ec3d a869 613c
00000270: ceb5 193d 9c5e ab3c 8cfc b1bd 0364 bd3d
00000280: 2b53 8a3d 838c bf3d f4ed a2bc 4045 febc
00000290: 46b3 5d3d 530a a83d e24c 033d 6cae 12bd
000002a0: 8802 183c d4b4 b9bc 0c4d 9b3c 00fc f1b9
000002b0: 0aee 5d3d a9ed 8d3d 98c0 afbc 8f76 ee3d
000002c0: e09b 43bc 4059 52bb 4c75 ab3c 4493 b63c
000002d0: 4a5c 2ebd bc48 68bd 112c a6bd 58e6 68bd
000002e0: 20a2 7bbb 2a20 efbd 538a ab3d 3672 1abd
000002f0: 8829 9ebc a20d 593d 7f21 943d f83e 553c
00000300: daa5 debd 5dc4 983d 9579 b33d 2428 e43c
00000310: dfb9 e8bd 6c25 9c3c 8393 ed3d 144b 5bbd
00000320: 4c84 d23c 349a b13c c0f2 b7bc ecde c03c
00000330: 44f8 b0bc 1141 a63d 056a 65bd b643 5f3d
00000340: 484b e4bc 6024 7cbc 9af1 243d 0689 713d
00000350: 6c67 adbd 735d d23d bef1 7e3d 52bb 633d
00000360: 4db9 afbd c45c 36bd 4a82 633d 53d7 c83d
00000370: 0540 babd 4437 1cbd f647 a0bd ddc6 ef3d
00000380: 233a aa3d bab0 acbd a4ae b0bc d6a7 dcbd
00000390: 45a9 68bd 60b3 6dbc 8aa5 4f3d 78a0 133c
000003a0: 77af ecbd 32d1 4b3d c034 0cbc fcc2 da3c
000003b0: 27ba dc3d f41e 66bd f5a2 8e3d 754e 8d3d
000003c0: 2f60 e83d e9e0 b43d aea1 1d3d 0de3 c43d
000003d0: 277b d53d 72f2 183d a4d1 9ebd 6da4 a63d
000003e0: 694a 9d3d fae5 94bd f242 ebbd b295 363d
000003f0: f791 853d e8ea 193c be3e a7bd f79a 953d
0.042476542 -0.06680219 -0.10581422 0.09155492 0.017743222 -0.1149557 -0.060903728 0.06189885
0.10958006 -0.027727328 -0.02081263 0.008847095 -0.0622734 -0.052499026 0.10711225 0.06856101
-0.09897609 -0.09379901 0.018154465 0.09920203 0.08144701 0.016780816 0.09966942 -0.07191879
-0.08360429 0.092691086 -0.02364885 -0.026558444 0.0837095 -0.09164324 -0.028081268 -0.030872948
-0.025399528 0.017109178 0.031971462 0.042541035 -0.05558624 0.023498125 0.031407632 0.022015192
-0.065830156 0.06295874 0.022807278 -0.056615062 0.03297081 -0.07285202 -0.001571849 -0.05217403
-0.06555108 -0.08044711 -0.026742607 0.055912904 0.086689554 0.091214545 0.0066801235 0.07424582
-0.09940861 -0.053647757 0.04384502 -0.013158597 -0.09874958 0.09712715 -0.111579105 0.1075745
0.0326666 -0.100557044 0.088542275 -0.114727475 0.06764167 0.06782391 0.0040936545 -0.0010124072
0.0050371215 0.0180339 0.098108284 0.06565555 -0.013753235 -0.0674444 -0.028349824 0.050252385
0.073409714 -0.100975014 0.06157481 0.04390394 -0.0982357 0.008181371 -0.11574307 -0.075373024
-0.009242468 0.057643063 0.03446383 -0.06385753 0.11056001 0.042413242 0.075393535 -0.084943235
0.05400742 0.09620183 -0.06394495 0.10577481 -0.011327259 0.006851606 0.045379423 0.08117352
0.0072604045 0.07641929 -0.09404837 0.005930133 -0.113761835 0.027869679 -0.023654677 0.09933824
-0.06720123 -0.05430343 0.079636015 -0.048419155 0.033163734 -0.077027366 -0.061948422 -0.091296196
-0.107681796 0.0140141025 -0.07192468 -0.08287548 0.07087352 -0.09827482 -0.03771209 -0.08968723
0.02661229 0.03277371 0.036599807 -0.08265063 -0.008909844 -0.089074105 -0.07364891 0.045230545
-0.015606597 -0.0011556 0.055969648 0.0982678 0.025169797 -0.055797312 -0.0065597743 0.029378004
0.07338288 0.056329496 -0.10491808 0.023815416 0.0024423152 -0.07891385 0.09158412 -0.0027785897
-0.039899252 0.08847342 0.11562341 0.013758101 0.037526898 0.020919137 -0.086907476 0.09247591
0.06754144 0.09352972 -0.019888856 -0.03103888 0.054126047 0.08205094 0.032055743 -0.035810873
0.009277947 -0.022669233 0.018957637 -0.00046154857 0.05418209 0.06930096 -0.02145414 0.11643707
-0.011939019 -0.0032096654 0.020929955 0.022287019 -0.042568482 -0.05670999 -0.08113874 -0.056860298
-0.0038396195 -0.11676057 0.083759926 -0.037706576 -0.019306913 0.052991517 0.072329514 0.013015501
-0.108714774 0.07459328 0.08763424 0.027851172 -0.11363577 0.019060813 0.11600401 -0.053538397
0.02569785 0.021679975 -0.02245462 0.023543797 -0.021602757 0.08117879 -0.05600931 0.054507934
-0.027867928 -0.015389532 0.04026947 0.058968566 -0.08466992 0.1027173 0.062242262 0.055598564
-0.08580265 -0.044522062 0.055544175 0.09806695 -0.09094242 -0.038138643 -0.078262255 0.11707852
0.0831187 -0.084321454 -0.02156765 -0.107742 -0.056802053 -0.014508098 0.05069498 0.009010427
-0.11556905 0.04976005 -0.008557498 0.026704304 0.10777693 -0.056181863 0.06964675 0.0689973
0.113464706 0.08831961 0.038484268 0.09613619 0.1042388 0.03734059 -0.077548295 0.081368305
0.07680208 -0.07270427 -0.11487378 0.044576354 0.06521981 0.009394385 -0.08166264 0.07304948

encoder_unfaltten.1.cnn.bias f4 [16]
00000000: 5668 473d c667 9fbd 8233 4c3d 24bf 66bd
00000010: 540d b33c 0838 f5bc 0a09 a5bd f07f 42bc
00000020: 62fd 253d ea93 053d 84ea 5cbd 906c 92bb
00000030: d2b9 333d 5e88 56bd a072 0ebb 250f 9c3d
0.048683487 -0.07783465 0.04985381 -0.05633463 0.021856941 -0.029933944 -0.08058365 -0.011871323
0.040524848 0.032611765 -0.05393459 -0.004468508 0.043878384 -0.052376144 -0.0021735802 0.07620076

embedding.weight f4 [10, 8]
00000000: 6f5e 22bf 14fa d1bf 3207 193f 2e49 89bf
00000010: 0313 e13e 30e7 cb3f 5af0 e0be 18c0 ecbe
00000020: e262 f7be b0ba af3f 13fa 7dbf d727 f2be
00000030: 1046 e9bd bc5e 813f 9f30 05c0 bc43 783f
00000040: 5fa6 57be 1977 7d3f ff57 eebe c8f0 4ebe
00000050: d79c 283f 78c2 a83e 943a d0bf 8a30 6dbf
00000060: 4fe7 153f 6820 f1be 08b7 0dbf bbce 98bf
00000070: e01b 5abf 7295 00bf b02e b3be 806e 3ebf
00000080: 8ed5 af3f 8401 883f 2953 853f 319a d63e
00000090: a2ee ccbe 8e7e e9bf 3868 33c0 a91c ba3f
000000a0: 556d bd3f c1c7 cebd 5661 00c0 5065 02c0
000000b0: 6e13 e8bd c473 a73d e70d 893f 53c1 933e
000000c0: 018f 69bc 3601 8b3e b30d 933f 4e40 923f
000000d0: 6c5e 0340 1b60 1f3f 2f10 adbd 9d5b 8d3f
000000e0: 87cb 86be 376a 00bf b44e c23f 1b81 92bf
000000f0: 4c2a a83f 9d6a 39bf bd5d d6be fdc5 a5be
00000100: 1f36 52be 9479 b8be 1ddf 22bf 0796 aa3f
00000110: ad7e a93f 67db 2ebf 73a2 623d ec04 a4bc
00000120: a0e8 bdbf 993d bbbe bd0a 37bf b4e6 ebbf
00000130: 09c5 993f 5f25 dd3e 6687 78be b961 323f
-0.63425344 -1.6404443 0.59776604 -1.0725458 0.43959817 1.5929928 -0.43933374 -0.46240306
-0.4831763 1.3728848 -0.9920971 -0.4729602 -0.113903165 1.0107036 -2.0810926 0.96978354
-0.2105956 0.99009854 -0.4655151 -0.20209038 0.6586432 0.32960868 -1.6267877 -0.9265219
0.58556074 -0.47095037 -0.5535741 -1.1938089 -0.85198784 -0.50228035 -0.34996557 -0.7438736
1.3737047 1.0625463 1.0416003 0.41914514 -0.40025812 -1.8241746 -2.803236 1.4539996
1.479899 -0.10096694 -2.005941 -2.0374336 -0.11331831 0.081763774 1.0707368 0.28858432
-0.014255286 0.2714936 1.1488556 1.1425874 2.052638 0.6225602 -0.084503524 1.1043583
-0.26327154 -0.5016207 1.5180268 -1.144565 1.3137908 -0.72428304 -0.41868392 -0.32377616
-0.20528458 -0.36030257 -0.63621694 1.3327035 1.3241783 -0.6830353 0.055330705 -0.020021878
-1.4836617 -0.36570433 -0.7150076 -1.842978 1.2013255 0.43192574 -0.242704 0.6968036

decoder.1.BachNorm.weight f4 [16]
00000000: 793e 853f da23 7b3f cab2 7d3f bbd5 923f
00000010: a474 873f e205 713f b905 813f ee4e 613f
00000020: c691 653f feb3 6b3f 657d 713f 0757 853f
00000030: 3c4a 6e3f 2c12 7d3f 5ec6 843f 1191 793f
1.040969 0.9810158 0.99100935 1.1471475 1.0582471 0.941496 1.0079871 0.8801106
0.8967556 0.9207152 0.9433196 1.0417184 0.9308202 0.98855853 1.0373037 0.9748698

decoder.1.BachNorm.bias f4 [16]
00000000: afc4 aebd 5095 f5bd 3abf 70be 4ee9 06be
00000010: e53a a4bd 4b8e 3bbe c569 d1bd 28e3 64be
00000020: 954a c2bd 81be 06be 891f 33bd 3646 30be
00000030: 37c9 2dbe 76bf 0bbe 94b8 24be 5aba a2bd
-0.08533608 -0.1199137 -0.23510447 -0.13174936 -0.08019046 -0.18315999 -0.10225252 -0.22352278
-0.09486882 -0.13158609 -0.043731246 -0.17214283 -0.16971289 -0.13647255 -0.16086036 -0.079457

decoder.1.BachNorm.running_mean f4 [16]
00000000: e959 66bd c07a 14bd f6eb cf3c 7486 15bd
00000010: b5da 73bd c9fe 30bd b321 1bbd c355 a1bd
00000020: 8aa5 d03c 5582 423d 2422 b1bd c874 19bd
00000030: 1b1a 413e 1705 f1bb b11f 68bd 6fb9 cebd
-0.05623809 -0.036249876 0.02538107 -0.036505178 -0.059534747 -0.043211732 -0.037873935 -0.07877686
0.02546956 0.047487576 -0.0864909 -0.037464887 0.18857615 -0.007355343 -0.05667085 -0.100939624

decoder.1.BachNorm.running_var f4 [16]
00000000: 42bb 253e af4f 1f3e 0856 353e b503 2d3e
00000010: 23d2 3c3e 02f8 2a3e 7852 1b3e 7c26 033e
00000020: 6b8e 143e 5a9d 0f3e ce39 203e 5354 373e
00000030: 7833 183e 3c34 203e 8ee3 2f3e 2b22 0e3e
0.16184714 0.1555774 0.177086 0.16895945 0.18439536 0.1669617 0.15168178 0.1280765
0.14507453 0.14024869 0.1564705 0.17903261 0.14863384 0.15644926 0.17176649 0.13880222

decoder.1.cnn.weight f4 [16, 16, 6, 6]
00000000: 454b 953d b2e1 103d dc0e 5b3d 0165 023d
00000010: fd6c 413c 0dc9 b43d 7125 143d 7a9c 9d3d
00000020: cf80 d03d 8e94 303c d14f 01bd 45d7 bbbc
00000030: 31d4 32bd dee1 6c3d 1f53 973d e825 41bd
00000040: 43e9 02be ff73 7abd b781 40bc 55b1 633c
00000050: 1e35 073d 7a44 cfbc def7 e0bd dd5f fc3c
00000060: 6593 7f3c 9db7 f3bc 4f32 563d 4052 20bc
00000070: 99be 5ebd 97d4 f9bd 6f93 25bc 0dd1 d93c
00000080: fde0 2c3d 4aa0 efbd 41a0 dcbc b82f 273b
00000090: e9ca 2fbd 8b43 173d c623 1fbc fdcd 473d
000000a0: 3a1d 6dbd c393 94bc cf3c d03c ffad 9c3c
000000b0: b1af 683d 2e5a 8dbc 9cf3 4a3d fd2d bc3c
000000c0: 5791 7ebd 8408 63bb c82f a9bd 2387 cd39
000000d0: d721 98bd a96b 783d da61 d43c 5dd1 863c
000000e0: fa0b f53b 0e9e cc3c c7af 853d 76ac 48bc
000000f0: e7c8 b5bd b9a1 e83d 33fa 7d3d e51c 34bd
00000100: 49c8 babb ead3 bbbb 0211 c13d 2d60 5d3d
00000110: cce9 5f3e 6b01 4a3d c294 a43d ffa7 ce3c
00000120: 0198 1ebc a176 e8bd 7a0f 363c 4db1 dc3c
00000130: c243 16bd 6658 97bb e1f0 963b 2e25 81bc
00000140: 361a 4dbd bb9b 1fbd 8dc8 97bd 1ce2 d6bd
00000150: 13e3 4e3e 6f7c cebc 239b 5dbb 3841 c93c
00000160: ce77 86bd 60b1 963c b259 dcbd 69a9 933d
00000170: 77fb 173c 7c9e 31bd 302f 573d b4c3 7d3c
00000180: 699c b1bd d4b7 f03c 9cc5 e8bd 6a78 bdbb
00000190: e2cf 2fbd 0c38 793d 9c1e 1f3d d0ba a9bd
000001a0: 42bb 193e b890 9b3d 8fc1 303e 5d15 bebd
000001b0: dbdd 403d c0f7 f2bd fb75 043d 0767 223c
000001c0: 871b 293d 74cd 4cbd 335a a3bc ed5e a5bc
000001d0: 459a 4e3d ce9c 903d bbaf 4bbd 2e3b 8d3c
000001e0: 4a57 503d f47c 043e b45e eb3d 8835 e63d
000001f0: f646 edbb d4a1 8bbc 48d8 443c 3d8e aa3d
00000200: ded3 a539 a532 953c c2b0 81bc f021 fd3c
00000210: 5938 09bd b287 11bd 253c 99bd 8745 61bd
00000220: cea2 fbbb d18c 02be ae9f 853c dce2 5cbd
00000230: c18e 5ebd 26a4 4c3d 3a43 943d d105 4b3d
00000240: a3c8 923d 082e e7bb f47e 023d d915 19bc
00000250: e012 e3bc 8485 f3bc b0d5 e6bd 948f 6cba
00000260: c627 aabd 6168 59bd 529d d73d 5f6e 16bc
00000270: 1d4c a5bd ac42 7f3d 5cb6 f93d 3674 0b3c
00000280: 79bc 72bc eee0 e6b9 5736 2ebd 429d d8bd
00000290: 74f1 70bd 9c95 4c3d 8773 eb3d c389 b83b
000002a0: eae0 803c 7ce4 2e3d f784 543c 7d3d 8fbd
000002b0: 1d0a 10bd 4742 15bd c6ce afbd d275 933d
000002c0: 873a 603d a09f b53c 15d0 803c c963 a3bd
000002d0: b123 623d 9d2b f5bc 38cc 4bbd 6dab 80bd
000002e0: 0336 a0bd 7a03 313e 6f6e 393d 0ec6 bebc
000002f0: 58e7 363d 84aa efbd 57d3 32bc 2431 ce3d
00000300: a3d0 06bc 1159 113d 9c1a e63c c221 ae3c
00000310: e1fa 7cbb f485 4c3d c6e0 e2bc a0b6 e4bc
00000320: df91 ffbc b600 883d afab 67bd 7cc0 083d
00000330: 4947 9ebd 3f40 d43c f0b9 ffbd fd31 02bd
00000340: a379 f0ba 1dd5 2bbd 4721 103e 19b0 aa3c
00000350: f4b7 793c 003e 93bd d345 203d c22a 0d3e
00000360: cf67 4bbd 0714 76bd 7603 a83c 8a72 3c3d
00000370: 5ae3 cdbd 2dc5 47bd 892e 81bd 3e18 a6bd
00000380: d660 f13d d36a 64bd a17c 17bd 9a6b 4e3d
00000390: f7ac 28bc cdd3 303d c234 a8bc 069a 8bbc
000003a0: 23c8 03bd e04a 3c3d 62ac 03ba 9a44 633d
000003b0: 686c ccbd c4d0 e7bd ec51 8db9 47c9 903d
000003c0: 2eeb 4c3b 403d bd3c a297 b23c cd52 67bd
000003d0: c036 f23d d838 853c 3bf3 523c ecf6 89bc
000003e0: 70f2 afbd 2eb2 8b3d 7c9d c73c 41ce 923c
000003f0: 2d8a 513b 3258 e6bc 5474 37bd cc25 ea3c
0.07289747 0.03537149 0.053480968 0.031834606 0.01180577 0.0882741 0.03616852 0.07695861
0.10180818 0.010777606 -0.03157026 -0.022929797 -0.043659393 0.05783259 0.07388901 -0.04715529
-0.12784295 -0.06114578 -0.011749676 0.01389726 0.03300964 -0.025301207 -0.10984777 0.03080743
0.015599106 -0.02975064 0.05229407 -0.009785235 -0.054380987 -0.121987514 -0.010105952 0.026588941
0.042206753 -0.117004946 -0.026931884 0.002551062 -0.04291812 0.03692965 -0.009713119 0.04878043
-0.0578892 -0.018136865 0.02541962 0.019125937 0.056808177 -0.017254915 0.04954873 0.022971148
-0.062150326 -0.0034642527 -0.08261067 0.00039201332 -0.074283294 0.060649548 0.025925566 0.016457254
0.0074782344 0.02497771 0.065276675 -0.012248149 -0.0887621 0.11358971 0.062006187 -0.04397287
-0.0057001454 -0.0057320492 0.09427072 0.0540468 0.2186653 0.04931776 0.08036186 0.025226591
-0.009679795 -0.11350752 0.011112088 0.026940012 -0.036685713 -0.004618692 0.0046063517 -0.015764799
-0.050073825 -0.038966876 -0.07411299 -0.10492346 0.2020381 -0.025205819 -0.0033814393 0.024567232
-0.0656582 0.018395126 -0.107592955 0.07210047 0.0092762625 -0.043364033 0.052535236 0.015488554
-0.08672411 0.029384531 -0.11365816 -0.0057821767 -0.042922862 0.060844466 0.03884755 -0.08287585
0.1501284 0.07595962 0.17261337 -0.092814185 0.047086578 -0.11863661 0.032339077 0.009912259
0.041286018 -0.050000623 -0.019940471 -0.020186866 0.05044009 0.07061158 -0.049728137 0.017240133
0.050864495 0.12938291 0.114926726 0.11240679 -0.007241125 -0.01704494 0.012014456 0.08327911
0.00031629106 0.018212626 -0.015831355 0.030899972 -0.033501003 -0.0355298 -0.07482175 -0.054997947
-0.00767932 -0.1274903 0.016311493 -0.053927287 -0.05433536 0.04996123 0.07239385 0.049566094
0.07167175 -0.007055048 0.031859353 -0.009343588 -0.027718961 -0.029726751 -0.112712264 -0.00090240804
-0.083083674 -0.05307806 0.10528053 -0.009181588 -0.08071158 0.062319443 0.121929854 0.008511594
-0.014815443 -0.00044036604 -0.04253229 -0.105768695 -0.058824018 0.049947366 0.114966445 0.005631657
0.015732247 0.04269837 0.012971154 -0.0699415 -0.035165895 -0.03644016 -0.08584361 0.07200207
0.054743316 0.022170842 0.015724221 -0.07978017 0.05520982 -0.029928023 -0.049755305 -0.06282697
-0.07822802 0.17286482 0.045271333 -0.0232878 0.04465422 -0.11702445 -0.010914645 0.100679666
-0.008228454 0.03548533 0.02808886 0.021256331 -0.0038601684 0.049932435 -0.027695071 -0.027919114
-0.031197486 0.066407606 -0.056560215 0.033386692 -0.0772844 0.025909541 -0.12486637 -0.031785954
-0.0018346797 -0.041951288 0.14075194 0.020835923 0.015241612 -0.0718956 0.03912909 0.13785842
-0.049659546 -0.060077693 0.020509463 0.04600767 -0.100531295 -0.048772026 -0.06307704 -0.081100926
0.11786048 -0.055765938 -0.03698409 0.050395586 -0.010295144 0.04317074 -0.02053297 -0.017041218
-0.032173287 0.045969844 -0.00050229405 0.055485345 -0.09981614 -0.11319116 -0.00026954652 0.070696406
0.0031268108 0.023100495 0.02180082 -0.05647545 0.11826849 0.016262457 0.0128753735 -0.016841374
-0.08591163 0.068210945 0.024367087 0.017920615 0.0031973228 -0.028118227 -0.044788674 0.028582476

decoder.1.cnn.bias f4 [16]
00000000: 310e e63b efc0 4d3d 477d 783d 89ca 53bd
00000010: 32f2 083b 9e25 0bbb 59d7 e53b 8dcf 69bd
00000020: dd3f ae3c 1929 183d 5611 bbbc 10fa 7cbc
00000030: a327 0e3e 4800 f43c f047 6bbd 4d23 79bd
0.0070207347 0.050232824 0.06066635 -0.051706824 0.0020896313 -0.0021232138 0.007014197 -0.0570827
0.021270687 0.03714857 -0.022835415 -0.015440479 0.13882308 0.02978529 -0.05744165 -0.06082468

decoder.2.BachNorm.weight f4 [8]
00000000: a5cb 813f fc55 613f fd84 383f da40 743f
00000010: ed76 6e3f 3f3b 813f 5bba 773f ce54 763f
1.0140272 0.88021827 0.72077924 0.95411456 0.93150216 1.0096205 0.9676873 0.9622315

decoder.2.BachNorm.bias f4 [8]
00000000: 901a 82bd 3e49 94be b6e8 6dbe 5616 b4be
00000010: 16de 8dbe 873b d3bd 42ca 9cbe bac0 2ebe
-0.06352723 -0.2896213 -0.23233303 -0.3517329 -0.277085 -0.10314088 -0.3062306 -0.17065707

decoder.2.BachNorm.running_mean f4 [8]
00000000: f7dd 873e f5f9 eb3d 87ed 973e 7b0c 503d
00000010: 8333 143e bf75 c33e 33c4 fabc 2a7f 833e
0.26536533 0.11522285 0.29673406 0.050793152 0.14472775 0.3817577 -0.030611133 0.25682956

decoder.2.BachNorm.running_var f4 [8]
00000000: 71e7 733e 5f74 fb3d 2344 623e 167c 183e
00000010: 5a1e 093e 9be1 6e3e 4255 2c3e 876e 6d3e
0.23818757 0.122780554 0.22096305 0.14891085 0.13390484 0.23328249 0.16829398 0.23186694

decoder.2.cnn.weight f4 [16, 8, 6, 6]
00000000: 54b7 8e3d 3a58 c9bc 844b a33c d2a2 3cbd
00000010: e74b 9cbc 12b1 dfbc 77c7 11bd e9c3 9b3c
00000020: 174b 223d f9e7 d63c 8b3e 44bc 30eb 9e3c
00000030: 1836 e93c eacb 543c a7f8 453d 8c5e 113e
00000040: 0e84 b83c bb6d 3fbd 0acb bcbc aef7 943d
00000050: ba3a 2c3e e74b 223d 4e74 483d c594 9fbb
00000060: 1cc8 ea3c 8432 67bc dd9b 1d3e 0876 f83c
00000070: 0b36 aa3c 67ce 93bd 08c5 c8bc 9cf5 99bd
00000080: 03cb 403e b7c9 663d 8b6b 5a3d b04b 5fbd
00000090: 0ed4 15bd 73dd e13b 9633 1cbd 451e 233d
000000a0: d949 c0bd 5db6 0b3d a5a1 333d 895a 76ba
000000b0: c4d2 b4bc 348e d3bc d6b7 1b3d 0d29 933d
000000c0: 304d 8a3c 0533 f13d 7957 ac3d 14e0 ddbc
000000d0: a6bd 853d 9aa0 9abd f1c4 233c 6950 023e
000000e0: d436 893d bfec 063e 36d9 8e3d aa3c 48bd
000000f0: 569a 0f3c 730a 63bd ab68 183d 8464 18bd
00000100: e537 2a3d 225f cdbc 13e2 9c3d e7b7 cfbc
00000110: 9676 3e3d 5b9b a2bc 2058 b8bd 3ba8 19bd
00000120: d051 2ebc fd08 8dbc fed4 bc3c 4210 4f3d
00000130: 8414 06bd c979 553d c360 b6ba a030 933d
00000140: 70f8 013e f8c2 e83c 8d31 8d3c b49c 303c
00000150: 5ac6 413c 8462 8a3d 65f4 4a3d 20b1 50bd
00000160: dcd5 563b 9a99 b6bc 0e6f efbc 4e7c cebc
00000170: 925c df3a 5aa6 98bc 937f 32bb ed22 afbd
00000180: edc5 00bd 46a8 423c 86d6 683d 058c 2f3d
00000190: 84dc ffbc 6a77 b8bd e363 b5bd bf32 293d
000001a0: cfe6 103d 43b2 25bd 2154 87bc d1ec ba3d
000001b0: 046d ffbc 33b6 953d a59c 43bc a446 56bd
000001c0: 3950 60bd e7a8 75bb a771 3a3c 038f eb3c
000001d0: 21c6 32bd c625 c7bc 8545 82bb 953a 9b3c
000001e0: 72a6 2d3d 4ed8 f5bb 3e6f ddbc 2e51 dabc
000001f0: c59d bc3b cfac 6dbd d5eb 133d 0d2c 513c
00000200: 56fd 1a3d 476f 563d 4d7a 8abd c65e 02be
00000210: 790c a53d 68e1 8b3d c652 ae3c c920 bc3d
00000220: 57b4 f0bc 63ab 05bb 1d3a 6bbd b20d 2d3d
00000230: dc1b 1e3d 0204 60bd dea3 b73d 507d a03d
00000240: cdea 3cbd 8a3c 2b3a a161 f83b 2fa0 c3bc
00000250: c236 74bd 26fc a93d 280a 51bd 20b1 50bc
00000260: c94a 193e 12e5 6a3d e22d ac3d e59c 71bd
00000270: 9f3c 1d3c 2a78 22bc 8e86 8bbd 5330 7bbd
00000280: 0f7b da3c 0981 2bbe cda6 c33b 4703 12bd
00000290: ac85 93bc 9dfa 3c3d 1f4b fe3d b05c bbbd
000002a0: eda3 dd3b 9ac7 a53d 14e1 ebbc 7196 813d
000002b0: 1183 cb3d aa38 613d 6d38 d2bd 89f5 0abe
000002c0: 09f6 cebc 9d0d c4bc 4195 253c cb41 87bc
000002d0: 61b8 113d f2db 913d 1f34 603d 5775 3ebc
000002e0: 193c 9dbc 18f9 83bd 3104 843d 105a 073e
000002f0: f36a d93d f85f d13c 933a c7bc 0542 f2bc
00000300: ed6e 17bd 840a 0c3d 60b8 533e 60bf b53d
00000310: b95e a23b f993 a5bc 977a acbc 2cea 453d
00000320: c9dd 123e 4dda f43c 9588 00bd a429 04be
00000330: 484c 49bd 7b29 96bd d8a9 5b3d 4f33 733d
00000340: fc40 8dbd a7b4 40be 59ae 5fbc 0e3e 3a3d
00000350: 5899 9b3d eb8d 333c 8d9e 54bd 5ed9 97bc
00000360: 467b 673d 66db 7abd 61ab f43d c7ca dd3c
00000370: ada9 593d 8cc3 22bd 4ae1 933b ce3e 09bc
00000380: e711 c73d d30c b2bd 5eb4 03be 8a3e 823b
00000390: c1e8 293d 5a37 4a3d 204e debc fdff 99bd
000003a0: ff7d 32be 3e9e b7bd 115e c03d 791a 573c
000003b0: 5590 c33c f6b8 5c3d c87f acbb b4aa 97bd
000003c0: 0a24 a7bc d66f d83d 5095 c23d 8fea 1c3d
000003d0: 97ec 93bd f90c 82bc c81d 2d3d 6154 243e
000003e0: c10a 773d 7120 8ebd eec6 a7bd 3448 6fbd
000003f0: f38c 9cb9 bdf5 983d 548a 803b 5b34 8ebc
0.06968561 -0.024578203 0.01993347 -0.046053715 -0.019079162 -0.027306113 -0.035590615 0.019014316
0.039622393 0.02623366 -0.011977802 0.019399256 0.028468177 0.01298807 0.048332836 0.14196223
0.022523906 -0.046735507 -0.023046035 0.07273804 0.16819277 0.039623167 0.04893904 -0.0048700296
0.028659873 -0.014111165 0.15391488 0.03032972 0.020777723 -0.072171025 -0.024508014 -0.075175494
0.18827443 0.056344714 0.053325217 -0.05451554 -0.036579184 0.006892854 -0.038135134 0.03982379
-0.09389085 0.034109462 0.043855328 -0.0009397646 -0.022073157 -0.025824644 0.038017116 0.07185564
0.016882509 0.11777309 0.084151216 -0.027084388 0.06530313 -0.075501636 0.009995685 0.12725987
0.06699911 0.13176249 0.069750234 -0.04888598 0.008764824 -0.055429887 0.037209194 -0.037205234
0.04155721 -0.025069777 0.07660308 -0.025356246 0.04649981 -0.01984947 -0.090011835 -0.037513953
-0.010639623 -0.0172162 0.023050781 0.050552614 -0.03273441 0.052118097 -0.0013914335 0.07187009
0.12692428 0.02841328 0.017235542 0.010779548 0.011827076 0.067570716 0.04954948 -0.05095017
0.0032781279 -0.02229004 -0.02922776 -0.025205757 0.0017041138 -0.01863401 -0.0027236685 -0.085515834
-0.031438757 0.01188094 0.05684521 0.042858142 -0.03123308 -0.090071514 -0.088569425 0.04130816
0.035376366 -0.040453207 -0.016519608 0.091272004 -0.031179912 0.07310142 -0.011939202 -0.052313462
-0.054764006 -0.0037484707 0.011379636 0.028754717 -0.04364598 -0.024310004 -0.0039755725 0.018948833
0.042395063 -0.007502592 -0.027030583 -0.026650038 0.0057561123 -0.05802613 0.03611358 0.01276685
0.037839256 0.052352216 -0.06761608 -0.12731466 0.080590196 0.06830102 0.021279704 0.09185941
-0.029382868 -0.0020396344 -0.057428468 0.04224939 0.038600788 -0.054691322 0.08966802 0.078364015
-0.04612236 0.00065321533 0.0075799976 -0.023880092 -0.059622534 0.083000466 -0.051035076 -0.012737542
0.14969935 0.057347365 0.08407189 -0.058987517 0.009596973 -0.009916345 -0.06812774 -0.061325382
0.026670007 -0.16748442 0.005970812 -0.035647657 -0.018008076 0.04613744 0.12416672 -0.09148538
0.0067639262 0.080947116 -0.028793849 0.063275225 0.09937108 0.05498568 -0.102646686 -0.13570227
-0.025263803 -0.023932273 0.010106386 -0.016510865 0.035576228 0.07122029 0.054737207 -0.011624656
-0.019193696 -0.06443995 0.06446112 0.1321795 0.10616102 0.025558457 -0.024319923 -0.029572496
-0.03697102 0.034189716 0.20675802 0.088743925 0.0049551395 -0.02021216 -0.02105455 0.048319027
0.14342417 0.02988925 -0.031380255 -0.1290651 -0.049145013 -0.073321305 0.053628772 0.059375104
-0.068971604 -0.18818913 -0.013652408 0.045469336 0.075976074 0.010959129 -0.05190902 -0.018536266
0.056514047 -0.06124439 0.119467504 0.02707423 0.05314033 -0.03973727 0.0045129405 -0.00837679
0.097202115 -0.08693852 -0.12861773 0.0039747404 0.041481737 0.049369194 -0.027136862 -0.07519529
-0.17430876 -0.08965729 0.09392942 0.01312887 0.023872534 0.05388733 -0.005264256 -0.07405606
-0.020402927 0.10568206 0.09501135 0.03830963 -0.0722286 -0.015875326 0.04226473 0.16047813
0.06031299 -0.069397815 -0.0819224 -0.058418468 -0.00029859654 0.07468746 0.00392274 -0.01735895

decoder.2.cnn.bias f4 [8]
00000000: 53e9 a3bd 3d2b b43d b5ed b23c f274 2dbc
00000010: 7dab c03c f797 dd3d ea06 89bd 2ff1 7fbb
-0.080034874 0.087973095 0.021841863 -0.010586964 0.023519272 0.108200006 -0.06690772 -0.0039053669

decoder.4.cnn.weight f4 [8, 1, 6, 6]
00000000: 974a 963d 28bf 0e3e 426d 083e 41e4 593d
00000010: 4ea0 28bd 9690 19bd f967 f93d 6bb1 563e
00000020: 6a50 2e3e c7a3 bd3c 8936 bbbd 8f9a a4bd
00000030: 401a 0f3e 5178 6b3e 97bc 0d3e b0bc fabc
00000040: f71b 0fbe 76f6 c7bd 3867 0f3e 9312 553e
00000050: ceb0 ed3d 907a 1cbd 1836 e8bd c5b1 82bd
00000060: a71a a33d bc2e 053e c517 853d 27bb 04bd
00000070: 5edb 67bd 4dd3 e5bc 5c6b e83c eb3d 543d
00000080: 023e 1b3c 9056 20bd e507 fbbc dc43 7e3b
00000090: 16d1 a2bb 7265 3ebd 32ce 77bd 8b82 90bc
000000a0: 1b60 4c3c 2964 553c 2ceb 9abd 20db 2ebe
000000b0: ea20 18be c798 5abd 504f 87bb 7255 f73b
000000c0: 3ffe f0bd 6c3a 76be 0bec 4bbe 940e 74bd
000000d0: 8a72 4a3c 24d6 8e3c ab2c 1dbe b095 70be
000000e0: 0525 2abe 6fc6 d5bc 287c 383d 5154 0e3d
000000f0: 1a42 0abe 10d5 44be 5853 e2bd ffde 7c3b
00000100: 464b 493d 63a6 0e3d 2cc4 9bbd 2eb4 d4bd
00000110: 8414 1dbd 9d9c ca3c 7dba 1f3d e996 993c
00000120: b405 013d fd4e b43c 0e26 26bc 0d83 87bb
00000130: 1072 bc3c 28d5 b33c bfc3 8dbc c5c1 3ebd
00000140: f73f 2dbd 3bdc 3a3d fc4c ae3d dcb9 0d3d
00000150: be5b 2ebd 55db 3cbd 6a55 ef3c 6e23 003e
00000160: 351b d53d 93a2 013d 4e68 443c e9a4 a93d
00000170: 0d8d 293e 6aae 373e 88c7 653d 11b7 9fbc
00000180: 135b d93d c6c7 683e dc47 6c3e 3a11 103e
00000190: b5e5 20bd d088 c9bd c3dc f43d 6934 323e
000001a0: 12a9 f43d b02d 0d3c dc5a fcbd 6f0a fabd
000001b0: d478 5ebc 9b56 afbd 4232 f2bd a66e 96bd
000001c0: 5ae8 edbc fa00 0c3b 7594 adbd db38 44be
000001d0: 4a1a 49be fca8 cfbd 25b0 b6bc 79dc e13b
000001e0: 2a6f 05be d4ef 50be c76c 16be dead b4bc
000001f0: 6523 e33c 8882 bc3c c1f5 82bd 6407 93bd
00000200: c115 863c 9101 dd3d cce6 d43d 41e0 463d
00000210: 8ee1 173b 5695 813d 93a6 0d3e d823 253e
00000220: eaf8 fe3d 7871 0a3d a5a6 0e3d df9a 953d
00000230: 7d1f eb3d 389c f93d 7cf2 b13d 6c1f b33c
00000240: e367 363c 4ee7 303d 38e1 a23c 3d82 ebbc
00000250: c83c 67bd a148 16bd 99be 333d de65 3e3d
00000260: 7b79 66bc 1b00 f4bd dcf2 18be 940a e2bd
00000270: 18c3 483d c5db 0d3d 7e8f 9fbd 7d02 56be
00000280: 5c57 79be 8f67 13be e8c6 263d 9cf5 03bc
00000290: 86f0 09be b349 82be c42e 85be 1407 07be
000002a0: 78e9 9a3c 4d41 05bd c531 ebbd 118b 48be
000002b0: 6f69 36be f554 8fbd a3a1 ab3c a4e7 7fba
000002c0: 51a8 53bd d303 b1bd 3dea a5bd 55ed ddbc
000002d0: c9e7 1bbc 6260 0dbd d193 78bd 9213 52bd
000002e0: 3f49 47bd 413f 5dbd 9057 58bc a061 c3bb
000002f0: 9204 90bb 68da 6cbb 6371 ecbc 846d 81bd
00000300: ed1c 08bd a8a6 bb3c 590c aa3d f389 b03d
00000310: b530 7a3d 3fb5 1fb9 0b3d 3abc d135 be3d
00000320: 771b 463e a129 443e b5dd 263e c5c6 b73d
00000330: 7de8 363b 643b f63d 0b8f 803e ee57 6f3e
00000340: fa34 403e cac9 cb3d 8c18 b9bc 96c6 883d
00000350: ac5a 063e 843b 023e f834 e13d d90f 583d
00000360: 5c9a cf3b e1ab f7bc d332 31bd 2996 d0bb
00000370: 9312 d53c 0ef8 cf3c 66c3 dabc 5942 e0bd
00000380: e27d 07be f618 90bd 635d b7bc a991 63ba
00000390: 79b2 aabd be4f 59be 023c 76be 6143 14be
000003a0: 8c2f 96bd 1ed1 24bd 788e 06be 28b5 83be
000003b0: f846 7ebe bb32 39be 1797 e4bd 6889 74bd
000003c0: 4493 cfbd 9832 25be 211e 00be bd38 90bd
000003d0: c79f f0bc c4b9 543a 6666 0bbd 4b67 34bd
000003e0: 3d3c cdbc 4e14 e3b9 2742 103c 2656 073c
000003f0: aeff 1a3d bd64 853d ca64 123d c14f 193c
0.07338446 0.13940108 0.13322929 0.053196196 -0.041168503 -0.037491404 0.12178034 0.20966117
0.17022863 0.023149384 -0.09141261 -0.08037292 0.13974857 0.22995116 0.13841473 -0.030607551
-0.13975511 -0.097638056 0.14004219 0.20807867 0.116059884 -0.038202822 -0.113384426 -0.06381563
0.07964068 0.13006109 0.06498674 -0.032405045 -0.05660569 -0.028054858 0.028371505 0.051816862
0.009475233 -0.039145052 -0.030643413 0.0038797772 -0.0049687726 -0.046483465 -0.060499378 -0.017640373
0.012474085 0.013024368 -0.07564387 -0.17075777 -0.14856306 -0.053368356 -0.004129328 0.0075480277
-0.117672436 -0.24045724 -0.19914262 -0.059584215 0.01235641 0.017436095 -0.1534907 -0.23494601
-0.16615684 -0.026095597 0.04504028 0.03474838 -0.13501778 -0.19221902 -0.11051053 0.0038585064
0.049144052 0.034826647 -0.07605776 -0.10385929 -0.038349643 0.024732882 0.03899621 0.018748717
0.03149958 0.02201032 -0.010140909 -0.0041354955 0.023003608 0.021952227 -0.017305253 -0.04657151
-0.04229733 0.045620184 0.08510777 0.034601077 -0.04256796 -0.04610761 0.029215533 0.12513515
0.1040558 0.031649183 0.011987759 0.08283407 0.16557713 0.17937627 0.05609849 -0.019496473
0.10613074 0.22732458 0.23074287 0.14069071 -0.039281566 -0.09840548 0.119561695 0.17402805
0.1194631 0.00861685 -0.123220176 -0.12209021 -0.013578612 -0.085614406 -0.11825992 -0.07345323
-0.029041458 0.0021362887 -0.084755816 -0.19162314 -0.19638935 -0.10139653 -0.02230079 0.0068927375
-0.13030687 -0.20403987 -0.14689933 -0.022055563 0.027726838 0.02301146 -0.0639453 -0.07179144
0.016367795 0.107913144 0.103955835 0.04855371 0.0023175213 0.06327312 0.13833074 0.16126955
0.1244982 0.03379962 0.034826893 0.0730493 0.11480615 0.121879995 0.08688828 0.021865569
0.011133167 0.04318934 0.019882783 -0.028748626 -0.05645445 -0.036690358 0.04388294 0.046483867
-0.014067049 -0.119140826 -0.14936393 -0.11037174 0.04901418 0.034633417 -0.07791041 -0.20899387
-0.24349731 -0.14394973 0.040717036 -0.008054163 -0.13470659 -0.25446853 -0.26012242 -0.13186294
0.018910155 -0.03253298 -0.11484102 -0.195843 -0.17813657 -0.06998626 0.020951098 -0.0009761995
-0.05167419 -0.086433075 -0.08101318 -0.027090708 -0.009515711 -0.034515746 -0.060687844 -0.051288195
-0.048653837 -0.0540154 -0.01320447 -0.0059625655 -0.004395076 -0.0036140922 -0.02886266 -0.063197166
-0.03323071 0.022906616 0.083031364 0.08620062 0.061081607 -0.00015230941 -0.011367093 0.092876084
0.19346415 0.19156505 0.16295512 0.08973459 0.002790957 0.120230466 0.25109133 0.23373386
0.18770209 0.099505976 -0.022594713 0.06678502 0.13120526 0.12718016 0.10996431 0.05274949
0.0063355397 -0.030233325 -0.04326136 -0.0063655567 0.026009833 0.025386836 -0.026704501 -0.10950155
-0.13231614 -0.07036011 -0.022383397 -0.0008681068 -0.08334822 -0.21221825 -0.24046329 -0.14478828
-0.073332876 -0.040238492 -0.13140285 -0.2572415 -0.2483176 -0.18085758 -0.111616306 -0.059701353
-0.101355106 -0.16132581 -0.12511493 -0.07042072 -0.029373063 0.00081148394 -0.0340332 -0.04404382
-0.025053138 -0.00043311942 0.008804834 0.0082602855 0.03784149 0.06513355 0.03574065 0.009357394
