AutoEncoders/Conditional_VAE/saved_model/model_contrast.pth (torch, 96189 bytes, 44 tensors)

encoder_faltten.0.BachNorm.weight f4 [10]
00000000: d98b 633f 42b6 883f 6a1c 763f 59f9 753f
00000010: 5504 833f 73bc 773f 615c 9b3f 05dd 733f
00000020: 47de 883f afc9 7a3f
0.88885266 1.0680621 0.96137106 0.960836 1.0235697 0.96771926 1.2137567 0.95259124
1.0692834 0.97963995

encoder_faltten.0.BachNorm.bias f4 [10]
00000000: dfee cb3e 8617 073f 6950 173d 077b be3e
00000010: a802 de3d eb08 5a3e a2b5 7c3e a0b5 733e
00000020: 9637 6cbd 44d8 963e
0.39830682 0.5277027 0.03694192 0.37203237 0.108403504 0.21292464 0.24678662 0.23799753
-0.0576702 0.29461873

encoder_faltten.0.BachNorm.running_mean f4 [10]
00000000: 3eac 29be 4a40 0cbe 45da d83d 5c95 013d
00000010: d2a7 ff3d 0f02 043e b299 a13c ba28 98bd
00000020: 7e0b fbbc ab78 65be
-0.16569611 -0.136964 0.105885066 0.03163658 0.12483181 0.1289141 0.019726608 -0.07429643
-0.030645128 -0.22409312

encoder_faltten.0.BachNorm.running_var f4 [10]
00000000: 1b4d 013f a2c4 793f 7701 b03e b001 ed3e
00000010: 8c0b 9a3e 2043 463e 4e47 f93e 8174 ac3e
00000020: c240 6d3e 425e 713e
0.5050828 0.9756566 0.34376118 0.4629035 0.30086935 0.19361544 0.48687214 0.33682635
0.23169234 0.23571113

encoder_faltten.0.cnn.weight f4 [10, 1, 3, 3]
00000000: 5d2f b03d 8adf ba3d 3ea2 e23d 8798 5d3c
00000010: 365c ae3e a17b 8d3d 3446 b73e 8791 13be
00000020: 0789 95bd 6df9 1b3d 7aa7 6abe c719 9abd
00000030: af24 443e a9a4 723c c322 243f 513f f53d
00000040: 3221 37bc 45f2 ea3e fa6e 8fbc 7514 7ebe
00000050: a3c4 bd3d d21b a0be 2c99 1dbe 5dff 7e3e
00000060: 5577 e8bc f3aa 88be 7218 8f3e b929 d93e
00000070: 7c29 18be b6a0 473e 7dee 493e 9299 1a3d
00000080: 4d0a 7bbe 309f ab3e f824 aa3c d731 3fbe
00000090: 54f4 3bbd d471 e13d 4185 0a3e 3e04 76be
000000a0: a3a4 243e d404 f6bd 1ce7 9a3e e7e6 ac3e
000000b0: 951f 1abd 3a2a 0a3e 14c5 5fbe cd82 3bbe
000000c0: d459 ef3d 46cf c93d 3417 3dbe 22bf 193e
000000d0: 0015 8c3e fce5 d73d 0e7c 0fbe 04db d9bd
000000e0: 609b 553e bb5d cb3d b8d7 68be ba25 9cbe
000000f0: 4a68 aebe 5f79 fd3d 9a26 56be f118 153f
00000100: 7e55 243d 8b2e 58be b8cb 173e 7c7f ae3b
00000110: f947 0c3e fd6e 8ebd c480 d8bd 5ca9 3abe
00000120: 8559 8ebd 0ff2 0dbd 7823 57be 97d6 80be
00000130: 5901 0abd 853a bdbd 0c9c d6bd 0c33 c53d
00000140: 9946 a33e 711a be3d 6c99 903e 40ee 8dbd
00000150: 344e 98be b6ae 173e 3602 613e 7994 56be
00000160: 61fa e23d 6354 243e
0.08602784 0.09124668 0.110661015 0.013525135 0.34054726 0.06908346 0.35795748 -0.14410983
-0.073015265 0.038079668 -0.2291545 -0.07524448 0.19154619 0.014809766 0.6411554 0.11974967
-0.011177348 0.45887962 -0.017508972 -0.24812491 0.09266021 -0.31271225 -0.15390462 0.24902101
-0.028377214 -0.26692924 0.27948338 0.42414644 -0.14859575 0.194949 0.19719882 0.037744112
-0.24515648 0.33519888 0.020769581 -0.18671356 -0.045887306 0.11008039 0.13527395 -0.24025056
0.16078429 -0.1201264 0.30254447 0.33769915 -0.037627775 0.1349267 -0.21852523 -0.18311615
0.11687055 0.098539874 -0.18465883 0.15014318 0.27359772 0.10541913 -0.14012167 -0.10637477
0.20860052 0.09929987 -0.2273854 -0.30497533 -0.3406394 0.12376665 -0.20913163 0.5824118
0.040120594 -0.21111505 0.14823806 0.005325256 0.1369933 -0.06954763 -0.10571435 -0.18228668
-0.06950668 -0.034654673 -0.21009624 -0.2516372 -0.03369269 -0.09239677 -0.10478982 0.09628877
0.318898 0.09282387 0.28242052 -0.06930208 -0.29747164 0.1481274 0.219735 -0.20955075
0.11082912 0.16047816

encoder_faltten.0.cnn.bias f4 [10]
00000000: 5ea3 28be c02e 09be efd1 d93d 2fea 033d
00000010: ff63 ff3d 9147 033e 3f4d 843c b7b8 96bd
00000020: 5059 fdbc 7796 63be
-0.1646857 -0.1339674 0.10635745 0.032205757 0.124702446 0.12820269 0.016150115 -0.0735945
-0.030926377 -0.22225367

encoder_faltten.1.BachNorm.weight f4 [16]
00000000: db84 7e3f 8480 3b3f 523e 7a3f 145d 813f
00000010: 189b 613f cc69 7d3f 9696 7e3f 84e4 923f
00000020: 9478 803f 66c4 7b3f bb4e 803f 1d76 7e3f
00000030: 3fab 763f 5b7b 883f 1636 783f 91fa 813f
0.9942147 0.73242974 0.97751343 1.010653 0.8812728 0.9898956 0.99448526 1.1475987
1.0036798 0.98346555 1.0024027 0.99398977 0.9635505 1.0662645 0.9695753 1.0154592

encoder_faltten.1.BachNorm.bias f4 [16]
00000000: 4017 d7bc 21b5 d53c ed54 fc3b 0893 293d
00000010: 317d d0bd fa8f 0dbd 7f2d 9c3c 0a20 cb3d
00000020: c715 6bbc ae45 003c 4b69 053c 8c81 4f3e
00000030: 9751 20bc 2ff5 e93d fb39 023d 8348 023d
-0.026256204 0.026087346 0.0077005536 0.041399986 -0.10180128 -0.034561135 0.019064663 0.0991822
-0.014348454 0.007829113 0.00814278 0.20264262 -0.009785078 0.11423718 0.031793576 0.031807434

encoder_faltten.1.BachNorm.running_mean f4 [16]
00000000: cd80 60be 25de 1b3f 1b30 423f f089 e03e
00000010: e1e2 8dbe 7d0c d0bd 9efe 6c3f 1969 35bf
00000020: 490f 8c3d 51e3 efbd d4b9 f53e 255c 013f
00000030: d96b 583e 2880 51b9 d519 483e ea02 153f
-0.21924134 0.6088584 0.75854653 0.43855238 -0.27712157 -0.10158632 0.92576015 -0.7086349
0.06838853 -0.11713279 0.47993338 0.50531226 0.2113489 -0.00019979535 0.19541104 0.5820757

encoder_faltten.1.BachNorm.running_var f4 [16]
00000000: 1eb4 653f a853 933f 654e af3f 48dc 6e3f
00000010: 93fb ae3f 12bc 553f a79c fa3f 846d 0640
00000020: 0d30 1a3f 7d95 fc3f 39e7 cb3f bf0f 743f
00000030: 2b47 aa3f 39b5 963f 019c 433f 3939 c83f
0.8972796 1.1509905 1.3695799 0.9330487 1.3670524 0.834901 1.9579057 2.1004343
0.6022957 1.973312 1.5929939 0.95336527 1.3302969 1.1774055 0.7640992 1.5642463

encoder_faltten.1.cnn.weight f4 [16, 10, 3, 3]
00000000: 5549 0abd 451e 913c 10f8 c6bd bd32 ce3c
00000010: 4ca2 81bd 4738 bcbc a36d aa3c 93a3 b2bb
00000020: e58d 76bd d60c 693c 736a edbc 3a0c c1bc
00000030: 1ae9 1a3d 7254 b8bd f4ef ccbd 12b4 1dbd
00000040: 01d5 593d 6d58 bebd 864e a0bd eba7 03bd
00000050: 2d28 a8bc 17e1 c7bd 193f 01bd e387 a9bb
00000060: 2adc 8d3c 516a fb3d 1ec1 4a3c 4e8f 26bd
00000070: 1528 863d c747 d1bd 731d bf3c f5eb 423d
00000080: 1678 903d 5dfc 17ba da77 8e3d 60e0 133d
00000090: b676 0e3b 8a6b d9bd 84db 24bd 89ca e93c
000000a0: 03df 8e3c 41de d1bd 3af1 0ebc 92e8 d33d
000000b0: ff20 9bbd e617 e6bc f3fb c0bc fd9b a3bc
000000c0: 7ba6 1a3e e416 313d 5cfd 873c d0ba 193e
000000d0: 2a7c a23d 18e1 803d fa32 85bd 218c d43d
000000e0: fbee 9d3d 1343 cbbd 3b62 dd3c 4c5a 363d
000000f0: 8629 cfbc f2b4 29bd 4153 6dbd 5470 003e
00000100: f4df cbbd fe1e e2bd 3253 ca3c 928a 1b3d
00000110: 89e4 9ebd 2ff2 0a3d 8343 6b3c d20d 2cbc
00000120: e525 9ebd a766 db3c a0b9 17be 09b2 31be
00000130: ad5e 82bd b33f b63c 6acf a8bd 9e89 dcbc
00000140: 07d8 9bbc c4fe 033c a1a2 65bc d626 03be
00000150: c907 ed3d 394c 833d 5a7f 71bc df64 c0bc
00000160: 726e d63d 4164 44bd 4cf9 923d 3001 463d
00000170: c9ca 9cbd a260 bcbd 0e74 bf3d dff8 9f3d
00000180: be87 ffbc a3b7 9a3d cf92 b83d 1c07 983d
00000190: d29c 5d3d ab91 71bd 5f63 95bb 2e08 7b3d
000001a0: 3f00 a33d b126 7a3d 275c 16bd 8a9b 823e
000001b0: c2cb c3bd 075a e23b 559a d53a 9603 df3d
000001c0: aa44 a53c da2d b13d 9851 683d 56d9 8b3c
000001d0: 9be9 0bbd f84c cabb eb4b 9b3d eaa5 cfbd
000001e0: 58a4 a1bd 2543 a43d 0c63 9d3b 4120 09bd
000001f0: 7068 063e 8341 85bc 78e3 15bb 9c06 d6bd
00000200: 5069 c6bd 59fe 463d 447f fbbc 960e 493d
00000210: df4b 3cbd 9c5c 98bd c212 ae3d 4d2d bcbd
00000220: 3367 b3bc c316 8bbd 14c2 963c 157d db3d
00000230: 7063 b73c 89ee 693d 35ce 8b3c 7d0b 49bb
00000240: 7efa e53c 7857 11bb da97 993c 6721 cc3b
00000250: 0162 f03d 4731 b0bb d836 133e 610d a13d
00000260: 2c70 aabd c904 9ebd 5f91 903d f725 b4bd
00000270: 8b83 c03c 48b2 ae3c f665 e0bc 3d4f 34bd
00000280: 77db 8fbc 70f9 d53d de67 97bd 3b1e 123d
00000290: e9fd 393d e541 0d3e 16bc 693a 1ced 073e
000002a0: 3898 0bbe fc44 ba3d 421f 1a3d 0680 b93d
000002b0: 17b2 aa3d 586f abbc 7241 913c ef7f 4bbd
000002c0: 0668 e8bd ab50 e73c 4c91 03bd 1b54 7b3d
000002d0: 2762 cebb 0f87 60bd bfe6 05bd 620a 953d
000002e0: cd82 a33a 1801 f1bd f665 9a3d 141a e73d
000002f0: 0bf5 a0bc e1d2 d13d 0cde cf3d 39b0 acbd
00000300: 8c62 83bd c0bd 1a3d 5a1e 253d f3f3 e53d
00000310: 8f39 603d c037 843d b936 c4bc 995b c53d
00000320: b8b4 eabc 5f01 a6bc 0b30 5bbb 1a54 183d
00000330: 71f0 8c3d b01a 1a3e 5886 4dbd af67 1e3d
00000340: 210e 743d 45f4 ed3c 8919 aabc 1821 8a3d
00000350: 638c 0fbd 9b53 733d 34ce 923c 1411 0dbd
00000360: cea2 b43d 1353 6a3d cd93 5f3d 60fe d73d
00000370: 8f32 dcbc 8a7f b4bd 75af 0a3d 7cb6 77bc
00000380: 5beb 5c3b 5712 a63d 9875 033e 528f 2ebd
00000390: 6b94 123b 962d 923d f18c 763d 18d9 dcbd
000003a0: f092 bf3c 130c bfbc 6121 833d 189d 9bbb
000003b0: d613 ad3d 59b8 61bd 902c 94bd 2891 043d
000003c0: a460 c83d 7012 07bd faf9 68bd 2519 fe3d
000003d0: ef04 bcbd 1863 75bd 0eae b53d b86c 13bd
000003e0: 4609 1a3e 3867 b23d ff30 1ebd b036 6d3d
000003f0: ae0e 80bc 00bc 35bd 183b 22be 4e83 e9bc
-0.03376134 0.017714629 -0.09715283 0.025170678 -0.06329784 -0.022976054 0.020804232 -0.0054516285
-0.060193915 0.014224252 -0.028981423 -0.0235654 0.03781996 -0.09000482 -0.10006705 -0.038501807
0.053181652 -0.0929421 -0.07827477 -0.03214256 -0.02052697 -0.09759729 -0.031554315 -0.0051736697
0.017316896 0.122761376 0.012375144 -0.04066401 0.06550614 -0.102187686 0.023329472 0.047588307
0.070541546 -0.0005797798 0.069564536 0.036102653 0.0021738238 -0.106162146 -0.04024841 0.02853896
0.017440325 -0.1024747 -0.008724505 0.10347094 -0.07574653 -0.028087568 -0.023557639 -0.019971842
0.1510257 0.04323472 0.016600303 0.1501267 0.07933839 0.06292933 -0.06503864 0.1037829
0.077115975 -0.09924903 0.027024379 0.044519708 -0.025288355 -0.04143233 -0.057940725 0.1254285
-0.09954825 -0.110410675 0.024697874 0.037973948 -0.07758433 0.03392237 0.014359358 -0.010501342
-0.077220716 0.026782347 -0.14816904 -0.17353071 -0.06365714 0.022247171 -0.08242686 -0.02692109
-0.019023908 0.008056346 -0.0140158245 -0.12807783 0.115737505 0.06411023 -0.014739836 -0.0234856
0.104702845 -0.047947172 0.07176456 0.048340976 -0.07655866 -0.09198119 0.093483075 0.0781114
-0.031192657 0.07554557 0.090123765 0.07423231 0.054104634 -0.05897681 -0.004558965 0.061287098
0.07959031 0.061072055 -0.036708977 0.25509292 -0.09560348 0.0069077048 0.0016296605 0.10889356
0.020174343 0.086513236 0.05671844 0.017071407 -0.03415833 -0.006173726 0.075828396 -0.101390675
-0.07892674 0.08020619 0.004803067 -0.033478025 0.13125777 -0.01626659 -0.0022871178 -0.104504794
-0.096880555 0.04858241 -0.030700333 0.049086176 -0.045970794 -0.07439539 0.084996715 -0.09188328
-0.021899795 -0.06791451 0.01840309 0.10717217 0.022386283 0.05711225 0.0170661 -0.0030677014
0.028073546 -0.002217738 0.018749166 0.006229568 0.11737443 -0.005376968 0.1437639 0.0786388
-0.08322176 -0.077157564 0.07058977 -0.08796304 0.023500225 0.021325245 -0.027392369 -0.04402088
-0.017560704 0.10447967 -0.07392858 0.03567336 0.045408163 0.13794668 0.00089162716 0.13274044
-0.13632286 0.09095189 0.037627466 0.09057622 0.08334749 -0.020927116 0.017731402 -0.049682554
-0.11347966 0.028236708 -0.032120988 0.061359506 -0.0062983218 -0.054816302 -0.03269076 0.07277371
0.0012474895 -0.11767787 0.07538979 0.11284271 -0.019648096 0.102453 0.10149774 -0.08432049
-0.06415281 0.037778616 0.04031215 0.1122817 0.054742392 0.06455946 -0.023951875 0.096366115
-0.028650627 -0.020264326 -0.0033445384 0.03718958 0.06881798 0.15049243 -0.05017695 0.0386731
0.059583787 0.02904714 -0.02076413 0.067445934 -0.035045993 0.059405904 0.017920591 -0.034440115
0.08820115 0.057208132 0.054584313 0.10546565 -0.026879577 -0.08813389 0.033858735 -0.015119191
0.0033709619 0.08108967 0.12837827 -0.04261715 0.0022366296 0.07137601 0.060193006 -0.10783595
0.023385495 -0.023321187 0.06402851 -0.0047489516 0.08451049 -0.05510745 -0.07235062 0.032364994
0.09784058 -0.032976568 -0.05687902 0.1240714 -0.091806285 -0.059908956 0.08871089 -0.035992354
0.150426 0.08711094 -0.038620945 0.057913482 -0.015632 -0.044368744 -0.15842855 -0.028504994

encoder_faltten.1.cnn.bias f4 [16]
00000000: 9f81 c83d 5c38 0a3c a7a6 243d 5863 b03d
00000010: 902c 363d 6fb2 6e3d efab e03c c1fb a4bd
00000020: d227 6cbb 566b 4e3d 6739 03be 7e1f 02bb
00000030: e761 b83d 078b efbd ceda 443d 3e54 9cbd
0.09790348 0.008436289 0.040197995 0.08612698 0.04447609 0.058275636 0.027425734 -0.08055831
-0.0036034477 0.050395332 -0.12814866 -0.0019855197 0.090030484 -0.11696439 0.04806023 -0.076332554

encoder_unfaltten.0.BachNorm.weight f4 [10]
00000000: 0000 803f 0000 803f 0000 803f 0000 803f
00000010: 0000 803f 0000 803f 0000 803f 0000 803f
00000020: 0000 803f 0000 803f
1.0 1.0 1.0 1.0 1.0 1.0 1.0 1.0
1.0 1.0

encoder_unfaltten.0.BachNorm.bias f4 [10]
00000000: 0000 0000 0000 0000 0000 0000 0000 0000
00000010: 0000 0000 0000 0000 0000 0000 0000 0000
00000020: 0000 0000 0000 0000
0.0 0.0 0.0 0.0 0.0 0.0 0.0 0.0
0.0 0.0

encoder_unfaltten.0.BachNorm.running_mean f4 [10]
00000000: 0857 90bc 45e6 f3bc 8d60 fa3a 1a82 4b3d
00000010: cc43 293c 72bc 203d b409 153d 913c 1abd
00000020: 6aed 6bbc d7e3 c4bc
-0.017619625 -0.029772887 0.0019102261 0.04968462 0.010331105 0.039242215 0.036386207 -0.037655417
-0.014399866 -0.024034424

encoder_unfaltten.0.BachNorm.running_var f4 [10]
00000000: 14d1 673f 5e41 673f 07f4 663f 3bc8 673f
00000010: cbfb 673f 5538 673f a611 673f 9f4c 673f
00000020: 1b4c 673f 1726 673f
0.905534 0.9033412 0.90216106 0.905399 0.9061858 0.9032033 0.90261304 0.9035129
0.903505 0.90292495

encoder_unfaltten.0.cnn.weight f4 [10, 1, 3, 3]
00000000: 8056 98be cb2f a1be 4205 343e 4879 3dbe
00000010: 8347 1cbe e0a3 4d3d 0083 9e3c 387e 52be
00000020: c645 5f3e 7446 9abd 0afa 4b3e 27b9 8b3e
00000030: f6ae 67be 5d88 873e f67e 50be 0c10 8dbe
00000040: 9239 703e d07d 18be 5072 f7bc 00f5 f6bc
00000050: 30cc cabc f861 92be 4807 213d 0ef8 64be
00000060: abe8 5fbe e0e3 a13d 18de 083d 5006 be3c
00000070: a775 933e a0c5 f3bd f906 813e c27a 433e
00000080: a3cf 803e 328c 2f3e 78c9 7dbd ebfe a13e
00000090: 3cd3 da3d 10ac 01be 2393 9d3e b50b a63e
000000a0: e8d1 56be f549 a93e 46ea 9dbe 5b07 803e
000000b0: d267 7d3e ad19 9a3e 35c1 853e a793 893e
000000c0: 2048 753c 0cc2 95be a083 8a3d d074 e6bd
000000d0: 5c63 8cbd 00d1 37bd 923c 663e f66c 443e
000000e0: 207a febd 8e8b 09be f648 663e 76d7 29be
000000f0: 8a7a 403e de2d 3dbe 48a4 15bd 06ca 553e
00000100: 16d1 9abe 70aa 77be 2b02 843e 28fa 3bbe
00000110: e037 ddbd a04c 26be 4808 67bd cb40 41be
00000120: 5eb5 22be d859 40be 0e05 643e 1bff 8e3e
00000130: 00ab 823a 36b5 753e dad6 93be 7222 453e
00000140: b476 de3d 03de 5dbe 3c77 fabd 43b3 74be
00000150: e8d5 7bbd 2a73 663e dc0a a1bd 50d2 fc3d
00000160: a871 11bd 9075 96be
-0.29753494 -0.31481776 0.1758013 -0.18503296 -0.15261655 0.05020511 0.019349575 -0.20555961
0.2180396 -0.07532969 0.19919601 0.27289698 -0.22625336 0.26471224 -0.20360932 -0.27551305
0.23459461 -0.14891744 -0.030205876 -0.030146122 -0.024755567 -0.2859037 0.039313585 -0.2236025
-0.218661 0.07904792 0.03341493 0.02319637 0.288007 -0.11902928 0.25200632 0.19089797
0.25158414 0.17143324 -0.061959714 0.316398 0.10684821 -0.12663293 0.3077632 0.32430807
-0.2097851 0.33064237 -0.308428 0.25005612 0.24746636 0.30097714 0.26123968 0.26870462
0.014970809 -0.2924961 0.06763387 -0.11252749 -0.06854889 -0.044877052 0.22484043 0.1918219
-0.12425637 -0.13432142 0.2248877 -0.16586098 0.18796745 -0.18474528 -0.036533624 0.20877847
-0.30237645 -0.2418611 0.25782904 -0.18357146 -0.10801673 -0.16240168 -0.056404382 -0.18872373
-0.15889499 -0.18784273 0.22267553 0.27929005 0.0009969175 0.23994908 -0.28874856 0.19251421
0.108624846 -0.21666722 -0.122297734 -0.23896508 -0.061483294 0.22504869 -0.078633994 0.123448014
-0.03550878 -0.29386568

encoder_unfaltten.0.cnn.bias f4 [10]
00000000: 9481 f93d 0e1a a0be 8dc4 9d3e 6c30 98bd
00000010: 5fa0 98be 2edf 623e b525 913e c887 24bd
00000020: 24f2 a4be 9c00 823d
0.12182918 -0.31269878 0.3081402 -0.07431111 -0.29809853 0.22155449 0.2834908 -0.040168554
-0.3221599 0.063477725

encoder_unfaltten.1.BachNorm.weight f4 [16]
00000000: 0000 803f 0000 803f 0000 803f 0000 803f
00000010: 0000 803f 0000 803f 0000 803f 0000 803f
00000020: 0000 803f 0000 803f 0000 803f 0000 803f
00000030: 0000 803f 0000 803f 0000 803f 0000 803f
1.0 1.0 1.0 1.0 1.0 1.0 1.0 1.0
1.0 1.0 1.0 1.0 1.0 1.0 1.0 1.0

encoder_unfaltten.1.BachNorm.bias f4 [16]
00000000: 0000 0000 0000 0000 0000 0000 0000 0000
00000010: 0000 0000 0000 0000 0000 0000 0000 0000
00000020: 0000 0000 0000 0000 0000 0000 0000 0000
00000030: 0000 0000 0000 0000 0000 0000 0000 0000
0.0 0.0 0.0 0.0 0.0 0.0 0.0 0.0
0.0 0.0 0.0 0.0 0.0 0.0 0.0 0.0

encoder_unfaltten.1.BachNorm.running_mean f4 [16]
00000000: a0b4 4dbc 2027 d7bc 1928 87bc 89d1 0e3c
00000010: e199 19bd e217 043d c692 9abc c4de 2dbd
00000020: 72e6 b1bc b533 70bb 8395 10bc 9a78 98bd
00000030: a01c 06bd 9b6e 46bc 5d72 24bc 1b83 36bd
-0.012555271 -0.026263773 -0.016498612 0.008716949 -0.037500266 0.03224934 -0.018868815 -0.042448774
-0.02171633 -0.0036651914 -0.008824709 -0.07444878 -0.032742143 -0.012111331 -0.010037032 -0.044558626

encoder_unfaltten.1.BachNorm.running_var f4 [16]
00000000: ca72 693f 144d 693f 176b 693f ea7e 6a3f
00000010: 477a 683f 5e1a 693f c4ab 683f 4ac3 693f
00000020: e77a 693f a8b3 683f 25ac 693f 26de 6d3f
00000030: 4c62 693f 7d8f 693f 134d 693f 4f7f 6b3f
0.9119078 0.91133237 0.9117903 0.91599905 0.9081158 0.9105586 0.90887094 0.9131361
0.9120316 0.90899134 0.91278297 0.92917097 0.91165614 0.9123457 0.9113323 0.9199113

encoder_unfaltten.1.cnn.weight f4 [16, 10, 3, 3]
00000000: 5008 dcbc 68a1 b7bd c09a a0bc ed46 38bd
00000010: f7b9 c13d c09b cfbc 05cc 903d 4c47 a0bd
00000020: 7426 ce3c b71d ca3d 1c73 d33c 94f8 cabd
00000030: 4706 b93d 5406 9ebc 20aa 783c 20d5 50bd
00000040: a869 6abc f14c d2bd d295 0b3d eb82 ae3d
00000050: 96d3 6abd b8ad 48bd aa00 113d 4cdd c8bd
00000060: 688e a1bc e257 083d 34e6 0abd 009d e93b
00000070: 69c0 a43d 416c c83d e639 4abd 7aec 593d
00000080: 7453 c93c 00b9 bdb9 d639 2ebd daa8 7d3d
00000090: 6016 3f3b 36f6 1a3d 4767 65bd 4273 05bd
000000a0: 1ee4 6e3d 677d cb3d 8c20 cdbc 54b1 aa3c
000000b0: 18ff 61bc e111 b03d 00db 32bb 2901 ca3d
000000c0: 80c3 663c e171 a43d 0693 0fbd fd95 963d
000000d0: e045 cc3b c053 4e3c 6076 793b b0f7 5bbc
000000e0: 4878 1d3c 50b9 823b 2b5d 8c3d 5406 e8bc
000000f0: 0940 38bd 4532 a23d 6fcd c6bd 9c79 b6bd
00000100: f625 623d 8738 9f3d 77ca 9b3d f225 aabd
00000110: 9e95 023d 40c6 d1bb e0c5 b2bc 7c99 9ebd
00000120: f58b 96bd fc03 acbc fc10 b3bc a663 2f3d
00000130: 72e7 d4bd 565e 6a3d 74d3 a2bc c047 6fbc
00000140: 91e1 babd a0b9 acbb df29 9e3d 1ecf 4cbd
00000150: 7744 bcbd 4354 853d d28d 2cbd 167f 3c3d
00000160: 9404 b1bc 268b 3bbd b159 4ebd 7f7f 963d
00000170: 8220 82bd 86e7 703d 787b 3ebc 801a d93a
00000180: 8acd 353d 6b91 d4bd 89f9 a6bd be8d 133d
00000190: 00d9 2abb 062e 6dbd a025 14bb baab 303d
000001a0: 64c6 8bbc ee9f a9bd acd0 b9bc 406a 87ba
000001b0: 53b3 d6bd 681b a3bc 9883 2f3c 3fa8 d73d
000001c0: e271 793d 069a 91bd 8d93 b93d f2f2 abbd
000001d0: dd02 d53d f683 aabd 209f 3bbd a002 fd3b
000001e0: ec34 87bd f0b1 0abc ac74 bebd 689c 563c
000001f0: cc03 a93c ca14 d3bd 6ec6 303d 993b a2bd
00000200: 581e bfbc faab 30bd d686 a5bd 1f78 5ebd
00000210: 923e 363d dbad c7bd b277 553d c5b0 8bbd
00000220: a8d2 8c3c 2ed2 08bd 5180 95bd 4dd1 b13d
00000230: fd4f b83d 387a cbbc a002 fabb 0f0e 8f3d
00000240: 80cd 88ba efef b33d 8ee9 793d bf97 b43d
00000250: 18c9 a5bc cf2d bd3d 9e41 4d3d 8ca7 32bd
00000260: 0227 83bd 1a29 43bd 78c2 4abc fa20 7d3d
00000270: 481c f0bc f07e 163c 05b4 cd3d b9e7 bb3d
00000280: 0070 50ba ebbe 953d d2fc 373d 3b79 58bd
00000290: d660 d6bd e1f2 4abd 6fa6 8f3d b6fb 02bd
000002a0: e096 dbbb ba86 c1bd 6656 133d 739f 923d
000002b0: 273f d63d 68aa 2dbd af80 8e3d b89b a2bc
000002c0: ac18 9e3c 2731 bf3d 140a 10bd 38c7 8cbc
000002d0: 28b7 4c3c e07a 6bbb 035d cbbd b633 5c3d
000002e0: 1e11 483d 06c4 8bbd e416 66bd 2608 0d3d
000002f0: d0f3 2cbd b793 b7bd 1ab4 2d3d 98d0 0bbd
00000300: 6ba7 82bd 16eb 463d 7c2b a8bd 009e babc
00000310: 3208 00bd 58cb 45bc 1864 22bc d3cf bc3d
00000320: 905a 82bc 1893 4ebc 6cfb fb3c c07c 363c
00000330: 5669 d4bd 2130 c93d 64d4 dc3c b78b aebd
00000340: 6a54 78bd ac3a 95bd 22fa 80bd ad3f 883d
00000350: d0e4 d4bb 479f 65bd a285 243d e4ae efbc
00000360: 5fd0 8dbd 6a2d 313d 151c b23d ab3c b53d
00000370: 8836 8b3c 9c5b 19bd e2d8 bbbd d412 88bc
00000380: c82f 7abc 64ef 27bd f06a debb f899 e1bc
00000390: 60f8 7a3c 95df d53d 481f 8abd f5f3 9c3d
000003a0: 2e3b d6bd 803a e1ba 67ea b93d c96d b23d
000003b0: b80c aabd 4bbf 8b3d 84a5 cdbc e605 5b3d
000003c0: 6d63 973d fc6c 24bd 9ef5 0a3d 4ba3 b73d
000003d0: e06e bfbc 106c 7ebd fec3 1f3d 0189 33bd
000003e0: 3c97 db3c 63b2 c63d dd56 c1bd 4a6c 2f3d
000003f0: 5287 553d 3622 053d b582 37bd 9bdd 9d3d
-0.026859432 -0.08966333 -0.01960504 -0.044989515 0.09459298 -0.025342822 0.07070164 -0.07826099
0.02516482 0.09868949 0.025811724 -0.09910694 0.090344004 -0.019290127 0.01517728 -0.0509845
-0.014307417 -0.10268582 0.034078427 0.08521064 -0.05733069 -0.048993796 0.035401024 -0.09807834
-0.019721225 0.033286937 -0.033910945 0.0071293116 0.08044512 0.09786273 -0.049371623 0.053204037
0.024575926 -0.00036186725 -0.042535625 0.061928608 0.0029157624 0.03783246 -0.056006696 -0.03258062
0.05832302 0.09936028 -0.025039934 0.02083651 -0.013793729 0.0859716 -0.0027291179 0.098635025
0.014084697 0.08029533 -0.03505232 0.07352827 0.0062339157 0.01259321 0.0038064942 -0.0134257525
0.009611197 0.003989376 0.06853708 -0.02832333 -0.044982944 0.079197444 -0.09707152 -0.08909914
0.055211984 0.077744536 0.076069765 -0.08308019 0.031880967 -0.006401807 -0.02182287 -0.077441186
-0.073509134 -0.020997994 -0.021858685 0.04281964 -0.10395707 0.057218872 -0.01987622 -0.014604509
-0.09125055 -0.0052711517 0.0772283 -0.05000221 -0.09192746 0.06510212 -0.042127438 0.046019636
-0.021608628 -0.045787 -0.050378505 0.07348537 -0.063538566 0.058814548 -0.011626117 0.0016563684
0.04438547 -0.10379299 -0.08153064 0.036023848 -0.0026069283 -0.05790522 -0.0022605434 0.04313252
-0.017062373 -0.08282457 -0.02268251 -0.0010331348 -0.10483422 -0.01991053 0.010712527 0.10530137
0.060899623 -0.07109456 0.09061346 -0.083959475 0.10400937 -0.08325951 -0.04580605 0.00772126
-0.06601891 -0.008465275 -0.09299597 0.013098814 0.020631693 -0.103066996 0.043157987 -0.079215236
-0.023329899 -0.04313276 -0.080823585 -0.054313775 0.044493265 -0.09749957 0.052116103 -0.068208255
0.017190292 -0.033403568 -0.07299865 0.08682499 0.089996316 -0.024838552 -0.0076297075 0.06985103
-0.001043722 0.08785998 0.06101375 0.08818006 -0.02023749 0.09237253 0.050111406 -0.043616816
-0.064039245 -0.04764662 -0.0123754665 0.061799027 -0.02931036 0.009185538 0.100441016 0.09175057
-0.00079512596 0.07311805 0.044918843 -0.05284999 -0.10467689 -0.049548034 0.070141666 -0.03197833
-0.0067013353 -0.09449525 0.035971068 0.07159319 0.10461264 -0.04239884 0.06958138 -0.019849643
0.019298874 0.09335547 -0.03516586 -0.017184839 0.01249484 -0.0035931394 -0.0992985 0.053760253
0.04884445 -0.06824498 -0.056174174 0.0344316 -0.042224705 -0.08963721 0.042408086 -0.034134477
-0.06379589 0.04856404 -0.08211419 -0.022780418 -0.031257816 -0.012072407 -0.0099115595 0.09219327
-0.015912324 -0.012608312 0.030759536 0.011138141 -0.10371654 0.09823633 0.026956744 -0.08522742
-0.06062738 -0.072865814 -0.06297709 0.0665277 -0.006497003 -0.0560601 0.040166505 -0.029258199
-0.06924509 0.0432562 0.086967625 0.08849462 0.016993776 -0.03744088 -0.091722265 -0.01661054
-0.015270181 -0.040999785 -0.0067876503 -0.027539238 0.015318006 0.104430355 -0.06744248 0.076637186
-0.104605064 -0.0017183572 0.09077912 0.08712346 -0.08303207 0.068235956 -0.025103338 0.053472422
0.07392011 -0.040142998 0.033925645 0.089666925 -0.023368299 -0.062114775 0.039005272 -0.04383183
0.026805513 0.09701993 -0.09440396 0.042827882 0.052131005 0.03250333 -0.044802386 0.077082835

encoder_unfaltten.1.cnn.bias f4 [16]
00000000: eda9 d5bd 455c d4bd 00fe ae39 d80a 89bd
00000010: c827 4fbd e964 c63d 038c 883d 0025 e83a
00000020: 03f7 b5bd 26ba a8bd 80ba 33bb 3042 283c
00000030: 90e1 c53b c656 4d3d 7891 993c c0bb 623c
-0.104328014 -0.103691615 0.0003337711 -0.066915214 -0.050575048 0.09687216 0.0666733 0.0017711222
-0.08885004 -0.0823863 -0.0027424395 0.010269687 0.006038852 0.05013158 0.018746123 0.013838708

embedding.weight f4 [10, 8]
00000000: e21a 2fbf 26a4 4ebf 210b 9bbe 9444 b2bf
00000010: 9cd6 efbf 6e95 163f 9b88 f03e a404 37c0
00000020: 3bd5 46be c5ed 8f3f 81b6 cb3e 5745 86bf
00000030: 766a 0840 9049 1e3f 7b1c 15bf 5a0f ffbf
00000040: f805 8b3e 11fc 39bf 0524 5cbf 68b3 02bf
00000050: 319f b3bf 660e 0c40 8d79 9e3f 6f0f eebe
00000060: 6631 483e 007b e03e 9c07 78bf 1e7a f23e
00000070: 9b67 1ac0 f034 19bf 7cfd 773f 4a5d 0e3f
00000080: 7445 0c40 798c 35bf 7369 0a3f 0da0 723f
00000090: fbed 293e 0d68 483e 0e44 0740 54aa 683e
000000a0: 73e9 8a3d b069 6fbe d8c7 b3be 8c3c dfbf
000000b0: d19b 743f a5fe 8cbf 195f 283e 47ca b53e
000000c0: 6110 af3f 2e43 5c3f f771 c1bf 27db e33e
000000d0: 9f52 6f3f 146d 1ebe 81d4 5d3f 07f2 85bf
000000e0: b6b5 9a3d ee4d 1dbe 3ec5 273f ebd0 c6be
000000f0: b6d0 3d3f bf18 a83f 3c25 d9be e3ee c8be
00000100: 2724 2e3e a18c 733f f24e 94bf 11d3 3abe
00000110: fb0c 80bf bc36 b0be 2d6d 1340 97c2 33c0
00000120: 8768 59bf 9e90 f03d 0dfb c6bf a03d febe
00000130: b5fe 8fbf 07b9 babd d6bd dcbc 5f6c 25bf
-0.68400395 -0.8071922 -0.30281928 -1.3927178 -1.8737369 0.5882176 0.46979222 -2.8596582
-0.19417278 1.1244437 0.39787677 -1.0489911 2.1314979 0.61831 -0.5824658 -1.992656
0.2715299 -0.7265025 -0.8599246 -0.51055 -1.4032956 2.1883788 1.2380844 -0.4649615
0.19550094 0.43843842 -0.9688661 0.47358793 -2.4125736 -0.598464 0.9687116 0.556111
2.191739 -0.7091747 0.5406715 0.9477547 0.16594689 0.19570942 2.1135287 0.22721225
0.06782808 -0.2338016 -0.35113406 -1.7440352 0.95550257 -1.1015211 0.16442527 0.35505888
1.3676873 0.8604001 -1.5112904 0.44503137 0.93485445 -0.15471298 0.8665238 -1.0464486
0.0755419 -0.15361759 0.6553534 -0.38831267 0.7414659 1.3132552 -0.4241122 -0.39244756
0.17005979 0.9513646 -1.1586592 -0.18244578 -1.0003961 -0.3441676 2.3035386 -2.8087518
-0.8492512 0.117463335 -1.5545365 -0.4965639 -1.1249605 -0.091173224 -0.02694599 -0.64618486

decoder.1.BachNorm.weight f4 [16]
00000000: 111f 833f c091 833f 7f27 7d3f a410 673f
00000010: 5a20 6e3f 87af 843f b1f8 793f 5d1a 803f
00000020: 5a66 813f 4512 853f bb9f 813f f769 743f
00000030: 379f 743f a73f 803f 2509 843f a402 773f
1.0243856 1.0278854 0.9888839 0.90259767 0.93018115 1.0366067 0.976451 1.0008045
1.010936 1.03962 1.0126871 0.9547419 0.9555544 1.0019425 1.0315291 0.96488404

decoder.1.BachNorm.bias f4 [16]
00000000: 9e1b 0bbe a734 dfbd 7e43 3abe edd9 85bd
00000010: 026b dabd 8e59 3bbe eb35 15bd 0190 79bd
00000020: eeae b9bd c1a7 f8bd c661 6cbd 376f d9bd
00000030: 51fe aebc 3e9c 50be 62bc acbd 6cc6 aebc
-0.13584754 -0.108987145 -0.18189809 -0.06535707 -0.10664941 -0.18295881 -0.036428373 -0.06092835
-0.09066568 -0.121413715 -0.05771043 -0.10616916 -0.021361502 -0.20372102 -0.08434369 -0.02133485

decoder.1.BachNorm.running_mean f4 [16]
00000000: e3b3 253e a3cb d93d 2c7d 10bd f5d9 8ebd
00000010: 108d d5bd 3cf4 6dbe ec2a 6a3d f4f0 7abe
00000020: 52b8 59bd 18c4 3bbd 25ca aebe f45f 9ebd
00000030: 8698 e2bd 512b 2abd e4fb 1bbe 3b96 5abe
0.16181903 0.10634544 -0.035275623 -0.06975166 -0.10427296 -0.232377 0.05716984 -0.24505979
-0.053154297 -0.045841306 -0.341386 -0.07733145 -0.11064248 -0.041545216 -0.15232807 -0.21346371

decoder.1.BachNorm.running_var f4 [16]
00000000: e385 c53e d361 c73e f694 ca3e fe97 f53e
00000010: 30b4 de3e 1409 003f 6ae0 b53e 2419 233f
00000020: 08ce e63e 67ad 093f 6338 eb3e cc02 003f
00000030: cd94 e63e 51be c13e 8b8e ed3e 1a46 043f
0.3857871 0.3894182 0.39566773 0.47967523 0.43496847 0.5001385 0.35522777 0.63710237
0.45079064 0.53780216 0.45941457 0.5000427 0.450354 0.37840512 0.46397814 0.51669466

decoder.1.cnn.weight f4 [16, 16, 6, 6]
00000000: c8fb 0dbc 7ae3 5dbb 5253 87bd 0281 733c
00000010: 8c4f 51bc e259 843c f7be 19bb 78ca 6a3d
00000020: 13fb b73c df5a 193c 33b2 27bc 67de 573d
00000030: 7dce 51bd 38a5 2bbd eb96 aa3b a5b0 013e
00000040: 89d3 13bc 923d 8dbd e52c 213e c0bb 8f3d
00000050: 0541 633d 7dd7 f53d 1544 423d dc57 de39
00000060: 1eea 72bd b8e5 153d de79 7a3d d30b b93d
00000070: daa7 b3bc 32a4 f13a ece6 54bd 1926 3cbd
00000080: 4d5d d2bd d342 1a3d 6a88 b93c 587a 033d
00000090: 994b 29bd 86a7 d6bd b9e7 91bc 45bc 7f3a
000000a0: fe80 9a3c cffc a4bc aa10 3cbd 5816 653d
000000b0: 5345 803d 094b e43c 82c2 9c3d e7a7 bd3d
000000c0: 0da3 99bb 90ee 833d 143d 08bd d50f 1cbe
000000d0: 2d97 4f3c d7fd 8bbd d590 153c bec9 eb3c
000000e0: ca21 893c 678f 1b3e 7dda b5bc ce31 b9bd
000000f0: a117 fdbc c080 dfbc a130 a7bb 7c3d fa3c
00000100: 3386 a6bd 7183 f7bc 1bf2 f03b 6177 303d
00000110: 44a6 c13d 01f9 7f3d 44f3 69bd 35ca 02bd
00000120: baa9 b93a 80da 8b3c 4cac df3c 4b21 a9bd
00000130: 3c6f 1a3d 680f e8bd 6142 0ebd 3dde 423d
00000140: f67a 813c bd91 95bc a856 853d 0c15 b33d
00000150: e465 2c3d d2cb ea3c e4ca 63bd 5fa1 773d
00000160: 4b5d 903d d2fe 90bc 6d10 d93c 38fe 41bc
00000170: 2971 c9bd d0e0 af3b 9bdd 7bbd 0d46 92bd
00000180: 996b 973d 0c26 92bd b83d b43d f0c2 6a3d
00000190: 9f0e 3abd 34a9 28bd 1c17 8fbc 69b3 7abd
000001a0: 7460 253d 0c6d 413d 1f80 aabd 0cf6 7ebd
000001b0: 2bf9 0c3c ac60 06bd 1a50 583d 3070 833c
000001c0: f984 633b a798 3e3d 4097 3ebd 0628 4dbd
000001d0: ac97 97bd 8e5d 983d d1aa e7bc 2b11 fb3c
000001e0: bb13 383b f09d 163e f05d 743d 58c4 843d
000001f0: 1ba8 543c 99fb a8bd d91b c7bc 99d5 2ebd
00000200: 00bb 8cbd d7f4 3abc 68ec e33b ad1c 4abd
00000210: fe06 39bd e6a5 e1bd bf7c 173c 31f2 293d
00000220: ac0e 6ebd 0ec3 c4bd 49bd b1bd 4f22 383d
00000230: 627b ae3d 8b64 1cbe 2d4a 5f3b e3bf 3bbb
00000240: 186b 203b 7c87 e2bc b3ce 5c3c 7431 bbbc
00000250: e6e0 1dbc 0808 cabb a081 1e3d c52d bc3c
00000260: 6558 a6bd 19cd df3d ec86 2fbd 36ce f03c
00000270: ffb9 5fbd 1404 c33d 95de 753d 5327 e0bd
00000280: 770c 0abd 4ad6 173d 6c13 b6bd b56f 763c
00000290: d3f0 4e3d 7f35 f5bd 230b 34bc 4cb0 ebbb
000002a0: 53b9 6e3d 14ae 143d fc7d a83d 09d6 243c
000002b0: 068a 843c 569b 2bbd 72d3 c6bb f717 883c
000002c0: 675f a6bc ed97 cc39 2d69 2b3d 2901 cabc
000002d0: 2824 5ebd f027 80bc 2d9d bdbd 5fa0 29bd
000002e0: 2661 23bd 1cca 41bb 6244 523a 0f52 66bd
000002f0: 96ff 9e3d 0c46 303d 3fcb 043d b0a0 953d
00000300: bc38 3dbd c62f edbd e961 9a3c c834 8a3d
00000310: c1b7 c8bd dc80 12be 6ff3 1b3d 271e d8bc
00000320: 6630 48bd 16f2 08bd 0f0b 5e3d fb34 353d
00000330: d958 b9bc 134f 84bd fe55 3cbe c826 3cbd
00000340: c6ac c13c 700f 1dbc 5b3e 4b3d 99cd 44bd
00000350: 0988 2abe 02f6 04be afe4 83bc 893e 0fbd
00000360: 1e11 61bc 79ec eb3c 22bc 82bc 7c9f b0bd
00000370: 81ed 1b3d 4c67 a3bc a08a 68bd c3a2 f13c
00000380: 9b1b ebbb b075 fe3a 9cf0 603d 4c1e 02bc
00000390: 679d 3b3d c4dd 853d 96c2 ea3c fe97 a23c
000003a0: fd80 233c 1ec3 06bd c013 6e3c f8c4 963d
000003b0: 2003 0cba 3e36 883d 8c3e 65bd 6112 1fbd
000003c0: aef6 2abd 1c39 a5b9 0255 ff3b 165c 1e3d
000003d0: 82cd a0bd feef debc 31fa 883d d33c 8d3d
000003e0: be95 04bb 4f8a 8cbc 6e35 93bc ea5b 12bd
000003f0: 7c8f adbd de7d bbbc bf1a a93c 315e a0bb
-0.008665986 -0.003385751 -0.06607689 0.014862301 -0.012775313 0.01615614 -0.0023459771 0.057321995
0.022458589 0.009360044 -0.010235357 0.052702334 -0.051222313 -0.04190561 0.005205979 0.12665041
-0.009022602 -0.06896509 0.15739782 0.07018232 0.05548193 0.12003992 0.04742821 0.000424086
-0.059305303 0.03659603 0.061151378 0.090354584 -0.021930624 0.0018435775 -0.051978037 -0.04593477
-0.10271702 0.037661385 0.022648055 0.032099098 -0.04133186 -0.10481171 -0.01781069 0.00097555324
0.018860336 -0.02014008 -0.04591433 0.05592951 0.062632225 0.02786781 0.07654287 0.092605405
-0.0046886266 0.064419866 -0.033261374 -0.15240414 0.01267032 -0.068355255 0.009128769 0.028782722
0.016739745 0.15191422 -0.02219891 -0.090427026 -0.030895056 -0.027283072 -0.0051022326 0.030546896
-0.08131065 -0.030214043 0.00735308 0.0430826 0.09455541 0.062493328 -0.05711676 -0.03193112
0.0014164962 0.017071962 0.027303837 -0.08258303 0.037703738 -0.113310635 -0.034731273 0.047575224
0.015805703 -0.01825797 0.06510669 0.08744249 0.042089358 0.028661642 -0.055613413 0.06045663
0.07049044 -0.017699633 0.02649709 -0.011840396 -0.09836037 0.005367376 -0.061490636 -0.071422674
0.073935695 -0.07136163 0.088008344 0.057314813 -0.0454241 -0.04117699 -0.017467074 -0.061206255
0.040375188 0.047223136 -0.083252184 -0.062246367 0.008604328 -0.032807037 0.052810766 0.016044706
0.003471671 0.0465323 -0.046530962 -0.050086997 -0.07401976 0.07439719 -0.028279694 0.030647835
0.0028087932 0.14708686 0.0596599 0.06482762 0.012979533 -0.082511134 -0.024305271 -0.04268417
-0.06871605 -0.011410913 0.006955672 -0.049343754 -0.045172684 -0.11017971 0.00924605 0.041490737
-0.05811946 -0.09607516 -0.086786814 0.044954594 0.08519627 -0.15272729 0.0034071312 -0.002864831
0.0024477895 -0.027652495 0.013477015 -0.02285073 -0.0096361395 -0.006165508 0.03869784 0.022971043
-0.08122329 0.10927791 -0.04285328 0.029395204 -0.05462074 0.09522262 0.060026724 -0.109450005
-0.033703294 0.037069596 -0.08890423 0.0150412815 0.050522637 -0.11973094 -0.010988983 -0.007192647
0.058282208 0.036298826 0.082271546 0.010060796 0.016179096 -0.041896187 -0.0060676867 0.01661299
-0.020309163 0.00039023106 0.04184835 -0.024658756 -0.0542337 -0.015644044 -0.092584945 -0.041412707
-0.03988757 -0.002956993 0.0008021054 -0.0562306 0.07763593 0.043035552 0.032420393 0.07306039
-0.046196684 -0.11581378 0.018845515 0.067483485 -0.09800673 -0.14306968 0.038073953 -0.026381565
-0.04887428 -0.033433996 0.054209765 0.04423998 -0.022625374 -0.06460395 -0.18392178 -0.045935422
0.023641955 -0.0095862 0.049620014 -0.048047636 -0.16653456 -0.1298447 -0.016100256 -0.034971748
-0.013736991 0.028799282 -0.01595885 -0.08624169 0.0380683 -0.019946717 -0.056772828 0.029496556
-0.0071749217 0.0019413736 0.054916963 -0.007941794 0.045804407 0.06536439 0.028657239 0.019847866
0.009979484 -0.032900922 0.014531076 0.073617876 -0.0005341042 0.06650971 -0.055967852 -0.038835887
-0.04173916 -0.00031513802 0.007792116 0.03866204 -0.078516975 -0.027214047 0.06688345 0.06896367
-0.0020230855 -0.017155794 -0.017969813 -0.035732187 -0.08474633 -0.022887167 0.020642636 -0.004894041

decoder.1.cnn.bias f4 [16]
00000000: b4ab 1a3c 1066 973d 3bb1 d5bc 4146 aa3c
00000010: cf9c bc3b 4ec5 373d 3b7d 083e 7854 8dbd
00000020: 5de8 eabc 25ec 9b3d 6f89 9dbd cfff 3a3d
00000030: 90e7 dfbb d261 22bd 8913 3ebd d6cb bfbd
0.009440351 0.07392514 -0.026085487 0.020785453 0.0057559977 0.0448659 0.13329022 -0.06900877
-0.028675253 0.076134 -0.07692229 0.045654114 -0.0068330243 -0.03964407 -0.04640535 -0.093650505

decoder.2.BachNorm.weight f4 [10]
00000000: 5e93 923f 8cb3 983f 31bb 623f 368b a13f
00000010: 22c4 883f 3f9e 7a3f cf6e 803f da7a 8d3f
00000020: 82c5 753f e253 893f
1.1451223 1.1929793 0.8856688 1.2620609 1.0684855 0.97897714 1.0033816 1.1053116
0.960045 1.0728724

decoder.2.BachNorm.bias f4 [10]
00000000: 47ef 4cbe d270 2cbd 2b25 83be f32f debd
00000010: 697e 1abd 4b76 f23c 9898 86be 2d8e 1bbe
00000020: 6bb4 80be 637b 85be
-0.20013152 -0.04209978 -0.25614294 -0.10848989 -0.03771821 0.029597422 -0.26288295 -0.15190955
-0.25137648 -0.260707

decoder.2.BachNorm.running_mean f4 [10]
00000000: d683 b03d 6505 a03e 19b4 db3c 152b 153e
00000010: ffe4 67bd 0c0d 3a3e 5f90 b13d a431 333e
00000020: 1864 5f3b 5737 263e
0.08618896 0.31254116 0.026819276 0.14567216 -0.056614872 0.1816904 0.08670115 0.17499405
0.003408676 0.16232048

decoder.2.BachNorm.running_var f4 [10]
00000000: 06b7 583e fe0d 683e 3a24 f53d fcd9 6f3e
00000010: b283 4a3e f379 4c3e 1c96 233e 6508 323e
00000020: 0377 273e 7fe6 253e
0.21163568 0.22661588 0.119698 0.23422998 0.197768 0.19968395 0.15975231 0.17386015
0.16353993 0.16201209

decoder.2.cnn.weight f4 [16, 10, 6, 6]
00000000: 92c1 62bb a369 053d ba2e 9d3d 08b7 6e3d
00000010: aa38 cb3a 1c8c 5abd 40fa 00be d66c 85bd
00000020: 20e2 a73c 5adf 8abc 5aef 4a3c 6a34 e33b
00000030: ce95 103b 2b67 0d3e ace5 dd3d f35f 11bd
00000040: f478 35bd 26d2 25bd 9c23 25be 8e9c a9bd
00000050: dbd4 973d a664 21bc 2ef5 1dbd 5111 07be
00000060: 8216 dcbc 5dcd b93d cf56 0e3e 6a47 b73d
00000070: 53ee 0cbd 61c7 a2bc 5d46 5cbb c44f d5bd
00000080: 073b da3c 53bf 18bd 19cc c6bd 3293 90bd
00000090: 0c88 133d 6bb8 693d aaa3 a8bc 3974 0cbd
000000a0: 5649 f33b d062 f4bc 3f7a e23c d7a8 34bb
000000b0: 9c3e 053c fa61 90bc 1060 05bb 173b 39bd
000000c0: 4d31 f23c dc3b 183d 4629 d13d 91a9 6cbc
000000d0: 9a73 67bd d3ea 3dbc cfa1 52bc 6017 9e3c
000000e0: 4e69 5b3d e7de a13d 30a0 b23d cb1a 00bc
000000f0: 8eae 253c 18dc 7b3d dbc1 813d 94c5 c43d
00000100: 9b16 ad3d 072b 84bd 6b38 2dbd d8d0 be3c
00000110: b54f a63d 0133 943d f541 fd3c c03d b4bd
00000120: ee09 4dbd 5b31 63bd a6b5 acbc 0ad3 8db9
00000130: e607 ae3c 1066 2e3d e847 003d 7164 b0bd
00000140: 1d7a d6bc e58e 39bd 1992 1a3d 09c8 40bd
00000150: 4888 93bd af1a 663d 77b3 febc d7e6 03be
00000160: 8d98 05bd 7f20 dbbd f27d 253c fa95 163c
00000170: 6da8 5f3c 5e18 453d 5e82 ac3c 6dc2 78bd
00000180: 4c40 823d e9a0 9bbd a973 cfbd dac3 f9bc
00000190: 8fdd 983b 39f8 36bd b91d 593d cbb7 8fbd
000001a0: a4a9 c03b 684a 13bd bc90 67bd 0dba a0bd
000001b0: 4f5f 4b3d 09e7 9d3d 05b4 3fbd 5ca3 51bc
000001c0: ccff abbb 395d 853c c43f 923b 35be ff3c
000001d0: 08c2 d83c d5df 163c 7f99 1a3d 4aae 8b3d
000001e0: 6dac 113d 7955 c93c 5f54 d03b e1fb 873d
000001f0: d74f 353c be6a 7bbb e984 6f3c 6643 dfbc
00000200: 8cb5 453c 94e9 093e e971 ac3d 3169 0b3c
00000210: d9c0 64bd 2b67 c4bd e30d d43c ae72 953d
00000220: 8aab 803d e2ac 973d 434c 7f3d ecf0 b2bc
00000230: de6f 1f3d f1fe f23c 2a00 e23d a94c 463d
00000240: 8f46 41bd de06 e6b9 9215 903c 4aff 67bc
00000250: 6f04 81bb 9e98 3abc 407f fb3c 208f d7bd
00000260: b732 6abd f3c4 dbbc 254c af3b 14c7 b6bd
00000270: d79a 013d abd0 da3c 36be 44bc a969 9abc
00000280: 8b39 aabd 739a f23d 8cd6 dbbd 66f3 903d
00000290: a873 53bd 578e 193d aa1f a0bd 8934 213d
000002a0: 52d0 1fbe f48d 05bc 2a50 80bd ca1e 373d
000002b0: 1e59 3b3d e60b 29bd f689 adbd 1502 f7bc
000002c0: eefb e03c e30d 023d 5bde 603d 00a7 95bd
000002d0: 4e02 e03d 07cd 8e3d f989 1f3b 098f 2abd
000002e0: 830b bebd d3ed 293d 6180 22bb 3b3b 9c3d
000002f0: e626 c4bc 7b16 3bbd 5a2a 2a3d 40e3 6d3d
00000300: c239 bb3c 3f76 f83c d301 703c 1b00 e23c
00000310: 1ea3 21bc eea4 0dbd 19eb fbbc 8d72 c43d
00000320: 82cf 863d 802c b63d 2e4f 593c 9ab8 463d
00000330: 3afa 9abd 4e77 213d a5fa 673d 52fe adbb
00000340: 0357 61bd 259a 31bd 9cd4 fabc 3eb9 98bd
00000350: adf6 753d 2492 663d daad 073e 310e d93c
00000360: c300 4b3d 65b2 21bd 3b9e 523d 83c8 863c
00000370: e758 ae3d ed89 86bc 4376 b8bc 4b73 ddbc
00000380: 6d41 d5bc bab3 093e d5a1 b9bd 9da3 d13c
00000390: f73a 3bbc dbf9 253c a12b 483d 14b8 673d
000003a0: b209 ba3a 5f52 c13c 2c03 283d 5f7d 02be
000003b0: b415 9abd db6f 803c 34c0 36bd b382 343c
000003c0: 13e6 683d 68cf d2bd 2e70 c3bd 2c7e 1cbc
000003d0: e864 a13c d011 38bd 8751 b93c 14a0 6e3d
000003e0: 4dff 053d f732 2bbe 4ecf 05bd c3e0 d0bd
000003f0: fa88 6a3d f9ee 5f3d 9340 b5bb 62b0 7bbd
-0.003460024 0.032571446 0.07674928 0.05828002 0.0015504558 -0.053356275 -0.12595463 -0.065148994
0.020493567 -0.016952205 0.012386167 0.0069337385 0.0022061947 0.13808887 0.10834822 -0.035491895
-0.044304803 -0.040483616 -0.16126865 -0.082818136 0.07413646 -0.009850657 -0.0385639 -0.131902
-0.026866201 0.09072373 0.13900302 0.08949168 -0.03440697 -0.019870462 -0.0033611276 -0.10415605
0.026639475 -0.037291836 -0.09706897 -0.07059325 0.036018416 0.05706064 -0.020585854 -0.034290526
0.007424514 -0.029832274 0.027646182 -0.0027566457 0.008132603 -0.017624844 -0.0020351447 -0.045222368
0.029564524 0.03716646 0.102129504 -0.014444725 -0.05650673 -0.011591631 -0.012855961 0.019298255
0.053567223 0.079038434 0.087219596 -0.007818888 0.010112418 0.061489195 0.06335803 0.096079975
0.08451577 -0.06453519 -0.042290132 0.023292944 0.08120672 0.07236291 0.03091524 -0.088008404
-0.050058298 -0.05546699 -0.02108271 -0.00027050852 0.021244 0.042577803 0.031318575 -0.08612908
-0.026181275 -0.04530229 0.037736986 -0.04706577 -0.07203728 0.05617779 -0.031091435 -0.12881027
-0.032616187 -0.106995575 0.0101008285 0.009191031 0.013650996 0.04811894 0.021058258 -0.060732294
0.0635992 -0.075990506 -0.10129482 -0.030488897 0.0046650837 -0.044670317 0.05300686 -0.070174776
0.0058795977 -0.03595963 -0.056534514 -0.07847986 0.04965144 0.07710082 -0.04680254 -0.012795296
-0.005248999 0.016279804 0.004463168 0.031218627 0.026459709 0.009208639 0.03774404 0.068203524
0.03556483 0.02457689 0.006357714 0.06639839 0.011066399 -0.0038363184 0.014619091 -0.027253818
0.01206721 0.13468009 0.08420164 0.008508966 -0.055847976 -0.0958999 0.025885528 0.07297264
0.062827185 0.07406022 0.06232859 -0.021843396 0.038925044 0.029662581 0.110351875 0.048412953
-0.04718643 -0.00043874135 0.01758841 -0.014159987 -0.003937296 -0.011388926 0.030700326 -0.10525346
-0.05717727 -0.026827311 0.0053496533 -0.0892469 0.031641807 0.026710829 -0.01200824 -0.01884921
-0.08311757 0.11845865 -0.10734281 0.070776746 -0.05162397 0.03748926 -0.078185394 0.039356742
-0.15606812 -0.00815152 -0.0626529 0.044707097 0.045739286 -0.041271113 -0.084735796 -0.03015236
0.02746388 0.031751525 0.054899555 -0.07307243 0.109379396 0.069726996 0.0024343713 -0.041640315
-0.092795394 0.041486572 -0.0024795758 0.07628485 -0.02394433 -0.045675736 0.041544296 0.05807805
0.02285469 0.030329822 0.014648872 0.02758794 -0.00986555 -0.034581117 -0.030751752 0.09592161
0.06582548 0.088952065 0.013263507 0.048515894 -0.07567258 0.03942042 0.056635518 -0.0053098584
-0.05501462 -0.043359894 -0.030618958 -0.07457207 0.0600497 0.056291714 0.13249913 0.026496025
0.049561273 -0.03947677 0.05142043 0.016453033 0.085130505 -0.01642319 -0.02251733 -0.027032515
-0.026032174 0.13447466 -0.0906407 0.025590712 -0.0114276325 0.010130371 0.048869733 0.056572035
0.0014193563 0.023598848 0.04101865 -0.12743138 -0.07523671 0.015678337 -0.044616893 0.011017489
0.05686004 -0.10293466 -0.09542881 -0.009551566 0.019701436 -0.044938862 0.022621883 0.05825813
0.032714177 -0.1671866 -0.032668404 -0.1019912 0.057259537 0.05467126 -0.0055313795 -0.06144751

decoder.2.cnn.bias f4 [10]
00000000: ade1 08bd 8031 0a3d e32e 47bb 4ae4 cebd
00000010: 27df 07be 6e53 16bd 3ac5 543a ca6a 86bc
00000020: c337 cbbc cb85 a63c
-0.033418346 0.033738613 -0.0030392937 -0.101021364 -0.1326872 -0.03670066 0.0008116547 -0.016408343
-0.024806863 0.02032747

decoder.4.cnn.weight f4 [10, 1, 6, 6]
00000000: d9c5 0e3d 097a f3b9 0819 58bc f2dd ec3b
00000010: 22e2 1cbb d1b9 dbbc d35b b83c 2af3 3fbd
00000020: 3bd2 96bd 4a7c a23c 030d 913d aef4 683d
00000030: 9bb7 cfbc b231 f0bd 121c c9bd bd85 8b3d
00000040: 5819 2f3e 27ac df3d 4006 88bd 7ba5 1fbe
00000050: 6799 b6bd b5f8 fb3d a7d7 623e a793 0c3e
00000060: 1229 a2bd 048b 24be a473 c1bd 25b5 e63d
00000070: e267 563e 1531 fb3d 558b 8dbd 65ac 09be
00000080: 5975 d1bd 5701 473d e4f6 bc3d 7a02 f13c
00000090: f63b cdbc c04d 78bd e54e 04bc 701c 783d
000000a0: ffec e93d b9ef 943d 1801 abbd bc46 b3bd
000000b0: 1adc 7f3c aa53 103e 9a51 5c3e aa02 123e
000000c0: 2618 dcbd 841f b8bd d372 313d a8ee 583e
000000d0: 5e65 873e e046 193e cddf 50bd 9316 d6bc
000000e0: d8ed 973d 2d5c 303e eb12 1b3e 9f64 3a3d
000000f0: 2608 253c cb18 873c 5f9b 553d eca0 993d
00000100: b64a a53c dca8 23bd 6315 603d 0bee 353d
00000110: 96d2 c93c b7b8 863c 90d2 e5bc c85e 13bd
00000120: fd03 b13b ddb9 393d c11e 0b3d 4ee5 913c
00000130: b12f aa3c 1bf5 d23c 6dea e53b 237c c43c
00000140: 63c0 4e39 1eb5 aebc d31f 99bb ebca 12b9
00000150: 0e19 3ebc f3af 36bd a987 a3bd 7c67 d1bd
00000160: d6d4 a1bd 3db9 0ebd 954e 85bd 39d9 10be
00000170: 887e 4dbe b600 4bbe 7872 0dbe dbd3 93bd
00000180: 76ba a9bd 7f3c 1ebe 096a 62be 2188 59be
00000190: 3f79 2cbe d4fb a7bd cd0e 1cbd 816b bebd
000001a0: ec43 03be 6eb1 00be 2545 c7bd 12de 33bd
000001b0: 379e 1fbd 1591 67bd 2011 3abd 2f06 0fbd
000001c0: dcd6 3fbd 647d 2fbd 9d8b 09bd 89d1 0ebb
000001d0: 0e77 cb3c 7492 90bc dad7 96bd e172 c4bd
000001e0: f66b 1f3d 3e37 fc3d 6383 1c3e 24e9 033d
000001f0: 5617 ddbd 0252 04be c13f 033e 6375 7c3e
00000200: 8c48 733e bc98 7a3d d2d4 f7bd 56a8 f6bd
00000210: e6f1 fb3d 6332 6c3e ac0e 5e3e b1f3 223d
00000220: 7701 ecbd 2a27 b4bd 6a75 983d 101f 1a3e
00000230: bf18 d53d ea43 b3bc f74f a8bd 3051 14bd
00000240: 1ded 9c3b 3f0b 173d 5f26 833d 222d cb3d
00000250: 7967 af3d a98c 173d 5169 bc3c d15d 8d3d
00000260: 70a2 083e 7e3f 3a3e 0638 1c3e 2960 9e3d
00000270: 9e17 eb3c 3723 c73d e76e 253e d17a 563e
00000280: f943 2f3e 548d 8a3d dc18 df3c 7aee 933d
00000290: 24cb 153e 2b36 443e de1e 053e cf2b 633d
000002a0: 7924 c13c aae7 243d d2ca c43d df80 103e
000002b0: a190 bf3d 99bf 453d cb2a 70bb 8741 87bb
000002c0: e2d2 403d e46b 9f3d b4b3 403d a823 ea3c
000002d0: efd9 843c d608 8fb9 fa85 0cbd be3a 38bd
000002e0: b8a0 50bd cf37 d3bc c7f0 0e3d ea20 433c
000002f0: bb2d 11bd df87 49bd f446 28bd 7edb 86bc
00000300: 1117 1d3d e4eb 403d 0856 de3c a422 89bb
00000310: 8ecb e7ba 68ec ab3c 4a5f d43d 2edb 173e
00000320: 0041 093e 05ee b43d b0da bb3d 429a a63d
00000330: d7ea 033e 6002 4b3e bb0c 3b3e 918a f63d
00000340: 4412 9a3d 0fab 683d e393 d43d 5193 073e
00000350: ecfe a93d 0508 693d 50b9 533d ca17 bd3c
00000360: d5a4 a73b ec73 c9bc b9e9 87bd b627 02be
00000370: eaf1 00be 2ed9 96bd bf62 c13b 98b8 52bd
00000380: 4bff 02be ce76 50be da74 43be b4dc d0bd
00000390: 0df8 533c ca40 5fbd 7a37 0ebe 10bc 5cbe
000003a0: 7e24 4cbe 3802 d4bd 14ef cf3b 9614 30bd
000003b0: 9781 f8bd 2128 37be 781d 11be d48e 62bd
000003c0: 8917 543b e8ec 23bd c655 b2bd a551 cfbd
000003d0: b87f 92bd 1cc7 16bd d4fa 413c 1eb5 7abb
000003e0: 32ea eabc 800a 1abd e92e 5cbc 2759 87bb
000003f0: 203e aa3c 4a52 c43d 2f3e 0f3e cd19 013e
0.03485665 -0.00046439495 -0.013189562 0.0072286064 -0.0023938497 -0.026822003 0.022504723 -0.04686276
-0.07364317 0.019834656 0.0708256 0.05687397 -0.025356105 -0.11728229 -0.09819807 0.06812618
0.17099512 0.10921507 -0.06641817 -0.1559047 -0.08915978 0.123032965 0.22152577 0.137282
-0.0791799 -0.16068655 -0.09445885 0.11265019 0.20938066 0.12265221 -0.06911341 -0.1344467
-0.102274604 0.048585262 0.09226778 0.029420126 -0.025053006 -0.060621023 -0.008075451 0.060573995
0.114221565 0.07272286 -0.08349818 -0.08753726 0.015616441 0.14094415 0.21515504 0.14258829
-0.107467934 -0.08990386 0.043322396 0.2118479 0.26444525 0.14968443 -0.050994683 -0.026133811
0.07418412 0.17222662 0.15143935 0.045506116 0.0100727435 0.016491314 0.052150127 0.075013965
0.020177227 -0.03995596 0.054707896 0.04441647 0.024636548 0.0164455 -0.028054506 -0.035979062
0.005402087 0.04534327 0.033964876 0.017809536 0.020774694 0.025751641 0.007016471 0.023984974
0.0001971736 -0.021326598 -0.004672983 -0.00013999238 -0.011602653 -0.044601392 -0.079848595 -0.10224816
-0.07901923 -0.034844626 -0.06509129 -0.14145364 -0.20067799 -0.1982449 -0.13813198 -0.072181426
-0.08287518 -0.15452765 -0.22110762 -0.21243335 -0.16843127 -0.08202329 -0.038100053 -0.092978485
-0.12818879 -0.12567684 -0.09729985 -0.043912955 -0.038969245 -0.056534845 -0.045426488 -0.034918007
-0.046835765 -0.04284419 -0.03358041 -0.0021792373 0.024837043 -0.01764796 -0.07365389 -0.09592224
0.03892132 0.12315224 0.15284495 0.032204762 -0.107954666 -0.12921908 0.12817289 0.24654154
0.23758143 0.061180815 -0.12101139 -0.12043826 0.12301998 0.23066096 0.21685284 0.039783183
-0.11523717 -0.087965325 0.0744427 0.15050912 0.104051106 -0.02188297 -0.08218377 -0.03621024
0.0047890083 0.03687596 0.06403803 0.09920718 0.08564658 0.03699938 0.022999438 0.0690266
0.13343215 0.18188283 0.15255746 0.07733185 0.028697785 0.097235136 0.16155587 0.20945288
0.17115773 0.067652375 0.027233534 0.0722322 0.14628273 0.19161288 0.13000056 0.0554617
0.023576962 0.040259995 0.096089974 0.1411166 0.09353758 0.048278425 -0.00366466 -0.0041276845
0.047076114 0.077842504 0.04704638 0.028581455 0.0162172 -0.0002728167 -0.034307458 -0.044977896
-0.050934523 -0.025783448 0.034897592 0.011909703 -0.035444003 -0.049201842 -0.04108329 -0.016462084
0.038352076 0.047099963 0.027140632 -0.0041850377 -0.0017684565 0.02098675 0.103697374 0.14829704
0.13403702 0.08834461 0.09172571 0.08134891 0.12882553 0.19825125 0.18266575 0.12038148
0.07523015 0.05680376 0.1037977 0.1323979 0.083005756 0.056892414 0.0516904 0.023082633
0.005116085 -0.024591409 -0.06636376 -0.12710461 -0.12592283 -0.073656425 0.005901664 -0.051445574
-0.12792699 -0.2035782 -0.19087544 -0.10198346 0.012937558 -0.054505147 -0.1388835 -0.21556115
-0.19935796 -0.10351986 0.006345639 -0.042988382 -0.12134092 -0.17886402 -0.14171398 -0.055311993
0.003236266 -0.040020853 -0.08707766 -0.10122994 -0.07153267 -0.03681098 0.011839587 -0.0038254927
-0.028676126 -0.03760767 -0.013438919 -0.004130501 0.020781577 0.09586008 0.13988565 0.12607498
