AutoEncoders/Conditional_VAE/saved_model/model1.pth (torch, 99005 bytes, 44 tensors)

encoder_faltten.0.BachNorm.weight f4 [10]
00000000: cdda 6c3f 564c 833f dbb3 713f cb98 713f
00000010: 0b89 813f f286 7e3f 35e1 6f3f 01d1 843f
00000020: 48bb 7e3f cdc0 843f
0.92521363 1.0257671 0.9441506 0.9437377 1.0119947 0.9942466 0.93703014 1.0376283
0.9950452 1.0371338

encoder_faltten.0.BachNorm.bias f4 [10]
00000000: 3942 973b 5ee4 263d d96a 993c d264 a43e
00000010: ff3e 3c3e 2503 633e 8335 3b3e da7f de3e
00000020: 5ebc 463d fa19 183e
0.0046160487 0.04074513 0.018727707 0.3210817 0.18383406 0.22169168 0.18282132 0.43456918
0.048519485 0.1485366

encoder_faltten.0.BachNorm.running_mean f4 [10]
00000000: 7b0c 863d 53a4 9abf 062d 3040 1e36 403d
00000010: 2a75 313e bf0a ffbc 723c b63d a97a c8be
00000020: 2ac6 09c0 955c c4be
0.06545349 -1.2081398 2.752748 0.04692661 0.17329851 -0.031133054 0.08898248 -0.39156082
-2.15272 -0.38351884

encoder_faltten.0.BachNorm.running_var f4 [10]
00000000: 35c2 af3e 55e4 663f bf88 8840 70b9 f63e
00000010: 2e98 ab3f 6311 103f e648 8d3e 5005 ad3f
00000020: 5913 6440 a676 a23f
0.34327856 0.9019216 4.2666926 0.48188353 1.3405817 0.5627653 0.2759468 1.3517246
3.563681 1.2692459

encoder_faltten.0.cnn.weight f4 [10, 2, 3, 3]
00000000: b738 833e dd1e 883d 4819 7ebd 0c91 463e
00000010: af4c 0cbe 8750 303c 2d90 233c 9b95 3dbe
00000020: 43b8 c3bd ed78 99bd 1ff0 e4bd adce d63d
00000030: 7362 99bc 6b4e 2f3e 2243 6dbe bb3b a33d
00000040: 19be 043e e616 eebc 512f 9c3c e9d9 183e
00000050: 5114 17bb dfe1 8fbe b112 893d a3c5 eb3d
00000060: 2256 65be 89b6 b13a 6286 9ebe 404e 493e
00000070: 01e9 66bd efb9 27be b5fb a8bc a521 663d
00000080: 975b 683c 5c28 fcbd db6c eebd e7c8 8bbd
00000090: b38f 7e3e bb56 f5bd c2af 843d 675e 3fbe
000000a0: a940 28be 024b 1dbe 19fa e73c 4f5b 2b3e
000000b0: 8d79 29be 5842 843e 388f 363e 7e6e 843c
000000c0: 8689 163e 6cdc f13b 04c5 2cbd 5192 8a3d
000000d0: 4114 563c 6963 5c3d 6803 c83c e25f 003e
000000e0: 7b73 983e 2d44 97bd 0cd9 5b3c 90ee 2f3d
000000f0: f8b4 50be 24de 7dbc 57b5 b63e bb9f c4bd
00000100: cdec 55be a991 e5bd b874 493e ad93 d0bd
00000110: f1cf 073e 6bb8 cfbb 3fd9 8f3d a5cb fd3d
00000120: d872 0f3d 561c fd3d 8258 85bb 736d 843b
00000130: f422 c3bc 19f0 fc3d 55ca 4f3e 5390 f23e
00000140: 8e7a 8c3e 37a6 f2bd 1cb3 5bbd 0cc5 56bd
00000150: 1bae 833d b51c 71be e09e 693e 2131 bb3d
00000160: e686 783d a660 ca3d ee82 443e 4016 3abe
00000170: 5a0d 5abe 03ce 493c 7e41 533d b26a d0bc
00000180: 1ec9 8d3e 692b 4f3d e1b4 7d3e f5d1 b9bd
00000190: 66a7 873e 54de 3dbe d7ee 623e 234e 3abe
000001a0: 8849 773e c5fa 12be 71d3 3ebe b6b9 443d
000001b0: ad15 a2bd 357a ed3d 79dc 05bd 5290 7d3e
000001c0: 087c 57bc 155e 1bbe a0ba 7d3e 9567 b23d
000001d0: 3307 09be 7d0b 173e 4599 34be c9d8 083c
000001e0: 2c69 1abd 3aec 8c3d 290c a33b 9ebd ba3c
000001f0: 3301 403e 509f 5dbe 0543 6e3e a6ad 533e
00000200: a3c4 333e 4aed 643e 4f0b 403e ee53 513e
00000210: 40b5 103e 9e09 73bd 627c 9c3d e11d 21be
00000220: ea7c e2bb ea4d 003e e742 d0bd 0f97 263d
00000230: 7468 e3bd b1eb 293e ccff 57bd ec74 133d
00000240: d74b 59bd d922 65be 0fd7 213e 703a d93b
00000250: 270c 793a c084 743e 4683 1dbe 8357 a53d
00000260: 25d1 37be e60d ecbc 0532 67be 32d8 073e
00000270: ec5b 1dbe cf70 5cbe 6e79 983d 2fef 943d
00000280: 83fb 53be 8b8a 7bbd 97ab f53d 9292 dc3c
00000290: 016c 9e3d 1797 1ebe bacb 9fbe 19cb 7ebe
000002a0: 632c 1dbe e610 88be cf5b 96be 46f6 12be
000002b0: cca5 423d 6906 543e 6dbe 89bb 257e 093d
000002c0: 87fe e3bc 99e0 14be 8927 833c a73c 60bd
0.25629207 0.06646512 -0.06203583 0.19391268 -0.13701127 0.010761387 0.009983105 -0.18514101
-0.095566295 -0.07493768 -0.11178612 0.10488639 -0.018723702 0.17119758 -0.2317014 0.07970377
0.12963142 -0.029063653 0.019065531 0.14926876 -0.002305288 -0.28102013 0.06693018 0.115123056
-0.22396138 0.0013558428 -0.309619 0.19658756 -0.056374554 -0.16379522 -0.020627836 0.05618443
0.014181993 -0.123123854 -0.11641856 -0.068254285 0.24859504 -0.11979433 0.06478836 -0.18688355
-0.16430916 -0.15360644 0.028317498 0.1673405 -0.16550274 0.25831866 0.17828071 0.016165968
0.14700899 0.0073810127 -0.042180076 0.06766189 0.013066352 0.053805742 0.024415687 0.12536576
0.29775605 -0.073860504 0.013418447 0.04295212 -0.20381534 -0.015494857 0.35685226 -0.09600779
-0.20891114 -0.11209423 0.19673431 -0.10184417 0.13262917 -0.006339123 0.07023858 0.12392358
0.035021633 0.1235892 -0.004069389 0.0040413677 -0.023820378 0.123504825 0.20292027 0.47375736
0.27437252 -0.11848109 -0.05363761 -0.052434012 0.06429692 -0.23546107 0.22814512 0.0914023
0.060675524 0.098817155 0.1919057 -0.1817255 -0.21294156 0.012317183 0.05157613 -0.025441501
0.27692503 0.05057851 0.24776031 -0.09073249 0.26494902 -0.18541843 0.22161423 -0.1819387
0.24149144 -0.14353473 -0.18635346 0.04802867 -0.079142906 0.11595575 -0.032680962 0.24762085
-0.01315213 -0.15172608 0.24778223 0.08711163 -0.13381653 0.14750476 -0.17636593 0.008352467
-0.037697956 0.06880994 0.004975815 0.022795495 0.18750457 -0.21642804 0.23267753 0.2067171
0.1755548 0.22356144 0.18754314 0.20442173 0.14131641 -0.059335344 0.07640912 -0.15734054
-0.0069118636 0.12529722 -0.101690106 0.040671404 -0.11103907 0.16593815 -0.05273418 0.036000177
-0.053050842 -0.22376575 0.15804695 0.0066292807 0.0009500407 0.23878765 -0.15382108 0.08073332
-0.17950876 -0.028815221 -0.22577675 0.13266066 -0.15367097 -0.21527408 0.07445036 0.07272183
-0.20701413 -0.06141142 0.11995619 0.026925359 0.07735444 -0.15487324 -0.3121012 -0.24882163
-0.15348963 -0.26575392 -0.2936692 -0.14351758 0.047521397 0.2070557 -0.0042036087 0.033567566
-0.027831329 -0.14538802 0.016010063 -0.054745343

encoder_faltten.0.cnn.bias f4 [10]
00000000: c3c0 113c a6a2 f7bd f91b 2dbb 4c76 b83d
00000010: 0096 31be 5b9a 69bc a886 1b3d f249 14be
00000020: c69d 753e eae9 a4bd
0.008896056 -0.120915696 -0.0026414378 0.09006938 -0.17342377 -0.014257993 0.037970215 -0.14481333
0.23985967 -0.08052428

encoder_faltten.1.BachNorm.weight f4 [16]
00000000: cc24 8d3f 3837 7e3f f248 7b3f 9b0c 7a3f
00000010: 5e93 9b3f 761d 623f 097b 893f ff4e 623f
00000020: 3897 883f 10ea 8f3f 3a19 7d3f 1b04 843f
00000030: 602c 863f e227 6b3f 0f30 773f 5385 783f
1.1026855 0.9930301 0.9815818 0.97675484 1.2154348 0.88326204 1.0740672 0.8840179
1.0671148 1.1243305 0.9886662 1.0313753 1.0482292 0.9185773 0.96557707 0.97078437

encoder_faltten.1.BachNorm.bias f4 [16]
00000000: 358c 853c b494 253c 3cd4 703d bd5d 9abc
00000010: 9451 093e 823c 2ebc 3bab 623d ea90 bcbd
00000020: 10f4 44bc 9069 3e3d bfe7 1b3d 2bbb 6fbd
00000030: 1886 003d 4050 a1bd 9864 5fbb 8c5e b2bd
0.016302207 0.010106254 0.058796152 -0.018843526 0.13410026 -0.010634543 0.05533908 -0.09207328
-0.01202108 0.04648739 0.038062807 -0.058528107 0.03137788 -0.078766346 -0.0034087058 -0.0870944

encoder_faltten.1.BachNorm.running_mean f4 [16]
00000000: fb53 b7be 1943 0abf cba7 9abe 4eb0 253f
00000010: afae 85bf 5b3f 913f 8a5f 693e b555 8a3e
00000020: 6e15 dfbe b77e d0be e47a 213f 1402 c93e
00000030: 25c0 27bf 95d2 14bf 06a7 e43e 23f3 39bf
-0.3580626 -0.5400863 -0.3020614 0.64722145 -1.0443934 1.134746 0.22790352 0.27018514
-0.43571037 -0.40721676 0.6307814 0.39259398 -0.65527564 -0.5813382 0.4465868 -0.7263662

encoder_faltten.1.BachNorm.running_var f4 [16]
00000000: 5977 453f d5d7 043f 9e16 743f 7fc4 f83e
00000010: f6d4 be3f 3b62 9f3f 6101 6c3f 8544 d63e
00000020: a75a 703f 1679 473f 3645 b03f 96b8 1c3f
00000030: e752 9a3f 8f53 063f e818 463f 4527 653f
0.77135235 0.51891834 0.9534701 0.48587415 1.490874 1.2451853 0.92189604 0.4184915
0.93888324 0.7791914 1.3771122 0.61219156 1.205655 0.5247125 0.77381754 0.89513046

encoder_faltten.1.cnn.weight f4 [16, 10, 3, 3]
00000000: b19a 5d3d 0ad3 82bd 6c9a 503d 2291 013e
00000010: 8aff ae3c 1d7b 363c e0f9 063d 544e 7cbd
00000020: 0513 273d 1ecc 343e 9d2c b5bc d80c 3e3e
00000030: e43a 373b 93f5 9a3d 08b1 733d e346 78bd
00000040: 968d 2e3d a559 6abc 6d84 f03d 7af9 fbbc
00000050: fd0b 1a3d f4e8 a13d 9d92 13bd 792c b63d
00000060: e36f e63b eca7 393d e8b0 03bd 5348 80bb
00000070: 530a ac3d d856 14be af43 13bd 99e6 34bd
00000080: df3a 7ebd 6f8a dfbd 1d48 92bd 2483 07be
00000090: ebb7 723d d172 493d 3be4 26bc 117b 19be
000000a0: 0f1b a2bd 359d 03be d1eb e8bb b678 efbd
000000b0: de10 e2bd 37e0 6b3d 7c72 32bc 21e0 f1bd
000000c0: 3471 66bd 0500 5abd 41c8 ec3c b4d7 003e
000000d0: eae7 22bd d5f3 ccbd a0b2 b63c c5a4 ea3d
000000e0: 7341 3cbc 2e81 fc3b f61d 873c 2981 a03c
000000f0: c719 cb3d a108 43bd 2e5c 98bc af77 a23d
00000100: 0126 e33c 2876 a33c 75e5 3abd 7408 98bd
00000110: 2268 2cbe c945 b53d c420 c13c c302 89bd
00000120: f615 80bd 39ca 143e b3c3 9fbd 696a 083d
00000130: 0c61 023e 1da6 c93c 37f3 1dbe 501c 573d
00000140: 4bc6 86bd c82c 62bd fe8d 633d fa99 c73b
00000150: 8d0b 553d 254b ce3d dd69 1c3d 2f1d 88bc
00000160: d540 dd3c e232 113d c111 0c3d f64f 5cbd
00000170: 3f9c 003d 11f5 8f3d 9731 80bd 6c01 3ebd
00000180: d7c6 153d b57f 7ebd 759b 1cbd 7ab6 7c3d
00000190: 9b30 0bbd 8334 8cbc 7d7e ad3d 472f 86bd
000001a0: 535e 603c fd00 2cbd 463c 70bd 0e8e ddbd
000001b0: ed9f 93bb 7e75 91bd 178e 973d edfa 8fbc
000001c0: 3a5d 313d f3c7 403c e406 4938 4a03 943d
000001d0: c3cd 1dbd f74d 843d 67ac 57bd 7243 d7bd
000001e0: e850 93bd 8776 dab9 277e 1abe ef8a 4b3c
000001f0: baa4 043e e8ef edbd d441 4bbd 67df fab9
00000200: c701 5dbd 045b c03d 68c6 4ebd 3cae 09bd
00000210: 7757 b13d 6d8e 603d 56f4 d6bd f5f5 853d
00000220: 1f09 1a3c bf51 f9bc 1ddb 903c 1a90 8c3d
00000230: 29ea 843d e9e4 f43c 107b d43d 0048 203e
00000240: 59c0 adbd 9276 b7bd add4 e7bd 5c28 503d
00000250: 2bc4 933b fdf1 cdbc 0e42 da3c cd4b 3b3d
00000260: 95ad e43d 9cf5 10bc 55b3 c8bc 8701 d2bd
00000270: 1188 d23d eacc 56bd b58f 20be 04c4 a0bd
00000280: 0921 413d faa9 4cbd c23c 2a3d c6fa e63d
00000290: 8cae 8cbc 5cd2 62bb 6ad8 e53d 6ef6 cebd
000002a0: 0b20 cebd 97d2 97bd 4d83 f9bd 567a ed3c
000002b0: ea63 093c 1ee7 2fbc 1bd6 c53d d222 1dbd
000002c0: 1e83 313d cda8 87bd 5d06 a4bd 0568 30bd
000002d0: 6ee6 623d e0be a0bd 5242 9dbd 3e85 5a3c
000002e0: c723 883c 0f72 f4bd 666a 86bb 0d10 5fbc
000002f0: a75f e83c d224 713d 2c38 bd3d ff38 abbd
00000300: e77c 263e 288d a23d 0f63 5c3d 74a8 cc3d
00000310: 8c23 423d 508f 923c c29d 7bbd ad92 c0bc
00000320: 8ca8 2dbb 2715 c63d 0ebc 983c 5829 85bd
00000330: bab8 a2bd a5f3 ddbb 961b 94bd b191 9c3c
00000340: 1e27 63be 31ed 29be 13cf 163c 519c b4bc
00000350: 368e 62bd 6a88 c2bb 46cd 11bd ff46 6a3d
00000360: fea2 4d3d 4bc5 e5bd c65c bcbd dfa0 c43d
00000370: 44ef 33bc 036b 6b3c fc72 c83b 0380 f73b
00000380: 4fdf 113e 4b52 fb3d 8798 c33d 6de9 983c
00000390: 6431 6f3d 013b d73c 6aa3 a4bc a863 373d
000003a0: d595 9c3d 1812 c5bd c3c6 b53d 9cf4 d43a
000003b0: 426f 42be 8062 c13d 0612 54bd 62d3 1abd
000003c0: ba82 be3d 1a10 04bc dd1b 993b eb90 78bd
000003d0: 3a2c 26be 18e7 05be 9083 d2bc b1c0 a4bd
000003e0: e138 b93c f249 ac3d c661 a8bd 1947 083b
000003f0: e352 f53c 78f2 653d dcae 18bb b377 a83d
0.054102603 -0.06387909 0.05092852 0.1265302 0.021362085 0.011137751 0.032953143 -0.061598137
0.040789623 0.1765599 -0.022116 0.18559587 0.0027958686 0.07566371 0.059495002 -0.060614478
0.042615496 -0.0143035995 0.11744008 -0.030758608 0.03760909 0.079057604 -0.036028493 0.08895201
0.007032381 0.04532616 -0.032151133 -0.0039148717 0.08400407 -0.14486253 -0.03595322 -0.044165228
-0.062067863 -0.10915076 -0.07142661 -0.1323362 0.05925743 0.049181763 -0.01018625 -0.14988352
-0.07915317 -0.12852938 -0.0071081896 -0.11692946 -0.110383734 0.057586875 -0.010891553 -0.11810327
-0.056260303 -0.053222675 0.028904082 0.12582284 -0.03977195 -0.10007445 0.022301972 0.114572085
-0.011490214 0.007705829 0.016493779 0.019592838 0.09917026 -0.04761565 -0.018598642 0.07932984
0.027728083 0.019953802 -0.045628984 -0.07423487 -0.16836599 0.08851201 0.023575194 -0.0668998
-0.06254189 0.14530267 -0.078009985 0.033304606 0.12732333 0.024615342 -0.1542481 0.052517235
-0.0658079 -0.055218488 0.055555336 0.0060913535 0.05201297 0.100729264 0.038186897 -0.016615478
0.027008453 0.035448916 0.03419662 -0.053787194 0.031399008 0.070291646 -0.062594585 -0.046388075
0.03656658 -0.06213351 -0.038234193 0.06169746 -0.0339819 -0.017114883 0.08471391 -0.06551986
0.013694364 -0.04199313 -0.05865123 -0.108181104 -0.0045051486 -0.07102488 0.07400148 -0.017575705
0.0433018 0.011766422 4.792855e-05 0.0722719 -0.038526308 0.06460183 -0.05265465 -0.10510911
-0.07193166 -0.0004166851 -0.15087186 0.012423261 0.12953463 -0.11618024 -0.049623325 -0.00047850164
-0.053956773 0.0939236 -0.050482184 -0.03361343 0.08659261 0.054823328 -0.10495822 0.06541053
0.009401589 -0.030434487 0.017682606 0.06863423 0.06489975 0.02989431 0.10375035 0.15652466
-0.08483953 -0.08958162 -0.113198616 0.05081974 0.004509469 -0.025139803 0.026642825 0.045726586
0.11165921 -0.00884762 -0.024499575 -0.102541976 0.10279859 -0.052441515 -0.1567982 -0.07849887
0.047150645 -0.04996679 0.04156185 0.112783 -0.017173074 -0.0034610247 0.11222918 -0.101055965
-0.100647055 -0.07413214 -0.12183247 0.028988998 0.008385638 -0.010736255 0.09659978 -0.038363285
0.043337934 -0.06623993 -0.08009026 -0.04306795 0.055395536 -0.078489065 -0.07678665 0.0133374315
0.016618622 -0.119358175 -0.004102039 -0.013614667 0.028365923 0.058873005 0.092392296 -0.083604805
0.16258584 0.0793708 0.053805407 0.099930674 0.04739718 0.017890602 -0.061429746 -0.02350744
-0.0026498167 0.09672003 0.018644359 -0.06502026 -0.0794539 -0.0067734295 -0.07231824 0.01911244
-0.22182891 -0.16594388 0.009204644 -0.022047194 -0.055311404 -0.005936672 -0.035596155 0.057196613
0.05020427 -0.11219271 -0.09197383 0.09600996 -0.010982338 0.014368775 0.006117223 0.007553102
0.14245342 0.122715555 0.09550577 0.018665994 0.058396712 0.026273252 -0.020097453 0.044772774
0.07645766 -0.09622592 0.088758014 0.0016247216 -0.18987754 0.094426155 -0.051775 -0.037799247
0.09302278 -0.00806048 0.004672511 -0.06068508 -0.16227809 -0.13076437 -0.0256975 -0.080445655
0.02261013 0.084125414 -0.08221774 0.002079433 0.02994675 0.05613944 -0.0023297584 0.08225956

encoder_faltten.1.cnn.bias f4 [16]
00000000: b264 84bc 6854 a4bd 589c 0dbe 40d2 2b3d
00000010: 8513 9cbb ce60 51bd 3735 e23d 8e0d 023e
00000020: fe29 683d 17f9 d6bc 2d92 0dbe 5fd6 a6bc
00000030: eb5e 93bc 4fa0 b4bc 32d4 893d 75a4 92bd
-0.016161297 -0.08023912 -0.13829172 0.041948557 -0.004763069 -0.05111771 0.11045306 0.12700483
0.056680672 -0.026241822 -0.13825293 -0.020365892 -0.017989596 -0.022049097 0.06729926 -0.07160274

encoder_unfaltten.0.BachNorm.weight f4 [10]
00000000: 0000 803f 0000 803f 0000 803f 0000 803f
00000010: 0000 803f 0000 803f 0000 803f 0000 803f
00000020: 0000 803f 0000 803f
1.0 1.0 1.0 1.0 1.0 1.0 1.0 1.0
1.0 1.0

encoder_unfaltten.0.BachNorm.bias f4 [10]
00000000: 0000 0000 0000 0000 0000 0000 0000 0000
00000010: 0000 0000 0000 0000 0000 0000 0000 0000
00000020: 0000 0000 0000 0000
0.0 0.0 0.0 0.0 0.0 0.0 0.0 0.0
0.0 0.0

encoder_unfaltten.0.BachNorm.running_mean f4 [10]
00000000: 76c5 09bd 20c2 fd3b 9018 7c3d b46a 14bd
00000010: 101c c13c 423e fc3a ae0f 1a3d 1010 dcbb
00000020: 164d a13c f517 853b
-0.03363558 0.007744089 0.061546862 -0.036234573 0.023572952 0.0019244628 0.03761261 -0.006715782
0.019690078 0.004061694

encoder_unfaltten.0.BachNorm.running_var f4 [10]
00000000: c415 673f 92eb 663f dc86 673f ef75 673f
00000010: bf6a 673f 1b31 673f 2579 673f 6c16 673f
00000020: c11a 673f 71d5 663f
0.90267587 0.902032 0.90440154 0.9041433 0.90397257 0.90309304 0.90419227 0.9026859
0.902752 0.90169436

encoder_unfaltten.0.cnn.weight f4 [10, 2, 3, 3]
00000000: c8a8 59be ee66 893d 545a a6bd bb83 eebd
00000010: ff52 683e ca2b f63d 3abb 8c3d 7457 19be
00000020: f273 cdbd c4c7 5a3d ff62 453e 93ae 58be
00000030: 2e8f 5abe 6063 0e3c d0da 79bd b69e 9f3d
00000040: 3053 59bc 96ec adbd bc89 5c3d b14d 593e
00000050: f0a5 87bd ec6a ccbd 48d2 52bd 74a2 633d
00000060: 2a3e 57be eefe ad3d 73f6 083e e014 9fbc
00000070: b021 04bd 80f3 eaba 9ab4 a73d 0d5d 213e
00000080: 006c c0ba d2ca c83d 3d03 043e 626f bd3d
00000090: e7f6 6c3e 2ded 5b3e 6eab 8cbd f81a c0bd
000000a0: 1818 b83c ae90 e0bd 4862 963c db55 143e
000000b0: b819 c93c 9666 b93d ec79 1bbd 8702 19be
000000c0: 5f45 5a3e a876 913c 0733 713e 8064 b93b
000000d0: 72ac f13d 8bee 4b3e 682c fdbd f5db 6e3e
000000e0: 37fb 3b3e 749f 27be 82c9 cfbd b3f6 6dbe
000000f0: 9cc0 7f3d e881 44be a4de 383d bb65 033e
00000100: 9cba 4cbe 42c2 1abe 3cd0 c4bd 507e 46bc
00000110: 3229 943d 32bd 32be d3c3 f4bd a96a 3c3e
00000120: 71f2 653e b2d5 28be dea5 d03d 04f9 613d
00000130: 4e8f d93d de0a 9b3d 5396 083e 8028 39be
00000140: cc4c 71bd 16d2 b93d 9f19 153e b6ba 4fbe
00000150: e6e1 f13d bcc1 69bd db5e 623e 3c66 643d
00000160: e16e 463e 3e09 bb3d bf57 00be c5e4 1a3e
00000170: 8c54 533d 9272 8e3d 2077 54bd db55 2d3e
00000180: 941b 79bd 4f37 643e 6cfa 5dbe 0e3e 0dbe
00000190: 34bc 5e3d 0656 e2bd d7e3 1a3e f440 033d
000001a0: cf57 103e 0fd6 5e3e ea5c 37be 4cb5 1cbe
000001b0: c637 e33d 0082 7aba 5dfe 233e a6b1 933d
000001c0: e120 553e 26b5 f43d 63de 163e 88f8 cfbd
000001d0: 1651 873d f2a3 df3d 6a88 863d 2553 063e
000001e0: 3721 67be acd0 1a3d 09b4 333e 180c 943c
000001f0: bec6 43be c473 5e3d 2808 3ebd 8f21 47be
00000200: e79a 2fbe 4f84 0ebe ad66 4c3e 3d24 523e
00000210: b2ee b7bd 3245 a53d 9668 3fbe 084e 913c
00000220: 189b d7bd 57f0 163e 4228 f83d 9ee6 bb3d
00000230: 67af 343e ddd1 153e 367c 8a3d 2070 b7bd
00000240: 2790 5b3e fb32 343e 3c42 053d 6ca4 86bd
00000250: bb2b 053e 54da babd 8bb1 143e 348b 793d
00000260: e8fc 8ebc 3a01 0cbe 1396 143e 245b 63bd
00000270: 8fad 66be 2e13 d1bd e92d 2ebe 18b2 0dbe
00000280: 1277 c83d ff75 583e 7eeb fc3d 9014 5a3c
00000290: 507b 2b3c 0887 11be c403 96bd a453 30bd
000002a0: 0b23 4cbe 9c55 773d 2231 ac3d 6859 a33c
000002b0: f082 50be ed5b 143e af5a 673e 5a10 adbd
000002c0: 88e2 4fbd ae15 ad3d b890 18bd d879 d1bc
-0.21255791 0.067090854 -0.081226975 -0.11646219 0.2268791 0.12020071 0.06871648 -0.14974767
-0.100318804 0.053413168 0.19276045 -0.21160345 -0.21343681 0.008690685 -0.06099969 0.077939436
-0.013264462 -0.08492391 0.05384229 0.21221043 -0.06623447 -0.09981331 -0.05147007 0.05557485
-0.21019807 0.084958896 0.13375263 -0.019419134 -0.03225869 -0.0017925352 0.08188744 0.15758152
-0.0014680624 0.0980431 0.1289186 0.0924976 0.23141061 0.21477194 -0.06868635 -0.09380144
0.022472426 -0.109650955 0.018357411 0.14485876 0.024548396 0.0905277 -0.03795807 -0.1494237
0.21315525 0.017756775 0.23554622 0.0056577325 0.118004695 0.19915216 -0.123619854 0.23326094
0.1835755 -0.1636942 -0.101458564 -0.2323864 0.062439546 -0.1919018 0.0451342 0.12831776
-0.19993061 -0.15113166 -0.0961003 -0.012115076 0.0723442 -0.17454985 -0.11951413 0.18400063
0.22455765 -0.16487768 0.10187887 0.05516912 0.10623036 0.07570432 0.13338594 -0.18081856
-0.05891113 0.09073274 0.14560555 -0.20286068 0.11810665 -0.057069525 0.22106497 0.05576156
0.19378234 0.09132622 -0.12533472 0.15126331 0.051594302 0.06955446 -0.05187142 0.16927283
-0.060817316 0.22286724 -0.2167756 -0.13793203 0.054378703 -0.11051564 0.15125977 0.032044366
0.14095996 0.21761344 -0.17906538 -0.15303534 0.11094622 -0.00095561147 0.16015 0.07211618
0.20813324 0.11948614 0.14733271 -0.101548254 0.06607263 0.10919942 0.06568988 0.13117655
-0.22571264 0.03779666 0.17549147 0.018072173 -0.19118783 0.05430962 -0.046394497 -0.19446395
-0.17148934 -0.13917659 0.19961043 0.20521636 -0.089810744 0.080698386 -0.1869224 0.017737404
-0.10527629 0.1474012 0.121170536 0.09174846 0.17645036 0.14630838 0.067619726 -0.08956933
0.21441709 0.17597573 0.03253387 -0.0657433 0.13004963 -0.09123674 0.14520852 0.06092377
-0.01745458 -0.13672343 0.14510374 -0.05550684 -0.22527145 -0.10208736 -0.17009701 -0.13837469
0.09788336 0.21138762 0.12349604 0.013310567 0.010466412 -0.14211667 -0.07324937 -0.043048516
-0.19935243 0.060384378 0.08407809 0.019940093 -0.20362449 0.14488192 0.22593187 -0.084503844
-0.050753146 0.08451401 -0.03724739 -0.025570795

encoder_unfaltten.0.cnn.bias f4 [10]
00000000: 4057 18be 5636 43be f31b 153e f6fe 96bd
00000010: 4b6c 3abe cc18 a1bd 4839 28bd 7e38 2dbe
00000020: e2a5 da3d 361c a63d
-0.14877033 -0.19063696 0.14561443 -0.07372849 -0.18205373 -0.07866058 -0.041070253 -0.16916081
0.10676171 0.081108496

encoder_unfaltten.1.BachNorm.weight f4 [16]
00000000: 0000 803f 0000 803f 0000 803f 0000 803f
00000010: 0000 803f 0000 803f 0000 803f 0000 803f
00000020: 0000 803f 0000 803f 0000 803f 0000 803f
00000030: 0000 803f 0000 803f 0000 803f 0000 803f
1.0 1.0 1.0 1.0 1.0 1.0 1.0 1.0
1.0 1.0 1.0 1.0 1.0 1.0 1.0 1.0

encoder_unfaltten.1.BachNorm.bias f4 [16]
00000000: 0000 0000 0000 0000 0000 0000 0000 0000
00000010: 0000 0000 0000 0000 0000 0000 0000 0000
00000020: 0000 0000 0000 0000 0000 0000 0000 0000
00000030: 0000 0000 0000 0000 0000 0000 0000 0000
0.0 0.0 0.0 0.0 0.0 0.0 0.0 0.0
0.0 0.0 0.0 0.0 0.0 0.0 0.0 0.0

encoder_unfaltten.1.BachNorm.running_mean f4 [16]
00000000: c89a 3cbd 728e 503c cb09 a0bd 6500 fbbc
00000010: d84b e9bc 4a31 0d3d 4571 e63b 8ff3 1a3c
00000020: 9c95 0f3c 2a21 71bc 16b8 bf3b 04d1 2abd
00000030: f8af 2a3c 1b54 f63b 3eff 0dbd 3bcc 883d
-0.04604605 0.012729274 -0.07814368 -0.030639837 -0.028478548 0.034470834 0.0070325457 0.009457483
0.008763697 -0.01471738 0.005850802 -0.04170324 0.010417931 0.0075173504 -0.034667246 0.06679579

encoder_unfaltten.1.BachNorm.running_var f4 [16]
00000000: ddf9 693f 24c6 693f e128 6c3f 8389 683f
00000010: 0fb8 6a3f acdc 693f aaa8 683f be72 683f
00000020: 0548 683f ef87 693f 8c4c 693f 71db 6c3f
00000030: fb85 693f 882d 6c3f 1883 693f 4d68 6b3f
0.91396886 0.91317964 0.92249876 0.90834826 0.916871 0.91352344 0.9088236 0.9080008
0.90734893 0.91223043 0.91132426 0.9252234 0.9122006 0.92256975 0.9121566 0.91956025

encoder_unfaltten.1.cnn.weight f4 [16, 10, 3, 3]
00000000: 43e0 913d 1051 b2bc dcf4 26bd 1c08 e23c
00000010: bf2e 56bd 9d68 bdbd 0854 eebc 5185 b03d
00000020: 2efb 3e3d 9469 12bd 11ca c13d edcd 5ebd
00000030: 2d37 a53d 6493 a43c 1eac c6bd e11c 54bd
00000040: 3d3c 923d 1bcc 973d 78bc 36bd 46d0 d7bd
00000050: 7aac 2e3d ac4c ce3c 40a7 ec3a 3b8a 54bd
00000060: b5df c0bd 19b5 bc3d daad 1fbd f764 833d
00000070: 7b9f c23d 0793 5ebd fbe4 c33d 006e c43b
00000080: bf2e 3dbd 21f9 a53d 4a35 b2bd 7f4e ac3d
00000090: 6244 39bd 0761 c83d 60ad 82bd 8091 0d3c
000000a0: c9d3 a13d 8024 7eba c059 b1bb 96d7 59bd
000000b0: 5399 933d 00ed 673a ec72 a1bd 3030 c4bc
000000c0: b805 98bd 1501 66bd 81b6 9e3d b22f adbd
000000d0: aaee 303d 6818 22bd ace7 d4bc e8c8 b8bd
000000e0: c04f bdbd 2082 123b 7a9b 98bd 6d5c d43d
000000f0: 4cb4 5bbd 124a 85bd 16c4 493d 6e40 693d
00000100: f35f 84bd f270 0e3d 2c44 ab3c 7015 be3b
00000110: b4d9 5fbd bb7a 7abd 00f3 e13a 68a5 76bc
00000120: 2db1 cbbd 479b be3d ef4d cabd 4892 30bc
00000130: f3f9 823d d6ac a9bd 1834 43bc c026 07bb
00000140: 6221 1abd 3091 70bd 9a48 273d 222d 633d
00000150: 4e10 c5bd d0d5 a3bc 4101 92bd 3fa9 89bd
00000160: 20a4 f8bb bc7c e4bc 8095 74bb 9da8 39bd
00000170: 801b 1c3a 3c83 eb3c 42b9 213d 80a6 c6ba
00000180: b0cb d6bc c361 d53d 0c72 c3bd 1a63 96bd
00000190: 96cd 8fbd 44b3 e13c 5209 5c3d 8874 0dbd
000001a0: 50f8 923c f137 adbd c42a a53c e461 d03c
000001b0: 0085 36bb 5e94 d7bd 820a 483d 6c3a d5bc
000001c0: 1ba7 813d 8835 b3bc d503 a63d f37d a8bd
000001d0: 7a4b 0f3d 2cdf c33c 8da4 853d a50f cd3d
000001e0: d24f 193d 1e7c 74bd fb8f a53d 5e80 733d
000001f0: c0f4 29bb ca3b 493d 984a 3c3c bc11 cbbc
00000200: ade9 963d 06fa 513d 38cd aebd 92e3 313d
00000210: e4c1 b73c 405b 6c3b 0df6 be3d 0056 0c3a
00000220: 81b0 39bd 7613 a3bd 82a4 2cbd 092b a43d
00000230: ae88 14bd f3f7 b93d 3028 8a3b c770 b03d
00000240: 3c8c f83c 5442 86bc 721f 003d 26ef 133d
00000250: a3c5 92bd 62be 8dbd 24ca ec3c 0656 703d
00000260: 005d 49bd 22b0 84bd 4753 d5bd 3343 b93d
00000270: 08e0 3b3c 7484 eebc c46e 26bd cfe5 9abd
00000280: 4944 c73d b5fc a13d 377a 97bd 8821 ccbc
00000290: 0e81 a1bd 8be1 893d 013c a53d bcd9 b4bd
000002a0: 29db 8f3d 4003 05bc 00e9 2bba 7411 ad3c
000002b0: 5a1c 78bd c0fd 363b 9234 173d 7e59 263d
000002c0: f0c4 fb3b cccb 69bd b868 b4bd c0c9 74bd
000002d0: 3733 50bd d237 0bbd 740a b83c 26fe 3f3d
000002e0: 7a48 7d3d 727e c5bd 1e7d 113d e241 553d
000002f0: 8322 46bd 0056 393b 92c3 5abd cc24 b73c
00000300: 1bfc 863d b0aa a8bc 3094 80bd f084 96bd
00000310: 003d 923c 6a1d b5bd ec3e d93c d928 6abd
00000320: 4664 0abd 7ca0 fd3c b0d1 9fbc 192c 823d
00000330: 10b6 823b bced 8f3c 8b0e bebd d1f3 ac3d
00000340: e8c6 503c 3228 c1bd 344f b43c 00a8 283b
00000350: 99c1 973d 7a89 17bd ac59 9f3c 4cec 95bc
00000360: 9f8b 7abd 1841 9cbc ee19 2e3d 366d 78bd
00000370: 1162 bbbd 9b98 853d fd2e 66bd a019 adbd
00000380: e081 0f3c f812 1bbd d409 8abd 7ea8 093d
00000390: ac9d d2bd 332a d33d c4fb e8bc f0b9 c83b
000003a0: 1533 98bd 7801 b2bc fd9a a8bd 7b59 8a3d
000003b0: 7acc 8abd 5d84 8a3d 0066 79bb bc5e 8bbd
000003c0: 1845 033c 68f1 953c 9084 c7bd 882d eebc
000003d0: a6ea 103d ccf4 e8bc f690 033d 321b 36bd
000003e0: 45e4 b5bd 40ab b7bb 71ac d43d 9811 adbd
000003f0: 2c30 c5bd f0dc d3bb 58f1 45bc 53f2 b53d
0.07122853 -0.02176717 -0.04076086 0.027591757 -0.052290674 -0.09248469 -0.029092804 0.08619178
0.046626262 -0.03574522 0.09462369 -0.054395605 0.080671646 0.020089813 -0.097007975 -0.051785354
0.07140396 0.07411977 -0.04461333 -0.10537772 0.042644955 0.025183044 0.0018055215 -0.05188964
-0.09417669 0.09214229 -0.038984157 0.06415742 0.09503075 -0.054339435 0.09565159 0.0059945583
-0.04618716 0.08104158 -0.0870157 0.084134094 -0.04523123 0.097841315 -0.06380725 0.008640647
0.07901723 -0.000969477 -0.0054123104 -0.053184114 0.07206979 0.00088472664 -0.07883248 -0.023948759
-0.07422966 -0.056153376 0.077496536 -0.08456363 0.043196358 -0.039574057 -0.025989376 -0.09022695
-0.09243727 0.0022355393 -0.0745153 0.10369191 -0.05363874 -0.065082684 0.049259268 0.05694621
-0.06463613 0.03477568 0.02090653 0.0058008954 -0.054650977 -0.0611522 0.0017238557 -0.015054084
-0.09945903 0.093069606 -0.09878146 -0.010777064 0.0639533 -0.08284919 -0.011914276 -0.0020622462
-0.037629493 -0.05873221 0.040840723 0.055462964 -0.096222505 -0.019999415 -0.071291454 -0.06721734
-0.0075879246 -0.02789151 -0.0037320554 -0.045326818 0.00059550256 0.0287491 0.039483316 -0.0015155822
-0.026220173 0.10419037 -0.09543237 -0.07343121 -0.07021634 0.0275513 0.053719826 -0.03453496
0.01794067 -0.084579356 0.020161994 0.025437303 -0.002785027 -0.10526346 0.048838146 -0.026028834
0.06330701 -0.021876112 0.081062 -0.08227148 0.03498409 0.023910128 0.06525526 0.100127496
0.03742964 -0.05968868 0.08084103 0.059448592 -0.0025933236 0.049129285 0.011492394 -0.02478873
0.07368789 0.05126383 -0.08535236 0.04342992 0.022431321 0.0036065131 0.09324274 0.0005353391
-0.045334343 -0.07962696 -0.042149074 0.08016021 -0.03626316 0.09080496 0.0042162165 0.086152606
0.030340306 -0.01638905 0.03127999 0.03611674 -0.071666025 -0.06921078 0.028904982 0.05867579
-0.049160957 -0.06478907 -0.104162745 0.0904602 0.011466987 -0.029115893 -0.040632978 -0.07563364
0.09729821 0.07909528 -0.073963575 -0.024918333 -0.07885943 0.06732472 0.080680855 -0.08830592
0.07024223 -0.008118451 -0.0006557852 0.021126486 -0.060573913 0.0027922243 0.03691537 0.04061269
0.007683389 -0.05707912 -0.08809036 -0.059762716 -0.050830092 -0.03398878 0.022465922 0.046873234
0.061836697 -0.09643258 0.03551971 0.052064784 -0.048372757 0.002828002 -0.053409167 0.022356413
0.06591054 -0.020589203 -0.062782645 -0.073495746 0.017851353 -0.08843501 0.026519261 -0.05716786
-0.033787034 0.030960314 -0.019509166 0.06356067 0.0039889887 0.017569415 -0.092801176 0.08444942
0.012742735 -0.09431495 0.022010423 0.0025734901 0.07409973 -0.036996342 0.019451939 -0.018301152
-0.06116831 -0.019074008 0.042505197 -0.060651027 -0.09149564 0.06523248 -0.056197155 -0.08452153
0.008758992 -0.037859887 -0.06740156 0.033607952 -0.1028398 0.10310783 -0.028440364 0.006125681
-0.07431618 -0.021729216 -0.08232687 0.06755348 -0.06777282 0.067635275 -0.0038055182 -0.068051785
0.008012079 0.018303588 -0.09742081 -0.029074445 0.03538003 -0.02843704 0.032120667 -0.04445953
-0.088814296 -0.0056051314 0.10384453 -0.08450621 -0.09628329 -0.006465547 -0.012081467 0.0888411

encoder_unfaltten.1.cnn.bias f4 [16]
00000000: 2a4a 5dbd b660 00bd 4f50 a2bd 64db 26bd
00000010: 8c18 9abc e354 813d 6ab3 373d 1b35 a93d
00000020: 29b2 d33d e0d0 93bc db47 41bd 4d40 bf3d
00000030: 076b c53d a6ae 363d 9646 473d da84 1f3d
-0.054025806 -0.03134223 -0.07925474 -0.04073657 -0.018810533 0.06315019 0.044848837 0.08262082
0.10336716 -0.018043935 -0.047187667 0.09338436 0.096395545 0.04460015 0.0486513 0.038945056

embedding.weight f4 [10, 8]
00000000: 813b babf e50c 81bf fd8f 3bbf 4754 953e
00000010: 0589 7bbf 5d96 48bf 4614 90be fb39 523d
00000020: 6a24 9dbf a875 98be d578 b33d 01d0 c3be
00000030: ca41 05be c74f 9fbf 1029 70bf 6213 0040
00000040: 117a b03f b7f4 b0bf 870a 73bf bb54 48bf
00000050: 54b0 20bf 76b5 88bf fe2b 34be a695 553f
00000060: fb42 053e 2379 443f ee1a 3abf 2d30 b73f
00000070: 2cac 9fbe f08b e3be 2430 aa3e 2adf 23bd
00000080: 96e3 ac3e e37c 933f f0b8 23be 9d33 a2bf
00000090: 08f7 bfbf ce83 1d3e 2d8d 233f 71f4 293e
000000a0: 76ed bf3d f70b d4bd 2b82 bd3e 734c 053f
000000b0: 56fc d93e 3f42 dbbf 1659 423f c79d 8dbf
000000c0: afab c8bf 7b27 873f 0205 76bf 27ba 40bf
000000d0: c384 3ebf b870 1b3f 34b5 8d3f 08c6 953f
000000e0: b795 ed3d 6627 3ebf aa47 bd3d ddcc 3ec0
000000f0: 025c 0fbd 7033 51bf 17fe 9c3f 6b01 c5bf
00000100: 6cbc b23f f190 c5bf 4028 843e 14f9 1fbf
00000110: 34b1 2abf 88f4 903f c44e de3e 0f88 873e
00000120: cfed 0cbf a13d a03f aad3 cc3f 332c 64be
00000130: 6cbf 91bf e203 0bbf 66de 613f 6290 a13f
-1.4549409 -1.008206 -0.73266584 0.2916586 -0.9825595 -0.78354436 -0.28140467 0.051324826
-1.2276738 -0.29777265 0.08763281 -0.38244632 -0.13013378 -1.2446221 -0.93812656 2.001183
1.3787252 -1.3824681 -0.9493794 -0.7825429 -0.62769055 -1.0680377 -0.17594907 0.8343147
0.13013832 0.7674734 -0.7269734 1.4311577 -0.31186044 -0.444427 0.33239853 -0.040007748
0.33767384 1.1522487 -0.15988517 -1.2672001 -1.4997263 0.15382311 0.6388729 0.16597153
0.09371464 -0.103538446 0.37013373 0.5206978 0.4257533 -1.7129592 0.75917184 -1.1063775
-1.5677394 1.0558923 -0.9610139 -0.75284046 -0.7442133 0.6071887 1.1070924 1.1701059
0.116008215 -0.7427887 0.092421845 -2.9812539 -0.034999855 -0.8171911 1.2265042 -1.5391058
1.3963752 -1.5434858 0.25811958 -0.6248944 -0.6667664 1.1324625 0.43419468 0.26470992
-0.5505037 1.2518808 1.6002095 -0.22282486 -1.1386542 -0.543028 0.8822998 1.2622187

decoder.1.BachNorm.weight f4 [16]
00000000: f6be 893f 8831 783f 3cd0 743f 9050 883f
00000010: 8bc0 793f 3762 813f 9be0 7c3f f1ce 833f
00000020: 283b 673f 3eb6 753f 227c 803f 4fe8 813f
00000030: 9df5 733f 8ce8 833f 004f 803f e426 803f
1.0761402 0.9695058 0.9563024 1.0649586 0.9755942 1.0108098 0.9878022 1.0297529
0.9032464 0.95981205 1.0037882 1.014902 0.9529665 1.0305343 1.0024109 1.0011868

decoder.1.BachNorm.bias f4 [16]
00000000: 1a6c 17be f637 34be 2d03 f0bc a9eb ccbd
00000010: 6058 c3bd 495e 10be eefa 8cbd 6cce 8cbd
00000020: f507 bbbd f8cf d2bd e868 22be cecc d4bd
00000030: 407a 8abd 5a36 00be 6388 47be b603 d6bd
-0.14787331 -0.17599472 -0.02929839 -0.10005886 -0.095383406 -0.14098467 -0.068837985 -0.06875309
-0.09132377 -0.10293573 -0.15860331 -0.10390626 -0.067615986 -0.12520733 -0.19485621 -0.104499266

decoder.1.BachNorm.running_mean f4 [16]
00000000: e4e2 09bd 8b74 2abc 5d11 4bbd 8c5a 06be
00000010: 3074 473d 909f 6b3d 9b40 2b3d 5527 b7bd
00000020: 00bb 90bd 967a 35bc 60be 913c 635b 6d3d
00000030: 6132 253d 523c ec3d a911 a13d c208 d9bc
-0.033663645 -0.010403763 -0.049577106 -0.13120478 0.04869479 0.057525218 0.04180966 -0.08943049
-0.070669174 -0.01107659 0.017790973 0.05794848 0.04033125 0.11534943 0.078646965 -0.026493434

decoder.1.BachNorm.running_var f4 [16]
00000000: dc5f e03d f245 fa3d 9537 fd3d 38ad 083e
00000010: 565c e53d 9a8b f13d 15df de3d 98e4 173e
00000020: c5cb f23d f1f9 f93d 4c25 f63d 654f fb3d
00000030: 3cc8 dc3d 826c f53d ab42 d23d 0c33 eb3d
0.10955784 0.12220372 0.12364117 0.13347328 0.11199252 0.11794205 0.10882393 0.14833295
0.11855272 0.12205876 0.120188326 0.12271003 0.10780379 0.11983587 0.10266622 0.11484346

decoder.1.cnn.weight f4 [16, 16, 6, 6]
00000000: 9b4e 403d a7bc 5b3b 4940 86bc 4f9e 3c3b
00000010: fd61 8b3d 8d45 b43d 3377 9a3b 39b8 863c
00000020: a03c 003d 07b9 0e3b 253f 56bd 3260 523d
00000030: 13ad ccbc 3c2c 6e3d 766e 043d 48e0 72bd
00000040: b018 81bd 2378 fa3c 6774 a5bc d2c2 153d
00000050: eb94 463d 8077 cfbb 61be d93c c81d 9bbd
00000060: 0567 9cbd 9b58 8bbc 78b1 01bc fe38 d3bd
00000070: 980a 8d3d becd 163c 6d47 6ebd 3dd1 673c
00000080: 1169 873d b79f 823d 4bb0 ee3c b3b2 41bd
00000090: 7bcb 6bbd 20c7 8dbb a0e4 0f3c d6d6 e53c
000000a0: 3273 7f3b c09f 093d 7012 98bc 3435 e8bc
000000b0: 3ede c13c 62cb d33b 8714 003d 5f5d c33d
000000c0: 2538 203d a48a 103c 772a 5a3c bddd 14bb
000000d0: 323c dfbc 997e 383d 2d23 46bd 07cd 153b
000000e0: 334f d8bc e50e c9bd 9a05 4b3c 90f6 3b3b
000000f0: 9c61 a3bb 4f16 26bd ea65 0bbd 88bb 42bd
00000100: 0daa fd3c af29 46bc 06bf 543c b946 2b3c
00000110: cced 48bc 1369 47bd 0576 21bc 7704 ad3d
00000120: 73e3 ccbc 5325 a0bc 6a1c 253e da36 bb3c
00000130: ede3 01bd 4732 53bb d096 4d3d e851 563c
00000140: 5f0e 1b3d 0a31 e2bc 2cd4 dbbb 475d a8bd
00000150: 02f8 edbc a7a9 90bc efed 9c3c 05da 073e
00000160: 2517 4e3d e260 35bc a44c 683d 6c97 06bd
00000170: 8d9e 0cba 49f1 28bc a404 1fbd 7b37 e0bc
00000180: 6603 4f3d 40f8 013d c763 ad3c 962c d03d
00000190: a880 0b3d 6118 0b3d 8cff 2fbd 3e8b 163d
000001a0: 32fc 00bc c429 0fbc 4139 27bc 576c 643c
000001b0: fa85 cb3c f58d 463c 9e45 e43d 3288 38bc
000001c0: 3143 e9bc c1fd 7a3d 57c1 9d3c fbe8 a8bd
000001d0: 7057 6bbd 3bce 223d 937d 7b3d b61e 823c
000001e0: fe3e a23d 716c 943c 7103 56bd 2f1e ce3c
000001f0: dca8 a6bd f848 6a3d cd7f 2ebc e308 92bd
00000200: c702 e33c 263f bf3c 4d02 0ebe 3380 063d
00000210: cd8e 103d 96ec 9e3c bc41 6b3b 9997 34bd
00000220: 1643 1cbe ad0c a4bc 47f1 a6bd bcfb 403d
00000230: 3c4b c2bc e726 49be ae77 86bc 6e01 1a3d
00000240: 4685 2d3d 22c0 8abd 0b6c 1fbd da07 44bd
00000250: f9f2 81bd e7f4 61bc 9add 813c 6118 733d
00000260: 7d87 e7bc 767e 473c 833c 733d 2993 e7bc
00000270: 3103 4f3d 5bc0 3a3d 1636 043d ac5f f23c
00000280: 05c0 5e3d 1000 e5bc aa4b a23d 89d4 46bc
00000290: b613 80bd 1b59 3cbb c0ac a2bb 1161 b23c
000002a0: 9540 843c 5520 10bd ebe9 a23c fc64 8836
000002b0: 2471 103d 3b3c 623c a27a 0abc 0dd5 cc3c
000002c0: 1772 8bbc 3791 823d bdf1 0d3d cbc1 fc3c
000002d0: 3518 613c ec36 a23c 0605 263d 8e71 4e3d
000002e0: f8fa 2e3d 3e6b 4d3b b520 0ebc 983f aebc
000002f0: e153 5dbd 9edf 44bc 5ac9 ffbc caa7 14bd
00000300: e3b9 523d 335a 8cbc 91f4 83bc 954c 8abd
00000310: a02e 4d3d 0ca9 e3bb ee22 8f3d e207 90bc
00000320: 0c8d debc e944 62bc cafc cc3d 2aea 613c
00000330: f260 c3bd 1a5b 323d c47d 84bd 069e 16bd
00000340: 0dc0 79bc 8421 553c b15d b9bd 7c74 3fbc
00000350: 5942 01bd ac80 813d b6dc 6c3b dad0 46bd
00000360: e6fe e8bc 8e52 bd3b c1e8 4fbd 0af4 443c
00000370: 0059 4dbd b835 12bd cdf8 52bd af36 2abd
00000380: ef96 bbbd 72f4 bd3c 4f53 9b3d 5a68 0ebd
00000390: 17b1 823c cffb d13c 00b6 15bd b5b4 e6bc
000003a0: 2dda 6a3d 61d6 97bb ab52 e63b 368d 123d
000003b0: 2684 30bb df26 31bd 6fe9 0fbd 0455 e6bc
000003c0: 93d0 bdbc 89f6 d6bc 5be5 023d e700 4cbd
000003d0: 4f73 643c f8e2 083c 4bc4 ffbc f18a 7ebd
000003e0: 33df 853d a259 7b3d e046 7bbd 9967 da3c
000003f0: a5a8 8a3d dd82 2d3d 0d5d 3d3c 0117 3dbb
0.046949964 0.0033529194 -0.016388075 0.0028780883 0.06805799 0.08802328 0.0047139167 0.016445266
0.031307817 0.0021777765 -0.052306313 0.05136127 -0.024984872 0.058147654 0.032331906 -0.059295923
-0.06303537 0.030574864 -0.020197107 0.03656275 0.048481863 -0.006331384 0.026580038 -0.0757404
-0.07636837 -0.017010024 -0.007915847 -0.10313605 0.06886786 0.009204326 -0.058173586 0.014149007
0.06611837 0.063781194 0.029136797 -0.04728956 -0.0575671 -0.004326716 0.008782536 0.028056543
0.0038978574 0.033599615 -0.01856348 -0.028345682 0.023665544 0.006463454 0.031269576 0.095392935
0.039116044 0.008822117 0.0133157885 -0.0022715174 -0.027250383 0.045042608 -0.04837339 0.0022857802
-0.026404953 -0.09817294 0.012391472 0.0028680898 -0.004986001 -0.04054862 -0.03403274 -0.047542125
0.030964876 -0.012094899 0.012984997 0.010453873 -0.012263726 -0.04868419 -0.009854798 0.08448117
-0.0250108 -0.019549048 0.1612412 0.022853304 -0.031711508 -0.0032226013 0.050192654 0.013081051
0.037855502 -0.027611274 -0.0067086425 -0.08220916 -0.029048923 -0.017659022 0.019156424 0.13266762
0.05031504 -0.011070462 0.056713715 -0.03285925 -0.0005364202 -0.010311433 -0.038822785 -0.027370205
0.05054035 0.03173089 0.021165742 0.10164754 0.034058243 0.033958796 -0.042968318 0.036753885
-0.007872628 -0.008737985 -0.0102065215 0.013941846 0.024844158 0.012118806 0.11146091 -0.01126294
-0.028474422 0.061277155 0.01925723 -0.082475625 -0.057456434 0.039747458 0.061399054 0.015883785
0.07922171 0.018118115 -0.052249376 0.025160877 -0.08137676 0.057198495 -0.010650587 -0.07130601
0.027711285 0.023345541 -0.13868065 0.032837104 0.035292435 0.019399922 0.0035897335 -0.044089887
-0.15259966 -0.020025576 -0.08151489 0.047115073 -0.023717515 -0.19643746 -0.01641449 0.03759902
0.042363428 -0.06774928 -0.038921397 -0.04785905 -0.063451715 -0.013791299 0.015852738 0.05934942
-0.028262848 0.012176147 0.05938388 -0.028268414 0.050540153 0.0455936 0.032278143 0.029586636
0.054382343 -0.027954131 0.07924588 -0.012135633 -0.062537596 -0.0028739634 -0.004964441 0.0217748
0.016144076 -0.035187084 0.019886931 4.064872e-06 0.03526415 0.013808305 -0.0084520895 0.025003934
-0.017022176 0.06375354 0.034654368 0.030854126 0.013738682 0.01980158 0.040532134 0.050401263
0.04271981 0.003134444 -0.00867479 -0.021270558 -0.05403507 -0.012016205 -0.031223942 -0.03629283
0.051446807 -0.017132854 -0.01610783 -0.06752888 0.050093293 -0.006947642 0.06989084 -0.017581884
-0.027166866 -0.013810375 0.10009153 0.013788739 -0.09539975 0.043543912 -0.064693004 -0.036771797
-0.015243542 0.013008479 -0.09051073 -0.011685487 -0.031557415 0.0632337 0.0036142296 -0.04853902
-0.028441858 0.0057776636 -0.05075908 0.012021074 -0.050133705 -0.03569576 -0.051506806 -0.041556057
-0.09159648 0.02318785 0.07584249 -0.034767486 0.015953584 0.025632767 -0.03655052 -0.02816234
0.057336975 -0.0046337103 0.0070288978 0.0357792 -0.0026934235 -0.04324996 -0.03513473 -0.02811671
-0.023170745 -0.026240604 0.03195701 -0.049805548 0.013943507 0.008354895 -0.03122153 -0.062144224
0.065367125 0.061364777 -0.06134689 0.026660727 0.06770448 0.04236113 0.01155783 -0.0028852823

decoder.1.cnn.bias f4 [16]
00000000: 5699 43bd ca42 92bc 2229 78bd 014e 00be
00000010: 7f45 9bb8 cbc6 863d 1675 8e3d ab08 1bbd
00000020: c2b1 dbbd e196 0cbd e3c7 ce3c 304e 283d
00000030: 39a4 233d 2546 643d b729 973d 5ab6 43bd
-0.047753654 -0.017854113 -0.060586102 -0.12529756 -7.4039206e-05 0.065808855 0.06955926 -0.037850063
-0.10727264 -0.034323577 0.025241798 0.04109019 0.039951537 0.055730958 0.07381003 -0.047781326

decoder.2.BachNorm.weight f4 [10]
00000000: a6de 683f 21fa 693f 5eff 453f fe60 7f3f
00000010: 5a36 673f dca0 8f3f 8941 803f 062c 5e3f
00000020: 3264 6c3f ff26 6f3f
0.90964735 0.9139729 0.77342784 0.99757373 0.9031731 1.1220965 1.002 0.86785924
0.92340386 0.9341888

decoder.2.BachNorm.bias f4 [10]
00000000: 9b4f c4bd f8f1 8ebe c0bb e4bd 1710 b43c
00000010: 6a27 9fbd b2b2 59be 053d 77be 4fd9 29be
00000020: aef9 29be ad46 1ebe
-0.09585496 -0.27918983 -0.11168623 0.021980328 -0.077711895 -0.21259573 -0.24144371 -0.16586803
-0.16599151 -0.15456648

decoder.2.BachNorm.running_mean f4 [10]
00000000: fb99 903e cfaf bbbd 4092 2cbe cffb fabd
00000010: f3f1 87bd 0891 4e3d bbfd 8fbb 4f7e 763e
00000020: 0eb1 23be 91a6 1dbe
0.28242478 -0.09164392 -0.16852665 -0.1225506 -0.06637945 0.05043128 -0.0043942607 0.2407162
-0.1598551 -0.15395571

decoder.2.BachNorm.running_var f4 [10]
00000000: 456b 353e 167e 023e 2355 0a3f 4dd2 383e
00000010: 4788 023e 1d63 393e 3bc2 163e 553b 333e
00000020: c3be 3d3e 98eb 0b3e
0.17716701 0.1274341 0.5403616 0.18048973 0.12747298 0.18104215 0.1472253 0.17503102
0.18529801 0.1366409

decoder.2.cnn.weight f4 [16, 10, 6, 6]
00000000: b0be f5bb 1c56 4b3c 3932 0f3d 8467 9fbb
00000010: 7891 2f3d 95d6 b6bc d30b 933c 5ae6 56ba
00000020: dafa 143d e2a1 813d 41c1 4d3d 9379 0ebd
00000030: 57ed 063d 7a6d 543d f98d ae3d b4c7 cf3d
00000040: 05b0 ac3d 461e f0ba 4e16 bc3d 169f 393d
00000050: d00d 653c 808c b7bb 7eea 26bd a3ac 78bc
00000060: 22a7 003d 5131 07bb 18d2 39bd cb35 dbbd
00000070: 631c f9bd e687 adbd 0b39 ecbc 52b6 823a
00000080: cd36 71bc 9ae6 6fbd 6ba0 fbbd 7c9c 073c
00000090: 9009 c1bd 79c3 cb3d f79d 613d 5ce8 eebb
000000a0: 7828 283d bd85 933c b994 9bbd 970e 0a3e
000000b0: 370c 543d f84a 323d aa15 ca3b 9276 33bb
000000c0: 2d07 823d ac1f fa3d fbe2 6f3b 1280 1cbc
000000d0: c878 883d fd42 b6bd 33eb 243b 5507 cabc
000000e0: fb56 36bc 1cb7 df3c dd02 b3bd dc8d 653d
000000f0: c4e3 fabb 1a74 113d 2c8a 80bd 4f40 a33c
00000100: 4ae5 6bbc 82c0 973c db86 bbbc b326 473c
00000110: 4cd3 56bd 874a 953d 9836 24bc 25d6 53bd
00000120: f858 173d 999c 9f3c 3952 e73c a4cd 6d3d
00000130: b63f b93d 02b0 a73d 7c4b 3b3d 84f4 66bb
00000140: 4adc 943d f031 e1bd c619 bdbc 1a47 abbd
00000150: bd74 d33c 34b5 deb9 f442 823d 62ef 953c
00000160: 2cee 4dbd 5665 c03c 63b9 01bd de2a 9fbd
00000170: 57c2 073c 5971 b1bc 56e7 783d dc6c 91bd
00000180: 7ba1 04bd ea2d 093d 5d57 d13a e2ca 0ebd
00000190: d739 6abd aa27 f03c 02ef b73c 473e 90bc
000001a0: a120 72bb 584f 1dbc 6c4f 1b3d 2dc9 87bd
000001b0: 9f8d 363d 5b4e 5b3b f478 ef3b 7d1c 5d3a
000001c0: ba40 093d 9812 a6bd 41cb eebc d58a ec3c
000001d0: fbe8 b7bb 5e25 2dbc c1ff a8bc 0d9a 38bd
000001e0: 6d2c 513d 4e6c d93c 2f8a 673d e96e 0b3e
000001f0: 6fad b1bd 6244 303d c547 40bd 0c5b 16bd
00000200: 94b5 0bbd 13fb 2bbd 7133 893d a8c0 9ebd
00000210: ea37 42bd bc89 343d 0f35 e93b 7970 b5bd
00000220: aeb1 963d 51a7 1abd 834c 4cbd a0c5 efbc
00000230: 3f75 803d 38f7 a03c 8801 583d fee9 58bb
00000240: 5582 39bd 4d6f 623d 0700 aa3c 84b7 243c
00000250: a5f6 6d3c 0e38 293d 6076 72bd d5ec 0cbd
00000260: 0a16 8cbd befc 9e3c 6166 5d3d 0c15 bfbb
00000270: b24e b7bd 97ea 823d ea9f 43bc 3170 49bd
00000280: 1e5d 5b3c 7bf4 a93d 6766 683d a748 df3c
00000290: fd85 8bbc 3f45 c6bc d2c8 983c 0f70 72bc
000002a0: a387 973d 165d 85bd 3d3b 83bd 6697 62bc
000002b0: 1954 de3d da39 6c3c 5444 0abd c8ff 08bd
000002c0: d31f 52bd 4cf8 a4bd 4a16 9ebd 3510 a33c
000002d0: 6786 193d c44d 4bbc b7b8 14bd 04e4 973b
000002e0: 4dcf d6bb 4ef3 553c 97cb 2ebd 4a56 8bbb
000002f0: 8022 193c 79f5 ea3c 23b6 e1bc 59c0 2bbc
00000300: 5498 b73c eb87 743d 59be c73d 9245 b73d
00000310: a453 553c dba3 26bc 26eb 563d c24e f63d
00000320: 3dce 8e3d aff8 143d f276 01bd 4a01 21bc
00000330: dbe5 513c 9819 bd3c 5308 e8bc 8afa 0fbe
00000340: 6501 28be 51e7 b3bd d123 193d 8be7 8fbd
00000350: 87d0 1ebe 98e5 58be fee5 8dbd 9c0a e93c
00000360: 5c4b e13c ab6d 9a3c 81d1 033e 1ca6 5d3d
00000370: e98f 39bc 4bc7 0bbb 4ac6 cebc 2481 0f3d
00000380: 0709 ed3c db70 643d 151f 4c3d 8b98 893c
00000390: 1e30 033d 38ec d53c b9af f43d 021c 81bd
000003a0: 492b 9f3b 509c 153d 9c76 013e acb5 6cbc
000003b0: 8f37 c2ba bea8 99bd b83a 02be 9633 b7bd
000003c0: 3632 18bc 49ea 2fbd 38a6 aa3c 8953 cb3d
000003d0: dec5 983d ac85 383c 32bd 98bd 52b3 89b9
000003e0: ec13 afbd e048 c9bd 4585 08bd cabc 013d
000003f0: 1103 6c3d dce3 38bc 68dc 8ebd be1f 3fbd
-0.0074995384 0.012410667 0.034960005 -0.004864635 0.04286334 -0.022319118 0.017949974 -0.0008197777
0.036372043 0.06329705 0.05023313 -0.03478391 0.03294119 0.051862217 0.08523173 0.10145512
0.084320106 -0.0018319569 0.09183942 0.04531773 0.013980344 -0.0056014657 -0.040750973 -0.015177879
0.03140939 -0.002062876 -0.045366377 -0.107036196 -0.121636175 -0.08473186 -0.028835794 0.0009972549
-0.014722538 -0.05856953 -0.12286457 0.008277055 -0.09425652 0.09949393 0.055082288 -0.007290883
0.04105422 0.018008107 -0.07596726 0.13482128 0.05176946 0.043528527 0.0061671333 -0.0027383906
0.06349025 0.12213072 0.0036603797 -0.009552019 0.06663662 -0.08899496 0.0025164604 -0.0246617
-0.011129136 0.027308993 -0.087407805 0.05604349 -0.0076565463 0.035511114 -0.06276354 0.019928126
-0.0143979285 0.018524412 -0.022891453 0.012155223 -0.052447602 0.072896056 -0.010022782 -0.051717896
0.03695008 0.019483851 0.028237449 0.058057442 0.09045355 0.08187868 0.045726284 -0.0035240958
0.07268579 -0.10995853 -0.023083579 -0.08363171 0.025812501 -0.00042478146 0.063604265 0.018302623
-0.050275967 0.02348582 -0.03167094 -0.07771848 0.00828608 -0.021660494 0.060767494 -0.071008414
-0.032380562 0.033491053 0.0015971471 -0.034861453 -0.057184067 0.029315788 0.022452835 -0.017607821
-0.0036945718 -0.009601437 0.03791754 -0.06630168 0.044568654 0.0033463452 0.00730812 0.0008434726
0.033508994 -0.08109015 -0.029149653 0.028874794 -0.0056124902 -0.010567991 -0.020629765 -0.04506879
0.05106776 0.026540902 0.056528267 0.13616528 -0.08675658 0.043033965 -0.046943445 -0.036707923
-0.034108713 -0.04198749 0.06699265 -0.0775159 -0.047416605 0.044076666 0.007116921 -0.08859343
0.073581085 -0.03775722 -0.049877655 -0.02926904 0.06272363 0.019649133 0.052735835 -0.0033098455
-0.04529031 0.055281926 0.020751966 0.010053519 0.014524137 0.041313224 -0.059194922 -0.034405548
-0.06840141 0.019407626 0.054052714 -0.0058313664 -0.08950557 0.06392401 -0.011939982 -0.04917926
0.0133889 0.08298584 0.056738283 0.027256323 -0.017031664 -0.024202941 0.018650446 -0.014797225
0.073989175 -0.06511895 -0.06407783 -0.0138300415 0.10855884 0.01441809 -0.03375657 -0.033447057
-0.05129988 -0.08055171 -0.07719095 0.019905189 0.03748169 -0.0124086775 -0.03630897 0.004635336
-0.006555474 0.013058497 -0.042674627 -0.00425223 0.009346604 0.028681504 -0.02755267 -0.010482871
0.022411503 0.059699934 0.09753103 0.08948816 0.01302043 -0.010170902 0.05247035 0.120267406
0.069729306 0.036369976 -0.031607576 -0.0098269675 0.0128111495 0.023083493 -0.028324282 -0.14060417
-0.16406782 -0.087843545 0.037387673 -0.07026585 -0.15509234 -0.21181333 -0.06928633 0.028447442
0.027501754 0.018851122 0.12872888 0.054113492 -0.011325815 -0.0021328505 -0.025241036 0.035035267
0.028934969 0.05577169 0.04983433 0.016796371 0.03202831 0.026113614 0.11947579 -0.0630417
0.004857455 0.036526024 0.12642902 -0.014447611 -0.0014817583 -0.07502888 -0.12717712 -0.08945386
-0.009289315 -0.04294804 0.020831212 0.099280424 0.07459615 0.011262339 -0.07457961 -0.0002626428
-0.08548722 -0.09828353 -0.03333022 0.031674184 0.05762011 -0.011284795 -0.06975633 -0.04666113

decoder.2.cnn.bias f4 [10]
00000000: 1bcd d33c 07ec c5bc 11fe e2bc b29b e5bb
00000010: 761e 323d 40c9 983c 6d17 883d fbef 913c
00000020: 0e88 c33c cfd5 3dbd
0.025854638 -0.024160398 -0.027709039 -0.0070070857 0.04348608 0.018650651 0.06645093 0.017814627
0.023868587 -0.046346482
