AutoEncoders/Conditional_VAE/saved_model/model1.pth (torch, 99005 bytes, 44 tensors)

encoder_faltten.0.BachNorm.weight f4 [10]
00000000: 090b 863f 68a7 6a3f 4f77 a03f 5d87 643f
00000010: d8b8 703f 1ce3 683f 576e 653f da02 743f
00000020: 526c 873f 8de4 703f
1.0472118 0.9166169 1.253641 0.8926905 0.9403205 0.9097154 0.8962149 0.9531685
1.0579932 0.9409874

encoder_faltten.0.BachNorm.bias f4 [10]
00000000: 860e 233e e78d 1dbb b04c b93e 397a 92bc
00000010: 1e5c 6a3d 6d2b 943b 8e86 e63d e5fc c23d
00000020: d8b2 153f ed70 30bc
0.15923509 -0.002404088 0.3619132 -0.017880546 0.057216756 0.0045217783 0.11256133 0.09520892
0.5847602 -0.010769111

encoder_faltten.0.BachNorm.running_mean f4 [10]
00000000: cf54 19be 000b 513f 93d4 acbe 19dd ed3f
00000010: 1b82 e43d dbbe 913e 84c9 2dbe ebed cdbd
00000020: 5fcc 1ebe d5c2 82c0
-0.14973758 0.8165741 -0.3375593 1.8583099 0.11157628 0.28465924 -0.16971403 -0.10055145
-0.15507649 -4.086283

encoder_faltten.0.BachNorm.running_var f4 [10]
00000000: 119d 433f c210 6e3f 0c0b 1940 d099 1840
00000010: 8713 453e 9b08 283f a65f 053f b8ca 3d3f
00000020: c482 b13f 5887 1841
0.7641154 0.9299432 2.3912992 2.384388 0.1924573 0.6563813 0.5209907 0.7413745
1.3868032 9.533043

encoder_faltten.0.cnn.weight f4 [10, 2, 3, 3]
00000000: 2f41 8f3d fda1 cebd 63a8 f83d 48e8 a33c
00000010: cb4e 0a3d 1ef6 3cbd 438b d13e ee6f 823d
00000020: 5422 62be af92 473d e015 163e 4e3d 34be
00000030: 5366 e23d 101e 0a3e bc1e bbbd 752d d9bd
00000040: 4567 9a3d 86c1 0fbe 023c bc3d af79 1e3c
00000050: 5d89 57be c4fc e93d 9e88 afbd a80f babe
00000060: f204 303e 4762 40be 3665 fc3a b31c ef3d
00000070: 108f 87bc c69c 263e 348d 813d 3ef8 223e
00000080: 60fb 39be 9804 0fbe f3b8 a1bd 8c63 313e
00000090: d44f a9be fb7b 1fbe 3ddf 0cbe 6018 08bd
000000a0: af47 3fbe 4f1c 92be fb76 5f3d adfa a4be
000000b0: 1568 dfbe 9cb3 3bbe cf1e 253e 4e88 6abe
000000c0: 1f56 2b3e 4141 403e 6e1d f83d 20a6 0ebe
000000d0: 444f 993c f6fb 0fbe 3a64 a13e a4ef ddbd
000000e0: b4f7 62bd 60ee b2bc ebb6 cd3c d612 9abe
000000f0: 81be 8cbe 2423 a73c 4f75 42be 4e8b 433e
00000100: df3e 69be 4494 3b3e bd6c 1abd 6eb0 2f3d
00000110: a24d db3d c185 8abc 1c6c 0d3d 091a 5c3e
00000120: 4829 f2bd 16a8 acbd a33f 6dbe e11c d43d
00000130: e4ba 913a 703e 27be 03fd e13d 8e90 283e
00000140: 7401 a6bd 5029 d4bc 472a 46be 6a92 13be
00000150: 856e 4f3e 456b a93d a0f0 393e 64c2 293e
00000160: da4d 40be 4d2d a2bc cd81 b8bd b55f 3c3e
00000170: 3686 593e abb9 26be 72cf d83d 997a 23be
00000180: 0da6 aabe a600 5cbe 02b9 a1be b641 b7bd
00000190: a73d 823e f054 733e 04ad 07be 1abf 3fbe
000001a0: 2e8f 97bd b62d c53d d363 80bd 449d 293d
000001b0: 1730 3a3b 63d4 9c3d 9821 8e3e bf29 eebd
000001c0: 8077 f73c 54f1 603e 21ac 7abe 649d 2dbe
000001d0: 17d0 0b3e 02fd 2bbe d8fb 2b3e 9987 4fbd
000001e0: 33d2 953e d6de 2ebe 34df 35be f8d6 bcbd
000001f0: 70de 583e a5de a4bc 08fd 12be a530 16bd
00000200: 3b13 1ebe 84df 2cbe 341d b63d eb66 2f3e
00000210: 8de3 38bd 498f 3f3e 74f1 9f3e 1ffc cbbd
00000220: 6744 f9bd cb7c ef3d 3373 b6bd ecea 81bc
00000230: 703a 0bbc 33a9 41bd 5a94 813c 3d16 7f3e
00000240: ad3e 7c3e 2f14 ba3d 2d8a 163e 03e9 653e
00000250: 91da 923d 2e43 143e a3df d13d 74a1 763e
00000260: c8ea 7d3e 3305 083e 407a 413d 78cd 863d
00000270: e2aa 83be f53d b33c 6fc8 1ebe fae9 2bbe
00000280: 28f6 263e 4e48 0e3e 6307 9f3e 5c6a 5dbd
00000290: 4aba 14bd 2331 a03e d4a6 04be 9e95 af3d
000002a0: c87f d2bd 69c7 3dbd b97c d9bd 95a3 993b
000002b0: 907b 12be cb39 80be 6e7a 58be 2a14 82be
000002c0: 1370 87be f472 ff3d 2638 b0bd 213b 203d
0.06994855 -0.100894906 0.12141492 0.020008221 0.03376655 -0.046133153 0.4092656 0.06369005
-0.22083408 0.048723873 0.14656782 -0.17601511 0.11054673 0.1348803 -0.091367215 -0.10604373
0.07539228 -0.14038667 0.09191133 0.009672566 -0.21048494 0.11425164 -0.085709795 -0.3634007
0.17189386 -0.1878749 0.0019256237 0.11675396 -0.01654771 0.16270742 0.063257605 0.1591501
-0.18162298 -0.13966596 -0.078966044 0.1732313 -0.33068717 -0.15574639 -0.13757034 -0.03322637
-0.18679689 -0.28537223 0.054556828 -0.322225 -0.43634096 -0.18330234 0.16125034 -0.22903559
0.16732071 0.18774892 0.12114988 -0.13930559 0.018714555 -0.14060959 0.3152178 -0.108367234
-0.05541201 -0.021842182 0.025111636 -0.30092496 -0.27489093 0.020402499 -0.18990062 0.1909611
-0.2277789 0.18318278 -0.037701357 0.042892866 0.10708167 -0.016909482 0.03452693 0.21494307
-0.1182428 -0.08430497 -0.23168807 0.10357071 0.001111832 -0.16332412 0.11034586 0.16461393
-0.08105746 -0.025898606 -0.19352065 -0.14411321 0.20257004 0.08272413 0.18158197 0.1657806
-0.18779698 -0.019796992 -0.090091325 0.18395884 0.21242604 -0.16281764 0.10586442 -0.15964736
-0.33329812 -0.21484622 -0.31586462 -0.0894808 0.25437662 0.2376287 -0.13249594 -0.18725243
-0.07400356 0.09627859 -0.0626904 0.041409746 0.0028410011 0.07657697 0.27760005 -0.11629056
0.03020835 0.2196706 -0.24479724 -0.16954571 0.13653599 -0.16795734 0.1679529 -0.050666425
0.29261932 -0.17077193 -0.17760926 -0.092206895 0.21178603 -0.020125696 -0.14354336 -0.036667485
-0.15437023 -0.1688214 0.08892289 0.17129104 -0.045138884 0.18707003 0.31238902 -0.09960198
-0.1217125 0.11693724 -0.08908691 -0.01585909 -0.008497819 -0.0472805 0.01581781 0.24910827
0.24633284 0.09085881 0.14701147 0.22452168 0.071705945 0.14478752 0.102477334 0.24085027
0.24796593 0.13283233 0.047235727 0.06582159 -0.2571631 0.02188013 -0.15506147 -0.16788474
0.16304839 0.1389477 0.31060323 -0.05405651 -0.03631047 0.31287488 -0.12954265 0.08573459
-0.102782786 -0.04633275 -0.10619492 0.00468869 -0.14304948 -0.25044093 -0.21140453 -0.2540601
-0.26452693 0.124730974 -0.086044595 0.03911889

encoder_faltten.0.cnn.bias f4 [10]
00000000: 9a1c 17be e861 1cbe 0a3f 54be c459 8b3b
00000010: 6078 e6bd 64a6 67bc ecbe 18be 467b cbbd
00000020: 9744 01be c02f 3abe
-0.14757004 -0.15271723 -0.20727172 0.0042526443 -0.112534285 -0.014138792 -0.14916581 -0.09935622
-0.12623821 -0.18182278

encoder_faltten.1.BachNorm.weight f4 [16]
00000000: 80c0 803f 40ed a73f a5e2 723f 32a1 6c3f
00000010: 338a 743f db95 6b3f 84be 833f 0f0d 823f
00000020: 716e 7e3f 6bf0 603f 3811 773f 3db8 6f3f
00000030: c3b0 713f 34cf 733f 7c26 903f 830c 6e3f
1.0058746 1.3119278 0.9487708 0.92433465 0.95523375 0.92025536 1.0292516 1.0160235
0.9938727 0.8786685 0.9651065 0.936405 0.9441034 0.9523804 1.1261744 0.9298784

encoder_faltten.1.BachNorm.bias f4 [16]
00000000: ccec 17bd 86cd e53d 0cd6 cdbd a5b1 8dbd
00000010: 4bc2 62bc 18a2 f1bc 8489 8a3d cc36 35bd
00000020: 6aa3 60bd 26b0 61bd 9747 a1bc 5b9e 2cbd
00000030: 44d8 033d 1afd 80bc 2cad 3e3d 187a 73bd
-0.03709106 0.11220841 -0.10050592 -0.06918649 -0.013840268 -0.029496238 0.0676451 -0.04424171
-0.054843344 -0.05509963 -0.019687457 -0.042143207 0.03218867 -0.015745688 0.04655187 -0.05944261

encoder_faltten.1.BachNorm.running_mean f4 [16]
00000000: b6dd 82be e0a8 883d a9e5 8bbd f490 8bbf
00000010: 1abc e4be 3939 7f3f baf7 9bbe 616c eb3e
00000020: 54fd b2be f608 973e e66c db3e 5040 eabe
00000030: 3d09 673f 15ab dc3e f471 633c e093 a53c
-0.25559777 0.06672835 -0.068309136 -1.0903611 -0.4467476 0.9969669 -0.30462438 0.45981124
-0.349589 0.29499024 0.4285652 -0.45752192 0.9024847 0.43099275 0.013882149 0.020212114

encoder_faltten.1.BachNorm.running_var f4 [16]
00000000: 0133 453f 9e46 0e3f 1430 b93e 4bc5 d33f
00000010: 2d65 1c3f d66f 993f 8158 4d3f 3c80 023f
00000020: abdf a43e aab7 f93e cbd1 0c3f bb3f c73e
00000030: d01f 0d3f 823b 133f 2fb3 d93e aa57 323f
0.7703095 0.55576503 0.36169493 1.6544584 0.6109188 1.1987255 0.8021317 0.5097692
0.32201895 0.48772937 0.5500762 0.3891581 0.5512667 0.57512677 0.4251952 0.69665015

encoder_faltten.1.cnn.weight f4 [16, 10, 3, 3]
00000000: 4d55 083d 3a5a e1bc e319 273b 0731 573b
00000010: 860c a9bd a368 7ebc dd07 333d a853 003b
00000020: ae61 20be 584c 883c 2421 833d 323f 8138
00000030: 8db4 6e3d 1462 babd 32ef 893d e65a adbc
00000040: d4a9 d13d ebe3 433d 3e51 b33d 8999 d93d
00000050: 905b 6a3d 3253 87bc 6e75 a43d 676f 033d
00000060: e8c8 b73d 4ad6 7f3d 1922 82bd e32d ec3c
00000070: b43c 4bbd 593a 693d 1aa0 99bd 129d 00be
00000080: fbbb 543d fb7e ce3d 266a a2bc 5f4d 6a3d
00000090: 1701 043e 87e0 f13d f12b a23b bc2c 793c
000000a0: afcc 65bd 3f46 5abd 6e6f 413d 4466 90bd
000000b0: 2c0c 81bd 0b99 b73b 5c92 963d 203e 133d
000000c0: ae04 94bd e8e3 a8bd 0418 1eb8 1b8b 80bd
000000d0: 3cd6 03bd dd65 1ebd 6858 223d ab05 963d
000000e0: eb5f 64bd 8426 983b 2310 00be 678f 16be
000000f0: 9277 47bd e36e c83b 2763 29bd aa3c 9dbd
00000100: d6df c4bd f02b df39 0631 8d3d 190b f5bc
00000110: 0cb8 5abd 213f 98bd e7d0 6d3c a284 64be
00000120: d2b1 993d 2f60 c5bd 3ebb 1abe 39ac 463d
00000130: 0644 c6bd a61e dbbd eb8c 083e f0ec 5fbd
00000140: 6883 4cbe 52bd e73d f66c 993d ca4f 733d
00000150: 0c4b f13c 7030 943d 0710 8c3c 5f6b b83c
00000160: efd1 93bd 6535 42bd c9cf 8f3d 4084 1abd
00000170: 3183 25bc 6a53 b9bd 1e84 cebc 6ca1 82bd
00000180: 307d 66bd c330 b0bd 0e65 2dbe df8e 113d
00000190: 8585 a8ba 7dca e5bc 93a0 473d 15ba c83d
000001a0: 2a07 eb3d fb10 2ebd 4bcd 223c dc57 bc3c
000001b0: dedd 2c3e d2b4 2d3e 6b3b 4f3e d000 2f3e
000001c0: d97a 323e fca7 183e 6ad3 3f3e c04d 103e
000001d0: 0501 fe3d c12c 0f3e bdca 84bd 3b21 9dbc
000001e0: c94d 0f3e af7a 353d 93ac ef3a ae65 a2bd
000001f0: 284a 393c fcaf 003e 0968 713c 93ec c93c
00000200: 8910 933b 02e3 043c 6afe debc 8f26 0e3d
00000210: db4f 88bc 8d29 2cbb 8d20 263d c6a4 39bc
00000220: bd31 113d 322d 40bb 4450 183d 24c7 e13b
00000230: 43b2 a2bc 5560 ad3c 7dfc 763d e2c2 c63d
00000240: c0da b1bc 57be 113d b35e a5bc ca17 bfbd
00000250: e8dd a8bd 138e 44be fa04 86bd 89b7 8ebd
00000260: cfd0 943c bd67 6fbd f336 0cbc e7cf c3bd
00000270: dc33 9cbc 5fe7 b1bd 0f9c a2bc 98ed 82bd
00000280: bdfb e0bd 5410 2ebe cec1 a43d 7608 0cbd
00000290: f2b7 8abd b309 31bd 03b1 cdbc 79e1 4bbd
000002a0: 6cc4 f4bd 89f2 d9bd 3480 f0bd 28a3 d3bc
000002b0: 9411 e83d 87f5 6c3d 5ef7 6b3d 55be 6b3b
000002c0: e0c6 e2bc 84aa 0e3d 9c8e 7e3d 878c a3bd
000002d0: a8ad ad3d 0810 76bc 2eb4 a83d f464 a23b
000002e0: f16c 763c d336 793d a357 503e 6439 003d
000002f0: 5b62 893d ed70 1fbe 80dc 193d e7aa ae3c
00000300: 958b 7ebd 14b3 2bbd ba02 303d 9786 cf3d
00000310: eb9b 45bd 2161 5f3c b077 cabd 39bf 5cbd
00000320: 85e9 463c 6e40 82bd 1298 72be 679a 14bd
00000330: 4e17 68be 1957 47bc 785e c9bc 9fc0 8f3d
00000340: abac 4a3d 69c0 133e aa28 d9bc 2a70 6c3d
00000350: fa82 b13c d702 bd3d dd42 173e d759 d63d
00000360: 5fb9 4f3d dfe3 4c3c 2267 623d fc25 37bc
00000370: 9ad8 84bd 07af 3a3d 0750 953d e137 703d
00000380: f782 83bd 2e2e 46bc dc9a 9c3b f7d8 ddbc
00000390: 4610 e13d 99de 283d df4f 31bc efb6 b03d
000003a0: 85e5 bcbd e5a7 983d 931e b4bd 6b9f ad3c
000003b0: 27fc ddbd ed11 9cbd 1308 c9bb ebc6 34be
000003c0: 62fd e5bc 5762 d1bb b1d0 413d cb48 debd
000003d0: 9003 03bd 8851 113b 31a7 53bc 1483 dbbc
000003e0: 057e fcbd 07ce a6bb 5ac9 5abd e861 abbd
000003f0: efc7 ce3d 79d5 e93d 9843 973d 95cf b4bd
0.033284474 -0.027508844 0.0025497607 0.003283562 -0.08254342 -0.015527877 0.04370867 0.0019581113
-0.15662262 0.016637966 0.064028054 6.1629704e-05 0.058277655 -0.09100738 0.06735076 -0.021161508
0.1023747 0.04782478 0.0875573 0.10624988 0.057216227 -0.016519163 0.080302104 0.032088663
0.08973867 0.06246022 -0.0635416 0.028830474 -0.049618438 0.05694041 -0.0750124 -0.12559918
0.051937085 0.10082813 -0.019826006 0.057202693 0.1289104 0.11810403 0.004949086 0.015208419
-0.056103405 -0.05328965 0.04722541 -0.070507556 -0.0630115 0.005602961 0.073521346 0.03594792
-0.07227455 -0.08246595 -3.76925e-05 -0.06276532 -0.03218673 -0.038671363 0.039635092 0.073253
-0.055755537 0.0046432633 -0.12506156 -0.14703141 -0.048698016 0.0061167344 -0.041354325 -0.076775864
-0.09613006 0.0004256661 0.06894116 -0.029912518 -0.053398177 -0.07433916 0.014515138 -0.2231622
0.0750462 -0.09637486 -0.1511049 0.048504088 -0.09680943 -0.10699205 0.13335006 -0.05466932
-0.19972003 0.11315407 0.07491486 0.059402265 0.02945473 0.07235801 0.017097486 0.022512136
-0.07217776 -0.047414202 0.07022054 -0.03772378 -0.010102079 -0.09049113 -0.025209483 -0.06378445
-0.05627173 -0.086030506 -0.1693308 0.035536643 -0.0012857175 -0.028050655 0.04873712 0.09801117
0.11475976 -0.042496663 0.009936641 0.022991113 0.1688151 0.16963509 0.2023751 0.17090154
0.17429675 0.14907831 0.18732992 0.1409216 0.12402538 0.13981916 -0.06483982 -0.019180885
0.13994516 0.044306453 0.0018285684 -0.0792955 0.011309184 0.12567133 0.014734277 0.02464894
0.004488055 0.0081107635 -0.027220923 0.03470474 -0.01663964 -0.0026269883 0.040558387 -0.011330789
0.035447825 -0.0029323814 0.037185922 0.0068901945 -0.019860392 0.021164099 0.060299385 0.0970514
-0.021710753 0.035581913 -0.020186758 -0.09330709 -0.0824545 -0.19194822 -0.06543918 -0.069686
0.018165974 -0.058448542 -0.008558023 -0.095611386 -0.019067697 -0.08686709 -0.019849805 -0.06392974
-0.10985515 -0.16998416 0.08044778 -0.034187756 -0.06773366 -0.04322214 -0.02510882 -0.049775574
-0.11951527 -0.10641963 -0.11743203 -0.025834635 0.11331478 0.05785134 0.057608955 0.00359716
-0.027682722 0.034830585 0.06214772 -0.07985788 0.08480388 -0.015018471 0.082374915 0.004955882
0.015040622 0.0608433 0.20345931 0.031304732 0.06708213 -0.15570422 0.0375638 0.021321727
-0.062144835 -0.04191883 0.04297135 0.10133093 -0.048244398 0.013633997 -0.0988611 -0.0538933
0.012140636 -0.06359945 -0.23690823 -0.036280062 -0.2266514 -0.012166762 -0.024581179 0.070191614
0.049481075 0.14428867 -0.026508648 0.057724155 0.0216689 0.09229057 0.147716 0.10466354
0.050713893 0.012505501 0.055274136 -0.01117849 -0.06486626 0.045577075 0.07290655 0.05864704
-0.06421464 -0.012095971 0.004779203 -0.027080996 0.10989432 0.04122791 -0.010822265 0.08628642
-0.09223465 0.07453898 -0.08794894 0.02119418 -0.1083911 -0.076206066 -0.0061349957 -0.17654006
-0.028074924 -0.006389897 0.047318164 -0.10853728 -0.03198582 0.002217384 -0.0129182795 -0.026795901
-0.12328724 -0.0050904783 -0.05341468 -0.083682835 0.10096728 0.1141767 0.07385939 -0.08828656

encoder_faltten.1.cnn.bias f4 [16]
00000000: a5a7 12bc b726 cdbd b7e1 d7bc 4bb8 26bd
00000010: 8b27 8b3b 6527 a8bd fa44 303d 0d4a 8b3c
00000020: 74c9 b5bd 230f c23d ecbe 183c dbac aa3b
00000030: 3569 993c fce3 3b3d b1de 64bb 22e3 a43d
-0.008951102 -0.1001715 -0.026352746 -0.0407031 0.0042466572 -0.08210639 0.04303453 0.017003084
-0.08876315 0.09475543 0.009322863 0.0052085943 0.018726924 0.04587172 -0.0034922773 0.08051135

encoder_unfaltten.0.BachNorm.weight f4 [10]
00000000: 0000 803f 0000 803f 0000 803f 0000 803f
00000010: 0000 803f 0000 803f 0000 803f 0000 803f
00000020: 0000 803f 0000 803f
1.0 1.0 1.0 1.0 1.0 1.0 1.0 1.0
1.0 1.0

encoder_unfaltten.0.BachNorm.bias f4 [10]
00000000: 0000 0000 0000 0000 0000 0000 0000 0000
00000010: 0000 0000 0000 0000 0000 0000 0000 0000
00000020: 0000 0000 0000 0000
0.0 0.0 0.0 0.0 0.0 0.0 0.0 0.0
0.0 0.0

encoder_unfaltten.0.BachNorm.running_mean f4 [10]
00000000: f525 ad3c 63d2 e83b e688 003d 061f b13c
00000010: 3340 b13b 5eb6 0bbd 52c6 c4bc 1a3a 2cbd
00000020: 5542 383c bbee 983c
0.021136263 0.007105158 0.031380557 0.021621238 0.0054092645 -0.034109466 -0.024020348 -0.042047597
0.011246284 0.018668523

encoder_unfaltten.0.BachNorm.running_var f4 [10]
00000000: 5572 673f d82f 673f a821 673f 4228 673f
00000010: 3a23 673f 3e36 673f 53c7 663f 6d9d 673f
00000020: 3598 673f d833 673f
0.9040883 0.9030738 0.9028573 0.90295804 0.90288126 0.9031714 0.90147895 0.9047459
0.90466624 0.9031348

encoder_unfaltten.0.cnn.weight f4 [10, 2, 3, 3]
00000000: 3a89 1abe d482 63bd 92d9 1ebe 39ee 47be
00000010: e9f5 1d3e 3a7b a8bd 672a 2f3e ad49 093e
00000020: 5a26 a4bd 8ca3 593d 8db5 163e 655c 6e3e
00000030: 4f81 36be ca7b a93d 40e3 f93b 0737 6c3e
00000040: 5306 0a3e 9972 343e 2312 103e f45f 26be
00000050: 8c4a 1dbd fc00 033d 8142 613e 6e80 43be
00000060: 7c36 723d ada4 47be e2a6 953d 950d 3f3e
00000070: 7cb4 143d 15a4 333e 5b34 3f3e c4a8 27bd
00000080: 46c4 26be a614 ef3d 9809 eebc f291 ba3d
00000090: 5951 573e 555e 553e c065 0f3b 8061 1dbe
000000a0: d8a3 2fbe 208d 6abc 646a 4f3d c480 d7bd
000000b0: 9fa4 2b3e a7e2 3f3e 90a9 e2bd 60e8 2d3c
000000c0: 21f4 583e fa3e e5bd 6995 173e c079 d3bc
000000d0: ec39 0ebe 5ee3 9f3d b345 213e e221 fc3d
000000e0: 0601 ee3d 1a1d 9dbd bfcb 45be 60e9 ddbb
000000f0: c64a cebd 4a34 e83d 8425 57bd fb24 233e
00000100: 8544 f6bd 9d77 39be 2107 0ebe 20e5 26be
00000110: a3ac 063e 6735 2f3e 1dac 4b3e d21d fb3d
00000120: e87c 4abd 8039 00be cedb 64be 52e0 fb3d
00000130: 8f31 63be eea8 04be 551d 313e 84d2 70bd
00000140: 46ad 02be db65 103e ee89 d43d 5ed8 e73d
00000150: 2fcc 473e 02cf 823d 5c38 1abe a642 18be
00000160: f070 7c3c 3873 ca3c a284 b9bd 727b c43d
00000170: da0b bb3d 36ff c23d ec01 9cbd 9470 54be
00000180: cf2d 4d3e b43e 62bd 1fc5 0fbe 1e09 b83d
00000190: 1a0a 1dbe 7d96 46be 645b c2bd 6c14 673d
000001a0: 4547 3bbe 78ce 04be 567b ae3d c57b 3e3e
000001b0: d540 0f3e 4a07 a6bd f4bc 583d 6b24 e6bd
000001c0: 60b7 aebb f481 c8bd 70a8 25be 113f 223e
000001d0: 4af0 d3bd 3456 17bd 57fb 2a3e b8f7 4cbd
000001e0: 9094 03bd 6016 9abc 09bb 153e c999 0d3e
000001f0: 060e d7bd f084 1fbc 7a07 c03d 6076 b1bd
00000200: 4c4a 543d 2fa3 61be 7418 2bbe 583a 56bd
00000210: 5c6b c8bd fc6f 15be de1e f63d eaf9 33be
00000220: e8ba 81bd 4715 42be 948c 70bd c0d9 1a3b
00000230: 4bb6 2c3e a43b 44be aa72 8d3d ad59 5dbe
00000240: 8004 b03a 9620 4ebe 5571 60be 309a 1f3c
00000250: 58c6 38bd ab0a 4a3e f7df 4c3e 5e65 823d
00000260: 8bb8 513e 0877 b5bc 0a88 b83d 70c5 5ebe
00000270: 5cb5 a9bd 5593 543e cbb8 51be 614c 323e
00000280: 766c bd3d 1daa 5fbe a0da 63bd 00fa fbb9
00000290: 236d 493e 3f4b 283e 4e5a 823d b7c9 5c3e
000002a0: 81b3 463e 0029 13ba 60eb a5bb 2b59 0a3e
000002b0: e616 0ebe c07a e9bd b78b 283e 4cd5 55be
000002c0: 64ec c0bd d599 0bbe abcc 3e3e 9545 54be
-0.1509141 -0.05554469 -0.15512684 -0.19524468 0.15425839 -0.082266286 0.17106019 0.13407011
-0.080151275 0.053134486 0.14717694 0.23277433 -0.17822765 0.08275564 0.0076259673 0.23067866
0.13478975 0.1762184 0.14069419 -0.1624754 -0.03840117 0.03198336 0.21998025 -0.19091961
0.05913399 -0.19496413 0.07307221 0.18657525 0.036304936 0.17543061 0.18672316 -0.04093243
-0.1628581 0.1167386 -0.029057309 0.09109868 0.21027125 0.20836766 0.0021880716 -0.15369225
-0.17152345 -0.014315873 0.05063857 -0.10522607 0.16762017 0.18738805 -0.11067498 0.010614485
0.21186878 -0.111936525 0.14803089 -0.02581489 -0.13889283 0.07807039 0.15749244 0.1231115
0.11621289 -0.07671566 -0.19316004 -0.0067722052 -0.10072856 0.11338098 -0.052526012 0.15932076
-0.12024788 -0.18112035 -0.13869907 -0.16298342 0.13151793 0.17110215 0.19889875 0.12261547
-0.049435526 -0.12521935 -0.22349474 0.12298645 -0.22186874 -0.12955067 0.17296346 -0.058794513
-0.12761411 0.14101355 0.103778705 0.11320566 0.19511484 0.0638714 -0.15060562 -0.14869174
0.015407786 0.024713144 -0.09058501 0.09593858 0.0913312 0.09521334 -0.07617554 -0.2074607
0.20037006 -0.05523558 -0.1404004 0.08986114 -0.15335885 -0.19393344 -0.09490088 0.05641596
-0.18288906 -0.12969387 0.08519618 0.18601902 0.13989575 -0.08106859 0.052914575 -0.11237415
-0.0053319186 -0.097904116 -0.16177535 0.1584437 -0.10348566 -0.036947444 0.16697441 -0.05004093
-0.032124102 -0.018809497 0.1462213 0.13828196 -0.10500722 -0.009736285 0.09376426 -0.08665156
0.051828668 -0.22034906 -0.16708547 -0.052301735 -0.09786102 -0.145935 0.12017606 -0.17575803
-0.06334478 -0.18953429 -0.058727816 0.0023628324 0.16866414 -0.19163376 0.06906636 -0.2161624
0.0013429075 -0.20129618 -0.21918233 0.009741351 -0.04511103 0.19730632 0.20007311 0.063669905
0.20480554 -0.022151485 0.090103224 -0.21755004 -0.08286545 0.20759328 -0.20480649 0.17411949
0.09249203 -0.21842237 -0.05562842 -0.00048060715 0.19670539 0.16434954 0.063648805 0.21561323
0.19404413 -0.00056137145 -0.0050634593 0.13510577 -0.13875923 -0.11400366 0.16459547 -0.20882148
-0.09420088 -0.13632901 0.18632762 -0.20729668

encoder_unfaltten.0.cnn.bias f4 [10]
00000000: 5c46 7bbd b62b 16be 2e2b f63d da9b d13d
00000010: 7fbe 343e fff6 21be 9f85 70be 6eec a53d
00000020: ce1f c63d c8f7 fb3c
-0.061346397 -0.14665112 0.120199546 0.102348045 0.17650793 -0.15816878 -0.23488472 0.08101736
0.09674035 0.0307578

encoder_unfaltten.1.BachNorm.weight f4 [16]
00000000: 0000 803f 0000 803f 0000 803f 0000 803f
00000010: 0000 803f 0000 803f 0000 803f 0000 803f
00000020: 0000 803f 0000 803f 0000 803f 0000 803f
00000030: 0000 803f 0000 803f 0000 803f 0000 803f
1.0 1.0 1.0 1.0 1.0 1.0 1.0 1.0
1.0 1.0 1.0 1.0 1.0 1.0 1.0 1.0

encoder_unfaltten.1.BachNorm.bias f4 [16]
00000000: 0000 0000 0000 0000 0000 0000 0000 0000
00000010: 0000 0000 0000 0000 0000 0000 0000 0000
00000020: 0000 0000 0000 0000 0000 0000 0000 0000
00000030: 0000 0000 0000 0000 0000 0000 0000 0000
0.0 0.0 0.0 0.0 0.0 0.0 0.0 0.0
0.0 0.0 0.0 0.0 0.0 0.0 0.0 0.0

encoder_unfaltten.1.BachNorm.running_mean f4 [16]
00000000: a4ca cc3b 1ddc 7c3d f6e3 2b3d 8262 a7bb
00000010: beeb 2cbb 2a8e f3bc 11f8 a33b 55b6 633b
00000020: 924d b6bc 6a6c 5dbc d8f2 683c 6239 04bb
00000030: 31fe b6bc 481f 28bc 3651 a73c 8eb2 ffba
0.0062497426 0.061733354 0.041965447 -0.0051081786 -0.002638563 -0.029730875 0.005003937 0.003474613
-0.022253785 -0.013514617 0.014218055 -0.0020175804 -0.022338005 -0.010261364 0.020424467 -0.001950817

encoder_unfaltten.1.BachNorm.running_var f4 [16]
00000000: 477b 693f 1357 6c3f 0eac 6b3f dbb6 6a3f
00000010: 7ace 693f a95c 693f faff 683f 653c 6a3f
00000020: abc5 683f b8f1 683f 052a 693f 4f67 693f
00000030: 6ece 683f cba2 693f 1ab1 683f a54f 6b3f
0.9120373 0.92320365 0.9205941 0.91685265 0.91330683 0.91157013 0.9101559 0.91498405
0.9092662 0.90993834 0.9107974 0.9117326 0.90939987 0.9126403 0.90895236 0.919184

encoder_unfaltten.1.cnn.weight f4 [16, 10, 3, 3]
00000000: 6710 953d 3bfb d13d d075 cc3b dac6 303d
00000010: 8072 37bc a085 203b 7737 b2bd 44aa 89bc
00000020: 0d55 843d 708e 4abd c410 833c 8e00 1f3d
00000030: a3cf bdbd 2438 ec3c 086f 55bc fd2c 893d
00000040: ad3f acbd 36d8 26bd f6e3 a8bd 4c54 d43c
00000050: 88ae 9abd ae0b 333d 8c0a bbbc 00ec c1ba
00000060: c632 b0bd e74e 8f3d 5eee 653d 2e00 8ebd
00000070: 0e78 c2bd b709 62bd 6231 70bd c17b 9b3d
00000080: 5abf 183d f0e6 183c b69d 0c3d 44f2 bbbd
00000090: 82a4 a8bd 09b5 8b3d 84dc ee3c 4037 d23a
000000a0: 12f1 1abd 3677 c7bd f55c 993d 58eb 5bbc
000000b0: d24b 423d d59b 37bd e6a9 99bd 532a ae3d
000000c0: 5641 243d 314d b6bd c056 bbbd cedb 123d
000000d0: 41b5 cf3d 5d04 8a3d cdd5 c43d 2059 413c
000000e0: acec fa3c e977 ce3d 41b5 cc3d 4770 ae3d
000000f0: d0c6 9abd 2010 8fbb 90ad c5bd 4695 063d
00000100: 8001 0fbb 9ee6 103d 3f0e ac3d e250 6a3d
00000110: 0d14 c13d 98c2 78bc 1bdb 9f3d f112 8b3d
00000120: d8b8 5bbd c181 5bbd 76d9 a1bd 5aa0 3d3d
00000130: 0439 abbc b851 b0bd a05c c2bb 01c8 c13d
00000140: 7e0e 81bd eea6 703d f989 913d 4467 88bd
00000150: 1b01 53bd fdc7 a5bd 350f b53d 662a 9bbd
00000160: 03f7 39bd 4007 52bc 1ce5 dd3c e4f1 8ebd
00000170: a328 93bd 6df2 993d 1db5 44bd 93ed a13d
00000180: 1099 a43b a835 893c e634 5e3d afe7 b23d
00000190: 2aa0 083d 26d0 5fbd a491 05bd c20b 183d
000001a0: 949d a83c 3365 40bd c884 febc 331c bf3d
000001b0: 5c29 813c f0c0 febc b454 d2bd 865e 95bd
000001c0: b094 17bc 6899 91bc 24da 93bd bd44 a43d
000001d0: 5aba 69bd 3ccf ef3c 80f0 6cba 4731 cd3d
000001e0: 7b30 b83d 3ecd 653d 2249 253d b000 3ebc
000001f0: e587 b03d 177d d13d 363b 2f3d b01b fdbb
00000200: 6795 ae3d eef4 7b3d 10ef 3f3c f6b7 a3bd
00000210: c2e0 2c3d 9674 87bd cc63 f93c 26e3 86bd
00000220: 006a cf3b 0d26 70bd 7042 a7bd e819 0dbd
00000230: a5a2 943d 24dc 07bd b73d d23d 5cfe 79bd
00000240: 796d af3d 453a b8bd 705f 75bc 9752 803d
00000250: 8e16 553d 0bb1 c43d ac9e d7bc 5fc6 cf3d
00000260: f791 53bd 6a4d 07bd 805f 9bbd 0cc4 b63c
00000270: a0f6 a6bd 7081 993c e0f6 c2bd 936c b83d
00000280: 00a3 023b a66b 2b3d 6be0 b33d 764f 4d3d
00000290: b485 94bd b45c b2bd 345e e9bc 0029 7f3c
000002a0: 696c ad3d 80df 5a3b 80f9 433a 00e9 093c
000002b0: a09f fbbc 81b4 ae3d 41a9 933d 6c03 b73c
000002c0: 7217 4f3d 4117 c03d 143a f93c 510f 873d
000002d0: 00f9 28bb e274 183d 3bfe 3ebd 00a5 96bd
000002e0: 5993 913d ab9f a53d 1571 c03d 0079 0ebd
000002f0: 14a3 90bc 61b4 b13d 48e5 63bc 7c86 bdbc
00000300: cabc adbd a882 8d3c d6e2 783d 1c01 a9bd
00000310: 69f9 9f3d 0216 363d fefc 303d c037 043b
00000320: 36e7 99bd c072 16bc 692b a23d 6d9e ab3d
00000330: e3c9 873d 9842 bfbc a35b ba3d 07b2 d03d
00000340: e6e0 00bd 5502 50bd b4c7 fe3c 6403 a93c
00000350: 8930 5bbd 47fc c53d 8464 26bd 1f68 c83d
00000360: 27fe 8a3d 439c b03d 769e 04bd 615d 9f3d
00000370: 3aa4 abbd 73ea c63d 96a8 99bd df9d 873d
00000380: 90e2 abbd 24f8 f3bc 5070 f63b 7002 8ebc
00000390: 2c90 ac3c fc7e 46bd 2874 41bc f2d2 153d
000003a0: 9141 afbd a499 e23c 102d 173c d4b6 d5bc
000003b0: 505e 50bc f1b3 93bd c03c f63b 38fd 9bbc
000003c0: d1a6 41bd f24a 793d 5ebd 523d 0288 713d
000003d0: b857 c2bc e3ef 873d 0440 b9bc c649 4e3d
000003e0: 603b f0bb b0e5 a2bd 2e37 22bd e4c1 d03c
000003f0: 69ee a53d 6ce0 bfbc bc2c aabd b86d 4bbd
0.07278519 0.102529965 0.0062396303 0.04315839 -0.0111967325 0.002449371 -0.08701985 -0.016804822
0.06461535 -0.049452245 0.015999205 0.03881889 -0.09268119 0.028835364 -0.01302696 0.06698034
-0.08410583 -0.04073354 -0.08246605 0.025919102 -0.075528204 0.04371231 -0.022832178 -0.0014795065
-0.08603434 0.06997471 0.056135528 -0.06933628 -0.09495555 -0.055185046 -0.058640845 0.075919636
0.037291862 0.009332404 0.034330092 -0.09177068 -0.082345024 0.06821639 0.029157884 0.0016038194
-0.03782756 -0.097395346 0.07488433 -0.01342281 0.04743559 -0.044826347 -0.07503109 0.085041665
0.04010137 -0.08901442 -0.091474056 0.035854153 0.10141993 0.067391135 0.09611092 0.011801034
0.030630432 0.10081465 0.09995509 0.08517509 -0.07557452 -0.004365936 -0.09652245 0.032857202
-0.0021820962 0.035376184 0.08401155 0.057206042 0.094276525 -0.0151831135 0.07805463 0.06790722
-0.053643078 -0.05359054 -0.079028055 0.0462955 -0.02090121 -0.086093366 -0.005931452 0.09461976
-0.06301592 0.058752947 0.07106394 -0.06660321 -0.051514726 -0.08094785 0.08840791 -0.07576446
-0.045401584 -0.012819111 0.027086787 -0.06979731 -0.07185485 0.07516942 -0.048024286 0.07906642
0.0050231293 0.016749218 0.054249667 0.087355964 0.03335587 -0.054641865 -0.032609597 0.037120588
0.020582952 -0.04697151 -0.031069174 0.093315504 0.015766792 -0.03109786 -0.10270062 -0.072934195
-0.009251758 -0.017773345 -0.072193414 0.08020923 -0.057062484 0.029273622 -0.0009038523 0.100191645
0.08993622 0.056103937 0.040352948 -0.011596844 0.0861967 0.10228937 0.042781077 -0.007724248
0.0852459 0.06151288 0.011714712 -0.07994072 0.042206533 -0.06614034 0.030443095 -0.06586294
0.006329775 -0.058630038 -0.08166969 -0.034448534 0.072575845 -0.033168927 0.102656774 -0.06103359
0.08565802 -0.08995489 -0.014976367 0.06265753 0.052023463 0.09604081 -0.026320778 0.10145258
-0.051652875 -0.033032812 -0.075865746 0.02231028 -0.08152509 0.018738478 -0.09519744 0.09005084
0.0019933581 0.04185071 0.08783039 0.050124608 -0.07252064 -0.08709088 -0.028487302 0.01557374
0.08467943 0.0033397377 0.0007475838 0.008417368 -0.030715764 0.08530522 0.07210017 0.022340499
0.05055947 0.09379435 0.030423202 0.06594718 -0.0025783181 0.037220843 -0.04662917 -0.0735569
0.071081825 0.08087095 0.09396569 -0.034783363 -0.017655887 0.08676983 -0.013909645 -0.023135416
-0.08483274 0.017274216 0.060763203 -0.08252165 0.07811243 0.044454582 0.043210022 0.002017483
-0.07514803 -0.009182632 0.07918436 0.08379827 0.06630304 -0.023347184 0.090995096 0.10190206
-0.03146448 -0.050783474 0.031101085 0.0206315 -0.053513084 0.09667259 -0.040623203 0.097854845
0.06786757 0.086235546 -0.032377683 0.077814825 -0.08380933 0.097126864 -0.07502858 0.066219084
-0.08392823 -0.029781409 0.007520713 -0.017335147 0.02106484 -0.048460945 -0.011807479 0.036578126
-0.08557428 0.027661152 0.009227052 -0.026088156 -0.012717798 -0.072120555 0.007514566 -0.019041643
-0.04727823 0.06086249 0.051450126 0.058967598 -0.023723468 0.06637552 -0.022613533 0.050363325
-0.007331297 -0.07953966 -0.039603405 0.02548308 0.08102114 -0.023422442 -0.08309314 -0.049665183

encoder_unfaltten.1.cnn.bias f4 [16]
00000000: 5a4a 503d 6abd 4e3d e4f7 b1bc b9d9 a33d
00000010: 5758 93bd 209c 7ebc eb6e 993d f0e3 4dbc
00000020: b117 a2bd c249 473d 4090 70bb bc49 a6bc
00000030: 5487 57bd 40e1 90bc 288c 3d3c 304b a6bc
0.050852157 0.050473608 -0.021724649 0.08000512 -0.07194584 -0.015540153 0.07491859 -0.012566552
-0.07914675 0.048654325 -0.0036707073 -0.020298831 -0.052619293 -0.017685533 0.01156906 -0.020299524

embedding.weight f4 [10, 8]
00000000: 6d16 74be bed4 d2bf 991f 05bf 5ea6 6bbf
00000010: 2e9b b9be 8742 94bf f42c 213e 46a4 02bf
00000020: eb7f c83f f482 d3be f9ed 523e 26d4 b93f
00000030: e43f 1bbf 8363 ddbe 8ae6 703f 4a40 0f3f
00000040: 433d e83f f2ca ba3f 9b6d 733f 507f 5ebe
00000050: 9a82 b5bf 8479 893f 2c04 033f 2159 9bbe
00000060: 0a47 84be 3fa7 933f 7a6e 383f 4ab8 3bbe
00000070: 7c9c 943f 2648 0e3f d76f a9bf ceb4 e13f
00000080: 8c14 afbf c87b a3be 8d38 b43d 070c 533d
00000090: 8360 623e 5a13 003f 5b3e 4e3f e24f 963f
000000a0: 21ca 12bf fe91 193f 4fce 62bf 0e3a 283f
000000b0: 5018 debf 2afd aa3e 2b2b 6f3e 224d adbf
000000c0: f67b 353f fc4b 603f 0553 68bf 0af3 6f3f
000000d0: 4e7a fb3d 3b95 343e 175b 0440 ed7d bebe
000000e0: 77ae 083f ea62 0c3e a7cc 433d 9391 603e
000000f0: 2dd7 b3be aedf 5bc0 6a64 4f3f 3483 6b3f
00000100: cf19 e93e d5dd 18be 7024 68bf ab17 6ebe
00000110: 8387 4c3e c1d1 b53e 14d6 b2bf 02ae 343f
00000120: c845 fabe 0253 bdbf 9397 283f 71df a13f
00000130: de2a 75bf 044d 853e 42f3 4c3f bf65 88bf
-0.2383668 -1.6471174 -0.5200134 -0.9205073 -0.36251205 -1.1582803 0.15739805 -0.5103191
1.5664037 -0.41310847 0.20598592 1.4517868 -0.60644364 -0.43239984 0.94101775 0.5595747
1.8143696 1.4593184 0.9508912 -0.21728253 -1.4180481 1.0740209 0.5117824 -0.30341437
-0.25835449 1.1535414 0.72043574 -0.1833202 1.1610255 0.5557884 -1.3237256 1.7633302
-1.3678145 -0.31930375 0.08799849 0.051525142 0.22107129 0.5002953 0.80563897 1.1743128
-0.57339674 0.5998839 -0.8859605 0.65713584 -1.735117 0.33396274 0.23356311 -1.3539164
0.70892274 0.8761594 -0.9075168 0.93730223 0.12279187 0.17635052 2.0680597 -0.3720545
0.5339121 0.13709608 0.047802594 0.21930532 -0.35125104 -3.4355273 0.81012595 0.91997075
0.45527503 -0.14928372 -0.906806 -0.23251216 0.19973569 0.35511592 -1.3971581 0.70578015
-0.48881364 -1.4790957 0.65856284 1.2646314 -0.95768535 0.2603532 0.8005868 -1.065605

decoder.1.BachNorm.weight f4 [16]
00000000: 35e3 7a3f 6e07 843f 947d 803f de2f 803f
00000010: 9412 833f c920 893f b9ed 753f a208 753f
00000020: f97d 6f3f 0c29 853f 17bd 753f 28f1 813f
00000030: 2674 753f 0846 7d3f 5346 803f 91c0 773f
0.9800294 1.0314767 1.0038323 1.0014608 1.0240045 1.071313 0.9606586 0.957163
0.93551594 1.0403152 0.95991653 1.015172 0.95880353 0.98934984 1.0021461 0.9677821

decoder.1.BachNorm.bias f4 [16]
00000000: e691 23be 9764 0ebe c746 28be 0d21 3dbe
00000010: dc2f 07be b9a8 e4bd a7a0 8fbd 923e 42bc
00000020: c281 45be d827 2ebe 7032 03be 0ac7 23be
00000030: db97 40be eb03 0bbe de2c 75bd 74d1 1cbe
-0.15973625 -0.1390556 -0.1643325 -0.18469639 -0.1320185 -0.11164994 -0.07013064 -0.011855738
-0.1928778 -0.17007387 -0.12812209 -0.15993896 -0.18807928 -0.13575713 -0.05985724 -0.15314275

decoder.1.BachNorm.running_mean f4 [16]
00000000: cf6e 84bd a3ae d2bd 353b 193e 72be 8c3d
00000010: 7ae2 bcbd 3637 033d b924 1e3d fece 063c
00000020: 6042 94bd b062 d53c d94c 153b 8782 70bd
00000030: 09dc 3c3d 0580 8a3d 7309 913b c938 febc
-0.064664476 -0.102872156 0.14963992 0.06872262 -0.092228845 0.032035075 0.03860924 0.008228062
-0.072392225 0.026048034 0.00227814 -0.05871823 0.04610828 0.06762699 0.0044261753 -0.031032937

decoder.1.BachNorm.running_var f4 [16]
00000000: 062d f43d e622 0d3e 6600 f63d 58a5 0a3e
00000010: 20bb 023e f6a6 3c3e 297b 083e e252 043e
00000020: a8e3 f13d a168 363e 1bae 0e3e 1ead 123e
00000030: bbe8 0c3e 6597 de3d 3ba8 103e 6e1f 083e
0.1192265 0.13782844 0.12011795 0.13539636 0.12766695 0.18423066 0.13328232 0.12922242
0.11811 0.1781335 0.13933603 0.14323851 0.13760655 0.1086872 0.14126675 0.1329324

decoder.1.cnn.weight f4 [16, 16, 6, 6]
00000000: 8fa4 00bd 397c 8d3d 6ae9 80bd 5ead d63c
00000010: 1d07 9a3d ac95 443c 8e33 5d3d 42fb e2bc
00000020: f16b 42bd 556f 6dbd 290c 68bd eff6 a23c
00000030: 42a7 89bc 7995 df39 8166 333d 4ce3 303c
00000040: 68af 453d 2766 22bb 5351 ebbc ab34 c83c
00000050: a1bc 00bd 46a1 05ba 68f8 5d3d 5682 4f3d
00000060: 6a1a bebc 878b d93c cff2 caba 9739 13be
00000070: 9c2e debc 6d6f 183d f8be 24bd e9ed e63d
00000080: 4749 49bd 08de 01bd 3cd6 c3bb bb9c 003e
00000090: 0965 863d c2a0 be3b 53de 263d 6816 53bd
000000a0: 87c5 833d 5930 43bc afb8 39bd 30b7 43bc
000000b0: d6ed 5ebd 4f34 783d bfd5 4dbd f104 a8bc
000000c0: b660 013d 16f1 833d 09d3 e5bb 015a c4bc
000000d0: 6075 98bd e779 59bd 4cc1 4d3c 7bf3 ca3d
000000e0: 1942 f03c 22fb 03ba 2f55 41bd 7d20 c0ba
000000f0: d5c8 51bc 17d4 c13a dc03 733d 368a 7d3c
00000100: ca11 ed3b 46ae b4bc c811 833a 130a 833c
00000110: 5a04 5b3c 52a8 4d3d eb9f 523d d927 0abd
00000120: 3bd6 75bd 8c76 193d c35a 583d 21ec 1bbd
00000130: c9f6 8ebd 9940 343d 15ea 9dbc c8b6 023d
00000140: 0275 8bbc 62b6 923c 3aac 1fbd f157 82bc
00000150: 5e92 f1bb a6c7 2bbd 5d45 23bd 887a 59bd
00000160: 9abd 9e3b d47f 5e3d 36b2 17bc 49c9 8b3d
00000170: 369c 463d 0d11 f0bb 99ab b3bc 8ccc 70bd
00000180: ba5f 4d38 94de 04bd b43b 36be d9c0 11be
00000190: 3f2e bfbb 1a44 ddba b5dd 08bc e8fc d8bc
000001a0: c963 9e3b 0058 9dbd 4448 833a 98bb b13d
000001b0: dfd8 fa3c 1e75 053d 3a1e a0b9 a090 2d3c
000001c0: 9975 a63d 43a4 53bd 72ab 573d f766 70bc
000001d0: 6327 993d fc85 b3bc b403 4c3c ff50 1abd
000001e0: c9bd ac3c 9104 663b 9ba8 3c3d 38fe 763d
000001f0: ce3e 63bd bc3e df3c 2354 18bd 7f5b 163d
00000200: fa6e c0bd a8de 3a3c 6d06 253b adcf 9b3c
00000210: 2f3d efbc 3562 1f3d 656e a5bc b389 ea3b
00000220: eea0 a93b 7888 f33c 9be1 15bd 8dd2 4e3d
00000230: 07ba ff3c a407 1dbd 3b29 98bd fc69 033d
00000240: 31f1 97bc 169b b0bb cf19 a4bd 18ed a2bc
00000250: cd22 323c bc95 663b 9aa9 09bd 2c77 8e3c
00000260: 6896 de3c 31c2 51bd 835b a1bd cf62 273d
00000270: f3ff 94b7 5d10 313d c3e2 bd3d c6c7 cbbd
00000280: e1cc b8bc 1518 9b3d f252 153b 148a db3c
00000290: 31eb be3d a1c8 be3c f560 77bd 8479 29bd
000002a0: f143 42bc f181 edbd 04f1 bc3a e066 40bc
000002b0: 18cd 0fbd 86b6 da3c 15e4 c13b 080d b5bd
000002c0: 45d2 473d 59a8 5bbc bebd 09bd 8865 593d
000002d0: 585f 7dbd 7b0d a8bb ae7c a43c e125 5cbc
000002e0: 373f 3dbd 6fc7 bcbb e66a 453d 6259 9fbd
000002f0: fb35 babb d9d0 53bc 88db 4dbc e9ba 8cbd
00000300: 53fb dabb 163f 1abc e8d4 81bd c4ba 293d
00000310: cfae 5cbd c305 62bd e14a d1bc c8ec 5abd
00000320: e5e7 5dbd 1f40 283c 4387 a438 6138 c5bc
00000330: c585 8bbd e634 49bd 9ca5 fab9 342a 5639
00000340: 8d98 b8bd b823 cb3c 219f 713a b1fa 913d
00000350: f1d7 a8bc cb9f 8f3d 7f1b aa3d 71b5 1abd
00000360: 02dd 2a38 114f 003d 17c9 87bc 0f13 f9bc
00000370: 8834 10bd 4e38 b23b d4a2 aebc 9aca 253c
00000380: e86d 0fbc 3e49 473d 1084 debc 13f0 913c
00000390: 6a93 79bc 3fdb 32ba b032 54bd 53f6 76bb
000003a0: 9f28 353d 74fb bf3c 52a6 273d d60d 1ebb
000003b0: fd73 253c aaf9 543d 3c14 503d 03cf 0a3d
000003c0: 788e 8bbd 7cbe 27bd e780 633c 7e5c 2a3d
000003d0: 833a b83c 8f63 173d 74f7 d43c 3787 80bd
000003e0: 272d 18bc 66df 9abc f38d 74bd c696 8d3c
000003f0: c86a 00bd b43e dfbb 4de8 20ba 63d0 8fbd
-0.031406935 0.06908459 -0.0629452 0.026205715 0.07520888 0.011998575 0.054004245 -0.0277077
-0.047466222 -0.057967503 -0.05665222 0.019893138 -0.016803388 0.0004264524 0.043798927 0.010796379
0.048262984 -0.0024780126 -0.028725302 0.024439177 -0.03142989 -0.0005097579 0.054191977 0.050661407
-0.023205955 0.02655579 -0.001548374 -0.14377438 -0.027121834 0.03721564 -0.040221184 0.112758465
-0.04914215 -0.031705886 -0.0059764665 0.12559788 0.0656224 0.0058175037 0.04073937 -0.05153504
0.0643416 -0.011913382 -0.045342144 -0.011945531 -0.054426037 0.06059676 -0.050252672 -0.020510169
0.03158637 0.06442468 -0.0070136827 -0.023968698 -0.074442625 -0.05309477 0.012558293 0.099097215
0.029328393 -0.0005034675 -0.047200378 -0.001465812 -0.01280423 0.0014787939 0.059329852 0.015474847
0.0072347866 -0.022055756 0.0009999806 0.015996015 0.013367737 0.05020935 0.05142204 -0.033729408
-0.06001876 0.03746657 0.052820932 -0.038066987 -0.06980664 0.044006918 -0.019276658 0.031912595
-0.017023567 0.017909233 -0.038982607 -0.015911074 -0.0073721847 -0.041938446 -0.03986107 -0.05309537
0.0048443796 0.054321125 -0.009258797 0.068255015 0.048488818 -0.0073262514 -0.02193241 -0.05878882
4.896496e-05 -0.03243883 -0.17796212 -0.14233722 -0.0058343704 -0.0016881258 -0.00835364 -0.026487783
0.0048336727 -0.076828 0.0010016044 0.08678359 0.03062099 0.032582395 -0.000305401 0.010593563
0.08127899 -0.051670324 0.052653737 -0.014672986 0.074782155 -0.021914475 0.012452055 -0.0376749
0.02108659 0.0035097937 0.046059232 0.060301036 -0.055479817 0.027251594 -0.037189614 0.03670835
-0.09396167 0.011405624 0.0025180832 0.019019926 -0.02920398 0.038912017 -0.020194242 0.0071575283
0.005176655 0.02972816 -0.036592107 0.050493766 0.031216634 -0.038337365 -0.07429739 0.032083496
-0.018547626 -0.0053895814 -0.08012735 -0.019888446 0.010872555 0.0035184463 -0.03360901 0.01739081
0.027171329 -0.051210586 -0.078787826 0.040865716 -1.776216e-05 0.043228496 0.09271767 -0.09950213
-0.022558631 0.07572953 0.0022785035 0.02679924 0.09322203 0.023289027 -0.0603952 -0.041375652
-0.011857019 -0.1159705 0.001441509 -0.011743277 -0.035107702 0.026698362 0.005917082 -0.08840376
0.048784513 -0.013406836 -0.033628218 0.053075343 -0.061858505 -0.00512856 0.020078983 -0.013436765
-0.046202864 -0.005761079 0.04819765 -0.0778072 -0.0056827045 -0.012928211 -0.012564547 -0.06871588
-0.006682792 -0.009414455 -0.06339437 0.04143788 -0.053877648 -0.055181276 -0.0255484 -0.05344847
-0.05417623 0.010269194 7.845324e-05 -0.024074735 -0.06812624 -0.049122714 -0.00047807104 0.00020424352
-0.09013472 0.024797305 0.00092171325 0.07127894 -0.020610781 0.070129 0.08306026 -0.037770692
4.0736988e-05 0.031325404 -0.01657538 -0.030404596 -0.035206348 0.005438841 -0.021317877 0.010119105
-0.008754231 0.048653834 -0.027162582 0.017814672 -0.0152329 -0.00068228313 -0.051806152 -0.0037683442
0.044228192 0.023435332 0.0409301 -0.0024117134 0.010098455 0.05199591 0.050800547 0.033888828
-0.06814283 -0.040953144 0.013885713 0.041592114 0.022488838 0.03696018 0.025996901 -0.0627579
-0.009288109 -0.018905353 -0.059705686 0.017283808 -0.031351835 -0.0068128947 -0.0006138131 -0.070221685

decoder.1.cnn.bias f4 [16]
00000000: 743d 7d3a 6683 b8bd 2c3e cf3d 1b9b b03d
00000010: 0293 57bd 96bf 26bd d301 c23c 06f7 0c3d
00000020: 5186 c6bc 59de 073d c76b 693c 4340 4dbd
00000030: b7d7 8ab9 4990 3e3d 2cf3 32bb 1024 3dbc
0.00096603413 -0.09009437 0.1011928 0.08623334 -0.052630432 -0.040710054 0.02368251 0.034415267
-0.024233969 0.03317103 0.0142468875 -0.050110113 -0.0002648213 0.04652432 -0.0027305586 -0.0115442425

decoder.2.BachNorm.weight f4 [10]
00000000: 26ec 3c3f e4b0 5f3f c805 653f b1fc 823f
00000010: 8fb0 6e3f 1774 6c3f 34a3 693f f79c 663f
00000020: e0a2 713f 8740 8b3f
0.73797834 0.8737929 0.89461946 1.0233365 0.9323816 0.9236464 0.91264653 0.9008326
0.9438915 1.0879067

decoder.2.BachNorm.bias f4 [10]
00000000: d291 ecbd 2349 d3bd 3b60 72be 5687 4cbe
00000010: 75a6 90be 25c4 55be d529 8dbe 4d90 96be
00000020: 35b2 22be 52d2 2cbe
-0.115512505 -0.10316684 -0.23669522 -0.19973502 -0.28251997 -0.20875604 -0.27570978 -0.29406968
-0.15888293 -0.16877106

decoder.2.BachNorm.running_mean f4 [10]
00000000: 42c1 933e cea9 873e a609 0c3d 0ccc b73d
00000010: 5629 103e 9daf 463d ad89 ea3d c7ed 963d
00000020: b867 313e b80f 003d
0.28858382 0.26496738 0.03418889 0.08974466 0.14078268 0.04850732 0.11452041 0.07369571
0.17324722 0.03126499

decoder.2.BachNorm.running_var f4 [10]
00000000: 82fb 463e 07c0 2b3e a5be c13d 1001 353e
00000010: 8f54 fe3d 95f2 fa3d 8e53 f53d b8e0 0e3e
00000020: 9a18 223e 9579 3f3e
0.1943188 0.16772471 0.09460191 0.17676187 0.12418472 0.122533 0.119788274 0.13952911
0.15829697 0.18698724

decoder.2.cnn.weight f4 [16, 10, 6, 6]
00000000: 21a7 d5bc e3f1 8f3d 254e 13bd dbb9 9d3c
00000010: cde8 23bd e605 ce3c 9631 40ba 4363 5ebd
00000020: fc40 003d eab2 bfbc c81b 63bc d4ac 6cbd
00000030: 30b6 4c3c fa51 103d 350b 4b3d 0068 d73c
00000040: ee94 bdbb 1397 2ebd 6e62 1b3b 714f c3bc
00000050: db47 753c 5db6 01bb 6eff 85bd 37ff 2f3d
00000060: 4a6a a6bc dbb8 6f3d 8ce2 523d 227f ce3c
00000070: 44e8 833c 0880 19bd 5e72 673d 5431 ab3d
00000080: e2bf 903c 5e28 14bc 25c2 8e3d fb40 23bd
00000090: 45be d8bc ef11 afbc 9490 1abc d996 bc3b
000000a0: 9e25 20bd 9ed4 a43c 2eed ab3d 3316 9bbd
000000b0: df0d 78bc abf2 963c e2d8 343d 6152 713d
000000c0: 06d2 153d 5607 9abc 7d9d eabd c9a6 543d
000000d0: 7cb5 9a3c 4c4b b1bc 2ae0 cf39 0eaa 21bc
000000e0: 0385 e03c 0c8a 0f3c dbb6 7a3d 779b cdbc
000000f0: b74a 03bd 918a af3c 862f 0e3d f7de 84bc
00000100: f15a 36bc e4ba 7ebd 2189 953c d8b2 da3c
00000110: 45c5 b93d 97a6 8f3b 54ef 2bbd 80d3 be3c
00000120: 4dd2 d7bb e12b 57bc 48f6 1c3c 4280 683d
00000130: 8229 17bd 444e 4dbd cb72 073d 7b39 1d3e
00000140: 9586 1f3d 69fd d8bc 1d83 663c 5db3 edbc
00000150: a36b 0b3d d1dd 96bb 1572 603d febe 3a3d
00000160: 2c2c 3d3d 9a06 7d3d 6bee 603d f75a 1e3d
00000170: 8020 84bd 2fc9 17bd 75ef 86bb b847 743d
00000180: 8a4f dd3d d603 9b3d 040b 983d 84b1 933c
00000190: 4e2c ef3c 5eb1 9ebd 137f 873c 7915 2f3b
000001a0: f878 6c3d d19c 5b3d b73c 3dbd f24d 27bd
000001b0: db81 b7bc 4273 18bd b860 16bd 4180 bdbc
000001c0: 5b41 433d 0fe3 61bc 2626 ecbd 7f31 08bd
000001d0: 608c 193d 0a36 393d 0b34 a73d a3ab 213d
000001e0: 2531 343d a732 0c3d d62b ba3d 2339 033d
000001f0: b9a8 303c c7f8 c5bd c0f2 2dbd bfbb 1e3d
00000200: b59c 343d a475 383c cd6c c6bd 5a2a f0bc
00000210: 3eb8 8ebc a9a3 273d 0362 94bc aa05 bc3c
00000220: d860 54bd 5e08 fbbd 6b6e 863d cf36 2b3d
00000230: d9bc af3b 2ec2 883d d341 e63c de11 a3ba
00000240: 2c45 d83d 2e66 15bc c31f 72bd 5d7c 023c
00000250: d2bd e4bb 403a 393d 65ba dc3d adce 693d
00000260: d641 85bd a7fb fb3c 5039 19bd b1bc f93c
00000270: 1d50 843d 0817 0c3d d03d 493c 0bf0 1bbc
00000280: a657 cc3d d4b4 c13c 0aa5 673d fab5 f9bb
00000290: 6245 04bd b3c4 36bc 0996 eabb c46e 143d
000002a0: b110 9dbc 5797 3b3c a5f2 283d 533f 14bd
000002b0: f0ff a13d 15f9 5f3c 18ed 42bc d540 12bd
000002c0: 30de 21bc df7e c13d 8987 6b3d daf4 28bd
000002d0: bc00 053d c585 8bba 4774 a03c bbb2 abbc
000002e0: 3e1b 343d 328b 7bbc 2da2 a83d 96f9 953d
000002f0: 8054 823c 354a 5c3d 0cc5 173d bb25 0dbd
00000300: a56a 92bd f02f 4fbd 080d 0ebd 34bb 103d
00000310: 5536 aa3d 3660 543d 000b 453c 7e70 cfbc
00000320: 7e5d cf3c 063a a0bc ec83 c73d 5c21 533d
00000330: c581 833c 08bc 2b3d 4f37 babd e853 01bd
00000340: c693 b63b 6f91 91bc 0980 b1bc dbb4 debc
00000350: aa30 c13c 8f1b c0bb a443 333c 0e95 513d
00000360: c89d 8bbc 1b96 a63d be05 473c 8662 783d
00000370: d34d f83c f323 0fbd f6f9 aabd da01 bebd
00000380: 4df9 7f3c 91ca 86bc 8c10 edbb 9afd 6fbd
00000390: 9cc4 0bbd bfb6 803c 6d89 b73c 9f2c b73d
000003a0: e740 dc3d 327e b13d 97c7 dc3c 0d94 9f3c
000003b0: 5b9f b0bc 1450 ca3d a7d9 8bbc 1b24 813d
000003c0: 640a c1bd a068 85bb 224a 7a3d 58c3 0a3a
000003d0: d367 84bb 9988 9c3c 2ab0 433c 3c69 0b3d
000003e0: 06e2 d9bb 1018 98bc f252 f53c b2c6 2f3c
000003f0: d50b c83d 2913 b93b 7c85 5abd 873e 9abd
-0.02608067 0.07028558 -0.035963196 0.019253662 -0.040016938 0.025149297 -0.00073316076 -0.054293882
0.031311974 -0.023400743 -0.013861604 -0.05778201 0.012494609 0.03523443 0.049571235 0.026294708
-0.005785576 -0.042624544 0.0023709792 -0.023841592 0.014970745 -0.0019792535 -0.0654286 0.042968
-0.020314354 0.0585259 0.051485583 0.025207106 0.016101964 -0.037475616 0.056505553 0.08359018
0.017669622 -0.009042827 0.06970624 -0.039856892 -0.026457915 -0.021370856 -0.009433884 0.005755287
-0.039098375 0.020120915 0.08394848 -0.075725935 -0.015140026 0.01842626 0.044152148 0.058916453
0.036577247 -0.018802326 -0.1145582 0.05191687 0.018885367 -0.02164235 0.00039649132 -0.009867204
0.027407175 0.00876094 0.06120954 -0.025098545 -0.032053676 0.021428378 0.03471329 -0.0162196
-0.011130081 -0.06218995 0.018253865 0.026696607 0.09070829 0.0043838727 -0.041976288 0.02329421
-0.006586349 -0.01313302 0.009580202 0.05676294 -0.03690482 -0.050123468 0.03306846 0.15353958
0.038946707 -0.026488023 0.014069346 -0.029016191 0.034038197 -0.0046040793 0.054796297 0.0455923
0.046184704 0.061773874 0.054914873 0.03866097 -0.064515114 -0.037057098 -0.004117901 0.05963871
0.108061865 0.07569091 0.07423976 0.018028982 0.02919593 -0.07748674 0.016540086 0.002671568
0.057732552 0.05361635 -0.04620048 -0.04084582 -0.022400787 -0.037219293 -0.036713332 -0.023132445
0.04766975 -0.013787045 -0.11530714 -0.03325033 0.037487388 0.04521755 0.08164223 0.039470326
0.04399218 0.034227993 0.09090392 0.03203691 0.010782414 -0.09666591 -0.042467833 0.038753267
0.04409476 0.011258516 -0.09688721 -0.02931707 -0.017421838 0.040927563 -0.018113142 0.02295192
-0.05185017 -0.12257455 0.06564029 0.041800316 0.0053630886 0.06677662 0.02810756 -0.0012441238
0.105600685 -0.0091186 -0.05911232 0.007964221 -0.006980636 0.045221567 0.107777394 0.057081867
-0.06506698 0.030759646 -0.037408173 0.030485483 0.06460593 0.03420165 0.012282804 -0.00951768
0.09977655 0.023645796 0.056553878 -0.0076205702 -0.03229273 -0.011155295 -0.007158999 0.036238447
-0.019172998 0.011449656 0.04124703 -0.036193203 0.07910144 0.013670226 -0.011897348 -0.03570636
-0.009879634 0.09448027 0.057502303 -0.041249134 0.032471403 -0.0010644725 0.019586695 -0.020959249
0.043971293 -0.015353011 0.082340576 0.07322995 0.015909433 0.053781707 0.037053153 -0.03445981
-0.07149247 -0.050582826 -0.034680396 0.03533478 0.08311144 0.051849566 0.012026548 -0.025322195
0.025313135 -0.019558918 0.09741959 0.051545486 0.01605309 0.041927367 -0.090925805 -0.03157416
0.005571815 -0.017769543 -0.021667497 -0.027185848 0.023582775 -0.0058626602 0.01094142 0.05116754
-0.01704301 0.08134099 0.012147365 0.060640834 0.030310547 -0.034946393 -0.083484575 -0.09277697
0.015623403 -0.016454013 -0.0072346386 -0.058591463 -0.03412305 0.01571214 0.022404397 0.08944058
0.10754567 0.08666648 0.02695064 0.019479776 -0.021560362 0.09878555 -0.017071558 0.06305715
-0.0942581 -0.00407131 0.061105855 0.0005293391 -0.004040697 0.019108104 0.011943856 0.034035906
-0.0066492585 -0.018566161 0.029946778 0.010728525 0.09767882 0.005648036 -0.053349957 -0.075314574

decoder.2.cnn.bias f4 [10]
00000000: 2301 7ebb de65 663d 941d 583c 7fd9 793b
00000010: 4ce6 3d3d def9 7d3c 8f31 b43d daab e23d
00000020: e8e8 c03c 2e3e 6abd
-0.0038758002 0.056249492 0.013190646 0.0038124023 0.046362206 0.0155014675 0.08798515 0.11067934
0.023548558 -0.057188205
