GAN/saved_model/Dismodel.pth (torch, 30694 bytes, 18 tensors)

cnn.0.BachNorm.weight f4 [8]
0.3416015 0.16039987 -0.23397519 0.3533048 0.066970065 0.005890679 -0.3458469 0.036334243
00000000: 64e6 ae3e dd3f 243e 3197 6fbe 5ee4 b43e
00000010: 9a27 893d 9906 c13b d812 b1be 37d3 143d

cnn.0.BachNorm.bias f4 [8]
-0.03475944 -0.19518916 -0.31920364 -0.28682667 0.18208373 -0.18030609 -0.63307756 -0.15797769
00000000: ea5f 0ebd abdf 47be a96e a3be f2da 92be
00000010: 2874 3a3e 29a2 38be 5f11 22bf e7c4 21be

cnn.0.BachNorm.running_mean f4 [8]
1.4216243 -0.59541166 -0.73156697 0.32890034 -1.0997086 0.65248287 1.5280802 -0.028184785
00000000: c9f7 b53f e66c 18bf f947 3bbf a065 a83e
00000010: 40c3 8cbf 1e09 273f 2298 c33f c7e3 e6bc

cnn.0.BachNorm.running_var f4 [8]
0.21407957 0.029860517 0.11565883 0.06373438 0.10562309 0.057084184 0.1708082 0.0071519776
00000000: ad37 5b3e 0b9e f43c 89de ec3d 2c87 823d
00000010: eb50 d83d 1bd1 693d 58e8 2e3e 235b ea3b

cnn.0.cnn.weight f4 [8, 1, 3, 3]
0.31846982 -0.042381912 0.29080787 0.33060333 0.6100379 0.21597002 0.62439275 0.65272087
0.0886147 0.111802824 -0.038859863 -0.14525327 0.11107014 -0.13963884 -0.2945516 -0.17022131
-0.32142076 -0.26042736 -0.5396369 -0.5937132 -0.72952557 -0.3080221 -0.1636024 0.09830855
0.40623742 0.31232396 0.24321291 0.11673557 0.17890015 0.11172343 0.38639572 0.5776724
0.1315871 -0.030739743 -0.07045962 -0.27673215 -0.05550677 -0.14508858 -0.32262924 -0.23744778
-0.36034498 -0.34400594 -0.126271 -0.22470938 -0.42591402 0.036154952 0.14644548 0.6972075
0.061261814 0.1809854 0.29348227 -0.13942908 0.018401913 0.03195094 -0.1423134 0.13756342
0.07699897 0.45737273 0.7110905 0.1620655 0.5220869 0.59247553 0.15322226 0.0010056905
0.047960743 -0.0052365093 -0.0012408549 -0.060295265 -0.09598083 0.14239644 0.15856296 0.24655344
00000000: 7a0e a33e a898 2dbd c5e4 943e d744 a93e
00000010: 722b 1c3f 3f27 5d3e 34d8 1f3f b718 273f
00000020: a07b b53d e1f8 e43d 852b 1fbd 46bd 14be
00000030: be78 e33d 7cfd 0ebe 78cf 96be 7f4e 2ebe
00000040: 4391 a4be bc56 85be a525 0abf 97fd 17bf
00000050: 30c2 3abf 13b5 9dbe 6387 27be fe55 c93d
00000060: 5afe cf3e ede8 9f3e ce0c 793e 0f13 ef3d
00000070: 9a31 373e 41cf e43d a9d5 c53e 57e2 133f
00000080: c5be 063e ead1 fbbc 224d 90bd d6af 8dbe
00000090: 115b 63bd 1a92 14be a92f a5be 8325 73be
000000a0: 237f b8be 8c21 b0be 2f4d 01be 371a 66be
000000b0: 6711 dabe 3717 143d cef5 153e 317c 323f
000000c0: abed 7a3d 3d54 393e 4f43 963e 7fc6 0ebe
000000d0: 9cbf 963c fdde 023d 9bba 11be 6ddd 0c3e
000000e0: a3b1 9d3d c22c ea3e 070a 363f 80f4 253e
000000f0: 7da7 053f 7aac 173f 4ce6 1c3e 60d1 833a
00000100: 7c72 443d 0697 abbb 2ea4 a2ba 2bf8 76bd
00000110: 9991 c4bd 5fd0 113e 545e 223e 8178 7c3e

cnn.0.cnn.bias f4 [8]
0.102852315 -0.10065971 -0.17690292 -0.17358878 -0.12818415 0.078118525 0.38311282 -0.2162651
00000000: 3ca4 d23d ae26 cebd 0a26 35be 42c1 31be
00000010: b542 03be 9bfc 9f3d 5d27 c43e 9974 5dbe

cnn.1.BachNorm.weight f4 [16]
-0.014006157 -0.05599513 0.015999237 -0.37504414 -0.00075951364 -0.00022544204 0.008717707 0.0011036118
-0.0051867887 0.051323224 0.0046055955 0.0030172456 0.007374878 0.003737716 0.5686734 -0.62565345
00000000: 157a 65bc 265b 65bd d510 833c c905 c0be
00000010: 191a 47ba a364 6cb9 b7d4 0e3c 11a7 903a
00000020: f0f5 a9bb 4d38 523d 89ea 963b fbbc 453b
00000030: f6a8 f13b 78f4 743b 9494 113f d32a 20bf

cnn.1.BachNorm.bias f4 [16]
-0.11144677 -0.45841536 -0.12966748 -0.2712974 -0.0442765 -0.16791849 -0.13019711 -0.10658477
-0.094853476 0.09580071 -0.15037286 -0.2729825 -0.11124482 -0.02967509 0.1517142 -0.50451416
00000000: 343e e4bd 6bb5 eabe 8dc7 04be 7ee7 8abe
00000010: 465b 35bd d3f2 2bbe 6452 05be 1e49 dabd
00000020: 8a42 c2bd 2a33 c43d 58fb 19be 5dc4 8bbe
00000030: 53d4 e3bd 2d19 f3bc f85a 1b3e d727 01bf

cnn.1.BachNorm.running_mean f4 [16]
0.08591059 -0.21148705 0.11131127 -0.3235977 0.12571266 -0.24191934 0.009814836 0.14282225
-0.14452085 -0.4865594 0.1917351 0.14852268 0.035603918 0.11929485 -0.55061287 -0.21908027
00000000: e4f1 af3d 1090 58be 2af7 e33d 99ae a5be
00000010: d2ba 003e b4b9 77be 68ce 203c ff3f 123e
00000020: 46fd 13be 501e f9be 3556 443e 5416 183e
00000030: 6ad5 113d dc50 f43d f7f4 0cbf 9456 60be

cnn.1.BachNorm.running_var f4 [16]
0.016209062 0.34107423 0.04207897 0.12615041 0.05069261 0.10278755 0.04110815 0.0128461765
0.041251175 0.25587338 0.085833624 0.10395198 0.014718458 0.02196356 0.37773007 0.22721463
00000000: dec8 843c 48a1 ae3e ff5a 2c3d 932d 013e
00000010: 0ea3 4f3d 4782 d23d 0561 283d c578 523c
00000020: fef6 283d d601 833e 8ac9 af3d c7e4 d43d
00000030: b025 713c ecec b33c d665 c13e f4aa 683e

cnn.1.cnn.weight f4 [16, 8, 3, 3]
0.078774534 0.08821646 0.15927565 0.07949412 0.126078 0.114666834 -0.14143507 -0.10519108
-0.10694787 0.06650406 0.09470968 0.1183947 0.079914674 -0.10288839 -0.07129603 0.004091835
-0.10222874 -0.097384065 0.1082511 0.09166215 0.24150468 0.09764341 -0.12460709 -0.112881534
0.08132986 -0.121715315 -0.09277839 0.052933753 0.090008736 0.11847945 0.0944965 0.09005122
0.10189348 -0.095776185 -0.1191227 -0.100524954 0.13161436 0.10073143 0.11924312 0.040614937
-0.072102666 -0.10181256 -0.120628834 -0.08373084 -0.11968409 0.09020571 0.11011064 0.10353766
0.0937378 -0.070975795 -0.12189452 -0.10828738 -0.11630579 -0.09357651 0.094609514 0.103291094
0.098056465 0.08158725 -0.072591335 -0.084151104 0.084521554 -0.10092537 -0.08694322 0.11495679
-0.042901307 -0.064086296 0.07807791 -0.09463624 -0.11251867 0.078423776 0.003964718 -0.111550756
-0.87439 -0.32056227 -0.14401129 -0.28661817 -0.30886266 -0.3962298 -0.12945576 -0.31575042
0.068966046 -0.45591354 0.15028828 -0.17912877 0.6856181 -0.23851293 -0.28221327 0.25508717
-0.3086354 -0.31516737 -0.9143532 -0.2878438 -0.08623875 -0.64425164 -0.45142034 -0.27639237
-0.20695531 -0.39438143 0.2591785 -1.3144381 -0.42969915 -0.0029222707 -0.48835513 -0.5098351
-0.23244567 -0.3057317 -0.52376246 -0.1246413 0.25546482 -0.02363308 0.037591897 0.11506008
0.8859296 0.28801462 0.05049209 0.21487777 -0.06787213 -0.30012703 -0.10826037 -0.09058895
-0.0806697 0.09428588 0.18045808 -0.044125695 0.057333566 -0.006900856 -0.17904888 -0.12964676
-0.03791878 -0.2797844 -0.085616134 0.007480326 -0.15089023 0.014557857 -0.022246046 -0.038267583
-0.074472636 -0.039203882 0.035117738 0.028696131 -0.04163628 -0.0979004 -0.0911615 -0.03675923
0.14763089 0.14208637 0.15563533 0.14169717 0.059320103 0.12585303 -0.010459587 -0.011479848
0.01951905 0.05474098 0.16154274 0.15051615 0.14845231 0.07567513 0.18899633 -0.047706876
-0.06585517 -0.041793045 0.1889133 0.17810349 0.09977319 0.18313259 0.15182762 0.11819947
0.12194044 0.0921276 0.06872249 0.3156271 0.21911944 0.24716134 0.218863 0.17675759
0.15415299 0.17570946 0.08974535 0.053765174 -0.12440555 -0.21384807 -0.06969175 -0.121443324
-0.053899884 0.12471789 -0.041951325 -0.05037884 -0.028238889 0.17869101 0.26133597 0.24206033
0.18851906 0.21794312 0.18546917 0.105933435 0.090201885 0.12054778 0.022966268 0.08398051
0.26416516 -0.03663216 0.10448639 0.24338433 -0.02513143 -0.15660542 -0.07231234 -0.09941326
-0.10118709 -0.17085439 0.088412434 0.151486 0.067268096 -0.0006912981 -0.031943157 -0.025213152
-0.83730716 0.017086158 0.24505728 -0.3002997 0.11806123 -0.14722186 -0.21533082 0.04322211
-0.0053530512 -0.2659955 0.053431116 -0.0008611562 -0.28424633 -0.18700497 -0.026090495 0.06800197
-0.16926022 -0.08097764 -0.88408196 -0.1554535 -0.08310394 -0.1748909 0.05172529 0.1790268
-0.07459796 0.27345693 0.05650981 -0.71141696 -0.17261939 0.25012836 -0.481351 -0.06640924
0.21275839 -0.09063133 -0.117011614 -0.24086401 0.037737425 -0.0074772737 -0.12101244 -0.34500554
00000000: 8b54 a13d d5aa b43d 2819 233e d0cd a23d
00000010: 971a 013e 72d6 ea3d 5bd4 10be 6c6e d7bd
00000020: 7c07 dbbd 4833 883d 26f7 c13d ec78 f23d
00000030: 4eaa a33d 26b7 d2bd a703 92bd cd14 863b
00000040: 4d5d d1bd 4c71 c7bd c1b2 dd3d 5eb9 bb3d
00000050: 014d 773e 45f9 c73d 0132 ffbd 6f2e e7bd
00000060: 4590 a63d e145 f9bd 9902 bebd 10d1 583d
00000070: 8056 b83d 5ba5 f23d 6287 c13d c66c b83d
00000080: 87ad d03d 4e26 c4bd 9af6 f3bd 07e0 cdbd
00000090: eac5 063e 484c ce3d bd35 f43d d95b 263d
000000a0: 90aa 93bd 1a83 d0bd 400c f7bd 137b abbd
000000b0: ef1c f5bd c5bd b83d b081 e13d 8d0b d43d
000000c0: 9bf9 bf3d c25b 91bd d6a3 f9bd c6c5 ddbd
000000d0: bb31 eebd 0ba5 bfbd a2c2 c13d 488a d33d
000000e0: d4d1 c83d 3717 a73d c4aa 94bd 6a57 acbd
000000f0: a319 ad3d f6b1 cebd 490f b2bd 776e eb3d
00000100: 48b9 2fbd ad3f 83bd 50e7 9f3d a5d0 c1bd
00000110: 3070 e6bd a59c a03d 77ea 813b b974 e4bd
00000120: 06d8 5fbf bd20 a4be b277 13be 9ebf 92be
00000130: 3f23 9ebe a2de cabe 0d90 04be 0aaa a1be
00000140: 123e 8d3d 806d e9be 2ce5 193e 886d 37be
00000150: ab84 2f3f bc3c 74be 427e 90be c99a 823e
00000160: 7605 9ebe 9e5d a1be 0d13 6abf 4360 93be
00000170: f19d b0bd aded 24bf 9120 e7be 4d83 8dbe
00000180: 18ec 53be 5dec c9be 0bb3 843e 823f a8bf
00000190: 8701 dcbe 9183 3fbb af09 fabe 8e84 02bf
000001a0: 3d06 6ebe de88 9cbe 4c15 06bf f043 ffbd
000001b0: 49cc 823e 299a c1bc f6f9 193d 9fa4 eb3d
000001c0: 48cc 623f a776 933e cbd0 4e3d eb08 5c3e
000001d0: 8b00 8bbd 40aa 99be 9db7 ddbd b386 b9bd
000001e0: 2836 a5bd f518 c13d 01ca 383e 25bd 34bd
000001f0: 9ad6 6a3d 9320 e2bb 9758 37be 1fc2 04be
00000200: b950 1bbd e73f 8fbe 8357 afbd 861d f53b
00000210: f882 1abe 1484 6e3c 573d b6bc 78be 1cbd
00000220: 1c85 98bd 4094 20bd 9ed7 0f3d 2614 eb3c
00000230: ce8a 2abd 0180 c8bd e1b2 babd d990 16bd
00000240: 8d2c 173e 177f 113e de5e 1f3e 1019 113e
00000250: a3f9 723d 9edf 003e b05e 2bbc f915 3cbc
00000260: 6ae6 9f3c 1438 603d 766b 253e e820 1a3e
00000270: e203 183e 90fb 9a3d 4188 413e 4968 43bd
00000280: 13df 86bd 2f2f 2bbd 7d72 413e c360 363e
00000290: e355 cc3d 1c87 3b3e b378 1b3e 9012 f23d
000002a0: e9bb f93d 65ad bc3d 60be 8c3d e099 a13e
000002b0: d960 603e dd17 7d3e 9f1d 603e f1ff 343e
000002c0: 48da 1d3e 2eed 333e 69cc b73d df38 5c3d
000002d0: 56c8 febd fdfa 5abe 8cba 8ebd 47b7 f8bd
000002e0: 20c6 5cbd 186c ff3d 27d5 2bbd 0b5a 4ebd
000002f0: 3e55 e7bc c7fa 363e d4cd 853e aade 773e
00000300: 240b 413e 7b2c 5f3e a1eb 3d3e a1f3 d83d
00000310: c4bb b83d c1e1 f63d c123 bc3c f9fd ab3d
00000320: a840 873e 9b0b 16bd f6fc d53d be39 793e
00000330: 6ee0 cdbc 2c5d 20be 7e18 94bd 2e99 cbbd
00000340: 2d3b cfbd 74f4 2ebe 9411 b53d 251f 1b3e
00000350: dbc3 893d 3b38 35ba d4d6 02bd d08b cebc
00000360: c359 56bf 45f8 8b3c 4cf0 7a3e e2c0 99be
00000370: 16ca f13d 54c1 16be af7f 5cbe ab09 313d
00000380: a668 afbb 9030 88be 96da 5a3d 37bf 61ba
00000390: bc88 91be 3b7e 3fbe bcbb d5bc 9e44 8b3d
000003a0: 8d52 2dbe 9bd7 a5bd 3253 62bf 342f 1fbe
000003b0: 6632 aabd 9a16 33be e6dd 533d cd52 373e
000003c0: d1c6 98bd 8c02 8c3e d576 673d 6c1f 36bf
000003d0: 23c3 30be d310 803e a373 f6be 9101 88bd
000003e0: 56dd 593e eb9c b9bd c9a3 efbd 0ea5 76be
000003f0: 8f92 1a3d eb03 f5bb 5fd5 f7bd 91a4 b0be

cnn.1.cnn.bias f4 [16]
0.0512023 0.05503297 0.036544077 -0.07149603 -0.026432943 0.010752145 0.052640397 0.20936921
0.030012181 -0.079313494 0.14326951 -0.04625307 0.06323913 -0.026413007 -0.017359925 -0.025411345
00000000: 81b9 513d 406a 613d 3eaf 153d 836c 92bd
00000010: e689 d8bc c429 303c 759d 573d e264 563e
00000020: 1bdc f53c 1d6f a2bd 3eb5 123e dc73 3dbd
00000030: 8483 813d 1760 d8bc 6736 8ebc 742b d0bc

cnn.2.BachNorm.weight f4 [32]
3.819023 3.8604953 3.794766 0.0040369257 -0.038171694 -3.793675 -0.032816827 3.8352225
-3.7994466 3.8254912 -3.815476 -3.4307387 3.8287735 3.8110108 -3.8562758 3.7984977
3.8162844 -0.032168657 3.8341873 3.8318808 3.8930702 3.801295 3.8226247 3.804792
-3.8092954 3.8142512 -3.8654854 -3.813169 -3.7391624 -3.85915 -3.8184876 -3.7951367
00000000: df6a 7440 5b12 7740 72dd 7240 3048 843b
00000010: ec59 1cbd 92cb 72c0 f06a 06bd 4974 7540
00000020: 222a 73c0 d9d4 7440 c230 74c0 3991 5bc0
00000030: a00a 7540 9ae7 7340 39cd 76c0 961a 7340
00000040: 013e 7440 48c3 03bd 5363 7540 893d 7540
00000050: 1028 7940 6b48 7340 e2a5 7440 b681 7340
00000060: 7fcb 73c0 b11c 7440 1d64 77c0 f60a 74c0
00000070: 704e 6fc0 50fc 76c0 1a62 74c0 85e3 72c0

cnn.2.BachNorm.bias f4 [32]
-2.2781873 -2.2804234 -2.3788245 -0.13659787 -0.19801813 -2.3583198 -0.14485946 -2.3351521
-2.3841298 -2.3179092 -2.316455 -2.2017174 -2.2540667 -2.2771285 -2.2744217 -2.354982
-2.3559153 -0.116626024 -2.292867 -2.353088 -2.2563877 -2.362044 -2.2876494 -2.3209515
-2.415645 -2.3210096 -2.273109 -2.2863197 -2.193318 -2.3254209 -2.3481295 -2.319965
00000000: d2cd 11c0 75f2 11c0 a93e 18c0 50e0 0bbe
00000010: 44c5 4abe b6ee 16c0 0a56 14be 2273 15c0
00000020: 9595 18c0 a058 14c0 cc40 14c0 f0e8 0cc0
00000030: a142 10c0 79bc 11c0 2090 11c0 06b8 16c0
00000040: 51c7 16c0 a0d9 eebd 55be 12c0 fe98 16c0
00000050: a868 10c0 bb2b 17c0 d968 12c0 788a 14c0
00000060: ed99 1ac0 6c8b 14c0 9e7a 11c0 1053 12c0
00000070: 525f 0cc0 b2d3 14c0 c147 16c0 4e7a 14c0

cnn.2.BachNorm.running_mean f4 [32]
-1.8730311 -2.4506798 -1.4206828 0.10553462 0.004662562 2.0296783 -0.16082707 -1.323677
1.324085 -2.4405923 2.1878617 0.61680746 -2.0101054 -2.017205 2.2883215 -2.1483035
-1.4089766 0.10299622 -2.1342504 -1.5289321 -2.2432663 -1.4535336 -1.8976845 -2.456302
1.3581269 -1.9752136 1.221938 2.22794 1.2871177 2.204005 2.1086378 1.9581716
00000000: 7cbf efbf f0d7 1cc0 efd8 b5bf 8922 d83d
00000010: 68c8 983b 40e6 0140 daaf 24be 3f6e a9bf
00000020: 9e7b a93f aa32 1cc0 ed05 0c40 18e7 1d3f
00000030: 91a5 00c0 e319 01c0 dc73 1240 ce7d 09c0
00000040: 5859 b4bf afef d23d 8f97 08c0 0cb4 c3bf
00000050: ad91 0fc0 640d babf 53e7 f2bf 0d34 1dc0
00000060: 1ad7 ad3f cdd3 fcbf 7768 9c3f 9296 0e40
00000070: 46c0 a43f 6b0e 0d40 ecf3 0640 5ea5 fa3f

cnn.2.BachNorm.running_var f4 [32]
19.783598 26.612501 10.736145 0.029209083 0.08508609 22.444212 0.0820998 10.434513
10.898352 27.751917 24.892927 7.485963 21.121965 18.948984 25.626066 22.286055
11.007918 0.07946909 22.531998 11.706294 23.016138 11.381202 18.284058 29.280762
10.272706 21.280382 9.711402 25.476185 15.978742 24.40019 18.386402 19.549911
00000000: cf44 9e41 67e6 d441 40c7 2b41 e347 ef3c
00000010: 9e41 ae3d bf8d b341 f123 a83d c4f3 2641
00000020: a65f 2e41 ed03 de41 b724 c741 028d ef40
00000030: c9f9 a841 8597 9741 2f02 cd41 d749 b241
00000040: 6f20 3041 b1c0 a23d 8841 b441 fb4c 3b41
00000050: 0d21 b841 6719 3641 c045 9241 003f ea41
00000060: 015d 2441 393e aa41 e761 1b41 3acf cb41
00000070: eda8 7f41 9733 c341 5a17 9341 3866 9c41

cnn.2.cnn.weight f4 [32, 16, 3, 3]
-0.07837256 0.116092466 0.11532273 -0.097326465 0.09286887 0.07779625 0.1024472 -0.10814928
0.08698098 -0.99664986 -0.06939726 0.013835078 -0.30831423 0.014844493 0.0031894909 0.1452877
0.05600824 0.09107753 -0.21967106 -0.17209278 0.042102505 0.24731281 0.058157224 0.043974735
0.11331918 0.058360726 0.042822774 -2.3571315 -0.0011810918 0.10180227 -1.9695619 0.0037604182
0.032987185 0.08655596 -0.023344537 0.09476488 0.035319995 0.14080289 0.01194059 0.03932989
0.11540741 0.02121741 0.039271656 -0.009848784 0.021671541 -1.1565619 -0.018443977 0.032089107
-1.3725494 0.025441442 0.054014094 0.10039349 -0.05980083 0.12404421 -0.53270054 0.18264613
0.048289184 0.05600184 0.1719643 0.0619793 0.095165536 -0.0040780227 0.08456132 -0.4664061
-0.17105307 0.07206147 0.13483691 0.09415641 -0.05134232 0.1025469 0.066213235 0.069930576
-0.3642621 -0.040521167 0.08229904 -0.17945893 0.034208063 0.06455216 0.09363238 -0.052778915
0.056029186 0.17083193 0.20583569 0.06344719 0.35693985 0.8790609 0.019576903 0.011291329
-0.010185715 0.012468426 -0.080994606 -0.13493532 -0.1361899 -0.17219673 -0.12757939 0.009242069
0.08267145 0.20762129 0.07682615 -0.58000606 0.019477021 0.041251726 -0.548983 0.014011347
0.02997061 0.14210172 -0.052754972 0.007229514 0.07209846 0.05342303 -0.050736155 0.09036979
0.17359893 -0.0043277675 -0.03466975 0.05507739 -0.15695216 -0.3216525 0.24753824 0.07153475
-0.4047096 0.13817498 0.0739195 0.047061935 -0.043808043 0.10382133 0.57078815 0.5831221
0.011784071 0.7041533 -0.004482306 -0.05002397 -0.09218045 0.06487298 -0.03413959 -3.7955804
0.029275913 0.105584696 -4.25322 0.00068145775 0.0027487525 0.03795406 0.14861041 0.123827025
-0.10570581 0.123235345 -0.08706625 -0.08097723 0.05156778 -0.103165224 -0.10623495 -0.11484366
0.07184549 -0.028305799 0.0037651998 -1.9895511 0.010461553 -0.01918906 -1.0049624 0.093039624
0.0496161 0.042869933 -0.04372425 -0.016942123 -0.25984496 0.18968503 0.121534854 -0.019275935
0.116848305 0.12684745 0.028381674 -0.037447028 0.04702205 -2.4049983 0.00086706947 0.012683059
-2.2688203 0.08552778 0.076960586 0.09856482 0.106940754 0.13220005 -0.25773475 0.12954707
0.119187586 -0.14202288 0.033429462 0.0438868 -0.078747295 -0.05057795 -0.019333743 -1.4545008
-0.09565221 0.128997 -1.6958001 0.069890894 -0.019159697 0.0512 -0.031453338 0.04894974
-0.7932579 0.07249431 0.15543115 -0.20057943 0.035202533 -0.06538632 0.0842709 -0.033747695
0.06266058 -0.65037525 -0.0048430357 0.021592598 0.18931909 0.059589975 0.057965595 0.051595252
-0.008654107 -0.018598264 -0.9106395 0.045890052 0.10350912 -0.44063115 0.09090003 0.04865101
0.09189276 0.19621493 0.20164046 -0.39385742 0.28112385 0.4678186 -0.353594 0.01668212
0.008341055 -0.1422911 0.03606052 0.047183495 -0.113860525 -0.040421326 -0.03708435 -0.058723427
-0.0778143 -0.1091973 0.14223805 0.0021088659 0.060117673 -1.0846614 0.018086294 0.15422052
-1.0768436 0.035870656 -0.008655134 0.14839284 0.122896045 0.12693466 0.06279943 0.00044341793
00000000: cb81 a0bd e3c1 ed3d 532e ec3d 1953 c7bd
00000010: 0932 be3d a453 9f3d d6cf d13d 5f7d ddbd
00000020: 1623 b23d 7224 7fbf 2720 8ebd 86ac 623c
00000030: 5ddb 9dbe 5136 733c c706 513b 4dc6 143e
00000040: e568 653d db86 ba3d 73f1 60be 1739 30be
00000050: ad73 2c3d 923f 7d3e 4536 6e3d da1e 343d
00000060: e313 e83d a80b 6f3d ef66 2f3d 3edb 16c0
00000070: ddce 9aba b57d d03d 9b1a fcbf 5971 763b
00000080: 921d 073d 4044 b13d 0b3d bfbc 1714 c23d
00000090: b3ab 103d a22e 103e 77a2 433c 6118 213d
000000a0: b85a ec3d 22d0 ad3c 51db 203d cb5c 21bc
000000b0: 8488 b13c 380a 94bf d317 97bc de6f 033d
000000c0: b3af afbf 926a d03c e23d 5d3d 1a9b cd3d
000000d0: b7f1 74bd e40a fe3d 105f 08bf 9607 3b3e
000000e0: e1ca 453d 2f62 653d 6917 303e 02de 7d3d
000000f0: 26e6 c23d efa0 85bb 7c2e ad3d c8cc eebe
00000100: 8928 2fbe f794 933d b012 0a3e 13d5 c03d
00000110: 534c 52bd 1c04 d23d ce9a 873d c337 8f3d
00000120: 9080 babe 86f9 25bd 668c a83d 15c4 37be
00000130: c11d 0c3d ec33 843d 55c2 bf3d b42e 58bd
00000140: dc7e 653d 91ee 2e3e 97c6 523e 9af0 813d
00000150: d2c0 b63e 230a 613f be5f a03c 44ff 383c
00000160: fce1 26bc 5e48 4c3c 80e0 a5bd 7c2c 0abe
00000170: 5d75 0bbe 5754 30be 2ca4 02be 0c6c 173c
00000180: a64f a93d ad9a 543e 0757 9d3d 477b 14bf
00000190: 468e 9f3c 92f7 283d 268a 0cbf d98f 653c
000001a0: ed84 f53c 1d83 113e 9915 58bd 8fe5 ec3b
000001b0: 5ba8 933d 1bd2 5a3d b7d0 4fbd cc13 b93d
000001c0: ebc3 313e f2cf 8dbb de01 0ebd d498 613d
000001d0: 11b8 20be a3af a4be aa7a 7d3e d080 923d
000001e0: 1936 cfbe be7d 0d3e 1b63 973d 04c4 403d
000001f0: 1070 33bd 47a0 d43d 2c1f 123f 7d47 153f
00000200: fa11 413c 6443 343f 4fe0 92bb efe5 4cbd
00000210: 1bc9 bcbd 20dc 843d f4d5 0bbd caea 72c0
00000220: 0ad4 ef3c ca3c d83d 611a 88c0 dba3 323a
00000230: 6a24 343b b775 1b3d 542d 183e 0699 fd3d
00000240: 4a7c d8bd d062 fc3d ca4f b2bd 64d7 a5bd
00000250: bd38 533d 4a48 d3bd b691 d9bd 2733 ebbd
00000260: ba23 933d 90e1 e7bc 92c1 763b 9ca9 febf
00000270: ef66 2b3c 6032 9dbc 9ca2 80bf 8f8b be3d
00000280: 403a 4b3d 6298 2f3d 3318 33bd 35ca 8abc
00000290: 660a 85be cb3c 423e 44e7 f83d 91e8 9dbc
000002a0: 2a4e ef3d 4ce4 013e af80 e83c 0e62 19bd
000002b0: 319a 403d 7eeb 19c0 0c4c 633a 9bcc 4f3c
000002c0: 5a34 11c0 3029 af3d 839d 9d3d 5adc c93d
000002d0: c103 db3d 735f 073e cff5 83be fda7 043e
000002e0: 9f18 f43d 726e 11be 55ed 083d a5c2 333d
000002f0: 4346 a1bd d32a 4fbd cc61 9ebc 152d babf
00000300: 4ee5 c3bd ca17 043e fa0f d9bf f522 8f3d
00000310: ccf4 9cbc 17b7 513d 37d5 00bd 867f 483d
00000320: f312 4bbf e677 943d 5829 1f3e b264 4dbe
00000330: 8830 103d 43e9 85bd 3996 ac3d 063b 0abd
00000340: 3154 803d fe7e 26bf 54b2 9ebb f6e2 b03c
00000350: dddc 413e 9e14 743d 556d 6d3d 8b55 533d
00000360: f5c9 0dbc 635b 98bc ac1f 69bf 35f7 3b3d
00000370: 97fc d33d 689a e1be cc29 ba3d 4846 473d
00000380: 4532 bc3d 91ec 483e d67a 4e3e aea7 c9be
00000390: 77ef 8f3e eb85 ef3e 460a b5be f1a8 883c
000003a0: eca8 083c c2b4 11be 32b4 133d 7b43 413d
000003b0: b52f e9bd d590 25bd c2e5 17bd fa87 70bd
000003c0: 1b5d 9fbd d6a2 dfbd daa6 113e e634 0a3b
000003d0: f33d 763d 2fd6 8abf b529 943c fceb 1d3e
000003e0: 03d6 89bf 1ced 123d 43ce 0dbc 4bf4 173e
000003f0: ecb0 fb3d 29fb 013e fd9c 803d 8c7a e839

cnn.2.cnn.bias f4 [32]
0.04465808 -0.09819991 -0.08165154 0.005812732 0.043544073 -0.048598517 -0.029318882 0.0057537337
-0.054820128 -0.08252256 -0.0061692526 0.06295277 -0.022466645 -0.14839089 0.05339048 -0.027948895
-0.031220766 0.124173544 -0.010146353 -0.09600076 -0.11419666 -0.060873657 -0.044925045 -0.06752693
-0.021016499 0.07182016 -0.061291877 -0.010178952 -0.032053597 0.0018111021 0.20614241 -0.025345037
00000000: 64eb 363d 091d c9bd ec38 a7bd bb78 be3b
00000010: 455b 323d 3d0f 47bd 272e f0bc d189 bc3b
00000020: 128b 60bd 9701 a9bd 7127 cabb 62ed 803d
00000030: f80b b8bc c8f3 17be faaf 5a3d 15f5 e4bc
00000040: b1c2 ffbc b34e fe3d e43c 26bc 0c9c c4bd
00000050: f0df e9bd a856 79bd 5303 38bd 8f4b 8abd
00000060: cb2a acbc 7316 933d 310d 7bbd 9ec5 26bc
00000070: a24a 03bd 8162 ed3a ff16 533e 65a0 cfbc
