GAN/saved_model/Dismodel.pth (torch, 30694 bytes, 18 tensors)

cnn.0.BachNorm.weight f4 [8]
000000 60 1f 8e 3c 3e 02 ed 3d 6c 3e 46 bc 41 d5 1e 3e
       0.017348945 0.11572693 -0.0120998435 0.15511037
000010 66 29 92 3b 23 13 4c 3e 23 19 a2 3e f6 de ac bb
       0.0044605015 0.19929175 0.31659803 -0.0052756025

cnn.0.BachNorm.bias f4 [8]
000000 ed 9f 06 be 10 56 4a be 0c 48 f8 bd b3 8b c2 bd
       -0.13146944 -0.19759393 -0.12123117 -0.09499302
000010 a1 29 02 be fa 32 84 3d 93 30 8b be c7 6e 5d be
       -0.12711193 0.064550355 -0.27185497 -0.2162429

cnn.0.BachNorm.running_mean f4 [8]
000000 b4 43 a7 be 26 1f af be 7a 11 02 3e 66 3d 31 3e
       -0.3266884 -0.34203452 0.1270198 0.17308578
000010 a4 a8 01 bf b1 5d f8 3e 9e 00 86 3e 50 59 15 3f
       -0.5064795 0.4850898 0.26172346 0.58339405

cnn.0.BachNorm.running_var f4 [8]
000000 6e 64 6b 3c 7d 96 13 3c f4 42 1e 3c 34 e9 27 3c
       0.014367206 0.009008047 0.009659518 0.010248471
000010 d9 4e 6d 3c 9a 81 ca 3c 9f b4 36 3d fc 4a 9d 3c
       0.014484131 0.024720002 0.044605847 0.019200794

cnn.0.cnn.weight f4 [8, 1, 3, 3]
000000 64 5c bd bd 81 8f 1c be f3 57 0a be fc 5b 01 be
       -0.09246138 -0.15289117 -0.13510112 -0.12632746
000010 59 1e 06 be 88 e5 c5 bd 13 d3 09 3c e7 6c 85 bc
       -0.13097514 -0.0966292 0.00841214 -0.01628728
000020 9e a3 b8 3d 7d 64 54 3d 3d 02 b0 3c 00 29 3f be
       0.090155825 0.051853646 0.021485442 -0.18667984
000030 5d 93 ba 3c 9d 8e ca 3c 7f a5 45 be ca 99 41 be
       0.022775346 0.024726206 -0.19301413 -0.18906322
000040 ad bc 44 be 76 7e 5e bb 13 62 e9 3d 91 3a b3 3d
       -0.19212599 -0.0033949888 0.11395659 0.08751405
000050 82 f3 1f be 42 72 07 3e df 2c b9 3d b9 23 1a be
       -0.15620235 0.1322718 0.090417616 -0.1505269
000060 e4 aa 22 3e 31 c7 24 3d b6 5c 1f be c5 2a 40 3e
       0.15885502 0.040229026 -0.1556271 0.18766315
000070 a8 98 85 3e 74 aa 2b 3e 5d 08 90 bd a6 d3 ae 3d
       0.2609303 0.16764241 -0.07032845 0.085364625
000080 8c 02 c0 3c f5 42 17 be 83 69 03 bc 50 df 18 be
       0.023438714 -0.14771636 -0.008020761 -0.14928937
000090 93 ca eb bd 0f 5f c2 bd 22 d2 df bd 26 e7 e2 bd
       -0.11513247 -0.09490787 -0.109287515 -0.11079244
0000a0 c3 de b1 bd 54 37 b6 bd 46 70 e2 bd f9 41 af bd
       -0.086850666 -0.08897272 -0.11056571 -0.08557505
0000b0 e0 8c 0b 3d 17 ab f7 3d 98 e7 13 3e 32 b8 9b 3c
       0.034069896 0.1209318 0.14443815 0.01900873
0000c0 fc 00 1e 3e a0 3f 5c 3e 4b 12 48 3e e2 2a 16 3d
       0.15430063 0.21508646 0.19538228 0.03666199
0000d0 ee 3e 0a 3e fe de a9 bd cd cf 27 3e e4 7b 5a 3e
       0.13500568 -0.082944855 0.16387863 0.21336323
0000e0 33 39 09 be ef 6c cf 3e ed c1 d9 3e b6 25 fb bd
       -0.13400726 0.40512797 0.42530766 -0.12263052
0000f0 b0 92 2b 3d 31 d7 d1 3c 19 c7 1b be c5 33 d3 3d
       0.04188794 0.025615307 -0.15212668 0.10312609
000100 ee ce bf 3d 9e 7c fe 3c 59 d4 a1 3d 5e 0d a4 3d
       0.093656406 0.031065281 0.0790183 0.08010362
000110 80 01 8d 3d eb 81 65 3e e9 e4 44 3e c1 fc 0b 3d
       0.06885052 0.22412841 0.19227947 0.03417659

cnn.0.cnn.bias f4 [8]
000000 a9 67 38 bd b5 f9 83 bd ee 38 6c 3d 2f 50 c5 3c
       -0.045020733 -0.06444112 0.05767148 0.024086086
000010 64 da 32 be 20 3c ac 3d d0 0a e8 bd 33 7e 44 3e
       -0.17466122 0.084099054 -0.11330187 0.19188766

cnn.1.BachNorm.weight f4 [16]
000000 dd ac 50 bc cc c9 7b 3a c3 a5 a8 3c 86 63 de 3c
       -0.012736526 0.000960496 0.020586854 0.027147066
000010 d6 eb 05 3c 84 60 0a 3e a4 60 52 bd c7 27 51 3d
       0.008173903 0.1351338 -0.051361695 0.051063325
000020 1e 53 ba 3c 99 8f 9e 3b 19 89 14 bf 00 f8 17 bc
       0.022744711 0.0048388955 -0.58021694 -0.009275436
000030 56 05 e3 bc aa 93 cf bb 7a e5 41 3e f7 8e 1a 3f
       -0.027712505 -0.0063347416 0.18935195 0.603744

cnn.1.BachNorm.bias f4 [16]
000000 3a 84 5c bd 40 53 07 bd 0a 3e 94 38 7d 3e 8f be
       -0.05383704 -0.033038378 7.0687456e-05 -0.27977362
000010 ab 0b d5 bd 7c cd a7 be bc 0a 37 be 4b 24 7b be
       -0.10402616 -0.3277396 -0.17875189 -0.24525563
000020 b2 64 9d bd 8d 46 25 bd 95 61 39 be 06 6e e6 bc
       -0.07685222 -0.040350486 -0.18103631 -0.028128635
000030 30 75 ce bd f0 68 f5 bd 6a bf 22 be 2b 9d aa 3d
       -0.100809455 -0.11982906 -0.15893331 0.08330759

cnn.1.BachNorm.running_mean f4 [16]
000000 aa 8b 01 bd 3c 24 99 bd db 3b de bd 1a 64 72 be
       -0.031627335 -0.07477614 -0.1085126 -0.23670998
000010 6a 71 27 ba 66 8c ed bc 11 5d 7c 3d 7b 3d 87 be
       -0.00063874444 -0.028997611 0.061612193 -0.26414093
000020 a7 74 8a 3d 3d 91 69 3d b5 15 b1 bc 42 b8 ba 3d
       0.06760531 0.057023276 -0.021616796 0.09117176
000030 e8 4f 36 bd 0f c3 8f bd c2 8d a0 bd db d1 c9 bb
       -0.0445098 -0.07019626 -0.07839538 -0.00615905

cnn.1.BachNorm.running_var f4 [16]
000000 ff 79 62 3c 23 e5 36 3c 17 cc d6 3c fe e5 de 3c
       0.013823031 0.011163029 0.026220364 0.027209278
000010 0a b3 9b 3b c5 3a 08 3d 92 6b 3a 3c 38 76 a0 3d
       0.0047515677 0.033259172 0.011378186 0.078350484
000020 1d 69 9a 3c cf 73 da 3c 32 f7 a9 3c 7d 49 1b 3c
       0.01884895 0.02666655 0.020747755 0.00947797
000030 56 f3 af 3b 3f 1c a6 3b b5 47 38 3d 51 60 61 3d
       0.005369584 0.005069285 0.04499026 0.055023495

cnn.1.cnn.weight f4 [16, 8, 3, 3]
000000 cb 8d 99 bd f9 39 94 bd a3 8e 1a be fc bb 85 bd
       -0.07497748 -0.0723762 -0.15093474 -0.06529996
000010 b1 15 b3 bd 58 ed 92 bd 05 39 74 3b 6a 2f 11 bc
       -0.08744372 -0.07174176 0.0037265432 -0.008861402
000020 5c f0 36 3e 06 e8 21 3e ed 58 1f bd b4 55 83 be
       0.17865127 0.15811166 -0.038903166 -0.25651324
000030 11 f5 20 bd bf 95 b4 bd d8 0b 23 be ef 65 91 3d
       -0.039296214 -0.08817624 -0.15922487 0.070995204
000040 cd a7 2e bc e4 a8 e8 3b be 7a e1 3d 54 a8 fd bd
       -0.010660124 0.0071002115 0.11009739 -0.12385622
000050 a2 73 d5 bd 6a a2 89 3e b6 bd 0d 3c 6b f6 a2 bd
       -0.10422446 0.26881725 0.008651188 -0.07957157
000060 78 2b 74 3e 5f cb fb 3c 43 b6 69 bd 13 ec 7c be
       0.23844707 0.030736623 -0.057058584 -0.2469943
000070 b9 0b e4 bd 98 cd 59 3d 51 60 2a be 7a 1c af 3d
       -0.111350484 0.053174585 -0.16638304 0.08550353
000080 a7 79 d5 3e 8c cf 25 bd d7 d7 96 bd 20 d8 de 3d
       0.41694376 -0.040481135 -0.07365387 0.10881066
000090 5f a4 90 bd 6e 2a 0b be ed 7e 1c be a6 e9 9e bd
       -0.07062601 -0.13590404 -0.15282793 -0.07759409
0000a0 67 26 cb bd c5 a8 ae bd 48 a2 eb 3c 0b 84 16 3d
       -0.09919434 -0.08528284 0.028763905 0.03674702
0000b0 ba ad 8c 3d f9 ad 43 be ba 1a 22 be b5 cc d8 bd
       0.06869073 -0.19109334 -0.15830508 -0.1058592
0000c0 f7 ab 2f bd 0d e1 36 bd 60 c8 39 3d 44 5b 36 3d
       -0.042888608 -0.04464822 0.045357108 0.04452063
0000d0 6d 1f 9b 3d 64 16 bb 3d bb e7 ac be 92 54 f2 be
       0.07574353 0.0913513 -0.33770546 -0.47330147
0000e0 73 9a 45 3d eb f3 29 be 6c 08 08 be e2 53 2c bd
       0.048242997 -0.16596954 -0.13284463 -0.042072184
0000f0 6e bf 77 bd 32 78 ec bd 71 3b d9 bd e4 1a 80 3e
       -0.060485296 -0.11546363 -0.10607041 0.25020516
000100 8b 99 26 3d e0 1a 48 be b0 91 8e 3d 5f 2c cd bd
       0.040673774 -0.19541502 0.069613814 -0.10018229
000110 84 d3 24 be b3 30 18 3d 37 da 2e be e6 2a 3a be
       -0.16096312 0.03715582 -0.1707543 -0.18180427
000120 3a 3e a6 bc a9 1d 98 3d 73 67 32 3e 6a 30 44 bd
       -0.020293344 0.07427532 0.17422275 -0.047897734
000130 8c bd af 3d e8 81 7b 3d 66 4e 2e 3c ff 12 0c 3d
       0.08581075 0.061403185 0.010638809 0.034197804
000140 b4 66 4e bd 21 a5 03 3e 92 19 55 3e ec cc 5f 3e
       -0.050390914 0.1285596 0.20810536 0.21855515
000150 4a 55 56 3d e3 99 09 3e 38 41 41 bd f1 8d a8 bd
       0.05232743 0.1343761 -0.047181338 -0.08230198
000160 ee 80 98 bd 5c f8 21 be 69 8c bb bc 4c 85 01 bd
       -0.074464664 -0.15817398 -0.022894101 -0.031621262
000170 ba 4e 81 3d 4d 61 a0 3c 98 6f f7 bd 68 bd 87 bd
       0.06313844 0.019577647 -0.12081832 -0.06627923
000180 a6 a9 b6 bd be 48 e6 bd 5c b4 16 be c6 84 d8 3d
       -0.089190766 -0.11244343 -0.14717239 0.105721995
000190 26 b0 24 3e ce 14 59 3e 60 98 1c 3e cd 96 ef bc
       0.1608282 0.21199343 0.15292501 -0.029246712
0001a0 b4 f3 15 3a ca 67 b4 38 45 f0 82 bd 82 a6 95 bd
       0.00057202135 8.602401e-05 -0.06393484 -0.073071495
0001b0 24 30 93 bc d3 b3 d1 3d 68 ea 1d 3e 11 bd 00 bd
       -0.017967291 0.10239377 0.1542145 -0.031430308
0001c0 98 60 e3 3d f4 45 01 3e bf 72 eb bd 39 ce c1 bd
       0.11102408 0.12624341 -0.114964955 -0.09463162
0001d0 39 d3 c7 bd fd b3 87 3e fa 71 a3 3d 67 77 9e 3a
       -0.097570844 0.26504508 0.07980724 0.0012090028
0001e0 0f e6 1e 3e 29 79 46 bd f5 73 42 bd 99 89 af bb
       0.15517448 -0.04845539 -0.047473866 -0.005356979
0001f0 42 86 4e 3d 46 4d 83 3b 9e 53 bc 3e 0d 48 50 3e
       0.050421007 0.0040070144 0.36782545 0.20339985
000200 af 73 47 3d 78 80 98 3e 13 4d 85 bc 12 ef 89 bd
       0.04869431 0.29785514 -0.016272103 -0.06735052
000210 aa 11 62 bd 18 08 6e 3c e5 12 f3 bd 02 fb d1 3d
       -0.055192627 0.014528297 -0.11868838 0.10252954
000220 9b 65 32 3e da 67 a9 3d 11 0b bf 3d d9 62 d1 3d
       0.17421572 0.08271761 0.093282826 0.10223932
000230 cd 3e cf bd bb 8b 0d 3e c0 12 25 3e 4e 6c 33 be
       -0.101194 0.13822834 0.16120434 -0.17521784
000240 9e 79 b9 3d 6d bd 98 3b 97 a1 15 3e 7e 7b eb 3d
       0.090564 0.004661253 0.14612423 0.11498164
000250 0e da 50 3d 93 52 04 3e 6c 9b e6 3c f2 1a cf bd
       0.050989203 0.12922125 0.028150283 -0.10112561
000260 af ce 1d 3d b8 c1 8f bb 6f ec d6 bc 2d c1 7e 3d
       0.038527187 -0.0043871067 -0.026235787 0.062195946
000270 0b 81 22 bd 8f e1 cd bd d2 ae 71 bd 3d 80 47 bd
       -0.039673846 -0.100527875 -0.059004612 -0.048706282
000280 4a f3 4e be c4 47 63 be 8f 6c c6 3c 83 ee 70 3c
       -0.20209995 -0.22195345 0.024221687 0.014705303
000290 1f c8 cb 3c 86 1b 73 be fb 85 38 be ca cd b2 bd
       0.024875699 -0.23740968 -0.1801986 -0.087306574
0002a0 08 45 48 be 7f d6 3b be 31 da e1 bd fe 06 1b bd
       -0.19557583 -0.18343543 -0.11027945 -0.037848465
0002b0 63 e1 e3 bd 7a 1a 83 3c 12 5c 66 bd 54 47 cb bd
       -0.111269735 0.016003836 -0.05624015 -0.09925714
0002c0 57 45 d9 bd 6f 43 0e 3e c0 c9 b9 bd 86 18 08 be
       -0.10608929 0.13892911 -0.09071684 -0.13290605
0002d0 ef 3f 90 3d 20 2c 8d 3b 5c 79 3a 3d e9 b3 38 3c
       0.07043444 0.0043082386 0.045525894 0.011273363
0002e0 df 16 b6 bd a3 ca 9c 3b 6c 55 1b be f4 56 d5 bd
       -0.08891081 0.0047848984 -0.15169305 -0.104169756
0002f0 d3 93 b6 bd 55 94 a2 bc b7 d0 d2 bc e5 94 30 bc
       -0.08914914 -0.01984612 -0.025734289 -0.010777687
000300 71 ae d1 bd 4e bd 89 bd 93 d8 99 bd ba b2 8f be
       -0.1023835 -0.0672556 -0.075120114 -0.28066045
000310 eb c0 8c be 61 a2 d5 be 7f 98 a9 be fb d3 8f bd
       -0.27490935 -0.41725448 -0.33124158 -0.07022854
000320 9c 80 c2 3b 9b 1b 30 be 68 fb a2 bd ac 1d 65 3d
       0.0059357416 -0.1719803 -0.07958108 0.0559365
000330 74 e8 b3 be 79 71 68 be 29 5b e2 bb c4 65 5c bd
       -0.35138285 -0.22699536 -0.00690784 -0.05380799
000340 e2 b1 ca bd eb e2 3e bd 2b 0d 79 bd 05 ca 00 be
       -0.0989721 -0.046603125 -0.060803574 -0.12577064
000350 fb ce 8e bd 62 92 fe bd b5 ea af bc 43 95 d3 bd
       -0.06973072 -0.12430264 -0.021474222 -0.10331204
000360 71 88 42 bd 74 18 67 bd 28 32 2d bd 51 72 42 3d
       -0.047493402 -0.056419805 -0.04228416 0.047472302
000370 74 90 3d 3b 1d 8d 41 bd e9 16 4b 3d a1 84 50 3d
       0.0028925212 -0.047253717 0.049582396 0.050907735
000380 69 ba 27 3d dd f6 6a bd cc a3 de bc 89 d8 2c bd
       0.04094926 -0.057364333 -0.027177714 -0.04219869
000390 2f 00 a6 3d 49 57 e7 3d 86 29 00 bd 40 a7 76 3e
       0.08105504 0.11295945 -0.0312896 0.24087238
0003a0 95 6d ee 3c c1 9c bf 3d aa d8 19 be 5a 78 16 be
       0.029104987 0.0935607 -0.15024057 -0.14694348
0003b0 c4 63 1b bd c6 75 5b bc 38 9f 74 3c 11 b7 f9 bc
       -0.03793694 -0.013394779 0.014930539 -0.0304828
0003c0 7d 1c 75 3e 85 25 e7 bd d6 6c 8d bd 7f 5e 8b be
       0.23936649 -0.11286453 -0.069055244 -0.27220532
0003d0 43 2b bc be 8f 09 27 be f7 ab be 3d 9d 07 e7 be
       -0.36751756 -0.1631224 0.093101434 -0.45122996
0003e0 5f 06 5b bd f6 18 84 3d f7 cb 95 bd 08 0b ca bd
       -0.053472873 0.064500734 -0.07314294 -0.09865385
0003f0 6d 5d fa bd f6 86 79 3c fc ab b3 3b df 7d 99 bc
       -0.12224851 0.015229931 0.0054831486 -0.018736778

cnn.1.cnn.bias f4 [16]
000000 a9 1b 80 3c a1 36 07 be d8 e4 e9 3c 21 4b 21 be
       0.01563819 -0.13204433 0.028551504 -0.15751316
000010 6b 69 e4 3b b7 e5 dc bd 04 59 f4 b9 cc a3 1c bd
       0.0069705746 -0.10786002 -0.00046605628 -0.038242146
000020 75 49 35 3e c4 d9 7e bd 26 4a ee 3c 25 3d 8a 3d
       0.17703803 -0.062219396 0.029088091 0.06749944
000030 86 0f 5c bc 66 48 8c bd 75 f1 90 bc d1 6c fb 3d
       -0.013431435 -0.068497464 -0.01769326 0.122766145

cnn.2.BachNorm.weight f4 [32]
000000 47 23 50 3d e0 27 74 40 18 81 76 c0 a3 24 74 40
       0.050814893 3.8149338 -3.8516293 3.8147361
000010 a3 ac 75 c0 07 b8 36 bd 2b 1c 5a 3d bb c2 74 c0
       -3.838662 -0.044609096 0.05324952 -3.8243854
000020 82 96 74 40 ec a6 76 40 da ec 73 c0 4f 78 73 40
       3.8216863 3.853938 -3.8113313 3.804218
000030 92 ee 74 c0 65 1b 74 40 8f 1a 74 40 02 96 76 c0
       -3.8270612 3.814172 3.814121 -3.8529058
000040 c7 77 73 40 33 7a 14 3d 13 06 76 40 f5 b8 33 3c
       3.8041856 0.03624935 3.8441207 0.01096939
000050 c3 b6 76 40 1a ac 77 c0 cf 04 77 c0 f7 df 77 3d
       3.854905 -3.8698792 -3.8596685 0.060516324
000060 00 ab 73 40 a2 94 77 40 52 36 8b bd db bd 72 c0
       3.807312 3.8684468 -0.0679747 -3.7928379
000070 37 4a 74 40 09 8b 0b 3c d0 23 76 40 85 4c 72 c0
       3.8170297 0.008517035 3.8459358 -3.7859204

cnn.2.BachNorm.bias f4 [32]
000000 19 e3 cf bd 63 73 14 c0 85 03 15 c0 c7 04 15 c0
       -0.10150737 -2.3195426 -2.3283398 -2.3284166
000010 bc 50 15 c0 4d 46 f6 bd f0 4b f7 bd 5f 6d 13 c0
       -2.3330526 -0.120251276 -0.12075031 -2.3035505
000020 12 4e 19 c0 d2 e5 13 c0 fa 75 16 c0 34 46 14 c0
       -2.39539 -2.310902 -2.3509507 -2.3167849
000030 a5 1f 13 c0 c2 55 16 c0 a2 e8 16 c0 91 11 14 c0
       -2.2988064 -2.3489842 -2.3579488 -2.3135722
000040 30 da 15 c0 3f 12 eb bd c2 8e 18 c0 39 51 17 bd
       -2.341442 -0.114780895 -2.3837132 -0.036942694
000050 97 75 11 c0 5e 6f 12 c0 1d 1e 18 c0 89 55 df bd
       -2.272802 -2.2880473 -2.376838 -0.109049864
000060 87 22 16 c0 54 18 12 c0 60 3b 8d be b3 b7 12 c0
       -2.3458574 -2.2827349 -0.27584362 -2.292462
000070 1e e6 13 c0 a2 5d 16 be 35 ae 14 c0 12 7b 16 c0
       -2.3109202 -0.14684156 -2.3231328 -2.3512616

cnn.2.BachNorm.running_mean f4 [32]
000000 dd 8b 4c 3d c2 a6 d8 bf f0 d6 ef 3f df c2 e5 bf
       0.04993807 -1.692589 1.8737469 -1.7950095
000010 85 48 ce 3f 70 de 0d 3e f9 d3 80 bd 19 90 ea 3f
       1.6115881 0.13854384 -0.062904306 1.8325225
000020 8b cf d5 bf 27 6f d3 bf 5d 1e f2 3f 7f 6a f0 bf
       -1.6703962 -1.6518296 1.8915516 -1.87825
000030 5d bf db 3f 8a eb ef bf 4a 5c d7 bf 80 32 b2 3f
       1.7167774 -1.8743756 -1.6825039 1.3921661
000040 f4 b7 eb bf 5b b8 03 be 56 db ce bf bc db 92 bb
       -1.8415513 -0.12863295 -1.6160686 -0.004481761
000050 c2 7b ea bf 59 bd 8d 3f d2 77 df 3f ec d8 88 bd
       -1.8319018 1.1073409 1.7458441 -0.066819996
000060 d6 5d 03 c0 d2 ab f0 bf b7 dc 85 bd 0b ea 08 40
       -2.0526023 -1.8802435 -0.06536239 2.1392848
000070 b8 00 e2 bf 93 de 2d be c8 79 f5 bf b2 5e d4 3f
       -1.7656469 -0.16979437 -1.917779 1.6591399

cnn.2.BachNorm.running_var f4 [32]
000000 30 8e a4 3c e9 48 8f 41 ae 3b 9f 41 d1 fe 9d 41
       0.020087332 17.9106 19.90414 19.749422
000010 97 36 74 41 70 b3 74 3d df 64 a1 3d f4 3d ac 41
       15.263328 0.059741437 0.07880568 21.53025
000020 ba 3b 8c 41 e8 98 6b 41 3e a3 ad 41 62 06 a1 41
       17.529163 14.724831 21.704708 20.128117
000030 18 25 8a 41 6f 91 a7 41 01 27 85 41 25 7d 34 41
       17.268112 20.946012 16.644045 11.280553
000040 a7 1b aa 41 b9 e2 93 3d a7 b2 52 41 16 ce 84 3d
       21.263502 0.07220978 13.168616 0.0648462
000050 06 a7 83 41 84 56 fd 40 2e 16 82 41 af 86 2e 3d
       16.456554 7.916811 16.26083 0.042608913
000060 c9 15 af 41 ca df 99 41 21 22 28 3e 64 14 c4 41
       21.885637 19.234272 0.16419269 24.509956
000070 f4 bc 95 41 2c 29 41 3d 7b 16 97 41 cd e3 69 41
       18.717262 0.047158405 18.885977 14.618115

cnn.2.cnn.weight f4 [32, 16, 3, 3]
000000 2e a5 85 bd aa 88 95 bd b8 4a 8b 3d 95 33 cd bd
       -0.06525646 -0.07301457 0.06801361 -0.10019604
000010 03 85 f9 bd 14 70 fd 3d d6 a5 b0 3d 91 9e e3 3d
       -0.12183573 0.12374893 0.08625381 0.111142285
000020 a7 d5 7d 3d f0 c4 8d bd f4 60 c9 bd 62 f0 c5 3d
       0.061971333 -0.069223285 -0.098329455 0.0966499
000030 64 3b 98 bd f4 73 89 bd a4 56 ef 3d ab c6 9e 3d
       -0.07433203 -0.067115694 0.11686447 0.07752737
000040 55 b3 18 3e 54 6e 81 3d dd bd c1 bd 32 f3 02 bd
       0.1491216 0.063198715 -0.09460042 -0.03197021
000050 5b 6a dc 3d fa 95 06 be 47 27 05 3e 7e d7 09 3e
       0.10762473 -0.13143149 0.13003264 0.1346111
000060 93 54 c1 3d 7c 27 24 3e 72 47 8b 3d 94 d4 a2 bd
       0.094399594 0.16030687 0.068007365 -0.07950702
000070 a3 ab 0e be 42 81 29 3c 31 a6 4b 3d 2c 51 33 be
       -0.13932662 0.010345759 0.04971904 -0.17511433
000080 0b 8e c6 3d 84 8d 73 3d 43 8d 14 3e 83 dd 72 3d
       0.09695061 0.05946113 0.14507012 0.05929328
000090 ea 8b 63 bd 6d 0c 89 bd 0e 4b bc bc 68 84 99 bd
       -0.055553354 -0.06691823 -0.022985008 -0.074959576
0000a0 db e4 d3 bd fe 96 1d 3e 64 0b 90 3d 10 bd 10 3e
       -0.10346385 0.1538963 0.070334226 0.14134622
0000b0 15 ab 1a 3d 2f 33 88 bd 87 95 1c be eb fb 24 3d
       0.037760813 -0.066503875 -0.15291415 0.04027931
0000c0 8a 85 7e 3d 6b ce 38 be 91 99 c1 3d 67 c0 c3 3d
       0.06213907 -0.18047492 0.094531186 0.09558182
0000d0 08 5f 1f 3e 85 f4 1f 3d d9 f8 8c bd 49 03 e2 bd
       0.15563595 0.03905155 -0.068834014 -0.11035783
0000e0 f6 04 6e 3c f7 11 da bd 3c 7f d3 bd 92 82 f9 3d
       0.01452755 -0.10647958 -0.103270024 0.121831074
0000f0 70 f3 e9 3d a8 8b f4 3d 6e 01 6d 3d 19 0a d1 3d
       0.11423385 0.119407 0.05786269 0.10207004
000100 8c d0 84 bd 06 22 99 bd a1 60 10 be eb c3 0a be
       -0.0648509 -0.074771926 -0.14099361 -0.135513
000110 ba 30 77 3d 27 6c e8 bd 3f b3 b6 3d 54 fc ce bd
       0.060349204 -0.113487534 0.08920907 -0.101067215
000120 27 c6 bb 3d f0 13 0f bd 3c b5 b4 bd c4 43 eb bd
       0.09168654 -0.034931123 -0.0882363 -0.11487535
000130 f9 63 13 be 2c e8 03 3e c2 60 d7 bd 82 29 e6 3d
       -0.14393605 0.12881535 -0.10516502 0.11238386
000140 09 30 d4 bd 2a 59 d3 bd 06 25 e9 bd 34 24 c3 3d
       -0.103607245 -0.10319741 -0.11384015 0.095283896
000150 22 cf 94 bd a7 87 ff bd cd e7 79 3d f6 4f 98 3d
       -0.0726607 -0.124770455 0.061012078 0.07437126
000160 8c a7 19 3e 11 88 a4 3d 12 cd 9f bd 0d 2b df bd
       0.1500532 0.08033765 -0.07802786 -0.10896883
000170 cc e8 92 3d 27 d3 e3 bd f8 f3 f9 bd dc 77 0c 3e
       0.07173309 -0.111242585 -0.122047365 0.13717598
000180 d8 29 e9 3d 87 5d 0f 3e df 20 62 3d b2 7b 96 bd
       0.11384934 0.14000522 0.05520713 -0.07347812
000190 c9 1a f5 bd 5a e7 01 3e 55 b3 f7 bd d8 e2 0e be
       -0.119679995 0.1268591 -0.12094752 -0.13953722
0001a0 2f 86 10 3e b9 c2 0b 3e de dc f3 3d f3 c3 87 3d
       0.14113687 0.136485 0.119073614 0.06629171
0001b0 54 27 1d bd c0 e1 39 be ce 94 af 3c 94 27 eb bd
       -0.038367584 -0.18152523 0.02143326 -0.11482158
0001c0 cc 44 4a be 62 6f 8d bd a8 73 2b 3e eb db 79 bd
       -0.19752806 -0.0690601 0.16743338 -0.061000746
0001d0 3b 1b d6 bc 66 44 23 bd 74 c6 01 be 1a 1c 84 3d
       -0.026136031 -0.03986015 -0.1267336 0.064506724
0001e0 44 f5 a7 bd 30 ff f4 bd f0 52 f0 3d 10 dd 46 3d
       -0.082010776 -0.11962736 0.11734569 0.048550665
0001f0 8b 3f ef 3d 41 67 c9 3d 10 8e a2 3d da ca 9a bd
       0.11682042 0.09834147 0.079372525 -0.07558222
000200 b0 7d b9 bd 73 88 c0 bd 63 66 22 be b7 93 59 3d
       -0.09057176 -0.094010256 -0.1585937 0.053119387
000210 85 ec f7 bd c5 73 f8 3d fa 21 87 bd fd 88 6b bd
       -0.121056594 0.12131456 -0.065982774 -0.05750369
000220 38 ea 7f bd 1f 6d 05 3e f0 47 c2 bd e6 15 06 3e
       -0.062479228 0.13029908 -0.09486377 0.13094291
000230 48 7d 0a 3e c3 e8 8b 3d e5 9c bb 3d 27 e2 7a 3d
       0.13524354 0.06831505 0.09160785 0.061250832
000240 35 0a 17 3d 5e d9 94 3c 17 95 99 3d 7c eb a4 3c
       0.03687497 0.018170055 0.0749914 0.020131819
000250 b7 05 e6 3c ab c9 9a 3b c5 ea 5a bf 4e d5 1a be
       0.028078897 0.0047237477 -0.8551448 -0.15120432
000260 03 2d ab 3d 2b ae 6e 3d 23 fd 98 3d fd 63 02 3e
       0.08358195 0.05827157 0.07470157 0.12733455
000270 7a d8 b4 3d 94 0b b7 ba 83 79 ea 3d a8 8e fc be
       0.08830352 -0.0013965243 0.11448958 -0.49327588
000280 4e 0d e7 be 32 28 b2 3d 49 3d d2 3d d7 6f 06 3e
       -0.45127338 0.08699073 0.102655955 0.13128601
000290 56 9f 82 3d 73 d0 94 3d 3b 5a 13 3e d0 97 08 3d
       0.06378047 0.07266321 0.14389889 0.033347905
0002a0 ea 7d 00 bf 8a 48 f3 bd eb e8 28 3d ef 59 ab 3d
       -0.5019213 -0.1187907 0.041237753 0.08366763
0002b0 08 6a 59 3d 25 7c d0 3d 4a f3 46 3e f4 2c 58 3d
       0.053079635 0.10179929 0.19428745 0.052777246
0002c0 48 6b 3c bd 5c 40 ec bf ed d7 74 bd 2c 6a fa 3d
       -0.04600075 -1.8457141 -0.059776235 0.12227282
0002d0 e9 10 4a 3b 45 b3 e3 3d f1 4f 0a 3e 65 76 fd 3d
       0.0030832833 0.11118177 0.13507058 0.123760976
0002e0 37 a8 05 3e f8 00 da bd 4b f3 0d be 80 88 9e bd
       0.1305245 -0.10644716 -0.1386234 -0.07740879
0002f0 2f 34 ec 3d 8a ad 1a 3e 9a 0a 49 3d 40 0c fa 3d
       0.11533391 0.15105262 0.049082376 0.12209368
000300 5a f7 6e 3e af 0d cf 3d 55 3f 5d be 46 7f 1b c0
       0.23336545 0.10110032 -0.2160619 -2.4296432
000310 bf 4b a9 be 03 f8 9c 3d 92 8a ac 3d bb 04 35 3c
       -0.33065602 0.07664492 0.08424868 0.011048491
000320 b2 46 70 3d c8 91 ff 3c a1 8a f4 39 74 02 ed bc
       0.05866117 0.031197444 0.00046642593 -0.028931834
000330 fa 6d c7 bf 46 ef 94 3d a9 fb ab 3d 79 3a e6 3d
       -1.5580437 0.072722 0.0839761 0.112416215
000340 65 e8 9d 3b f6 56 26 3e 4d 41 89 bb 1e b3 15 3e
       0.0048189634 0.1624411 -0.0041886927 0.14619109
000350 63 d2 77 3b 41 e6 1f c0 4b 90 10 be c9 bb d0 3d
       0.003781461 -2.4984286 -0.14117543 0.10192067
000360 16 77 e9 3d 4a 7c da 3d 1e d3 c9 3d 76 ee b6 3d
       0.11399667 0.106682375 0.098547205 0.089322016
000370 be 5c 07 3e de 78 96 bd 5b 74 af bd ab b0 00 be
       0.13218972 -0.07347272 -0.08567115 -0.12567393
000380 7e 7c b2 3d fe 9b 96 3c 7d e9 89 3d 08 b9 a0 3d
       0.08715151 0.01838493 0.067339875 0.07847792
000390 8d 9b 71 3d ab e0 cb 3d 9e 51 65 bd c3 58 a9 be
       0.058986235 0.099549614 -0.05598604 -0.33075532
0003a0 a9 f4 1a be a7 31 7c 3d 73 85 e2 3d cf b0 a9 3c
       -0.15132393 0.06157079 0.1106061 0.020714192
0003b0 13 64 e3 3d c6 8f 01 3c d6 2f 1e 3a 51 a0 0d 3d
       0.11103072 0.007907813 0.000603435 0.034576718
0003c0 81 3e 64 c0 b1 fc 83 3c 83 df b2 3d e4 40 86 3d
       -3.566315 0.016111704 0.08734038 0.06555346
0003d0 b2 62 a9 3b 84 9f 2f 3d de e5 da 3c bd 08 3e 3d
       0.005169236 0.042876735 0.026720937 0.046395052
0003e0 f9 a9 8b bb 2f 8f 6c bf de 4d 88 bd 5f 02 91 3d
       -0.0042622057 -0.9240598 -0.06655477 0.070805304
0003f0 1a cc 25 3d d4 17 79 3b b5 5d cf 3d a6 a2 ca 3d
       0.04047785 0.0038008587 0.10125295 0.09894304

cnn.2.cnn.bias f4 [32]
000000 38 f5 ab 3b 28 e6 4e 3d 00 c5 27 bb b7 f7 01 3e
       0.005247738 0.050512463 -0.00255996 0.12692152
000010 09 c4 0f bd 0d 51 81 3c 68 96 31 bd 1a a4 bc bd
       -0.035099063 0.015785718 -0.04335633 -0.092109874
000020 21 87 0d 3d 0c 2e 72 bc 91 e5 99 bd 71 6c f5 3b
       0.034552697 -0.014781486 -0.075144894 0.007489734
000030 be 67 9a bd 2c 8c 75 bc 06 44 f9 3b 5f 76 a0 bc
       -0.075393185 -0.014987033 0.007606986 -0.019587694
000040 95 c0 0e 3c b6 8c 59 bc ff c6 b2 bd cc a0 1c bd
       0.008712907 -0.013278177 -0.08729362 -0.038239285
000050 58 c8 ed bd d5 0e e2 3c 75 fd e4 3c 1f af 8c b9
       -0.11610478 0.027594963 0.027952889 -0.00026833356
000060 34 16 18 bd 5a a1 81 bb af 11 9c 3c 75 bb a1 3c
       -0.03713055 -0.003956002 0.019051401 0.019742707
000070 22 f8 62 bd 6d e2 cc bd ba 55 d4 bd c2 99 b5 3d
       -0.05541242 -0.10004125 -0.103679135 0.088672176
