GAN/saved_model/Genoptimizer.pth (torch, 340198 bytes, 13 tensors)

cnn.0.BachNorm.weight f4 [16]
0	0x3c80bdf9	0.015715586
1	0x3b026c6d	0.0019901053
2	0x3ccd90e2	0.0250935
3	0xbcd61758	-0.026134178
4	0xbd040d44	-0.032239214
5	0x3ce31455	0.027719656
6	0xbbd86d2c	-0.006604811
7	0xbc3c2c0a	-0.011485109
8	0x3d92cb46	0.071676776
9	0x3d17087e	0.036873333
10	0xbd195cf8	-0.037442178
11	0x3cd9b566	0.026575755
12	0x3d03d96c	0.03218977
13	0xbd6e0255	-0.058107693
14	0x3c266849	0.010156699
15	0xbaff8106	-0.0019493408

cnn.0.BachNorm.bias f4 [16]
0	0x3bdb2276	0.0066874577
1	0xbc05f75f	-0.008176654
2	0x3bb200ab	0.0054322085
3	0x3b2f7364	0.002677166
4	0x3c65346e	0.013989551
5	0x3bcbf301	0.0062240367
6	0xbb5789c1	-0.0032888504
7	0xb9b9bf81	-0.0003542863
8	0x3c01bb59	0.007918202
9	0xbb2d7d0a	-0.0026472234
10	0x3c62edff	0.013850688
11	0x3bf6ac07	0.0075278315
12	0x3cb7e187	0.022446407
13	0x3c2590ec	0.010105353
14	0xbba6602c	-0.0050773825
15	0xbc1255d1	-0.008931593

cnn.0.BachNorm.running_mean f4 [16]
0	0xbde28bd2	-0.11061825
1	0xbb27332b	-0.0025512676
2	0xbdd6cead	-0.10488639
3	0x3ee21476	0.44156235
4	0xbd5a6e87	-0.053328063
5	0xbe5a6a4c	-0.21329612
6	0xbcb16b52	-0.02165762
7	0x3d9db04c	0.076996416
8	0x3e05ea7b	0.13077728
9	0x3ea8c7a5	0.32964817
10	0xbdb820d7	-0.08990639
11	0x3d033259	0.032030437
12	0xbeb77914	-0.35834563
13	0xbd42c8c9	-0.047554765
14	0x3d892af3	0.06697645
15	0x3d23da70	0.04000324

cnn.0.BachNorm.running_var f4 [16]
0	0x3f1fc6a3	0.6241247
1	0x3ce412e1	0.027841033
2	0x3ed4c66e	0.4155764
3	0x3f693ef9	0.91111714
4	0x3f37640d	0.7163704
5	0x3f0c361e	0.54770076
6	0x3ee08656	0.4385249
7	0x3ec6619c	0.38746345
8	0x3ec58e5c	0.38585174
9	0x3f13f23b	0.5779149
10	0x3f94fe6c	1.1640143
11	0x3efeeb43	0.49788865
12	0x3f7a2e1a	0.97726595
13	0x3f7d820a	0.9902655
14	0x3f00690f	0.50160307
15	0x3d9a2e65	0.0752838

cnn.0.cnn.weight f4 [200, 16, 5, 5]
0	0x39bb59a2	0.000357342
1	0x3c98c3c0	0.018648028
2	0x3c78f270	0.01519452
3	0xbc88ae75	-0.01668475
4	0x3ccbd8df	0.024883686
5	0xbd1985bf	-0.037481066
6	0xbd4b9095	-0.04969843
7	0x3ab904f7	0.001411586
8	0x3cfa7d4a	0.03057732
9	0x3c07f0d5	0.008297165
10	0xbb55babd	-0.0032612525
11	0x3c5cfaf5	0.013487567
12	0x3cccae33	0.024985408
13	0xbcf951ae	-0.030434456
14	0xbbf083f0	-0.007339947
15	0xbc8a372b	-0.01687201
16	0xbc0b99c8	-0.008520551
17	0x3c9c1c97	0.019056601
18	0xbc19cc52	-0.009387093
19	0x3c501780	0.012700915
20	0xbcb279a5	-0.02178652
21	0x3c73546e	0.014851673
22	0xbc8c24f6	-0.017107468
23	0xbc800432	-0.015627
24	0x3c797a06	0.015226847
25	0xbc341d4f	-0.010993316
26	0xbc3a4db5	-0.011371066
27	0x3ce50a7e	0.027959105
28	0x3be6fe1c	0.007049335
29	0x3cfc83b4	0.03082452
30	0x3cc2d36d	0.023782456
31	0xbc278b21	-0.010226042
32	0x3c13835b	0.009003486
33	0xbb22b5aa	-0.0024827519
34	0x3d372d98	0.044721216
35	0xbc272300	-0.010201216
36	0xbd0e3b5f	-0.03472459
37	0xbbd089bf	-0.006364077
38	0x3c84df17	0.016219659
39	0xbc2eafe8	-0.0106620565
40	0x3aa31840	0.001244314
41	0xbb814671	-0.003945165
42	0x3cf5a190	0.029984266
43	0x3b9fa9cc	0.0048725363
44	0xbaccce06	-0.0015625365
45	0xbc81b17b	-0.0158317
46	0x3c99529a	0.018716145
47	0x3ae4dbe4	0.0017460552
48	0xbc7fefae	-0.015621109
49	0x3a6eb14e	0.00091054
50	0xbcd53fd5	-0.026031414
51	0xbc8c643e	-0.017137643
52	0x3d4c951f	0.0499469
53	0x3b796245	0.0038052958
54	0x3af4dec0	0.0018682107
55	0x3c9e64f0	0.01933524
56	0xbc314425	-0.01081947
57	0xbc33cffd	-0.010974881
58	0xbd07d450	-0.03316146
59	0x3ab0eead	0.0013498865
60	0x3ca7d2e5	0.020486305
61	0xbbc89d51	-0.006122269
62	0xbba42e23	-0.0050103827
63	0xbc7c787a	-0.015409583
64	0xbc8d087f	-0.017215965
65	0x3ca60ac5	0.020268807
66	0x3c96e382	0.018419031
67	0x3d08a97a	0.03336475
68	0x3be6cec1	0.00704369
69	0xbc2f8b2f	-0.010714336
70	0xbcc08623	-0.023501461
71	0x3bd11889	0.0063810986
72	0x3cb5de1f	0.022200642
73	0xbad1697b	-0.001597687
74	0x3b9195d9	0.004442912
75	0x3d4b75f5	0.04967304
76	0x3b18ee6c	0.002333547
77	0xbbc0b8f1	-0.0058814217
78	0x3d326208	0.04355052
79	0xbb4599c1	-0.003015146
80	0xbc86aa72	-0.016438697
81	0xbd2337f9	-0.0398483
82	0x3c73b3eb	0.014874439
83	0x3d5fd17b	0.054643136
84	0xbcca05a9	-0.024660902
85	0x3d259f5a	0.040435173
86	0xbb3fd52f	-0.0029271354
87	0x3d2a551e	0.04158508
88	0x3caf6527	0.021410538
89	0x3cb9190c	0.022594951
90	0xbd22c02a	-0.039734043
91	0x3b31ec39	0.0027148856
92	0x3d261143	0.040543806
93	0xbc919321	-0.017770352
94	0x3b1a428f	0.0023538207
95	0x3c93dba6	0.018049072
96	0x3c9e859c	0.01935082
97	0x3ccfe378	0.02537702
98	0x3cb0e8da	0.021595407
99	0x3cdb7e83	0.026793724
100	0x3ac400aa	0.0014953811
101	0x3c71568c	0.014730107
102	0xbd3e407c	-0.046448216
103	0xb9c6bf83	-0.0003790819
104	0x3d413a8b	0.04717497
105	0x3ce030ea	0.027367074
106	0xbd186607	-0.037206676
107	0xbc20e635	-0.009820511
108	0xbbc20860	-0.0059214085
109	0xbd0c52ca	-0.03425864
110	0xbc8a659b	-0.016894152
111	0xbc3cedf6	-0.011531344
112	0xbcb15f1f	-0.021651803
113	0x3c360c87	0.011111385
114	0x3cdf0657	0.027224703
115	0xbc430162	-0.011902185
116	0x3b08f8b7	0.0020900199
117	0xbd25603e	-0.040374987
118	0x3c41b9b6	0.011824062
119	0x3c01b476	0.00791656
120	0xbbb5ba40	-0.0055458844
121	0x3cbaea0a	0.022816677
122	0x3bf61baf	0.0075106244
123	0xbbe4f442	-0.0069871256
124	0xbbe35c01	-0.006938458
125	0xbcaaabea	-0.020833928
126	0x3c5fc087	0.013656742
127	0x3cc8fba6	0.024534058
128	0x3b23d208	0.0024997015
129	0xbc6b5a79	-0.014364832
130	0xbcadc39d	-0.02121144
131	0xbd00bbf2	-0.03142924
132	0x3cb9961b	0.022654584
133	0x3bac7cea	0.0052639144
134	0xbca549fe	-0.020176884
135	0xbcbaa18f	-0.022782115
136	0x3b5b271e	0.0033440064
137	0xbbfc2bb3	-0.007695639
138	0xbccda678	-0.025103793
139	0xbc74bf10	-0.014938131
140	0xbbafd457	-0.005365889
141	0x3c8014ad	0.015634859
142	0xbc5bca88	-0.013414986
143	0xbcf237fd	-0.029567713
144	0xbc3ba81c	-0.011453655
145	0xbc1fd356	-0.009754976
146	0xbc04b934	-0.0081007965
147	0xba616989	-0.0008598795
148	0xba89af7d	-0.001050457
149	0xbb95b0a8	-0.004568178
150	0xb9819439	-0.00024715232
151	0xbbe9d510	-0.0071359947
152	0xbc91a90d	-0.017780805
153	0x3a155f40	0.0005698092
154	0x3c930630	0.017947286
155	0xbbf1c7e9	-0.0073785675
156	0x3c692104	0.014229063
157	0x3cdea91d	0.027180249
158	0x3d5cf8ca	0.0539482
159	0xbcc3c73e	-0.023898717
160	0x3ca279f3	0.01983354
161	0x3cfb7501	0.03069544
162	0x3cb2c7f1	0.021823855
163	0x3c3be5ac	0.011468332
164	0xbb9ec6af	-0.0048454623
165	0x3c5395be	0.012914119
166	0x3c579159	0.013157212
167	0x3c844b51	0.016149195
168	0x3be96347	0.0071224305
169	0x3ccaec4d	0.02477088
170	0xbd71579b	-0.058921438
171	0x3d3145f0	0.04327959
172	0xbd3b6d82	-0.04575873
173	0xbc2cc9ad	-0.01054613
174	0xbc1ba1f1	-0.009499059
175	0xba8957dc	-0.0010478455
176	0x3cb97c6e	0.02264234
177	0xbc392c35	-0.011302044
178	0xbd1751ba	-0.036943175
179	0xbb9df287	-0.0048201713
180	0x3c383193	0.011242288
181	0xbbe1c8c0	-0.0068903863
182	0xbc64b439	-0.013958984
183	0x3b98cc0d	0.0046629966
184	0x3c30b2c1	0.010784806
185	0xbd58ad8e	-0.05289989
186	0xbcc1b983	-0.02364803
187	0xbceff6a6	-0.029292416
188	0x3befc78c	0.007317489
189	0x3c4a2018	0.012336753
190	0x3ca14df0	0.019690484
191	0x39a74c42	0.0003190954
192	0x3d275b5a	0.040858604
193	0xbbe71ca1	-0.0070529734
194	0xbbcfab25	-0.0063375407
195	0xbc80bf5c	-0.015716247
196	0xbc27cc2a	-0.010241548
197	0x3bc6994f	0.0060607563
198	0xbc18c1c1	-0.009323538
199	0x3aa445ae	0.0012532973
200	0xbcbbd60d	-0.022929216
201	0x3aaa4b5b	0.0012992428
202	0x3d5e7d45	0.054318685
203	0x3a1ee5c4	0.00060614594
204	0xbc94e7bd	-0.018176908
205	0x3bade62e	0.0053069806
206	0x3cba6bec	0.02275654
207	0x3b0eb95e	0.0021777968
208	0xbbd752e8	-0.0065711625
209	0x3ad312be	0.0016103608
210	0xbbafd17b	-0.005365548
211	0x3c2dbbe8	0.010603882
212	0x3d0575a3	0.03258289
213	0xbbfc2537	-0.007694866
214	0xbcaa750f	-0.020807771
215	0xbc3f543e	-0.0116778
216	0x3c2b25b9	0.0104460055
217	0x3b40b128	0.0029402468
218	0xbd0417a8	-0.032249123
219	0xbce1858f	-0.027529506
220	0x3c9b8f90	0.018989354
221	0x3ca514f9	0.020151602
222	0x3b482ef5	0.0030545567
223	0x3c0f5002	0.008747103
224	0x3cbe04b8	0.02319561
225	0xbd0b898e	-0.03406673
226	0xbc58cd34	-0.013232518
227	0xbcdb20be	-0.026749011
228	0x3c4565a3	0.012048158
229	0x3bf31899	0.0074187038
230	0xbc41dd5e	-0.011832563
231	0x3bf1d1b1	0.0073797335
232	0xb8f493fd	-0.000116623916
233	0x3d301fb7	0.042998996
234	0x3bdc2992	0.0067188228
235	0xbd03845f	-0.03210866
236	0xbce15fb7	-0.02751146
237	0xbb2225f2	-0.0024741855
238	0xbb38e71e	-0.0028213928
239	0xba5295c6	-0.0008033182
240	0x3d1b776b	0.037955683
241	0x3c0df552	0.008664446
242	0x3c982059	0.018570112
243	0x3c3ae461	0.011406989
244	0x3bbde7fb	0.0057954765
245	0x3d35d4b1	0.04439229
246	0xbc5b3c01	-0.013381005
247	0xbd4362a2	-0.047701485
248	0xb8f37f09	-0.00011610805
249	0x3bd1988a	0.006396358
250	0x3c935807	0.01798631
251	0xbcdc015c	-0.026856117
252	0x3c8a6aba	0.016896594
253	0xb9167a0e	-0.00014350584
254	0x3cc2e8b4	0.023792602
255	0xbc8c843a	-0.017152894

cnn.0.cnn.bias f4 [16]
0	0x3c8f1edc	0.01747077
1	0x3c65d75c	0.014028396
2	0x3d227766	0.03966465
3	0xbccfee88	-0.025382295
4	0xbcce6403	-0.025194174
5	0xbd462f38	-0.048384875
6	0x3c1958f1	0.009359584
7	0x3c8295b8	0.015940532
8	0x3d3135ae	0.043264084
9	0x3c930118	0.017944857
10	0xbd45b6af	-0.048269924
11	0x3c86ec3c	0.016470067
12	0xbd39a6cc	-0.045325086
13	0xbbd718d2	-0.006564238
14	0x3c25213a	0.010078723
15	0xbb5128c9	-0.003191518

cnn.1.BachNorm.weight f4 [8]
0	0xbd0113cc	-0.03151302
1	0xbd1cc0ab	-0.03826968
2	0x3c76c305	0.015061145
3	0x3d4b2c48	0.049602777
4	0x3d0ff24f	0.035143193
5	0x3d43ab28	0.04777065
6	0x3d2ed8f3	0.042687368
7	0xbc8bfb61	-0.01708764

cnn.1.BachNorm.bias f4 [8]
0	0xbb869dc5	-0.004108163
1	0x3b3df57f	0.0028985438
2	0x3ab5e7bc	0.0013878266
3	0x3bff0073	0.007782036
4	0xbb32bd00	-0.0027273297
5	0xbb8de1d7	-0.0043299007
6	0x3b91f649	0.0044544083
7	0xbc1e49b8	-0.009661131

cnn.1.BachNorm.running_mean f4 [8]
0	0xbd562dc8	-0.052289754
1	0x3c5ecb31	0.013598249
2	0x3cc5dd52	0.024153385
3	0xbd072e6a	-0.03300325
4	0x3d7c5db2	0.061612792
5	0x3c19de20	0.009391338
6	0xbd579d2a	-0.052640118
7	0x3d435470	0.047687948

cnn.1.BachNorm.running_var f4 [8]
0	0x385c5fd8	5.254135e-05
1	0x389afb22	7.3900694e-05
2	0x38066cbf	3.2049367e-05
3	0x383e5b73	4.53847e-05
4	0x388dd431	6.762928e-05
5	0x3885fcb8	6.389007e-05
6	0x38805188	6.118702e-05
7	0x383c1417	4.4841403e-05

cnn.1.cnn.weight f4 [16, 8, 5, 5]
0	0xbd09391e	-0.033501737
1	0x3c196b55	0.009363969
2	0xbba2bac5	-0.0049661123
3	0x3c879bae	0.016553726
4	0x3c332e18	0.010936283
5	0xbc8335a3	-0.016016787
6	0x3c53e471	0.012932883
7	0x3a3cf2b5	0.0007207797
8	0xbc8bf5ef	-0.017085044
9	0xbca347c8	-0.019931689
10	0xbd6a926f	-0.057268556
11	0xbcac97e9	-0.02106853
12	0xbc15fbd2	-0.009154277
13	0x3d0481db	0.032350402
14	0xbaa1e721	-0.0012352207
15	0xbd5857ad	-0.05281799
16	0x3c394ce1	0.011309833
17	0xbca68882	-0.020328764
18	0xbc428f13	-0.011874932
19	0xbbb27d44	-0.0054470617
20	0xbc622a9b	-0.013804103
21	0xbbca24bd	-0.0061689303
22	0xbcc2213a	-0.023697484
23	0xbb3652cd	-0.002782035
24	0x3c8b370a	0.016994018
25	0xbc5179b5	-0.012785365
26	0xbc3a529c	-0.011372235
27	0x3bad2489	0.0052838963
28	0x3cecae06	0.028891575
29	0xbd2d40de	-0.04229819
30	0xbbad4148	-0.005287323
31	0xbd68f615	-0.056875307
32	0xbd3a0de7	-0.045423415
33	0x3d150b30	0.036387622
34	0xbc8d9edb	-0.017287662
35	0xbce6ee5d	-0.028189832
36	0x3cfc8128	0.030823305
37	0xb7ee1b4e	-2.8384526e-05
38	0xbc171dc9	-0.00922341
39	0xbc2e1670	-0.010625467
40	0x3cce9604	0.025218017
41	0x383887cc	4.399549e-05
42	0x3ac0f18f	0.0014720428
43	0xba4e3af7	-0.0007867063
44	0xbb17477b	-0.0023083377
45	0xbc80f6c8	-0.015742674
46	0x3c2a90e9	0.010410526
47	0xbcb30f9f	-0.021858035
48	0x3c61938f	0.013768091
49	0xbd44e4cc	-0.04806976
50	0x3d0283dd	0.031864036
51	0x3ca13871	0.019680234
52	0x3d1967e4	0.037452593
53	0x3a67d8e6	0.0008844271
54	0x3ce2fc56	0.027708214
55	0xbc257dfc	-0.010100838
56	0xbc6319b8	-0.013861112
57	0x3b2b27f6	0.0026116348
58	0xbcafe9e3	-0.02147383
59	0xbc5d9d6e	-0.013526304
60	0x3b4eacdd	0.003153614
61	0x3c8d84f6	0.017275315
62	0x3ce92d29	0.028463917
63	0xbd163983	-0.03667594
64	0x3bd477f0	0.006484024
65	0xbcf9f800	-0.030513763
66	0xbd24ba9c	-0.040217027
67	0xbca1b169	-0.019737916
68	0x3c5c6fe5	0.013454412
69	0xbc3e3b20	-0.011610776
70	0x3bdb94b4	0.0067010764
71	0xbcde4507	-0.027132524
72	0xbd21fea9	-0.039549503
73	0x3ba2f4e3	0.0049730404
74	0xbaa50b91	-0.0012591948
75	0x3cafba97	0.021451278
76	0x3d1d442d	0.038395096
77	0xbca9945e	-0.02070063
78	0xbd2fe037	-0.042938437
79	0xbb7eec23	-0.0038898073
80	0xb95dae5b	-0.00021141155
81	0xbc936014	-0.01799015
82	0xbbbff464	-0.005857991
83	0xbc50eed0	-0.01275225
84	0xbd156678	-0.036474675
85	0x3d4fa842	0.050697573
86	0x3c712ce8	0.014720179
87	0x3d134450	0.03595382
88	0x3c8beedf	0.017081676
89	0xbc4c646a	-0.012475112
90	0x3c615783	0.013753775
91	0xba923f6c	-0.0011157817
92	0xbd13bfcb	-0.03607158
93	0x3c3fabd9	0.0116986865
94	0x3bb3f73d	0.0054921196
95	0x3cbeb1c0	0.023278117
96	0xbc813c7e	-0.015775915
97	0x3cb1e516	0.021715682
98	0xbc8437ee	-0.01613995
99	0xbc2cfd00	-0.010558367
100	0x3c237f8f	0.009979143
101	0xbbf10344	-0.0073551256
102	0x3ceb769a	0.028743077
103	0xbcfd27ed	-0.030902827
104	0xbc1e9cd2	-0.009680944
105	0x3cd30c1f	0.025762616
106	0x3ce086fc	0.027408116
107	0x3d04f9cb	0.032464784
108	0xbc95e3e2	-0.01829714
109	0xbcbb78b7	-0.02288471
110	0x3c85890e	0.016300704
111	0x3ca4f287	0.020135177
112	0x3cc28853	0.023746645
113	0x3c759e9b	0.014991428
114	0x3c82fa0a	0.015988369
115	0x3c24ade8	0.010051228
116	0x3d750284	0.059816852
117	0xba0469b2	-0.000505115
118	0xbca832a6	-0.020531964
119	0x3d33c134	0.043885425
120	0xbd025713	-0.03182132
121	0x3cdd2188	0.026993528
122	0x3ce2b5fa	0.027674664
123	0x3d1d4b36	0.038401805
124	0x3cf9aa54	0.030476727
125	0xbbd6c644	-0.006554397
126	0xbbd5d6f1	-0.006525867
127	0xbc95b276	-0.018273573
128	0x3ceb5859	0.02872865
129	0x3af8ecf5	0.0018991517
130	0x3b51ebe6	0.0032031476
131	0x3cd6028a	0.026124258
132	0xbb6449fb	-0.0034834135
133	0xbb946d03	-0.004529597
134	0x3be47413	0.006971845
135	0xba47902b	-0.000761273
136	0xba8a9c2e	-0.001057511
137	0x3cf3730f	0.02971795
138	0x3ca5e033	0.020248508
139	0x3cbd4a93	0.023106849
140	0x3b9725af	0.0046126465
141	0x3c5f3ca8	0.013625301
142	0x3b0f8e2b	0.0021904807
143	0xbbbd6e0d	-0.0057809413
144	0xbbc1d985	-0.005915823
145	0xbbc16d4f	-0.005902923
146	0x3caad1cc	0.020851992
147	0xbc63e0ba	-0.013908559
148	0x3cb2c3f3	0.021821951
149	0x3d58cc4b	0.052929204
150	0x3bda59a5	0.0066635185
151	0xbc9b3a14	-0.018948592
152	0xbd3a4df7	-0.04548451
153	0x3cbe6e4d	0.023245955
154	0xbcfbba4b	-0.03072848
155	0x3aee9903	0.001820356
156	0xbbd81efc	-0.0065954905
157	0x3d55f26b	0.05223314
158	0xbced9eba	-0.02900635
159	0xbcb92c2a	-0.022604067
160	0x3c8d46ce	0.017245676
161	0x3c942d3f	0.018087981
162	0xbc83ad3f	-0.016073821
163	0x3c6561ea	0.014000395
164	0x3c05afa9	0.008159556
165	0xbc30f216	-0.010799905
166	0x3c57a1b3	0.013161111
167	0x3c9a7599	0.018854903
168	0x3c69e4f3	0.014275777
169	0x3d02c302	0.031924255
170	0x3cdf0456	0.027223747
171	0x3ca73cd7	0.020414753
172	0x3a01d558	0.000495275
173	0x3d6bd0ba	0.057572104
174	0x3c541101	0.012943507
175	0xbc8d8a74	-0.017277934
176	0xbb9a2582	-0.0047041783
177	0xbc6bc411	-0.014390008
178	0xbd3706f2	-0.044684358
179	0x3c277165	0.010219906
180	0xbc57609c	-0.013145592
181	0x3c173299	0.009228372
182	0xbd25b16b	-0.040452402
183	0xbc0fac19	-0.008769059
184	0x3cad0be5	0.021123836
185	0x3b96f676	0.004607017
186	0xbc8716e1	-0.016490402
187	0x3d5b692a	0.05356709
188	0x3d4d7de5	0.05016889
189	0xbc4ad290	-0.012379304
190	0x3bd6f5fa	0.0065600844
191	0x3c566ea9	0.013087907
192	0x3cc5dd6b	0.024153432
193	0x3d13e3af	0.036105808
194	0x3ac5e6fb	0.0015098745
195	0xbc5314ef	-0.012883409
196	0x3c80551d	0.015665585
197	0xbc5afc7b	-0.01336586
198	0xbb353607	-0.002765061
199	0xbd161a7a	-0.036646344
200	0x3cb96946	0.022633206
201	0xbca21ac2	-0.01978815
202	0xb9b7218e	-0.0003492948
203	0xbafdec01	-0.0019372703
204	0x3ce44855	0.027866522
205	0xbcc293bc	-0.023752086
206	0xbb8ea3ba	-0.004353014
207	0x3c66e7c2	0.014093341
208	0x3ca69f97	0.02033977
209	0x3c99881b	0.018741658
210	0xbc987984	-0.01861263
211	0x3cc4985c	0.023998432
212	0x3b294db1	0.0025833661
213	0xbd2fd7ae	-0.042930298
214	0xbc452bbd	-0.012034354
215	0x3cbf9b68	0.023389533
216	0x3cbc4643	0.022982722
217	0xbb17731d	-0.0023109384
218	0xb9ab6659	-0.00032691917
219	0xbd1603b5	-0.03662463
220	0x3c486499	0.012231016
221	0xbb365120	-0.002781935
222	0x3c411899	0.01178565
223	0xbb387421	-0.002814539
224	0xb93e9e83	-0.00018178862
225	0x3c2a88b7	0.010408572
226	0x3c5223d4	0.012825925
227	0x3cb43fbd	0.022003049
228	0xbcdbf2fe	-0.026849266
229	0xbd12d93d	-0.035851706
230	0x3bd8c17b	0.0066148615
231	0x3cf3dfbb	0.029769769
232	0x3b0b1ecc	0.0021228073
233	0x3cb6cb6f	0.022313802
234	0xbd0eed0a	-0.034894027
235	0x3b2564c5	0.0025237065
236	0xbc819f3b	-0.015822997
237	0xba067e83	-0.0005130546
238	0xbbe3b406	-0.0069489507
239	0x3afc31d4	0.0019240924
240	0xbcb4f489	-0.02208926
241	0xbc73b4ec	-0.014874678
242	0x3bcfca7c	0.0063412767
243	0xbcbe9e4f	-0.023268847
244	0x3c639e22	0.013892682
245	0xbb61418a	-0.003437134
246	0x3b18372c	0.0023226244
247	0x3c762e73	0.015025723
248	0xbbf9e77a	-0.007626471
249	0xbb572be4	-0.0032832557
250	0xbcda1bb1	-0.026624532
251	0xbc2daa53	-0.0105996905
252	0xbbf312c0	-0.0074180067
253	0x3b6d44df	0.003620438
254	0xba04bcfa	-0.000506356
255	0xbcb99526	-0.022654127

cnn.1.cnn.bias f4 [8]
0	0xbd523abc	-0.051325545
1	0x3c842843	0.01613248
2	0x3ced7234	0.02898512
3	0xbd0c2378	-0.034213513
4	0x3d68d89c	0.0568472
5	0x3baddcb9	0.005305853
6	0xbd6a98cf	-0.057274636
7	0x3d3f77c4	0.046745077

cnn.2.cnn.weight f4 [8, 1, 5, 5]
0	0x3c04ece2	0.008113118
1	0xbcde3e11	-0.027129205
2	0x3cc39a74	0.02387736
3	0xba85d830	-0.0010211524
4	0x3c0cb71b	0.008588578
5	0xba93af86	-0.001126752
6	0x3cbe5d16	0.023237746
7	0x3c3d7f92	0.01156606
8	0x3ceb3793	0.028713023
9	0xbd1d6d27	-0.038434174
10	0x3d1653ad	0.036700893
11	0xbbfb1012	-0.007661828
12	0x3d266420	0.04062283
13	0xbbbdec79	-0.005796012
14	0x3c45fc62	0.0120840985
15	0xbaed0574	-0.001808329
16	0x3c9a7fb4	0.018859722
17	0x3c6c0217	0.014404795
18	0xbc19decb	-0.009391497
19	0xbc9079b7	-0.017636163
20	0xbc6eeb6e	-0.014582498
21	0xbb9dd73f	-0.004816919
22	0xbca41add	-0.02003234
23	0x3c059cbc	0.008155044
24	0xbd36d4e8	-0.044636637
25	0x393d1dfb	0.00018035613
26	0xbb9972c7	-0.004682872
27	0xbcd4a1cb	-0.025956055
28	0xbc54e3e9	-0.012993791
29	0xbcbdbec5	-0.023162255
30	0xbd1b9f4c	-0.037993714
31	0xbca555c6	-0.020182502
32	0xbd2947b6	-0.041328155
33	0xbb48de61	-0.0030650126
34	0x3d1236cc	0.03569679
35	0xbc6ea21f	-0.01456502
36	0x3b01e283	0.001981885
37	0xbcc24581	-0.023714783
38	0xbd16f909	-0.036858592
39	0xbc393abb	-0.011305506
40	0x3cb79608	0.022410408
41	0xbc88760d	-0.016657853
42	0xbcd6af88	-0.026206747
43	0x3c3974aa	0.011319319
44	0xbd89370c	-0.066999525
45	0x3b461591	0.0030225257
46	0xbd0127f4	-0.031532243
47	0x3d7e3698	0.062063783
48	0xbbf0f8d0	-0.0073538795
49	0xbca7df94	-0.020492353
50	0x3c949f8d	0.018142486
51	0x3ba232ab	0.0049498877
52	0x3d100343	0.03515936
53	0x3bcf5742	0.0063275406
54	0x3c97b774	0.018520094
55	0x3cc6c90d	0.02426579
56	0x3ce887df	0.0283851
57	0x3c5a5171	0.013325081
58	0x3d2e88ae	0.042610817
59	0x3ca2da83	0.019879585
60	0x3d365f89	0.044524703
61	0x3d27705f	0.04087865
62	0xbcbf5e3b	-0.023360362
63	0xbc847c44	-0.016172536
64	0xbd0179db	-0.03161035
65	0xbc5a5e24	-0.013328109
66	0xbcd4ac04	-0.02596093
67	0xbca83669	-0.020533757
68	0xbc807aa1	-0.015683474
69	0x3c018889	0.007906088
70	0xbb86ff81	-0.004119814
71	0x3ca4f555	0.020136515
72	0xbd01fb60	-0.03173387
73	0xb9546fe2	-0.00020259575
74	0xbb67a4a2	-0.0035345932
75	0xbc894d3c	-0.016760461
76	0x3c9f9c51	0.019483717
77	0xbbe18a72	-0.006882959
78	0xbcc1ee82	-0.0236733
79	0xbc7ed49e	-0.015553622
80	0x3bb1b7cd	0.005423522
81	0xbc6ed532	-0.014577197
82	0xbcec609e	-0.028854664
83	0xbcb6bd4d	-0.022307063
84	0xbb01e719	-0.0019821583
85	0xbca7e57f	-0.020495174
86	0x3cbb855e	0.022890743
87	0xbcfe3152	-0.031029377
88	0xbd3b54ce	-0.045735173
89	0x3cd3d674	0.025859095
90	0xbcfce05b	-0.0308687
91	0xbd014dc4	-0.031568304
92	0xbd43287e	-0.04764604
93	0x3bcbdb4e	0.0062212115
94	0xb75eba4a	-1.3275605e-05
95	0xbca4d2f8	-0.020120129
96	0xbcc32a40	-0.023823857
97	0x3d8b34a8	0.06797153
98	0x3c039b57	0.008032641
99	0x3c498509	0.012299784
100	0xbd203f99	-0.03912315
101	0xbc85951b	-0.01630645
102	0xbd4c6a8f	-0.04990631
103	0xbc38b199	-0.011272811
104	0x3c0d478a	0.008623013
105	0xbd088877	-0.033333268
106	0x3cdb96ad	0.026805246
107	0x3c0f64ba	0.008752042
108	0xbb8a5ecf	-0.004222728
109	0xbd1a4c04	-0.03767015
110	0xbc04e9cd	-0.008112383
111	0x3cf3efc7	0.02977742
112	0x3c615e85	0.013755445
113	0x3cae3fde	0.021270689
114	0xbc16834c	-0.009186577
115	0x3c4a699e	0.012354283
116	0xbbd95a2b	-0.0066330633
117	0x3c21ba53	0.009871083
118	0xbbf7c2d7	-0.0075610685
119	0x3aa8cbc3	0.0012878109
120	0xbcaede7a	-0.02134632
121	0xbce60aff	-0.028081415
122	0xbd693ffe	-0.056945793
123	0xbcd26e9d	-0.02568751
124	0xbc0ca5af	-0.008584424
125	0xbc4c2a5c	-0.012461271
126	0xbd4e5681	-0.050375465
127	0xbd2f0fb0	-0.04273957
128	0xbc997cf0	-0.018736333
129	0xbd3ba751	-0.045813862
130	0xbcfbdfaa	-0.0307463
131	0xbb12dacb	-0.0022408243
132	0xbbba57b8	-0.0056867264
133	0x3cc0366b	0.023463449
134	0x3c250d20	0.01007393
135	0xbc4a1b21	-0.01233557
136	0xbcb7c805	-0.022434244
137	0x3cec0309	0.028810041
138	0x3baf2bec	0.005345812
139	0xbc84408c	-0.01614406
140	0xbd9310b7	-0.071809225
141	0xbc178301	-0.009247542
142	0xbb0c86e9	-0.0021442717
143	0x3c97269c	0.018451028
144	0xbd1b0f09	-0.037856136
145	0xbd0136a7	-0.03154626
146	0xbc3f0cb4	-0.0116607435
147	0x3c1f14a6	0.009709513
148	0x3ba63fbc	0.0050735157
149	0x3d3128e3	0.043251883
150	0xbbe26cab	-0.006909927
151	0xbbf530f7	-0.0074826437
152	0x3d65a4be	0.056065314
153	0xbbd0aa8b	-0.0063679866
154	0xbd40013f	-0.04687619
155	0xbcb38d19	-0.021917867
156	0xbce52459	-0.027971433
157	0x3d3c87ab	0.04602782
158	0xbd52ef39	-0.05149767
159	0xbd26f740	-0.04076314
160	0xbd1c620e	-0.03817945
161	0x3c22413d	0.009903249
162	0x3c30f142	0.010799708
163	0xbc2d59e5	-0.010580515
164	0x3c063347	0.008190936
165	0x3be53ce1	0.0069957827
166	0xbcb68b4f	-0.022283224
167	0xbcc05582	-0.023478273
168	0xbcae01a2	-0.021241013
169	0xbd71b712	-0.05901248
170	0x37c0e6aa	2.2995595e-05
171	0xbcf307fc	-0.029666893
172	0x3ab20fe3	0.0013585057
173	0xbb98f13c	-0.0046674293
174	0xbd53d0a9	-0.051712666
175	0xbd665235	-0.056230742
176	0xbcd0d42d	-0.025491798
177	0x3c1a9ea0	0.009437233
178	0xbcc5d3c7	-0.024148835
179	0x3cc4fc07	0.024045957
180	0x3bb0f63e	0.005400448
181	0x3bac0b55	0.0052503743
182	0xbc7f9927	-0.015600479
183	0x3cc07d29	0.023497181
184	0xbc3baf9b	-0.011455442
185	0x3c3d7d7f	0.011565565
186	0x3ab58962	0.0013850147
187	0xbae18f99	-0.0017208933
188	0xbd03267b	-0.03201912
189	0x3caa556b	0.020792684
190	0x3cb9c36a	0.022676188
191	0x3c5cc27e	0.013474105
192	0xbc8dea7a	-0.017323721
193	0x3bb99ef8	0.0056647025
194	0x3c4fd194	0.012684245
195	0x3969b810	0.0002228918
196	0x3c3f0f3e	0.011661349
197	0x3ab8e9a4	0.0014107716
198	0x3b4c05ba	0.0031131343
199	0x3b820314	0.003967652
