GAN/saved_model/Genoptimizer.pth (torch, 340198 bytes, 13 tensors)

cnn.0.BachNorm.weight f4 [16]
0	0x3d406ab5	0.046976764
1	0x3b0bdb21	0.0021340328
2	0x3d938777	0.07203572
3	0xbd49994e	-0.04921847
4	0xbd939773	-0.07206621
5	0xbceeb277	-0.029137833
6	0xb86b4597	-5.6093177e-05
7	0x3d41450f	0.047185
8	0x3d1ab27e	0.03776788
9	0x3cbe649a	0.02324133
10	0x3bf750e4	0.0075474847
11	0x3d86abf5	0.06575767
12	0x3d392ffe	0.045211785
13	0x3d28cfe4	0.041213885
14	0xbc3b30a6	-0.011425173
15	0xbbfe4e6f	-0.007760815

cnn.0.BachNorm.bias f4 [16]
0	0x3bd5912d	0.0065175504
1	0xbc004e80	-0.007831216
2	0xbc7c412e	-0.015396399
3	0x3c9e08d2	0.019291315
4	0xbd150c7a	-0.03638885
5	0xbc76f551	-0.015073136
6	0xbb5c09dd	-0.0033575215
7	0xbb73006a	-0.0037079104
8	0xbca1a5ac	-0.019732319
9	0xbc8bdbe4	-0.017072625
10	0xbcc48c4e	-0.023992684
11	0xbd235e78	-0.039885014
12	0xbc8a679e	-0.016895112
13	0xbb049dab	-0.002023558
14	0xbba96f72	-0.005170756
15	0xbcef2af7	-0.029195292

cnn.0.BachNorm.running_mean f4 [16]
0	0x3e5efb2b	0.217755
1	0xbd8dd151	-0.069246896
2	0x3f6883b0	0.9082594
3	0xbe15488e	-0.14578459
4	0xbed8a92a	-0.42316562
5	0xbed26070	-0.410892
6	0x3e4fb30c	0.20283145
7	0x3ef7237b	0.48269257
8	0x3f1b679c	0.6070497
9	0x3f03b649	0.5145002
10	0x3c2c0f69	0.010501721
11	0x3e8e0cac	0.27744043
12	0xbe3aac82	-0.18229869
13	0xbc98c182	-0.01864696
14	0x3dbaf334	0.091284186
15	0xbf1219cb	-0.57070607

cnn.0.BachNorm.running_var f4 [16]
0	0x3f82e18c	1.0225081
1	0x3d3553cb	0.044269364
2	0x3f8e866a	1.113477
3	0x401cd73d	2.450637
4	0x3f3320be	0.69971836
5	0x3f9dd537	1.2330693
6	0x3efa4224	0.48878586
7	0x3fc9c598	1.5763426
8	0x3f5079fa	0.8143612
9	0x3f59c3aa	0.85064185
10	0x3f537d96	0.82613504
11	0x3efe28e4	0.49640572
12	0x3f9fe18c	1.2490706
13	0x3f4b7ded	0.7948902
14	0x3f97ec4f	1.1868991
15	0x3f97139e	1.1802862

cnn.0.cnn.weight f4 [200, 16, 5, 5]
0	0xbcaba0f9	-0.020950781
1	0xbd060a5d	-0.032724727
2	0x3d517f76	0.051146947
3	0x3d0abe39	0.033872817
4	0x3b8fa17c	0.004383264
5	0xbc7ba17f	-0.015358328
6	0x3d537f77	0.05163523
7	0xbd1680a9	-0.036743794
8	0x3cc718b7	0.024303777
9	0x3c99da07	0.018780721
10	0x3af3c707	0.0018598743
11	0xbc2c1967	-0.010504103
12	0xbd047a11	-0.032342974
13	0x3cb1f9f5	0.021725634
14	0xbd492877	-0.049110856
15	0x3c6aedc9	0.014338919
16	0x3c1f946a	0.0097399745
17	0x3ae8004f	0.0017700287
18	0x3ba76b0c	0.0051091965
19	0xbd089020	-0.033340573
20	0xbafdccca	-0.00193634
21	0xbc9630b2	-0.018333767
22	0xbcdf783c	-0.027279012
23	0xbcfa2653	-0.030535853
24	0xbcbf3ee4	-0.023345418
25	0xbc13675e	-0.008996813
26	0xbb15a24d	-0.0022832335
27	0xbc1cd7f5	-0.009572973
28	0x3cd8daf5	0.026471594
29	0xbb7afe19	-0.0038298427
30	0xbc6c55e6	-0.014424777
31	0x3c441a85	0.011969213
32	0x3c47f4f3	0.012204397
33	0x3d7b448e	0.061344676
34	0x3c2c412a	0.010513583
35	0x3ca6ba6f	0.02035257
36	0xbb6dad7f	-0.0036266742
37	0xbba8390e	-0.0051337546
38	0x3bb9932c	0.005663296
39	0xbbe4454b	-0.006966268
40	0xbbd9a107	-0.0066415104
41	0x3cd39e33	0.025832271
42	0x3c252aa9	0.010080972
43	0xbcb6048f	-0.02221897
44	0xbcb313ee	-0.02186009
45	0x3c52649b	0.012841369
46	0x3c811b89	0.0157602
47	0xbceea5b9	-0.029131757
48	0x3c9afa3b	0.018918147
49	0xbcb70abe	-0.02234399
50	0x3d87dc56	0.066338226
51	0x3c7b38b8	0.015333347
52	0x3cc4e7e5	0.024036357
53	0x3c971bbe	0.018445846
54	0x3ce38384	0.027772672
55	0xbb95c67a	-0.0045707794
56	0x3ccb63f5	0.024827937
57	0x3ca6062d	0.020266617
58	0x3ce2ec9a	0.027700711
59	0x3ce8c384	0.028413542
60	0x3c23f5d8	0.010007344
61	0xbbf9f0af	-0.0076275687
62	0x3b5c75d5	0.003363957
63	0x3c6b0444	0.014344279
64	0x3c9e14b7	0.019296987
65	0xbcbc5384	-0.022989042
66	0x3cf894cc	0.03034439
67	0xbc061ef4	-0.008186091
68	0xbcd15cb6	-0.025556903
69	0x3c248244	0.010040823
70	0xbb40e884	-0.0029435465
71	0x3ccefdaf	0.02526745
72	0x3cfcb506	0.030848037
73	0x3bd8b3f2	0.006613248
74	0x3cc1a92d	0.02364024
75	0xbd7d3267	-0.061815646
76	0xbbcecb08	-0.0063108243
77	0x3aa7e10a	0.0012808156
78	0x3d4d7544	0.05016066
79	0x3cce00d7	0.025146885
80	0xbd9f33bc	-0.077735394
81	0xbc9f05dd	-0.019411976
82	0x3c2f45a3	0.010697755
83	0xbd1534e2	-0.036427386
84	0xbbe5324c	-0.0069945212
85	0x3ccaf9a2	0.024777237
86	0xbc587e11	-0.01321365
87	0xbbc4a54d	-0.0060011507
88	0x3d203d21	0.039120797
89	0x3cffe776	0.031238299
90	0x3ced4407	0.028963102
91	0xbd601e04	-0.054716125
92	0xbbb5c24d	-0.005546844
93	0xbcf3b8cf	-0.02975121
94	0xbc916110	-0.017746478
95	0x3cd226b4	0.02565322
96	0xbc76a8d1	-0.015054897
97	0x3c72afe6	0.014812445
98	0xbc1b2206	-0.009468561
99	0x3cdbe55a	0.026842762
100	0xbc9a23c9	-0.018815892
101	0xbbb9a778	-0.005665716
102	0x3ad48ace	0.0016215683
103	0xbb0edf8d	-0.0021800727
104	0x3d176f40	0.03697133
105	0xbc53ac23	-0.012919459
106	0xbc5d2561	-0.013497681
107	0xbca5ccd4	-0.020239271
108	0xbbca2776	-0.006169255
109	0x3bdd4ed8	0.0067537837
110	0xbcbd31a4	-0.02309496
111	0x3d0c5c0a	0.034267463
112	0xbcca7030	-0.024711698
113	0xbd2ce8c1	-0.04221416
114	0x3a81fa13	0.0009916447
115	0x3cd1e20b	0.025620481
116	0xbc9a285e	-0.018818077
117	0x3b95f655	0.004576484
118	0xbaf87ce4	-0.0018958119
119	0x3c326a56	0.01088961
120	0xbd2f08ea	-0.04273311
121	0xbc1198d0	-0.008886531
122	0xbcedeec3	-0.029044515
123	0x3c0224e2	0.007943364
124	0xba36dbff	-0.0006975531
125	0x3c108dc1	0.008822859
126	0xbd0b7461	-0.034046534
127	0xbbaeed67	-0.005338359
128	0x3b182864	0.0023217434
129	0x3c8a6b28	0.0168968
130	0x3c54f7b7	0.012998513
131	0xbcf8f873	-0.030391907
132	0x3a036f17	0.0005013807
133	0x3ccb533f	0.024819968
134	0xbd2880f2	-0.041138597
135	0xbb81bba6	-0.003959137
136	0xbd3dbfb9	-0.04632542
137	0xbcce812e	-0.025208082
138	0x3cc3e529	0.023912983
139	0xbc024ace	-0.007952405
140	0xbccad201	-0.02475834
141	0x3cc52e2b	0.024069866
142	0xbd104f39	-0.035231803
143	0x3c9b9bdd	0.01899522
144	0xbbb7e1c0	-0.0056116283
145	0xbcc4fb6e	-0.024045672
146	0x3b4ca1e4	0.0031224424
147	0xbcb2e433	-0.02183733
148	0xbc6ec2c7	-0.014572806
149	0xbc142033	-0.00904088
150	0xbcb7d6fd	-0.022441382
151	0xbccd52d0	-0.025063902
152	0xbbd15edd	-0.0063894824
153	0xbcad18eb	-0.021130046
154	0x3c5342c8	0.01289434
155	0x3b554e32	0.0032547829
156	0xba22266d	-0.00061855355
157	0x3c3cb4a2	0.011517676
158	0x3cb6f606	0.02233411
159	0x3ccee919	0.025257634
160	0x3cf4f5db	0.02990239
161	0xbb3c83d6	-0.0028765104
162	0xbce8e35f	-0.028428731
163	0xbb3e6fd6	-0.0029058359
164	0x3bcdb870	0.00627809
165	0x3ba4567d	0.005015193
166	0xbbdeb058	-0.006795924
167	0xbc68b4ee	-0.014203293
168	0xbcb9b821	-0.022670807
169	0x3c842bc4	0.01613415
170	0x3c9331f2	0.017968152
171	0x3c27d859	0.010244452
172	0xbc2d27d0	-0.010568574
173	0xbac4a85f	-0.0015003792
174	0x3cd7ef70	0.02635929
175	0x3ccf834f	0.025331168
176	0x3d6e84f5	0.058232266
177	0x3c712c7d	0.0147200795
178	0xbce1d68d	-0.027568126
179	0x3cc29883	0.023754364
180	0x3c31ba9c	0.010847714
181	0x3d25fa6f	0.040522035
182	0x3ccc918e	0.02497175
183	0x3cfe5c16	0.03104977
184	0x3badc72a	0.005303283
185	0xbbf547f2	-0.007485383
186	0xbd1a3fa0	-0.037658334
187	0xb98b0cfc	-0.0002652182
188	0x3c0a212d	0.008430761
189	0x3ca29d4c	0.019850396
190	0xbd50bd90	-0.05096203
191	0x3cbc8bfd	0.02301597
192	0x3c55a90b	0.013040791
193	0xbc8bacb3	-0.017050123
194	0xbc7153a5	-0.014729415
195	0xbb4f6bc9	-0.0031649938
196	0x392d0acf	0.00016502592
197	0xbbf3f727	-0.0074452343
198	0xbc35e951	-0.01110299
199	0x3cd37090	0.02581051
200	0xbb68558f	-0.0035451388
201	0xbc567cb6	-0.013091257
202	0xbc8661dc	-0.016404085
203	0x3cbe46fb	0.023227206
204	0xbaacc902	-0.0013182464
205	0x3d181875	0.0371327
206	0x3c3db412	0.011578577
207	0x3cb59c72	0.022169326
208	0xbc3df680	-0.011594415
209	0x3d127b19	0.035761926
210	0x3c8b22cc	0.016984366
211	0x3cbd6d84	0.02312351
212	0xbca5f331	-0.020257564
213	0xba682640	-0.00088557974
214	0xbbb74870	-0.005593352
215	0xbb5401d3	-0.003234972
216	0xbcfa7edd	-0.030578071
217	0xbc2a9268	-0.0104108825
218	0x3c4e5834	0.012594271
219	0xbc371aa0	-0.0111757815
220	0x3c89f0bc	0.016838424
221	0x3d058eec	0.032607004
222	0x3d17075b	0.03687225
223	0x3c038418	0.008027099
224	0x3d0a834c	0.03381662
225	0x3c365749	0.011129209
226	0x3b9ab573	0.0047213375
227	0x3becca81	0.007226289
228	0xbb619707	-0.0034422295
229	0xbd1c8858	-0.038215965
230	0x3d386eda	0.04502759
231	0x3b71068b	0.0036777582
232	0x3acb6ec2	0.0015520679
233	0xbc548171	-0.012970314
234	0x3c5732e4	0.013134692
235	0xbc708405	-0.014679913
236	0x3d20587a	0.039146878
237	0x3c51755e	0.01278433
238	0x3c8c7f76	0.017150622
239	0x3c62e892	0.013849394
240	0xbc1c615b	-0.009544696
241	0x3cfdfb27	0.031003548
242	0xbc6b6155	-0.0143664675
243	0xbc9b32d6	-0.018945139
244	0xbaa87e77	-0.0012855072
245	0xbb96b6a8	-0.004599411
246	0x3bffceea	0.0078066485
247	0x3c5f7a1d	0.013639954
248	0x3a8babd2	0.0010656065
249	0xbadc0c05	-0.001678825
250	0x3c57475d	0.013139573
251	0xbc8db97d	-0.017300362
252	0xbd1d3e0f	-0.03838926
253	0x3d0a76c8	0.033804685
254	0x3aee7b33	0.0018194675
255	0xba2f444d	-0.0006685898

cnn.0.cnn.bias f4 [16]
0	0x3cdd5aaf	0.02702078
1	0xbd0d0a8b	-0.034433883
2	0xbc89ecdc	-0.016836576
3	0x3d3587a2	0.044318803
4	0x3d1be0e6	0.038056277
5	0xbb2554b6	-0.0025227494
6	0xbc8e0542	-0.017336491
7	0x3c0c362c	0.008557837
8	0xbbaead64	-0.0053307284
9	0xbd2e2192	-0.042512484
10	0xbd0127c3	-0.03153206
11	0x3b809cab	0.0039249263
12	0xbcf6e97f	-0.030140636
13	0x3ba3e86d	0.0050020725
14	0x3bb93a9d	0.005652739
15	0x3d32135c	0.043475494

cnn.1.BachNorm.weight f4 [8]
0	0xb91a16ae	-0.00014695033
1	0x3d6e94bb	0.05824731
2	0x3d75a896	0.05997523
3	0x3d5a3abd	0.053278673
4	0xbd0b8153	-0.03405888
5	0x3d727b33	0.059199523
6	0x3d7cfeb0	0.061766326
7	0xbd7305e9	-0.05933181

cnn.1.BachNorm.bias f4 [8]
0	0xbc079dd9	-0.00827738
1	0xbca2040c	-0.01977732
2	0x3ad0338c	0.0015884503
3	0xbcce4bba	-0.025182594
4	0xbc94e4d6	-0.018175524
5	0xbc9068bd	-0.017628068
6	0xbce205a1	-0.027590575
7	0xbcc96d07	-0.024588121

cnn.1.BachNorm.running_mean f4 [8]
0	0x3d021f2c	0.03176801
1	0xbd4d5463	-0.050129306
2	0xbcabb7c6	-0.020961653
3	0xbd5b8056	-0.053589188
4	0x3d15fc83	0.036617767
5	0xbd5cef61	-0.053939227
6	0xbd469ad3	-0.048487496
7	0x3a13a491	0.0005632127

cnn.1.BachNorm.running_var f4 [8]
0	0x381e83f0	3.7793012e-05
1	0x390c5512	0.00013383132
2	0x390e5c84	0.0001357664
3	0x396aadb2	0.00022380686
4	0x3900563a	0.00012239153
5	0x3928c9c1	0.00016096888
6	0x398a246a	0.00026348542
7	0x395211aa	0.00020033741

cnn.1.cnn.weight f4 [16, 8, 5, 5]
0	0x3d067dbc	0.032834753
1	0x3b7df546	0.003875093
2	0xbbb94005	-0.0056533837
3	0xbb868171	-0.004104786
4	0x3c5238dd	0.01283094
5	0xbcc3dd22	-0.023909155
6	0xbbfde89f	-0.007748678
7	0x3c404f03	0.011737588
8	0xb9be0e64	-0.00036250346
9	0xbcd18e71	-0.025580617
10	0x3cb69602	0.022288326
11	0x3d359f4b	0.044341367
12	0xbc41abdc	-0.01182076
13	0xbc780319	-0.015137457
14	0x3bfa8499	0.0076452014
15	0xbc82be96	-0.01596002
16	0xbcb438f9	-0.021999823
17	0x3c73eb17	0.014887593
18	0x3ced918a	0.029000062
19	0x3ac072d7	0.0014682662
20	0xbd004637	-0.031316962
21	0x3c987a7e	0.018613096
22	0xbc982f78	-0.018577322
23	0xbccf4898	-0.02530317
24	0x3aa1c258	0.0012341244
25	0x3bb6dad7	0.005580287
26	0xbc840104	-0.016113766
27	0x3d801326	0.06253652
28	0xbcdb0383	-0.026735073
29	0x3ca029f6	0.019551259
30	0x3d817c1a	0.063224986
31	0xbb3f3315	-0.0029174734
32	0xbd120998	-0.03565368
33	0x3c534495	0.012894769
34	0xbc1bf2ab	-0.009518306
35	0x3c91adba	0.017783035
36	0x3a703558	0.0009163222
37	0xbc67f97f	-0.014158606
38	0xbc39d73d	-0.011342821
39	0xbcabee36	-0.020987611
40	0x3cbd2c91	0.02309254
41	0xbc861759	-0.016368555
42	0xbc0a9bde	-0.008460013
43	0x3c9d7338	0.01921998
44	0xbc54d936	-0.01299124
45	0x3b3eed48	0.002913313
46	0x3d498cd5	0.049206574
47	0xbcb5b8f2	-0.022182915
48	0x3d09ef2a	0.03367535
49	0x3bae67fb	0.005322454
50	0xbd6b3580	-0.05742407
51	0xbd1aee03	-0.037824642
52	0xbb5bc1f6	-0.0033532358
53	0xbbb2bddf	-0.0054547633
54	0x3ce4f164	0.027947135
55	0x3c18918e	0.009312047
56	0xbcb2e1b7	-0.021836145
57	0x3ac35aca	0.0014904377
58	0xbcdca976	-0.026936274
59	0x3b21b30a	0.0024673366
60	0xbd180a03	-0.037118923
61	0xbcece068	-0.028915599
62	0xbb8d72f4	-0.004316682
63	0xbcc44f0f	-0.02396348
64	0xbca31dd0	-0.019911677
65	0x3d4fab43	0.050700437
66	0xbc6e4938	-0.014543824
67	0x3cfa7b7d	0.030576462
68	0xbcd10e9a	-0.025519658
69	0xbccee39f	-0.025255023
70	0x3c846c8c	0.01616504
71	0x3d13a252	0.036043473
72	0xbcb02fbf	-0.021507142
73	0xbd14ef55	-0.036361057
74	0xbc37a31d	-0.011208323
75	0x3ca30bec	0.019903146
76	0xbba0de4c	-0.0049093124
77	0x3bb11253	0.0054037957
78	0x3c99b40f	0.018762616
79	0x3d4e8a8c	0.050425097
80	0x3c9109d0	0.017704874
81	0xb9bd0f97	-0.00036060504
82	0x3d36f40a	0.044666328
83	0x3c004b70	0.007830486
84	0x3cda88a9	0.026676493
85	0x3d5ed668	0.054403692
86	0xbcbe33df	-0.023218093
87	0xb9a5a2dc	-0.00031592592
88	0xbab1d222	-0.0013566653
89	0xbcca41ad	-0.02468952
90	0x3d5621c3	0.05227829
91	0xbc1a0207	-0.009399897
92	0x3c3173bb	0.010830815
93	0xbd0d18bf	-0.034447428
94	0x3d0c7781	0.034293655
95	0x3cc9d623	0.024638241
96	0x3cc159ae	0.023602333
97	0xbd36ae7b	-0.04459999
98	0x3cbd031a	0.023072768
99	0xbb57b1b9	-0.0032912327
100	0x3c243ead	0.010024709
101	0x3ad0cdcb	0.0015930472
102	0xbca44e10	-0.020056754
103	0xbcd1348f	-0.025537757
104	0xbd5240a2	-0.05133117
105	0xbcc81bcd	-0.024427319
106	0x3d23a43f	0.03995156
107	0xbbc1fed7	-0.005920272
108	0xbcefd4d8	-0.029276296
109	0xbc99923f	-0.018746493
110	0xbd70e8cf	-0.058815774
111	0xbafa8776	-0.0019113857
112	0x3d0a1e28	0.033720165
113	0x3c8f6315	0.0175033
114	0xbbe07032	-0.006849312
115	0x3af2d861	0.0018527621
116	0xbcfaed2e	-0.030630674
117	0x3bf5316e	0.007482699
118	0xbd26ce70	-0.040724218
119	0x3cc15a00	0.023602486
120	0x3c94b97d	0.018154854
121	0xbbb3daec	-0.005488744
122	0x3c257b13	0.010100144
123	0xbb95d3d5	-0.0045723715
124	0x3bd6a442	0.006550343
125	0xbbae3785	-0.005316677
126	0x3cbc141a	0.022958804
127	0x3c94dd68	0.018171981
128	0x3c9169ff	0.017750738
129	0xbabcd89b	-0.0014407815
130	0x3d76e3d0	0.060275853
131	0x3c320ccf	0.010867312
132	0xbb787a1f	-0.0037914587
133	0x3c004c3a	0.007830674
134	0x3d01e23f	0.031709906
135	0x3d5d4766	0.05402317
136	0xbcbd2275	-0.02308772
137	0x39f7d0ce	0.00047267083
138	0xbca32e87	-0.019919647
139	0xbcf12bb6	-0.029439788
140	0x3d4ee052	0.050506897
141	0x3ca049a7	0.01956637
142	0xbbb89c48	-0.0056338646
143	0x3b276999	0.002554512
144	0xbd0d6cef	-0.034527715
145	0x3d8a0289	0.06738765
146	0x3c329d77	0.0109018
147	0x3d0a71e7	0.033800032
148	0x3cd2e3ce	0.025743391
149	0x3c96c3cd	0.018403912
150	0x3d0c67ac	0.034278557
151	0xbd41d8d5	-0.047325928
152	0x3d573dc4	0.05254914
153	0xba7c40ce	-0.0009622694
154	0x3d2d67ed	0.04233544
155	0xbceda0ac	-0.029007278
156	0x3ca567b8	0.020191059
157	0xbcac8d8e	-0.021063592
158	0xbbdcc99b	-0.0067379004
159	0x3c7167ac	0.01473419
160	0x3dc3dea9	0.095639534
161	0xbd2a8d7b	-0.041638833
162	0xbc355e07	-0.011069781
163	0xbca3df68	-0.02000399
164	0xbac7e534	-0.0015250803
165	0xbd31faa3	-0.043451916
166	0x3c958602	0.018252376
167	0xbce23b84	-0.02761627
168	0x3cc8a5f1	0.02449319
169	0x3bd471d2	0.006483295
170	0xbb4b9dd9	-0.0031069426
171	0x3d63ea90	0.055643618
172	0xbd4eab70	-0.050456464
173	0x3d7f2ff6	0.0623016
174	0xbca18589	-0.019716995
175	0xbd2fd39e	-0.042926423
176	0x3b796f25	0.0038060632
177	0xbd5523ad	-0.052035976
178	0xba3ad655	-0.0007127275
179	0xbc10075c	-0.008790817
180	0xbd44ae3b	-0.04801772
181	0xbc9a8f30	-0.018867105
182	0xbd0ae98f	-0.033914145
183	0x3bd1fbca	0.0064081894
184	0x3c31cf78	0.010852687
185	0x3ad750ea	0.0016427313
186	0xbca811aa	-0.020516235
187	0x3c3ee617	0.011651537
188	0x3b88194f	0.0041534076
189	0x3c71a3cd	0.014748526
190	0xbcd4c590	-0.025973111
191	0x3b716af4	0.003683743
192	0x3c078a38	0.0082727
193	0xbcd6778d	-0.026180053
194	0x3b7e3d83	0.0038793988
195	0x3bf0e637	0.0073516625
196	0x3d4599a7	0.048242237
197	0x3a10d8d4	0.0005525474
198	0x3d1c4bf4	0.038158372
199	0x3d13d428	0.036091
200	0xbca2350c	-0.019800685
201	0x3bfaa2cd	0.007648802
202	0xbc27d8b6	-0.010244539
203	0x3ae52d72	0.0017484857
204	0xbbd60b7a	-0.00653213
205	0x3c31bf1d	0.010848788
206	0xbc33f6fb	-0.010984178
207	0xbce46834	-0.02788172
208	0xbc2f3fc0	-0.0106963515
209	0xbc4bacb0	-0.012431309
210	0x3cb395c6	0.021922003
211	0xbc97feb2	-0.018554065
212	0x3b992530	0.0046736225
213	0xbcdd55d8	-0.027018473
214	0x3ca41f57	0.020034475
215	0xbb301846	-0.0026869937
216	0x3c38919d	0.011265186
217	0xbc42d9bb	-0.011892731
218	0x3d28d5d4	0.041219547
219	0x3c30f781	0.010801197
220	0x3d0d80e3	0.034546744
221	0xbbf8bd83	-0.007590951
222	0x380cf4e9	3.360669e-05
223	0x3bc495d8	0.005999308
224	0x3bccb90e	0.006247646
225	0x3ce2693e	0.027638074
226	0x3b312e8c	0.00270358
227	0x3d6603d0	0.05615598
228	0x3a96a70f	0.0011493879
229	0x3c2a7d10	0.010405794
230	0xbc8fb3ea	-0.017541844
231	0xbbd0b6ed	-0.0063694627
232	0x3b86df17	0.00411595
233	0x3bc0bcb0	0.0058818683
234	0xbcaf260a	-0.021380443
235	0x3bf2928a	0.0074027227
236	0x3c0129b6	0.00788348
237	0xbbe23345	-0.0069030845
238	0x3c99ae46	0.018759858
239	0xbc8f12a1	-0.017464938
240	0xbc099566	-0.008397436
241	0x39952fa2	0.00028454984
242	0xbc1edcea	-0.009696225
243	0xbac51ae1	-0.0015037918
244	0x3c81a8b8	0.015827522
245	0xba1484de	-0.00056655507
246	0x3b7f49f8	0.0038954
247	0xba37b133	-0.0007007301
248	0xbbac593c	-0.005259661
249	0xbc880464	-0.016603656
250	0xbac5f993	-0.0015104286
251	0x3c9a8d79	0.018866288
252	0xbd50930e	-0.050921492
253	0xbc2763d4	-0.010216672
254	0xba8650dd	-0.0010247488
255	0xbc153f24	-0.009109292

cnn.1.cnn.bias f4 [8]
0	0x3d026305	0.031832714
1	0xbd588de7	-0.052869704
2	0xbcac644e	-0.021043923
3	0xbd6cc48f	-0.05780464
4	0x3d234831	0.03986377
5	0xbd6c3161	-0.05766428
6	0xbd53c3f5	-0.05170055
7	0x3b6485c8	0.003486978

cnn.2.cnn.weight f4 [8, 1, 5, 5]
0	0x3c3141fe	0.010818956
1	0x3c72b572	0.014813768
2	0xbd1b1c2d	-0.037868667
3	0x3bbc422e	0.005745194
4	0xbc77b532	-0.015118884
5	0xbc976035	-0.018478492
6	0x3cdb239e	0.026750382
7	0xbaae3f42	-0.0013293999
8	0x3c66daad	0.014090222
9	0xbd33d27f	-0.043901917
10	0x3d0cbaac	0.03435771
11	0xbca7f156	-0.02050082
12	0xbbe41af0	-0.006961219
13	0x3cbffefd	0.023437018
14	0xbc977c43	-0.01849187
15	0xbd1b8cca	-0.037976064
16	0xbb7958f5	-0.0038047407
17	0xbc2d5fc7	-0.010581917
18	0xbd25253b	-0.04031871
19	0x3bd12e97	0.006383728
20	0x3c1aed01	0.00945592
21	0xbbc1e542	-0.0059172222
22	0x3b39a957	0.0028329694
23	0x3b3bb5fa	0.0028642402
24	0x3b5f50fe	0.0034075375
25	0x3d207110	0.039170325
26	0x3d0c41cf	0.034242447
27	0x3ccd5e1b	0.025069287
28	0xbc192814	-0.009347934
29	0xbc10a570	-0.008828506
30	0x3c4329b7	0.011911801
31	0x3d0ddaa5	0.034632344
32	0x3ccf8d2d	0.025335873
33	0x3ce9f9ea	0.028561551
34	0x3c7c027a	0.01538145
35	0x3be78530	0.0070654377
36	0x3d36654c	0.044530198
37	0xbcbc393e	-0.022976514
38	0xbc43915c	-0.011936512
39	0x3c1fee9e	0.009761481
40	0x3d34fcac	0.04418628
41	0x3d4cce43	0.050001394
42	0xbc6ca8d3	-0.014444548
43	0xbcfc8f5b	-0.030830076
44	0xbce5fc00	-0.028074265
45	0x3c7780c4	0.015106384
46	0x3ca974d2	0.020685587
47	0xbc46499d	-0.012102512
48	0x3cc24155	0.023712793
49	0xbce22aa1	-0.027608218
50	0xbb6736fa	-0.0035280571
51	0x3bf62f39	0.0075129536
52	0x3cffb980	0.031216383
53	0x3d7c3940	0.061578035
54	0xbd2fd52e	-0.042927913
55	0xbbb1cd5b	-0.0054260916
56	0xbc61787f	-0.013761639
57	0xbcd32593	-0.025774753
58	0x3b1c5ed0	0.0023860224
59	0x3cc2689f	0.023731528
60	0xbbd90df5	-0.0066239783
61	0xbc855fe6	-0.01628108
62	0x3ce4cc78	0.02792953
63	0x3c9e9772	0.019359324
64	0x3d875cb4	0.066094786
65	0x3c30b3a3	0.010785016
66	0x3cebd3b0	0.028787464
67	0x3d3e21a0	0.046418786
68	0x3d03fd82	0.032224186
69	0x3ccdfe22	0.025145594
70	0x3bf7c989	0.0075618667
71	0xbc29650e	-0.010339035
72	0x3d9ee16b	0.07757839
73	0x3d98063b	0.07423063
74	0xbd1ad8c5	-0.037804384
75	0x3d98c08f	0.07458603
76	0x3d872b4d	0.06600056
77	0x3ce53227	0.027978016
78	0x3d4bb30a	0.04973129
79	0xbd3bda64	-0.04586257
80	0x3d5c8363	0.053836238
81	0x3d62137b	0.05519436
82	0x3d8ed4e7	0.06974202
83	0x3d576717	0.05258855
84	0x3acc8f06	0.0015606589
85	0x3cf021ed	0.029313052
86	0x3d11c7b3	0.03559084
87	0xbc75462d	-0.0149703445
88	0x3c22a9c1	0.009928168
89	0x3c344379	0.011002415
90	0xbc8e22be	-0.01735055
91	0xbb41fac3	-0.0029598929
92	0x3c6010f8	0.013675921
93	0x3cf5b1a5	0.029991934
94	0x3c9a8758	0.018863365
95	0xbc2054c4	-0.009785835
96	0x3c4ed466	0.012623882
97	0x3b8d5ec2	0.0043142745
98	0x3b5b7fa2	0.0033492823
99	0xbcd946fd	-0.026523108
100	0x3d2e2229	0.042513046
101	0x3c30fb58	0.0108021125
102	0xbc66d4da	-0.014088834
103	0x3ce8cc62	0.02841777
104	0x3c9259bb	0.017865052
105	0x3cccc4f7	0.024996264
106	0x3d99fc42	0.075188175
107	0xbd1dcd68	-0.03852597
108	0x3baea99a	0.0053302767
109	0x39a33e5c	0.00031136244
110	0xbba1217d	-0.004917322
111	0x3d376980	0.044778347
112	0x3c93540a	0.017984409
113	0x3ba68375	0.005081589
114	0xbd35f99f	-0.04442751
115	0x3d3fd159	0.04683051
116	0x3d704c21	0.058666352
117	0x3d07622e	0.033052616
118	0x3c8fffe7	0.017578078
119	0xbcf0f624	-0.029414244
120	0x3d77806e	0.060425214
121	0x39ce9c99	0.00039408056
122	0x3b46270a	0.0030235671
123	0xbb31878f	-0.0027088856
124	0xbcca85e5	-0.024722049
125	0x3d325fdb	0.043548446
126	0x3d932e7f	0.07186603
127	0x3c8229d8	0.015889093
128	0xbb8cb631	-0.00429418
129	0xbd0e8632	-0.034795947
130	0x3c668382	0.01406944
131	0x3d3035ce	0.043020062
132	0x3c77f21e	0.015133409
133	0xbbf7538e	-0.0075478023
134	0xbcf9b482	-0.03048158
135	0x3d013782	0.031547077
136	0x3d515821	0.051109437
137	0x3d582786	0.052772067
138	0xbc84c725	-0.01620824
139	0xbcb64b7b	-0.022252789
140	0x3cd4146b	0.025888642
141	0x3d195883	0.037437927
142	0xbbb2410f	-0.0054398845
143	0x3bc9270b	0.0061386875
144	0xbd05dd60	-0.032681823
145	0x3a205554	0.00061162305
146	0x3bd93ede	0.006629809
147	0xbc67be7a	-0.014144534
148	0xbb99203a	-0.004673031
149	0xbbe745a5	-0.007057863
150	0xbc9f3eeb	-0.019439181
151	0x3b2023ab	0.0024435322
152	0xbb542d64	-0.0032375688
153	0xbc413b56	-0.011793932
154	0x3c0bf69f	0.008542686
155	0x3b7b29c7	0.0038324462
156	0x3ce1937b	0.027536144
157	0x3ca929dd	0.020649845
158	0xbbf38a21	-0.0074322377
159	0x3c309a7d	0.01077902
160	0x3dbdd777	0.09269612
161	0x3d7b45de	0.061345927
162	0xb8766874	-5.874825e-05
163	0xbccbc039	-0.024871932
164	0x3d94f028	0.07272369
165	0x3d4b62a8	0.049654633
166	0x3d4eb1d5	0.050462563
167	0x3966f22a	0.00022024722
168	0xbd075045	-0.033035535
169	0x3d112b0a	0.035441436
170	0xbc34438f	-0.011002435
171	0xbd3099c0	-0.043115377
172	0xbcec9519	-0.028879689
173	0xbcec9f70	-0.02888462
174	0x3c3c76ba	0.011502916
175	0x3cb00372	0.021486018
176	0x3d276aac	0.040873215
177	0x3b16ca8c	0.002300891
178	0xbc7b46b9	-0.015336686
179	0x3cc74848	0.024326459
180	0x3cb65e52	0.022261772
181	0x3cfe1891	0.031017574
182	0x3ae3e8df	0.0017388127
183	0xbca43950	-0.02004686
184	0x3d5e0e27	0.054212715
185	0xbba9fb55	-0.005187432
186	0xbbcfaae3	-0.00633751
187	0x3ba7fa84	0.0051262993
188	0x3cd989bb	0.026554933
189	0x3d9f4a6e	0.07777868
190	0xbd41b25f	-0.04728925
191	0xbd0ed709	-0.034873042
192	0xbcbc9469	-0.023019986
193	0xbc3baaab	-0.011454265
194	0x3d0c9bba	0.0343282
195	0x3ca9ee3e	0.020743486
196	0x3cba8a65	0.02277107
197	0xbc783aaa	-0.015150705
198	0xbcd7afeb	-0.026329001
199	0x3c55e891	0.013055936
