saved_model/model.pth (torch, 144399 bytes, 44 tensors)

cnn.0.BachNorm.weight f4 [8]
000000 2e 20 6d 3f 63 96 80 3f bf 91 93 3f aa f0 6d 3f
       0.9262723 1.0045894 1.1528853 0.9294535
000010 a3 8f 80 3f ad dd 64 3f 8f 3f 89 3f d5 60 80 3f
       1.0043834 0.8940075 1.0722522 1.0029551

cnn.0.BachNorm.bias f4 [8]
000000 f3 67 0c 3e c1 65 36 3d db db e9 3c 12 a3 9c 3c
       0.13711528 0.044530634 0.028547218 0.019120727
000010 4c 4a 40 3d 92 9b c8 3c ea a8 f4 3b 27 64 e4 3c
       0.046945855 0.024488244 0.007466425 0.027879788

cnn.0.BachNorm.running_mean f4 [8]
000000 2f 50 bf 3c d9 06 11 be 45 20 93 be 2a df 82 bc
       0.023353664 -0.14162768 -0.28735557 -0.015975554
000010 15 b8 95 be 5f 81 a7 bd 13 f4 61 be 79 23 53 be
       -0.29242006 -0.081789725 -0.22065763 -0.20619

cnn.0.BachNorm.running_var f4 [8]
000000 cb 71 1e 3f 73 71 61 3e 91 3d 9b 3e 6a e9 9b 3e
       0.61892384 0.22015934 0.3032041 0.30451518
000010 e7 28 a2 3e 6c 0f bd 3e 2a 4c 9c 3e b0 fb 4b 3e
       0.3167183 0.36925828 0.3052686 0.1992023

cnn.0.cnn.weight f4 [8, 1, 3, 3]
000000 f6 ac c5 3d 8d 20 98 3e 18 f0 ef bd bc 4b c9 3e
       0.0965213 0.29712334 -0.11715716 0.39315593
000010 ad c1 7b 3e 48 c6 07 3d 2f 1b 10 be 49 0d 33 3e
       0.245856 0.03314808 -0.1407287 0.17485537
000020 b7 ef 0e be 9e 0f 01 3e 2e a8 14 3d 83 56 96 3d
       -0.13958631 0.12603614 0.0362932 0.073407196
000030 87 ce 88 3e ac 4b 0f bc 9a 67 f0 3d af 39 41 be
       0.26720068 -0.008746069 0.117385104 -0.18869661
000040 cf 30 90 bd 68 62 6e 3e c8 43 aa bc 98 d6 a6 3e
       -0.070405595 0.23279727 -0.020784274 0.32585597
000050 28 b5 3c 3e c1 ab 40 3d 99 a2 10 be 5b 27 1a 3e
       0.1842848 0.047038797 -0.14124526 0.15054075
000060 9a c3 84 be 40 76 4d be 48 6f b9 be c9 df 9c be
       -0.25930482 -0.2006464 -0.36217713 -0.30639485
000070 92 68 52 be e1 71 8a 3e 7f ba 84 3d fe 4a 8c 3e
       -0.20547703 0.27040008 0.06480884 0.27400964
000080 0e d8 1d 3d a6 f5 5e 3e 71 c2 fc 3c b7 5b e2 3d
       0.038536124 0.21773395 0.030854436 0.110526495
000090 6d 42 6e bd de e0 cb bd b1 7d 74 3e b7 a3 db be
       -0.058168817 -0.099549994 0.23876072 -0.42898342
0000a0 67 35 da 3d 16 36 4c 3e 52 98 70 be e3 11 a6 3e
       0.10654717 0.19942507 -0.23495606 0.3243552
0000b0 72 04 be 3d 83 27 91 3e 14 1e 1b bd e4 a0 24 be
       0.092781916 0.28350458 -0.03787048 -0.16077
0000c0 14 5c 15 3e 34 ce f8 3c 8a 40 26 3e 59 e8 17 3e
       0.14585906 0.030371763 0.16235557 0.14834727
0000d0 c7 a6 b4 3e 2a 3c 94 be c5 b6 88 be b5 fd 35 be
       0.3528349 -0.28952152 -0.26701942 -0.17772563
0000e0 72 7f 83 be 38 bb 3b be aa 18 c9 3d b6 70 6f bd
       -0.2568317 -0.18333137 0.098191574 -0.0584571
0000f0 58 10 8e 3e 37 9b 0b 3e f7 7f 5a 3e a0 d6 21 3d
       0.27746844 0.13633429 0.21337877 0.039511323
000100 1b e5 7b be d8 08 92 be c3 c5 1e 3e 47 75 47 3e
       -0.24599116 -0.28522372 0.15505128 0.19478332
000110 cd 84 58 be 23 d9 92 3d ff a9 4c 3e d7 8a 67 3e
       -0.2114441 0.07170322 0.19986723 0.22611557

cnn.0.cnn.bias f4 [8]
000000 7c b0 cc 3c a0 d2 0e be 06 0e 93 be 41 fd 6d bc
       0.024986498 -0.13947535 -0.28721637 -0.0145257125
000010 81 ee 95 be 42 20 a6 bd 0b 1e 61 be 6e 0a 53 be
       -0.29283527 -0.081116214 -0.21984117 -0.20609447

cnn.1.BachNorm.weight f4 [16]
000000 4d 3a 86 3f 74 ba 73 3f 4b 70 84 3f 91 38 76 3f
       1.0486542 0.9520638 1.0346769 0.96180063
000010 ef 27 78 3f db 05 84 3f 90 28 85 3f 59 19 7d 3f
       0.96935934 1.0314287 1.0403004 0.988668
000020 c2 3b 6d 3f ab 59 79 3f 9b 77 8f 3f f0 74 87 3f
       0.9266931 0.9740245 1.1208376 1.0582561
000030 4e 32 80 3f 83 4e 77 3f 6b 14 80 3f b6 a6 72 3f
       1.0015352 0.96604174 1.0006231 0.9478563

cnn.1.BachNorm.bias f4 [16]
000000 6a c8 a2 3d 12 0b 62 3d e5 8e 1a bd 10 8d c1 bc
       0.07948382 0.05518634 -0.03773393 -0.023626834
000010 64 23 7d bd fd 23 29 bd 17 fd b5 3c 38 04 38 bc
       -0.06180133 -0.041294087 0.02221541 -0.011231475
000020 18 59 da 3c c2 9d 81 3c 18 88 25 3d 6d a9 46 bd
       0.026653811 0.015822295 0.040412992 -0.04850142
000030 0f d0 8f bd a0 dc 53 3d 14 18 95 bc bc 32 9f bd
       -0.07022106 0.051724076 -0.018199958 -0.07773349

cnn.1.BachNorm.running_mean f4 [16]
000000 b6 7c d5 3c 41 07 56 bd 5a 2e e1 3e 6d 5e 1f be
       0.026060443 -0.05225301 0.43980676 -0.15563364
000010 c5 9d a6 3c c1 8f 59 3e 01 b1 c2 be ed 17 43 3e
       0.020338902 0.21246244 -0.38025668 0.19052096
000020 53 6b 1d 3e 70 e2 84 bc ed c2 75 bd 88 47 13 3d
       0.15372972 -0.016221255 -0.06000035 0.03595689
000030 dd a4 9a be 5d 7e 0d 3f 27 a8 4d 3d ee 26 aa bd
       -0.30203906 0.5527094 0.05020919 -0.083082065

cnn.1.BachNorm.running_var f4 [16]
000000 96 40 a2 3f 3a 7f 90 3e 8d 06 60 3f 93 15 07 3f
       1.267596 0.28222066 0.87509996 0.52767295
000010 b4 b1 d2 3e 2d 3c 0d 3f f9 18 32 3f 0a 0f e8 3e
       0.41151202 0.55169946 0.69569355 0.45323974
000020 af 20 0a 3f 1b c8 e4 3e 47 ed f4 3e 32 f9 cb 3e
       0.5395612 0.44683918 0.47837278 0.39838558
000030 09 54 ad 3e d9 3b 85 3f ac ac ea 3e 30 e1 1a 3f
       0.33853176 1.0408889 0.45834863 0.6049986

cnn.1.cnn.weight f4 [16, 8, 3, 3]
000000 0a 58 7b 3c d7 a4 c9 bd c1 e9 4b bd a9 10 0f 3d
       0.015340814 -0.09845894 -0.049783472 0.034927998
000010 a7 58 19 3d b2 b2 93 bd 9d 9e 94 3d c1 de 59 3c
       0.03743806 -0.07211818 0.072568156 0.013297738
000020 f4 77 ef bd ab 77 4f 3d 35 cc 99 39 bd 19 e0 bd
       -0.11692801 0.050651234 0.0002933458 -0.10942409
000030 18 6a e2 3d 9a 0b 81 3d 3d e4 6f bd 56 0a 0d 3e
       0.11055392 0.06301041 -0.058567274 0.13773474
000040 ea 6e 6b 3b 2e 1e dc bc 69 35 b1 3d 7d bd 21 3e
       0.0035924264 -0.02686986 0.08652765 0.1579494
000050 46 55 e0 3b 0c 29 76 3d b7 3a 01 3e 0b 54 b9 3c
       0.006846103 0.06009774 0.12620054 0.022623083
000060 8b bf 74 3d 7d cf f3 bd ba 0d 53 be 12 63 5e bc
       0.059752982 -0.119048096 -0.20610705 -0.013573425
000070 d2 93 27 bd 5c b2 6f bc 59 2d 16 3a 21 1a 1a 3d
       -0.040912457 -0.0146299265 0.0005728803 0.037622575
000080 c0 f6 aa bd dc 5c 72 3d 18 cf cb bc 9a 5c 25 bd
       -0.08347845 0.05917059 -0.024879023 -0.040371515
000090 51 1e e4 bc df 1d 48 3c d6 16 de bd 3c a6 57 3d
       -0.027846487 0.012214153 -0.10844199 0.052648768
0000a0 aa f5 cb bc 40 db bc bd 1d c7 17 bd 40 f7 a8 3c
       -0.024897415 -0.09221506 -0.037055124 0.02062571
0000b0 06 c9 7d be b8 0b 3d 3d 1d c7 3a 3d 0d c7 f0 bc
       -0.24783716 0.046153754 0.045600045 -0.02939179
0000c0 1c 25 93 bd fb e8 d4 3b 5d 46 ce 3c 8a 76 aa 3d
       -0.071848124 0.0064975 0.025180036 0.08323391
0000d0 45 95 b4 3a a1 39 48 bd 03 28 b7 3d 16 97 c5 3d
       0.0013777396 -0.048883084 0.089431785 0.09647958
0000e0 e5 ff cb bb 71 0b b1 3d a3 96 0d 3d 13 f7 40 bd
       -0.0062255734 0.086447604 0.034567486 -0.04711063
0000f0 91 98 c2 3d 2c f7 c0 bd 3f ce d2 bd 3f 5c 6b 3d
       0.09501756 -0.09422144 -0.102932446 0.05746102
000100 3f 02 53 3d 19 c7 81 3b ac 29 ac 3d a2 d4 5c bc
       0.051515814 0.003960502 0.08406386 -0.01347843
000110 55 41 58 bd 59 87 96 3d 39 c8 81 3d 74 55 bb bd
       -0.05279668 0.07350034 0.063370176 -0.09147158
000120 54 f3 fe bd 51 98 32 3b 65 3d d1 3d b7 3e df bd
       -0.12448755 0.0027251432 0.10216788 -0.10900634
000130 83 2b cb 3c c2 43 78 3d 6c 39 34 3a 47 0b 77 3d
       0.024801021 0.060611494 0.00068750116 0.06031349
000140 2c 86 1f 3b ef d4 bb 3d 77 a6 bc 3c 06 0d ab bc
       0.0024341447 0.09171473 0.023028595 -0.020880233
000150 ab 8c 02 bc c7 cc a5 bd 37 33 db bd f9 af 58 3d
       -0.007968108 -0.08095699 -0.10703128 0.052902196
000160 60 02 20 bd 04 16 73 bc 8a ea f7 3d 31 3b 09 bd
       -0.039064765 -0.014836792 0.12105282 -0.033503715
000170 4d 4b a0 3c e5 53 08 bd 00 9d 66 3d 12 75 b0 bd
       0.019567156 -0.033283133 0.05630207 -0.086160794
000180 23 e4 32 bd 5f 7b aa 3c a7 7c 33 3d d8 b8 8f bd
       -0.0436746 0.020810781 0.04382005 -0.07017678
000190 a7 e9 fb bc 2a 4a 1c 3d 66 ea 84 3d 73 d6 a1 bb
       -0.030751063 0.038156666 0.064900205 -0.0049388944
0001a0 e0 fb 18 be cd ae c9 3d e4 57 c0 bc 90 86 0f be
       -0.14939833 0.09847794 -0.02347941 -0.14016175
0001b0 ad 78 b3 bc 95 30 34 3d a4 ad 6d 3d 06 3a 26 3d
       -0.021908129 0.043991644 0.058026925 0.04058268
0001c0 1c 8a 9a 3d fd a2 2b bd 38 02 bc 3d 71 ed 0e 3e
       0.075458735 -0.041903485 0.09180111 0.13957764
0001d0 f7 21 40 bd 44 2b 41 3d 2e 0f 3e 3d 35 8b 10 3e
       -0.04690739 0.047160402 0.046401195 0.14115603
0001e0 43 42 8b bd 4b 78 1f 3e 72 53 de 3d 0e b6 3c 3d
       -0.06799748 0.15573232 0.1085576 0.04607206
0001f0 ac a3 2b 3c c9 23 cb 3d 64 57 d8 3c 4a eb 9c bd
       0.010476034 0.09918935 0.026408859 -0.07662065
000200 fa 75 b3 bd 73 a9 b6 bd 5a 00 af bd bd 1e 24 bd
       -0.087627366 -0.089190386 -0.08544989 -0.040068377
000210 dd 03 51 bd a5 d4 53 bd 85 ea b5 bc d0 38 33 bc
       -0.051029075 -0.051716466 -0.022206554 -0.010938838
000220 60 1e 47 bc 9f b0 fc bd b6 c1 02 be 06 a6 1d be
       -0.012153238 -0.12338375 -0.12769207 -0.15395364
000230 7d dc c3 bb 91 c6 07 be 99 00 fb bd 93 92 04 3b
       -0.005977212 -0.13259341 -0.12255973 0.0020228967
000240 37 55 94 3c 3a 4f 74 bd 14 dd f1 bb fa ec af bd
       0.01810704 -0.05964587 -0.007381091 -0.085901216
000250 c2 ee 41 3d 3b 0c 92 bd 12 9a 12 bc 30 43 26 bd
       0.047346838 -0.07131239 -0.008947866 -0.04059142
000260 db 47 b1 3c 56 d5 9d 3d a8 d4 38 ba 22 9a a0 3b
       0.021640709 0.07706706 -0.0007050731 0.0049011866
000270 71 8b 22 3d 65 0a a7 3b 90 6a 26 3c fd a9 05 3e
       0.039683763 0.0050976747 0.010157242 0.13053127
000280 b1 45 69 3e 28 bb 92 3d a1 d7 2b bd 45 77 e8 bd
       0.22780491 0.071646035 -0.041953687 -0.11350874
000290 57 f8 cd 3d 27 02 68 bd 86 21 62 3b 00 dc 02 be
       0.10057133 -0.056642678 0.0034504845 -0.12779236
0002a0 26 ff 00 3e 50 79 8e 3d c4 a7 23 bd ab bd 0b 3d
       0.12597331 0.06956732 -0.039954916 0.03411643
0002b0 98 f1 0f bd df b6 9a bd 99 1c 51 3d 76 09 25 bc
       -0.03514251 -0.07554411 0.051052663 -0.010073056
0002c0 e8 7d d2 bd d5 bc 3b 3d 6b df fa 3c 38 ff 02 3d
       -0.10277921 0.04583438 0.030624112 0.031981677
0002d0 0f 59 91 bc 3f 75 81 3d b4 79 a3 3d 85 e9 07 bd
       -0.017742662 0.06321191 0.079821974 -0.033181686
0002e0 1b b5 a4 bd 95 34 e2 bc 29 d4 bc bd da b9 91 3b
       -0.080423556 -0.027612964 -0.09220154 0.004447204
0002f0 66 a9 44 3d ef 03 bf bd 0c 42 93 bd c0 b5 8c bc
       0.048013113 -0.09326922 -0.07190332 -0.017176509
000300 4b a9 6e 3d 25 2c 1a 3d 6b dc 08 3d 14 79 62 bc
       0.05826692 0.037639756 0.033413332 -0.013822813
000310 6f c7 a3 bd 57 6d c1 3d 50 9e 97 3d 63 90 25 bd
       -0.07997023 0.09444683 0.074032426 -0.0404209
000320 e0 c8 b9 bd a5 33 f8 3d c7 b0 ce 3d 6c 79 3a bc
       -0.09071517 0.121192254 0.10092311 -0.011381488
000330 95 d1 a1 3d a6 61 97 3d b2 0a ca bc 02 ff 17 3c
       0.07901303 0.07391672 -0.024663303 0.009277107
000340 9c 75 99 3b 2c f8 e1 3c 31 69 ac 3c f8 3d 27 3e
       0.0046832096 0.027584158 0.021046253 0.16332233
000350 69 e1 f2 3d c4 1f 8e 3d 40 ee 34 3e b7 52 36 3e
       0.118594 0.069396526 0.1766901 0.1780499
000360 13 27 8a bd d8 d0 21 be 5c 58 33 bd 62 dc 2b 3d
       -0.06745734 -0.15802324 -0.043785438 0.04195822
000370 6e f7 b9 3d 59 70 f3 3c 3a 38 ac bd f1 59 b2 3d
       0.090803966 0.029716657 -0.08409162 0.08708561
000380 3d 2f 9f 3c 86 77 31 3d de b4 c7 bd b5 8a 77 bd
       0.019431705 0.043326877 -0.097512946 -0.060435016
000390 31 9a e3 3c e6 5f 14 bd 42 75 85 3d c2 55 8d 3c
       0.027783485 -0.03622427 0.06516506 0.017252807
0003a0 13 8c b4 3b f7 8e 27 bd c1 e9 40 bc 84 48 45 bd
       0.005509862 -0.040907826 -0.011774481 -0.04816486
0003b0 8c dc 87 bc 76 cb 4a bd 81 4f 8b bd ba ed c1 3d
       -0.016584657 -0.04951044 -0.068022735 0.09469171
0003c0 e7 4c 25 bd c0 27 c1 3a 1a b9 03 3e 98 32 18 be
       -0.040356543 0.0014736578 0.1286358 -0.1486305
0003d0 33 b0 1f bd 95 f0 33 3d 42 f2 4a bd 68 3b d0 bc
       -0.038986396 0.04393061 -0.04954744 -0.025418952
0003e0 4f 3c b1 bd d8 d9 ee 3b 67 34 05 be ef fa 8b 3d
       -0.08654081 0.0072891526 -0.13008271 0.06834971
0003f0 c6 5a 45 be 1e 2f bf bd c1 d0 07 be f7 4e a4 3a
       -0.19272909 -0.09335159 -0.13263227 0.001253574

cnn.1.cnn.bias f4 [16]
000000 e9 fd 8d 3d c6 a1 30 3d 4d 94 08 bd 7f 3c 56 bd
       0.06933195 0.04312303 -0.033344556 -0.052303787
000010 61 49 58 3d 21 96 5e 3d 68 fd c3 bd da 69 f7 bd
       0.052804355 0.054342393 -0.09569818 -0.120807365
000020 e0 77 b3 3d a7 a2 0d 3d 3b 03 a9 3d 49 7b e3 3d
       0.08763099 0.034578945 0.08252569 0.11107499
000030 f0 73 6a ba 4b 1d f2 bc 44 f2 c4 3d 3f 6b 83 3d
       -0.00089436676 -0.029554984 0.09616521 0.0641694

cnn.2.BachNorm.weight f4 [32]
000000 ab 4c 7e 3f 3a 8b 7d 3f e2 40 80 3f 37 ca 84 3f
       0.99335736 0.9904057 1.0019801 1.0374211
000010 66 4f 80 3f e1 d0 7d 3f 66 5e 79 3f 82 f4 76 3f
       1.002423 0.9914685 0.97409666 0.9646684
000020 09 cd 7b 3f 0c a8 81 3f f5 61 83 3f 89 23 86 3f
       0.98359734 1.0129409 1.0264269 1.0479594
000030 1a 89 75 3f 17 ef 84 3f 01 01 78 3f 1f 50 8b 3f
       0.95912325 1.0385464 0.9687653 1.0883826
000040 b5 80 77 3f 00 23 86 3f 76 4e 79 3f 3d e4 80 3f
       0.96680766 1.0479431 0.97385347 1.0069653
000050 09 0e 6f 3f 4a 3a 76 3f a2 50 74 3f 65 38 80 3f
       0.9338079 0.9618269 0.95435536 1.001721
000060 23 d7 79 3f 66 7d 82 3f bc 5c 72 3f ee 1d 73 3f
       0.975939 1.0194519 0.9467275 0.94967544
000070 5b 5c 81 3f 52 9c 83 3f 6b 3d 74 3f 18 02 6d 3f
       1.010631 1.028208 0.95406216 0.9258132

cnn.2.BachNorm.bias f4 [32]
000000 82 df 09 bd a9 95 eb bc 90 46 31 bd b4 b1 07 bc
       -0.03366042 -0.028757887 -0.043280184 -0.008282114
000010 bc 77 db bc 6d 7a 0a bd f3 9c 0c bd 52 6a 9f bd
       -0.026790492 -0.03380816 -0.034329366 -0.07783951
000020 99 c7 aa bd db 3f 03 bd 34 a9 5a bd 31 1f b6 bc
       -0.083388515 -0.03204332 -0.05338402 -0.02223167
000030 7b 16 f6 bc ee 40 9e 3c 63 65 6a bd 23 a4 f2 bc
       -0.030040016 0.01931807 -0.057225596 -0.029619282
000040 5a 65 a5 bd 93 4a 08 bd 71 d0 6a bc ba 13 a6 bd
       -0.08075972 -0.033274245 -0.014331923 -0.08109231
000050 92 bb 86 bd 87 87 85 bd 9d 38 6a bd 8e 64 3d bc
       -0.06578745 -0.065199904 -0.057182897 -0.011559619
000060 3c df 0b bd 8b bd db 3a 52 c8 a7 bd 52 c7 63 bd
       -0.03414844 0.0016764862 -0.08192505 -0.05561001
000070 e0 4b 46 bd 1a 63 c7 bc 67 7d 90 bd 46 3c fb bd
       -0.048412204 -0.024339247 -0.070551686 -0.122673556

cnn.2.BachNorm.running_mean f4 [32]
000000 cf 1a 6f be 00 85 59 3d d2 c0 93 3d e4 dd bf bc
       -0.2335007 0.053105354 0.07214512 -0.023421235
000010 14 54 d9 3e da b0 bb be 61 c6 9b be 48 f1 7f be
       0.4244696 -0.36658365 -0.3042479 -0.24994385
000020 94 7b ba 3c 84 fc c7 bd fc 87 17 be 21 3d 42 3e
       0.022764005 -0.097649604 -0.14797968 0.18968631
000030 15 e4 bb 3c ae b4 3b 3e f0 5f 81 3d da 89 2d bd
       0.022935906 0.18330643 0.06317127 -0.042367794
000040 eb 0b 0e be b7 4e ca 3c 7a d0 f9 bd d9 ef 98 bd
       -0.13871734 0.024695737 -0.12197967 -0.07467622
000050 81 26 e9 be 2d ab 4e 3d 4a 69 92 be c2 71 58 be
       -0.4553719 0.050456215 -0.28595954 -0.21137145
000060 0b c7 5b be f2 91 8c bc b2 99 88 3c a6 bf 3f bf
       -0.21462648 -0.017159436 0.01667485 -0.7490181
000070 b2 29 ea bd 2f 2a 9b bc f0 59 62 be 72 d1 52 3d
       -0.11433734 -0.018941013 -0.22104621 0.051469274

cnn.2.BachNorm.running_var f4 [32]
000000 63 16 f9 3d dd e4 3d 3e 71 62 f2 3d ef 96 1e 3e
       0.12162473 0.18544336 0.118351825 0.15487264
000010 94 ec 7c 3e 8f 65 96 3e ad 9c 6b 3e 3e 72 1e 3e
       0.24699622 0.29374358 0.23008986 0.15473267
000020 56 dd c8 3d 7e c8 27 3e 60 b3 98 3d c7 cd 2f 3e
       0.098078415 0.16385075 0.07456088 0.17168342
000030 dd 0b 16 3f fa cd 21 3e df 25 51 3e 5d 1b e2 3d
       0.5861185 0.1580123 0.20424603 0.110403754
000040 d4 2b 46 3e c7 2c 9a 3d 84 20 ab 3d b1 d9 a0 3d
       0.19352657 0.07528072 0.08355811 0.07854021
000050 2a 22 8d 3e 81 61 18 3e 6e 1c 0d 3f f9 91 8a 3e
       0.27565128 0.14880945 0.55121505 0.27064493
000060 15 44 90 3d 90 ce 3e 3e e4 66 31 3e d4 17 9f 3f
       0.070442356 0.18633485 0.17324406 1.2429147
000070 61 49 db 3d d7 19 24 3e e4 e6 91 3e 95 54 fd 3d
       0.10707355 0.16025482 0.28496468 0.12369648

cnn.2.cnn.weight f4 [32, 16, 3, 3]
000000 9a d6 51 bd 1e c5 90 3d df 72 8f bd b8 74 33 3c
       -0.05123005 0.07068847 -0.07004332 0.010953121
000010 aa 95 a4 bd 2d 2b 5d bd 67 77 f8 3d e8 97 20 bc
       -0.08036359 -0.053996254 0.12132149 -0.009801842
000020 fa 9b e9 bd 60 f4 ed 3b 5b f9 af 3a 05 b4 58 bd
       -0.11406703 0.007261798 0.0013425754 -0.052906055
000030 b9 b1 71 bd 77 45 1a bd 11 69 c6 3d b5 47 d0 3d
       -0.05900738 -0.037663903 0.096880086 0.10169927
000040 e0 29 b9 3d fc 1a a4 3c ea 77 01 3d de 47 0f bd
       0.0904119 0.020032398 0.0316085 -0.034980647
000050 07 20 e8 bc be 93 cb 3c b5 1c 6b bc 49 2a 92 3c
       -0.028335584 0.024850722 -0.014350106 0.017842429
000060 2c 41 88 bb f9 ba 72 bd 8e d4 98 bd e6 e1 d3 3b
       -0.0041581597 -0.059260342 -0.074624166 0.006466138
000070 9b 90 40 3d 27 9e 48 bd cf a7 9a bd 81 17 93 3d
       0.047012907 -0.04897895 -0.07551538 0.071822174
000080 b9 68 be bd 0c f8 28 3d 86 6c 7d 3d 85 e9 4d 3d
       -0.09297318 0.04125218 0.061871074 0.05027153
000090 37 49 7a bc f4 50 6d 3b 69 d1 a0 3d 7f eb 53 bc
       -0.015276245 0.0036211582 0.07852442 -0.012934565
0000a0 97 b3 5c 3d 5a ff 0f 3d ac db 68 bc 66 5d 68 bd
       0.053882208 0.03515563 -0.01421253 -0.056729697
0000b0 74 a1 5b 3d 63 29 77 3d be d4 01 bd cc 29 49 3d
       0.05362077 0.060342204 -0.031697027 0.049112126
0000c0 d5 16 21 bd 8e 52 90 bc 2c 4f 1b 3d af 81 93 3d
       -0.039328415 -0.01761749 0.0379173 0.072024696
0000d0 9d 16 cf 3c a8 e1 d4 3d 38 73 d1 bc f9 c9 ff 3a
       0.025279338 0.10394603 -0.025567636 0.0019515149
0000e0 3d 77 9d bb 57 80 19 3d ed 84 cd 3d 3f 2d 2b 3d
       -0.004805474 0.03747591 0.10035119 0.041791197
0000f0 ed c3 94 bc c7 ad 3e 3d 45 5c 3a bd ba 7b 16 bd
       -0.018159831 0.046552446 -0.04549815 -0.03673909
000100 96 7f a0 3a fd 4c 2c bd 3d bb b3 bb f0 08 06 3d
       0.0012245055 -0.04206561 -0.005484967 0.032723367
000110 71 c8 34 bd c4 eb e4 3c d6 37 29 bd d9 10 47 bd
       -0.04413647 0.027944453 -0.041313015 -0.04860005
000120 56 31 be 3d d2 fb ac bc 8b 93 99 3c 3a 81 65 bd
       0.09286754 -0.021116171 0.018747112 -0.056031443
000130 a5 82 98 bd d5 dc ec bc 12 bd 11 bd 9d 3a 51 3d
       -0.074467935 -0.028913895 -0.035580702 0.05108129
000140 bb 5d 09 bd 64 3e eb 3c 0e 4f 10 3b eb f4 86 bd
       -0.033536654 0.028716274 0.0022019777 -0.06589683
000150 7f c2 5d bc a3 32 b4 bd 49 1a 28 bd 25 78 b1 3d
       -0.013535141 -0.08798721 -0.041040692 0.08665494
000160 73 93 51 3c ad 55 80 bc a6 d9 6c 3b 50 c5 25 bb
       0.012791502 -0.015665853 0.003614047 -0.002529461
000170 ba d4 02 3d 9e d2 a3 bc 29 b2 8d bd c1 48 6f bd
       0.031941153 -0.019997891 -0.06918747 -0.058418993
000180 4a d2 e1 3d 8b 43 c8 3d a5 0f ed bd 60 00 bb bd
       0.110264376 0.09778508 -0.115752496 -0.09130931
000190 5c c2 b5 bd 05 bd 4d bc a1 c3 36 3d c8 af bb bd
       -0.08874962 -0.012557273 0.04462016 -0.09164387
0001a0 40 3c 32 bd a0 79 9b 3c ba 70 23 bc b9 52 81 bd
       -0.04351449 0.018978894 -0.009975607 -0.06314606
0001b0 ef 6d 79 3c 0c 83 81 bd 46 f4 bc 3d 86 10 8b bc
       0.015223964 -0.06323823 0.09226279 -0.016975652
0001c0 f6 4f 64 bd bd 6e 35 3c 8c 83 0d bd be d8 bb 3d
       -0.05574032 0.011073765 -0.03454928 0.091722
0001d0 ca f6 c3 3d e3 3d 04 bc 18 49 0d 3c 7a 7f 55 3b
       0.09568556 -0.008071396 0.008623384 0.0032577203
0001e0 a3 3e 36 bb 12 bf cb 3b ec 2b 94 bb 91 e3 6d 3d
       -0.002780833 0.0062178457 -0.0045218375 0.058078352
0001f0 19 4b 94 3d 1c c2 0e bd de 28 05 3d 36 df 13 bc
       0.07240886 -0.034853086 0.032509677 -0.009025386
000200 a4 76 2f 3c dd 6b 1a bc e9 ea 2d bd 04 25 82 bd
       0.0107094385 -0.009425131 -0.042460356 -0.063547164
000210 47 d4 53 bc 96 96 e7 bc de 1a a5 bb 83 1d a0 bd
       -0.012929029 -0.028270047 -0.005038603 -0.07818129
000220 fd 3f 98 3d 01 eb 15 3d 59 d5 d1 39 42 c5 80 3d
       0.0743408 0.03660107 0.00040022543 0.06287624
000230 3b bc 19 3d 31 d8 65 bd 46 44 12 3d 13 43 e5 3d
       0.037533026 -0.05611438 0.035709642 0.11194434
000240 80 cf 2c 3d 15 1e a0 bc 99 05 a4 3d d7 cb 12 3c
       0.042190075 -0.019545594 0.0800888 0.008959732
000250 c7 6e 4a 3d 51 c1 7f bc 09 43 13 bd f6 99 c8 3c
       0.04942205 -0.015610055 -0.0359526 0.024487477
000260 8f 10 3d bd 46 fa ee 3c dd a7 52 bd 8c 90 28 3d
       -0.04615837 0.029172074 -0.05142962 0.041153476
000270 7e 99 91 3d b7 8d da bd 2d 9d 4c 3d 81 7f 39 3d
       0.071093544 -0.10671561 0.049954582 0.045287613
000280 14 c8 f9 bc 9a ce a2 3c e7 71 95 3c 5f 84 fd 3c
       -0.030490912 0.019873906 0.01824279 0.030946909
000290 27 a2 27 3d bf ba 45 bd 36 f4 d7 3d 9b e7 36 bc
       0.040926125 -0.048273798 0.105446264 -0.0111636175
0002a0 ff b2 42 3d 32 64 4e 3c 94 41 f3 bb a0 2f 90 bb
       0.047533985 0.012597131 -0.007423589 -0.0044002086
0002b0 ec fe 32 bd 3d 28 c4 bd 4e 1a 28 3d df 9c 7a bc
       -0.043700144 -0.09577987 0.04104071 -0.01529619
0002c0 d0 c3 0e 3d e0 48 bb bd 98 2a d2 bb c1 d9 ee 3c
       0.03485471 -0.09144759 -0.006413769 0.029156568
0002d0 26 62 86 3d f2 62 1b bd 95 6e 5a bc 3a 38 c5 bc
       0.06561689 -0.03793616 -0.013332029 -0.024074662
0002e0 97 d1 b3 3d 81 85 9e bb 9a dd 7a 3d 50 06 52 bd
       0.087802105 -0.0048376922 0.061246492 -0.05127555
0002f0 28 30 89 bd 5c 06 65 bb 61 80 2d bd fe b7 1f bd
       -0.06698638 -0.0034946417 -0.04235876 -0.038993828
000300 51 37 8a bd bc 17 ce 3d 49 d3 13 bd ff df 42 bd
       -0.06748832 0.10063121 -0.03609017 -0.0475769
000310 72 a6 13 3d 21 a9 f6 bb 7f ba 44 3c a4 1a 04 3d
       0.036047406 -0.007527486 0.012007355 0.03225197
000320 37 9c 79 bd d6 8c 53 3c 88 95 bd bd 3c eb 9f 3d
       -0.060939994 0.012911996 -0.092570364 0.07808539
000330 96 e5 ab bd 9b d9 6d 3b 95 76 39 3d 28 81 22 3c
       -0.083933994 0.0036293033 0.045279104 0.009918489
000340 dc a6 98 3d bf 3e a2 bd 62 06 5a bc b5 ff 10 3d
       0.07453701 -0.07922124 -0.013307186 0.03540011
000350 ab e8 d9 3d 13 ac 8e 3c 33 f5 eb bc 00 29 3d bd
       0.10640081 0.017416036 -0.028803444 -0.04618168
000360 6a 79 e6 bc 38 5e 9f 3d bc cc 2b bd d9 c6 14 bd
       -0.028134067 0.07781643 -0.041943297 -0.03632245
000370 5c 47 b4 3b e4 89 94 bd 94 17 37 3d fc 06 a1 bd
       0.0055016708 -0.07252863 0.04470022 -0.0786266
000380 db 73 55 bd 58 72 84 3c b5 cc 61 3d 40 d8 90 bd
       -0.05211244 0.016167805 0.055126864 -0.070724964
000390 b5 42 b1 3d eb 66 92 bd 6f 11 e0 3b 70 31 76 bd
       0.086553015 -0.07148536 0.0068380157 -0.06010574
0003a0 13 52 49 3d 7d 25 47 3d 5a 88 12 3e b1 7d 6c 3b
       0.049150538 0.048619736 0.14309826 0.003608566
0003b0 ad bb 84 bc 77 5d 0f bd 29 85 36 be 2a 20 2b bd
       -0.016202772 -0.035001244 -0.17824234 -0.04177872
0003c0 43 6d 9c bc 94 94 25 3d 2b 8e 37 3d f9 c5 c8 bd
       -0.019095069 0.0404249 0.044813316 -0.09803385
0003d0 e5 55 07 3d 50 d9 72 bd 19 b5 e1 bc 1b ad 33 3d
       0.0330409 -0.059289277 -0.027552174 0.043866258
0003e0 ce 47 40 3d ae 56 fc bb a5 56 97 3c 02 24 23 bd
       0.04694348 -0.0077007627 0.018473933 -0.03982926
0003f0 41 50 ce 3d 61 31 0d be 2e 45 96 bc 7e e0 90 3c
       0.10073901 -0.13788368 -0.018343534 0.017685171

cnn.2.cnn.bias f4 [32]
000000 d3 7e 6e bd 4a dd 92 3b 4a b8 ac 3c ae f9 cd bc
       -0.058226418 0.004481946 0.02108397 -0.02514347
000010 b0 36 29 bc 9f fb 7f bd 64 89 2d 3d 6c 19 8b bd
       -0.01032798 -0.062495824 0.042367354 -0.06791958
000020 d9 28 57 bd e4 3e 5e bd 23 c7 40 bd 38 36 67 bc
       -0.05252919 -0.054259196 -0.04706491 -0.014112048
000030 23 8e ba 3c b0 6c fb bc f2 0d 70 bd f4 68 8f 3d
       0.022772854 -0.030691475 -0.05860705 0.0700244
000040 a7 a9 8c bd 9b eb 8e 3c 56 93 95 bd 31 86 8a 3c
       -0.06868296 0.01744633 -0.07303493 0.01690969
000050 e3 82 9b bd 57 9a cf bc e9 fa 55 3d 84 10 9a bc
       -0.07593324 -0.02534215 0.05224124 -0.018806703
000060 c0 5a 4a bd bc 07 80 bd 13 1f a3 3a 64 a0 11 3d
       -0.049402952 -0.06251475 0.0012445174 0.03555335
000070 ac 94 c4 bc 66 3d 85 bd ca 22 c3 bc d0 95 d7 bc
       -0.023996674 -0.065058514 -0.0238203 -0.026316553

cnn.3.BachNorm.weight f4 [64]
000000 4f df 7e 3f 49 d7 7e 3f e6 db 7e 3f 52 f6 7c 3f
       0.9955949 0.9954725 0.9955429 0.98813355
000010 d8 66 7d 3f 85 cc 75 3f c0 c3 81 3f 22 b7 80 3f
       0.9898505 0.960152 1.0137863 1.0055888
000020 d5 09 7c 3f 26 07 87 3f 21 db 7c 3f b0 7d 79 3f
       0.984525 1.0549057 0.98771864 0.9745741
000030 c8 0d 81 3f 70 7d 7f 3f 2c 8d 77 3f fa 4d 81 3f
       1.0082331 0.9980078 0.96699786 1.0101922
000040 4b 55 7b 3f 30 e7 80 3f 39 bc 80 3f 28 61 78 3f
       0.9817702 1.0070553 1.0057441 0.9702325
000050 4f c3 7e 3f a8 5d 7d 3f f0 11 82 3f 9e e6 7b 3f
       0.9951677 0.98971033 1.0161724 0.9839877
000060 1d 86 7f 3f fb 32 83 3f 0e dc 79 3f cd c0 7f 3f
       0.99814016 1.0249933 0.976014 0.99903566
000070 95 b2 78 3f f6 37 79 3f ff de 82 3f 2f 1a 80 3f
       0.97147495 0.97351015 1.0224303 1.0007991
000080 e6 1b 81 3f d5 1b 7e 3f 75 5f 7e 3f 70 7f 7b 3f
       1.0086639 0.9926122 0.99364406 0.9824133
000090 b0 99 7d 3f 87 19 80 3f cf 88 7c 3f 24 19 81 3f
       0.99062634 1.000779 0.98646253 1.0085797
0000a0 a8 cd 80 3f 82 45 7b 3f d6 92 7f 3f 96 89 88 3f
       1.0062761 0.98152936 0.9983343 1.0666988
0000b0 f3 fb 84 3f 2a 72 7c 3f 97 fb 76 3f bb 12 7e 3f
       1.0389389 0.986117 0.96477646 0.9924733
0000c0 1e 12 82 3f 5e 73 8f 3f d2 24 7e 3f f5 fe 83 3f
       1.0161779 1.1207082 0.99274933 1.0312182
0000d0 28 8a 7f 3f 01 62 79 3f df 25 7e 3f e0 23 7d 3f
       0.99820185 0.9741517 0.99276537 0.98882866
0000e0 ca 4c 77 3f a4 f5 82 3f 5c 6c 82 3f c2 c9 7b 3f
       0.96601546 1.0231214 1.0189319 0.98354733
0000f0 e3 14 79 3f 1c 9e 80 3f c7 fb 7c 3f 04 0d 7f 3f
       0.97297496 1.0048251 0.9882168 0.99629235

cnn.3.BachNorm.bias f4 [64]
000000 62 ba 0f bc ed bd 69 bd 4a eb b7 3c e2 29 a9 bc
       -0.0087724645 -0.057065893 0.022451062 -0.020649854
000010 5c fa 5a bc 13 c8 c4 3b 9d 91 11 bd a1 d4 59 3d
       -0.013365354 0.006005296 -0.03553926 0.053181294
000020 f0 d7 f1 bb 1d 01 ee bd 55 f2 72 bd ce d2 83 bb
       -0.007380478 -0.11621306 -0.059313137 -0.0040229326
000030 ac ef 21 3c 6c 0e b7 bb c1 ea ef 3b 2a ea 8c bd
       0.009883802 -0.005586436 0.007321686 -0.06880601
000040 9f ef 2c bd a9 22 fc bc 28 5e dd 39 81 9a 22 bd
       -0.042220708 -0.030778246 0.00042222557 -0.039698128
000050 4f 67 70 3c d2 a3 8c bc 2e 2d 1e bc 9c 28 c5 bd
       0.014673068 -0.01716796 -0.009654326 -0.09626886
000060 eb 49 4d bd 82 21 07 bd cc 50 54 bb 25 3c 58 bd
       -0.05011932 -0.03299094 -0.0032396792 -0.052791733
000070 f1 02 a9 3a 2c 2f 97 ba 61 1c 54 3d 18 64 ab 3c
       0.0012894553 -0.0011534444 0.051784877 0.020921752
000080 82 97 89 bd a8 bf 16 bb b2 68 63 bc 7d e7 16 be
       -0.06718351 -0.002300242 -0.013879942 -0.14736743
000090 97 08 40 bd 9f a4 09 bc c6 60 b1 bb 1b 4d 1b bc
       -0.046883192 -0.008401065 -0.0054131476 -0.009478833
0000a0 ee 04 b3 bd 31 3e 58 bb bc bd cb 3c d5 01 d8 bd
       -0.08741175 -0.0032996053 0.024870746 -0.105472244
0000b0 98 ab ae bb 91 03 2c 3b bd 10 d0 3b ce 75 0c bd
       -0.005330514 0.0026247243 0.0063496516 -0.034292035
0000c0 92 5f d8 bc 2f 53 2e be e9 9f 0f 3c 1c 3f 39 bd
       -0.026412759 -0.1702392 0.008766153 -0.0452262
0000d0 a6 11 09 bd f7 ed 9a bc 5c e8 c5 ba 82 92 3f bc
       -0.033464096 -0.018912299 -0.0015099156 -0.011692645
0000e0 2c 97 b9 bb 32 9b 1b 3b 27 b7 ed bc 9c 25 4f bd
       -0.005663773 0.0023743627 -0.029017998 -0.050572976
0000f0 1e f5 94 39 03 94 9c 3c 1c 31 71 bb 35 ae 5a 3c
       0.00028411386 0.019113546 -0.0036802953 0.013347198

cnn.3.BachNorm.running_mean f4 [64]
000000 63 97 48 be fc fe 92 bd 68 5c 97 be b8 8d ec be
       -0.19589 -0.07177541 -0.29562688 -0.46201873
000010 f4 5a 3d be fc 16 1e bf 48 85 f3 bc ff 2b 09 3e
       -0.18491727 -0.6175382 -0.02972664 0.1339569
000020 af fb 6f be 24 5f 00 be 93 5a 03 be 85 3d 22 be
       -0.23435853 -0.12536293 -0.1282752 -0.1584378
000030 01 dd 99 be 43 92 10 be c8 f0 f9 be 4c 8e 97 bc
       -0.30051425 -0.14118294 -0.48816514 -0.01850047
000040 62 09 9b 3d 94 87 86 be 47 58 d3 3d 82 b8 53 be
       0.07570149 -0.26275313 0.10319572 -0.20675853
000050 93 5e 40 3d a8 62 b2 be ba 2b 77 bd 69 d6 48 3e
       0.046965193 -0.34840894 -0.060344435 0.19613041
000060 18 45 be 3d 04 65 83 be ad 8e e0 be 59 c4 58 be
       0.09290522 -0.25663006 -0.43858853 -0.2116865
000070 a7 49 ae be 69 8f 33 bf 7a 4a 0a bc 44 c2 dc bd
       -0.34040567 -0.701407 -0.008440608 -0.10779241
000080 59 f9 88 3e 91 fa 61 bd 3e 9a 8a bd cb 64 40 bc
       0.26752737 -0.0551706 -0.067677006 -0.011742781
000090 01 53 71 3d bd 68 0a be 31 98 f8 be 09 7b 86 bd
       0.05891705 -0.13516517 -0.48553613 -0.06566436
0000a0 b1 0e 13 3e 76 a5 71 3e 5f 45 01 be 03 dd a3 3d
       0.14361073 0.23598275 -0.12624119 0.08001139
0000b0 a6 3c 6c be bf 0c af bd 22 bf d0 be 64 3f 7a bd
       -0.2307001 -0.08547353 -0.40770823 -0.06109561
0000c0 71 d3 50 bd 64 9f 35 be 19 d1 1b 3d 15 09 19 bc
       -0.050982896 -0.17736584 0.038041208 -0.009340544
0000d0 07 89 5b 3e 44 c8 eb be a0 15 45 be 01 47 7b be
       0.2143899 -0.46051228 -0.1924653 -0.24538805
0000e0 7f 03 c7 be 4d e3 5e 3e 80 00 db be da 2d fe 3d
       -0.38869855 0.21766396 -0.4277382 0.12411089
0000f0 a2 2f f6 be 48 2d 8b be 2e ae 37 be b3 9e 8b bd
       -0.48083216 -0.27182984 -0.17937538 -0.06817379

cnn.3.BachNorm.running_var f4 [64]
000000 51 9c 44 3e 2c 27 19 3f af c6 82 3e 56 51 80 3e
       0.19200255 0.59825397 0.2554221 0.25062054
000010 e8 4a a0 3e f2 7b 2e 3f 56 8e 22 3e 92 f9 f0 3d
       0.3130715 0.68157876 0.1587461 0.11766352
000020 5f 3f 58 3e bf 74 94 3d 73 d5 62 3e 90 c0 c9 3e
       0.21117924 0.0724883 0.22151737 0.39404726
000030 a1 a6 0d 3e 37 10 81 3e 44 58 b5 3e 07 f9 36 3e
       0.13833095 0.25207683 0.35418904 0.17868434
000040 96 32 ce 3e 8c 69 01 3e 3f b8 42 3e 1c 4d a2 3e
       0.4027297 0.12637919 0.19015597 0.31699455
000050 8f b9 8a 3e b2 04 89 3e cc 62 f8 3d 7c 45 44 3e
       0.27094695 0.26761395 0.12128219 0.19167131
000060 6c a7 a3 3d eb a9 07 3e d5 66 cf 3e fc 75 2e 3e
       0.079909176 0.13248412 0.40508142 0.17037195
000070 3f 9a d3 3e aa 2e d6 3e 1d e4 10 3e 35 c9 54 3e
       0.41328618 0.41832477 0.14149518 0.2077988
000080 cb 97 b7 3d 51 22 95 3e b3 37 e5 3d 00 75 f7 3d
       0.08964499 0.29127744 0.111922644 0.12082863
000090 f4 23 05 3e 9e 25 8a 3e 25 f2 95 3e 29 cc ca 3d
       0.13001996 0.26981825 0.29286304 0.09902222
0000a0 8c f5 f2 3d ea a1 d7 3d 89 c4 fe 3d 27 c8 c2 3d
       0.118632406 0.105289295 0.1243983 0.09510832
0000b0 1c 9f 0a 3e ec ad 83 3e dd a7 03 3f 9a fc 3c 3e
       0.13537258 0.2571863 0.51428014 0.18455735
0000c0 6b 3d 43 3e 96 62 5e 3d cb 5a 99 3e 36 92 fa 3d
       0.19066398 0.054293238 0.29952082 0.12234919
0000d0 bc 5e 70 3e 1f 0c 5d 3f 87 f6 f8 3d 2b a2 3d 3e
       0.23473638 0.8634662 0.12156396 0.18518893
0000e0 d3 8b 8d 3e 64 aa 10 3e 5d bc ec 3d 6d de 10 3e
       0.2764574 0.14127499 0.11559365 0.14147349
0000f0 e9 20 0c 3f 3f 62 ac 3e 10 dd 2b 3e 00 44 5c 3e
       0.54737717 0.33668706 0.16783547 0.21510315

cnn.3.cnn.weight f4 [64, 32, 3, 3]
000000 29 70 29 bd 73 d8 1d bd 65 16 3e bd d5 87 d5 bb
       -0.04136673 -0.0385365 -0.046408076 -0.0065164366
000010 c8 0f da 3c 61 e2 39 3d 2f 39 a0 3c a3 06 f0 b9
       0.026618853 0.045381907 0.019558517 -0.00045781312
000020 05 c4 e9 bb 85 a5 76 3c 4b d2 3a 3d 5d f1 97 ba
       -0.007133963 0.015054111 0.045610707 -0.0011592318
000030 2e d8 3b bd 52 e6 ce bc 50 6f 51 3b ad 3f 30 bd
       -0.045860462 -0.02525631 0.0031957217 -0.043029476
000040 14 75 5b 3c dd de 9c 3d 93 38 0e 3d b5 42 da bc
       0.013394613 0.07659695 0.034721922 -0.026643137
000050 41 e9 01 bc 5e af 53 bc 73 d6 30 3d 96 26 60 3d
       -0.007929147 -0.012920229 0.043173265 0.0547243
000060 99 9e 05 bb f4 2d e1 bc 15 ae 44 bd c5 23 8e 3d
       -0.002038872 -0.027487732 -0.04801758 0.06940416
000070 a5 77 40 bd 53 c4 15 bd f0 5b 37 bd a2 ed 8b bc
       -0.046989102 -0.036564182 -0.044765413 -0.017081086
000080 5a 82 47 3d c6 39 74 bd 84 a6 49 bd a9 63 43 3c
       0.048708297 -0.05962541 -0.049231067 0.011925616
000090 c9 d7 20 bd f5 8d 4c bd da c3 70 bd ce 98 d6 3c
       -0.03926829 -0.04994007 -0.05878053 0.02619591
0000a0 18 e9 35 3d 91 4f 01 bd f5 0d ff bc f9 34 37 bd
       0.04441175 -0.03157002 -0.031134585 -0.044728253
0000b0 5c 5d 80 3d bc 21 71 bd 99 25 53 3a d6 44 26 bc
       0.06267807 -0.058870062 0.0008054614 -0.010148248
0000c0 f3 56 29 bb f7 c3 63 bd df 0a a0 bc 9a c3 0c 3d
       -0.002583918 -0.05560681 -0.019536434 0.034366228
0000d0 f2 5a 82 bc 52 da 69 3c c0 bd a8 3d e8 88 80 3c
       -0.015912507 0.014273243 0.08239317 0.015690282
0000e0 13 98 42 bd 5c f0 ee bc 9d a8 dd 3a 08 24 6c 3d
       -0.04750831 -0.029167347 0.0016911213 0.05765155
0000f0 25 dc 8d bd 65 5c 31 3d de 7d 6a 3d e8 8a 1b 3d
       -0.06926755 0.043301005 0.057248943 0.03797427
000100 ca 8d d7 bc 7b ed 60 bd 7f 9f 69 3d c3 04 3e bc
       -0.026312727 -0.05491398 0.057036873 -0.011597815
000110 aa c4 3b 3d e2 8f 70 bc 8e fa 53 3b d9 5b 02 3c
       0.04584185 -0.014682742 0.0032345387 0.0079564685
000120 0b be 16 3d bc 63 64 bd 29 15 0e bd e8 0a 1f 3d
       0.036802333 -0.055759177 -0.03468815 0.03882876
000130 33 dd 95 3c a7 22 49 3d 66 90 2d bc 14 21 5b 3d
       0.018293953 0.049105313 -0.010593509 0.053498343
000140 de a1 e9 3c 83 66 06 3d 40 83 62 3d d5 31 09 bd
       0.028519567 0.032812607 0.05530095 -0.03349479
000150 21 b3 55 bd 31 d6 5e 3c d5 df ee 3b ea e8 85 bd
       -0.052172784 0.013600872 0.0072898665 -0.065385655
000160 64 08 6a 3d 37 59 f9 3b b5 68 a7 3d 80 42 6d 3c
       0.05713691 0.007609512 0.08174268 0.014481187
000170 62 ef 2b 3d 53 bc 8b bc c0 01 83 3c 93 85 37 3d
       0.04197634 -0.017057573 0.015992045 0.04480512
000180 57 69 2c 3b aa 15 82 3a 42 81 26 bd f6 b7 3e 3d
       0.0026307905 0.0009924669 -0.040650614 0.046562158
000190 56 d5 90 3c ce 86 80 bd b6 78 9a ba f4 2f 58 3c
       0.017679852 -0.06275712 -0.0011785242 0.013195027
0001a0 25 3d 08 bd 40 a7 53 3c d0 fb 66 bd 3f 56 17 3d
       -0.033261437 0.0129182935 -0.05639249 0.036947485
0001b0 5f d3 66 bc 88 ca b7 bc 0e 87 87 bd 93 10 c3 3c
       -0.014088481 -0.022435442 -0.066175565 0.023811614
0001c0 10 29 29 bd c0 98 d8 bc 6a 91 27 b9 ec f4 53 bd
       -0.041298926 -0.026440024 -0.00015980532 -0.051747248
0001d0 ad 7a 0f 3d 13 18 89 bd 38 52 f5 3c 51 14 d0 bc
       0.035029102 -0.06694045 0.029946432 -0.025400313
0001e0 f5 11 27 3d bd 1c 64 3c 5e 43 19 bd e3 cf 39 3c
       0.04078861 0.013922867 -0.037417762 0.011341068
0001f0 6e f1 90 3c 99 9b e1 3c 94 33 3e bd df a6 88 3b
       0.017693248 0.027540015 -0.046435907 0.004170283
000200 3c 9a 3d bd 93 60 f8 3b 5d 5e 96 bc 74 4b 5a 3d
       -0.046289667 0.007579872 -0.018355543 0.053294614
000210 db 3e 28 3d f8 97 84 3c 15 5e 66 3c 7f 02 52 3d
       0.04107557 0.016185746 0.014060517 0.05127191
000220 f4 f1 1c 3d 40 45 61 bd ed f1 61 bb bd 6c 26 bd
       0.038316682 -0.054997683 -0.0034476474 -0.040631045
000230 53 63 0e bd 45 11 36 bd 6a ea 51 3d 44 ac 35 bd
       -0.03476269 -0.044450063 0.051248945 -0.04435374
000240 87 2d 90 bd c6 77 70 ba 44 84 62 3c f7 4d fe 3b
       -0.07039934 -0.0009173121 0.01382548 0.007760759
000250 e9 d7 54 bd 75 b4 2c bd 05 e5 8d bd 00 30 61 bc
       -0.05196372 -0.042164285 -0.06928448 -0.013744354
000260 f4 90 86 3d c9 78 22 3d 54 19 3e bd 4d 2c 7e 3c
       0.06570616 0.03966597 -0.046410874 0.015513492
000270 c9 46 13 3c dd f5 4e 3c 9a 3b 38 bd 72 34 0e bc
       0.008989044 0.012631861 -0.044978715 -0.008679496
000280 54 00 5d 3d b6 db b2 bb 42 6d 85 bd 1b e8 d6 3c
       0.05395539 -0.0054583205 -0.0651498 0.026233723
000290 2e f0 8e 3b ef d9 4c bd 73 bc 0d 3c 2b dc 07 3d
       0.0043621277 -0.050012525 0.008650887 0.033168953
0002a0 49 d0 82 bd c6 f9 60 3d 23 62 3b 3d ca a4 0f bd
       -0.063873835 0.054925703 0.045747887 -0.035069264
0002b0 75 1d 24 bb d7 26 7b bd f4 94 e7 bc ad 80 9e bb
       -0.0025041972 -0.061316337 -0.028269269 -0.0048371167
0002c0 10 08 3b bd ea 46 58 3c 34 32 a6 bb 08 57 09 bd
       -0.045661986 0.013200501 -0.0050719026 -0.033530265
0002d0 a1 83 37 bd 91 c7 04 bb b2 ea 94 bc 11 1d 0c 3d
       -0.044803265 -0.0020260552 -0.018178318 0.034207407
0002e0 6a c0 32 bd 5b 13 03 3d 3c 14 09 3d c2 bb 07 bc
       -0.04364053 0.03200088 0.033466563 -0.008284511
0002f0 7c 59 5a bd 16 da bc 3d 92 e8 23 bc 7b 87 48 3c
       -0.053307995 0.09221284 -0.01000418 0.012239332
000300 4f 21 66 bc 3c 65 84 3c e5 1e 2c bd 55 0b 79 bd
       -0.014046027 0.016161554 -0.04202165 -0.060801823
000310 07 95 68 bd 0b 6a e0 bc 24 79 65 bd 88 85 be bc
       -0.05678275 -0.027394315 -0.05602373 -0.023257032
000320 07 33 d1 3c 65 9f 66 3d 1b ee 74 bc 96 da 52 3d
       0.025537027 0.056304354 -0.014949347 0.05147799
000330 3c c5 65 3c 31 23 de bc 00 dd 10 bd f4 81 2f bd
       0.014024075 -0.02711639 -0.035367012 -0.042848542
000340 a7 d3 9c bc eb 3b 2a 3d 4a 93 29 3c 9e 8d 59 ba
       -0.019143892 0.04156105 0.010350058 -0.00082989957
000350 da 06 e7 bc 6a fe 21 bd 00 58 5c 3d 35 d6 41 bb
       -0.02820151 -0.03954927 0.05379486 -0.002957714
000360 b2 bf df 3c 66 9d e9 bc 7c db 3e 3c 7d fb 5c 3d
       0.027313087 -0.028517436 0.011649009 0.053950775
000370 c6 50 0f bd 99 a2 8f bc 83 e2 98 3b ab bb 5e bd
       -0.03498914 -0.017533587 0.004665674 -0.054378193
000380 e2 f6 17 bd fd 33 ca 3b b1 7a 39 3a 2f a8 78 bd
       -0.03710068 0.0061707483 0.00070754724 -0.060707267
000390 99 51 8b 3c 28 75 fa bc c7 25 2a bc be 0a 96 3c
       0.017006682 -0.030573443 -0.010384983 0.01831567
0003a0 1f e0 45 3d bd 8e 02 bd fb 02 32 bc aa fa 9e bc
       0.04830944 -0.031874407 -0.010864968 -0.019406635
0003b0 3c a0 fc bc da 39 4b bb a8 b4 c6 bc 23 77 a8 bc
       -0.030838124 -0.0031009824 -0.024256065 -0.020564621
0003c0 65 2f 11 3d 74 c7 06 bd 38 66 df bb 1d 43 5e 3d
       0.03544559 -0.032905057 -0.0068176053 0.054263223
0003d0 1d 59 40 bd c5 68 1c bd b2 4b 18 3d 3a 97 1e 3d
       -0.046959985 -0.038185854 0.037181564 0.03871844
0003e0 62 b1 2e bd 0b f1 04 3b f9 44 19 bd 82 8a 4c bc
       -0.042649634 0.0020285274 -0.037419293 -0.012484195
0003f0 52 7a 53 3d 4e 39 43 3d 49 49 41 bd ea be c1 3c
       0.051630326 0.047662072 -0.04718903 0.023650605

cnn.3.cnn.bias f4 [64]
000000 b3 da 99 3c 20 32 bc 3c 58 44 13 bd 1c ab 01 3c
       0.018781042 0.02297312 -0.03595385 0.007914331
000010 c0 18 1a bd e2 fb 8e bc 2d e6 20 bd 76 ef bc 3c
       -0.03762126 -0.017454091 -0.039282013 0.023063403
000020 f5 56 06 3d c0 5a 6f bd dd f5 66 3c 00 24 23 bc
       0.032797772 -0.058436155 0.014096704 -0.009957314
000030 7a d5 08 bd 2c 74 c6 38 47 80 11 b9 bd ee ac 3b
       -0.033406712 9.4630144e-05 -0.00013876065 0.0052774833
000040 91 30 df bc c9 d8 0a bd 0c 08 02 3d 44 a2 e9 3c
       -0.027244838 -0.03389815 0.031745955 0.028519757
000050 79 88 02 3d 18 26 07 bd 8d f7 2e 3d cf 20 c3 bc
       0.03186843 -0.032995313 0.04271655 -0.023819355
000060 3d 95 9f 3c 80 21 f9 bc c3 79 11 bd 87 1c c4 3c
       0.019480342 -0.030411482 -0.03551651 0.023939384
000070 99 51 2a bd fb c1 84 bb c0 3d 44 3d 26 2a 8f bc
       -0.041581724 -0.0040514446 0.047910452 -0.017476153
000080 0e fa 8d bc 81 b5 47 bd e9 f5 d1 3c ec e1 a3 bc
       -0.01733115 -0.04875708 0.025629954 -0.020005189
000090 f9 50 2c 3c cc 66 00 bd 73 99 fb bc 6d fc b3 bc
       0.010517352 -0.031348035 -0.030712819 -0.021970952
0000a0 16 da 50 3b 99 de e8 3c 9e 21 61 bd 60 1c 9c 3c
       0.003186827 0.028426455 -0.0549637 0.019056499
0000b0 aa 26 20 bd 6d 79 fa bc 07 43 45 3d cf 1a 1f 3c
       -0.039099373 -0.030575478 0.048159625 0.0097109815
0000c0 12 01 34 3d c0 c6 7f bd 6d 09 1c bc f6 65 18 bd
       0.043946333 -0.062445402 -0.009523732 -0.037206613
0000d0 24 ce 80 3c 39 3b 66 3d 83 b7 94 ba 08 ca 92 3c
       0.015723296 0.056208823 -0.0011346195 0.017918602
0000e0 a1 be 95 3c 96 33 03 3d f5 e7 a2 3c cc 76 af 3c
       0.018279376 0.032031618 0.019885996 0.021418951
0000f0 63 aa b8 bc d2 f3 2d bd 2e 22 e7 3c 34 e5 27 bd
       -0.022542184 -0.042468853 0.02821454 -0.04099007

linear.0.0.weight f4 [80, 64]
000000 72 33 b4 3d 73 1f 76 3d f0 20 81 3d 6b 95 87 3d
       0.08798875 0.060088586 0.063051105 0.06620296
000010 2f 3a 40 3d cf bd c9 3d ea c3 86 bd 2f 4a 34 3d
       0.04693049 0.09850656 -0.065803364 0.04401606
000020 88 28 0d 3e 54 59 00 3e 46 eb 4a bd e7 68 02 be
       0.13784993 0.12534076 -0.04954078 -0.1273533
000030 dd de 9e bd 2f db a2 3c 94 8f 27 3d 8a 83 93 bb
       -0.077573515 0.019879906 0.04090841 -0.0045017647
000040 17 ec cd bc 32 d5 fa 3d 65 f4 f6 3b a2 b0 b2 3d
       -0.02513699 0.12247695 0.0075364583 0.08725096
000050 85 e3 d9 bd 53 f4 e7 bc 25 fc 12 be 16 94 d9 bd
       -0.10639099 -0.028314745 -0.14353998 -0.10623948
000060 fa 30 a5 bd 1d 1c 0a bd 14 45 c4 3d ee cd f9 bd
       -0.08065982 -0.033718217 0.09583488 -0.12197481
000070 3e 2b a1 bd 86 a6 1d 3d ff 96 f0 bd 7d a8 8b bd
       -0.07869576 0.038488887 -0.1174755 -0.06819246
000080 fa 74 fd bd ea f3 93 3d 57 4c 69 bd 2a fd 75 bd
       -0.12375827 0.07224257 -0.05695757 -0.06005589
000090 2e af 88 bd 87 81 47 3d 66 cc b8 3c 1a b9 b2 3d
       -0.06674038 0.04870751 0.022558402 0.087267116
0000a0 9f 28 9a bd ba 03 f7 ba 66 9e e2 bd eb 2e 94 bc
       -0.07527279 -0.0018845715 -0.11065368 -0.018088778
0000b0 a3 66 ab bc 1d c6 c5 bd 5f 02 1c bd b7 07 de bd
       -0.020922964 -0.09656928 -0.0380882 -0.10841315
0000c0 1b 3d 81 bd fe 26 a0 3d 8e 45 87 3d 8a f2 00 bd
       -0.06310483 0.07819937 0.066050634 -0.031481303
0000d0 a3 1d a3 bd b8 fc 6d 3d ab 17 65 bd d7 6d d7 3d
       -0.07964637 0.05810234 -0.055930775 0.10518997
0000e0 0c 78 f3 3d 87 7c 45 bd cc 5f 8b 3d fb 6f 89 bd
       0.118881315 -0.04821446 0.06805381 -0.06710812
0000f0 5e 2d b5 3d 2b c5 86 3d 0b 54 56 bd 20 24 db 3c
       0.08846544 0.065805756 -0.052326243 0.026750624
000100 0f eb bd 3d a3 3c c6 3d 64 70 b1 3d f1 51 2f bd
       0.092733495 0.09679534 0.08664015 -0.042802755
000110 4a 89 0b 3e 3f c1 c6 bd d4 11 d1 bd e9 44 6e bd
       0.1362659 -0.097048275 -0.102084786 -0.058171187
000120 ed 60 ad bd 26 61 41 3d c8 67 05 3d f3 fe 09 3c
       -0.08465753 0.04721179 0.032569677 0.008422601
000130 5b 91 37 bd 74 67 bc 3d fe ab 05 be 78 43 9a bd
       -0.044816356 0.091994196 -0.13053891 -0.075324
000140 50 cd 47 bd 47 d9 9d bc 01 68 ce bd 1f dd bf 3d
       -0.048779786 -0.019268645 -0.10078431 0.093683474
000150 81 fd 51 bd 0f 79 14 bc ab 6a 79 3d bd 13 62 bd
       -0.05126715 -0.009062066 0.060892742 -0.055194605
000160 62 d4 a3 bd 54 af e4 bd e2 fc c5 bc 74 69 07 be
       -0.07999493 -0.11166254 -0.024168435 -0.13223821
000170 6a 30 f2 bc d8 cb 7f bd 30 45 f3 bc 42 75 b1 bd
       -0.029564101 -0.06245026 -0.029696077 -0.08664943
000180 ef dd 48 3d 47 ad 71 bd fc 8a fd bc e8 d4 83 3b
       0.049039777 -0.05900314 -0.030950062 0.004023183
000190 4d e9 24 be 6e d2 bd 3d 58 72 28 3b 4f aa c0 3d
       -0.16104622 0.09268652 0.002570292 0.09407484
0001a0 1a a1 90 bd c2 e2 b2 3d 35 e4 ab bc 53 ae 38 bc
       -0.07061978 0.08734657 -0.020982841 -0.011272031
0001b0 03 3a 05 3e 1c b8 34 3b b6 92 48 3d c3 4e dc 3c
       0.13010411 0.0027575558 0.04896804 0.026893025
0001c0 45 10 e7 ba 59 a5 9f bc 96 4a 48 ba d5 e4 09 be
       -0.001762875 -0.019488024 -0.00076405087 -0.13466199
0001d0 5a 20 9a bc ca 1d 0b 3e fc 94 21 3e 7d 87 9a bc
       -0.018814255 0.13585582 0.1577949 -0.018863434
0001e0 a4 e0 44 3d d7 92 c7 bd 19 96 ca bd e7 12 42 3d
       0.048065796 -0.09744804 -0.0989191 0.047381308
0001f0 8f 1d cb bc 71 ee fa 3b 0f 31 c6 bc c4 22 c0 bd
       -0.024794368 0.007657819 -0.024193315 -0.09381631
000200 e9 57 d1 bd 6b eb 20 bd 88 40 52 be a0 d2 cc 3d
       -0.10221846 -0.039287012 -0.20532429 0.10001111
000210 ef bb 81 bc c4 d4 5e 3d 2a 1a c7 3d d1 b6 03 3d
       -0.015836684 0.054402128 0.09721787 0.03215677
000220 7f 0f 77 3d ee dd 2e bd 76 d9 e2 3c 27 32 07 3d
       0.060317513 -0.042692117 0.027691584 0.033006813
000230 f1 c9 b9 3d ae f0 9a bd b0 ec fd 3d 2b 46 dd bd
       0.090717204 -0.07565437 0.1239866 -0.10804399
000240 c2 de 74 3c 1d 7e 4a be db 2e d5 bd ed 96 0a bd
       0.014945688 -0.19774671 -0.104093276 -0.03383534
000250 06 e6 2c bd 5b 43 ba 3d ef f9 b9 bd 63 9c ec 3d
       -0.042211555 0.09094878 -0.09080874 0.11553266
000260 d3 b6 3a 3d e8 63 9e bd 3c 44 a5 bd f2 80 ec 3c
       0.04558451 -0.07733899 -0.08069655 0.02887008
000270 55 60 31 3e d2 af 04 be da fa b9 bd 9d 82 b3 bd
       0.17321904 -0.12957695 -0.09081049 -0.08765147
000280 54 93 20 bc b2 d5 97 3b bf 62 4d 3d 41 98 5f bd
       -0.009800751 0.0046336288 0.050143 -0.05458856
000290 aa 50 da 3d 3b 15 ce bd ea e6 8f bc 7d 66 94 3c
       0.10659917 -0.10062643 -0.017566163 0.018115276
0002a0 bc 5a 56 3d f7 cc 04 be 8b 41 9c 3c b5 39 c8 3d
       0.052332625 -0.12968813 0.019074222 0.09776632
0002b0 51 91 82 bc ef 8e f0 3d c4 78 4d bd ae 05 8e 3d
       -0.015938433 0.117460124 -0.050164 0.06934677
0002c0 5c 91 6d bd b7 e1 89 bc a9 5f b9 3c 1e d0 2f bd
       -0.057999954 -0.016831262 0.022628622 -0.042923085
0002d0 7f ea 7f bd 70 c8 cf bd 4d fe 22 3d f0 eb 9b bc
       -0.062479492 -0.10145652 0.0397933 -0.019033402
0002e0 3f e2 20 3e 17 de 3c bc 35 13 08 be f8 2f 1b 3e
       0.15711306 -0.01152756 -0.13288577 0.15155017
0002f0 26 3d 87 3d 7c bc 4e bd 3d 30 8b 3d 91 0c 15 3d
       0.0660346 -0.05047272 0.0679631 0.036388937
000300 5b b0 3b bc 9f d0 f5 3d 74 ec 06 3e 58 5b 73 3d
       -0.011455621 0.12002682 0.13176137 0.059413284
000310 a5 97 b5 bd 33 82 64 3d c5 54 6d bd 35 8f 65 3d
       -0.088668145 0.05578823 -0.05794217 0.056044776
000320 7b 31 f5 3d 4f 57 90 3d bb 33 9a bd 12 4d bf bd
       0.11972328 0.07047903 -0.07529398 -0.09340872
000330 db 69 b9 bd 32 63 e6 bd ae 62 b5 bd 11 b8 a5 bd
       -0.090533935 -0.11249389 -0.08856712 -0.080917485
000340 e6 62 ff 3c f0 6d 0c 3d de 57 4c 3c 04 c3 01 be
       0.031175088 0.034284532 0.012472121 -0.12672049
000350 69 8f 25 be 16 ed 69 bc 44 48 59 3d 53 81 27 3d
       -0.16167988 -0.014277717 0.053047433 0.040894818
000360 35 a3 d8 3d 28 7f b1 bd 3d a0 1d be 00 4c 5f bd
       0.10578004 -0.08666831 -0.15393157 -0.05451584
000370 23 69 0a 3d 4a 43 66 3d ea 7f 19 3e ae 8d 7a bd
       0.033791672 0.056216516 0.14990202 -0.061170273
000380 11 d0 8d bd a1 17 e9 3d d5 77 be bd 5f 1b dd 3d
       -0.06924451 0.1138146 -0.093002 0.10796236
000390 4c e6 0d bd 78 62 34 bc e2 ce 52 bc 91 61 c0 bb
       -0.034643456 -0.011009805 -0.0128667075 -0.005871006
0003a0 d0 b9 22 3d 85 99 aa 3d 44 c2 1d be 03 b4 0c be
       0.039727986 0.08330063 -0.15406138 -0.13740544
0003b0 3c c8 87 bc a7 53 bf bd fc 8c b2 3d 0e f4 83 bd
       -0.016574971 -0.09342127 0.08718297 -0.06443034
0003c0 4a 0c 29 bc c2 05 56 bd 8b 9f da bc e8 0d 1b bd
       -0.010317871 -0.052251585 -0.026687404 -0.03785506
0003d0 d3 af 13 be cf b8 a7 bd af fd 2d 3c 7d ed ce bc
       -0.1442254 -0.08189546 0.010619565 -0.025259728
0003e0 96 95 7d 3c 26 b6 1c 3c bb 71 90 3d e8 a3 5d bd
       0.015477559 0.009564912 0.07052942 -0.05411139
0003f0 36 df aa 3d b5 bf 8f b8 35 5b e4 3d 7d 54 2b 3d
       0.08343355 -6.8544796e-05 0.11150209 0.04182862

linear.0.0.bias f4 [80]
000000 88 e8 07 bd 6e f8 e0 bd d4 8d ea bd ce d7 75 bd
       -0.033180743 -0.10984884 -0.11452833 -0.06002026
000010 53 e5 39 3d d3 c4 78 3d 36 93 e4 3c 7b ab e1 bc
       0.045384716 0.06073458 0.027902227 -0.027547589
000020 5d 8f ac bd 54 4e 24 3d ed 6b 0c 3d cc 22 ef 3c
       -0.08425782 0.040113762 0.034282614 0.029191397
000030 44 35 96 3d 1a 85 52 3c 54 04 94 bc 76 b5 fb bc
       0.07334378 0.012849117 -0.01806847 -0.030726176
000040 51 83 dd 3d dd 6b 9a 3d 9b 84 f3 3d 9d 65 34 bd
       0.10816062 0.075401045 0.11890527 -0.04404222
000050 fe 1b 1f 3d 38 e7 9a bd b2 4f 5d 3d 3a c6 18 bc
       0.038845055 -0.07563633 0.05403108 -0.009324605
000060 2a 27 f6 bd a0 24 bb 3d 16 3d c4 bd 97 53 af bd
       -0.12019189 0.09137845 -0.09581964 -0.08560865
000070 c0 9e 32 3d 25 cb dc bc 03 ec eb bd 5a d8 2d bd
       0.043608427 -0.026952336 -0.11519625 -0.042442657
000080 00 db e8 bc b3 8f 5a bc 69 2f d9 3c 32 82 ba 3d
       -0.02842474 -0.013339925 0.026511865 0.09106864
000090 9c 8a d3 3a 3e 3a fb bc 5e 9e 45 ba 87 ac 4c bd
       0.0016139331 -0.03066742 -0.0007538552 -0.049969222
0000a0 fc 1c eb 3d 8e 4e c3 3d 0d af 58 bd e3 0b fa 3c
       0.11480138 0.095364675 -0.052901316 0.030523246
0000b0 e0 02 b5 bb e9 b0 cd 3c bc 7b 4b 3d 6a 20 c7 bd
       -0.0055240244 0.025108771 0.04967855 -0.09722979
0000c0 0c 38 96 bb f2 3a 9c 3d 22 ce e4 bd 13 d9 6a bd
       -0.004584318 0.076284304 -0.11172129 -0.057335924
0000d0 f0 71 70 bd ef 5a a3 3b 65 1b 01 3d f0 ca 2d bd
       -0.05870241 0.0049852054 0.031520266 -0.042429864
0000e0 b7 75 c6 3d c3 4d 25 3d 7d 7c b4 3d 44 83 13 3d
       0.09690421 0.040357362 0.08812807 0.036013857
0000f0 eb fc c1 3d d2 18 ba bd 6c 62 f8 3b 78 6a 0a bd
       0.094720684 -0.09086765 0.007580092 -0.033792943
000100 01 c2 dd 3d 6a 2c 55 bc b3 4d 8a 3d 80 30 a4 3d
       0.10828019 -0.013011077 0.06753101 0.08017063
000110 93 3f 22 3d d8 a3 7e 3d 32 da a6 bd a0 81 ba bd
       0.03961141 0.062167972 -0.08147086 -0.09106755
000120 8c df 4d bc 8f a8 58 bd 25 ec a0 3d 76 75 e0 bc
       -0.012565505 -0.052895125 0.07857541 -0.02739976
000130 89 fe 83 bd d4 20 f5 bd 94 16 c2 3d 00 6c fc bd
       -0.06445033 -0.11969152 0.09476963 -0.12325287
