mlp/saved_model/model.pth (torch, 352509 bytes, 48 tensors)

fc_input.fc.0.weight f4 [50, 784]
00000000: 772d e33c 2316 b63c 0f21 453c d144 c53c
00000010: c573 91bc 6d2e b13c 00fd 7abb a9bc 87bc
00000020: c1d6 33bc 02b7 053b ffab 073c 85c4 cb3c
00000030: 9c6b db3c c7e2 f23c ce4f 343c 9d85 87bc
00000040: f57b bb3c 57bd 453c e841 3eba 20c3 4abb
00000050: 6755 313c 7924 bfbc bbb9 0c3c ce21 87bc
00000060: 2223 863b 4f08 03bd bf1a 08bd 7123 913c
00000070: 63d8 0b3c 5cbd e7bc 39dc eabc cf25 e73c
00000080: b370 14bd 733e 4abd 8cd3 49bd ab5f 8dbd
00000090: d978 3fbd 09f7 8f3c 3c7b 8bbb 0954 97bb
000000a0: 53bf 5cbd fea5 9dbd 268a 883b 3f46 c5bd
000000b0: 2191 c4bd a2f9 b2bd 5172 23bc 0568 8fbd
000000c0: 904f 9ebd a8e9 4bbd 0ec5 d4bd 6103 adbd
000000d0: 8d70 8b3c a3a7 a93c 55c0 b7bc db93 d73c
000000e0: f0ac 23bb 5f9c f73c 50ba 62bd 59d7 72bd
000000f0: 8777 c93c 169b eb3c 57b6 363c 3e30 96bd
00000100: bb9c 21bc 95c2 fe3b 908d 0ebd 15b9 abbd
00000110: ae84 c4bd 974a b6bc 3ea5 a8bc 4260 1dbd
00000120: ea22 ebbd b0c9 1cbe 4bb9 03be 34fe 71bd
00000130: 4723 95bd dc61 9fbd 7eb8 aebd 0b43 10bd
00000140: ca32 5bbd bfec 03bd 5bb2 233c 897c fbbc
00000150: 992d dabc f476 a839 96e4 963c 8b78 74bd
00000160: 5435 d0bd d7ab 92bd 1526 c9bd 5344 6dbd
00000170: 4d63 82bd e352 81bd d7c7 afbc fcbd 25bd
00000180: a9db c4bd 4664 f5bd a271 cabd a88c 89bd
00000190: 1609 ccbd e6f9 c1bd 26e7 8cbd 306c 3bbd
000001a0: 94b1 45bc ebfb 0b3d f8fc 803c cf54 16bd
000001b0: d44c de3c fc44 143c b519 f83c f58a ad3c
000001c0: 532b a7bc 0026 40bb 3a70 14bc 0940 b6bb
000001d0: 169e 5a3d 8d8c 413d b523 f6bc a7b6 2abd
000001e0: ca3c a2bd 59ed 3dbd 776c 39bd 0665 91bd
000001f0: c13c c6bc 0a66 3ebd 73b1 82bd 327a 97bc
00000200: 306f 1bbd f941 0bbd 695f 52bd b277 8dba
00000210: cab0 ce3b 4bad cf3c 9bd9 ab3c debd ab3d
00000220: 1d34 aa3d afd9 2b3d 002e 36bd 3506 a2bc
00000230: 380f 0d3d 6f53 c63c 4c87 e9bd b8e3 19bd
00000240: 1166 15bd d4de 213d e93d 2cbd 2fd7 5bbd
00000250: 60c6 d43a b6ce 8e3c 776b 0abd d450 20bd
00000260: 74a3 96bc 71ec 81bc 5547 423c 03e8 c9bc
00000270: b966 19bd 282c cabc a659 4abd 2fb2 6dbd
00000280: 0574 13bd 167d b23c 9621 d0bc f409 7c3b
00000290: 2353 7a3d d319 a9bc e289 d6bc b533 813d
000002a0: dbc1 a6bc 71de bf3c 9e7f c0bc e2a6 62bd
000002b0: 10b6 87bd 6b92 dd3a 1cbb f4bc aa2a c3bc
000002c0: a551 28bd 064b b6bc 9499 47bd 1d43 42bc
000002d0: dc65 73bd a029 73bd b7d3 923c 143b 65bd
000002e0: ab8f 72bd baff 1fbd 1c11 2fbd 1b10 98bc
000002f0: 0a50 09bd 8209 b7bb 1a68 48bc 0c40 f1bb
00000300: 3afd 50bd 45cf 3dbd 8b75 e33b b29c 2fbc
00000310: 2c1c 30bd f64c 9abc 49b2 85bc 13a3 bdbd
00000320: b079 5bbd c2ac 5ebb 319f d0bc 2d62 1bbc
00000330: 7153 293c 7490 d4bc e306 2bbd 0870 1a3c
00000340: 2d16 103d dca5 cd3c 0829 9bbc 15f6 1cbd
00000350: 7ce5 213c abb7 aa3c 63ea d6bc 9b26 a7bc
00000360: eca3 84bc 6b62 29bd 6635 823a b92f 823c
00000370: a5b3 a6bc 3d00 85bb 7222 e5bc e0ba 1d3c
00000380: 90d7 efbb 7450 80bd a65a 493c c9a6 253c
00000390: c285 cabc ba46 c83c 959a 463a 3034 fbbc
000003a0: 1ac9 ea3c dbcd 6d3d e3e1 bb3c e883 993c
000003b0: 3ec0 07bb 2242 75bc b108 e4bc b066 593c
000003c0: ea83 07bb dfd4 933c 6e35 fcbc 48b9 e6bb
000003d0: a3e9 00bd aac2 85bc a1b7 9abc d5be c7bc
000003e0: 403f bc3c 54ca 4d3d 2e54 b8bc 3967 2cbc
000003f0: 59a0 d7bd 1c95 c1bc b117 1b3c b308 393d
0.02773164 0.022227352 0.012031808 0.024080666 -0.017755399 0.021628583 -0.0038297772 -0.016569452
-0.010976494 0.002040327 0.008280753 0.024873981 0.02678471 0.029649151 0.011005355 -0.016543204
0.022886256 0.012069068 -0.00072577456 -0.0030939057 0.010823584 -0.023332821 0.0085892035 -0.016495612
0.0040935436 -0.031990346 -0.033228632 0.017717095 0.008535477 -0.028288536 -0.028669463 0.02821627
-0.03624029 -0.049375962 -0.049274012 -0.06903013 -0.04674611 0.01757385 -0.004256634 -0.004618172
-0.0538934 -0.07697676 0.004166859 -0.09632539 -0.09597994 -0.0873902 -0.009975986 -0.07002262
-0.07730019 -0.04978338 -0.10389148 -0.0844791 0.017021442 0.020709818 -0.022430578 0.02631562
-0.0024974905 0.03022593 -0.055353463 -0.059287403 0.024593128 0.028760474 0.011151872 -0.0733342
-0.009864028 0.007774661 -0.034802973 -0.08384911 -0.09595619 -0.022252364 -0.020586606 -0.038421877
-0.11481269 -0.15311313 -0.12863652 -0.059080318 -0.07282119 -0.07782337 -0.08531283 -0.035220187
-0.053515233 -0.0322082 0.009991254 -0.030699031 -0.02663307 0.00032132084 0.018419545 -0.05968527
-0.101664215 -0.07161682 -0.09821717 -0.057926487 -0.06366596 -0.063146375 -0.021457596 -0.040464386
-0.09612209 -0.11982016 -0.09884955 -0.06716281 -0.099626705 -0.094714925 -0.068800256 -0.045757473
-0.012066264 0.034175795 0.015745625 -0.036701974 0.027136244 0.00904965 0.030285696 0.021184424
-0.0204064 -0.0029319525 -0.00905996 -0.005561833 0.05337342 0.04725318 -0.030046323 -0.041678097
-0.07921751 -0.04636893 -0.045269456 -0.07099347 -0.024198892 -0.04648403 -0.06381502 -0.018490884
-0.037947834 -0.033998463 -0.05136052 -0.0010793118 0.006307696 0.025351187 0.020977786 0.08385824
0.08310721 0.041955646 -0.044477463 -0.01977835 0.03443834 0.024209706 -0.11402759 -0.037570685
-0.03647429 0.039519146 -0.04205123 -0.053672012 0.0016233437 0.017432552 -0.033793893 -0.039139584
-0.018388487 -0.015859814 0.011857827 -0.024646765 -0.03745148 -0.024679258 -0.0494019 -0.058031257
-0.035999317 0.021788161 -0.02540664 0.003845808 0.06111444 -0.020642197 -0.026188795 0.063086905
-0.02035611 0.023421498 -0.023498353 -0.055334933 -0.066265225 0.0016904598 -0.029874377 -0.023824055
-0.041093487 -0.02225257 -0.048730448 -0.011856821 -0.059423313 -0.05936587 0.01792322 -0.055964544
-0.059219044 -0.03906224 -0.042740926 -0.018562367 -0.033523597 -0.00558585 -0.012231851 -0.0073623713
-0.051022746 -0.046340246 0.0069415024 -0.010718511 -0.042995617 -0.018835526 -0.016320365 -0.092596196
-0.053582847 -0.0033977483 -0.025466533 -0.009483856 0.010334835 -0.025947787 -0.041754615 0.009426124
0.0351774 0.025103502 -0.018940464 -0.03832062 0.0098813735 0.020839533 -0.026234811 -0.02040415
-0.016191445 -0.041353624 0.0009934127 0.015891897 -0.020349333 -0.0040588663 -0.027970526 0.009627074
-0.007319398 -0.06265345 0.012289679 0.010110565 -0.024721984 0.024447788 0.0007576135 -0.030664533
0.028660346 0.058057647 0.02293486 0.018739656 -0.002071395 -0.014969381 -0.027836176 0.0132691115
-0.0020677992 0.01804584 -0.030787196 -0.00704113 -0.031472813 -0.016328175 -0.01888639 -0.024382988
0.022979379 0.050241783 -0.022501078 -0.010522657 -0.10528631 -0.023630671 0.009466098 0.04517431

fc_input.fc.0.bias f4 [50]
00000000: 862c b7bc bfc8 fabc 6301 923b 99b3 723c
00000010: 3d7d 99bc 3ae5 e5bc dd43 a53c 3c25 4d3c
00000020: a8a4 0abd 1a4c 393c 66d0 cb3c ffa1 ad3b
00000030: c11c 91bc 496f de3c bf39 d73c e016 c63c
00000040: 5907 cc3c 821d 1dbc f46a 4dbc 86e2 ec3c
00000050: 2acc 113c 6bd3 7dbb 4850 99bc 4034 00bc
00000060: deda 59bc 70b6 dcbc 707a e23b 80b1 debc
00000070: d673 4cbc 143c bd3c 7d5f ab3c 2e95 7d3c
00000080: 0c89 9b3c 48a5 8d3c 1826 ca39 e37f 063d
00000090: 5a33 64bb e26b 35bc b71f f9bc 44f7 103d
000000a0: 5c61 d8bc 34f5 db3b e99a efbc f12c 013d
000000b0: d86a 083d 88ff 923c e050 f6bc d274 e83c
000000c0: e2cf 0e3d 3ee4 ca3c
-0.022360098 -0.030613301 0.0044557317 0.014813327 -0.018736476 -0.028063405 0.020173961 0.012521084
-0.033848435 0.011309648 0.024879646 0.0052988525 -0.017713906 0.027152674 0.026272653 0.02418083
0.024905847 -0.009589555 -0.012537707 0.028916609 0.008898774 -0.0038730751 -0.018715039 -0.007824957
-0.013296811 -0.026942462 0.0069115683 -0.027184248 -0.012478789 0.023099937 0.020919556 0.015477462
0.018986247 0.017290726 0.00038556824 0.032836806 -0.0034820647 -0.011073085 -0.03041063 0.03539206
-0.026413612 0.00671258 -0.029248672 0.031537 0.03330502 0.017944112 -0.030067861 0.028376017
0.03486622 0.024767037

fc_input.fc.1.weight f4 [50]
00000000: 8e66 7c3f 31a6 763f ab3e 8f3f 64e6 763f
00000010: 6b3b 723f 6fb3 823f a4e3 6b3f 473b 733f
00000020: 0118 863f 8e51 763f a465 6e3f 6a91 743f
00000030: 5228 783f 7206 6f3f 6d19 663f 4391 793f
00000040: 7f78 813f 9599 813f db7f 673f fa06 823f
00000050: 0937 8d3f 5db4 7f3f ebf4 863f e15f 6d3f
00000060: 39c7 723f ea20 6c3f 2cf3 823f b3dc 843f
00000070: 1114 6a3f 709f 653f bf93 5f3f d72e 833f
00000080: 60e6 623f 8683 843f 1cca 6a3f 3f4c 833f
00000090: 2b8d 6e3f 574f 763f 6437 7a3f 95cf 803f
000000a0: ebf7 7a3f 91b5 833f 0d44 7d3f 48ca 6c3f
000000b0: bb43 853f f36d 7f3f 21ee 623f 5438 8a3f
000000c0: 1dca 7e3f 4b44 843f
0.98593986 0.9634734 1.1191 0.964453 0.94621915 1.0211009 0.9214423 0.95012325
1.0476075 0.9621819 0.9312384 0.95534384 0.96936524 0.9336921 0.89882547 0.97487277
1.0114897 1.0124995 0.90429467 1.0158379 1.103242 0.9988459 1.0543493 0.92724425
0.9483524 0.9223772 1.023046 1.0379852 0.9143687 0.8969641 0.8733482 1.0248669
0.88632774 1.0352638 0.91714644 1.0257643 0.93184155 0.96214813 0.9774077 1.0063349
0.9803454 1.0289785 0.9893196 0.92496157 1.0411295 0.99777144 0.88644606 1.079844
0.9952715 1.0333341

fc_input.fc.1.bias f4 [50]
00000000: d4b0 fc3b 1580 77be ddf7 b5be 9dca 43be
00000010: 211d bfbd a222 36be 2734 48be 0595 2fbe
00000020: 362f 5bbe deff d2be 2551 5bbe 273f 72be
00000030: aa43 05be 933e 4abd 32f1 78be 11b1 15be
00000040: 65bc aebe b799 2cbe 8e6b 5dbe 48e3 02be
00000050: 83d5 51be d321 09be c306 1dbe 921c 88be
00000060: d33d bdbe 1f9c 84be f034 2dbe 4370 ed3d
00000070: a702 9abd 793b 88be b1f6 4ebe 89f2 74be
00000080: 49e0 63be da85 d2bd 8eab 28be dae0 36bd
00000090: 5754 0dbe a577 75be 86b2 45be 6b1d 7abe
000000a0: 19bc 55be 0a95 2cbe be6f 7abe 000a a7be
000000b0: 61f8 cfbd 29f8 27be b60f a1bd 1a67 2cbd
000000c0: 5d18 75be 33c6 9ebe
0.0077115092 -0.24169953 -0.35540667 -0.1912026 -0.09331728 -0.17786649 -0.19551145 -0.1714669
-0.21404728 -0.41210836 -0.21417673 -0.23656903 -0.13014093 -0.04937608 -0.24310759 -0.14618327
-0.3412811 -0.16855513 -0.2162306 -0.12782013 -0.20491605 -0.13391809 -0.1533461 -0.26584297
-0.3696123 -0.2590036 -0.16914725 0.11593678 -0.07520037 -0.26607874 -0.20211293 -0.23920645
-0.22253527 -0.102794364 -0.16471693 -0.04464803 -0.13801704 -0.23971422 -0.19306383 -0.24425285
-0.20872535 -0.16853729 -0.24456689 -0.32624817 -0.101547964 -0.1640326 -0.07864325 -0.042090513
-0.23935075 -0.3101059

fc_input.fc.1.running_mean f4 [50]
00000000: e114 0540 51ae 93bf d61c 0ec0 7375 3dbf
00000010: 3d42 0c40 012a e33f ff4d 82be 483d a63f
00000020: 3c78 1f3f 5a69 533f 4e24 2140 fd15 1dc0
00000030: 276a 8b3f 5fbc ae3f fa51 403d 453c 1ebf
00000040: 587e 853f c496 c5be 4aab 1bbf 2cb8 833f
00000050: 449f 3bbf eebb ef3d c94e 4e40 def1 3340
00000060: ea07 60c0 5253 2b40 3a11 14c0 1b99 4b40
00000070: 82e1 06c0 2e4e b43e 0db6 c3be 522e 51be
00000080: b0ba 2e40 3cc1 103e 265c 34bf 69e8 cb3f
00000090: e1df 87bf f2c6 4d3f cecb 35bf 7d28 dc3f
000000a0: 6326 203f 0010 52c0 7594 92bf 235c 4c40
000000b0: 05dc 523f de3e 0e40 d685 1a40 17a3 acbf
000000c0: d31f c23e 3b41 1ec0
2.0793993 -1.1537572 -2.22051 -0.7400734 2.1915429 1.7747194 -0.2545013 1.2987452
0.6229284 0.8258263 2.5178409 -2.454467 1.089177 1.3651236 0.04695318 -0.61810714
1.0429182 -0.38591588 -0.6080824 1.029058 -0.73289895 0.117057666 3.2235587 2.8116374
-3.500483 2.6769605 -2.3135514 3.1812198 -2.107514 0.35215896 -0.3822483 -0.20427826
2.7301445 0.14136213 -0.7045311 1.5930301 -1.0615197 0.8038169 -0.71014106 1.7199856
0.62558573 -3.2822266 -1.1451555 3.1931236 0.82366973 2.222587 2.4144187 -1.3487271
0.37914905 -2.4727314

fc_input.fc.1.running_var f4 [50]
00000000: f193 cc40 82db 0941 129c 0341 166c 8040
00000010: e875 ad40 67cd bb40 af8b a440 d99e a740
00000020: eab9 2941 e43f 0241 c640 8940 c1ef b340
00000030: 57de db40 95ef fe40 b866 d940 cc46 eb40
00000040: c33a de40 cfe1 d440 02a6 ec40 7eca 0241
00000050: db7c 9640 0fac 0241 52de 0f41 61c9 e640
00000060: 8312 0441 7a45 d740 93ee d440 5894 dc40
00000070: 36ea b640 7014 a940 6b71 7140 3afa ca40
00000080: e724 c740 e6ff ba40 e106 f540 f4c9 3641
00000090: 9572 d740 3a52 8840 dc4e cf40 525a e640
000000a0: 6b79 8b40 ce1a 3541 ec44 c140 7479 ce40
000000b0: 1ec6 2141 cb88 fb40 0df4 8140 cd78 2d41
000000c0: 8824 cf40 8bd1 f940
6.3930593 8.616091 8.225603 4.013194 5.420643 5.8688235 5.142051 5.2381406
10.607889 8.140598 4.289157 5.623017 6.870891 7.966746 6.793789 7.352392
6.944673 6.6525645 7.3952646 8.174437 4.702741 8.1670065 8.991777 7.2120824
8.254519 6.727231 6.654123 6.8931084 5.71609 5.283745 3.7725475 6.343045
6.2232547 5.8437376 7.6570897 11.424305 6.732737 4.2600374 6.4783764 7.1985254
4.3585715 11.319044 6.0396633 6.452326 10.110868 7.8604484 4.0610414 10.841992
6.4732094 7.806829

fc_input.fc_end.0.weight f4 [50, 784]
00000000: 0cd0 85bc 5264 57bc dcf7 08bc 54aa 7a3c
00000010: 622e a83c 08b8 e03b 787a 9dbb 2e60 e03c
00000020: a305 00bd e819 edbc f038 8fbc f87f 4cbc
00000030: 4ca2 dbbc dc71 d9bc 2037 2d3b a68c b33c
00000040: 9253 863c 7cbe 07bc 4080 e23b 2950 113d
00000050: 302b 9e3b ab63 0bbd 0824 7a3c c4cd 393c
00000060: a0eb 8a3a 30f0 233b 7136 0c3d ca4b 54bc
00000070: 4807 b6bb efff 0a3d 1118 f4bc 0382 053d
00000080: e09b 9a3a 605f 143c 5efa 993c c0e6 f3ba
00000090: c86f 8e3c 4bb2 0f3d e88f 82bb b2e4 47bc
000000a0: 805e 2aba b594 98bc b5ae 04bd 66d0 f33c
000000b0: d24d 3abc be1b f7bc b228 6cbc d6e7 bb3c
000000c0: f8f7 4abc 4101 e6bc 5cda cdbb 18c7 ab3c
000000d0: d413 523c 39cb 0a3d 7621 e43c a014 aa3a
000000e0: 80bb 42bb 1c74 083c 6889 693c e69c 9e3c
000000f0: 7e98 fd3c 30a5 c83c 10ef 86bc 7084 2b3c
00000100: 7c96 323c 00e0 6b39 6367 f3bc 8e1d a93c
00000110: 4001 04bd 1804 7f3c f86c 9ebb f0e1 0f3b
00000120: 8b6d 033d 7e41 eb3c 0055 afba 3855 ae3b
00000130: c0a4 2b3a b548 85bc 05b1 d5bc e04c b7ba
00000140: 98df a03c 4e84 babc 9ca0 793c 001f d93a
00000150: 1022 3b3b 27cd 00bd dcd6 18bc 3015 5dbb
00000160: 3465 673c 00b3 33bc eab6 b7bc 781a b93c
00000170: 2e48 1bbc 9a47 bdbc 5cb5 10bc 46b0 dd3c
00000180: 6821 943c 0202 ca3c 328c a03c 2ef8 67bc
00000190: 83a2 ecbc 80f4 713c 53fb dabc de6b e2bc
000001a0: 80fc 5d3b 580a 843c d248 07bd b851 6d3c
000001b0: 007b c83c 7000 683c e433 b9bb 97be 0dbd
000001c0: 3c54 663c e537 e6bc 4f3c 073d 7a3f d13c
000001d0: bc08 e8bc 8a13 af3c 3466 313c 665d ac3c
000001e0: 00d9 57bc d0ff 42bb 2240 a73c 30a5 e1bc
000001f0: 10cb 293b 428d c93c a0b4 74bb c45c 02bc
00000200: 5805 b23c 8866 673c 2889 203c 08c0 d8bb
00000210: fff5 01bd e0ca 253b dcd9 f9bb 90fb b3bc
00000220: e89c 6e3c eec6 7cbc 924d bb3c 80e1 77ba
00000230: 200d ce3b 1002 0f3b 9551 cabc eaea ff3c
00000240: 2816 d73b aefc c53c 205f d6bc 522c 04bc
00000250: e0b4 0fbc 6808 e63b 28bb f1bc 0a73 58bc
00000260: 4010 013a 8022 90b9 d4ae 0f3c 26ef 993c
00000270: 0688 56bc a2f1 883c 3c15 0cbc b273 f23c
00000280: 6a55 8bbc 5045 173c 78ce ce3c 20eb 80ba
00000290: d6c4 c33c e0e3 3d3c a0aa faba e0e7 e7ba
000002a0: fe25 d03c 8c34 cfbc d814 48bc 5070 2e3b
000002b0: cace cdbc b158 f5bc 034c 85bc e8b9 8b3c
000002c0: eec2 e03c 6450 633c 0019 23b9 bfef 0a3d
000002d0: fac9 01bd 0064 cdba e0ee 07bd 66ce 3cbc
000002e0: e045 20bb 861d 68bc e2ab 8b3c 2446 acbb
000002f0: a014 2e3c fe12 87bc 5b6d 033d 2496 c9bb
00000300: eaac 2ebc 483d fa3b e64e a03c 716a f9bc
00000310: 2306 adbc c0fd dcbc bcbb 443c 3922 123d
00000320: 684e b63c d826 573c 2b40 113d 18ae 15bc
00000330: 4ad6 8ebc 302d 333c 0823 063c 07bd 8ebc
00000340: 2ab8 e7bc 5058 283c e401 893c e0fc 713b
00000350: 1ee8 e13c 517b efbc e6a1 bb3c ce8b 1dbc
00000360: 5cf5 afbc f33d 013d 105b 81bb cea3 04bc
00000370: a22a e53c 684c 8fbb 0ab3 04bd 2398 a6bc
00000380: b7c7 103d a0f8 ea3b 1011 8f3b 96ca 0bbd
00000390: e001 7e3c bad3 8cbc c013 3a3a b484 7dbc
000003a0: 21df 0e3d 7709 103d 203f 803a 2793 96bc
000003b0: 5147 103d 8c4a 84bc 4e9d 15bc ba8e d1bc
000003c0: 988d 74bc d2b3 fe3c e0e6 daba e5f5 d0bc
000003d0: 80b6 d03c f0e9 4f3c 3451 7abc 53fb 063d
000003e0: 045b 353c c617 15bc d300 efbc d08a ba3b
000003f0: 68fa db3b c042 423c 7093 8dbb fe14 a2bc
-0.016334556 -0.013146477 -0.0083598755 0.015299398 0.02052993 0.0068578757 -0.004805859 0.027389612
-0.031255376 -0.028943017 -0.017483205 -0.012481682 -0.026810788 -0.02654355 0.0026430562 0.021917652
0.016397271 -0.008285161 0.0069122612 0.035476837 0.0048269257 -0.034030598 0.01526738 0.011340562
0.0010598786 0.002501499 0.034231607 -0.012957523 -0.005555067 0.033935484 -0.029796632 0.032594692
0.0011795722 0.009055942 0.018796142 -0.0018608198 0.017387286 0.035082143 -0.00398444 -0.012200521
-0.0006499067 -0.018625597 -0.032393176 0.029762458 -0.011371093 -0.030164596 -0.014413999 0.022937696
-0.012388222 -0.02807677 -0.006282134 0.020968959 0.01282211 0.033885214 0.027847987 0.0012976117
-0.002971381 0.008328464 0.014253952 0.019361924 0.030956503 0.02449283 -0.016471416 0.010468587
0.010900136 0.00022494793 -0.029712385 0.020643976 -0.032227755 0.015564941 -0.0048347674 0.0021954738
0.03208689 0.028717753 -0.0013376772 0.0053202175 0.0006547682 -0.016270021 -0.026085386 -0.0013984703
0.019637868 -0.022768166 0.015236046 0.0016565025 0.0028554238 -0.03144565 -0.00932857 -0.0033734553
0.01412325 -0.01096797 -0.022426087 0.02259563 -0.009477658 -0.023105431 -0.008832302 0.027061593
0.018082336 0.02465916 0.0195981 -0.014158292 -0.028886085 0.014767766 -0.026731169 -0.027639326
0.0033872426 0.016118214 -0.03302843 0.014484815 0.024472713 0.014160261 -0.005651938 -0.03460559
0.014058169 -0.028102824 0.0330165 0.025542963 -0.028324477 0.021371622 0.01082759 0.02104063
-0.013174295 -0.0029754527 0.020416323 -0.027544588 0.0025908388 0.02460349 -0.0037339106 -0.007956687
0.021731064 0.014123566 0.009798326 -0.006614689 -0.03172874 0.0025297925 -0.007624848 -0.02197054
0.014563777 -0.015428288 0.022864137 -0.00094559044 0.0062881857 0.0021821298 -0.024697104 0.031239945
0.0065639205 0.024168339 -0.026168406 -0.008067207 -0.008771151 0.007020045 -0.029508188 -0.013211021
0.0004923381 -0.00027491525 0.00876971 0.018790793 -0.013093954 0.016716782 -0.008549985 0.029596183
-0.017008502 0.009232834 0.025244936 -0.0009835698 0.02389757 0.011589974 -0.0019124337 -0.0017693006
0.025408741 -0.025293611 -0.012212001 0.0026617236 -0.025123019 -0.029949518 -0.016271597 0.01705642
0.0274367 0.013874147 -0.00015554205 0.033920046 -0.03168676 -0.0015670061 -0.033186793 -0.011523819
-0.0024455711 -0.014167195 0.017049734 -0.005257385 0.010625035 -0.016488548 0.03208671 -0.0061519314
-0.010661343 0.0076367 0.019568872 -0.030446263 -0.02112109 -0.026976466 0.01200765 0.03567717
0.022254184 0.01313182 0.035461586 -0.0091357455 -0.017436165 0.0109360665 0.008187063 -0.01742412
-0.028286058 0.010274962 0.016724534 0.0036924407 0.027576502 -0.029233607 0.022904348 -0.009615852
-0.021479301 0.03155322 -0.003947623 -0.008095695 0.02797443 -0.004373122 -0.032397307 -0.020336216
0.035346713 0.0071707517 0.0043660477 -0.034128748 0.015503377 -0.017190803 0.000709828 -0.015473533
0.03488076 0.035165276 0.0009784438 -0.018380715 0.035224263 -0.016148828 -0.009131743 -0.025580753
-0.014926337 0.031091604 -0.0016700886 -0.025507877 0.025477648 0.012690052 -0.015278149 0.032954525
0.011069063 -0.009099906 -0.029175198 0.0056928173 0.0067132004 0.011856735 -0.0043205544 -0.0197854

fc_input.fc_end.0.bias f4 [50]
00000000: 20aa a33a 0463 133c 8859 983b 6e14 52bc
00000010: 1047 60bb 3881 193c 1033 0bbb 4e4b 7bbc
00000020: 2875 373c e018 0d3c 82f9 813c a307 043d
00000030: 1078 97bc a691 02bd 3c88 4c3c 1420 583c
00000040: 04b9 193c d27f 52bc 4e00 28bc 7ede a5bc
00000050: b879 c33b 6071 133c 78dc a6bb 2402 d7bb
00000060: 41ff 033d 0814 edbb e0f6 17bb f054 e2bb
00000070: 4be8 073d b093 d93b c07c 60ba 68e1 383c
00000080: 2c24 983c c0f8 81bc d883 4d3c aa5a 25bc
00000090: d0c4 3c3c 10f1 c43b f3e4 99bc 1021 2e3c
000000a0: 0849 a03b be9f b8bc 00f8 d53c 9832 27bc
000000b0: f09a 193c 64f0 cbbb 1200 983c aea4 ed3c
000000c0: 009a b03a a528 0abd
0.0012486614 0.008995775 0.004649345 -0.012822254 -0.0034222044 0.009369187 -0.0021240152 -0.015337778
0.011197366 0.008611888 0.015866045 0.032233845 -0.018489867 -0.031877182 0.012483653 0.013191242
0.00938249 -0.012847858 -0.010253979 -0.020247694 0.0059654377 0.008999199 -0.0050922 -0.0065615345
0.03222585 -0.007235054 -0.002318792 -0.006907098 0.033180516 0.00663992 -0.0008563511 0.01128421
0.018571936 -0.015865684 0.012543641 -0.010092417 0.011521533 0.006010182 -0.01878593 0.010628
0.0048915185 -0.022537109 0.026119232 -0.010204934 0.009375319 -0.006223725 0.018554721 0.02900919
0.001347363 -0.033730168

fc_input.fc_end.1.weight f4 [50]
00000000: 0000 803f 0000 803f 0000 803f 0000 803f
00000010: 0000 803f 0000 803f 0000 803f 0000 803f
00000020: 0000 803f 0000 803f 0000 803f 0000 803f
00000030: 0000 803f 0000 803f 0000 803f 0000 803f
00000040: 0000 803f 0000 803f 0000 803f 0000 803f
00000050: 0000 803f 0000 803f 0000 803f 0000 803f
00000060: 0000 803f 0000 803f 0000 803f 0000 803f
00000070: 0000 803f 0000 803f 0000 803f 0000 803f
00000080: 0000 803f 0000 803f 0000 803f 0000 803f
00000090: 0000 803f 0000 803f 0000 803f 0000 803f
000000a0: 0000 803f 0000 803f 0000 803f 0000 803f
000000b0: 0000 803f 0000 803f 0000 803f 0000 803f
000000c0: 0000 803f 0000 803f
1.0 1.0 1.0 1.0 1.0 1.0 1.0 1.0
1.0 1.0 1.0 1.0 1.0 1.0 1.0 1.0
1.0 1.0 1.0 1.0 1.0 1.0 1.0 1.0
1.0 1.0 1.0 1.0 1.0 1.0 1.0 1.0
1.0 1.0 1.0 1.0 1.0 1.0 1.0 1.0
1.0 1.0 1.0 1.0 1.0 1.0 1.0 1.0
1.0 1.0

fc_input.fc_end.1.bias f4 [50]
00000000: 0000 0000 0000 0000 0000 0000 0000 0000
00000010: 0000 0000 0000 0000 0000 0000 0000 0000
00000020: 0000 0000 0000 0000 0000 0000 0000 0000
00000030: 0000 0000 0000 0000 0000 0000 0000 0000
00000040: 0000 0000 0000 0000 0000 0000 0000 0000
00000050: 0000 0000 0000 0000 0000 0000 0000 0000
00000060: 0000 0000 0000 0000 0000 0000 0000 0000
00000070: 0000 0000 0000 0000 0000 0000 0000 0000
00000080: 0000 0000 0000 0000 0000 0000 0000 0000
00000090: 0000 0000 0000 0000 0000 0000 0000 0000
000000a0: 0000 0000 0000 0000 0000 0000 0000 0000
000000b0: 0000 0000 0000 0000 0000 0000 0000 0000
000000c0: 0000 0000 0000 0000
0.0 0.0 0.0 0.0 0.0 0.0 0.0 0.0
0.0 0.0 0.0 0.0 0.0 0.0 0.0 0.0
0.0 0.0 0.0 0.0 0.0 0.0 0.0 0.0
0.0 0.0 0.0 0.0 0.0 0.0 0.0 0.0
0.0 0.0 0.0 0.0 0.0 0.0 0.0 0.0
0.0 0.0 0.0 0.0 0.0 0.0 0.0 0.0
0.0 0.0

fc_input.fc_end.1.running_mean f4 [50]
00000000: 0000 0000 0000 0000 0000 0000 0000 0000
00000010: 0000 0000 0000 0000 0000 0000 0000 0000
00000020: 0000 0000 0000 0000 0000 0000 0000 0000
00000030: 0000 0000 0000 0000 0000 0000 0000 0000
00000040: 0000 0000 0000 0000 0000 0000 0000 0000
00000050: 0000 0000 0000 0000 0000 0000 0000 0000
00000060: 0000 0000 0000 0000 0000 0000 0000 0000
00000070: 0000 0000 0000 0000 0000 0000 0000 0000
00000080: 0000 0000 0000 0000 0000 0000 0000 0000
00000090: 0000 0000 0000 0000 0000 0000 0000 0000
000000a0: 0000 0000 0000 0000 0000 0000 0000 0000
000000b0: 0000 0000 0000 0000 0000 0000 0000 0000
000000c0: 0000 0000 0000 0000
0.0 0.0 0.0 0.0 0.0 0.0 0.0 0.0
0.0 0.0 0.0 0.0 0.0 0.0 0.0 0.0
0.0 0.0 0.0 0.0 0.0 0.0 0.0 0.0
0.0 0.0 0.0 0.0 0.0 0.0 0.0 0.0
0.0 0.0 0.0 0.0 0.0 0.0 0.0 0.0
0.0 0.0 0.0 0.0 0.0 0.0 0.0 0.0
0.0 0.0

fc_input.fc_end.1.running_var f4 [50]
00000000: 0000 803f 0000 803f 0000 803f 0000 803f
00000010: 0000 803f 0000 803f 0000 803f 0000 803f
00000020: 0000 803f 0000 803f 0000 803f 0000 803f
00000030: 0000 803f 0000 803f 0000 803f 0000 803f
00000040: 0000 803f 0000 803f 0000 803f 0000 803f
00000050: 0000 803f 0000 803f 0000 803f 0000 803f
00000060: 0000 803f 0000 803f 0000 803f 0000 803f
00000070: 0000 803f 0000 803f 0000 803f 0000 803f
00000080: 0000 803f 0000 803f 0000 803f 0000 803f
00000090: 0000 803f 0000 803f 0000 803f 0000 803f
000000a0: 0000 803f 0000 803f 0000 803f 0000 803f
000000b0: 0000 803f 0000 803f 0000 803f 0000 803f
000000c0: 0000 803f 0000 803f
1.0 1.0 1.0 1.0 1.0 1.0 1.0 1.0
1.0 1.0 1.0 1.0 1.0 1.0 1.0 1.0
1.0 1.0 1.0 1.0 1.0 1.0 1.0 1.0
1.0 1.0 1.0 1.0 1.0 1.0 1.0 1.0
1.0 1.0 1.0 1.0 1.0 1.0 1.0 1.0
1.0 1.0 1.0 1.0 1.0 1.0 1.0 1.0
1.0 1.0

fc_hid.0.fc.0.weight f4 [30, 50]
00000000: 2965 e63d f942 1bbe d59b 833d b7b7 9f3d
00000010: abda f23d 435b 723d 8d95 37bb 16b5 42bd
00000020: e82f 8d3d 6580 723e 05f9 fdbd 2b3e 11bd
00000030: c6bd 8d3d 727f d8bc e51e 70bd 31bd a83d
00000040: 2b9e 433c b905 b0bc bcd4 09bd d3c7 bd3d
00000050: 288f 81be 0a0b 223d 93d4 923d 352f 90bb
00000060: 6e20 e63d 2409 14bd 4e91 cbbd 6223 c1bd
00000070: da6f c8bc 974d 063e 597a 993d 6ac9 b2bc
00000080: 4daf 573d b776 f73b 7c2c 12bd cfee 8e3d
00000090: b6a9 e03d 8624 0fbd ba03 7a3d 7bb4 e13c
000000a0: f9b4 2bbd 99e2 9b3d b5cf 1fbe 9540 903d
000000b0: abe0 a63c e1a8 023e adab 86bd 06af f4bd
000000c0: 212a ba3d 1d7b 253d b5bd 01be e8b6 e1bb
000000d0: 439f d4bc b58d 13be f6f8 7e3d 21cf 323d
000000e0: 4a9d bc3d f453 6fbe c318 d6bd 4958 6a3c
000000f0: 97fa 793c 5e9c 1dbe d436 e4bc 7a72 3dbd
00000100: 12ca 34bc 5636 97bd 9211 c73d 237e 963c
00000110: 1fbf 13be 8b57 9ebc 48e9 993c be28 11be
00000120: 99c6 ddbd cddb 93bd 4943 6ebd b47d 1b3c
00000130: 2dda 00bd 9756 77bd 9814 d3bb db57 933d
00000140: 895d e33c 9fc8 71bd dc9f 98bd 8f6b e6bd
00000150: 6c13 08be 3c79 9cbd a58d fbbc 365a e5bd
00000160: a6f1 dabd 5a4d 2abe 9485 c43c de73 c4bd
00000170: 8a07 e1bd 9bf6 9fbc f25e 1abe ef17 fd3d
00000180: 98c2 a0bb 1780 bf3d 374e 003d 129e 4cbd
00000190: c725 043d a428 523e 6625 a7bc 3071 d93b
000001a0: f142 4a3d 1e3d 1bbe 27af 963d 95f0 00be
000001b0: e9fc a03d 9ea0 c2bd 9172 c7bd 3912 aabc
000001c0: 4439 22be 036d a5bd 7a56 0abd 9992 8c3d
000001d0: 1533 fabd 4d0c 0abe c56e 17be 9df1 043e
000001e0: 3920 90bc 5616 7d3c dd03 a73d 8cb4 b8bd
000001f0: beb6 803d 018e 5d3a da81 c8bc 3975 033e
00000200: 8888 483d 4fc7 b8bd ba61 923b d292 033e
00000210: 4b1a 10be d23f 6a3d 4dd6 bebd 9f62 c6bd
00000220: 523d c13b 14c1 4dbe 51f2 a03d 8899 853d
00000230: c11c e2bd 040d 9cbd e37c f7bd ac0a 0bbe
00000240: 3d6c 82bc 7b3e 29be b4a7 ae3c ef44 35bd
00000250: 1949 dcbd 8852 ba3d 92b5 b13d 467e 293d
00000260: 6da0 8c3d d7fb adbb ef29 1abe 1695 1b3e
00000270: 3847 863d 127b a63c 6b5f 89bd e104 01bd
00000280: 5830 5b3c 8350 c2bd a3ab bfbd e25b 8a3c
00000290: 66c1 4dbd 4a92 26bd db35 c63c d5fc cf3c
000002a0: e7fa 343d 4d33 89bd d58d bb3d dc6f 923d
000002b0: 984c 07bc 24e3 58bd 4b04 003c 0eb5 3ebc
000002c0: e795 a8bd 45a9 b6bd d309 aebd 1bf6 2e3d
000002d0: 921e 0b3e 285c 1dbe 2152 483d 900f 74be
000002e0: 7c16 e0bd 866c 9ebe 78db febc 8ccb 293e
000002f0: bf02 b8bd 6872 d13d 0aa6 6d3c 0e36 d8bd
00000300: 669f ef3d fbc5 a4bd e62a 453d 5ded 9abd
00000310: 5460 b8bc ff16 2d3d 046a 45bd 6e61 9d3c
00000320: 0020 41bd aa17 bcbc 03bd d9bd 6a1c 1f3b
00000330: 6c4e 133d 363f 17be 992e 2dbd 2f7b e53b
00000340: 8c54 7ebd 32f8 0ebe 6ad5 4d3c 87ca 13be
00000350: 164e ad3c 5cf0 4dbe bf88 90bc 188b c03b
00000360: 196f b73d 9274 ecbd 9f69 283d c8ed a13d
00000370: 088c cfbd 285c 6c38 ab68 0dbe 3642 1f3d
00000380: bc8e 8ebc 16a7 9abb cd88 42be 3243 2039
00000390: 4da4 c53d e552 a73d 27d0 563c 74e6 98bd
000003a0: f685 443d 0421 79bc f30a 7abd fbb5 b9bc
000003b0: ccca 54bd 2a31 09be 8629 b8bd 24c1 d1bd
000003c0: 98f5 9c3d 8f6f 28be 968d a0bc 689f 23be
000003d0: 66d6 10bd 666a a1ba e884 873d 22db 34be
000003e0: 85b2 e1bd 4303 24be 31b9 b6bc dd2d 3ebe
000003f0: 5653 ec3d a26a 3cbc 50f8 f9bc 715d b9bd
0.112497635 -0.15162267 0.06426207 0.07798713 0.11858114 0.059169065 -0.0028012723 -0.04753598
0.06893903 0.23681791 -0.12401012 -0.03545968 0.06920962 -0.026427958 -0.058623213 0.082392104
0.011939566 -0.021487104 -0.033650145 0.09266629 -0.25304532 0.03956131 0.071694516 -0.0044001588
0.11236654 -0.03614153 -0.09939824 -0.09430577 -0.024467397 0.13115536 0.07494039 -0.021824557
0.052657414 0.0075519937 -0.035686955 0.06979143 0.1096987 -0.03494694 0.06103871 0.02755188
-0.041920636 0.076115794 -0.15606578 0.07043568 0.020370802 0.12759735 -0.06575713 -0.119474456
0.09090067 0.040400613 -0.12670024 -0.006888259 -0.025954848 -0.14409526 0.062249146 0.043654565
0.09209688 -0.2337187 -0.10453942 0.014303275 0.015257499 -0.1539168 -0.027858175 -0.04625175
-0.011034505 -0.07383411 0.09720148 0.018370694 -0.14428376 -0.019328853 0.018787995 -0.14175698
-0.10828895 -0.07219658 -0.058169637 0.009490419 -0.03145807 -0.060385313 -0.006441664 0.071944915
0.027754562 -0.059029218 -0.07452366 -0.11250984 -0.13288659 -0.07640311 -0.03070719 -0.11198847
-0.10690622 -0.1663107 0.023989476 -0.095924124 -0.10987766 -0.01952677 -0.15075281 0.123580806
-0.00490601 0.09350603 0.03132459 -0.049955435 0.03226259 0.20523316 -0.020403575 0.0066358075
0.049380247 -0.15160033 0.073576264 -0.12591775 0.07860739 -0.095032915 -0.09738649 -0.020760642
-0.15842158 -0.08077433 -0.033773877 0.06863899 -0.122167744 -0.13481255 -0.14788349 0.12982793
-0.01759349 0.01544722 0.08155034 -0.090188116 0.06284855 0.0008451641 -0.02447598 0.12837686
0.04895833 -0.0902239 0.0044672163 0.12848976 -0.1407253 0.05718977 -0.093182184 -0.09686779
0.0058972025 -0.20093185 0.07858718 0.065234244 -0.110406406 -0.0761967 -0.12084367 -0.1357829
-0.015920753 -0.1652774 0.021320201 -0.044255193 -0.1075613 0.09097773 0.0867721 0.04138019
0.06866536 -0.0053095627 -0.15055059 0.1519359 0.06556553 0.020322356 -0.06707653 -0.031498794
0.013378225 -0.09488013 -0.09358909 0.016889516 -0.050233267 -0.040666856 0.024195602 0.025389114
0.04418459 -0.06699238 0.09157912 0.07150242 -0.0082580075 -0.052950993 0.0078135235 -0.0116398465
-0.082317166 -0.08919004 -0.084979676 0.042715173 0.1358588 -0.15367186 0.04890645 -0.23834062
-0.109417886 -0.30942172 -0.03111051 0.16581553 -0.08984899 0.102268994 0.014504919 -0.10557185
0.11700325 -0.08045574 0.048136614 -0.07564805 -0.02250687 0.04225826 -0.048196808 0.019211497
-0.04714966 -0.022960503 -0.10631754 0.002427841 0.03596346 -0.14770207 -0.042280767 0.00700321
-0.06209235 -0.13961866 0.012563089 -0.14432727 0.021155398 -0.20111221 -0.01764333 0.0058759563
0.08956737 -0.115456715 0.041116353 0.07906681 -0.10134131 5.6352612e-05 -0.13809459 0.038881503
-0.017402045 -0.004719625 -0.18997498 0.00015283821 0.096504785 0.08170108 0.013111151 -0.074658304
0.047979318 -0.015205625 -0.0610456 -0.022669783 -0.051951215 -0.13397661 -0.08992295 -0.10241917
0.07664031 -0.16448806 -0.019598763 -0.15978777 -0.035360716 -0.0012315034 0.06617147 -0.17661718
-0.11020378 -0.16016869 -0.022305103 -0.18572183 0.115393326 -0.011500033 -0.030513912 -0.09051026

fc_hid.0.fc.0.bias f4 [30]
00000000: c68a 54bd 0bd9 11be 0c80 12be 393f 39bd
00000010: dd53 6abd 20bb 943d b50d 0b3e b608 073e
00000020: 7fb9 d5bd a7f6 bebd 4f1d b4bd 78ea 2abd
00000030: df03 823d 1596 a93c 643c fdbc 7d96 cfbc
00000040: d397 c93d 127a 0b3d 2e08 d3bd 7935 5f3d
00000050: 5563 a5bc 43e3 25bc 4bd2 ddbc cdb0 043e
00000060: 5774 f2bd 68cc bbbd 497c c8bd e5fa 51bd
00000070: 768c c63d 8fd0 eabd
-0.051890157 -0.14242952 -0.14306659 -0.04522631 -0.057208885 0.07262254 0.13579448 0.13186917
-0.10435771 -0.09324389 -0.08794653 -0.041727513 0.063483946 0.020701448 -0.030912586 -0.025340313
0.09843411 0.034051962 -0.103042945 0.054494355 -0.020188967 -0.010124984 -0.027077815 0.12958069
-0.11838596 -0.09169847 -0.097893305 -0.051264662 0.096947595 -0.11465561

fc_hid.0.fc.1.weight f4 [30]
00000000: a228 5f3f 727c 6e3f 910b 7f3f 0dd8 643f
00000010: 620f 783f 6326 853f 1857 803f 9130 513f
00000020: a587 823f 8685 4a3f b204 923f 247a 7d3f
00000030: 771a 633f 2db5 8b3f 3a6d 743f 7509 803f
00000040: 2bb8 833f edb1 823f eeee 523f 4f09 803f
00000050: 9f4d 773f 0048 833f 4db4 813f 8f99 5b3f
00000060: 705b 8c3f 5703 5f3f 1066 843f 7031 883f
00000070: 87a8 6c3f ee2b 8a3f
0.87171376 0.9315864 0.99627024 0.8939217 0.9689847 1.040234 1.0026579 0.8171473
1.0197645 0.7910999 1.1407683 0.99014497 0.8871226 1.0914665 0.95479167 1.0002886
1.0290579 1.0210549 0.8239583 1.0002841 0.96602815 1.0256348 1.0133148 0.85781187
1.0965405 0.8711447 1.0343647 1.0640087 0.9244465 1.0794656

fc_hid.0.fc.1.bias f4 [30]
00000000: 5f08 e0bd 00b5 27be 0ad7 013e 512e f9bd
00000010: 7a78 92be d5c0 9abe 0605 60be e72f aebd
00000020: f21b babe fda4 38be 2579 38be c182 0dbe
00000030: 88cc 9abd 32e9 83be a9f2 e1bd d383 15bd
00000040: 51f0 0bbe 7d2e 53be 9b73 dcbd 4209 04be
00000050: b5d7 81be 1f2d 04be cc01 e9bd b958 9dbe
00000060: 194a 7abe 0e2b 92be de6b 98bd a039 b0bd
00000070: cb11 aabc 645c 4abe
-0.10939097 -0.1637764 0.12679687 -0.12167037 -0.2860754 -0.30225244 -0.21876916 -0.085052304
-0.36349446 -0.18031688 -0.18014963 -0.1381941 -0.075585425 -0.2576385 -0.11032612 -0.03650267
-0.13665892 -0.20623203 -0.107642375 -0.12894157 -0.25359884 -0.12907837 -0.11377296 -0.30731753
-0.24442329 -0.28548473 -0.07442449 -0.08604741 -0.020760437 -0.19761807

fc_hid.0.fc.1.running_mean f4 [30]
00000000: b9a9 063e e984 50bf 99cc f4be 79a4 acbe
00000010: f7fb 38bf d367 6abe da05 1c3e a43e 01be
00000020: 924f 40be db06 b4be 0dd7 35be aeab f5be
00000030: 11e8 ed3e 21d9 82bc 350b f0be 6e71 c0bb
00000040: 6993 08be ceec 08bf cb3f 443e dbc7 a93d
00000050: 86f8 30be e5d1 34be 657f cbbd 9d4c 0a3f
00000060: e9c6 12bf ea52 5ebd 296e 21bf 9a56 763e
00000070: 09b9 fa3c aac1 9cbe
0.13150682 -0.81452805 -0.47812346 -0.33719233 -0.7225947 -0.22891168 0.15236607 -0.12621552
-0.18780354 -0.3516148 -0.17757817 -0.47982544 0.46466115 -0.015972676 -0.4688355 -0.005872897
-0.13337483 -0.53486335 0.1916496 0.082900725 -0.17282304 -0.17658193 -0.09936408 0.5402315
-0.5733476 -0.05427829 -0.63058716 0.24056473 0.03060581 -0.30616504

fc_hid.0.fc.1.running_var f4 [30]
00000000: 3e2f 2b3e 4f74 693e 978b 833e 0d7b 7f3e
00000010: 55ca 1f3e 6701 3d3e 7451 0d3e dbab 5d3e
00000020: 2af6 083e 9ad3 003e 1c9d 1e3e ed8a 353e
00000030: 028d 1b3e 2740 5a3e 9de2 383e a2ea 933e
00000040: f9f6 213e 91ce 4b3e 86b7 733e 731a 163e
00000050: 2226 353e 12cb 833e 5133 813e 75f7 f63d
00000060: 4a04 0a3e 5b75 d53d 6041 4d3e 629f 6f3e
00000070: afe4 3a3e aa40 023e
0.1671724 0.22798274 0.25692436 0.24949284 0.15604527 0.18457566 0.13800603 0.21647589
0.13375154 0.1258072 0.1548962 0.17728777 0.15190509 0.21313535 0.18055196 0.28889948
0.15816869 0.19903018 0.23800477 0.14658527 0.17690328 0.25740868 0.25234464 0.120589174
0.13478199 0.104227744 0.2004447 0.23400643 0.18251298 0.1271998

fc_hid.0.fc_end.0.weight f4 [30, 50]
00000000: 5424 b8bd baf5 b9bd f8ff c03d 760b 9d3d
00000010: 624d 863d dcea c2bd 3cde b9bd a09e dc3c
00000020: 4b7d 0d3e 2854 b63d ca21 f43d fedc e23d
00000030: 6e98 d23d 206f e43c 50db 953c 630c 9cbd
00000040: 3075 73bd 7ac3 ffbd ecf8 2a3d bb41 063e
00000050: ee0a f4bd 3c06 c83d a6bc 60bd e21d 71bd
00000060: e0c8 b3bc 36bd a03d b4c2 483d 85c4 0fbe
00000070: e0d1 c8bb f490 d2bd fcd2 debc 1848 503d
00000080: 78e1 9f3c b268 e63d c042 743c 1e8e ce3d
00000090: d045 9dbd 9bdc 05be a01c 513d f411 01be
000000a0: ee5e 46bd 2ea3 b03d 6a43 52bd 309d 25bd
000000b0: c885 9abc 8ce0 33bd 46bc eb3d 81e7 a5bd
000000c0: f17f e4bd 96ac c3bd 82a4 4dbd 3611 e2bd
000000d0: c43c 033d 7210 fdbd beeb f63d 50ac b83c
000000e0: 6fe0 023e 1019 623d 8eb0 b63d 5ff8 b7bd
000000f0: 4a7c ea3d 801c a73b 6e3a d63d bfc8 afbd
00000100: fb35 0abe 56cd e5bd f079 8d3c f8f7 883d
00000110: 3a43 babd 432b 00be 145b efbc e048 5b3c
00000120: 428f b83d a42c e6bd 182f 23bd dc94 aa3d
00000130: 6744 003e 4c5a 5f3d 40f2 0c3c c3b6 073e
00000140: c0b8 5f3c c406 fcbc bc65 103d 5266 b83d
00000150: 3217 adbd 9a99 aa3d 0422 283d 0036 cabd
00000160: 69e3 f2bd 1071 fc3c 0414 833d 1299 e5bd
00000170: c03e 13bc 1a79 a63d 7ce6 ebbd b8c5 313d
00000180: 6512 81bd 4801 c03d 111f d1bd d379 d0bd
00000190: f0b4 203c 00b0 20b9 be93 ee3d 7842 a63d
000001a0: ae6d f03d 277c 0e3e 1024 a03c 78c9 743d
000001b0: b08a 3dbc c643 9bbd ee1b 44bd e805 b73d
000001c0: 685c ed3c 3eb1 fb3d 00ce d4b9 34a0 dc3d
000001d0: 8635 dfbd b666 1dbd 34d1 793d 7cef 9ebd
000001e0: a05c 8a3b 38b3 07bd d050 c3bd 0044 bb39
000001f0: 2432 5b3d d819 c1bc a4bf 58bd 61cf 0d3e
00000200: 903b 3cbd 9c04 b33d 20ae 5b3c 2021 373c
00000210: 9bd9 81bd 7648 e3bd 0212 e93d a4e7 443d
00000220: 3893 b4bc 7a8d e93d 2421 a83d 6022 c03d
00000230: 8308 b7bd a480 5fbd 308e d4bd ce4b e83d
00000240: 32c5 813d 2cea 9dbd c4ca 5b3d 2f8c cfbd
00000250: e296 0ebd c043 d7bd 0e31 a43d c244 be3d
00000260: 046d d3bd 22da 8ebd 76c6 e63d 2097 dcbb
00000270: 56cc e13d d803 bbbd f0e3 b5bc 7ecd 1dbd
00000280: 3cb9 493d c08d 90bb 2e85 eabd 6c1d 6abd
00000290: 0247 00be 1474 dd3d 2a7f fe3d 7c3b febc
000002a0: 361e 37bd 6085 5c3c 6073 df3b 5796 0f3e
000002b0: bc69 9dbd 092c efbd 0fd6 aebd 69bd 03be
000002c0: 7eb5 923d 5eb5 f4bd cd60 013e 3825 86bd
000002d0: 76ab cfbd 4cf0 313d a0eb 163c e07e 663d
000002e0: c099 b1bd 9419 333d ea18 fabd f49f 28bd
000002f0: 4806 913c bf1a 0bbe 481e 99bd 92c9 a03d
00000300: 6e05 e0bd 504b 913d be7d e5bd a43a 323d
00000310: 2cd6 05bd 107f a3bc 2610 d73d 26a2 fabd
00000320: ecd0 853d a0cf 9d3c 4809 933c 74e1 1b3d
00000330: 7e4b b03d a0c6 c73b 1b22 0e3e fc48 57bd
00000340: c8fb 513d 063e de3d 76bd 5ebd 20dc 1c3d
00000350: 7818 b63c 10b8 5cbc 00a0 c7ba bab3 1ebd
00000360: b0a9 873d 8ec4 fa3d 43cc 0b3e 0ece ef3d
00000370: 0042 bb3b f46c cd3d 80e4 8a3b e09a 6e3d
00000380: 1038 1c3c 005f 703d d013 e53c 9a1c d9bd
00000390: fbe1 073e 1dcb 85bd 8d54 073e 7c94 99bc
000003a0: f8f9 6fbd f855 bebd c007 b73d da64 c23d
000003b0: 400b 2e3c c05f 193c 065d 06be 747a 0dbd
000003c0: 4a9b b53d a046 463c 18fd 393d c054 3ebc
000003d0: 1840 d33d da6a d13d 6ea4 bfbd ba59 0fbe
000003e0: e8ac dc3c 30c8 d93d 21ee 093e f48c 07be
000003f0: a857 b5bd e68f d73d 80e3 ebbb 5d7a 0b3e
-0.08991304 -0.09080072 0.09423822 0.076682016 0.06557728 -0.09517452 -0.09075591 0.026931107
0.13817327 0.0890277 0.11920507 0.11077307 0.1028298 0.02788502 0.018293053 -0.0761955
-0.05943793 -0.12488456 0.041741297 0.13111012 -0.11916147 0.09766814 -0.05486741 -0.05886639
-0.02194637 0.07848589 0.04901381 -0.1403981 -0.0061285347 -0.10281554 -0.027200215 0.050850004
0.019516692 0.11250438 0.014908493 0.100857005 -0.07679331 -0.13072436 0.05105269 -0.12604505
-0.048430376 0.08624874 -0.051333822 -0.04043311 -0.01886262 -0.043915316 0.1151052 -0.081007965
-0.111572154 -0.095544025 -0.050205715 -0.11038439 0.032040372 -0.12356652 0.12056683 0.022543103
0.12780927 0.055199683 0.08920394 -0.0898292 0.114494875 0.005099833 0.10460363 -0.08583211
-0.13497154 -0.11220805 0.017270058 0.06687921 -0.09094854 -0.12516503 -0.029218234 0.013384074
0.09011699 -0.11238983 -0.039839834 0.08329174 0.12526093 0.054529473 0.008602679 0.13253312
0.013654888 -0.030764945 0.03525327 0.09003891 -0.0845169 0.083300784 0.041048065 -0.09873581
-0.11859781 0.030815631 0.06400302 -0.112108365 -0.008987129 0.08128567 -0.11518571 0.04340145
-0.063023366 0.093752444 -0.102110036 -0.10179486 0.009808764 -0.00015324354 0.11649273 0.08118147
0.1173967 0.13914548 0.019548446 0.059762448 -0.01156871 -0.07581286 -0.0478782 0.089366734
0.028974727 0.12289666 -0.00040589273 0.10772744 -0.10898881 -0.03842803 0.060990527 -0.07760522
0.0042224675 -0.0331299 -0.09536898 0.00035718083 0.053514615 -0.023571894 -0.052917138 0.1384864
-0.04595524 0.087411135 0.013408214 0.011177331 -0.06340333 -0.11097805 0.11380388 0.048072472
-0.022042856 0.11403938 0.08209446 0.093815565 -0.0893717 -0.05456604 -0.103786826 0.113425836
0.0633644 -0.0771068 0.05366017 -0.1013416 -0.03481186 -0.10510969 0.08017169 0.09290458
-0.103235275 -0.06975199 0.11268322 -0.0067318827 0.11025302 -0.091315925 -0.022203416 -0.03852605
0.04924892 -0.004411429 -0.11451183 -0.057156965 -0.12527087 0.10813156 0.12426598 -0.031034224
-0.044706546 0.013459533 0.0068191737 0.14022194 -0.07686183 -0.11678321 -0.08536922 -0.12865223
0.07163523 -0.119486555 0.12634583 -0.06550068 -0.101401255 0.043442056 0.009211451 0.05627334
-0.086719036 0.043725565 -0.12211783 -0.04116817 0.01770319 -0.13584422 -0.07476479 0.078509465
-0.10938536 0.07094443 -0.11205624 0.043512955 -0.032674953 -0.019958049 0.10501127 -0.122379586
0.06533989 0.019264042 0.017948762 0.038056806 0.08608149 0.006096676 0.13880198 -0.052559838
0.051265508 0.10851674 -0.054379903 0.038295865 0.022228464 -0.013471618 -0.0015230179 -0.03874562
0.06624162 0.12244521 0.13652138 0.11709224 0.005714655 0.10030547 0.004238665 0.05825317
0.009534851 0.05868435 0.027963549 -0.106011584 0.13269798 -0.065328814 0.13215847 -0.01874756
-0.058588 -0.09293741 0.08937025 0.09491892 0.010622799 0.0093612075 -0.13121423 -0.03454061
0.0886751 0.012101799 0.045407385 -0.011616886 0.10314959 0.102254584 -0.09357534 -0.13999072
0.026937917 0.10633886 0.13469745 -0.13237363 -0.0885461 0.10525493 -0.007198751 0.13620897

fc_hid.0.fc_end.0.bias f4 [30]
00000000: 5085 9bbd 4089 c53d 3188 95bd 8a8a 993d
00000010: 8c64 8d3d 955d 87bd 522d d53d fa0e a73d
00000020: 0007 753a 78df 33bd e061 27bc 5e03 d03d
00000030: 26e2 f53d 9a1a afbd d6c9 b6bd ba18 67bd
00000040: 1e94 dabd d0e3 8abc 162b 9f3d 6a0f ff3d
00000050: 8e1e 1bbd c0cb 92bd 20c4 d8bd 786b a43d
00000060: 405e ff3b c208 babd c851 3ebd 5c08 21bd
00000070: 80cf 6b3d 8635 c7bd
-0.07593787 0.09645319 -0.07301367 0.07497127 0.069039434 -0.06609646 0.10409035 0.081571534
0.00093470514 -0.04391429 -0.010216206 0.10156892 0.12006025 -0.08549996 -0.08925216 -0.056420065
-0.10672782 -0.016954333 0.0777189 0.12454112 -0.037870936 -0.071677685 -0.10584283 0.080283105
0.007793218 -0.09083702 -0.04646471 -0.039314613 0.057570934 -0.09727006

fc_hid.0.fc_end.1.weight f4 [30]
00000000: 0000 803f 0000 803f 0000 803f 0000 803f
00000010: 0000 803f 0000 803f 0000 803f 0000 803f
00000020: 0000 803f 0000 803f 0000 803f 0000 803f
00000030: 0000 803f 0000 803f 0000 803f 0000 803f
00000040: 0000 803f 0000 803f 0000 803f 0000 803f
00000050: 0000 803f 0000 803f 0000 803f 0000 803f
00000060: 0000 803f 0000 803f 0000 803f 0000 803f
00000070: 0000 803f 0000 803f
1.0 1.0 1.0 1.0 1.0 1.0 1.0 1.0
1.0 1.0 1.0 1.0 1.0 1.0 1.0 1.0
1.0 1.0 1.0 1.0 1.0 1.0 1.0 1.0
1.0 1.0 1.0 1.0 1.0 1.0

fc_hid.0.fc_end.1.bias f4 [30]
00000000: 0000 0000 0000 0000 0000 0000 0000 0000
00000010: 0000 0000 0000 0000 0000 0000 0000 0000
00000020: 0000 0000 0000 0000 0000 0000 0000 0000
00000030: 0000 0000 0000 0000 0000 0000 0000 0000
00000040: 0000 0000 0000 0000 0000 0000 0000 0000
00000050: 0000 0000 0000 0000 0000 0000 0000 0000
00000060: 0000 0000 0000 0000 0000 0000 0000 0000
00000070: 0000 0000 0000 0000
0.0 0.0 0.0 0.0 0.0 0.0 0.0 0.0
0.0 0.0 0.0 0.0 0.0 0.0 0.0 0.0
0.0 0.0 0.0 0.0 0.0 0.0 0.0 0.0
0.0 0.0 0.0 0.0 0.0 0.0

fc_hid.0.fc_end.1.running_mean f4 [30]
00000000: 0000 0000 0000 0000 0000 0000 0000 0000
00000010: 0000 0000 0000 0000 0000 0000 0000 0000
00000020: 0000 0000 0000 0000 0000 0000 0000 0000
00000030: 0000 0000 0000 0000 0000 0000 0000 0000
00000040: 0000 0000 0000 0000 0000 0000 0000 0000
00000050: 0000 0000 0000 0000 0000 0000 0000 0000
00000060: 0000 0000 0000 0000 0000 0000 0000 0000
00000070: 0000 0000 0000 0000
0.0 0.0 0.0 0.0 0.0 0.0 0.0 0.0
0.0 0.0 0.0 0.0 0.0 0.0 0.0 0.0
0.0 0.0 0.0 0.0 0.0 0.0 0.0 0.0
0.0 0.0 0.0 0.0 0.0 0.0

fc_hid.0.fc_end.1.running_var f4 [30]
00000000: 0000 803f 0000 803f 0000 803f 0000 803f
00000010: 0000 803f 0000 803f 0000 803f 0000 803f
00000020: 0000 803f 0000 803f 0000 803f 0000 803f
00000030: 0000 803f 0000 803f 0000 803f 0000 803f
00000040: 0000 803f 0000 803f 0000 803f 0000 803f
00000050: 0000 803f 0000 803f 0000 803f 0000 803f
00000060: 0000 803f 0000 803f 0000 803f 0000 803f
00000070: 0000 803f 0000 803f
1.0 1.0 1.0 1.0 1.0 1.0 1.0 1.0
1.0 1.0 1.0 1.0 1.0 1.0 1.0 1.0
1.0 1.0 1.0 1.0 1.0 1.0 1.0 1.0
1.0 1.0 1.0 1.0 1.0 1.0

fc_hid.1.fc.0.weight f4 [20, 30]
00000000: c91d 833d 39da bebc 5b28 1dbd 2246 70bd
00000010: b711 aa3c a6df c6bc a049 64be 306e 17bc
00000020: c2e2 2f3d 11c2 edbc 607c 85bd bbd2 83be
00000030: b291 6b3c c897 16be 78cd 4cbe 0c87 993d
00000040: 44ee 843d f390 b0bd 2442 49bb f9ab 15be
00000050: 5a1e 373d d06f 3fbe ad51 933c 8cbb 5b3c
00000060: c25f dabd 48a1 dabb 82c0 3f3e 9e88 eebd
00000070: 33e0 b6bc bc28 37be fa27 54bd 6d18 75be
00000080: 872e 17bd e451 64bd 0b9d 5fbd 4d28 b23d
00000090: 6e0f 5e3c bb94 0f3d 1a8b b03c ac8c 48bc
000000a0: 65d1 97bc d3be fbbd 0769 80bd c2f4 c6be
000000b0: e06f bf3b 2551 85bc a941 433d 50bd 03be
000000c0: b742 87bd 9c9d 62bd cfc5 19be c042 8c3d
000000d0: f9e5 e9bb 4357 eebd 9599 8abe ae46 673d
000000e0: a68c 2e3c 9fb2 263d 0edb 6e3d ecf9 7bbb
000000f0: 580f d43d 3260 553e 0ec4 69be 5232 55bc
00000100: 9d6e bfbd c8e7 2b3e 742d 473c 27a9 47bb
00000110: 2420 16bd 987d 4ebe 4faf 87bb 7110 23be
00000120: 0d6e a9bd 3dd4 15be b914 393c b64f 983d
00000130: 7c3f a5ba 136b ee3d db6a a73c ca68 fbbd
00000140: faf0 563d 3220 053e 024c 04bd 4ec9 8a3d
00000150: c551 23be daee 863e ed4e fbbc 3485 febd
00000160: d959 bcbc 9977 8e3d 974c 7d3c a3f9 553d
00000170: efed 80be a42c cd3b 705d 103d af89 02be
00000180: 1be4 6d3d bee0 14be c9c7 663c b499 94bd
00000190: 39be 45bd 8afb 013e 2fab 6dbc 9a8b 9fbd
000001a0: 7fe9 5d3e b9f5 4abe aed4 31be 6e39 81be
000001b0: aef2 8c3b 7b15 c6bd 0958 5b3c 0a08 3ebe
000001c0: 323b cbbe 2dbb 10be 5982 18bd eda9 103d
000001d0: 85f3 65bb 6d76 433e b24e a2bc b847 2f3c
000001e0: 34ab ed3d 4f23 833d 2da8 c03d 70c1 0dba
000001f0: 9ca5 dabd 218e 35be 7e66 adbd 0f0a 643d
00000200: a895 92be 81be b93d 607c 6ebd 9ceb 10be
00000210: 1384 7bbd 1cfd 15be b264 a4bd 5913 a3bc
00000220: 7342 843d cb58 94bb ca2b 88bd 6c54 dabc
00000230: 77ee 913d d666 853d c5be 983c 567e af3c
00000240: 6bbd 5ebe d1ad 15bc 1315 9c3d 38aa 83bd
00000250: cd3d d4bd 8845 0abe 212c 7d3d 7b90 2a3d
00000260: 9765 2bbd fac1 d33c e64e 423e 3ac5 dfbc
00000270: 6137 e43c dad6 b5bd e8f2 04be 9f22 af3c
00000280: d084 a2bd c011 2bbe 1a71 fbbd 7fa8 f0bd
00000290: e288 1dbd 9639 73be 855c ad3d de5b 0d3e
000002a0: a423 fabd bb6d d1bd 31c2 1dbe 997c 383d
000002b0: 1587 95bd c86b 17be 0841 923d 7b76 91bd
000002c0: 8dcb 59bd d4ef 07be 2de9 56be 1dd0 1abe
000002d0: da49 ec3d e44c 393d 56c5 fdbb 2fa6 4bbe
000002e0: 7ef5 bbbd 861d be3a 723d a8bd e95c 043d
000002f0: 99a4 393c bc1a 8dbd 88ff 37be ac44 0b3e
00000300: 5d07 82bd c0b7 3fbc eac1 9c3d 65b5 033d
00000310: 840b 05be 9ef1 903d bb46 cbbd ac59 88be
00000320: 5690 e43d 109c 3f3e cbbe 473c 2bc2 993d
00000330: 0ba9 1ebe 1be0 223e da3e 95be 7e9d 23be
00000340: a03a 4cbb ad9b 443d c079 bb3c 8a2b 0dbe
00000350: 431b 7e3d 05ad 29be 6fed 7bbd 6186 1abd
00000360: c0b4 20be 919c e3bb 5719 23be f026 743c
00000370: 948e e5be 3e49 323e b22e cbbd dc25 223e
00000380: ae22 633d c78c 093d dc42 1ebd e47e 733d
00000390: 0598 bd3d 187d 19be dd48 8abb 200e a6bd
000003a0: 330c d83c 009c 17bd 52c6 0ebe 349b 833d
000003b0: c08b 54be 5150 94bd 9f3a 75bd 8786 a2bd
000003c0: 734d 19be 6b1a 46be 5b3b 50be dc19 823d
000003d0: df77 50bd 6aea 913e b698 e1bd e0ed 6bbd
000003e0: ede2 213e 471a 26be 24eb ba3d a3b7 24bd
000003f0: de85 6dbd bfbf 5ebe 6fa6 f73c 9edd a4bc
0.064021654 -0.023297416 -0.038368564 -0.058660634 0.0207604 -0.024276566 -0.2229371 -0.009242579
0.042940862 -0.029023202 -0.06517863 -0.25746712 0.014377998 -0.14706337 -0.20000255 0.07496461
0.06490758 -0.08621397 -0.003070959 -0.14616384 0.04470668 -0.18694997 0.017983282 0.013411414
-0.106627956 -0.0066720583 0.1872578 -0.116471514 -0.022323703 -0.17886633 -0.051795937 -0.23935099
-0.036909606 -0.05574216 -0.054593127 0.08699093 0.013553483 0.03505395 0.021550704 -0.01224057
-0.018532464 -0.12292256 -0.062700324 -0.3885861 0.005842194 -0.016274044 0.04767004 -0.12865186
-0.06604522 -0.05532609 -0.15016864 0.06848669 -0.0071380106 -0.116377376 -0.270703 0.05646389
0.01065365 0.04069769 0.058314376 -0.0038448526 0.10354489 0.20837477 -0.22828695 -0.013012486
-0.0934727 0.16787636 0.012156833 -0.0030465813 -0.036651745 -0.20165098 -0.0041407715 -0.1592424
-0.08272944 -0.14631744 0.011296445 0.07437079 -0.0012607421 0.116415165 0.020436695 -0.12275846
0.052475907 0.13000563 -0.03229905 0.06776677 -0.15949161 0.26354104 -0.030677283 -0.1242775
-0.022992061 0.06956405 0.015460155 0.052240025 -0.2518153 0.006261425 0.03524536 -0.12747835
0.058078866 -0.14538857 0.014085718 -0.07255879 -0.048277114 0.12693611 -0.014506145 -0.07790299
0.21671103 -0.19820298 -0.17366287 -0.25239128 0.0043013906 -0.09672066 0.013387688 -0.18557754
-0.396936 -0.14133902 -0.037233684 0.035318304 -0.0035087776 0.19088145 -0.019812915 0.010698251
0.1160492 0.06403219 0.09407077 -0.00054075476 -0.10676119 -0.17729999 -0.084668145 0.055673655
-0.28629804 0.09069539 -0.058224082 -0.14152378 -0.061405253 -0.14647335 -0.080270186 -0.019906687
0.06457987 -0.0045271865 -0.06648977 -0.026651584 0.07125562 0.06513755 0.018645654 0.021422546
-0.21751945 -0.009135679 0.07621207 -0.06428951 -0.1036335 -0.13503087 0.061809663 0.041641694
-0.04184493 0.025849331 0.1897541 -0.027315725 0.027858438 -0.0887887 -0.12983286 0.021378813
-0.07935488 -0.1670599 -0.12277432 -0.11750888 -0.03846062 -0.23752436 0.08464912 0.13804576
-0.12213829 -0.102260076 -0.1540611 0.0450407 -0.073011555 -0.14787209 0.0714131 -0.071026765
-0.053172637 -0.13275081 -0.20987387 -0.15118451 0.115375236 0.045239344 -0.0077444715 -0.19887613
-0.09177683 0.0014504648 -0.08214845 0.03231517 0.011330747 -0.06889865 -0.17968571 0.13600415
-0.06349061 -0.011701524 0.07654174 0.032155413 -0.12992674 0.07077335 -0.099256 -0.26630914
0.111603424 0.18711877 0.012191485 0.07507738 -0.15494172 0.15905802 -0.29149514 -0.15978047
-0.0031162873 0.048000026 0.022885203 -0.1378614 0.062037718 -0.16569908 -0.06150573 -0.03772581
-0.1569395 -0.0069461544 -0.15927635 0.014901862 -0.4483534 0.17410752 -0.09921016 0.15834755
0.055452995 0.03358152 -0.03863798 0.059447184 0.09257511 -0.14989126 -0.0042201118 -0.08108163
0.026373005 -0.037014008 -0.1394284 0.06426087 -0.20756435 -0.07241882 -0.05987036 -0.07935815
-0.14970951 -0.19346015 -0.20335142 0.063525885 -0.050895568 0.28499156 -0.110154554 -0.057599902
0.15809222 -0.16220962 0.09126881 -0.040214192 -0.057988994 -0.21752833 0.030230729 -0.020125207

fc_hid.1.fc.0.bias f4 [20]
00000000: 6e38 37be 1cc2 12be 450f 173e 39a8 d63d
00000010: 9880 153e 2c54 0bbe e1ff 343e d058 9d3d
00000020: b478 5dbd a948 a63d e269 1f3e f89e 2f3e
00000030: 5873 89bd 928d 2cbe c39b 69bd 8457 8dbd
00000040: 1abf d83d 62df 39be 87ec fbbd 47e3 57bb
-0.1789262 -0.1433186 0.14751919 0.10481305 0.14599836 -0.13606328 0.17675735 0.07682955
-0.05407019 0.081193276 0.15567735 0.17150486 -0.06711453 -0.1685088 -0.05703331 -0.06901458
0.10583325 -0.1815162 -0.123009734 -0.0032941864

fc_hid.1.fc.1.weight f4 [20]
00000000: 8ee0 7f3f 9aa0 873f a8b8 633f de61 753f
00000010: 808e 793f 8b7f 8d3f 9701 6a3f 4363 773f
00000020: 730e 773f 9c5b 6c3f 7096 513f 3fb9 983f
00000030: 6baf 653f 56d9 863f 20c9 683f 99f6 7d3f
00000040: 6546 663f 90ba 763f 0cd2 973f 0277 683f
0.9995202 1.0595887 0.8895364 0.9585246 0.9748306 1.1054548 0.91408676 0.96635836
0.9650642 0.92327285 0.81870174 1.1931533 0.8972079 1.0535076 0.9093189 0.99204403
0.89951164 0.9637842 1.1860976 0.9080659

fc_hid.1.fc.1.bias f4 [20]
00000000: 558c ffbd 1efe b03d 21b3 13be 4a57 46be
00000010: b171 86be 49e9 96be 6366 36be 7a4c 69be
00000020: 1871 f8bd 78c2 f53d 20e1 5b3d b83d c1bd
00000030: a3b1 cdbb c02e 95be f935 fdbd 9dfa 05be
00000040: c7fe 1c3d 1634 6fbe c108 59bb d113 b2be
-0.12477938 0.08642219 -0.14423801 -0.19369236 -0.26258615 -0.29474857 -0.17812495 -0.2278308
-0.12130946 0.119999826 0.053681493 -0.094356 -0.0062772795 -0.2913723 -0.1236381 -0.13083883
0.038328912 -0.23359713 -0.003311679 -0.34780744
