mlp/saved_model/model.pth (torch, 352509 bytes, 48 tensors)

fc_input.fc.0.weight f4 [50, 784]
00000000: d14b 08bd 1c0a d3bc 4aa9 db3c a84d 90bc
00000010: 9261 0abd 5ae6 cb3c 04c9 dd3c 25be 0cbd
00000020: 8e6d 5ebc 0634 873c 58c2 a3bc 70b1 923c
00000030: 30c8 c73c 3758 b73d 68d4 503d ec5d 7f3c
00000040: d03f e03c 0eff cf3c 1a79 bfbc 487b c43b
00000050: fc4f f9bc 904b f5bc 80cf 3a3b 2260 253b
00000060: f0ef bc3b 8867 8abc 5982 a9ba 0068 2bbc
00000070: 7c99 d43c 7829 02bd 405e 11bd 2863 dc3b
00000080: ac8d ea3c 885e b1b9 e38a e83c 9179 84bc
00000090: 89e3 cf3c f7ad e23a 15f8 85bc 4337 ddb9
000000a0: 6104 e43c 27b1 c1ba da3d 903d 64b9 273d
000000b0: 0551 963c ade3 543c 9da5 19bd d703 6ebd
000000c0: 49d4 57bd b308 1c3d de05 843d 8aca 183d
000000d0: eaea 6ebc 8eea eabc 725e 30bc f03a 31bb
000000e0: 5e79 0d3c df81 05ba 098a 9cbc e72d 66b8
000000f0: f664 18bd f078 2e3c 604f 233d 5e6b 1d3d
00000100: 666c 92bc 2fa2 8d3c 13bf 083d 222b 75bb
00000110: 59e6 d33c 81b2 303d 1b60 18bc e38f 433b
00000120: bb1c 7c3a 3a4e 13bc f6a5 2fba a74d d4bc
00000130: ae37 9cbc 11ff 163c 5a46 58bd ed09 9e3a
00000140: 4e43 b93c 6c53 083d 7861 adbb 800d 24bc
00000150: feca a23c b010 033c 62b3 603d 586c d8ba
00000160: 7b76 183d 04d3 333d 7a8c 3fbc 7a63 c63b
00000170: dd6a 96bd b230 0a3d 5e27 263c d4ee febc
00000180: 82e2 dc3a 9943 03bd d6d2 63bd 89ab 993c
00000190: e0b0 9a3b ce7f 77bd 9919 c1bc 2804 1fbd
000001a0: 8ab0 47bd 59f1 31bd 775d a13c 8cee f9bb
000001b0: dff5 5e3d 34b3 643d 80c5 213d c41b 2bbc
000001c0: dc16 06bd 29b8 da3c 6fcf b03d c6c5 84bd
000001d0: 4e27 8bbd 1f71 81bc 8a5e a5bb edc6 80bb
000001e0: 758c 5dbd 40a4 dcbc 6a2f 89bc 49b5 e33c
000001f0: 441c 14bd c55d 2abb 6678 23bb a923 043a
00000200: 5290 963c fa98 09bc 64ed 41bc 95fd 05bd
00000210: 95f9 35bd 9d46 3bbd e395 0ebb e7dd 88bc
00000220: c516 af3c 52a3 58bb ff73 86bd 1cd1 eabd
00000230: 92fc bdbc 408d 473b a870 d13d f492 343c
00000240: 795c f73c fd5d 8fbd 793f e7bd 7541 7dbd
00000250: bca5 96bd 809e aabb 3653 acba 1f9f 6c3c
00000260: b5c0 953b f7af 88bb 8166 d33c 0871 2f3c
00000270: 2d5f a63c a23a 1d3d bbad 903d b190 873c
00000280: e3fe d03c 390f 90bc a243 36bd d14e 02bd
00000290: ce6c 16bd 82de aabb 9e6e ce3c 07ce bfbc
000002a0: 209d 8b3c 8ee0 953d a3f0 89bc 7d0f 9b3c
000002b0: 7383 133d 5d5d bbbc c7ee 14bd d0a3 60bd
000002c0: 8579 09bd cf86 a2bc 8209 debc 3ed8 a4bc
000002d0: 4a9e 81bb 16ac 253b a82b 353b 41e8 c93c
000002e0: 29f0 acbb 095c 083c 4872 ec3c fc0e b838
000002f0: b755 cb3c a0b6 08bd ed25 02bd dec8 d83c
00000300: 1919 5d3d b8cd 813d 528b ec3d 8775 633d
00000310: 739c 993b 9c83 a2bc 63f6 23bd b8cf abbd
00000320: e892 cfbc a027 9abd 499d 05bd a90c 5c3c
00000330: 9a72 3c3c 8644 74bc 0b32 53bd 02ea e63c
00000340: a87f 9dbc 91ee 2e3c ed04 b03a 15f3 053c
00000350: 9e10 f9bb 5220 9ebc f3f2 c43c db0e d5bc
00000360: 89c3 8cbd f669 d9bc 29f7 3cbc 9b84 81bd
00000370: 7692 873b cc52 15bd 07af 6a3d 60af 713d
00000380: de31 18bd cf22 2abd 825f ccbc 53be 32bd
00000390: 5f59 a0bd b2e1 94bd 33bb a4bc d3bd 82bc
000003a0: 4618 01bc dcaa 67bc f7f4 f33b b8ef 04bd
000003b0: bc23 3cbc 3476 31bc c7f6 c33b d2af 61bd
000003c0: a5ab b7bd f083 86bd 00a3 7ebd 0d43 7abd
000003d0: 9865 10bd c914 febc 83ae 6ebd 3f47 30bd
000003e0: eaf5 a03c 14d1 9abc 5885 57bd c698 293d
000003f0: dfe0 81bd fd0b 5fbd 7269 d7bc a482 9bbd
-0.03327543 -0.025761656 0.026814122 -0.017615154 -0.033784457 0.024890114 0.02707339 -0.034361023
-0.013575925 0.016504299 -0.019990131 0.017906874 0.024387449 0.089523725 0.050983816 0.015586358
0.027374178 0.025390174 -0.023373175 0.0059961416 -0.030433647 -0.029943258 0.0028505027 0.0025234302
0.0057659075 -0.01689507 -0.0012932523 -0.010461807 0.025952093 -0.03177783 -0.035490274 0.0067256875
0.028632008 -0.00033830502 0.028386539 -0.016171249 0.025377052 0.0017294277 -0.016353646 -0.00042193578
0.02783412 -0.0014777527 0.07043047 0.040948287 0.01834918 0.012993735 -0.037511457 -0.05810913
-0.052692685 0.038094234 0.064464316 0.03730253 -0.014582375 -0.028676298 -0.010764705 -0.0027043186
0.008634893 -0.00050928997 -0.019108789 -5.4879023e-05 -0.03720566 0.010648951 0.03987062 0.03843247
-0.017873954 0.01728925 0.033385348 -0.0037409742 0.025866674 0.043138985 -0.009300257 0.0029840402
0.0009617318 -0.008990819 -0.00067004503 -0.025915934 -0.019069519 0.009216086 -0.052801467 0.0012057401
0.022615101 0.033282682 -0.00529116 -0.010012984 0.019872185 0.007999584 0.054858573 -0.0016511781
0.037222367 0.043902412 -0.011691207 0.006054339 -0.07344601 0.033737846 0.010141222 -0.031119741
0.0016852173 -0.032046888 -0.05562099 0.018758552 0.004720792 -0.06042462 -0.023571776 -0.038822323
-0.048752345 -0.043443058 0.019697888 -0.007627314 0.0544337 0.055834964 0.03949499 -0.010443632
-0.032736644 0.026699143 0.08633315 -0.06483035 -0.06794606 -0.01580101 -0.0050466703 -0.003929964
-0.05408903 -0.02693379 -0.016746242 0.027796404 -0.03615977 -0.0025995832 -0.002494359 0.0005040714
0.018379364 -0.008398289 -0.0118363835 -0.032712538 -0.044427473 -0.04572164 -0.002175682 -0.016707374
0.021373162 -0.003305633 -0.06565093 -0.11465666 -0.023191724 0.0030449182 0.102265656 0.0110213645
0.030195462 -0.07000349 -0.11291403 -0.061830003 -0.0735583 -0.005206883 -0.0013147357 0.014442234
0.0045700916 -0.0041713673 0.025805714 0.010708101 0.020309055 0.038385995 0.070643865 0.016548486
0.025512164 -0.017585384 -0.044498093 -0.031813446 -0.036724858 -0.0052145133 0.02519923 -0.023413671
0.017042696 0.07318221 -0.016838377 0.018928284 0.03601403 -0.022871668 -0.03636053 -0.054843724
-0.033563156 -0.019839672 -0.027104143 -0.020122644 -0.003955637 0.0025279573 0.002764443 0.02464688
-0.0052776528 0.008322724 0.028863087 8.776595e-05 0.024821145 -0.03337729 -0.03177445 0.026462968
0.053979013 0.06338066 0.11550011 0.055532005 0.0046878397 -0.019838147 -0.040029895 -0.083892286
-0.025338605 -0.07527089 -0.032620702 0.013430753 0.0115019325 -0.014908915 -0.051561397 0.028187755
-0.01922591 0.010676996 0.0013429202 0.008175631 -0.007600858 -0.01930252 0.024041628 -0.02600806
-0.06873233 -0.026539784 -0.011533537 -0.063241206 0.0041373326 -0.036455914 0.057295825 0.05900514
-0.037156932 -0.041537102 -0.024947885 -0.04363854 -0.07829546 -0.072696105 -0.020108795 -0.015959656
-0.007879322 -0.014139857 0.0074449736 -0.032455176 -0.011483129 -0.0108314045 0.005980346 -0.055099316
-0.089682855 -0.06568134 -0.062167168 -0.0610991 -0.035253137 -0.03101577 -0.058271896 -0.043036696
0.019648511 -0.018898524 -0.0526174 0.04140546 -0.06341719 -0.054454792 -0.026295397 -0.07593277

fc_input.fc.0.bias f4 [50]
00000000: a32f 0a3c dfec bcbc 2798 47bc 12f0 303c
00000010: 5105 9cbb 0cdb dabc 2ed0 44bc 33a9 a5bc
00000020: c668 653c b9be 06bd e00c b3bc eb2c f6bc
00000030: dd6d f1bc b152 94bb ed20 49bc 082b 1fbc
00000040: 1589 d2bc 928f 293c f7ac 43bc 963a ccbc
00000050: 491d 95bb fe15 923c 2766 aa3c b46e 2c3b
00000060: 18bb 103d dc2f 023d 9ae2 6a3c 0cab a03c
00000070: d6a9 9bbc 8084 9f3c 60c5 983c 7b45 d93c
00000080: 5ee9 09bd cf2e e6bc ecdb 313b b9c7 0ebd
00000090: 3159 0abb 25b3 eb3c 8480 b7bc fa9c e6bc
000000a0: 6fb8 fc3c a18d e1bc 0467 0d3d 49a1 903c
000000b0: 596c 07bd 7510 01bd 95e6 003d ecc2 663c
000000c0: d6c5 efbc a153 d1ba
0.008434209 -0.023062168 -0.012182272 0.010799425 -0.004761376 -0.026715778 -0.0120125245 -0.020222282
0.014002031 -0.03289673 -0.021856725 -0.030050715 -0.029471332 -0.004526459 -0.0122759165 -0.009714849
-0.025700131 0.010349171 -0.0119430935 -0.02493028 -0.00455061 0.017832752 0.020800663 0.0026311101
0.035334677 0.031783924 0.014336253 0.019612812 -0.019001883 0.01947236 0.018648803 0.026522389
-0.033669822 -0.028098492 0.002713914 -0.03485844 -0.002111029 0.028771946 -0.022400148 -0.028151024
0.030849664 -0.027533354 0.03452207 0.017655032 -0.033062313 -0.031509835 0.0314699 0.014084559
-0.02926914 -0.0015970358

fc_input.fc.1.weight f4 [50]
00000000: 9d23 813f 950d 673f 6c9f 7b3f 9cc7 783f
00000010: 4061 813f 39b8 773f 74bc 6d3f fe95 763f
00000020: c058 803f 5236 703f b799 823f dc85 723f
00000030: 8d74 823f e6d7 883f 0f67 7f3f e91c 7f3f
00000040: 1dbb 7c3f 3af6 893f dbd2 6f3f 4036 7c3f
00000050: 4011 883f 296e 6d3f 4223 8a3f 6fbd 813f
00000060: b922 6e3f 62bf 703f 444b 7f3f a259 8a3f
00000070: 50df 813f d5a4 773f 4848 803f b401 813f
00000080: 0870 5e3f ac84 663f 10ed 733f c67c 7a3f
00000090: d7ca 643f aad5 7c3f 4635 6e3f a2a7 7d3f
000000a0: 8cd1 7d3f 70f0 7f3f 6f00 6b3f 8416 653f
000000b0: 603b 6b3f 0329 8d3f a77c 803f b56a 873f
000000c0: 66cb 743f a6d3 733f
1.0088993 0.902551 0.98290133 0.9717958 1.0107803 0.96765476 0.9286568 0.9632262
1.0027084 0.93832886 1.020316 0.94735503 1.0191818 1.0690887 0.9976663 0.9965349
0.9872301 1.0778267 0.93681115 0.9852028 1.0630264 0.92746216 1.079201 1.0135936
0.9302173 0.94042027 0.9972422 1.0808604 1.0146275 0.9673589 1.0022058 1.0078645
0.86889696 0.9004619 0.95283604 0.9784664 0.8937201 0.98763525 0.9305004 0.9908391
0.9914787 0.99976254 0.91797537 0.8948748 0.91887474 1.1028141 1.0038041 1.0579439
0.9562286 0.95244825

fc_input.fc.1.bias f4 [50]
00000000: 64fc 9bbe f519 80be 26c8 77be fdbe 70be
00000010: c5f5 2bbe b527 55be d990 33bd c411 a6bd
00000020: ff7d 78be 8a41 fabd e3bd 0abe 3c1f 89be
00000030: 675a 2ebe 7c5e 90be 0897 60be 7a97 f1bd
00000040: 69c6 b5bd 8089 31be efef 53be 9990 25be
00000050: 30c5 a8bd a858 cdbc 3ec6 50be 74d1 03be
00000060: d0c7 31be 6032 fbbd c9d4 40be a57d 2abe
00000070: 4d47 86be 30fc 96be 33bc 78be c74b 14be
00000080: cd66 38be 27ed acbe d264 2fbe 62d7 70be
00000090: 0c69 0f3c d655 043d f26f 41be 3df4 b9be
000000a0: 6b32 e4bd 4c40 89be 7c80 66be 9741 b2bd
000000b0: d386 e6bd 42bc f7bb 13b7 abbe 474f 39be
000000c0: aaeb 01bd 8f73 4e3c
-0.30465996 -0.25019804 -0.24197444 -0.23510356 -0.16792972 -0.20815928 -0.04383931 -0.08108857
-0.24266814 -0.12219532 -0.13548999 -0.26781642 -0.17026673 -0.28197086 -0.21932614 -0.1179647
-0.08875734 -0.17337608 -0.20696996 -0.16168441 -0.082407355 -0.025066689 -0.20388123 -0.12872869
-0.17361379 -0.12265468 -0.18831171 -0.16649492 -0.26226273 -0.2948928 -0.24290542 -0.14482032
-0.18007965 -0.33774683 -0.17128304 -0.23519662 0.0087530725 0.032308422 -0.1889036 -0.36319152
-0.11142429 -0.26806867 -0.2250995 -0.087039165 -0.112561844 -0.007560284 -0.33538112 -0.18096648
-0.031718887 0.0126007935

fc_input.fc.1.running_mean f4 [50]
00000000: 50bf 3a3f f516 47c0 c204 01bd d606 d93f
00000010: 8356 343f 1ba0 0a40 e21b 3a40 ef53 a4bf
00000020: 10ad 333f acce efbf 57e9 81bf b2f7 793e
00000030: 0edb cfbf b966 8abf 8443 05c0 44b2 ef3e
00000040: f918 1abf d640 efbf e60e 1fbf a8f6 02be
00000050: 7a74 c13f a79d b63f 685e 2dc0 cf36 d53e
00000060: 7873 c1bf dc32 883f 1a46 0ac0 4a7b 583e
00000070: 951e 3d3f 5d13 a9bf 5e52 e53f 606a 06c0
00000080: e7df 0140 2f8d 9abf 100b bc3f 202a f83f
00000090: 7a9c 6c40 2989 ccbf 010f 2ebf e45d 613e
000000a0: d5ee e23f 0f7f bebf 9fcd 663f 94bb c73f
000000b0: ecef 9b3a 29cc 883f 9615 d93e 0b47 94bf
000000c0: 2c30 6340 dcad 9a40
0.7294817 -3.1107762 -0.031498678 1.6955211 0.70444506 2.166022 2.9079518 -1.2838115
0.7018595 -1.8734946 -1.0149335 0.24410895 -1.6238725 -1.0812598 -2.0822458 0.46815693
-0.60194355 -1.8691661 -0.6213211 -0.12789404 1.5113671 1.4266862 -2.708887 0.41643378
-1.5113363 1.0640521 -2.1605287 0.21140781 0.7387479 -1.3209034 1.7915761 -2.1002426
2.029291 -1.2074336 1.4690876 1.9387856 3.6970506 -1.5979358 -0.67991644 0.22008473
1.7729136 -1.4882525 0.901575 1.5604119 0.0011897064 1.0687305 0.4239928 -1.158418
3.5498152 4.833723

fc_input.fc.1.running_var f4 [50]
00000000: f328 c740 2f8d 9240 0ad0 c640 3e72 0d41
00000010: ed1f 0a41 8391 c240 bfb3 9740 0c29 8840
00000020: 6a75 e040 947a aa40 92fc 0041 eb1a 9740
00000030: 4ee1 9640 acae af40 b430 a640 e597 1a41
00000040: f9ed d140 1543 0941 84c3 b440 cbd2 8e40
00000050: a496 1b41 28c4 0141 882b 1441 09b1 d640
00000060: b766 a040 a38d a640 3fd4 df40 60ff b640
00000070: 9294 cd40 0875 aa40 56bb 0141 8606 dc40
00000080: 4c93 c340 4d5a ce40 a4d6 c440 4b5f 1f41
00000090: 5ce4 0441 ebac 1641 fa0e d640 2a4c a640
000000a0: 05a8 c040 12a2 ec40 b1d3 c340 f541 8240
000000b0: fcbe d940 479f 3141 a9f5 f240 5da9 1041
000000c0: a072 b840 071b bb40
6.2237487 4.5797343 6.2128954 8.840391 8.632794 6.0802627 4.7406917 4.2550106
7.014333 5.327463 8.061663 4.722036 4.715003 5.4900723 5.193445 9.662084
6.5602994 8.578877 5.6488667 4.4632316 9.7242775 8.11039 9.260628 6.7091107
5.0125384 5.2047896 6.994659 5.7186737 6.424386 5.326786 8.108236 6.8757963
6.1117306 6.448523 6.1512012 9.960765 8.305752 9.417216 6.689328 5.1967974
6.02051 7.394784 6.119591 4.0705514 6.8045635 11.101386 7.592488 9.041348
5.7639923 5.847049

fc_input.fc_end.0.weight f4 [50, 784]
00000000: 008a 3cbc 0503 043d 166d a63c 05d8 f1bc
00000010: a32b 053d 5eda 9dbc 0561 033d c280 c53c
00000020: 136f 84bc b662 ca3c b091 033b 4031 c8ba
00000030: eaf3 8bbc e475 ddbb c02b 31bc ead9 e73c
00000040: b8b7 e9bb b4c9 373c e850 0a3c 867f 01bd
00000050: 4f54 023d 8349 b6bc 1c56 f4bc d5f3 a8bc
00000060: 5f70 063d ca75 01bd aaf4 70bc d0c3 5b3b
00000070: 00af d9b9 4004 76ba 34fc 4d3c e2e9 f43c
00000080: 0225 853c b67a cd3c 425d f43c 00e0 51bc
00000090: d8ee 283c 90cf 5dbb 08d1 153c 0006 5839
000000a0: 40a4 013c 6567 f5bc fc5d 133c 805e db3c
000000b0: cc6b 8fbc d12d f2bc 2055 15bc cc90 c53c
000000c0: b71a 0d3d 4abb dabc bc96 92bc b091 4b3b
000000d0: 545f 243c 56d9 df3c a067 f93a b450 7c3c
000000e0: 41e1 0a3d 883e abbc c0dc c3ba 80b5 b3b9
000000f0: 080b f6bc 30d1 c9bc 35de e0bc 8e7a c83c
00000100: e831 db3c 5071 053c 1e8a 06bd 6aba cdbc
00000110: 8468 6a3c 40e0 2e3a e07e 45bb 90fc bf3b
00000120: d0b7 c73c 12b6 913c cc92 a1bc d077 f63b
00000130: e08f 07bc 2f0a 11bd 3009 693c 206d 71bc
00000140: acbb 963c dab3 803c 66b0 dc3c c8c8 253c
00000150: 5084 d93c 9471 813c fe5d ac3c 662d cf3c
00000160: 801a 24ba 1cf2 adbc 84a8 063c 3844 0bbd
00000170: 5c09 443c a199 0f3d fe04 f4bc b2c1 ca3c
00000180: 5243 e03c 7ed0 8b3c 86e5 e63c e492 b0bb
00000190: 98c5 cdbc e0c3 4c3c 92e2 bc3c 32d8 43bc
000001a0: e82a 8d3c c000 a13c a1cb 113d 7897 77bc
000001b0: c0c3 6d3c 683c 183c eae7 b73c 78b2 99bb
000001c0: c5b9 94bc 867f f33c 085f 5c3c f528 c1bc
000001d0: 1641 ad3c be7e ffbc 1ca6 953c f8a5 67bc
000001e0: 70c8 84bb d8d9 b63c f0ca 693b 0245 ba3c
000001f0: 2ab1 80bc b3e8 94bc a058 aaba 8a76 4dbc
00000200: 9bf3 083d dc30 79bc c8a6 193c ca59 65bc
00000210: 7e14 a23c 9aed bebc c6c1 52bc 4023 b73c
00000220: 0eda ce3c 48f6 c6bb 904e 89bb 5cc0 243c
00000230: 18f8 533c 9883 5e3c 70d1 4a3b 80e0 7bbc
00000240: 14e8 9fbb 9085 acbc 16b4 e13c 16ef a43c
00000250: 265b 24bc 627f b53c c88a dcbb a46d 4c3c
00000260: b4d3 00bd a0a7 b3bc b0c9 903b 2821 473c
00000270: f839 493c e538 053d 6ad7 963c f2a9 e03c
00000280: 606f a4bc a226 e43c ba0e a2bc fcfc a6bc
00000290: 7269 02bc 4c7a b43c 4073 a63c b2d7 37bc
000002a0: b888 f63b 07a0 093d f632 a03c 363a e73c
000002b0: 883e bebc 3137 023d 1096 893b b0bc bbbc
000002c0: 181b ac3c 20a9 26bc c0f1 64ba 24cf edbb
000002d0: 6ec2 cb3c eceb cebc d32d e1bc c03b 87bb
000002e0: aa3b a63c a8e2 693c 4033 503a 7f73 0e3d
000002f0: 2ebb f33c 1a6f c9bc cc41 adbc ce01 9b3c
00000300: c03e b5bc c8bb ab3b c714 0a3d 380d 92bb
00000310: 20de fd3b 3298 803c 8000 293b 802e c8bc
00000320: e65b 2dbc 50ec 09bd 008b c9ba 5a7e 04bd
00000330: 20f5 cc3a 24ad 683c 544c 2e3c 06fe f63c
00000340: e0bc 03bb 0efb 28bc e0cf f43a 7e9d d83c
00000350: 6051 503b 62b3 8b3c 5a09 c5bc f392 fcbc
00000360: ee0c 2cbc 60f5 fb3a 8cc6 a93c f68b e13c
00000370: 5453 343c c007 4fbc 1ec0 d03c 103a a43b
00000380: 2a92 ce3c 8cd1 b13c 60bb 52bc 3881 10bd
00000390: bc98 913c 8c76 02bd 1e23 aa3c b060 5cbb
000003a0: b8cf 63bc 9098 57bb b8f7 e13b 06e8 52bc
000003b0: c0bc a4bb ca24 a33c 44e0 863c 2eab 69bc
000003c0: 0873 e53b 0aa7 19bc 30a1 bb3b 487e 823b
000003d0: 1cc8 e4bc 08d8 eabc a4d3 00bc 61de e5bc
000003e0: e44d 093c 2ac3 01bc a9fb 0a3d 4056 dbba
000003f0: 78ec ac3c 0c55 96bc 4a2a 5bbc e093 acba
-0.011507511 0.032229442 0.020315688 -0.029521951 0.03251232 -0.019269165 0.032074947 0.024109248
-0.016166246 0.024705272 0.002007585 -0.0015273467 -0.01708408 -0.0067584384 -0.0108136535 0.028302152
-0.0071324967 0.011217523 0.008442141 -0.031615756 0.031818684 -0.02225185 -0.029826216 -0.02062408
0.03282201 -0.031606473 -0.01470677 0.0033533461 -0.0004151985 -0.00093847886 0.012572337 0.02989668
0.016252998 0.025082927 0.029829625 -0.012809753 0.010310851 -0.003384564 0.009144075 0.000206016
0.007912695 -0.029956529 0.008994576 0.02677846 -0.017507456 -0.029562863 -0.009114534 0.024116896
0.034449305 -0.026700635 -0.017894141 0.0031062178 0.010032494 0.027325314 0.0019028075 0.0154001005
0.033906225 -0.02090384 -0.0014943108 -0.0003427677 -0.030034557 -0.024635881 -0.027449707 0.024472501
0.026757196 0.008144692 -0.032846563 -0.025113303 0.014307145 0.0006670989 -0.0030135438 0.005858965
0.02437964 0.017787013 -0.019723319 0.007521607 -0.008274049 -0.035410102 0.014223382 -0.01473549
0.018400036 0.01571076 0.026939582 0.010118671 0.02655235 0.015801229 0.021040913 0.025290202
-0.00062600523 -0.02123361 0.008218888 -0.034000605 0.011965122 0.03505862 -0.029787537 0.024750564
0.02737585 0.01706719 0.028185617 -0.0053886045 -0.025118634 0.012497872 0.023057256 -0.0119534
0.017232373 0.019653678 0.035594586 -0.015111797 0.0145120025 0.009291746 0.022449452 -0.0046904646
-0.018154988 0.029723894 0.013450392 -0.0235791 0.0211492 -0.031188365 0.018267684 -0.014138691
-0.0040522143 0.022320673 0.0035673939 0.022737984 -0.015709478 -0.018177366 -0.0012996383 -0.012540469
0.033435445 -0.015209403 0.009378143 -0.013998458 0.019785162 -0.023306657 -0.012863582 0.022355676
0.025250461 -0.0060718395 -0.0041902736 0.010055628 0.012937568 0.013581179 0.0030947588 -0.015373349
-0.004879961 -0.021059781 0.027551692 0.020133536 -0.010031497 0.022155467 -0.006730411 0.012477312
-0.031451896 -0.021930516 0.0044185743 0.012153901 0.012281887 0.032524962 0.018413264 0.027424786
-0.020072639 0.027850453 -0.019782413 -0.020384304 -0.00795971 0.022030972 0.020318627 -0.011220859
0.0075236224 0.03359988 0.01955555 0.028226 -0.023223177 0.031790916 0.004198797 -0.022917122
0.021009013 -0.0101721585 -0.00087335333 -0.007257359 0.024872985 -0.02525898 -0.027487671 -0.004126996
0.020292122 0.0142752305 0.0007942207 0.034778114 0.02975234 -0.02458911 -0.021149538 0.018921759
-0.022124648 0.005240891 0.03371122 -0.004457142 0.0077474266 0.015697572 0.0025787652 -0.024436235
-0.010580992 -0.03367263 -0.0015376508 -0.03234706 0.0015637018 0.014201436 0.010638315 0.030150425
-0.0020101592 -0.010313762 0.0018677674 0.026442286 0.0031786785 0.01705331 -0.02405231 -0.03083179
-0.01050113 0.0019222908 0.020724557 0.027532559 0.011006195 -0.012636125 0.025482234 0.0050118044
0.02521618 0.021706365 -0.0128620565 -0.035279483 0.017773025 -0.031851336 0.020768698 -0.0033626966
-0.0139045045 -0.003289733 0.0068959855 -0.0128727015 -0.0050273836 0.019915003 0.01646436 -0.014262004
0.007002238 -0.009378204 0.005726002 0.003982339 -0.02792745 -0.028667465 -0.007862959 -0.02806014
0.008380387 -0.007920066 0.033931408 -0.0016734079 0.02110885 -0.0183511 -0.013376782 -0.0013166629

fc_input.fc_end.0.bias f4 [50]
00000000: 66ee d63c d468 f2bb 92cc 53bc dcd1 dcbb
00000010: 402d 153a 4320 b8bc 3ed8 833c 303f 6f3c
00000020: e072 5abc 0065 8a39 2a75 46bc 3018 61bb
00000030: 20ac c3ba e264 e03c 80f7 203a ae88 85bc
00000040: 308b 093b a0bd fe3b 40bc d3ba 3b20 023d
00000050: 56d7 f93c 186e 55bc 30a1 643b c0ea 083a
00000060: 2235 d73c a6fe 10bd 8002 fa39 98cb d63c
00000070: 808e 39ba b08a 96bc ae94 b43c 0808 07bd
00000080: 7bd2 07bd b4a8 383c 386b eebb bc6b 74bc
00000090: d644 f13c b882 01bd 20aa 6bbc 2447 5e3c
000000a0: f856 653c bede ea3c a244 f03c a0f9 8ebc
000000b0: d41d d9bb 1814 13bc 5c07 223c 2cfb c2bc
000000c0: 982d b7bc 15c0 b8bc
0.026236724 -0.0073977504 -0.012927191 -0.0067388844 0.00056906417 -0.022476321 0.016094323 0.014602467
-0.013333052 0.00026396662 -0.012112895 -0.0034346692 -0.0014928617 0.027391855 0.0006140396 -0.016300526
0.0020987503 0.00777407 -0.0016154125 0.03176902 0.030498188 -0.013026737 0.0034886114 0.0005222969
0.026270453 -0.0353991 0.00047685578 0.026220128 -0.0007078424 -0.018376678 0.022043552 -0.032966644
-0.033159714 0.011270691 -0.007275965 -0.014918264 0.029451769 -0.031618804 -0.014383823 0.013566766
0.013997786 0.028670665 0.029329602 -0.017453015 -0.0066258702 -0.008976959 0.00988945 -0.023801409
-0.022360608 -0.02255253

fc_input.fc_end.1.weight f4 [50]
00000000: 0000 803f 0000 803f 0000 803f 0000 803f
00000010: 0000 803f 0000 803f 0000 803f 0000 803f
00000020: 0000 803f 0000 803f 0000 803f 0000 803f
00000030: 0000 803f 0000 803f 0000 803f 0000 803f
00000040: 0000 803f 0000 803f 0000 803f 0000 803f
00000050: 0000 803f 0000 803f 0000 803f 0000 803f
00000060: 0000 803f 0000 803f 0000 803f 0000 803f
00000070: 0000 803f 0000 803f 0000 803f 0000 803f
00000080: 0000 803f 0000 803f 0000 803f 0000 803f
00000090: 0000 803f 0000 803f 0000 803f 0000 803f
000000a0: 0000 803f 0000 803f 0000 803f 0000 803f
000000b0: 0000 803f 0000 803f 0000 803f 0000 803f
000000c0: 0000 803f 0000 803f
1.0 1.0 1.0 1.0 1.0 1.0 1.0 1.0
1.0 1.0 1.0 1.0 1.0 1.0 1.0 1.0
1.0 1.0 1.0 1.0 1.0 1.0 1.0 1.0
1.0 1.0 1.0 1.0 1.0 1.0 1.0 1.0
1.0 1.0 1.0 1.0 1.0 1.0 1.0 1.0
1.0 1.0 1.0 1.0 1.0 1.0 1.0 1.0
1.0 1.0

fc_input.fc_end.1.bias f4 [50]
00000000: 0000 0000 0000 0000 0000 0000 0000 0000
00000010: 0000 0000 0000 0000 0000 0000 0000 0000
00000020: 0000 0000 0000 0000 0000 0000 0000 0000
00000030: 0000 0000 0000 0000 0000 0000 0000 0000
00000040: 0000 0000 0000 0000 0000 0000 0000 0000
00000050: 0000 0000 0000 0000 0000 0000 0000 0000
00000060: 0000 0000 0000 0000 0000 0000 0000 0000
00000070: 0000 0000 0000 0000 0000 0000 0000 0000
00000080: 0000 0000 0000 0000 0000 0000 0000 0000
00000090: 0000 0000 0000 0000 0000 0000 0000 0000
000000a0: 0000 0000 0000 0000 0000 0000 0000 0000
000000b0: 0000 0000 0000 0000 0000 0000 0000 0000
000000c0: 0000 0000 0000 0000
0.0 0.0 0.0 0.0 0.0 0.0 0.0 0.0
0.0 0.0 0.0 0.0 0.0 0.0 0.0 0.0
0.0 0.0 0.0 0.0 0.0 0.0 0.0 0.0
0.0 0.0 0.0 0.0 0.0 0.0 0.0 0.0
0.0 0.0 0.0 0.0 0.0 0.0 0.0 0.0
0.0 0.0 0.0 0.0 0.0 0.0 0.0 0.0
0.0 0.0

fc_input.fc_end.1.running_mean f4 [50]
00000000: 0000 0000 0000 0000 0000 0000 0000 0000
00000010: 0000 0000 0000 0000 0000 0000 0000 0000
00000020: 0000 0000 0000 0000 0000 0000 0000 0000
00000030: 0000 0000 0000 0000 0000 0000 0000 0000
00000040: 0000 0000 0000 0000 0000 0000 0000 0000
00000050: 0000 0000 0000 0000 0000 0000 0000 0000
00000060: 0000 0000 0000 0000 0000 0000 0000 0000
00000070: 0000 0000 0000 0000 0000 0000 0000 0000
00000080: 0000 0000 0000 0000 0000 0000 0000 0000
00000090: 0000 0000 0000 0000 0000 0000 0000 0000
000000a0: 0000 0000 0000 0000 0000 0000 0000 0000
000000b0: 0000 0000 0000 0000 0000 0000 0000 0000
000000c0: 0000 0000 0000 0000
0.0 0.0 0.0 0.0 0.0 0.0 0.0 0.0
0.0 0.0 0.0 0.0 0.0 0.0 0.0 0.0
0.0 0.0 0.0 0.0 0.0 0.0 0.0 0.0
0.0 0.0 0.0 0.0 0.0 0.0 0.0 0.0
0.0 0.0 0.0 0.0 0.0 0.0 0.0 0.0
0.0 0.0 0.0 0.0 0.0 0.0 0.0 0.0
0.0 0.0

fc_input.fc_end.1.running_var f4 [50]
00000000: 0000 803f 0000 803f 0000 803f 0000 803f
00000010: 0000 803f 0000 803f 0000 803f 0000 803f
00000020: 0000 803f 0000 803f 0000 803f 0000 803f
00000030: 0000 803f 0000 803f 0000 803f 0000 803f
00000040: 0000 803f 0000 803f 0000 803f 0000 803f
00000050: 0000 803f 0000 803f 0000 803f 0000 803f
00000060: 0000 803f 0000 803f 0000 803f 0000 803f
00000070: 0000 803f 0000 803f 0000 803f 0000 803f
00000080: 0000 803f 0000 803f 0000 803f 0000 803f
00000090: 0000 803f 0000 803f 0000 803f 0000 803f
000000a0: 0000 803f 0000 803f 0000 803f 0000 803f
000000b0: 0000 803f 0000 803f 0000 803f 0000 803f
000000c0: 0000 803f 0000 803f
1.0 1.0 1.0 1.0 1.0 1.0 1.0 1.0
1.0 1.0 1.0 1.0 1.0 1.0 1.0 1.0
1.0 1.0 1.0 1.0 1.0 1.0 1.0 1.0
1.0 1.0 1.0 1.0 1.0 1.0 1.0 1.0
1.0 1.0 1.0 1.0 1.0 1.0 1.0 1.0
1.0 1.0 1.0 1.0 1.0 1.0 1.0 1.0
1.0 1.0

fc_hid.0.fc.0.weight f4 [30, 50]
00000000: 4561 a23d 8226 eebd ac89 cc3c 92b0 adbd
00000010: 02c2 d63c d6e5 7dbd 54aa 053d 94b5 923d
00000020: 529e 06be c1b7 ad3d d66d c7bc 1dc9 8c3b
00000030: 025a 903c f8e3 49be 9419 bdbd 249e 883d
00000040: 95cf c4bd 0831 62bd ab79 bfbd 0465 533d
00000050: 199f b6bd 78ac 173c 1b0b 0a3e 431b 733d
00000060: 58e7 08be 84eb 1fbc d130 3dbd 854f a4bc
00000070: 31e1 0bbd e182 21bc d9fd 293d 3b1d 98bd
00000080: 9531 babd 16e5 26be 3b76 d1bc 9753 f1bd
00000090: 91fa 573c 4ef7 1bbe 7267 883d 2c38 9b3c
000000a0: 4bec 8b3d 260b 1dbe d28f 43bc f40f 9e3d
000000b0: f978 943d a50e e23d 1c1f 9f3d 385b 15be
000000c0: f6e0 b03d 2f02 7f3d 9fee 603e d6ee c13c
000000d0: 3ce5 f53c 7c55 843c e7d5 c0bd 2578 b33d
000000e0: d191 86bd 2051 e7bc 233e 853c 1ad1 a23d
000000f0: 31bd ce3d 94ff 7a3d 71ad cc3d 122b 463e
00000100: b0ef 223d 4c36 a6bd 1464 e33d 5404 10be
00000110: 87c7 433e b85f 92bd b972 d4bd 7302 043e
00000120: ef83 7abd 3c9a 8abd c9e6 2a3d 6a26 c53d
00000130: 841d ebbc 8090 083e 3618 d83d 7dd1 4ebc
00000140: 835c 8d3c 68e4 be3c fab3 aa3d c2d4 d43d
00000150: 5d94 d3bc 9cc4 f8bc 1a2f e8bd a1ba c9bb
00000160: fbae 04be c8f1 d43d 4495 0a3d 8443 18bd
00000170: 4344 f0bc 7bb6 54bd 71a3 f4bd aee5 8d3d
00000180: 6841 f53c 8dd5 1c3e 8061 2d3d 56e9 edbc
00000190: 7c50 ad3d 09d8 003d 8c2b a03c bbcb 97bc
000001a0: 7c82 11bd be95 1fbd c2a3 5b3d c13b 273d
000001b0: 609b 46be 8b5d 9a3d f004 263e 2ddb 53bd
000001c0: 18fb f33d 3bb9 183b 0c77 013e 09ab a03c
000001d0: 38cd dc3d 6e74 11be 2db8 363c 9948 193d
000001e0: 5b88 d0bd 7e0b b3bb 87d4 acbc e4aa 19bd
000001f0: db59 233e 8bfc e43c f8a1 05bd 3ab0 093e
00000200: d58c 14bd 5044 2fbd 55c0 88bd 4b04 613c
00000210: 9e4d d13c 3475 763d 70dd b7bc 397f 93be
00000220: 6de6 31bd 3d8a bbbc 7ae5 4bbe d2b3 3c3e
00000230: 146a 653a 5d55 1dbe 77f1 c9bd 1445 e7bd
00000240: 0a73 483d f286 79bc 0eeb 153d d076 893d
00000250: 7f27 f83d 30aa e3bd b534 c23d d4f5 293d
00000260: f79d f8bd 2310 133e 89cc 4cbe 0448 26bd
00000270: 0b8f 38bc e32e 823d 5781 ddbc 5901 da3b
00000280: bc58 0dbe fe1b 23be fc32 933b f200 b13c
00000290: ae11 5a3d 0f43 c8bd 15b5 00be 2ceb 2dbe
000002a0: ed40 f23c 72ef 003a b87a 2bbe c2f6 bfbc
000002b0: 2cbb aabd 16a6 3d3c 562d ab3d a04d ed3d
000002c0: c966 24be 09fa 323d 3686 543c ddef 71bd
000002d0: 9284 10be f695 a4bb c1f8 dcbc 1b0b ea3c
000002e0: 79a9 9fbd 113b e23c 543d 81bd 79d7 2ebe
000002f0: 31c4 babd aaf3 c3bc e435 87bd e442 58bd
00000300: bd8d a03d 0962 d53d d9d3 853d e27e 80be
00000310: e839 87bd 68cd 6eba e797 bcbd 4de6 0cbe
00000320: 402d 3cbe 0d12 9a3d e140 913d 4e53 7b3c
00000330: bf1d a7bd 4965 c0bc b487 5abc 0218 f7bd
00000340: 80cf 163e 86a6 8ebe b1ce 47be 611b 86bc
00000350: 135b 0f3d 3c13 e73d 1567 5b3d aad1 e13c
00000360: d8ea 80bd 7a7f 1a3e a553 623d fea0 cf3d
00000370: 618d 843d 4a9a 053e 9e74 03be 9714 a7bd
00000380: 25c1 363d cd08 6bbe 1a65 3c3d 5edc 893d
00000390: 5a72 69bd 55ea ca3d eb36 bfbc 667f 193e
000003a0: d84f d2bc 37df e5bc c9af 0abe 3feb ce3d
000003b0: ee2c ba3d 8bd4 ea3b 49c2 82bc dd9e 293c
000003c0: 852c 343a 0bf5 003e 3fe8 833d 4be8 d7bd
000003d0: cc76 843c 0947 ecbd ae66 ecbc 820a 0d3e
000003e0: 68f6 73be ce2f d23d b023 0e3d 2fb1 04be
000003f0: a3ad b8bc ea18 cabd 0021 e93c f64a 9e3c
0.07928709 -0.116284385 0.02496799 -0.08480944 0.026215557 -0.061986767 0.03263314 0.071635395
-0.13146332 0.08482314 -0.024344366 0.0042964355 0.017621044 -0.1971587 -0.09233394 0.06670788
-0.09609906 -0.05522254 -0.09349378 0.051610008 -0.08917064 0.009257428 0.13480799 0.05935217
-0.133695 -0.009760741 -0.046189133 -0.02005745 -0.034150306 -0.009857864 0.041501854 -0.0742745
-0.09091488 -0.16298327 -0.025569072 -0.117835216 0.013182298 -0.15231058 0.06660356 0.018947683
0.06832179 -0.15336284 -0.011936145 0.077178866 0.07249636 0.110379495 0.077696055 -0.14585578
0.08636658 0.06225794 0.21966027 0.023673456 0.030016534 0.016154043 -0.09415799 0.0876315
-0.06570781 -0.028236926 0.01626498 0.07950039 0.10094679 0.061278895 0.09994019 0.19352368
0.039779365 -0.08115825 0.11103073 -0.14064151 0.19119082 -0.07147163 -0.10373444 0.1289156
-0.061160978 -0.06767699 0.041724 0.096264675 -0.028700598 0.13336372 0.10551493 -0.012623188
0.017256027 0.023302272 0.08335109 0.10392143 -0.025827581 -0.030367188 -0.11337109 -0.006156281
-0.12957375 0.103976786 0.033833757 -0.037173763 -0.029329425 -0.05193184 -0.119452365 0.069285735
0.029938415 0.15315838 0.04232931 -0.029041927 0.08462617 0.031456027 0.019552015 -0.018529763
-0.03552483 -0.038961165 0.05362297 0.04082847 -0.19395208 0.07537373 0.16212821 -0.051722694
0.11913127 0.0023303765 0.12643069 0.019612806 0.1078133 -0.1420457 0.011152309 0.03742275
-0.10182258 -0.0054640165 -0.021097435 -0.03751649 0.15952246 0.027952453 -0.03262517 0.13446131
-0.03626712 -0.042789757 -0.066773094 0.013733934 0.025549706 0.060170367 -0.022444457 -0.28808
-0.04343264 -0.022893066 -0.19911757 0.18427971 0.00087514636 -0.15364595 -0.09860509 -0.112924725
0.048937835 -0.015229927 0.03660112 0.06712115 0.12116908 -0.11116445 0.09482709 0.041494206
-0.121395044 0.14361624 -0.19999899 -0.040596023 -0.011264573 0.06356599 -0.027039213 0.0066529927
-0.1380338 -0.15928647 0.004492162 0.021606896 0.053239517 -0.097784154 -0.12569077 -0.16984242
0.029571975 0.00049184926 -0.16746032 -0.023433093 -0.083364815 0.0115752425 0.083582565 0.115870714
-0.16054834 0.043695483 0.0129714515 -0.059066642 -0.14113072 -0.0050227595 -0.026974084 0.028569749
-0.07795996 0.027616056 -0.063105255 -0.17074384 -0.09119452 -0.023919899 -0.06602076 -0.052798167
0.078395344 0.10419089 0.06534547 -0.25096804 -0.066028416 -0.00091095874 -0.092086606 -0.13759728
-0.18376637 0.07522974 0.07092453 0.015339686 -0.081599705 -0.023485797 -0.013338018 -0.12065126
0.14727592 -0.27861422 -0.1951244 -0.016370477 0.034998965 0.112829655 0.053565104 0.027565796
-0.06294793 0.15087691 0.05525555 0.10138129 0.064722784 0.13047138 -0.12837455 -0.08158224
0.04461779 -0.22952576 0.045994855 0.06731485 -0.05699382 0.099079765 -0.023341617 0.14990005
-0.025672838 -0.028060539 -0.13543619 0.101034634 0.09090601 0.0071664504 -0.015961783 0.010352817
0.0006873089 0.12593476 0.06440782 -0.10542353 0.016169928 -0.115369864 -0.028857555 0.1377354
-0.23824465 0.10263024 0.034702003 -0.12958215 -0.022543734 -0.09868033 0.028458118 0.019322854

fc_hid.0.fc.0.bias f4 [30]
00000000: 80b3 04bd 54fb ec3d 14c1 6a3d 99db 003d
00000010: bb04 03be ab60 9bbd 754e 87bd 1bb0 b73c
00000020: 1592 e73d 996c 9c3d 0eee 8c3d e236 123e
00000030: 699c 1a3d 01d4 003e c108 10be 3c08 bcbd
00000040: f2e1 d43d 813a a93d 417b d0bd 32cb 513d
00000050: 867d b03d f388 113e 942c 173d 39b2 fdbd
00000060: 858a fd3a 7039 ab3d 7ad5 d0bc 966a 433d
00000070: bd23 8bbc c52d a0bc
-0.032397747 0.115713745 0.05731304 0.031459425 -0.12794773 -0.07586797 -0.06606761 0.02242284
0.1130716 0.07637901 0.06881343 0.14278749 0.03774682 0.12580873 -0.1406584 -0.09181258
0.10394658 0.08263112 -0.10179759 0.051219173 0.08617692 0.14212398 0.036907747 -0.12387509
0.001934365 0.08360565 -0.025492419 0.04770907 -0.016984815 -0.019553075

fc_hid.0.fc.1.weight f4 [30]
00000000: 58ad 733f 8f00 693f d2a7 6e3f d829 903f
00000010: 15d3 6d3f 2a21 673f 82f5 743f 3b22 8a3f
00000020: 4887 5e3f 366f 723f f4d7 673f 8a23 7a3f
00000030: 9a03 823f 7e66 6e3f 2896 843f f26e 7a3f
00000040: 7a68 953f 48ff 703f e709 843f 12aa 7f3f
00000050: 7a19 803f 8acd 593f 765c 803f 9dba 733f
00000060: 8237 873f 8712 783f b430 7a3f d9da 6d3f
00000070: 8490 693f 722a 5e3f
0.95186377 0.9101648 0.93224823 1.126277 0.9290021 0.9028498 0.95687115 1.0791696
0.8692517 0.94700944 0.90563893 0.9771048 1.0157349 0.9312514 1.0358324 0.9782554
1.1672509 0.9413953 1.0315522 0.9986888 1.0007775 0.8507925 1.0028217 0.95206624
1.0563815 0.9690327 0.97730565 0.9291206 0.9123614 0.86783516

fc_hid.0.fc.1.bias f4 [30]
00000000: 6bd0 7ebb 4961 7cbe a726 903d 7f2c 72be
00000010: bad3 5abd 5935 b6be 0b0c 2abe 07c9 68be
00000020: 3da2 bb3c 1907 a3bd a586 3fbe 8a91 4abe
00000030: 016f c1be cd59 bdbd 0d6b 6fbe 6430 81be
00000040: 5699 a0be c96e dfbd ad70 b2be 38a3 84be
00000050: b4ad 1ebe 6711 d2bd 42ad 9fbe 55ab 833d
00000060: 0727 5dbd e94b e8bc 94e1 f9bd 78e9 95bd
00000070: 2e21 0dbe edf8 e4bd
-0.003888155 -0.24646486 0.07038622 -0.23649786 -0.053424574 -0.35587576 -0.16606157 -0.22732936
0.02290451 -0.07960338 -0.18703707 -0.19782081 -0.37780002 -0.09245644 -0.2338068 -0.25232232
-0.31366986 -0.109098025 -0.3485159 -0.25905776 -0.1549595 -0.102572255 -0.31186873 0.06429163
-0.053992298 -0.02835651 -0.12201229 -0.07319921 -0.13782188 -0.11180291

fc_hid.0.fc.1.running_mean f4 [30]
00000000: 9abc 72be 7f68 c93e 4054 843c 744e 21bf
00000010: 9689 3ebe fc00 ecbe 48bf 10be 58fe 12bf
00000020: cf35 0a3e 57f3 68bd 399f 733e 2fa3 2d3e
00000030: dfd1 7e3d 5dbd 80be 41bc 07be 71ee 31bd
00000040: d2b3 eabc 79f3 d7be e931 813e 8740 523e
00000050: d881 873c ade9 d1be 8a44 1fbb 0604 e9be
00000060: c57d 023d 8e49 4a3e 72a7 22bf e4ed 60bd
00000070: a815 eabe bc8a 25bf
-0.23704758 0.39337537 0.016153455 -0.63010335 -0.18607172 -0.460945 -0.14135468 -0.5741935
0.13497089 -0.056872692 0.23791207 0.16956781 0.062211867 -0.25144473 -0.13255407 -0.043440286
-0.028650198 -0.42177942 0.2523339 0.20532428 0.016541407 -0.40998593 -0.0024302327 -0.45510882
0.031858224 0.19754621 -0.6353675 -0.05491437 -0.45719647 -0.64664817

fc_hid.0.fc.1.running_var f4 [30]
00000000: dc4c f83d 6577 233e 7eec 4d3e bb3a 5e3e
00000010: 4a2d 9b3e b896 df3d 5087 5d3e 2212 813e
00000020: e68f 1c3e cc11 553e 6ab4 043e 0166 223e
00000030: afac 003e 794c 303e 9de6 183e d0b2 393e
00000040: aaf0 243e 4915 503e 7f26 ef3d a3a3 ef3d
00000050: 5d77 683e fc92 3c3e 977c 263e 1488 813e
00000060: 3735 603e 8028 4e3e b0f8 4a3e 3493 6d3e
00000070: f880 4a3e a0f0 0c3e
0.12124035 0.15963514 0.20109746 0.21702091 0.3030799 0.10917419 0.21633649 0.25209147
0.15289268 0.2080757 0.12959448 0.15859224 0.12565874 0.17216672 0.14931722 0.18134618
0.16107431 0.2032062 0.116772644 0.11701133 0.22701783 0.18415445 0.16258465 0.25299132
0.218953 0.20132637 0.19821429 0.23200685 0.1977576 0.13763666

fc_hid.0.fc_end.0.weight f4 [30, 50]
00000000: 3d78 0b3e 38b5 0dbe f3f2 f3bd ac93 c93d
00000010: b047 b63d e0f7 7e3c 9673 b53d b60d 6bbd
00000020: d2b8 da3d 80be 143b 90a6 d53c 80b0 fb3c
00000030: c4de f0bd 524a a83d 00c3 9dba edf9 a3bd
00000040: 309f d53c 00d7 81ba 0297 afbd d026 b53c
00000050: a022 4f3c 54c6 333d 644b 5a3d 0a8d f73d
00000060: 18b6 e3bc 58af ef3c 57a8 0bbe 3676 37bd
00000070: d675 d63d 9c11 b23d 0f7b 9cbd 7eb7 ce3d
00000080: 5d15 e4bd f38c febd c2cc d9bd 8c9c 41bd
00000090: f60d ebbd 2635 ca3d aed9 15bd ab24 f5bd
000000a0: 0409 e1bc f8a0 a03c e14b fdbd eed3 c9bd
000000b0: 8e1b a7bd 12f3 fe3d ec57 f8bd 5600 863d
000000c0: 6ca4 533d d2d8 35bd a4ac b4bd 48de 81bc
000000d0: e7df 083e caac 6bbd 24d0 b43d 081d 213d
000000e0: a2eb 66bd b652 c4bd 4485 d8bd c6c1 96bd
000000f0: 0095 503b 0074 4abc 1067 c83d 9789 063e
00000100: 935e f0bd f2bd babd 10d9 743d 1063 30bd
00000110: 5e3b af3d 18cf 8b3c c4d2 0f3d 8c62 323d
00000120: 71cd 09be 800d 8f3b af8d 91bd 9c10 9e3d
00000130: f43c 9fbc 60fa 05be 1863 8b3c 7e36 b8bd
00000140: 66d8 f2bd 769e 69bd 22a0 df3d eb11 8bbd
00000150: 3646 893d a816 c9bd ec74 d63d 44c2 efbd
00000160: b56b 0a3e 8ebe f0bd 726d 40bd 8bae ebbd
00000170: 0321 043e 208e dcbc b1ed f1bd 648a 66bd
00000180: b8aa f93c 8948 cabd 52e6 ef3d 5d44 a9bd
00000190: 20a7 313c 0228 50bd 9ab6 d53d c896 8f3d
000001a0: 06e2 b1bd f40c 88bd b8a2 103d c8f9 273d
000001b0: b07b 4c3c e89a 2a3d 6611 a63d b59f 0ebe
000001c0: c06a e43c e8b9 c8bc 9abb 33bd 74bb 163d
000001d0: 7a34 8c3d da4f 54bd 8c01 043d d69f fe3d
000001e0: 93cf bfbd 6476 a33d 4687 56bd de22 e03d
000001f0: 5c5e b5bc bc6f adbd 4046 3e3d b093 6fbd
00000200: 348f 11bd 0a13 803d 906c 10bd 189e e53c
00000210: d11b 98bd 4ce7 0f3d 03d6 023e 939b 033e
00000220: 342b babd de6e d33d 7e46 803d 40db 48bd
00000230: 3f55 093e 417c 04be 548c 79bd ea2f d93d
00000240: e041 5c3c b899 bcbc 58ac f4bd b042 da3c
00000250: fc0e d8bc da6a ec3d bce4 35bd 3190 8abd
00000260: a1b0 eabd 8078 273c 80a6 673c b072 393c
00000270: b4dd d7bc da01 f93d 0058 f438 3079 54bc
00000280: 7c57 4c3d 7669 18bd a76c 9bbd 1ca4 673d
00000290: 0039 7f3c 2400 b6bd f071 4f3d ee45 9b3d
000002a0: b08b 4f3d aa21 78bd 67c3 0d3e 8a4f 10bd
000002b0: e06b a5bd b821 82bc 087e c93c 8c2a 69bd
000002c0: 00f4 f7ba 8686 db3d fcf0 3cbd 66b0 ff3d
000002d0: cce6 01be b862 323d 7a64 a93d 0c9a babc
000002e0: 801c a5ba 805a b1bd 509a c43d e6d6 c53d
000002f0: f804 de3c 0026 b1ba f28d a8bd 70a1 bf3c
00000300: 608d 6e3c 849e 8fbd 0e7b f13d bee7 e7bd
00000310: 40df 063d a635 29bd ec0c c0bd e255 d2bd
00000320: 61cf e2bd 145b 5b3d 6244 ea3d 8a10 e03d
00000330: 068c c33d 8a2d 14bd dc2e e0bd b6c7 9a3d
00000340: 128d ac3d a490 96bc c7e9 023e a8a8 953d
00000350: db21 08be cecd fc3d d425 c5bd 50fa 863d
00000360: ba15 96bd 2553 0c3e 34e1 19bd 324e 8d3d
00000370: 7854 f33c 4ceb 5b3d 36e8 32bd ecf7 ccbc
00000380: 90ed f6bd 88d4 ffbd de50 55bd f883 03be
00000390: e438 a7bd 3a0c d8bd 52d4 bfbd 285f d93c
000003a0: 372b 0bbe 0a46 ca3d 80d9 29bc 1ab8 bdbd
000003b0: 8052 283b a8d4 0abe b09b c5bd 967b ebbd
000003c0: de44 ed3d f80b 0fbd 19ca 83bd 1081 8c3c
000003d0: b095 0a3c b054 19bc 72fa fa3d 0071 5c3b
000003e0: 80ae 063c bc9c 5c3d f4d0 89bd b030 30bc
000003f0: efd3 0b3e 7311 c1bd 36d5 fa3d 3e70 b33d
0.13620086 -0.1383866 -0.11911573 0.09842619 0.08900392 0.015562028 0.08859937 -0.057386123
0.10679783 0.0022696555 0.0260804 0.03072381 -0.11761239 0.082173005 -0.0012036264 -0.08006654
0.026076883 -0.0009905994 -0.08573724 0.022113234 0.012642533 0.043890312 0.053294554 0.12087448
-0.02779679 0.029258415 -0.13638435 -0.04479047 0.10471694 0.08694765 -0.07640659 0.10093592
-0.11136887 -0.12429228 -0.106347576 -0.047268435 -0.11477272 0.098734185 -0.03658455 -0.119698845
-0.02747012 0.019608006 -0.123679884 -0.098548755 -0.081595525 0.12448706 -0.12126145 0.06543033
0.051670477 -0.04439623 -0.08821991 -0.015853062 0.13366662 -0.05753783 0.08828762 0.039334327
-0.05637706 -0.09586088 -0.105722934 -0.07361178 0.0031827092 -0.012356758 0.097852826 0.13138424
-0.117367886 -0.091182604 0.05977732 -0.043063223 0.08556245 0.017066523 0.03511311 0.043551013
-0.13457276 0.004365623 -0.07107102 0.07718012 -0.019438244 -0.13083792 0.017015025 -0.089947686
-0.11857681 -0.057035886 0.10919215 -0.06790527 0.06702845 -0.098187745 0.1047152 -0.11706975
0.1351765 -0.117550954 -0.046979375 -0.11507901 0.12903218 -0.02692324 -0.11812914 -0.056284323
0.030476913 -0.09877116 0.11713852 -0.082649924 0.010843068 -0.050819404 0.10435219 0.07011181
-0.08685689 -0.066430956 0.03531143 0.041009694 0.012480661 0.041651636 0.08108787 -0.13928111
0.027882934 -0.02450271 -0.043880083 0.036799863 0.068459466 -0.051833965 0.032228038 0.1243283
-0.093657635 0.079815656 -0.0523751 0.109441504 -0.02213972 -0.08468577 0.046453714 -0.058490455
-0.03553696 0.062536314 -0.035259783 0.028029487 -0.074271806 0.03513269 0.12776951 0.12852316
-0.090902716 0.103238806 0.06263445 -0.049037218 0.13411425 -0.12938024 -0.060924843 0.10604842
0.01344344 -0.023022518 -0.119469345 0.026643127 -0.026374333 0.11543818 -0.04440759 -0.067657836
-0.114594705 0.0102216005 0.014138818 0.011318848 -0.026350833 0.12158556 0.00011651218 -0.0129683465
0.04988812 -0.03720995 -0.07589083 0.05655299 0.015577555 -0.088867456 0.05064577 0.075816974
0.050670326 -0.06057898 0.13844071 -0.035232104 -0.08077216 -0.015885219 0.02459623 -0.05692534
-0.0018917322 0.10719018 -0.046128258 0.12484817 -0.12685698 0.043551177 0.082711175 -0.022778533
-0.0012596995 -0.0865984 0.09599745 0.09660129 0.027101979 -0.0013515353 -0.08230199 0.02339241
0.014560074 -0.07012656 0.11791049 -0.11323498 0.03292775 -0.04131093 -0.09377465 -0.10270287
-0.11074711 0.053553656 0.11438824 0.109406546 0.09548192 -0.036176242 -0.10946438 0.07557623
0.084253445 -0.018379517 0.12784491 0.07307559 -0.13294165 0.12343942 -0.09626356 0.06590712
-0.07328363 0.13703592 -0.037568286 0.0689968 0.029703364 0.053691193 -0.043678485 -0.025020562
-0.1205703 -0.12491709 -0.052079074 -0.12843311 -0.08165148 -0.10549207 -0.09366669 0.026534632
-0.13590704 0.0987664 -0.010366797 -0.0926363 0.002568394 -0.13557684 -0.09648836 -0.114981815
0.11585401 -0.034923524 -0.064350314 0.017151386 0.00845854 -0.00935857 0.122548 0.003363669
0.008220315 0.05386041 -0.06729308 -0.0107537955 0.13655065 -0.09427156 0.12247698 0.08761643

fc_hid.0.fc_end.0.bias f4 [30]
00000000: 40cf d93d 844e 7b3d 340d da3d 003c bebd
00000010: cccb a1bd 9677 5ebd 2d1e 0ebe 2c56 bfbc
00000020: da43 df3d 7292 5dbd 028a a8bd e28c b03d
00000030: a001 573d b333 033e b8fa 8b3c 8ede df3d
00000040: 90ac 0bbe 54f2 49bd 36aa 2bbd 4c7b efbc
00000050: 4c02 b53d e051 cabd 7ee9 ff3d 3c5f 1b3d
00000060: 6999 89bd 2288 0fbe fc7a 423d b477 52bd
00000070: a17e ebbd 4042 bb3b
0.10635233 0.061354175 0.106470495 -0.09288788 -0.07900199 -0.054313265 -0.13878699 -0.02335652
0.109016135 -0.05409474 -0.08229448 0.08620621 0.052491784 0.1281269 0.017087325 0.10931121
-0.13640046 -0.049303368 -0.041910373 -0.029233597 0.08838329 -0.09878898 0.12495707 0.03793262
-0.06718714 -0.14016774 0.04748057 -0.05138369 -0.11498762 0.0057146847

fc_hid.0.fc_end.1.weight f4 [30]
00000000: 0000 803f 0000 803f 0000 803f 0000 803f
00000010: 0000 803f 0000 803f 0000 803f 0000 803f
00000020: 0000 803f 0000 803f 0000 803f 0000 803f
00000030: 0000 803f 0000 803f 0000 803f 0000 803f
00000040: 0000 803f 0000 803f 0000 803f 0000 803f
00000050: 0000 803f 0000 803f 0000 803f 0000 803f
00000060: 0000 803f 0000 803f 0000 803f 0000 803f
00000070: 0000 803f 0000 803f
1.0 1.0 1.0 1.0 1.0 1.0 1.0 1.0
1.0 1.0 1.0 1.0 1.0 1.0 1.0 1.0
1.0 1.0 1.0 1.0 1.0 1.0 1.0 1.0
1.0 1.0 1.0 1.0 1.0 1.0

fc_hid.0.fc_end.1.bias f4 [30]
00000000: 0000 0000 0000 0000 0000 0000 0000 0000
00000010: 0000 0000 0000 0000 0000 0000 0000 0000
00000020: 0000 0000 0000 0000 0000 0000 0000 0000
00000030: 0000 0000 0000 0000 0000 0000 0000 0000
00000040: 0000 0000 0000 0000 0000 0000 0000 0000
00000050: 0000 0000 0000 0000 0000 0000 0000 0000
00000060: 0000 0000 0000 0000 0000 0000 0000 0000
00000070: 0000 0000 0000 0000
0.0 0.0 0.0 0.0 0.0 0.0 0.0 0.0
0.0 0.0 0.0 0.0 0.0 0.0 0.0 0.0
0.0 0.0 0.0 0.0 0.0 0.0 0.0 0.0
0.0 0.0 0.0 0.0 0.0 0.0

fc_hid.0.fc_end.1.running_mean f4 [30]
00000000: 0000 0000 0000 0000 0000 0000 0000 0000
00000010: 0000 0000 0000 0000 0000 0000 0000 0000
00000020: 0000 0000 0000 0000 0000 0000 0000 0000
00000030: 0000 0000 0000 0000 0000 0000 0000 0000
00000040: 0000 0000 0000 0000 0000 0000 0000 0000
00000050: 0000 0000 0000 0000 0000 0000 0000 0000
00000060: 0000 0000 0000 0000 0000 0000 0000 0000
00000070: 0000 0000 0000 0000
0.0 0.0 0.0 0.0 0.0 0.0 0.0 0.0
0.0 0.0 0.0 0.0 0.0 0.0 0.0 0.0
0.0 0.0 0.0 0.0 0.0 0.0 0.0 0.0
0.0 0.0 0.0 0.0 0.0 0.0

fc_hid.0.fc_end.1.running_var f4 [30]
00000000: 0000 803f 0000 803f 0000 803f 0000 803f
00000010: 0000 803f 0000 803f 0000 803f 0000 803f
00000020: 0000 803f 0000 803f 0000 803f 0000 803f
00000030: 0000 803f 0000 803f 0000 803f 0000 803f
00000040: 0000 803f 0000 803f 0000 803f 0000 803f
00000050: 0000 803f 0000 803f 0000 803f 0000 803f
00000060: 0000 803f 0000 803f 0000 803f 0000 803f
00000070: 0000 803f 0000 803f
1.0 1.0 1.0 1.0 1.0 1.0 1.0 1.0
1.0 1.0 1.0 1.0 1.0 1.0 1.0 1.0
1.0 1.0 1.0 1.0 1.0 1.0 1.0 1.0
1.0 1.0 1.0 1.0 1.0 1.0

fc_hid.1.fc.0.weight f4 [20, 30]
00000000: ecc5 93bd e7f2 bebc d44e dfbd bbdc ad3d
00000010: 6189 46bd 1768 2a3a 6fcd ba3d 86be 643d
00000020: 3be8 ecbc 8f03 80bd cf2c a7bd fec9 71bc
00000030: 0308 46be 9880 3d3c 6089 68be 0de8 a4bc
00000040: 62cb d4bd 0dcd 69bb f90f 3abe cf1c 1dbd
00000050: e741 07bd 8383 d43b d30b d9bc cccd e23b
00000060: 07ac babe a9af ee3c 0c29 d13d eb51 36bd
00000070: 5f0a 343c 4526 033d fdcc 0fbd 1d9d d2bd
00000080: c837 dbbd 679c 3ebe e684 95bd 9771 0abe
00000090: 2330 2bbc 8ab4 843d 81da b1bc 7187 973d
000000a0: 6624 7cbd 8053 a03d bde8 5abc e7fd 2e3d
000000b0: 5005 52bd 99c5 3cbd 6fab 8abd 166e 12be
000000c0: 359b 27be 9d64 98bd 436f 4e3d fea0 aebd
000000d0: d3a8 0d3e 6e18 66be 61f2 793d 2265 ecbc
000000e0: 9f1f 4cbd ab33 d5bd d98d 58be 39cb 0ebb
000000f0: 3343 27bd 55ed 6a3c a287 a1bd 73d3 05be
00000100: 21ee b5bd 04bf 8cbe ff6a 07bd ffa9 c13d
00000110: 1a9d 073c 24fa 2ebe 52b9 3ebe f14d 353e
00000120: e0b8 a2bd 3743 983c eecb d5bd c9ab 02bc
00000130: 9659 d1bd 9de9 bbbd 6903 3fbd 7c16 d1bd
00000140: 4d20 f53d f8a9 883d 9c18 7abe 88c7 b8bd
00000150: 61b0 443d 173c fdbd e40e b9bd 9040 36bd
00000160: 78e7 8ebd 8aa4 90bd 1f03 e6bc e28b 3abd
00000170: 16ba 3abc c4ff b4bc cdec f33c 6d79 733d
00000180: 1e1e b8bd 2abd 343e bfbb 083c 4449 6dbd
00000190: 9325 4dbe 6dc0 e63b 379b 48bd 3e6d 3b3d
000001a0: e19f 273e 6368 db3d 0cb5 c73d 7db6 553d
000001b0: 6aa5 15be 3c12 62be 77b6 053e bf4a 163d
000001c0: 8c4d 38be 64e3 d8bd 816c a33d d765 27be
000001d0: 7bc3 92be 9190 3dbd bfc2 6cbd 7439 79bc
000001e0: 30a5 fcbd 8af8 1bbd 5c3f 5f3d b9d9 42be
000001f0: d80d 99bb b194 b93d 9be6 27bc e4db 883e
00000200: 5789 3ebd 13eb 593e 38cc 8ebc 2c69 833d
00000210: 092a 1fbe f917 ac3d 026d fbbc 4fb9 673d
00000220: 4b0d 45be b21b ee3d f8ee 253e 4122 82bd
00000230: 11e2 8e3d 9fa3 dcbd c1a3 bdbd 1321 b43c
00000240: 781a 3bbc 4cbb 5dbd 0f52 2cbc 8379 363c
00000250: fc6f 8abd 6ee5 74be 2b02 8abe 5005 cabd
00000260: b645 b9bd d531 a3bd c84d cd3c 34a7 623d
00000270: 7eaa 8a3c 3b5a be3d aed7 d6bd 6a91 04bd
00000280: 10d0 fe3c 8410 62be cfc3 0ebc 8359 393d
00000290: d30f f7bc 6cc0 c43d 7cf0 b2bd b2c6 26bc
000002a0: dc11 e1bc 2b9f 14be 9233 a33c 0d06 32be
000002b0: c4c6 693e 0592 ba3c 66ff 40bd 2284 af3c
000002c0: a013 bdbc 1e8c 54be d977 5dbe c685 f83d
000002d0: 70a4 163d fdc1 853d 1902 e5bd 9a12 b43d
000002e0: 76ed 60bd 7c50 6fbd 2115 2abe a758 9d3d
000002f0: 7410 2dbe f99a b73c ee86 04bd 61db 823c
00000300: e883 423d e9c5 4bbd 5f5e fabd 7426 80be
00000310: 12f6 99be 669e 9b3d d91c 86be a34f 12bd
00000320: 7487 bf3d 6baa c13d 62df 853d fc72 3ebe
00000330: 860d 093d be1b e73c 91d7 dd3d 4315 02bd
00000340: afc9 ffba c754 43bd bd6d 9bbb 9c6c 00be
00000350: 6ddb 6d3c eb7b ec3c 14c8 093c ec61 9b3d
00000360: 1235 6b3d 22bf 053e e8d9 c1bd 5115 f7bd
00000370: 7d28 2abe aaa5 4a3c 04e3 95be 1946 e1bd
00000380: 790c c93d 6024 1f3e 02a1 a33d 8441 de3d
00000390: 2109 96bb 8438 2abe 1a95 b8bd 0692 5c3d
000003a0: 1c2e b43d 9335 023c ef6c 40be 9890 e7bd
000003b0: 9da1 b1bd ff6d 34bd 53ef 9a3c 1ee8 16bd
000003c0: bb77 d6bd 6dfb 1cbd 0e8b 0bbe b046 1c3e
000003d0: 98ed e8bd eacf 58bd 46bb e0bd ebd7 703d
000003e0: bce6 2cbe 079d 8e3d 5fba 41bc d31f 92bd
000003f0: e196 c1bd a080 8abd 6c2a 90be 7b57 113c
-0.07215485 -0.023309184 -0.10903707 0.084893666 -0.04847086 0.0006500496 0.091212146 0.05584576
-0.02891933 -0.06250679 -0.081628434 -0.014757631 -0.19338994 0.011566304 -0.22708654 -0.020130182
-0.10390355 -0.0035675198 -0.18170156 -0.038357552 -0.033021834 0.006485404 -0.026494896 0.0069215056
-0.3645937 0.029136496 0.10212907 -0.044511717 0.010988801 0.03201892 -0.0351076 -0.10283873
-0.10703999 -0.1861435 -0.07300739 -0.13519894 -0.010448488 0.064797476 -0.021710636 0.0739888
-0.06155815 0.07828426 -0.013361153 0.04272261 -0.051274598 -0.04608688 -0.067709796 -0.14299807
-0.163678 -0.074410655 0.050399076 -0.085268006 0.13833933 -0.22470257 0.061022166 -0.028856818
-0.049834844 -0.104102455 -0.2114786 -0.002178861 -0.04083557 0.014338811 -0.07887198 -0.13068943
-0.0888331 -0.27489483 -0.033061024 0.09456252 0.008277202 -0.17087609 -0.18625382 0.17705514
-0.07945418 0.018586738 -0.10439287 -0.007975527 -0.10222165 -0.091754176 -0.04663411 -0.10209367
0.119690515 0.06673044 -0.2442345 -0.090224326 0.04801977 -0.12364977 -0.09036043 -0.044495165
-0.06977743 -0.07062633 -0.02807766 -0.04554356 -0.011396905 -0.022094615 0.029776001 0.059441973
-0.089901194 0.17650285 0.008345543 -0.0579312 -0.20033865 0.007041982 -0.04897615 0.04575848
0.16369583 0.107132696 0.09751329 0.052175988 -0.14613882 -0.22077268 0.13057886 0.036692377
-0.17998332 -0.10590246 0.0797968 -0.16347443 -0.28664765 -0.046280447 -0.05780291 -0.015211452
-0.123361945 -0.038078822 0.054503784 -0.19028367 -0.0046708398 0.09061564 -0.010247852 0.26730263
-0.046517696 0.2128108 -0.017431363 0.06416544 -0.15543379 0.0840301 -0.030691627 0.05657321
-0.19243352 0.11626376 0.1620444 -0.0635419 0.069767125 -0.10773396 -0.09259749 0.021988427
-0.011419885 -0.0541337 -0.010517611 0.011137369 -0.067596406 -0.23915645 -0.2695478 -0.098642945
-0.090464994 -0.07968489 0.025061503 0.05533524 0.016927 0.09294554 -0.104903564 -0.03236524
0.031105071 -0.22076613 -0.008713677 0.04525138 -0.030158913 0.09607014 -0.08737275 -0.010179209
-0.027474336 -0.14513843 0.019922052 -0.1738512 0.2282973 0.022774706 -0.047118567 0.02142531
-0.023080647 -0.20756575 -0.2162775 0.1213489 0.036777914 0.06531141 -0.11182041 0.087926105
-0.05491396 -0.058426365 -0.16609623 0.07682925 -0.16900808 0.022412764 -0.03235524 0.015973749
0.047489077 -0.04974929 -0.12225031 -0.25029337 -0.3007055 0.075985715 -0.26193884 -0.03572048
0.093520075 0.09456333 0.065367475 -0.1859855 0.033460163 0.02821147 0.10832132 -0.031758558
-0.0019515062 -0.04768827 -0.0047433064 -0.12541431 0.014517647 0.028867682 0.008409519 0.075870365
0.05742366 0.13061193 -0.094653904 -0.12064613 -0.16617008 0.012368599 -0.29274762 -0.10999698
0.09816832 0.1554122 0.07989694 0.1085234 -0.004578725 -0.16623122 -0.09012814 0.053850196
0.08797857 0.007947343 -0.18791555 -0.11306876 -0.086734034 -0.044050213 0.018912947 -0.036842458
-0.104720555 -0.038325716 -0.13627264 0.1526134 -0.113734424 -0.052932657 -0.109732196 0.058799665
-0.16884893 0.06963544 -0.0118242195 -0.07134976 -0.09452606 -0.067628145 -0.28157365 0.008870955

fc_hid.1.fc.0.bias f4 [20]
00000000: 6515 173e 84c1 dd3d c5bd 0abe 3b22 82bd
00000010: a847 6c3d 6ab7 d6bd ef1c e9bd 0783 36bd
00000020: 9465 09bd 8ce3 fbbc a61d 0c3d 3df4 343e
00000030: 762b 9f3d b83a 04be 2f35 8e3d b44e 19be
00000040: 8ffe 8ebd 0aaf d73d 64a5 cbbd 29a6 34bd
0.14754255 0.10827926 -0.13548954 -0.06354185 0.057685524 -0.10484202 -0.11382472 -0.04455855
-0.033544138 -0.030748151 0.034207962 0.17671295 0.077719614 -0.12913024 0.06943738 -0.14971429
-0.06982147 0.10531433 -0.09943655 -0.044103775

fc_hid.1.fc.1.weight f4 [20]
00000000: 254f 893f 870c 863f a06e 803f c2c9 5b3f
00000010: ebcc 693f 02d8 6e3f e830 7c3f cb3f 693f
00000020: 8722 613f c647 803f af8a 8b3f 449f 743f
00000030: 12c4 6b3f 2e15 813f 8d66 7e3f ef80 893f
00000040: 6ef0 7e3f 925e 8f3f 904f 733f 4a23 813f
1.0727278 1.0472573 1.003376 0.85854733 0.91328305 0.9329835 0.98512125 0.91112965
0.8794331 1.0021904 1.0901698 0.9555552 0.92096055 1.0084589 0.9937523 1.0742472
0.99585617 1.1200736 0.9504328 1.0088894

fc_hid.1.fc.1.bias f4 [20]
00000000: 0531 a3bc 61c7 43be 1fe4 d0be c246 7f3d
00000010: 4c84 36bd 1297 2dbe 912d 613d 46d2 933c
00000020: ed65 d4bd 83d0 803c aee5 a5be 0a45 0fbe
00000030: fed0 64be 92d3 bebb c8d8 8dbd ff3d 83be
00000040: 8e5c 80be c226 edbd e209 c2bd 55f9 1cbe
-0.019920835 -0.19119026 -0.40799043 0.06232334 -0.044559762 -0.1695216 0.054975096 0.018044602
-0.10371003 0.015724426 -0.32401794 -0.1399118 -0.22345349 -0.005823561 -0.06926113 -0.25633237
-0.25070614 -0.11579658 -0.09474541 -0.15329488
