AutoEncoders/VAE_CL/saved_model/con_model.pth (torch, 685752 bytes, 15 tensors)

encoder.0.fc.0.weight f4 [100, 789]
0	0x3c9e4655	0.019320646
1	0x3d16c367	0.036807444
2	0x3d295611	0.041341845
3	0xbc3b4a70	-0.0114313215
4	0x3cb37a17	0.021908803
5	0x3c5241a2	0.012833031
6	0xbce12623	-0.027484005
7	0x3c72cc16	0.014819166
8	0x3d1394d2	0.036030598
9	0xbcc29e9b	-0.02375727
10	0x3d03a257	0.03213724
11	0xbcd48f4d	-0.025947237
12	0xbbfbceed	-0.0076845796
13	0x3cdce07d	0.026962513
14	0xbb9bc857	-0.004754107
15	0xbba09723	-0.0049008294
16	0xbc48d44d	-0.012257648
17	0x3ce44b87	0.027868045
18	0xbcc90f95	-0.024543563
19	0xbc98b701	-0.01864195
20	0x3c94b783	0.018153911
21	0xbcce4ab7	-0.025182111
22	0xbca05735	-0.019572834
23	0xbb9972db	-0.0046828813
24	0x3c0fa8e8	0.008768298
25	0x3a003a92	0.000489154
26	0xbc58a070	-0.013221845
27	0xbc4082f9	-0.011749976
28	0x3c8a9727	0.016917778
29	0x3c7d3f2e	0.015456958
30	0x3b436238	0.0029813182
31	0x3cbd295d	0.023091013
32	0x3ba1dfdd	0.0049400167
33	0x3d19664d	0.037451077
34	0xbcbd5f03	-0.023116594
35	0xbcbcc267	-0.023041917
36	0x3c1d0edc	0.009586062
37	0x3cd3b729	0.025844174
38	0x3d1d904d	0.038467694
39	0xbc831ad7	-0.01600401
40	0x3cfd3df5	0.030913332
41	0x3d0194d2	0.031636067
42	0x3cbfbe99	0.023406314
43	0x3d16f451	0.036854092
44	0xbc2f2ab7	-0.010691336
45	0x3c6fdf16	0.01464059
46	0x3c2437d7	0.010023079
47	0xbc48691b	-0.01223209
48	0x3c6312b6	0.0138594415
49	0xbcab5453	-0.020914232
50	0x3d0ef6ec	0.03490345
51	0xbccd3cad	-0.025053347
52	0xb9b35d51	-0.00034211067
53	0x3d2cc9f3	0.04218478
54	0x3c33dbf3	0.010977733
55	0x3ce3df91	0.027816566
56	0x3ba4fd05	0.005035045
57	0x3c5f7d4e	0.013640715
58	0x3cf99e91	0.030471118
59	0xbcc7134f	-0.0243012
60	0xbc679fab	-0.014137189
61	0xbcbd7f47	-0.02313198
62	0xbc9dd17d	-0.01926493
63	0x3d1c4f43	0.038161527
64	0x3d13932c	0.036029026
65	0x3cdd1e6f	0.02699205
66	0x3bde064d	0.0067756535
67	0x3cf42c19	0.029806184
68	0x3d1c68a7	0.03818574
69	0xbc59ac93	-0.013285774
70	0xbc208bcb	-0.009798954
71	0xbae7a450	-0.001767287
72	0x3c94b6a5	0.018153498
73	0x3cb22019	0.021743821
74	0x3cd8a6c3	0.026446706
75	0x3d05b4e9	0.032643232
76	0x3d07dd1d	0.033169854
77	0x3c3bbcc2	0.011458578
78	0x3cf9f9ad	0.030514563
79	0x3d099797	0.033591833
80	0xba0bfc50	-0.00053400267
81	0xbba60fe7	-0.0050678137
82	0x3c4547de	0.01204106
83	0x3a81a107	0.0009889909
84	0xbc38c706	-0.01127792
85	0x3d180f77	0.037124123
86	0x3bf157fd	0.0073652253
87	0xbc2f90db	-0.010715689
88	0xbc8db48f	-0.017298011
89	0x3d162307	0.0366545
90	0xbbb38f53	-0.005479732
91	0x3cfbfe05	0.030760774
92	0x3c977feb	0.018493613
93	0x3c9a4bc5	0.018834958
94	0xbcccfb61	-0.02502221
95	0x3be18bd9	0.006883126
96	0x3cf96693	0.030444419
97	0x3d29c129	0.041443978
98	0xbbec5ad2	-0.007212975
99	0x3cad53ff	0.021158217
100	0x3d2fffb9	0.042968486
101	0x3c5e0a1e	0.013552217
102	0xbc920d44	-0.017828591
103	0x3ccb847e	0.02484345
104	0x3bbb7865	0.0057211393
105	0x3cdca885	0.026935825
106	0x3bf621b5	0.0075113424
107	0xbcd73ead	-0.026275003
108	0x3c34a987	0.011026747
109	0x3d0d71de	0.03453242
110	0x3ca6e0cd	0.020370865
111	0xbc1f92a8	-0.009739555
112	0x3c99ea77	0.01878856
113	0xbcaa966f	-0.020823685
114	0x3c62bfb2	0.013839649
115	0xbbaa8ccf	-0.005204774
116	0x3d269f2f	0.040679153
117	0x3d19965d	0.037496913
118	0x3ca8e92e	0.020619001
119	0x3b840ef7	0.0040301043
120	0xbcc38e91	-0.023871692
121	0xbcb2be66	-0.021819305
122	0xbbfc216c	-0.007694414
123	0xbce67443	-0.02813161
124	0xbc068435	-0.008210232
125	0x3cab0739	0.020877467
126	0xbc278dd5	-0.0102266865
127	0x3c918f35	0.017768482
128	0xbba6a98e	-0.0050861305
129	0x3ad24e17	0.0016045001
130	0xbbc4b7cd	-0.006003356
131	0x3cfe4d34	0.031042673
132	0xbc86b71b	-0.016444733
133	0xbc596736	-0.013269236
134	0x3d21fb69	0.039546404
135	0xbccb90e3	-0.02484936
136	0xbabbd267	-0.0014329673
137	0xba001090	-0.00048852805
138	0xbbce7a5f	-0.006301209
139	0xbc747fb5	-0.014923026
140	0xbca87ff3	-0.020568823
141	0xbc9a67eb	-0.01884838
142	0xbc8e877b	-0.017398586
143	0xbb474994	-0.0030408846
144	0xbb93e781	-0.0045136814
145	0x3cadd28b	0.021218559
146	0x3cfa8628	0.030581549
147	0x3ccfc87a	0.02536415
148	0x3cd5b353	0.026086485
149	0xbb1749fc	-0.002308487
150	0x3bf3d7a2	0.007441477
151	0xbaccbc30	-0.0015620049
152	0xbc5f4fca	-0.013629863
153	0x3c001beb	0.007819156
154	0x3c9b154a	0.01893105
155	0xbc8b4c2f	-0.0170041
156	0xbd21a4c1	-0.039463762
157	0xbabd0259	-0.0014420255
158	0x3cc15ffc	0.02360534
159	0xbced5ac1	-0.028973939
160	0x3a3b4570	0.0007143831
161	0x3d006dcc	0.03135471
162	0x3d2b64eb	0.04184429
163	0xbcbd3106	-0.023094665
164	0xbbbbb6e9	-0.0057285917
165	0x3d1f3db5	0.038877208
166	0x3ce0a4f9	0.027422415
167	0x3d1d5f11	0.03842074
168	0x3c01a00e	0.007911695
169	0x3c2979ca	0.010343978
170	0xbcac060b	-0.020998975
171	0xbc59fb51	-0.013304547
172	0xbb9b1dec	-0.0047337916
173	0x3ac577c0	0.0015065596
174	0x3d29f45e	0.041492812
175	0xbc8025f2	-0.015643094
176	0xbbd2f3d7	-0.0064377594
177	0x3d0478b2	0.032341667
178	0x3cb4104d	0.021980429
179	0x3ca79bbe	0.020460006
180	0xbc34ab52	-0.011027174
181	0xbd1c2b61	-0.038127307
182	0x3ad021c6	0.0015879206
183	0xbd0ac823	-0.03388227
184	0xbc0e0284	-0.008667592
185	0xbc862ed3	-0.01637975
186	0x3c38d977	0.011282316
187	0x3c85872f	0.016299812
188	0xbce21c4b	-0.027601382
189	0x3c20a695	0.009805341
190	0x3ca01d5b	0.019545248
191	0x3ca04821	0.019565644
192	0xbcd6ac1f	-0.02620512
193	0x3d21bdf1	0.039487783
194	0x3c841ba4	0.016126461
195	0x3d0c29f7	0.03421971
196	0x3d11bb53	0.035579037
197	0x3ce49e25	0.02790744
198	0x3bab6bf5	0.0052313753
199	0x3ce7a308	0.028275982
200	0x3c8a44fd	0.0168786
201	0x3c7b0ddb	0.015323128
202	0xbc838ff3	-0.016059851
203	0xbcca7756	-0.024715107
204	0xbce1535a	-0.027505565
205	0x3cd38c73	0.025823807
206	0xbd171fda	-0.03689561
207	0x3c23f8eb	0.010008077
208	0x3c9b1cad	0.018934572
209	0x3ca078ba	0.019588817
210	0xbbef19b8	-0.007296767
211	0x3c5d7124	0.013515744
212	0xbb54ae7b	-0.0032452631
213	0xbd0cf769	-0.034415636
214	0x3c904ee1	0.017615737
215	0x3cb2dc7e	0.021833654
216	0xbc3cd480	-0.011525273
217	0xbcdff2ce	-0.027337458
218	0xbc31020d	-0.010803712
219	0x3c8bd3d1	0.017068775
220	0x3cf1e78c	0.029529355
221	0xb91a2e75	-0.00014703891
222	0x3c7d0cd6	0.015444955
223	0x3d2a11f5	0.04152103
224	0x3d2076bb	0.03917573
225	0xbba9fe4b	-0.005187785
226	0xbc174630	-0.009233043
227	0x3ce44d0d	0.027868772
228	0x3d07704b	0.033066075
229	0x3ca4ed80	0.02013278
230	0x3d145322	0.036212094
231	0xbc8a7c8c	-0.016905092
232	0xbc09a067	-0.008400059
233	0xbcb1679b	-0.021655848
234	0xbd02eec4	-0.031965986
235	0x3ba687ec	0.005082121
236	0xbca1ca5c	-0.019749813
237	0x3c933258	0.017968342
238	0x3cb2af6d	0.021812165
239	0xbca6ccbc	-0.020361297
240	0x3b1ab020	0.0023603514
241	0xbd0f6e0a	-0.03501705
242	0x3cbf0dbd	0.02332198
243	0xbd29bbc7	-0.041438844
244	0xbbb8c548	-0.005638752
245	0x3c80637c	0.015672438
246	0xbcdebcdb	-0.027189663
247	0x3bf73566	0.0075442074
248	0x3d062827	0.032753136
249	0x3c91ffc8	0.017822161
250	0xbc6636cb	-0.01405115
251	0x3c91414b	0.01773133
252	0xb9841ad1	-0.00025196982
253	0xbbb69747	-0.005572233
254	0x3c90165b	0.017588785
255	0x3d17bf71	0.037047807

encoder.0.fc.0.bias f4 [100]
0	0x3c2f1c6f	0.010687931
1	0x3be6fc71	0.0070491363
2	0x3c81f72a	0.015864927
3	0xbcd80291	-0.026368411
4	0xbcc8a0f5	-0.024490813
5	0xbccd447f	-0.025057076
6	0xba05a06b	-0.00050974515
7	0xbd1117ea	-0.035423197
8	0xbc9d2b62	-0.019185726
9	0xbc18d68e	-0.009328498
10	0x3cd4c63a	0.025973428
11	0xbc67d0e0	-0.014148921
12	0xbcc50767	-0.024051381
13	0xbafe2fbe	-0.001939289
14	0xbcd248a6	-0.025669407
15	0x3d0204c3	0.031742822
16	0x3bde94e0	0.0067926496
17	0xbcf35144	-0.029701836
18	0x3b907328	0.004408259
19	0x3cbdd96b	0.023174962
20	0xbd259b09	-0.040431056
21	0x3d81437a	0.06311698
22	0x3c6605ce	0.01403947
23	0x3d0466f1	0.032324735
24	0x3d4676fe	0.048453324
25	0xbd06fcbd	-0.032955874
26	0xbce2ee59	-0.027701544
27	0xbc88b0ad	-0.016685808
28	0x3b30e99e	0.0026994715
29	0x3ccb0a3e	0.024785157
30	0x3c5d41db	0.013504471
31	0x3bddc032	0.006767296
32	0xbd2d50de	-0.04231345
33	0x3b50e90f	0.0031877195
34	0xbcce7bdf	-0.02520555
35	0xbc3efb23	-0.011656555
36	0xbc44c43c	-0.012009677
37	0x3c974363	0.01846475
38	0xbc7fd006	-0.0156135615
39	0x3c2b5733	0.010457802
40	0xbc863426	-0.016382288
41	0xbae61388	-0.0017553428
42	0x3d56c42b	0.052433174
43	0x3cb0c484	0.021578081
44	0x3d0d1ca2	0.034451135
45	0xbd9107d4	-0.07081571
46	0xbd894150	-0.067019105
47	0xbcfb52ee	-0.030679192
48	0x3cc20073	0.023681855
49	0xbc2f961e	-0.010716943
50	0x3ac8cacc	0.0015319227
51	0xbd1c7c44	-0.038204446
52	0xbc8e84fc	-0.017397396
53	0xbbf79784	-0.007555904
54	0xbcb5543e	-0.022134896
55	0x3b3f4f52	0.0029191566
56	0x3d13a7fa	0.036048867
57	0xbc91c3e2	-0.0177936
58	0x3d503373	0.050830316
59	0xbce46378	-0.027879462
60	0x3d1cae96	0.038252436
61	0xbd54576e	-0.051841192
62	0xbd0beb71	-0.03416008
63	0xbcc9cef9	-0.024634825
64	0xbcdea51c	-0.02717834
65	0xbc83448a	-0.016023893
66	0x3b182e81	0.0023221078
67	0xbc4576b7	-0.01205223
68	0x3d022118	0.031769842
69	0xbd2b1441	-0.041767363
70	0xbb2ed4a6	-0.0026677041
71	0xbc739b4c	-0.014868569
72	0x3c4a04d2	0.012330251
73	0x3c06fe9c	0.008239415
74	0xbc902ad8	-0.017598554
75	0xbbcdbe4b	-0.006278788
76	0xbb18e0fe	-0.0023327465
77	0xbc590cf2	-0.013247715
78	0x3c7878be	0.015165506
79	0x3cf22380	0.029557943
80	0xbd0b18ec	-0.033959314
81	0xbca37749	-0.01995434
82	0x3ca8c535	0.020601848
83	0x3c209149	0.009800264
84	0xbd066acb	-0.03281669
85	0x3d0cfaf2	0.034419008
86	0xbcd5f2da	-0.026116777
87	0xbd01cb24	-0.03168787
88	0xbd4609d8	-0.04834923
89	0x3ca88f3b	0.02057611
90	0xbcd69c15	-0.026197473
91	0x3c94dda8	0.0181721
92	0xbd0a72e2	-0.033800967
93	0x3baf266b	0.005345156
94	0xbc74e259	-0.014946544
95	0xbce3b001	-0.027793886
96	0xbcd1e2ae	-0.025620785
97	0xbb9cb111	-0.00478185
98	0x3c348266	0.011017418
99	0x3c8b2a78	0.016988024

encoder.1.fc.0.weight f4 [50, 100]
0	0x3cd870fe	0.026421066
1	0xbcaf51bf	-0.021401284
2	0x3d3e5134	0.04646416
3	0x3cf42c30	0.029806226
4	0xbb15142f	-0.0022747626
5	0x3d19ef88	0.03758195
6	0x3d346d3c	0.044049487
7	0x3d01100c	0.031509444
8	0x3dbae5fa	0.09125896
9	0xbc8c27e2	-0.017108861
10	0x3d36cd62	0.044629462
11	0x3ca36cee	0.019949403
12	0xbd2d2216	-0.042268835
13	0x3d323c41	0.043514494
14	0x3cbeb093	0.023277557
15	0x3ae37c6c	0.0017355806
16	0x3d25f6f4	0.040518716
17	0x3dc1f3e6	0.09470348
18	0x3dcc6f9a	0.09982224
19	0x3df03ddf	0.11730551
20	0x3c8e50f9	0.017372595
21	0xbcf3ff23	-0.029784745
22	0xbd7d2fba	-0.061813094
23	0xbd48cb92	-0.049022265
24	0xbdf0450a	-0.11731918
25	0x3d7257e8	0.059165865
26	0x3d5ec098	0.05438289
27	0x3d86d7ba	0.06584115
28	0xbc60b492	-0.013714926
29	0xbd8c6475	-0.06855098
30	0xbd0339f5	-0.032037694
31	0xbcb26920	-0.021778643
32	0x3d69402f	0.056945976
33	0xbcc39382	-0.023874048
34	0x3d8fe6ed	0.070264675
35	0xbd3caadd	-0.046061385
36	0x3c95d15b	0.018288305
37	0xbd86e679	-0.06586928
38	0xbd74345b	-0.059620243
39	0xbdd45017	-0.103668384
40	0xbda285c3	-0.07935669
41	0x3db7ab14	0.089681774
42	0x3da20bc2	0.07912399
43	0x3dad9cc8	0.08477169
44	0xbcf9cbef	-0.03049275
45	0x3cc96334	0.024583437
46	0x3cf3ca47	0.02975954
47	0xbc06a09d	-0.008217004
48	0xbd81bb71	-0.0633458
49	0xbcdfbb53	-0.027311003
50	0x3e2efc1a	0.17088357
51	0x3dc0f302	0.0942135
52	0xbc745d39	-0.014914804
53	0xbd4f8e3c	-0.050672755
54	0x3d3dffa7	0.046386387
55	0x3d864ea7	0.065579705
56	0xbc1ce936	-0.009577086
57	0xbcd2f550	-0.02575174
58	0xbbc4e0dd	-0.006008251
59	0xbb143c28	-0.0022618864
60	0x3c44be82	0.012008311
61	0xbd75b9b7	-0.059991565
62	0x3d98abc5	0.074546374
63	0x3cd06766	0.02543993
64	0xbdbbd4eb	-0.0917147
65	0x3d95328c	0.07285032
66	0x3d14fd29	0.036374245
67	0x3dfaa313	0.12238135
68	0x3cce0516	0.02514891
69	0x3c239c40	0.009985983
70	0xbd3f9652	-0.046774216
71	0xbcfc29df	-0.030781684
72	0x3afa21ba	0.0019083538
73	0x3d868731	0.065687545
74	0x3c26db69	0.010184147
75	0x3dd1890f	0.1023122
76	0x3d4bd548	0.049763948
77	0x3da19754	0.07890192
78	0xbc5a49f2	-0.013323294
79	0xbd82ed13	-0.063928746
80	0x3d8244ed	0.06360803
81	0xbbfc9f4d	-0.00770942
82	0xbd46a9ee	-0.0485019
83	0x3ad1ce92	0.0016006997
84	0x3de74046	0.11291556
85	0xb9cd4f66	-0.00039159803
86	0xbd6e2e0f	-0.058149394
87	0x3cd3bd91	0.025847228
88	0x3d5567b9	0.05210087
89	0xbd1452d9	-0.036211822
90	0x3e02a2b6	0.12757382
91	0x3c834dc9	0.016028302
92	0xbcfb0f2b	-0.030646881
93	0xbd374431	-0.044742767
94	0x3db9c0e0	0.09069991
95	0xbc540fde	-0.012943236
96	0xbdfd3f55	-0.12365595
97	0x3d909585	0.070597686
98	0x3e085b93	0.13316183
99	0xbd09e7be	-0.033668272
100	0xbda9dffc	-0.08294675
101	0xbdf471b8	-0.11935753
102	0xbd74c05a	-0.059753753
103	0x3b3ffc78	0.002929477
104	0x3d0223db	0.031772476
105	0xbdc35f85	-0.09539703
106	0xbd2641ba	-0.040590025
107	0xbdb23765	-0.08701972
108	0x3b849f7a	0.0040473314
109	0xbc6b0ea0	-0.014346749
110	0xbcb3f2e9	-0.021966415
111	0xbcc408b9	-0.02392994
112	0x3badfd4b	0.005309736
113	0x3ddec86e	0.10878073
114	0xbc664282	-0.014053943
115	0x3d777875	0.06041761
116	0xbd5cbf5d	-0.053893436
117	0x3d74d283	0.059771072
118	0xbd1e39e7	-0.03862944
119	0xbc2d5cd0	-0.01058121
120	0xbd3c2742	-0.045935877
121	0x3c8c6546	0.017138135
122	0x3dcb4363	0.09924962
123	0x3e072bbd	0.13200279
124	0xbd11b48d	-0.035572577
125	0xbd06310c	-0.03276162
126	0xbc90453e	-0.017611142
127	0x3da13b05	0.07872585
128	0xbcd88735	-0.02643166
129	0xbcbe37b8	-0.023219928
130	0xbc71a775	-0.0147493975
131	0xbcc58871	-0.024112912
132	0x3dbf0d0f	0.093286626
133	0xbc9ee945	-0.019398341
134	0xbc4cac70	-0.012492284
135	0x3d8311a3	0.06399848
136	0x3cd21eab	0.02564939
137	0xbcdedf79	-0.02720617
138	0xbc2a287d	-0.01038563
139	0x3d6abd5d	0.057309497
140	0x3db7242f	0.08942448
141	0x3c2fe312	0.01073529
142	0x3d3da284	0.046297565
143	0x3c42b0fc	0.011883017
144	0xbd4bc705	-0.049750347
145	0x3d18db1c	0.037318334
146	0x3dd57b66	0.10423927
147	0xbd0518ee	-0.032494478
148	0x3dd5fb6a	0.10448344
149	0xbdcc60f6	-0.09979431
150	0xbcfca387	-0.030839695
151	0xbda705e8	-0.081554234
152	0xbc9cf055	-0.019157568
153	0xbd8c92ae	-0.068639144
154	0x3abcd0c6	0.0014405481
155	0x3d6c56fb	0.05770014
156	0x3d462354	0.048373535
157	0xbcd7c367	-0.026338292
158	0xbd25c704	-0.040473
159	0xbda36f6c	-0.079802364
160	0xbdf38ea7	-0.11892443
161	0xbd7a14dc	-0.06105505
162	0xbd0fac31	-0.035076324
163	0xbbb6158d	-0.0055567683
164	0x3d5a95c8	0.0533655
165	0xbd095177	-0.033524957
166	0xbc6860bc	-0.0141832195
167	0xbcbf22e8	-0.023332074
168	0xbd77aed9	-0.060469482
169	0x3c5f03e0	0.013611764
170	0x3d190793	0.03736074
171	0xbd175e18	-0.03695497
172	0x3d10667a	0.03525398
173	0x3d91b314	0.071142346
174	0xbc72fd91	-0.014830963
175	0xbccfa43b	-0.025346866
176	0xbc39fbc7	-0.011351532
177	0xbb5bc200	-0.003353238
178	0xbd32e633	-0.043676566
179	0xbdf0aba9	-0.117514916
180	0xbd6970c9	-0.056992326
181	0x3d973f35	0.07385103
182	0xbd9656f3	-0.07340803
183	0x3c6d4880	0.014482617
184	0xbd9b6299	-0.075871654
185	0x3cbf7dea	0.02337547
186	0xbd543c4b	-0.051815312
187	0xbd4253d0	-0.04744321
188	0x3d3107ea	0.043220438
189	0x3c026f5d	0.007961121
190	0x3d963547	0.073343806
191	0xbaa727ca	-0.0012752947
192	0x3d97cdf6	0.07412331
193	0xbcb51f97	-0.02210979
194	0xbdde2d6c	-0.10848507
195	0xbd64a570	-0.055821836
196	0xbcff1cda	-0.031141687
197	0x3d000cf1	0.031262342
198	0x3d1e2d13	0.038617205
199	0x3d809dd6	0.06280105
200	0x3daccd3d	0.084375836
201	0xbd7a7cc6	-0.06115415
202	0xbc41dd0c	-0.011832487
203	0x3d3495aa	0.044088043
204	0x3d92a681	0.07160664
205	0x3cf6edf5	0.030142764
206	0x3da972a6	0.082738206
207	0xbde4da37	-0.11174434
208	0x3d9b4816	0.07582109
209	0x3d286c2f	0.041118797
210	0x3d2ba5dc	0.041906223
211	0xbd3de1b1	-0.046357814
212	0x3c4f5063	0.012653443
213	0xbd394eb9	-0.04524109
214	0x3c169d55	0.009192784
215	0xbcc03a3d	-0.02346527
216	0xbdb1fe56	-0.08691089
217	0x3c51c981	0.01280439
218	0xbe04e83a	-0.12979212
219	0xbd3a43a4	-0.045474663
220	0xbd408eea	-0.047011293
221	0x3da458d6	0.080247566
222	0xbc49e1fe	-0.012321947
223	0xbc1f82e0	-0.009735793
224	0xbdb45bd6	-0.08806579
225	0x3d71d6c6	0.059042715
226	0xbd71dc0d	-0.059047747
227	0xbe465402	-0.19367984
228	0xbd062238	-0.032747477
229	0xbdcfc472	-0.10144891
230	0xbda53e00	-0.08068466
231	0x3c8af43f	0.016962169
232	0xbbefdd31	-0.0073200692
233	0xbdb29b52	-0.08721031
234	0xbb975828	-0.0046186633
235	0x3ce21a68	0.027600482
236	0xbdad5665	-0.08463744
237	0x3d3e06ce	0.04639321
238	0xbd179ca1	-0.037014607
239	0x3c3094b5	0.010777642
240	0x3af9465a	0.0019018159
241	0xbde6ab01	-0.11263085
242	0xbd6bcad8	-0.057566494
243	0xbdb8c304	-0.09021571
244	0xbdc55c57	-0.09636753
245	0xbe12916c	-0.14313287
246	0x3d91f219	0.071262546
247	0x3d91bea9	0.07116444
248	0xbdc80f5d	-0.09768555
249	0x3dbd06e7	0.09229832
250	0xbdfae1a8	-0.12250072
251	0x3c4791c1	0.0121807465
252	0x3b411373	0.0029461056
253	0xbdc02cf4	-0.09383574
254	0xbd23134c	-0.039813325
255	0x3a53c783	0.0008078741

encoder.1.fc.0.bias f4 [50]
0	0x3d1a3390	0.03764683
1	0x3ba68c95	0.0050826767
2	0xbde1b31f	-0.11020493
3	0x3d96b641	0.07358981
4	0x3d3f3ab9	0.04668686
5	0x3cbefc9e	0.023313817
6	0x3d537eee	0.05163472
7	0xbdcf75e5	-0.101299085
8	0xbc409963	-0.01175532
9	0x3d8319a6	0.064013764
10	0xbdcaa3c2	-0.098945156
11	0xbc98a2f8	-0.018632397
12	0x3d440a63	0.047861468
13	0xbddb4f3e	-0.107084736
14	0xbd47e738	-0.04880449
15	0x3cbbdef1	0.022933455
16	0xbc356990	-0.011072531
17	0xbd670f5f	-0.056411143
18	0x3d4487b8	0.047980994
19	0x3d847722	0.06468035
20	0xbbdf68fa	-0.006817934
21	0xbd91ede5	-0.07125453
22	0x3d360423	0.04443754
23	0x3dbe9d07	0.09307294
24	0x3dd22ea0	0.10262799
25	0xbd02cb3a	-0.031932093
26	0x3c8177a4	0.01580412
27	0xbc950dfa	-0.018195141
28	0xbd9f8f10	-0.07790959
29	0x3b1fa0c0	0.002435729
30	0xbdbdb80b	-0.09263619
31	0xbce0557c	-0.027384512
32	0xbdf88ba4	-0.12136009
33	0x3d203fcf	0.039123353
34	0xbde52920	-0.111894846
35	0xbbdff395	-0.006834457
36	0x3cb9f1a4	0.022698231
37	0xbbed42bc	-0.0072406214
38	0x3daa3659	0.08311147
39	0xbd3994fa	-0.04530809
40	0x3df277cb	0.11839255
41	0xbcf7be52	-0.030242119
42	0xbe04b0e7	-0.12958108
43	0xbd2d97ee	-0.04238122
44	0xbdba9511	-0.091104634
45	0x3dc64d27	0.096826844
46	0x3db3879a	0.08766098
47	0xbda9d5fd	-0.08292768
48	0xbc857fd4	-0.016296305
49	0xbd86f6a8	-0.06590015

decoder.0.fc.0.weight f4 [100, 50]
0	0x3ebd5bb4	0.36984026
1	0x3d6d51bc	0.057939276
2	0xbe4cf02a	-0.2001349
3	0x3f42a6be	0.7603568
4	0xbc98fe5a	-0.018675972
5	0xbd516df9	-0.05113027
6	0x3ebcb75c	0.36858642
7	0xbee5d423	-0.4488841
8	0x3dbf9f82	0.093565956
9	0xbde3d0b3	-0.111237906
10	0x3c6b14ca	0.014348218
11	0x3f26a64d	0.65097505
12	0xbe3e1c5e	-0.18565509
13	0xbe1efef2	-0.15526941
14	0x3e4a85c6	0.19777593
15	0x3d8e230b	0.06940278
16	0x3e54e608	0.20790875
17	0xbd684836	-0.05670949
18	0xbcf0dffc	-0.02940368
19	0x3d9fc076	0.07800381
20	0x3cf1375f	0.029445348
21	0xbeb141d2	-0.3462053
22	0xbda7b73d	-0.08189247
23	0xbe3775bb	-0.17916004
24	0xbe0885a7	-0.13332234
25	0x3e334bf1	0.17509438
26	0xbce915ec	-0.028452836
27	0x3e0c72c1	0.1371565
28	0x3ee693ea	0.45034724
29	0xbe39ea85	-0.18155868
30	0x3b748f0f	0.0037316715
31	0xbe090691	-0.13381411
32	0xbf16cd12	-0.5890666
33	0x3da7380f	0.08164989
34	0x3f0061fa	0.501495
35	0x3d842054	0.064514786
36	0x3e8f5a84	0.27998745
37	0x3e8b56f1	0.2721477
38	0xbe7be8bb	-0.24600498
39	0x3e987b60	0.29781628
40	0x3dc56bd5	0.09639708
41	0xbe824e75	-0.25450483
42	0x3d8fbad3	0.07018056
43	0x3def7146	0.11691527
44	0x3cf547c7	0.029941453
45	0x3e645045	0.22296245
46	0x3e6d8a5f	0.23197316
47	0x3e691db0	0.22765231
48	0xbb4749d3	-0.0030408993
49	0x3d041842	0.032249697
50	0x3f497883	0.7869951
51	0x3f42dbdb	0.7611672
52	0xbdb3c8f4	-0.08778563
53	0xbf03c034	-0.51465154
54	0x3f66a15d	0.9008997
55	0xbf2fdb81	-0.6869431
56	0x3df5c023	0.11999538
57	0xbec8ca7a	-0.39216977
58	0x3da02da6	0.07821207
59	0x3ea2405f	0.31689736
60	0x3e0c31b8	0.13690841
61	0xbe123a8a	-0.14280143
62	0x3ead9580	0.33903122
63	0x3e72c8f9	0.23709477
64	0x3eff6a22	0.4988566
65	0x3eebc17a	0.46046048
66	0x3e0ee8d2	0.13956001
67	0x3d885377	0.06656545
68	0xbe4d66e9	-0.20058788
69	0x3e95fb7c	0.2929343
70	0xbedb955e	-0.42887396
71	0x3e2cd9d7	0.16879974
72	0x3ef34b88	0.47518563
73	0x3eb749c1	0.35798457
74	0xbde6d996	-0.1127197
75	0xbe922fc6	-0.28552073
76	0xbf1345d3	-0.5752842
77	0xbd77ea4e	-0.060526185
78	0x3f2a6aed	0.66569406
79	0xbe58f4ea	-0.21187177
80	0x3f12678f	0.5718927
81	0xbf59101d	-0.8479021
82	0xbf7a9424	-0.97882295
83	0x3f314cfd	0.692581
84	0xbef2e578	-0.47440696
85	0x3e05e8ed	0.13077135
86	0xbe91e8f2	-0.28498036
87	0x3dd08335	0.10181276
88	0x3eb7c597	0.35892937
89	0x3f8280b4	1.0195527
90	0xbe1c6c90	-0.15275788
91	0x3ea0c184	0.3139764
92	0x3deccf02	0.11562921
93	0x3e7140a9	0.23559822
94	0xbbf63a98	-0.007514309
95	0xbec91aa8	-0.3927815
96	0xbe158bdc	-0.14604133
97	0xbd9a62a4	-0.075383455
98	0x3ebee974	0.37287486
99	0xbf7a45ec	-0.9776294
100	0xbcaf8caa	-0.021429379
101	0x3e1ee9dd	0.155189
102	0xbef33b6e	-0.4750628
103	0x3aa86d6f	0.0012849997
104	0x3e94e1b1	0.2907844
105	0xbed840c2	-0.42236906
106	0x3e1f6560	0.15566015
107	0x3d1cb398	0.03825721
108	0x3e139e88	0.14415944
109	0x3de3c7fe	0.1112213
110	0x3e1b270e	0.15151617
111	0x3eb037f8	0.344177
112	0x3debec5b	0.115196906
113	0x3eb9892a	0.3623746
114	0xbbddc7bc	-0.006768195
115	0x3e7454b3	0.23860435
116	0x3e6d6a9c	0.231852
117	0xbd51e5df	-0.051244613
118	0xbf80eaf8	-1.0071707
119	0xbe47dec9	-0.1951858
120	0xbc960343	-0.018312102
121	0xbd746fa2	-0.059676774
122	0xbd29b394	-0.041431025
123	0x3e64608d	0.22302456
124	0xbeb003d8	-0.34377933
125	0x3d9ce1dd	0.076602675
126	0xbee860ce	-0.45386356
127	0xbe1a02d8	-0.15040147
128	0x3e44b9a1	0.19211437
129	0xbd508f73	-0.050918054
130	0x3eb2755c	0.34855163
131	0xbe16f952	-0.14743546
132	0xbfb59990	-1.4187489
133	0xbed04255	-0.40675607
134	0x3eb64608	0.35600305
135	0x3aec9350	0.0018049274
136	0xbd860fde	-0.06545995
137	0x3f0d3bf2	0.55169594
138	0x3eddcd31	0.4332061
139	0x3eacda9d	0.3376054
140	0xbe891cd6	-0.26779813
141	0xbd64ae5b	-0.05583034
142	0xbe459365	-0.19294508
143	0x3e9eb3c2	0.3099652
144	0x3de605c0	0.112315655
145	0xbd95873f	-0.07301187
146	0xbe6b740c	-0.22993487
147	0x3eaa8506	0.33304614
148	0x3e502bdc	0.20329231
149	0xbdd1e19d	-0.102481104
150	0xbe5f7a9d	-0.21824117
151	0xbe524014	-0.20532256
152	0xbee75e37	-0.45189068
153	0x3f95e069	1.170911
154	0xbe0249d3	-0.12723474
155	0x3ed38eed	0.4131998
156	0x3cb9a238	0.02266036
157	0xbf87dfe2	-1.0615199
158	0x3d86ba20	0.06578469
159	0x3c3d06f4	0.011537302
160	0x3e095838	0.13412559
161	0x3f3e2929	0.74281555
162	0xbe8732f5	-0.26406065
163	0xbf0bf96e	-0.54677474
164	0x3ec7095c	0.38874328
165	0xbe12c3a0	-0.14332438
166	0x3d4a5e5c	0.049406394
167	0x3d299f21	0.041411523
168	0xbfab2f7c	-1.3373866
169	0x3bd42825	0.006474512
170	0xbe3414c4	-0.17586046
171	0xbf5a664e	-0.85312355
172	0x3e6bd30e	0.2302973
173	0x3ee10895	0.4395186
174	0xbdc63922	-0.09678866
175	0x3ea4d0d2	0.32190567
176	0x3ed8763d	0.4227771
177	0x3f02e7a8	0.5113473
178	0x3e4ac718	0.1980251
179	0xbed03084	-0.40662014
180	0xbf6da48c	-0.92829204
181	0x3e8a312a	0.26990634
182	0xbf4f722f	-0.81033605
183	0xbea4a8e0	-0.3216009
184	0x3f1e8e64	0.6193602
185	0xbdca3192	-0.09872736
186	0xbe9599fb	-0.2921904
187	0xbd391ad0	-0.045191586
188	0xbdd54eb6	-0.104154035
189	0x3dd55c1a	0.104179576
190	0x3f0261a3	0.5093023
191	0xbf08e27a	-0.53470576
192	0x3e7ffc57	0.24998604
193	0x3da4b0a4	0.08041504
194	0xbe619917	-0.22031055
195	0x3e533a81	0.20627786
196	0x3e35eb34	0.17765504
197	0xbe9bda9b	-0.3044022
198	0x3e0d2c9f	0.13786553
199	0x3d692557	0.056920376
200	0x3efe9790	0.49725008
201	0xbe2a4549	-0.16627993
202	0x3f33c1b4	0.7021744
203	0xbf5bee6a	-0.85910666
204	0x3e1f98dd	0.15585656
205	0x3f07c149	0.53029305
206	0xbc8d36b4	-0.017237999
207	0xbe8b4a54	-0.27205145
208	0x3ccc3bf8	0.02493094
209	0x3db5ee18	0.088833034
210	0xbc9a54b7	-0.018839223
211	0x3e01c6ce	0.12673494
212	0x3df51646	0.11967139
213	0xbe38c95a	-0.1804556
214	0xbeb9a4d5	-0.3625857
215	0x3d26f06c	0.040756628
216	0x3eba65b6	0.36405724
217	0xbe1d5264	-0.15363461
218	0xbe867ae3	-0.2626563
219	0x3e170139	0.1474656
220	0x3d3b67c5	0.04575326
221	0xbe34e8ba	-0.17666903
222	0xbde12d16	-0.109949276
223	0x3df2a73f	0.11848306
224	0xbded88c7	-0.11598354
225	0xbea290df	-0.31751153
226	0x3ecf1df4	0.4045254
227	0xbd67f57f	-0.056630608
228	0xbe2da533	-0.1695755
229	0x3e6a9398	0.22907865
230	0x3d8eb0d4	0.06967321
231	0x3e49f0f0	0.19720817
232	0x3ea01c67	0.3127167
233	0x3f1eee75	0.62082607
234	0x3f3535f3	0.70785445
235	0xbdc017be	-0.093795285
236	0x3e856516	0.26053685
237	0xbecb8d0a	-0.39756042
238	0xbe210355	-0.15723927
239	0xbdb8bf28	-0.09020835
240	0x3eb14c3c	0.34628475
241	0xbe61ccdf	-0.22050808
242	0xbdd865c6	-0.10566287
243	0x3d9fde9a	0.0780613
244	0x3e2679ae	0.16257355
245	0xbe37259d	-0.17885442
246	0xbeaae834	-0.33380282
247	0xbdf1ad25	-0.11800603
248	0xbe91fc58	-0.28512836
249	0x3e1b3e84	0.15160567
250	0xbe83e6b3	-0.25761947
251	0xbe27a05e	-0.16369769
252	0xbc8d6044	-0.017257817
253	0x3ddef19d	0.10885928
254	0x3befba92	0.007315942
255	0x3c307c00	0.010771751

decoder.0.fc.0.bias f4 [100]
0	0x3ea9950c	0.33121526
1	0xbdd4210b	-0.10357865
2	0x3d835bb5	0.06413976
3	0x3eab8589	0.33500317
4	0xbc3113f5	-0.010807981
5	0xba1f77a4	-0.00060831965
6	0x3d8ff636	0.07029383
7	0x3da32009	0.079650946
8	0x3db1f27e	0.0868883
9	0x3d026093	0.03183038
10	0x3d89aaa0	0.06721997
11	0xbcfc3e94	-0.030791558
12	0xbd3e3d9a	-0.046445467
13	0xbd8fd487	-0.07022958
14	0xbe3f141a	-0.18660012
15	0xbdcdd7e2	-0.10050942
16	0x3e868260	0.26271343
17	0x3f10cbc1	0.56560904
18	0x3e46b40d	0.19404621
19	0xbe06dc1b	-0.13169901
20	0x3d49be51	0.049253765
21	0x3d441e81	0.047880653
22	0x3daa13da	0.08304568
23	0xbdb917c0	-0.09037733
24	0x3d344110	0.04400736
25	0x3e2a840f	0.16651939
26	0xbe0db5e5	-0.13838919
27	0x3e2e7c7d	0.17039676
28	0x3ebf4641	0.37358287
29	0xbddc6ce8	-0.1076296
30	0x3ce73237	0.028222186
31	0x3da45d2e	0.08025585
32	0x3da8db83	0.082449935
33	0xbe59a9da	-0.212562
34	0x3e9c238b	0.30495867
35	0xbe974622	-0.29545695
36	0xbe61a687	-0.22036181
37	0x3e88b6ac	0.26701868
38	0x3de7a11d	0.11310027
39	0x3d7486d4	0.059698895
40	0x3e9633d2	0.2933641
41	0x3dd72442	0.105049625
42	0xbbffd2fe	-0.0078071347
43	0xbe0b9a47	-0.13633071
44	0xbd4e8e23	-0.05042852
45	0xbd479139	-0.04872248
46	0x3e4ad5cf	0.19808124
47	0xbd6b14aa	-0.057392754
48	0xbc52f768	-0.012876369
49	0xbd45a8be	-0.04825663
50	0xbd9fa010	-0.077942014
51	0x3d166e24	0.036726132
52	0xbe09353b	-0.13399212
53	0x3d9cd03d	0.07656906
54	0xbdc4d671	-0.09611214
55	0xbe43b8bb	-0.19113438
56	0x3d03bad9	0.032160614
57	0xbe69bbf5	-0.22825606
58	0xbe1e36ea	-0.15450636
59	0x3f147143	0.57985324
60	0x3e931e33	0.28733978
61	0x3e54b72e	0.20773003
62	0x3e9002fb	0.28127274
63	0x3e20a841	0.15689184
64	0xbed62f8b	-0.41833147
65	0x3de9c8ac	0.11415228
66	0x3e0e4686	0.1389409
67	0x3e70d31b	0.2351803
68	0x3d591187	0.05299523
69	0x3e467bfa	0.19383231
70	0x3e3181af	0.17334627
71	0x3e5f422e	0.2180259
72	0x392cf7fc	0.0001649558
73	0xbd963979	-0.07335181
74	0xbe7f0398	-0.24903715
75	0xbe6d8d1c	-0.2319836
76	0x3f213c80	0.6298294
77	0xbe0a206b	-0.13488929
78	0xbe63e670	-0.22255874
79	0xbf08de1f	-0.5346393
80	0xbc8d3f83	-0.017242199
81	0x3eb7d617	0.35905525
82	0x3effa517	0.4993064
83	0xbda10b4f	-0.07863485
84	0x3d015d35	0.03158303
85	0x3cc08211	0.02349952
86	0xbe55654e	-0.20839426
87	0x3d146fd8	0.036239475
88	0x3e54fc54	0.2079938
89	0x3c596ff7	0.013271323
90	0x3eac90db	0.33704266
91	0x3ba1c1f6	0.004936452
92	0x3e69ce2a	0.22832552
93	0xbdcde62b	-0.10053667
94	0x3d241f29	0.04006878
95	0xbd40ca3b	-0.047067862
96	0x3dca9fa0	0.09893727
97	0xbbc138e3	-0.005896674
98	0xbb8618ac	-0.0040922966
99	0x3eeb3f8c	0.4594692

decoder.1.0.weight f4 [784, 100]
0	0xbdc03984	-0.0938597
1	0x3c2beacb	0.010492991
2	0xbc130dd4	-0.008975465
3	0xbdbd4500	-0.09241676
4	0xbdaf7458	-0.08567113
5	0xbd564e14	-0.052320555
6	0xbb97fa45	-0.0046379887
7	0xbda0280c	-0.07820138
8	0xbd866bcf	-0.065635316
9	0xbda93b05	-0.0826321
10	0xbd95555a	-0.0729167
11	0x3d142fcf	0.036178406
12	0xbcb5c771	-0.022189828
13	0xbd9ef836	-0.07762186
14	0xbd7cff53	-0.061766934
15	0xbbfdc6ee	-0.0077446615
16	0xbcbb3634	-0.022852995
17	0xbd49d159	-0.049271915
18	0xbe77199d	-0.24130864
19	0x3d9daffc	0.07699582
20	0xbda4136f	-0.08011519
21	0xbddc5ee6	-0.10760288
22	0xbe043177	-0.12909494
23	0xbe05f83a	-0.13082972
24	0xbd25b405	-0.040454883
25	0xbd976c9b	-0.07393762
26	0xbdba51ec	-0.090976566
27	0xbe181962	-0.14853433
28	0xbe055f99	-0.13024749
29	0xbd485d47	-0.04891708
30	0xbd79a1a7	-0.06094518
31	0xbd2a8e29	-0.04163948
32	0xbd64598d	-0.055749465
33	0xbdd1719c	-0.102267474
34	0xbe7405f8	-0.23830402
35	0xbd30e583	-0.04318763
36	0xbd848e5e	-0.06472467
37	0x3cccc925	0.024998257
38	0xbd8a4ed6	-0.06753318
39	0xbd6f9664	-0.058493033
40	0xbd2eb9d0	-0.042657673
41	0xbeb0b8db	-0.34516034
42	0xbd344e30	-0.044019878
43	0xbd811d63	-0.06304433
44	0xbdc92108	-0.09820753
45	0xbddf3158	-0.108980834
46	0xbd809442	-0.06278278
47	0xbd40c5bf	-0.047063585
48	0x3d800648	0.06251198
49	0xbe1ac48d	-0.1511404
50	0xbbd78d49	-0.006578122
51	0xbbad2a9e	-0.0052846214
52	0x3c879bc2	0.016553763
53	0xbdccd149	-0.100008555
54	0x3c4d1117	0.012516282
55	0xbcf88d9f	-0.030340968
56	0xbdfab27a	-0.12241073
57	0xbe0c1291	-0.13678958
58	0x3d05f75b	0.0327066
59	0xbdb178e4	-0.08665636
60	0x3c325dd9	0.010886633
61	0xbd496da9	-0.049176846
62	0x3d0abb18	0.033869833
63	0xbbd0dd9d	-0.0063740746
64	0x3d63dbbe	0.055629484
65	0xbd9d0050	-0.07666075
66	0x3b87b390	0.0041412786
67	0xbcd40205	-0.02587987
68	0xbdc80c02	-0.09767915
69	0xbe0a09ab	-0.1348025
70	0xbd1c273b	-0.03812335
71	0x3c9796a8	0.018504456
72	0xbe6a63f0	-0.22889686
73	0xbd0fea36	-0.03513547
74	0xbda348be	-0.07972859
75	0xbcb5639c	-0.022142224
76	0xbd3f68b7	-0.046730723
77	0xbd1ed9a2	-0.03878177
78	0xbdf1e866	-0.118119046
79	0xbe4b3c2e	-0.19847175
80	0xbd96ecc8	-0.07369381
81	0xbe85f502	-0.2616349
82	0xbe8648ce	-0.2622742
83	0xbdab3628	-0.08359939
84	0xbe09bc94	-0.13450843
85	0xbcc85b8b	-0.024457714
86	0xbdde5098	-0.10855216
87	0x3d572dbd	0.052533854
88	0xbd97ddab	-0.07415327
89	0xbe8ee65b	-0.27910122
90	0xbf3b7308	-0.732224
91	0xbd2a02e0	-0.041506648
92	0xbddf260f	-0.10895931
93	0xbdeea3a6	-0.11652307
94	0x3d3ca7ba	0.046058394
95	0xbdefa944	-0.11702207
96	0xbe071d02	-0.1319466
97	0xbdc44bda	-0.0958478
98	0xbe09120a	-0.13385788
99	0xbe36c552	-0.17848709
100	0xbd3c8fdd	-0.046035636
101	0xbe01db30	-0.1268127
102	0xbe05348d	-0.13008328
103	0x3cf37ffa	0.02972411
104	0xbd39c9c7	-0.045358445
105	0xbe0edaa4	-0.13950592
106	0xbe0269e8	-0.12735713
107	0xbe02ebfc	-0.12785333
108	0xbdb0df04	-0.08636287
109	0xbda92ec7	-0.08260875
110	0xbc672790	-0.0141085535
111	0x3c90217b	0.01759409
112	0x3d51ebdc	0.051250324
113	0xbddc98f1	-0.10771359
114	0x3cb3b200	0.021935463
115	0x3d2c97d3	0.04213698
116	0xbe1f39c2	-0.15549377
117	0xbd1f861b	-0.038946252
118	0xbe86e961	-0.2634993
119	0xbb82946d	-0.003984979
120	0x3b9a8a00	0.004716158
121	0xbe0f48c8	-0.13992608
122	0x3d051590	0.032491267
123	0xbdf9bf14	-0.121946484
124	0xbd964063	-0.073364995
125	0xbbb62591	-0.0055586775
126	0xbde38489	-0.111092634
127	0xbdcd9bac	-0.10039458
128	0x3d32b0bf	0.04362559
129	0xbd16da2d	-0.036829162
130	0xbe02ad21	-0.12761356
131	0xbdb2c0cc	-0.08728179
132	0x3d0e6099	0.03476009
133	0xbdc61956	-0.09672801
134	0xbe5f1b30	-0.21787715
135	0xbe00def6	-0.12585053
136	0xbc7dc82a	-0.015489617
137	0xbc7fe8f1	-0.015619502
138	0xbe4897b5	-0.19589122
139	0x3b9f99b2	0.004870617
140	0xbd18f547	-0.03734329
141	0xbe812f8b	-0.25231585
142	0xbdae0c3f	-0.084984295
143	0xbc1f803f	-0.009735166
144	0xbd941a4e	-0.0723158
145	0xbb2b1864	-0.0026107067
146	0xbdb5dc68	-0.0887993
147	0xbe066fa6	-0.13128528
148	0x3d9fe83a	0.078079656
149	0x3c9106fd	0.017703528
150	0xbdb2d35f	-0.08731722
151	0xbdf46732	-0.119337454
152	0xbdec0cd4	-0.11525884
153	0xbda043d7	-0.078254394
154	0xbe0c3c36	-0.13694844
155	0x3cc1e1e5	0.023667285
156	0xbdf1eda4	-0.118129045
157	0xbe09017d	-0.13379474
158	0xbcc0fea1	-0.023558917
159	0xbdfdea60	-0.12398219
160	0x3d398cea	0.0453004
161	0xbd109ce7	-0.035305884
162	0xbdf30881	-0.11866856
163	0xbde7d69a	-0.11320229
164	0xbc366472	-0.0111323465
165	0xbe14f0ca	-0.14544979
166	0xbd04f74d	-0.032462407
167	0xbdd08039	-0.101807065
168	0xbc822d7b	-0.015890827
169	0xbd39778f	-0.045280036
170	0xbd6b067c	-0.05737923
171	0xbdca7ebf	-0.09887456
172	0xbdf9555b	-0.121744834
173	0xbdad93b5	-0.084754385
174	0xbdd4e06d	-0.10394368
175	0x3d2c0f1b	0.042006593
176	0xbd8f6530	-0.07001722
177	0xbdb24248	-0.087040484
178	0x3d400104	0.04687597
179	0xbcb65963	-0.02225942
180	0xbcfac55a	-0.030611683
181	0xbe5403be	-0.20704553
182	0xbe60f5c3	-0.2196875
183	0xbda1a362	-0.07892491
184	0xbe0782bf	-0.1323347
185	0xbe014d99	-0.12627257
186	0xbdd03a41	-0.10167361
187	0x3c3dc9a0	0.011583716
188	0xbdf73aa6	-0.12071733
189	0xbeb5078b	-0.35357317
190	0xbf0967b5	-0.5367387
191	0x3d48e591	0.049047057
192	0xbdf3c648	-0.119030535
193	0xbd7a54aa	-0.0611159
194	0x3cc0b661	0.023524465
195	0xbd60d74d	-0.054892827
196	0x3d389705	0.0450659
197	0xbd5c2e04	-0.05375482
198	0xbd999dcf	-0.07500803
199	0xbe223581	-0.15840723
200	0xbdbf5038	-0.093414724
201	0x3c2738b8	0.010206394
202	0xbda256c2	-0.07926704
203	0x3d0c2e22	0.034223683
204	0x3d52caeb	0.05146305
205	0xbd9acc49	-0.075584956
206	0xbd273a17	-0.040826883
207	0xbd04107d	-0.032242287
208	0xbd8ad2cc	-0.067784876
209	0xbdc122d8	-0.09430474
210	0x3b3a4ad8	0.0028425958
211	0xbda7c1ab	-0.08191236
212	0xbe16c0ae	-0.14721939
213	0xbcc46c12	-0.023977313
214	0xbdc2027b	-0.09473129
215	0xbdedba3e	-0.116077885
216	0x3c14b177	0.009075514
217	0xbd757175	-0.059922654
218	0xbe72515a	-0.23663846
219	0xbd6e8bca	-0.058238782
220	0xbe118a6e	-0.14212963
221	0xbe23a626	-0.1598135
222	0x3cd627f1	0.026142092
223	0xbe042821	-0.12905933
224	0xbc84ed1a	-0.01622634
225	0x3c820e28	0.01587589
226	0x3d0da487	0.034580734
227	0xbd065ac6	-0.032801412
228	0xbdbb7811	-0.0915376
229	0xbdf7f953	-0.12108102
230	0x3b346231	0.0027524347
231	0xbdc6cc37	-0.0970692
232	0xbd29b867	-0.041435625
233	0x3ce76229	0.028245049
234	0xbe267794	-0.16256553
235	0xbdfc6b00	-0.12325096
236	0xbcbfcf18	-0.02341418
237	0xbd9e2c19	-0.07723255
238	0xbe2ee989	-0.17081274
239	0xbe0c7128	-0.1371504
240	0xbd6d2623	-0.057897698
241	0xbea1352a	-0.31485873
242	0xbc89fcf1	-0.016844245
243	0xbdce7e13	-0.100826405
244	0xbcf4fc3d	-0.029905433
245	0xbb94ef95	-0.004545162
246	0x3bbc8ee6	0.0057543395
247	0xbb72b4aa	-0.0037033954
248	0xbd37cfdd	-0.04487597
249	0x3b1f09b1	0.002426725
250	0xba4fdec4	-0.0007929618
251	0x3d1db70f	0.038504656
252	0xbe0c6992	-0.13712147
253	0xbcc35b13	-0.023847139
254	0xbe081f9e	-0.13293311
255	0xbdf9d487	-0.121987395

decoder.1.0.bias f4 [784]
0	0xbb4d2f8f	-0.0031308865
1	0x3ce9ea00	0.028553963
2	0xbdc05661	-0.093914755
3	0x3b5068bb	0.0031800705
4	0x3d4079dd	0.046991218
5	0x3c85a197	0.016312404
6	0xbd7eb04f	-0.06217986
7	0x3d043cc7	0.032284524
8	0x3cad5d55	0.021162668
9	0xbb05cfe3	-0.00204181
10	0x3d846842	0.06465198
11	0xbdfb79e3	-0.122791074
12	0xbda2d809	-0.07951362
13	0xbd9a328c	-0.07529172
14	0x3b87709b	0.0041332967
15	0xbd5c4f6e	-0.053786688
16	0xbb57584a	-0.003285902
17	0x3d098872	0.03357739
18	0xbdaccc3e	-0.084373936
19	0xbd141160	-0.036149383
20	0xbd2cf5d4	-0.042226627
21	0x3d80384a	0.06260736
22	0xbe020dfa	-0.12700644
23	0xbc045f4c	-0.008079361
24	0xbd384b8b	-0.04499392
25	0x3d0645e7	0.032781508
26	0xbd44a38c	-0.048007533
27	0x3c0fbc98	0.008772992
28	0xbdfc5555	-0.12320963
29	0xbdaac5a7	-0.083384804
30	0xbdd830d2	-0.10556187
31	0xbca7442e	-0.020418253
32	0xbd49b7ab	-0.049247425
33	0xbd4f0fc6	-0.050552152
34	0xbd6842c6	-0.056704305
35	0x3d3259c4	0.04354264
36	0x3ccc8b04	0.024968632
37	0x3c3cda8f	0.011526718
38	0xbdfeba45	-0.12437872
39	0xbb997ccb	-0.004684066
40	0xbd1a7af9	-0.037714932
41	0xbdaa7bb4	-0.08324376
42	0xbcece9cf	-0.028920082
43	0xbe0384b2	-0.12843588
44	0xbce53933	-0.027981376
45	0xbdf95c77	-0.121758394
46	0xbce11e0c	-0.027480148
47	0xbcedfb93	-0.029050624
48	0x3d52ef93	0.051498007
49	0x3d2cdc11	0.04220206
50	0xbd1513e7	-0.036395933
51	0x3d3a7e11	0.045530383
52	0xbdda54a8	-0.10660678
53	0xbd055249	-0.032549176
54	0xbd8181e8	-0.06323606
55	0xbe02105d	-0.12701555
56	0xbdd61414	-0.10453048
57	0x3d334f4a	0.043776788
58	0xbddd500b	-0.108062826
59	0xbdd12a67	-0.10213166
60	0xbd9f4467	-0.077767186
61	0x3d47fcb6	0.04882499
62	0x3d242559	0.04007468
63	0x3c258e04	0.01010466
64	0xbdff69a6	-0.12471323
65	0xbdfa97d3	-0.122359894
66	0xbdf39cc4	-0.11895135
67	0x3d4c0827	0.049812462
68	0xbd057a70	-0.03258747
69	0xbde347dd	-0.11097691
70	0xbd6ade45	-0.05734088
71	0xbd959d91	-0.07305444
72	0xbc98cf7f	-0.01865363
73	0x3d312872	0.043251462
74	0x3d161a27	0.036646035
75	0xbcc343c4	-0.023836024
76	0xbcc67df8	-0.024229988
77	0xbb26ffa5	-0.0025481966
78	0xbd52c3f0	-0.05145639
79	0xbd577231	-0.052599136
80	0xbdb5d207	-0.0887795
81	0x3d216af5	0.039408643
82	0x3cb1a468	0.02168484
83	0xbdece54d	-0.11567173
84	0xbe00f72b	-0.12594287
85	0x3d45c4b0	0.04828328
86	0xbd58f2d6	-0.05296596
87	0xbd85086e	-0.064957485
88	0x3c3cee3a	0.011531407
89	0x3bbbe14c	0.0057336446
90	0xbd0cfc58	-0.03442034
91	0x3cb75d3c	0.022383325
92	0x3c157d5e	0.009124128
93	0xbd7c255e	-0.061559074
94	0xbcd2f8af	-0.025753347
95	0xbd558b7a	-0.05213497
96	0x3d5ff8cf	0.05468064
97	0x3d472460	0.048618674
98	0xbd56b98b	-0.05242304
99	0xbdd50b3f	-0.10402536
100	0xbc8ff0c1	-0.017570855
101	0xbd9e7dc1	-0.077388294
102	0xbdb45976	-0.08806126
103	0xbdb5a5ea	-0.08869536
104	0x3c2b1193	0.010441202
105	0x3d26a887	0.040688064
106	0xbdb1a65a	-0.08674307
107	0xbdde58f9	-0.10856814
108	0x3d149d3c	0.036282763
109	0x3d5757cf	0.052573975
110	0xbd216e8a	-0.03941206
111	0xbcb2fb71	-0.021848412
112	0xbd9d5db8	-0.07683891
113	0xbe045e65	-0.12926634
114	0xbdbe2887	-0.09285074
115	0xbd220ee4	-0.039564982
116	0xbd34f699	-0.044180486
117	0x3c1785ae	0.00924818
118	0xbdc37189	-0.095431395
119	0xbdc39f3d	-0.09551857
120	0xbcc3737e	-0.023858782
121	0x3c2facba	0.010722334
122	0x3d862d06	0.06551556
123	0xbd629a97	-0.05532321
124	0x3c146a27	0.009058512
125	0xbde76a95	-0.11299626
126	0xbe342eb7	-0.17595945
127	0xbe594e4a	-0.21221271
128	0xbeb98587	-0.36234686
129	0xbe76d511	-0.24104716
130	0xbe45e12a	-0.19324175
131	0xbda7a5af	-0.081858985
132	0x3d3e0c1e	0.046398275
133	0xbc87d128	-0.016579226
134	0xbcda7aa1	-0.026669802
135	0x3d70dee1	0.058806304
136	0x3ca1cc53	0.01975075
137	0xbd879b72	-0.06621446
138	0xbdccfab5	-0.10008756
139	0x3c9afade	0.01891845
140	0x3ccf97d5	0.025340954
141	0xbdf4b46b	-0.119484745
142	0xbddeb8b1	-0.10875071
143	0xbd1a6b67	-0.037700083
144	0xbd526c45	-0.051372785
145	0xbdd9afd1	-0.106292374
146	0xbddc6ede	-0.10763334
147	0xbdc5c164	-0.09656027
148	0xbd861c68	-0.06548387
149	0xbc5492ff	-0.0129745
150	0x3d459cd7	0.048245277
151	0x3d7a7141	0.061143164
152	0xbdf95d62	-0.121760145
153	0xbe847d76	-0.2587697
154	0xbe662104	-0.22473532
155	0xbe228e85	-0.1587468
156	0xbea27ac1	-0.3173428
157	0xbe341f12	-0.17589977
158	0xbe6e8194	-0.23291618
159	0xbea742c4	-0.32668126
160	0xbe8437f7	-0.25823948
161	0xbd9e7091	-0.07736314
162	0x3d548722	0.051886685
163	0xbda8a7fd	-0.08235166
164	0x3d536517	0.05161008
165	0xbd8971a9	-0.06711132
166	0xbd73caff	-0.059519764
167	0x3ce9f9d2	0.028561506
168	0x3c7182b5	0.014740636
169	0xbd1e1798	-0.03859672
170	0x3c522099	0.012825155
171	0xbdcce382	-0.10004331
172	0xbd555871	-0.052086297
173	0x3cfcd5ca	0.030863661
174	0xbc881a21	-0.016614022
175	0xbd0e79e2	-0.034784205
176	0x3c9915c0	0.018687129
177	0x3dd6c046	0.10485892
178	0x3cc7c2c3	0.024384862
179	0x3d70b28c	0.058764026
180	0xbe2c2f11	-0.1681483
181	0xbe279817	-0.16366611
182	0xbe8bb67c	-0.27287662
183	0xbe24a009	-0.16076674
184	0xbe5028c1	-0.20328046
185	0xbe81f002	-0.25378424
186	0xbe0aa222	-0.13538411
187	0xbdffa6b1	-0.12482966
188	0xbe4ec620	-0.20192766
189	0xbcf1946e	-0.029489722
190	0xbd1e3659	-0.03862605
191	0x3d583a95	0.052790243
192	0xbe026369	-0.12733234
193	0xbdb62888	-0.088944495
194	0x3d26169a	0.0405489
195	0xbdc418f3	-0.09575071
196	0xbcb3da41	-0.021954658
197	0x3b532b86	0.0032221987
198	0xbde752c6	-0.11295085
199	0xbcbdac7f	-0.023153542
200	0xbd78964d	-0.060690213
201	0xbd9a1f73	-0.0752553
202	0xbe036fe6	-0.12835655
203	0x3cc5ece2	0.024160806
204	0x3dbfe5bf	0.093699925
205	0x3dbae325	0.09125356
206	0x3d837522	0.06418826
207	0x3d2e731a	0.04259024
208	0xbcb738b7	-0.022365911
209	0x3d6fe126	0.058564328
210	0xbe02d841	-0.12777807
211	0xbdd5b1b3	-0.10434284
212	0xbd68b56a	-0.056813635
213	0xbe4d39c8	-0.20041573
214	0xbe1e43a6	-0.15455493
215	0xbe001501	-0.12508012
216	0xbe698f60	-0.228086
217	0xbe3ac297	-0.18238293
218	0xbbf73deb	-0.007545223
219	0x3d19f294	0.037584856
220	0x3c755f35	0.014976312
221	0x3b6c33ab	0.0036041539
222	0xbdc070dc	-0.09396526
223	0x3d84d590	0.06486046
224	0xbe006a3f	-0.1254053
225	0xbdb4e269	-0.08832247
226	0xbd98f296	-0.074681446
227	0x3d06396d	0.03276961
228	0xbdb3ea39	-0.08784909
229	0x3d7b165d	0.061300624
230	0xbd022e9c	-0.03178273
231	0x3e18f696	0.14937815
232	0x3d859d86	0.06524186
233	0x3d9da847	0.07698112
234	0x3d80ceee	0.06289469
235	0xbc0b990b	-0.008520375
236	0x3d8a11ba	0.06741662
237	0xbd3013f9	-0.042987797
238	0xbdf82992	-0.12117304
239	0xbe3a9c8d	-0.18223782
240	0xbe089616	-0.13338503
241	0xbd4bf62f	-0.049795326
242	0xbccb1ccf	-0.02479401
243	0xbda6fc03	-0.08153536
244	0xbdcee099	-0.10101432
245	0xbde76e67	-0.113003545
246	0x3c8e693f	0.01738417
247	0xbd96b7a0	-0.073592424
248	0xbd410421	-0.04712308
249	0xbdad96f4	-0.08476058
250	0x3ce08b49	0.027410166
251	0xbd993b22	-0.07481982
252	0xbcffb7a7	-0.031215502
253	0xbded2224	-0.115787774
254	0xbdb443c1	-0.088019855
255	0xbdbd01ba	-0.09228845

fc_mean.fc.0.weight f4 [10, 50]
0	0x3daa9a4e	0.083302125
1	0xbbecfb16	-0.00723208
2	0x3d6c3c18	0.057674497
3	0x3e485288	0.19562733
4	0x3c933db4	0.017973758
5	0xbdc84ea9	-0.09780628
6	0x3e059ccb	0.13048093
7	0x3d08f148	0.03343323
8	0x3e289b7d	0.16465564
9	0x3ca9965e	0.020701583
10	0xbcc85985	-0.024456749
11	0xbcd5e925	-0.026112149
12	0x3dc4f85d	0.09617684
13	0x3da2553a	0.07926412
14	0xbd2aec11	-0.041729037
15	0xbd54579c	-0.051841363
16	0xbdb799b4	-0.089648634
17	0xbd6e012c	-0.058106586
18	0x3e08859b	0.13332216
19	0x3e3cc671	0.18435074
20	0xbd1e5cad	-0.0386626
21	0xbd69da0f	-0.057092723
22	0xbd243d9f	-0.04009783
23	0x3d7a7431	0.061145965
24	0x3d1ab9db	0.0377749
25	0xbd30a9bc	-0.04313062
26	0xbcf340b5	-0.02969394
27	0x3d9d2d7e	0.076746926
28	0x3d24e748	0.04025963
29	0x3da40520	0.0800879
30	0x3bc1fd08	0.0059200563
31	0x3dc00fe6	0.093780324
32	0x3c7edfaf	0.01555626
33	0xbd985a2a	-0.074390724
34	0x3dd9b5d6	0.106303856
35	0xbc246327	-0.010033405
36	0xbdd6906e	-0.104767665
37	0xbd71cfcd	-0.059036065
38	0x3c2f135a	0.010685766
39	0x3c99780b	0.018733999
40	0xbc900990	-0.017582685
41	0x3cac740a	0.021051425
42	0xbd93279b	-0.071852885
43	0x3d7b3e5f	0.06133878
44	0xbcf35ce7	-0.029707385
45	0xbe3534ea	-0.17695966
46	0x3d37e8e5	0.04489984
47	0x3d099175	0.033585984
48	0xbde8e4b9	-0.113717504
49	0x3c04385b	0.008070077
50	0xbcabe1dc	-0.020981722
51	0xbdd99d56	-0.106257126
52	0xbe04352a	-0.12910905
53	0xbe02a005	-0.12756355
54	0x3d04cb08	0.03242019
55	0xbd3a5c0a	-0.04549793
56	0xbe09fee6	-0.13476142
57	0xbd80c9e8	-0.062885106
58	0x3c684a27	0.014177836
59	0x3d7b0c68	0.06129113
60	0x3bad097d	0.005280672
61	0x3c90cfef	0.017677275
62	0xbcfe2b79	-0.031026589
63	0xbda90b5b	-0.08254119
64	0x3d04989b	0.0323721
65	0x3d46a20e	0.04849439
66	0xbd5a82db	-0.05334745
67	0x3c883900	0.016628742
68	0x3cb4641b	0.02202039
69	0x3be53b88	0.006995622
70	0xbdbd71ad	-0.092501976
71	0xbde14493	-0.109994076
72	0x3d81e757	0.06342953
73	0x3d31fe5e	0.043455474
74	0x3d1ac993	0.037789892
75	0x3d75d3aa	0.06001631
76	0xbe030357	-0.12794243
77	0xbe2bd4dc	-0.16780418
78	0x3b6832aa	0.0035430589
79	0x3d4a9b69	0.049464617
80	0x3bdd7039	0.0067577627
81	0xbcb9df26	-0.022689413
82	0xbb9058d2	-0.0044051195
83	0xbd2d7cd7	-0.042355385
84	0xbcd41284	-0.025887735
85	0x3d5cea79	0.053934548
86	0x3dab0e82	0.083523765
87	0x3d790861	0.060799006
88	0xbe019d55	-0.12657674
89	0xbca871c2	-0.020562056
90	0x3d075de9	0.033048544
91	0x3db800db	0.08984538
92	0x3daace3f	0.083401196
93	0x3c160de5	0.009158586
94	0xbb10558e	-0.002202365
95	0x3d0a2fdf	0.03373706
96	0xbe0163ac	-0.12635678
97	0x3dc3fe2e	0.09569965
98	0xbe1f3dcb	-0.15550916
99	0x3d49ba87	0.049250152
100	0x3dc9caf2	0.09853162
101	0xbd1939ce	-0.037408642
102	0x3d57886d	0.05262034
103	0xbdb0cdd7	-0.08633011
104	0x3e411067	0.18853913
105	0xbda9a371	-0.08283127
106	0xbe166e24	-0.14690453
107	0x3d80182f	0.06254613
108	0xbd5f94e9	-0.05458537
109	0x3b359ecc	0.0027713059
110	0xba0e7e86	-0.00054357236
111	0xbd3173ea	-0.043323435
112	0x3e104d6c	0.14092034
113	0xbcd6089c	-0.026127152
114	0xbdb61015	-0.08889786
115	0x3dedd4c1	0.11612845
116	0x3ba33ffc	0.0049819928
117	0xbdbca6ab	-0.09211477
118	0xbdb8151e	-0.08988403
119	0xbce15f8a	-0.027511377
120	0x3d6d7130	0.057969272
121	0xbe7bef54	-0.24603015
122	0x3d67a794	0.0565563
123	0xbde71bd8	-0.11284608
124	0xbdc9c8df	-0.09852766
125	0x3d9e6aea	0.07735236
126	0x3e2bd89a	0.16781846
127	0x3c15f424	0.009152446
128	0x3da5f831	0.081039794
129	0xbd3a5f00	-0.045500755
130	0x3d0597ec	0.032615587
131	0xbc1e7992	-0.009672539
132	0x3e92174b	0.28533396
133	0xbc899242	-0.016793374
134	0xbdb38e34	-0.087673575
135	0xbcd52642	-0.02601922
136	0xbe5b60dc	-0.21423668
137	0xbcc2ac93	-0.02376393
138	0xbcd1a15b	-0.025589636
139	0xbcdaf909	-0.026730077
140	0x3dbe70b8	0.09298843
141	0xbe05f1d7	-0.13080536
142	0xbbe93f47	-0.007118139
143	0xbcc2ebae	-0.023794021
144	0x3e1a0f63	0.15044932
145	0x3d963b4b	0.07335528
146	0xbbed5f92	-0.007244059
147	0x3de5c7ac	0.11219725
148	0x3b576bea	0.0032870718
149	0xbd5e452e	-0.054265194
150	0xbb8e2d9a	-0.004338932
151	0xbd3ed4e2	-0.04658974
152	0xbdb4186f	-0.08793723
153	0x3de2d792	0.11076273
154	0xbdf0915c	-0.11746475
155	0xbe13a82d	-0.14419623
156	0x3dbdcffb	0.09268185
157	0x3c7d2dd2	0.015452819
158	0x3d206099	0.039154623
159	0x3dba3e25	0.090938844
160	0x3d00d5d7	0.031453934
161	0x3d3bbd58	0.04583487
162	0xbc3c9a34	-0.011511374
163	0x3e408200	0.18799591
164	0x3e182b57	0.14860283
165	0x3d6ec094	0.058289126
166	0x3d27053c	0.040776476
167	0xbccccc45	-0.024999747
168	0x3da88a93	0.08229556
169	0x3c9a7b4c	0.01885762
170	0xbe4365f1	-0.19081856
171	0x3d58af60	0.052901626
172	0xbd442621	-0.047887925
173	0xbd6b6486	-0.057468913
174	0x3e0f403e	0.1398935
175	0xbda18ad5	-0.07887808
176	0x3de2ba07	0.11070638
177	0xbe2b43ac	-0.16725034
178	0xbe1653de	-0.1468043
179	0x3de3fb2a	0.1113189
180	0xbcd4dd3f	-0.025984405
181	0x3de13f7e	0.10998438
182	0x3e354fe7	0.17706262
183	0xbe34b0f9	-0.17645635
184	0x3c01f739	0.007932478
185	0x3c3b5bed	0.011435491
186	0x3d219453	0.039448094
187	0x3dc3b558	0.09556073
188	0xbd366a06	-0.044534706
189	0xbb9a0b61	-0.0047010635
190	0x3db4d23a	0.0882916
191	0xbcd37e0b	-0.025816938
192	0x3bee0d8b	0.007264798
193	0xbdb439c3	-0.0880008
194	0x3d83fde1	0.06444908
195	0x3e4c38f2	0.19943598
196	0xbdb02090	-0.08599961
197	0xbd3aeb7a	-0.045634724
198	0x3d7f0f9d	0.06227075
199	0x3bdcab40	0.006734282
200	0xbe3811f5	-0.179756
201	0xbd7c7683	-0.06163646
202	0xbdb84cf3	-0.08999052
203	0x3e3369e9	0.1752087
204	0xbdd39bcc	-0.1033245
205	0xbe46ffb9	-0.19433488
206	0xbc7866d5	-0.015161236
207	0xbd2319de	-0.03981959
208	0x3da9b43b	0.08286329
209	0xbe2e17f2	-0.17001322
210	0xbd0c8aa3	-0.0343119
211	0xbc55acf6	-0.013041725
212	0x3b7160f9	0.0036831482
213	0x3dffbe2c	0.12487444
214	0xbdf75712	-0.12077154
215	0x3d2942a1	0.041323308
216	0x3e10142d	0.14070196
217	0xbd04cb08	-0.03242019
218	0x3e1ca521	0.15297367
219	0x3db92670	0.090405345
220	0x3ca69cf2	0.02033851
221	0x3d2ec2d6	0.04266628
222	0x3dbd395c	0.09239456
223	0xbdd3d69c	-0.10343668
224	0xbdcf4d01	-0.10122109
225	0x3e10276f	0.14077543
226	0x3dc877fd	0.09788511
227	0xbe78a6a7	-0.24282323
228	0xbcbcff26	-0.023070883
229	0x3c97ecc8	0.018545523
230	0x3cd1508d	0.025551105
231	0x3c0b26cb	0.008493136
232	0xbe119c5a	-0.142198
233	0x3e46ed2d	0.19426413
234	0xbdf7fd88	-0.12108904
235	0x3d91873a	0.071058705
236	0xbe4976ba	-0.19674197
237	0xbbb525ee	-0.005528203
238	0x3cfb6255	0.030686537
239	0x3e1573ca	0.14594951
240	0x3d6db61b	0.058034997
241	0xbd6c5f48	-0.057708055
242	0xbdc0bb3d	-0.09410713
243	0xbd6e80f9	-0.058228467
244	0x3e54fcba	0.20799533
245	0x3cf5bf75	0.02999852
246	0x3e0b900f	0.13629173
247	0x3d89e03d	0.06732223
248	0x3db74e25	0.08950452
249	0xbde80f02	-0.113309875
250	0xbdaa692f	-0.083208434
251	0xbdf69021	-0.12039209
252	0xbd045e77	-0.03231665
253	0xbcd05617	-0.025431676
254	0x3d920ad1	0.07130969
255	0x3e059b15	0.1304744

fc_mean.fc.0.bias f4 [10]
0	0x3e076dec	0.13225526
1	0x3c9d3f25	0.019195149
2	0x3d88e298	0.06683844
3	0x3de31831	0.110885985
4	0x3a3cdaf4	0.00072042574
5	0xbdf42dad	-0.119227745
6	0xbd8624cd	-0.06549988
7	0xbe36114c	-0.17780036
8	0x3e115cba	0.14195529
9	0xbde09116	-0.10965173
