AutoEncoders/VAE_CL/saved_model/con_model.pth (torch, 685752 bytes, 15 tensors)

encoder.0.fc.0.weight f4 [100, 789]
00000000: 3efe df3c ac04 dcbb a674 093b c09b d23c
00000010: d5d7 c8bc a29f f83c 1d8d db3a 8217 de3c
00000020: f086 643c 8e0a 983b 509c 9a3c 0b37 303c
00000030: 893c b43c acbb 9fbb e7d3 d13b 98db bd3b
00000040: f8fb 673c 3e1c 113c 1d55 243d 077a a43c
00000050: bd8e 8bbb 71d7 4cbc ebb0 463b 094f d0bb
00000060: dde3 1dbb 7f5e 2f3c a493 f73c 283d e83c
00000070: 2060 d3bc 0484 fe3c d931 9b3c 112e 2f3d
00000080: 6e1c 053d af01 c0bc 8493 cbbc eadb 05bc
00000090: caef 243d ba61 493b 1888 c63c fc3c f7bb
000000a0: 5df1 333d 8eb1 c6bb 1e37 123d f758 1a3c
000000b0: 3dd8 1fbc 0aa1 df3c ec2d 22bc 6a7e 9f3c
000000c0: 2ee6 a7ba 1afc a63b 66a9 cebc daa8 02bc
000000d0: c4f9 e73c 9306 b539 091b 363d bcbf 193d
000000e0: 0742 f03b 95e4 71bc de51 fb3c d53b a43c
000000f0: 629b 65bc e593 033d f8c6 fa3c 0234 263d
00000100: 0669 33bc 322a 4e3b 2931 083c 1699 303c
00000110: 0c4e b4bc 33ab 8bbc 1660 e83c e4a2 2a3a
00000120: 1a2e d83c 765e 2f3c eaee a63c 6ae1 863c
00000130: ae32 b03c 724a da3c ad5f c4bc e884 dc3c
00000140: 3457 83bc b153 92bc a4e9 363c 932d 403b
00000150: 5802 f53c 735c 3ebc 858b b9bc 07fc 0e3d
00000160: b6cc 733b 6e49 eb3c fc40 a63c e7f1 90bc
00000170: 477b 843c a6b5 933c e2ee 88bc 24bf 51bc
00000180: 8971 833c 427f 213c ce41 a3bb e65c 05b9
00000190: d51c 233d 63b5 11ba a738 e63c 9636 d43c
000001a0: 2169 5cbc 22ac a0bc a5c8 353d de1d 383c
000001b0: 98bf 083d 6728 863c ed84 a73c 64c8 113d
000001c0: 5721 2f3d eb9d 6fbc 3b5e 5c3c 36ae 113d
000001d0: bba0 0e3d 2974 fc3c d47c 6bbc f024 6abc
000001e0: c10a 28bc bf71 543c 512a 1c3d 53ae c0bc
000001f0: 12ad 443c caac c0bc d7de 11bd b808 40bc
00000200: 8b38 6e3c 32b8 d73c 87b4 e5bc 27db 463a
00000210: b34f c83c 53bf b13c a5ce 013d d01e ff3c
00000220: 96ee 003d f10c 953c 0d6c 7bbc 7830 abbc
00000230: 88aa efbb e209 9f3b fa15 52bc 3d6b b43c
00000240: 1be2 b93c c44b b73b 8170 e13c 32a8 b63c
00000250: 0f67 f33c 81c0 ab3c f553 95bc a51e dc3c
00000260: a180 52bc e45d 23bc 5c48 30bd c955 04bd
00000270: f68b febc d5de d4bc 25c9 8e3c c4e1 9fbc
00000280: 0f50 13bd 2fc5 ae3b 72f8 013c fa89 de3c
00000290: 1d22 25bc c0bf 883c 65cf 81bb cd20 833a
000002a0: 01b2 9ebc f7cb ecbb d58f f9ba 7461 c03c
000002b0: aefe 8f3c 9432 a03c 256f 463d 7c6d 433d
000002c0: bedf c13c 29ca ebbb 30f6 11bd b2fd 973c
000002d0: 563b 98bc d9a8 78bc 7388 32bd c113 9fbc
000002e0: 46b6 0bbd 90ac bd3c 8fed 17bd 8803 14bd
000002f0: c1ed f5bb 861d c5bc 47e5 093c 9dba 8fbb
00000300: 6d15 e5bb 6dfd 333c 876b 0e3d a46d 83bc
00000310: 78ad d23c ba8a 023d 9980 333d c367 86bc
00000320: 92fa 853c 06b8 85bc 402d 273d 3157 a7bb
00000330: cc2d 383c 93a0 fabb 3f41 50bc cc39 42bc
00000340: 237a e7bb cd7e 253b c62e 07bc fd12 fdba
00000350: 18dd 25bd bd7e aa3c ce61 d63c 32e5 c93c
00000360: 5bb3 ad3c 5c9f 06bd 5191 86bc aef3 283d
00000370: b198 8dbc d231 2b3d dea7 9bbc 2ab7 83bc
00000380: 504c d83c 6cd2 87bc 4d5b 5b3a 0144 0d3d
00000390: 5e82 143d ada0 263d 0dc2 893b 8151 aebc
000003a0: 1039 e13c d80e 8ebc fc8e d3bc a063 3ebb
000003b0: 9d11 22bd f681 223c c3f0 593c 64d8 0bbd
000003c0: 4790 03bd 296b 94bb 9e9f 433c 2755 bbbb
000003d0: 9caa bbbc e29c f9bb 8e33 16bd 1056 bbbc
000003e0: bc10 6dbc e0b0 213d 1567 253d 98ba 4abb
000003f0: df99 2d3c 68de cb3c c3f4 593c 60ef 19bc
0.027342912 -0.006714424 0.002097407 0.025709033 -0.02451698 0.030349556 0.0016750429 0.027110819
0.013948187 0.00463993 0.018873364 0.010755311 0.022001522 -0.004874667 0.0064034346 0.005794
0.014159195 0.008856831 0.040120233 0.020077718 -0.004258959 -0.012502537 0.0030317854 -0.006357078
-0.0024092116 0.010703682 0.030221768 0.028349474 -0.025802672 0.03106881 0.018944668 0.04276854
0.032497816 -0.023438303 -0.024850614 -0.008170107 0.040267743 0.0030728416 0.024234816 -0.0075451117
0.043931354 -0.0060636466 0.035697095 0.009420625 -0.009756145 0.02729847 -0.009898644 0.019469459
-0.0012809688 0.005095971 -0.02522726 -0.007974828 0.02831734 0.00034527908 0.044459376 0.037536368
0.00733209 -0.014763971 0.030678686 0.020048061 -0.014014097 0.032123465 0.030612454 0.040576942
-0.0109503325 0.0031458256 0.008312502 0.010778686 -0.022009872 -0.017049408 0.02836613 0.0006509258
0.02638917 0.010703674 0.020377595 0.016464908 0.021508541 0.026646826 -0.023971403 0.026918843
-0.016032793 -0.017862173 0.011164103 0.002932404 0.029908344 -0.011618721 -0.022649536 0.03490832
0.0037200875 0.028721537 0.020294659 -0.017693473 0.016172064 0.018030953 -0.01671547 -0.012801919
0.016045349 0.009857001 -0.0049822098 -0.00012718476 0.03982242 -0.000555834 0.028103186 0.025904935
-0.013452799 -0.01961333 0.044380803 0.01123759 0.033385843 0.016376687 0.020449126 0.035591498
0.042756405 -0.014625053 0.013450201 0.03556653 0.034821253 0.030817108 -0.014373023 -0.014291033
-0.01025647 0.012966572 0.038126294 -0.023520624 0.012004154 -0.023519892 -0.035612907 -0.011720829
0.014539848 0.026332948 -0.028040184 0.0007585757 0.024452066 0.021697676 0.031691212 0.031142622
0.031477533 0.018194648 -0.0153455855 -0.020897135 -0.00731403 0.004853473 -0.012822622 0.022023791
0.022690823 0.0055937488 0.027519466 0.022296999 0.029712228 0.020965816 -0.01822851 0.026870081
-0.01284805 -0.009971116 -0.043037757 -0.032308374 -0.031072598 -0.02598516 0.017429898 -0.019516833
-0.03596502 0.0053335647 0.007932769 0.027165402 -0.010078934 0.016692996 -0.003961491 0.0010004282
-0.019371988 -0.007226463 -0.0019040058 0.02348397 0.017577495 0.019555368 0.04844584 0.047711834
0.023666259 -0.00719573 -0.035635173 0.018553589 -0.018582981 -0.015176975 -0.04358716 -0.0194186
-0.034109376 0.023153573 -0.037091788 -0.03613618 -0.007505149 -0.02406193 0.00841648 -0.0043862597
-0.0069910795 0.010985714 0.034770515 -0.016043492 0.025717482 0.03187058 0.043823812 -0.0164069
0.016354833 -0.0163231 0.04081464 -0.0051068296 0.011241388 -0.0076485365 -0.012710868 -0.0118546
-0.0070641204 0.002525258 -0.008250898 -0.0019308027 -0.040494055 0.020812387 0.026169684 0.024645422
0.021203687 -0.03286682 -0.016426714 0.041248016 -0.017284723 0.04179556 -0.019000944 -0.01607855
0.026403576 -0.01657983 0.0008367792 0.03448868 0.03625714 0.040680576 0.004204041 -0.021279098
0.02749303 -0.017341062 -0.025825016 -0.002905108 -0.03956758 0.00991868 0.013302031 -0.034141913
-0.032120015 -0.004529376 0.011939911 -0.005716938 -0.022908501 -0.007617579 -0.03667026 -0.022868186
-0.014469322 0.03947532 0.04038151 -0.0030933972 0.010595768 0.024886325 0.013302985 -0.00939545

encoder.0.fc.0.bias f4 [100]
00000000: 5e02 26bd 3798 043d 7c0a dc3d 08df 8abd
00000010: 04e0 253b 381f 5fbc 28bd 16bd a3d6 8a3d
00000020: d582 debc eaf6 473c 570d efbc 452e 1c3d
00000030: ae4d 653d 4060 83bc fe06 603d 1aa4 ba3c
00000040: c01d a63a 5954 893d 536c 6a3d fd41 10bd
00000050: fa93 1e3d fa40 423d 8e13 043d 3d08 2cbd
00000060: 7ea5 e7bc b652 e9ba f214 7f3b 9ec5 f3bb
00000070: d0f5 853c 84a0 05bd 5f72 403b aaec 5c3c
00000080: 6ce4 09bd d7b6 9d3d 2aa6 b9bc 9b79 b5bc
00000090: cdf1 7c3b 266b 953d b58a ffbb f636 16bc
000000a0: b8c6 d63d a184 a8bc 544a a93c 60a0 643d
000000b0: 9f7d f9bc 13a0 1e3c 05bc 1cbd 563e 9d3d
000000c0: 5919 07bd 4553 1dbd d99c f4bc 51d2 ab3b
000000d0: 55f0 793d cf91 013c 0925 3f3d b117 afbc
000000e0: 35bf 9e3b 9056 4dbd 9adf 9939 f0cc 4bbd
000000f0: dd70 f2bc ad1e a3bc 6a4b 94bc da79 ab3c
00000100: 0793 13bd 0dd4 623c 595f 49bc e0ee 523c
00000110: be47 8fbc e4f1 923d ae48 5f3c c85b 703b
00000120: 5fdf a9bc 4747 dd3c 6dcd 813d c985 743c
00000130: c92c 38bd 57bc aabb 7109 67bc f8e4 993c
00000140: e51b d83c 770a c9bc 3190 993c 4e79 2a3d
00000150: 5678 c4bc c0dc 2c3d e0a1 dcbc d98b d6bc
00000160: 6d1a 40bc f008 febc 4b71 a3bc 7801 68bc
00000170: b13c 673d 2eee 31b9 43a0 5c3d 2782 6e3c
00000180: 6e8a 3b3c fb1f cebc a56f 8c3c 7ebc 51bc
-0.0405296 0.032371726 0.10744187 -0.06780821 0.0025310526 -0.013618283 -0.036801487 0.0677922
-0.027161995 0.012204865 -0.029181166 0.038130064 0.055982284 -0.016037107 0.05469417 0.022783328
0.0012673661 0.06705541 0.057232212 -0.03521918 0.03871534 0.047425248 0.03224521 -0.042000044
-0.028277155 -0.0017801139 0.0038922396 -0.0074393293 0.016352564 -0.032623783 0.0029365045 0.0134841595
-0.033665106 0.077008896 -0.022662241 -0.022152713 0.0038596273 0.072958276 -0.0077985176 -0.009168377
0.10487121 -0.020571055 0.020665325 0.055817008 -0.030455409 0.009681719 -0.038265247 0.07677905
-0.032983158 -0.03840949 -0.029859947 0.0052435775 0.061020214 0.007908299 0.04666618 -0.021373602
0.004844571 -0.05013138 0.0002934903 -0.04975599 -0.029594833 -0.019912088 -0.018102366 0.020932127
-0.036028888 0.013844502 -0.012290799 0.012874335 -0.017490264 0.07175043 0.013628168 0.00366758
-0.020736394 0.027011527 0.0633801 0.014924475 -0.044964585 -0.00521044 -0.014101372 0.018785939
0.026380489 -0.024541123 0.018745514 0.04161959 -0.023983162 0.04220271 -0.026932657 -0.026189731
-0.01172505 -0.031010121 -0.019951483 -0.014160506 0.056454364 -0.00016968764 0.053863775 0.014557398
0.011446578 -0.025161734 0.01714308 -0.012801288

encoder.1.fc.0.weight f4 [50, 100]
00000000: b5a9 113c 829c 4cbe 5d04 a4bc 6e75 c4bd
00000010: 0dd0 c83d 289d c9bd 4780 423d b10c 1abe
00000020: fecc 6e3d fb75 09bc 9e44 45bd fe1b 8bbd
00000030: 36c8 cb3d 21d5 553d 6829 403e f0b8 7b3d
00000040: 7ebe 11be b82e b63d ab55 22be 4924 91bd
00000050: b3cf a1be 9203 aabd 7082 9ebd 2b30 1f3e
00000060: 1b89 c43d 51bb eebc c5c8 80bd 76d6 d5bd
00000070: 70fa 063d b86b d13d 6710 c3bd 18c5 b83d
00000080: 18cf 8d3d b311 e63c 47e5 afbd 11a9 893c
00000090: a622 70ba d32d bc3d 5021 1fbb 5cb7 41bd
000000a0: 6277 9cbc 690c 42bc e7cf 873c a322 08be
000000b0: 2a63 973d 6a32 b53d cdbc 253d fa3f e53c
000000c0: 04c3 08bd 0deb 19bd c5e6 b6bb 65d1 61bc
000000d0: 6c36 aebd 485b c5bd 0df0 8cbe 1673 0c3e
000000e0: 662d 513c fa84 d43e 03c0 2cbe 40a6 223d
000000f0: 8c6d 263e 660d 0abd 83c3 d9bb 5cea c03d
00000100: 657d cfbd b12b 66bd 5bb6 973d d8c5 5dbd
00000110: b322 a9bd a25b 903e 1d43 b83c 84a8 3fbe
00000120: 4ba7 13bd aac5 01be 0813 3dbd 6b0d 853e
00000130: 5be4 ffbc 2e8e a6bc d9dc f03b 9ecd d73d
00000140: fa7c 4bbd 0732 883d 4c3f 89be 72c4 8fbc
00000150: bccd d1bd deeb cabd 33b0 213d 98a1 95bd
00000160: 67a6 d3bd 189c cbbd 5228 24bd a19f 5e3d
00000170: 0cf7 22bd 6a13 b23d a1d7 da3d d9ca adbd
00000180: 7e3a 193d d38c 203d 45b9 59be 59ec 85bd
00000190: b756 3abd e483 ddbe 7f18 143e b045 503e
000001a0: 8865 75bc 0442 143d 75b9 d0bd 182e a73d
000001b0: 449e a0bd bcb6 59bc 39a4 c1bd 3aa0 a4bc
000001c0: aa34 033e 9a3e 50bd d44e c9bc 9064 123d
000001d0: 84bb c1bd d466 13bc df0e 84be 59a8 8abb
000001e0: 3389 c73d 6e0b dd3c 590d 09bd ba79 a83d
000001f0: 69bb ae3d 53ef 6039 7688 453b 21d2 80bd
00000200: 046b 203d 0e29 373b c620 193d e01d 673d
00000210: f66e c4bc 1269 d5bd 4c63 59bd 48a1 603c
00000220: 921a 9cbd 57a8 1c3c 9620 083d 7f52 b93c
00000230: bd25 893c 53da d13c 908f 4c3d 1019 82be
00000240: c5d3 06bd fac1 bbbc 7c1c 153d eb85 0a3d
00000250: a590 693d fec7 c63c 18fa edbb a09f 693d
00000260: 6a7a 4cbd 50da a83d 86cf 2a3e a44a b5be
00000270: 1d4b c1bd f191 0c3d c5fb c43c 1295 06be
00000280: c633 353e cf90 94bd d34e 513c 7c79 d6bd
00000290: 4db7 e7bc 0dc1 e23b a70c eb3c 0f5d c9bd
000002a0: 46ba 26bd 4c2f e53d 848b 10bd 36d4 853d
000002b0: e325 83bd a3d2 07bb 5037 153d bc49 4f3e
000002c0: 3399 b33d 758d 713d 2b80 a2bd 4d56 a73c
000002d0: 7edc 72bd 909e 833d 5b64 a33d f757 09be
000002e0: 0ca2 9d3d b79d 1abe a7b3 c7bd ce18 de3d
000002f0: 578a 8dbd 98b3 b4bd 7ab1 acbd bf4d 5dbd
00000300: c4e1 4ebe 66cd ef3b 420b 75be 310f 383c
00000310: 5e61 bd3d 2ffd b23d 32ce 133d 575c 3fbd
00000320: 16f1 d03d 4864 153e 85e4 a4bc da19 bebd
00000330: 2940 2c3d 75c4 f1bd e339 d63b 82b4 aabe
00000340: 5f8e de3c 93e1 afbd 2710 b43d d3dc 043e
00000350: eae5 9e3d dff6 8a3d ffd7 d1bd 10cb 023d
00000360: 9565 b43d bb73 c73d 10e8 00be 121f d13d
00000370: e730 13bd 1e7a 26be e3b3 febc 5c0a e93d
00000380: 38b2 1f3e df54 c5bc aa38 52bb b15b 71bd
00000390: dde2 1bbe 340e 813c de9b c43d 3c46 3f3d
000003a0: a81e 243d 9997 8a3b 4188 19bd 7d03 eebb
000003b0: b835 08be 2896 e8bc 5a42 9cbd 1349 a5bd
000003c0: 999b 00be f029 64bd ceaa 9a3d 2316 a43d
000003d0: fdfa 98bd 40a3 a7bd e53f 2d3c 0063 183d
000003e0: 2961 b43d 6db2 8d3d 161a 18bb 11d9 75bb
000003f0: 77df 973c 3834 893c 92cb 21bd 6eaf 0a3e
0.008890559 -0.19981578 -0.020021612 -0.095927104 0.098053075 -0.09844428 0.047485616 -0.15043904
0.058300965 -0.008389945 -0.04816114 -0.067924485 0.099502966 0.05220521 0.18765795 0.061455667
-0.14232823 0.0889563 -0.15852992 -0.07086999 -0.31603774 -0.08301462 -0.07739723 0.15545718
0.09596463 -0.029142054 -0.06288294 -0.10441296 0.03295368 0.10225624 -0.09524613 0.09021968
0.069242656 0.028084612 -0.08588653 0.01680425 -0.00091604365 0.09188428 -0.002428133 -0.047294006
-0.019099895 -0.011843779 0.016578628 -0.13294463 0.07391961 0.08847506 0.040463258 0.027984608
-0.033389106 -0.037577678 -0.005581709 -0.013782834 -0.08506474 -0.09636551 -0.27526894 0.13715777
0.0127671715 0.41507703 -0.16870122 0.03970933 0.16252726 -0.033704184 -0.0066456213 0.094197005
-0.10131339 -0.05619401 0.074078284 -0.054143757 -0.082585715 0.2819491 0.02249294 -0.18716627
-0.036048215 -0.12673059 -0.046160728 0.259868 -0.031236818 -0.020331468 0.007350546 0.10537265
-0.049679734 0.06650167 -0.26806104 -0.017549727 -0.10244319 -0.09908269 0.039474677 -0.07306212
-0.10334473 -0.09941882 -0.040077515 0.054351453 -0.039786384 0.08695109 0.10685659 -0.08485956
0.037409298 0.0391968 -0.21262081 -0.0653922 -0.045492854 -0.43264687 0.1446247 0.20339084
-0.01497782 0.03619577 -0.10191623 0.081630886 -0.07842687 -0.013288196 -0.09455151 -0.020095933
0.12813058 -0.05084095 -0.024573721 0.035740435 -0.09459594 -0.008996684 -0.25792596 -0.0042314944
0.097429655 0.02698299 -0.033459995 0.082263425 0.085318394 0.0002145146 0.0030141152 -0.06290079
0.039164558 0.0027948054 0.03738477 0.056424975 -0.023978692 -0.10420431 -0.053073213 0.013710327
-0.076222554 0.00956162 0.0332342 0.022622345 0.016741628 0.0256168 0.0499416 -0.25409746
-0.032916803 -0.022919644 0.036404118 0.03381912 0.05702271 0.024265286 -0.0072624795 0.057036996
-0.04992143 0.08244765 0.16680726 -0.3540851 -0.09438155 0.034318868 0.024045834 -0.13142803
0.17695531 -0.072541825 0.012775141 -0.1047239 -0.028285647 0.006919986 0.028692557 -0.09832203
-0.040704988 0.11190662 -0.035289302 0.06534617 -0.06403711 -0.0020724915 0.036429703 0.20242971
0.08769455 0.058972795 -0.07934602 0.020426894 -0.05929231 0.06426728 0.07978126 -0.13412462
0.076969236 -0.15099226 -0.09751063 0.10844575 -0.06911152 -0.08823317 -0.084322885 -0.054029223
-0.2020331 0.0073181866 -0.23930076 0.011234091 0.09247087 0.08739697 0.036085315 -0.04671892
0.102022335 0.14589036 -0.020128498 -0.092822745 0.042053375 -0.11805049 0.0065376624 -0.33340842
0.027167497 -0.08587947 0.08792143 0.12974863 0.077586964 0.06785368 -0.10246276 0.031931937
0.08808438 0.09738871 -0.12588525 0.10211004 -0.03593531 -0.16257522 -0.031091636 0.11378929
0.15595329 -0.024088321 -0.0032077231 -0.058925334 -0.1522326 0.015753843 0.09600042 0.04669784
0.0400683 0.0042294976 -0.037483457 -0.0072635994 -0.13301742 -0.028391913 -0.07629843 -0.080705784
-0.12559356 -0.055704057 0.0755211 0.08012035 -0.07469747 -0.08185434 0.010574316 0.03720379
0.08807594 0.06918798 -0.0023208908 -0.0037513415 0.018539174 0.016748533 -0.03950078 0.13543484

encoder.1.fc.0.bias f4 [50]
00000000: 8ef3 483d 88da 9c3c 38b3 1c3c 9370 5cbd
00000010: a526 463d 4a2e 9fbc df1e 7c3d dab1 9b3d
00000020: 603c d6bc 0951 483d e91c b13d c4ca da3d
00000030: 9219 cbbb 3164 e93d 7d19 813c 1fda f23d
00000040: 2606 773d 1e43 1f3d 95c1 383d 43e6 0b3c
00000050: b6de 953c 0f19 773d 8d93 b7bd ace9 15bd
00000060: 0207 cdbd 6bf7 62bd 2f58 5f3d b863 1d3d
00000070: ac27 923d 2ae3 e5bd 6157 043c d60d 2c3d
00000080: 0c4b e0bc a2fb f43c 3a25 63bd 5bd6 9c3c
00000090: 1e51 bd3c 3513 c43c ba50 c43d 8270 893d
000000a0: cc20 e63b 6a65 013d 971d 60bd af50 aa3d
000000b0: 4f67 973c 9d50 263e 1473 633d 5da9 1e3e
000000c0: 3931 0bbc 7a50 4dbd
0.049060397 0.019147173 0.009564213 -0.053818297 0.048376698 -0.019431252 0.06155288 0.07602282
-0.026151836 0.048905406 0.08648092 0.10683206 -0.0061981166 0.11396063 0.015759224 0.118580095
0.060308598 0.038882367 0.04510649 0.008538785 0.018294673 0.060326632 -0.0896369 -0.0365998
-0.10011102 -0.055411737 0.054527458 0.038425177 0.07136473 -0.11224969 0.008077473 0.042005382
-0.027379535 0.029905144 -0.055455424 0.019145181 0.023109969 0.02393494 0.0958571 0.06710912
0.0070229527 0.031590857 -0.05471572 0.083161704 0.018481879 0.16241689 0.05552967 0.15494294
-0.008495622 -0.050125577

decoder.0.fc.0.weight f4 [100, 50]
00000000: b535 fdbc b7c6 04be 6477 2d3d e56e 30bf
00000010: 47c1 53be 30a4 8cbe 1019 2f3e f03b 963d
00000020: b9a2 9c3e 24c6 bf3d f4a9 01bf 3762 13be
00000030: c37b 8dbd fea1 033e 133d 67bc 5e2b 063e
00000040: d520 15bd 1be1 563e 7ec6 3abe e1e9 00be
00000050: fc2d ba3e 6d7f 23bd 94c8 1a3e d38d 293e
00000060: 6be5 a73e ab50 dabe 8801 d7be 8d67 cb3d
00000070: 4b93 b53e 4dfb 553d 0c32 cd3e a580 853d
00000080: 81ce c33c 70f2 9d3e 1934 8dbe b185 65bd
00000090: 103f 973d bf91 7cbb 2792 8abd 93bb fe3d
000000a0: 563f 9bbe 5e30 053e abb4 3cbd 4d35 25bc
000000b0: 190d bcbd 270e bcbc 7cc2 0bbd 8374 b2be
000000c0: b49c 26be 7b67 033f d47f a93d 00fc 9c3d
000000d0: 8abc fe3d ec7c 02be b6f5 95bd 20a4 a23c
000000e0: 5527 e5bd 7a04 f13d 2c6a 72bd 009c b23a
000000f0: 63ac 02be 0028 5e3a 0e8e ec3d e8a6 06bd
00000100: 3817 493d f6c0 43bd 6438 7bbd 96ff c73d
00000110: bfca 02be c8dc 21bd 0014 c139 9063 69bc
00000120: 2c14 bcbc f08a 0ebd 745e bbbc 48c8 a3bc
00000130: f466 083d b20c d8bd cb8b 0dbe ddfe 043e
00000140: 6a3d 56bd 4315 04be 33c4 0d3e b4dc 1a3d
00000150: ab1b a1bd f89e b2bd f08a 053c b3db 0fbe
00000160: 501f f0bc 6ca3 03bd 30b5 983c eae3 ed3d
00000170: 5f97 d1bd 9a12 c93d f0d7 863c 60e8 033c
00000180: 7cd9 dc3d 6083 9d3b 6855 0a3d ba1f a53d
00000190: 739a 7d3e 18ce 2e3e ebd9 c9bd 0c9e 47bf
000001a0: f09a 4d3e 4e9a 7dbe 42e6 18be e773 8f3e
000001b0: c11e 3f3e 7899 ddbc cdb3 6fbd 3dcf cbbd
000001c0: cf5c f7bd 291d 253e 8c25 c1be ae53 cebd
000001d0: 2e0e c53d 32cb a03c 5e46 a63d 1e24 a6bb
000001e0: 5fe6 5d3b 2bbe c3bd 7c20 f7bd 587b 6e3e
000001f0: e928 3dbd 244e 81bd c2c8 37be e2bd 90bc
00000200: 6523 27be 0ac5 603b 8757 643d 482d c9bc
00000210: ff7d 10be 64d2 8e3d 22d5 17be cc03 6e3e
00000220: 1d44 253e 99ee 64bc 357e 2c3e 97fa 213d
00000230: 2d0f 88be 184b d63d cff1 6bbe 97a6 673e
00000240: a37e a63d a10b 843d 9484 373e 069f 60be
00000250: 4755 89be a404 5bbe 99e9 6e3e e24e ea3c
00000260: 1e61 fe3d 7eec 82bd 0bcc c43e d097 e3bd
00000270: 61b8 ba38 299e 9ebe 86df 0a3d bf28 243f
00000280: 91b9 83be 9c38 85bd 55d9 b73d d111 c0be
00000290: 3243 203e 4ea3 09be 4d43 6bbd 8246 9fbd
000002a0: 4bba bd3d 97d5 923d 1817 a03d e3f7 b0be
000002b0: 2916 a3bd 77c7 bdbd c424 32be 2f6e 913e
000002c0: bd74 893e a34b d53d c479 57be 3c0f c03d
000002d0: b517 ebbd b5e2 263e dcec e2bc 222d cebe
000002e0: e8e3 273f 6fd1 873d 5f25 4f3e 4c1e fc3d
000002f0: 3e94 903d 342e 183d 73f4 27be 5ecb a23d
00000300: a485 cebc 1461 b43d c176 1abe f8e9 f23d
00000310: 8fe2 ecbe 8c72 bcbd 58fb 963d 5cc7 94be
00000320: f868 a63d 00ab 3ebe 6841 b73d dee6 a6bd
00000330: 093b 163e 70b1 973d 4b50 05be d0bc 953d
00000340: 7769 be3e 6e3f c43c 9d5d f2bc 8001 813a
00000350: 37b7 01be 1744 813e e213 463c 9f14 80be
00000360: e104 e13d 9ccb 89bd 631b c43d d9b9 5fbe
00000370: 4f63 813e 6c4f 15be e082 c23c c001 cebc
00000380: 0f80 0b3e e64b 5e3e edb8 423e 9dd8 4dbd
00000390: 86be 983d c2e1 773d 1685 853e 1c9f b63c
000003a0: 4748 97bd 45ff 23bc 959b f1bd 5a12 2dbe
000003b0: 6168 c73d 6663 62bd b4c5 063e 38d6 9dbd
000003c0: 6cc0 0dbd 37a6 f6bb 7358 3d3d 15f8 f7bd
000003d0: a02c c0bd 5a3f c83c da93 053f f6d2 34bd
000003e0: f559 ad3d f169 68be f034 c5bd 8686 fb3d
000003f0: ff53 403d 5d9e 11be 8c60 823d 583f 3b3d
-0.030909399 -0.12966429 0.042350188 -0.6891921 -0.20679198 -0.27469015 0.17099404 0.07335651
0.30592898 0.09363964 -0.5064995 -0.14392935 -0.06908371 0.12854764 -0.014113682 0.13102481
-0.036408264 0.20984308 -0.18239781 -0.12589218 0.36363208 -0.039916445 0.15115577 0.16558008
0.3279222 -0.4263967 -0.41993356 0.0993186 0.35463938 0.052241612 0.40077245 0.065186776
0.02390218 0.30849028 -0.2757881 -0.0560357 0.07385075 -0.003853902 -0.067661576 0.12438121
-0.3032176 0.13006732 -0.046070736 -0.010083509 -0.09182186 -0.022955967 -0.03412102 -0.34854516
-0.16270715 0.51329774 0.082763344 0.07665253 0.12438305 -0.12742966 -0.07322256 0.019853652
-0.111891426 0.11768432 -0.059183285 0.0013626814 -0.12761073 0.00084745884 0.11550532 -0.032874018
0.04909441 -0.047791444 -0.061333075 0.09765546 -0.12772654 -0.039517194 0.0003682673 -0.014244929
-0.022958837 -0.03480047 -0.022872187 -0.019992962 0.03330131 -0.105492964 -0.13822858 0.12987848
-0.052304663 -0.12898736 0.13844375 0.037808135 -0.07866605 -0.08721727 0.008150801 -0.14048652
-0.029311806 -0.032138273 0.018641084 0.11615737 -0.1023395 0.09818001 0.016460389 0.008051008
0.10783669 0.004806921 0.033772856 0.08062692 0.24765949 0.17070806 -0.09856018 -0.77975535
0.20078635 -0.24765894 -0.14931586 0.28018114 0.18664075 -0.027050719 -0.05852108 -0.09951637
-0.12078249 0.16124405 -0.37723958 -0.100745544 0.09621845 0.019628141 0.0811889 -0.0050702235
0.0033859236 -0.09557756 -0.12066743 0.2328924 -0.046181593 -0.06313732 -0.17947677 -0.017668668
-0.16322096 0.0034297132 0.055747535 -0.024557725 -0.14110564 0.069737226 -0.14827397 0.23243636
0.16139264 -0.013972902 0.16845019 0.03954562 -0.26574078 0.10463542 -0.23041461 0.22622143
0.08129623 0.064475305 0.17921668 -0.21935663 -0.26822874 -0.21388489 0.23331298 0.028602067
0.124208674 -0.063927636 0.38436922 -0.1111294 8.9035144e-05 -0.30980042 0.033904575 0.64124674
-0.25727513 -0.06504938 0.08977 -0.37513593 0.15650633 -0.13441202 -0.05743723 -0.0777712
0.09264048 0.07169645 0.07816905 -0.34564123 -0.07963211 -0.092665605 -0.17396837 0.28404376
0.26846877 0.10414817 -0.21042544 0.09377906 -0.11479131 0.1629742 -0.027700834 -0.4026881
0.6558213 0.06631743 0.202291 0.12310466 0.07059525 0.037153438 -0.16401844 0.079489455
-0.02521021 0.08807579 -0.15084364 0.11861032 -0.462666 -0.092015356 0.07372159 -0.2905835
0.0812549 -0.18619919 0.08948022 -0.08149503 0.14670958 0.074068904 -0.1301891 0.07311404
0.37189838 0.023956027 -0.029585654 0.0009842366 -0.12667547 0.2524726 0.012089701 -0.25015733
0.10987259 -0.067282885 0.09575536 -0.21848239 0.2527108 -0.14581078 0.023744047 -0.025147319
0.13623069 0.2170864 0.19015856 -0.050255407 0.074582145 0.060518034 0.260781 0.022292666
-0.07386833 -0.0100095915 -0.11797253 -0.16901532 0.097367056 -0.055270575 0.13161355 -0.077068746
-0.034607336 -0.0075271386 0.04622693 -0.12107865 -0.093835115 0.02444427 0.5217873 -0.0441465
0.084644236 -0.22696663 -0.09629238 0.12281518 0.046955105 -0.14220567 0.06366071 0.045714706

decoder.0.fc.0.bias f4 [100]
00000000: bbb5 483e 4c38 93bc 2ba1 343d 6db7 11be
00000010: 5dfb 0b3f 0bc7 86bd 4e2b 683e 1bc9 4c3e
00000020: 162e 0d3e 5100 733e 233d 7abc 4a3e fabd
00000030: 25f0 dabe c629 01bf 5c39 0cbf 61db 42be
00000040: 249d 303a d694 21bf 6887 e03d a02c 0cbf
00000050: 4527 cb3c 32b1 dcbe c488 963d 1907 9abe
00000060: 03ad eebd 4676 083f 104b 013f 490a 2c3f
00000070: 2962 0ebf c799 ea3e 58f6 e13e 7ff2 be3d
00000080: 6b74 49bf eacd 223f b7ef d8bd 4d2b 3b3f
00000090: c58a 93bc 9e88 90bd b40e 8e3d f4b4 ee3d
000000a0: 72d2 92bc 1fe1 40be 2de8 b5bd d502 8c3d
000000b0: 6319 713e 235f 313d e3ca 813e c81f 1a3e
000000c0: d083 0fbe 6267 98bd dfb6 fb3e 7972 453f
000000d0: 8718 913e a142 a0b9 c1d4 1b3f 889a 1cbf
000000e0: 6b25 893e 8e1b e13e bb4b 83bd a912 bf3e
000000f0: 40c9 123f 5b6b 703d 9f47 213e c7e6 af3e
00000100: 6e9f 433f 7f25 5dbf 7d32 91bf ee99 9bbe
00000110: f098 e4be f739 2b3f cfd5 b93d 2561 1ebf
00000120: b76e 813c 6293 00bf 9dc5 f1be 5354 db3d
00000130: 7212 db3e ea29 4f3f 837b 353e c653 0c3e
00000140: fd58 6a3d b63c d73e 169c ddbe e99f 20bf
00000150: 5c3c 93be 8f05 a3be 5303 8abe f959 efbc
00000160: e1b8 a3be 55bb 2c3e c34d 11be ae1f 333e
00000170: f1a1 d93e 4e13 413f 87cf c8bd 0906 073e
00000180: 0697 78bd 66c5 553e e7ba 79bc 2964 a73d
0.19600575 -0.01797118 0.044099014 -0.14230128 0.54680425 -0.06580933 0.2267277 0.1999859
0.13787112 0.2373059 -0.015273365 -0.12218912 -0.4276134 -0.50454366 -0.54775023 -0.19028999
0.0006737283 -0.6311773 0.10963327 -0.5475559 0.024798999 -0.4310394 0.07350305 -0.3008354
-0.11654093 0.5330547 0.5050516 0.67203194 -0.5561853 0.45820448 0.44133258 0.09323596
-0.78693265 0.6359545 -0.10592597 0.73112947 -0.018010506 -0.07057308 0.06936398 0.11655608
-0.017922614 -0.18835877 -0.08882175 0.06836478 0.2354484 0.04330362 0.25350103 0.15051186
-0.14015126 -0.07441594 0.49162957 0.77127796 0.28339025 -0.0003056722 0.6087151 -0.61173296
0.2678636 0.43966335 -0.06410929 0.37318924 0.57338333 0.058696132 0.15749978 0.34355757
0.76415145 -0.8638534 -1.1343533 -0.30390877 -0.44647932 0.6688532 0.09073984 -0.6186698
0.015799863 -0.5022489 -0.4722108 0.10709443 0.4278751 0.8092333 0.17722897 0.13703832
0.057213772 0.42038506 -0.43283147 -0.62744004 -0.28756988 -0.31840178 -0.2695566 -0.029217707
-0.3197699 0.16868336 -0.1418982 0.17492554 0.42506364 0.7542008 -0.09805208 0.13185896
-0.060690902 0.20876083 -0.015242315 0.08173401

decoder.1.0.weight f4 [784, 100]
00000000: ad88 bf3d 4ecd a4bd ffeb 6dbe 1813 de3e
00000010: acc8 57bf cd82 96bd cc4a 6bbe c069 16bd
00000020: 6663 253e d3d1 83be d941 77bf 2204 76bd
00000030: 6ecb 943e 6720 853e 7db1 93be 805a 4abd
00000040: 4259 5e3e 21cf 1c3e e327 4cbf 32c5 4a3e
00000050: 0f92 ddbd bd83 c33e cea2 c13d afcb 203e
00000060: 15b0 69bf a2e6 5abf 8456 58bf 2e87 72bf
00000070: 023f 333d a98e a0bf e013 acbe 867a 6fbc
00000080: 7205 e43e ed58 34bf 069a 0abe f4de 93bf
00000090: 0168 a63e d330 9d3d 51ec 1abe ebc3 b13d
000000a0: b2a5 a3be 9164 833e 5da2 d23c 54a4 393d
000000b0: 129d 85bd 3e10 19be d342 2cbf 34c7 21bf
000000c0: 7d45 5ebd d2c8 dd3e defd 55bd 4ef7 a0bf
000000d0: 482e 2abf 581c cebe dd40 dcbe d23f 7e3e
000000e0: db43 eabe 0ce2 4abf 83e7 ba3e 79a0 77bf
000000f0: a3f1 87be 7e30 a3bd ee62 4ebb 49fc 36bf
00000100: 8951 dabe 7acf 2e3f 8839 2e3f 2e8b 563e
00000110: d955 883e 8f61 9cbe bdc9 783c 7fc5 6cbe
00000120: e60f 1abf 8fc9 f2be b3aa db3e c969 a1be
00000130: 1331 14bf 3b38 d3bf 627d 9abd 5824 f23c
00000140: 3c57 7e3e 181f 9dbd 2ee5 1bbc 8beb f1be
00000150: 52ed 9f3e 64d2 24bf f35a 0bbf c671 623d
00000160: dfc9 cdbd a5c1 e5be 92c4 203e 4615 93be
00000170: 3ef1 5cbf d26c 04bf be75 08bd 0f61 883d
00000180: 428f 053f fafa 78bf e927 0139 b17c 5b3d
00000190: f305 7b3d 002e 9c3c 4e6e 3cbe f728 e33e
000001a0: 0581 61bf 927d 3dbd cd35 83be a83f 58bb
000001b0: 6358 e53d ca53 a8be 2d6f 5ebf a8e5 17bd
000001c0: e34d ca3e d619 8d3e 1ace a8be b475 78bd
000001d0: e5ad 543e 4fcc 203e a0d6 48bf 36c6 423e
000001e0: 53af bbbd 7f63 b43e d8e7 c23d 3c60 1d3e
000001f0: f732 64bf 03f6 69bf 3ea3 50bf b07a 7fbf
00000200: 66f2 ca3c 3c82 9abf 5333 afbe 483c 59bb
00000210: a792 f33e c89f 38bf 9b1c 0bbe c2d2 90bf
00000220: 221f aa3e 8575 5fbc dc52 4bbe 4fe9 80bd
00000230: b079 bebe 1dd2 4c3e 95f4 fe3d bce2 bc3c
00000240: 9062 3cbd 3ab7 19be ec62 2abf 9299 24bf
00000250: 4337 bdbd a07e 013f fdfd 65bd 0bca a4bf
00000260: df80 29bf 3063 cebe cf1f ffbe 0c5c 4e3e
00000270: 9560 ebbe e3a3 2abf 754f 9c3e b5ac 82bf
00000280: f14a 91be 527b edbd baab c8bc 22ef 15bf
00000290: 8242 e2be d273 343f 306e 203f 47b6 663e
000002a0: cc52 a13e 0e59 c5be c6c8 823c f471 76be
000002b0: 6474 18bf c5f2 00bf 8dae e23e 16b7 afbe
000002c0: e18a 13bf 49dd d0bf 8d02 cdbd 900c 433d
000002d0: 6703 883e 3ffb 0abd 1540 443d 453c f0be
000002e0: d6bf 8d3e 220f 28bf 44fb 0fbf e25a 7ebc
000002f0: 0886 42bd e6a8 e3be ac56 2e3e 81b6 86be
00000300: cdd2 43bf 56b2 09bf 7fea 8f3c e1e5 8d3d
00000310: cf79 053f 8a5c 7dbf c361 fcbc e2d7 a7bd
00000320: b724 0b3d a816 82bc 2c46 7ebe 8c23 fc3e
00000330: a06c 6ebf 7c25 a33d 8b23 b2be ab97 d7bd
00000340: 91f5 fb3d 4103 95be c839 8dbf a143 a9bd
00000350: 9e9a 823e 687a 813e 163a e0be 0b0e 11bd
00000360: 7191 3d3e 30b3 673e 34e9 67bf 81c9 a23d
00000370: c608 d4bb 4f26 b43e 4f20 a23d 4114 1f3d
00000380: fac3 6dbf 5bfe 4fbf b34d 35bf 278a 65bf
00000390: e2dd 9e3d 7257 67bf be9b bbbe c92d 76bd
000003a0: ff3c ee3e a613 32bf 4ccc b0be 0cd0 a2bf
000003b0: 2d17 b23e bc82 39bd eee8 cbbd e17c 883d
000003c0: dfc3 8abe e83f 8b3e 4be3 2d3d add3 243d
000003d0: f2b9 87bd 0123 f2bd f237 43bf dc02 1fbf
000003e0: 4f3a 3bbe df0c 203f a274 58bd bc26 97bf
000003f0: 48b2 06bf da34 d4be c3fc 19bf 12a8 043e
0.09352241 -0.08046971 -0.23234557 0.43373942 -0.84290576 -0.07349167 -0.22977751 -0.036721945
0.16151199 -0.2574602 -0.9658485 -0.060062535 0.29061455 0.26001284 -0.2884635 -0.049402714
0.21713737 0.15313388 -0.7974836 0.19801787 -0.10818874 0.38186446 0.09454881 0.15702699
-0.91284305 -0.8550817 -0.8450701 -0.9473752 0.04376126 -1.2543536 -0.33608913 -0.014616614
0.44535404 -0.7044819 -0.13535318 -1.1552415 0.32501224 0.07675328 -0.1512921 0.086799465
-0.31962353 0.25662664 0.025712186 0.04532273 -0.065240994 -0.14947602 -0.67289466 -0.63194585
-0.054265488 0.43317276 -0.05224406 -1.2575471 -0.6647687 -0.40256 -0.43018237 0.24829033
-0.45754895 -0.7925117 0.36504754 -0.96729237 -0.26551542 -0.079682335 -0.0031492072 -0.71478707
-0.4264033 0.68285334 0.68056536 0.2095153 0.26627997 -0.3054318 0.015184817 -0.23122214
-0.6018051 -0.47419402 0.4290367 -0.3152602 -0.5788738 -1.6501535 -0.07543446 0.029558346
0.24837965 -0.07671946 -0.00951509 -0.47250018 0.3123575 -0.6438353 -0.5443565 0.055284284
-0.100482695 -0.44874302 0.15699986 -0.28727168 -0.86305606 -0.51728547 -0.033315413 0.066591375
0.5217172 -0.9725796 0.00012317266 0.053585712 0.06128497 0.019064903 -0.18401453 0.4436719
-0.88087493 -0.04626233 -0.25626984 -0.0032996926 0.11198499 -0.32876426 -0.8688839 -0.03708425
0.39512548 0.27558774 -0.32969743 -0.060659125 0.2076946 0.15702938 -0.7845249 0.19020924
-0.091643 0.3523216 0.09516877 0.15368742 -0.89140266 -0.9139101 -0.8149909 -0.9979658
0.024773788 -1.2070994 -0.34218845 -0.0033147503 0.47572824 -0.72118807 -0.13585131 -1.1314318
0.33226877 -0.013638859 -0.19855827 -0.062945 -0.37202215 0.20002027 0.12448994 0.023057334
-0.045992434 -0.15011302 -0.6655719 -0.6429683 -0.09239056 0.5058384 -0.056150425 -1.2874159
-0.66212267 -0.4031005 -0.49828956 0.201523 -0.45972124 -0.6665632 0.3052937 -1.0208956
-0.28377488 -0.11595787 -0.024495948 -0.5856801 -0.44191366 0.7048923 0.6266813 0.22530471
0.31508482 -0.38544506 0.015964877 -0.24066907 -0.595526 -0.50370437 0.44273797 -0.3431937
-0.5763379 -1.6317531 -0.10010252 0.047619402 0.26565096 -0.033931013 0.047912676 -0.46920982
0.27685422 -0.6564809 -0.56242776 -0.015524598 -0.047491103 -0.44464797 0.1702525 -0.26311114
-0.7649353 -0.53787744 0.017567871 0.069286115 0.5213899 -0.9896933 -0.030808335 -0.08195473
0.03397056 -0.015879944 -0.24831456 0.4924587 -0.931345 0.07966134 -0.34792742 -0.10526975
0.123026974 -0.29104045 -1.1033258 -0.08264852 0.2550859 0.252887 -0.43794316 -0.035413783
0.18512513 0.22626948 -0.90590215 0.0794859 -0.0064707724 0.35185477 0.079163186 0.038837675
-0.9287716 -0.8124749 -0.70821685 -0.8966393 0.077571645 -0.90367806 -0.3664226 -0.060102258
0.4653091 -0.6956123 -0.34530866 -1.2719741 0.34783307 -0.045290694 -0.09956537 0.06664444
-0.27102563 0.27197194 0.04245309 0.040240932 -0.06627263 -0.11823083 -0.7625724 -0.6211374
-0.18283962 0.6251964 -0.052845605 -1.1808696 -0.52615786 -0.41446573 -0.6015131 0.12954739

decoder.1.0.bias f4 [784]
00000000: d5f3 f7bf cce4 fbbf f367 ddbd 3035 d0bd
00000010: cf6c bcbd 5f99 03bf b497 f9bf 80e3 8fbd
00000020: 2d7c fbbf 7017 fbbf 5d29 4abd 41ec 9ebe
00000030: a503 bcbe e9fa f3bd 5c03 10be 57c5 f8bf
00000040: 77f8 d1bf 558c 2fbe 49a1 f9bf be1c 8abe
00000050: df9b f9bf c020 55bd e66e d6bd 3282 b1be
00000060: 5dfe abbe 47f6 d2bd 2cc9 fbbd 7bc3 76be
00000070: 4518 c7bd 8e03 e9bf 974a e2bd 7742 44be
00000080: f672 b9bd bad0 b2bd 3e4a 8abd bd9e fdbf
00000090: d5b8 dabd 4f96 9fbd 128f 1abe 8efb 10be
000000a0: ade5 30bd 8f5e 1cbe 82dd 99bd bbe6 debf
000000b0: bd91 5fbd 05e3 4cbe 9ca8 e9bf 7476 9dbd
000000c0: dfde a6bd 8dca 12be 5ba7 00c0 84e5 47be
000000d0: 18c5 a9bd f3c2 12bd 2b61 20be 1f9e 0fbd
000000e0: b20e fabe 3fac 00c0 6f24 00c0 c384 80be
000000f0: 9040 9ebd 3c1e b2be 925d 66bd 75f6 b4bd
00000100: dea0 d2bf b8a9 08bd e935 03be dc17 99bf
00000110: c089 5bbf 9a65 86bd 0e2e 09bf 6ef8 a6be
00000120: 836e 293c 1892 ccbe f8b2 1abd 44c9 9cbc
00000130: ba19 11be 61f0 5ebd 8ccf 6cbe d1e6 edbe
00000140: e9f5 f3bd ac64 efbd 6ba2 01c0 c409 47be
00000150: abd0 46be ef00 fcbf 6b3a 9fbd 4d45 00c0
00000160: 5adf c6bc 7e58 a7bf 55ee dcbf 4c7e b1bf
00000170: d2a0 a7bd 3450 66bf 8a4e 313c d486 98be
00000180: cb6e afbd 6a37 82be 72f1 01bd 2270 b9bc
00000190: fe82 dc3c 6404 84be e83c 84be 57b8 043d
000001a0: e6d5 b5bd f262 d3be 85e7 04be 41e7 86bf
000001b0: b122 97bd 0975 01be bd27 7abf 5ad6 fdbf
000001c0: f52e 01c0 b5c7 c7bf 15c9 60bd 5d0d 42be
000001d0: ed80 2abc 265b c3bf c071 a9bf a06d 85bf
000001e0: 59be d2bd 2ad6 b6be 32c7 0cbe 8363 dcbd
000001f0: 7808 78bc b811 cabd 6ee8 36be 5722 33be
00000200: 4bd4 16be 6102 30be 7fab abbe 226e a2be
00000210: 4d38 c6be 248b 07be 2dde 57bf 8c3f b3bd
00000220: abf0 2ebe 86b1 bcbf e74e 73be a17a 0dbe
00000230: ad5d fabf 7c48 a0bd df67 f7bf b4c7 c5be
00000240: ee9e cabf 8c2e 4abf f023 48bd e542 d9be
00000250: 68b3 5abe 95ce 74bd e2de fcbd dc71 5abe
00000260: 0c6b 11bd a700 eebd fa6c 9bbd 5552 c6bd
00000270: 5d0e 59be 20e7 9abe 552c b7be 03be b5be
00000280: 5450 6bbe 4864 85be ed52 0cbe 17bb efbe
00000290: 53b0 88bf f731 3cbe 9f2b 80bf 878e 00c0
000002a0: c78c 00c0 0c14 b4be 2486 6cbe 3174 92bd
000002b0: 9c0f a9bf 4a5b 4dbf d490 cfbd cf74 14be
000002c0: d051 66be 196c 75bd 35a8 67be 2b57 20be
000002d0: 21cc f2bc 0da4 dcbd fe88 82be 72d0 2dbe
000002e0: c900 e2bd ebd9 7dbe 3cda 83be 7a1f d7be
000002f0: ab2a adbe 042e 37be d5e1 adbd 7e69 8ebe
00000300: 5245 cabc b2ac bebe 65ba 81bd 1878 0abe
00000310: b5c8 7bbd 680e 9abe 7c56 69bf 7496 babf
00000320: e59d d7bd 9d10 60be 560f d0bd f41b 04be
00000330: 6acb 72bd 6b37 b8bd d70c bfbd 7d26 54bd
00000340: 9da0 6f3c b806 5bbe 61d6 2bbe 88c7 39be
00000350: 6444 60be 2fe0 66be 2eab a3be d55c 91be
00000360: 3007 70be 7740 d6bd 4998 c1bd 6334 513c
00000370: 2063 44be fc1a 26bf d08d ccbf b6d3 d5bf
00000380: 90a2 5cbd 5519 fabf 8773 acbd a94e b6bd
00000390: 6e3d 1ebf d375 84be 8df0 88bd 1ee6 b2bd
000003a0: 074c 18be c1a7 88bd 669e 013d abeb 9bbc
000003b0: 8480 863d 8c9b 8cbe add4 73be 7f23 9ebe
000003c0: 3395 6fbe 706d 9dbe d093 59be 4b00 8bbe
000003d0: 666d 51be 3dac ad3c 3f7d 883b 3cd7 2d3d
000003e0: 530f 843d 4f70 47be 766f c4bf b442 f6bf
000003f0: 4399 41be 6835 49bd b5c3 33be 6181 16bd
-1.9371287 -1.9679198 -0.10810842 -0.10166395 -0.09200441 -0.514059 -1.9499421 -0.07025814
-1.964727 -1.9616528 -0.049355853 -0.31039622 -0.3672153 -0.11913092 -0.14063781 -1.9435223
-1.640395 -0.17143376 -1.9502345 -0.26975054 -1.9500693 -0.052033186 -0.10470371 -0.34669644
-0.335925 -0.1030088 -0.1229423 -0.24098007 -0.09721426 -1.820421 -0.11049383 -0.1916598
-0.0905513 -0.08731218 -0.06752442 -1.9814068 -0.10679785 -0.07792341 -0.1509364 -0.1415846
-0.043187786 -0.15270446 -0.075129524 -1.7414163 -0.054582346 -0.20008476 -1.825458 -0.07688609
-0.08147978 -0.1433508 -2.0102146 -0.19521147 -0.08289546 -0.03583045 -0.15662067 -0.035062905
-0.48839337 -2.010513 -2.0022237 -0.2510129 -0.07727158 -0.34788692 -0.05624158 -0.088360704
-1.6455343 -0.03336498 -0.12813534 -1.1960406 -0.85757065 -0.06562348 -0.535859 -0.32611412
0.010341289 -0.3995521 -0.037768334 -0.01913894 -0.1416997 -0.054428462 -0.23126048 -0.4646516
-0.11912138 -0.116891235 -2.0255382 -0.19437319 -0.19415538 -1.9687785 -0.07774814 -2.0042298
-0.024276424 -1.3073881 -1.7260233 -1.3866668 -0.08184971 -0.8996613 0.010821948 -0.29790366
-0.08566054 -0.25432903 -0.0317244 -0.022636477 0.02691793 -0.257846 -0.25827718 0.032402363
-0.088786885 -0.41286427 -0.12978943 -1.0539323 -0.07379664 -0.12642302 -0.97716886 -1.983104
-2.018491 -1.5607821 -0.054879267 -0.1895041 -0.010406715 -1.5262191 -1.3237839 -1.042408
-0.10290212 -0.3571027 -0.13747862 -0.10761168 -0.015138738 -0.09866661 -0.17862102 -0.17493568
-0.14729421 -0.17188407 -0.3352928 -0.3172465 -0.3871483 -0.13236672 -0.8432339 -0.08752355
-0.17083995 -1.4741676 -0.23760568 -0.1381631 -1.9559838 -0.07826325 -1.9328574 -0.38628924
-1.5829751 -0.78977275 -0.048862398 -0.4243385 -0.213575 -0.059767324 -0.12347199 -0.21332496
-0.03550248 -0.11621218 -0.07589145 -0.09683672 -0.21196885 -0.3025446 -0.3577601 -0.3549653
-0.22979861 -0.2605307 -0.13703509 -0.46822426 -1.067881 -0.18378435 -1.0013312 -2.0086992
-2.0085924 -0.35171545 -0.23098046 -0.07151068 -1.3207889 -0.8021742 -0.10135046 -0.14497684
-0.22492146 -0.059917543 -0.2262276 -0.15658252 -0.029638352 -0.10773478 -0.25495142 -0.16974047
-0.11035306 -0.2479016 -0.25752437 -0.42016202 -0.33821616 -0.17888647 -0.0849034 -0.2781486
-0.024691258 -0.3724113 -0.0633438 -0.13522375 -0.061470706 -0.30089116 -0.9114759 -1.4577165
-0.10528163 -0.21881337 -0.10159175 -0.12901288 -0.059276022 -0.08994945 -0.09328621 -0.051794518
0.0146256955 -0.21389282 -0.16780998 -0.18142521 -0.21901089 -0.22546457 -0.31966537 -0.28391138
-0.23440242 -0.104615144 -0.09452874 0.012768838 -0.19178438 -0.64884925 -1.5980778 -1.6705234
-0.05386597 -1.9538981 -0.084204726 -0.08901722 -0.61812484 -0.25871143 -0.066865064 -0.087352976
-0.14872752 -0.066726215 0.0316452 -0.019033274 0.06567481 -0.27462423 -0.23811598 -0.30886456
-0.23396759 -0.30747557 -0.21247792 -0.2714866 -0.20451888 0.021200294 0.004165321 0.04244159
0.06448235 -0.19476436 -1.5346515 -1.9239106 -0.18906121 -0.049123198 -0.17555125 -0.03674448

fc_mean.fc.0.weight f4 [10, 50]
00000000: feb2 e0bd f6e6 f13c 3be9 1cbd 2f19 08bb
00000010: e848 93bd 1d24 37bd 84e3 b8bd 4fc8 8ebb
00000020: 3a34 95bc d02b d0bd 6db8 e53c ddf9 17be
00000030: 1a45 9d3d 9ecd 99bc 7ea5 86bc 5f16 84bc
00000040: 9023 c3bd 8e76 923b 0fd7 973d c13a 49bd
00000050: 676c a63d 15ff 0cbe a5b5 c6bd a6d8 26bc
00000060: 1e50 07be 5819 253d f790 93bd 7504 083e
00000070: 754f a2bd 02c2 a33d d185 193d 280f 8a3c
00000080: db83 f13d 3e84 09be e68f fdbd 8caa 2ebd
00000090: 2e7b bdbd 62fe 7a3d a4e1 e3bc 8b35 92bc
000000a0: 07b1 81bd c832 95bc bce7 133d b7ff f1bd
000000b0: 978c 203d dbfd a2bb aab2 25bd 81a0 c83b
000000c0: 7b62 ed3d 9912 093d 6947 e83e d666 58be
000000d0: c443 eb3d 458a 273e 909e 2e3e 62b0 00bd
000000e0: e6fa b7bd 46da 823e 0bb3 d1bd f724 033e
000000f0: 9280 5b3d aa35 bc3d 51ed 93bb 8b4a 80bb
00000100: 2512 413e 43d1 1fbe 13f1 f43c 3c1f c83b
00000110: 30f3 8bbd 3fb0 d53d bc6b 033d 1d09 5abd
00000120: 6217 663d 0a77 4d3c b5ad a1bd 5d5c 763d
00000130: 699c 983d 5722 1abd 1d6e d83d 6870 713d
00000140: 1e97 16bd ef09 3a3e df81 fbbd b140 94bc
00000150: 2e2c b73c e551 273d 6d6e b5bd f432 ab3c
00000160: 38d7 b53d 6ec3 c5bc 72f6 b6bd 5ff4 56bc
00000170: f203 e2ba ba5f cdbd 370f c33d c0f5 2bbd
00000180: e2ec a4bd 2fbe bb3b 611d 35bd e4d5 26bd
00000190: 74cf b7be 7298 06bd 27ee b7bd ab88 023e
000001a0: 1dfa 1e3e 7f4e 2b3d d64d b4be 2bda 2cbd
000001b0: 3db8 253d 5073 b8ba 639b 8f3d 1e37 42bd
000001c0: 92fa 313a 4d18 0f3e c6a9 403d b135 50be
000001d0: a226 583c 84b8 993d a3ff 67bd 6171 b93d
000001e0: bd90 973d dc90 0e3d 23ab 72bd 8260 4bbc
000001f0: c4da 13be 7465 61bd cb70 db3d efa6 b1bd
00000200: c188 2bbc f6a4 473d 5617 453d 3f96 f1bc
00000210: 5430 d4bd c546 36bd a36c 9fbd ee30 103e
00000220: b5c9 a63d b67c 123e 36eb b33d 5c9c 273d
00000230: 8e02 ecbc 57af d33d eb7c b0bd 4395 4dbc
00000240: 8ac4 abbb 2f7c 123e 6b29 d13d 6aca cc3d
00000250: 1019 153e 3339 1c38 d15c ffbc 950f 51be
00000260: 892a 533d 5fde 493d fb11 e7bd 688f c1bd
00000270: 8bd4 963e da30 84bc 9480 433e 6ff9 c53d
00000280: badc 873d 7032 e33d 85e0 1ebe 7635 233d
00000290: 9c86 a53d 86a2 9a3d 1577 b23d 87b9 693c
000002a0: 51fa 99bd 7b4a b1bc b6ed 903c 9c0e e4bc
000002b0: ea89 04be 6bbc c3bd bfda b6bd 1a03 3f3d
000002c0: 43a3 c13d 3721 e73d d3cd eb3c dcd9 11bd
000002d0: 8239 7fbd 6b23 0dbe 8618 653d c66f b7bd
000002e0: 58e1 4f3e 8187 563d fde6 f5bd cea7 0d3e
000002f0: 073e 073c 5fc7 a3bd 4870 423d 718e ea3d
00000300: c262 f63d 152c 0c3d 916b c53d 3bb1 e93c
00000310: b23e 173e 821f 253d 67b8 0b3e 3f99 c6bd
00000320: f417 303d 0a42 42bd a4be 5e3e 8926 b1bb
00000330: 4796 993d c591 5bbd ff2e 10be 195f e13c
00000340: 553c 04be 9c6d 3f3e 9dac bdbd 181b c7bd
00000350: 5f19 f9bd a587 13bb cf0b dd3d 8f2e b23d
00000360: 452b 06be 07b0 58bd 0ece 093e dc49 59bd
00000370: 29aa 853d 5d11 d73c 1952 bc3d e161 6a3d
00000380: 0ade 59bd a052 893c 0ea2 3dbd 01c4 08bd
00000390: 1e07 f23d 9737 a9bd a2d4 223e 7fe1 5b3d
000003a0: 1862 99bd 1846 6a3d 5196 4bbe af39 d6bc
000003b0: f9c0 453b dec7 5c3d 398c 213e 5a15 9e3d
000003c0: 1f83 443d 2953 adbc c178 333d 0b42 b63d
000003d0: 5702 573e 45f8 223e c501 773d 884c 723d
000003e0: fa2e 86bb dca1 eb3d 6012 ae3c 60ea 80bb
000003f0: 4261 b4bd 526f 10bd 4c01 9e3d f9b7 2fbe
-0.1097164 0.029529076 -0.038308363 -0.0020766964 -0.0719164 -0.044712175 -0.0902777 -0.0043573747
-0.01821338 -0.101646066 0.028042043 -0.14841409 0.07679196 -0.018774804 -0.016436335 -0.016123949
-0.095282674 0.004469699 0.07414066 -0.049128298 0.08126145 -0.13769181 -0.09702615 -0.010183489
-0.13214156 0.040307373 -0.07205384 0.1328295 -0.079253115 0.079959884 0.037481133 0.01685293
0.117927276 -0.13429353 -0.12380962 -0.042643115 -0.0925201 0.061277755 -0.027817555 -0.017847797
-0.063325934 -0.018212691 0.03610967 -0.11816352 0.039196577 -0.0049741096 -0.04045359 0.006122649
0.11591049 0.033465 0.45366982 -0.21132979 0.11487535 0.1636134 0.17052674 -0.03141821
-0.08983402 0.25557154 -0.10239228 0.1280707 0.05358941 0.09189923 -0.0045143743 -0.003915136
0.18854578 -0.15607171 0.02990011 0.006107239 -0.06833494 0.10434007 0.032085165 -0.053231347
0.056174643 0.012540588 -0.0789446 0.06014668 0.07451708 -0.037630405 0.105678774 0.05894509
-0.03676521 0.18167852 -0.1228063 -0.018097254 0.022359934 0.040849585 -0.08858953 0.02089832
0.0887894 -0.02414104 -0.089337245 -0.013119786 -0.0017243607 -0.10028024 0.095243864 -0.041982412
-0.08052994 0.0057294588 -0.04421747 -0.040731326 -0.35900462 -0.032860227 -0.08980971 0.12747447
0.15525098 0.041822907 -0.35215634 -0.04220025 0.040458906 -0.0014072452 0.070120595 -0.047415845
0.0006789352 0.13974114 0.04703691 -0.20332982 0.0131928045 0.07505897 -0.05664028 0.090548284
0.074006535 0.034806117 -0.05924524 -0.012413146 -0.14438921 -0.055028394 0.10714873 -0.08674418
-0.010469616 0.048741303 0.048117958 -0.029490588 -0.1036078 -0.044501085 -0.07784393 0.14081165
0.08143941 0.14305386 0.08785097 0.0409206 -0.028809812 0.10336178 -0.08617576 -0.012547794
-0.005241935 0.14305185 0.10212978 0.09999545 0.14560342 3.724657e-05 -0.031172188 -0.204161
0.051554237 0.049284335 -0.112827264 -0.09451181 0.29459032 -0.016136575 0.19092017 0.09666716
0.06633897 0.110936046 -0.15515335 0.039845906 0.08082315 0.0755053 0.08714119 0.014265425
-0.07518447 -0.02164196 0.017691474 -0.027838998 -0.12943235 -0.09557422 -0.08928441 0.046633817
0.09454968 0.11285632 0.028784668 -0.035608158 -0.062310703 -0.13783042 0.05593159 -0.08956866
0.20300806 0.05237532 -0.12006948 0.13833544 0.008254535 -0.079970114 0.04747036 0.1145295
0.12030555 0.034221727 0.09639657 0.028526893 0.1477001 0.04031325 0.13644563 -0.09697198
0.042991593 -0.04742626 0.21752411 -0.005406205 0.07499366 -0.053605814 -0.14080428 0.027511166
-0.1291364 0.18694156 -0.09261439 -0.097219646 -0.12163042 -0.002251127 0.10793268 0.087002866
-0.13102444 -0.052902248 0.1345751 -0.053048953 0.06526596 0.026253397 0.091953464 0.05722225
-0.05319027 0.016763031 -0.046297126 -0.03339005 0.11817764 -0.08262556 0.15901425 0.053681847
-0.07489413 0.057195753 -0.1988156 -0.026150553 0.0030174835 0.053901546 0.15776147 0.07718916
0.04797661 -0.021157818 0.04381633 0.088993154 0.20996986 0.1591502 0.060304422 0.059155017
-0.0040949555 0.115054816 0.021248996 -0.0039341897 -0.08807613 -0.035262413 0.07715091 -0.17160024

fc_mean.fc.0.bias f4 [10]
00000000: d5cf 2a3d e160 87bd 61cd 213c f8a2 87bd
00000010: 7340 933c 2f02 87bd 6ad7 ff3c 957e ad3d
00000020: 3f08 09be 7a53 29bd
0.04170211 -0.06610275 0.009875626 -0.06622881 0.017975068 -0.06592213 0.031230647 0.08471409
-0.13382052 -0.041339375
