AutoEncoders/VAE_CL/saved_model/con_model.pth (torch, 685752 bytes, 15 tensors)

encoder.0.fc.0.weight f4 [100, 789]
00000000: 0b9c dd3c 6e8d e5bb 7bc6 ec3a 8d39 d03c
00000010: 0a3a cbbc 6f3d f63c 496a b53a 4fb5 db3c
00000020: 9ac2 5f3c d181 8e3b 203a 983c b772 2b3c
00000030: 58da b13c 6844 a9bb 2a4b c83b da52 b43b
00000040: a237 633c ea57 0c3c 0024 233d d517 a23c
00000050: 7817 95bb cc9b 51bc 7d9f 333b cad7 d9bb
00000060: 3ef5 30bb 2b9a 2a3c 7131 f53c f5da e53c
00000070: 55c2 d5bc d121 fc3c aacf 983c f4fc 2d3d
00000080: 51eb 033d e563 c2bc baf5 cdbc 72ff 0bbc
00000090: 4ed3 213d d432 2b3b e525 c43c d462 00bc
000000a0: 40c0 323d 4e3a d0bb 0206 113d a394 153c
000000b0: 949c 24bc d73e dd3c 44f2 26bc 391c 9d3c
000000c0: f908 ceba 5a73 9d3b 9c0b d1bc 2e6d 07bc
000000d0: 9197 e53c 43d9 6338 ece9 343d a08e 183d
000000e0: 4ab9 e63b efa8 76bc abef f83c a3d9 a13c
000000f0: bc5f 6abc c962 023d c564 f83c 9c5e 243d
00000100: 8bcd 3fbc 73d3 1d3b 605d 013c 4326 2c3c
00000110: 25c0 b5bc 3a64 94bc e3fd e53c 64ba bc39
00000120: e7cb d53c 589d 273c 6eb6 a53c df9d 863c
00000130: 003a ad3c 3fe8 d73c e3c1 c6bc b522 da3c
00000140: 67b9 85bc e4b5 94bc 4e25 323c 251c 2d3b
00000150: 25a0 f23c cc20 43bc baed bbbc ebca 0d3d
00000160: 46bb 603b efe9 e73c b676 a33c ebaf 94bc
00000170: 36c8 7c3c 4e11 9b3c 0cac 8fbc dd3f 5dbc
00000180: 0b68 7b3c 87cc 1f3c 9723 b9bb 6d94 47ba
00000190: 70d3 243d 0466 1fbb 86af e43c 8ef5 d53c
000001a0: fb10 5cbc be6c a4bc b023 343d 7242 333c
000001b0: b575 073d 35c6 833c bb22 a53c 4897 103d
000001c0: 3af0 2d3d 4762 74bc e699 573c 1a7d 103d
000001d0: c92d 0e3d 8ee3 fa3c ceb4 77bc 9677 74bc
000001e0: 92e0 33bc f4bc e23b 4ce3 0e3d 73a9 d8bc
000001f0: 40ce 323c 7f65 c8bc e588 17bd dc91 42bc
00000200: ad02 733c 8814 da3c 8c32 e8bc 7ffe 8eb9
00000210: 83bc d33c 56a5 a13c 08df ca3c 4922 003d
00000220: 977c ff3c beaa 923c 3918 80bc ac92 adbc
00000230: 3d33 f9bb 2481 953b 54da 56bc 0c09 b23c
00000240: e805 bf3c a4d4 ad3b 4b25 e03c c8c6 b43c
00000250: b148 ab3c a2e7 893c 81e2 a4bc 2589 d43c
00000260: 3570 5ebc a355 2cbc 4509 32bd 16b0 07bd
00000270: a9b3 01bd c9d7 d9bc 4a81 953c 5486 9abc
00000280: 72cb 12bd 7507 633b a659 3a3b 10ad e13c
00000290: 0a8c 25bc 482a 863c 2058 8bbb f9fb 393a
000002a0: 3414 a1bc ae54 f6bb 4ed9 0fbb be7e bb3c
000002b0: 0618 8a3c aaf6 9d3c a814 423d 0437 3f3d
000002c0: 27fc 743c 740f 14bc 1a45 12bd b50d 9c3c
000002d0: 48f6 95bc f079 70bc 89bc 30bd 60f5 9abc
000002e0: 62cb 0abd 59a6 c33c fa60 13bd e61a 10bd
000002f0: c515 edbb 67f9 cabc a9c0 3d3c 34c8 dcba
00000300: 5680 dfbb 13a8 2c3c 6b3a 0d3d d7cf 85bc
00000310: 454b d03c 9e59 013d f44b 323d aa0e 8bbc
00000320: 4e47 7c3c 246f 91bc 7f82 203d 5e4d 15bc
00000330: ea49 163c 52cc 0bbc 8736 46bc 5a9a 33bc
00000340: 00c9 cebb 10c9 5f3b bbf0 e6bb 48a0 ccb9
00000350: ceb3 21bd 178d b13c 6f12 de3c a626 ce3c
00000360: a68e b13c 785d 04bd 515e 05bc 37fc 2e3d
00000370: fc4b 8fbc a143 293d 110a 9ebc 5d19 86bc
00000380: 1dea d53c 9f34 8abc 0079 053a bf15 0a3d
00000390: c9a0 103d 5d01 203d cad1 313b 7501 f0bc
000003a0: a785 cc3c 40bd 8ebc ddc9 cebc 8da8 17bb
000003b0: 14af 1fbd a998 373c eacc 6c3c 8e9d 0abd
000003c0: 574f 08bd 1d42 acbb f6c4 423c 643d aebb
000003d0: 80a7 bbbc af14 e3bb 622c 09bd c449 8ebc
000003e0: 0cdf 72bc e188 1f3d f835 243d fdcb 5dbb
000003f0: 8bd5 283c c76f c93c 6d23 543c 4cfe 28bc
0.027051946 -0.007005385 0.0018064523 0.025418067 -0.024807949 0.03005859 0.001384088 0.026819853
0.0136572365 0.0043489714 0.018582404 0.010464362 0.02171056 -0.0051656254 0.006112476 0.0055030407
0.013868244 0.008565882 0.039829254 0.019786755 -0.004549917 -0.0127934925 0.0027408295 -0.0066480385
-0.0027001644 0.010412733 0.029930802 0.028058508 -0.026093641 0.030777844 0.01865371 0.042477563
0.032206837 -0.023729274 -0.025141586 -0.00854479 0.039508156 0.0026122825 0.02394385 -0.007836062
0.043640375 -0.0063546067 0.03540612 0.009129676 -0.010047097 0.027007503 -0.010189597 0.019178497
-0.0015719227 0.0048050107 -0.025518231 -0.008265777 0.028026374 5.432336e-05 0.044168398 0.037245393
0.007041131 -0.015054925 0.03038772 0.019757098 -0.014305051 0.03183249 0.030321488 0.04012929
-0.01170672 0.0024082332 0.0078957975 0.010507169 -0.022186348 -0.018114198 0.028075164 0.00035997026
0.026098205 0.010230385 0.02022859 0.0164327 0.02114582 0.02635586 -0.024262374 0.026627878
-0.016323758 -0.018153138 0.010873152 0.002641448 0.029617378 -0.011909675 -0.022940505 0.034617346
0.0034291311 0.02830979 0.019954067 -0.01815029 0.015428593 0.01892915 -0.017538093 -0.013503996
0.01534463 0.009753353 -0.0056499946 -0.0007613365 0.040240705 -0.002432228 0.027915727 0.026118066
-0.013431783 -0.020071384 0.043979347 0.010941135 0.03307124 0.016085723 0.020158162 0.035300523
0.042465426 -0.014916009 0.013159251 0.035275556 0.034711633 0.030626085 -0.015118791 -0.01492109
-0.010978835 0.0069194976 0.034884736 -0.026447987 0.010913432 -0.02446246 -0.036995787 -0.011875596
0.014832181 0.026621118 -0.028344415 -0.00027273965 0.025846725 0.019732159 0.024764553 0.031282697
0.031187339 0.017903682 -0.01563655 -0.021188103 -0.007604985 0.004562514 -0.013113577 0.02173283
0.023318246 0.0053048898 0.027361533 0.022067443 0.020908685 0.016834084 -0.020127537 0.025944302
-0.013576557 -0.010518464 -0.04346587 -0.033126913 -0.031665478 -0.026592152 0.018250126 -0.01886288
-0.03583855 0.0034641896 0.0028434782 0.027548343 -0.010104189 0.016377583 -0.0042524487 0.0007094737
-0.019662954 -0.007517419 -0.0021949592 0.022887584 0.016857158 0.019282658 0.04738298 0.046683326
0.014952696 -0.009036887 -0.03571043 0.019049505 -0.018305913 -0.01467751 -0.04314855 -0.018915832
-0.033885367 0.023883032 -0.035981156 -0.035181902 -0.007235261 -0.024777127 0.011581578 -0.0016844333
-0.0068207188 0.010538119 0.03447954 -0.016334457 0.025426516 0.031579606 0.043529466 -0.016974766
0.01539786 -0.017753191 0.03918695 -0.009112684 0.009172896 -0.0085326005 -0.012097961 -0.010962093
-0.006310582 0.0034146942 -0.0070477403 -0.0003902933 -0.039478116 0.021673722 0.0271084 0.025164913
0.021674465 -0.0323157 -0.008140163 0.042721 -0.017492287 0.04132426 -0.01929191 -0.016369516
0.02611261 -0.016870795 0.0005091578 0.033712145 0.035309587 0.0390638 0.00271331 -0.02929757
0.024966074 -0.017424226 -0.02524274 -0.0023141236 -0.038985327 0.011205831 0.014453152 -0.033841662
-0.03327879 -0.0052569048 0.011887779 -0.005317377 -0.022907019 -0.006929956 -0.033489592 -0.017369159
-0.014823686 0.038948897 0.04009053 -0.003384351 0.010304819 0.024589432 0.012947899 -0.010314535

encoder.0.fc.0.bias f4 [100]
00000000: 41d1 24bd 120e 3e3d 2f27 aa3d 5c46 e1bc
00000010: 5542 74bc ca8d d9ba c93a 12bd 703e 653d
00000020: 6eb9 ddbc 294c 3d3c 50f8 13bd b5ef 303d
00000030: db0e ed3c f286 84bc c9cc 563d 9eb6 a6bc
00000040: 931e b3bd 2ca7 933d 3077 193d 99ac 00bd
00000050: dffd 783d 3f6c 653d d167 7b3c ea57 21bd
00000060: 40eb c73c 355d 38bd d886 903b 7206 b1bb
00000070: b51a 16bb 9d55 03bd e777 7e3b bdff 4f3c
00000080: 02cf 0bbd be95 523d 005d b2bc f3d4 acbc
00000090: fa03 adbc 04e7 563d ab13 00bc 742e 413c
000000a0: 834e bc3d 6cd2 cb3c f4d3 943c 9e21 783d
000000b0: 0eb6 fabc 960d 563c aac1 19bd ef7b eb3d
000000c0: cfc2 4bbd 7a7d 1bbd 52fb e6bc c53b b23b
000000d0: 7c15 8d3c e2c9 813d 0b71 c33c f06e 57bc
000000e0: 9c4c ea3b a19c b8bc 6df0 c0bb f155 dabb
000000f0: bd4f bcbc e81f a2bc 7c33 12bd d690 563d
00000100: 53fb 5bbd 4c29 a6bb 547c bf3c da7e 083d
00000110: 6eba 8ebc 4e1a 283d 89ab 593c 9376 b93c
00000120: 4233 b3bc 11c1 0f3d 7f75 7e3d 2d2f 903c
00000130: 00db 7fbc a96c cfbb 1334 6dbc 4d73 cc3c
00000140: bf12 dd3c 8466 033c 0db0 9f3d 9a64 9c3c
00000150: 7172 c9bc 576b 353d 32f9 dbbc ac28 bc3c
00000160: 8e97 323d ef47 febc 1baa 9dbc 70d9 af3c
00000170: 971f 0b3c 478a 24ba c531 603d 7410 793c
00000180: d818 373c bf16 eabc 7c05 a23d a741 4cbc
-0.040238623 0.046400137 0.08308255 -0.02749937 -0.014908393 -0.0016598043 -0.035700593 0.05596775
-0.027065959 0.0115538025 -0.03612548 0.043197352 0.028937748 -0.016177628 0.052441392 -0.02035075
-0.08746066 0.0720962 0.03746718 -0.031414602 0.060788985 0.056011435 0.015344576 -0.039390482
0.024404168 -0.045010764 0.004410606 -0.0054023797 -0.0022904102 -0.03206407 0.0038828792 0.01269525
-0.034132965 0.051412337 -0.021772861 -0.021097636 -0.02112006 0.052466407 -0.007817189 0.01179086
0.091946624 0.02488061 0.018167473 0.060578935 -0.030604389 0.013064763 -0.037538208 0.11498248
-0.04974633 -0.03796146 -0.02819601 0.005439254 0.017222159 0.06337334 0.023857614 -0.013149008
0.007150246 -0.022535624 -0.005888036 -0.006663077 -0.02298724 -0.019790605 -0.03569363 0.05238422
-0.05370648 -0.005070841 0.023374714 0.0333241 -0.017422881 0.04104071 0.013285526 0.022639548
-0.021875028 0.03509623 0.06212377 0.01760062 -0.0156161785 -0.006330092 -0.0144777475 0.024957323
0.026986478 0.008020047 0.07797251 0.01909094 -0.024590703 0.04429182 -0.026852224 0.022968613
0.043601565 -0.03104016 -0.019246152 0.021465987 0.008491418 -0.00062767084 0.054734964 0.015201677
0.011175357 -0.0285753 0.07911202 -0.012466825

encoder.1.fc.0.weight f4 [50, 100]
00000000: 137d 093c 1c83 b7bd 03b8 bd3d 611c 35bd
00000010: 391c 843d c9f9 b2bd 51e2 433d 64c3 9ab8
00000020: 8ec2 7c3d 8a19 f4bb 5aaf b5bd 9fdc e939
00000030: 6807 c8be 8421 633d 1814 123e 3f8c 813d
00000040: 9009 383e 266d e53d b6c1 2abe 6d29 013e
00000050: bc8a 1b3b 02ec 9cbd e497 b0bb e475 c73b
00000060: 560f d33d 52d5 b13c 7d52 63bd 9662 d5bd
00000070: ba13 913d d0fd cf3d 8ee7 bdbd dbfd b93d
00000080: cc1d 8e3d 5ff0 ad3d 0c76 afbd 3a4f 873c
00000090: 2463 153e a3ec ed3d e91d c7ba 7cae f8bc
000000a0: 4bfb f73d abed 1cbc 41ad babb 5bc4 0dbe
000000b0: 6ca0 973d b72b b73d c2bc 253d a228 a93d
000000c0: 7e68 c1b9 1202 16bd 5303 88bb 9170 5ebc
000000d0: ad62 be3b b408 adbd 45eb 14be 23e9 8fbd
000000e0: fd75 413c 7927 b63d 3e1e bc3d 6713 343d
000000f0: 9fec 5d3d 31a9 09bd fa93 bcbe 1659 163e
00000100: fc47 cfbd 0235 f8bd e505 913c ccf3 b3be
00000110: 6806 a9bd 2538 323d 79ed b83c 4c04 b0bd
00000120: b0cf 14bd f6dd c43d 3eb9 e83d ceda 97bd
00000130: 7176 9ebd d9f4 9fbc f89f 493c 75a6 523d
00000140: 0808 a93d a30b 603d 6c15 c1bd 24a9 d5bd
00000150: 4ad7 d1bd 6fcf efbd 083f 293d 16d0 203e
00000160: 84b1 bd3d dbad c7bd 95d1 23bd 79c0 a33d
00000170: 4726 86bd 588c b23d c621 12bd 1aad aabd
00000180: 619a 193d b707 303d c853 6bbd fe5e 84bd
00000190: 8492 3bbd 7767 c0bd c0cc 453c e54e 9fbd
000001a0: 8896 693d 5506 d33d 0458 d1bd 8741 1d3c
000001b0: 4ced 9fbd abed 51bc a37c a5be 4a60 0d3e
000001c0: 3df0 1cbe aec2 52bd 941b a4bd 430f 46ba
000001d0: 6948 47be a789 5f3d a6b7 36bd 33cd df3c
000001e0: 0116 61bd db7b 2fbe 41b7 28bc f6c4 8e3e
000001f0: 9cb5 b23d afa6 61bc ed32 4e3c cdf7 82bd
00000200: 59a0 57bc 3f3c 373b 7d2a 173d 9645 673d
00000210: 86d4 c2bc 2022 053c c928 5abd 9af1 5e3c
00000220: 7edd 38bd 48cb d9bc 6884 063d ab60 ec3c
00000230: c5c3 583d a2ef 163d a322 5dbb 7035 d53d
00000240: 4341 0abd 103b babc 7c1c 153d 7e03 3d3e
00000250: 4ffd 3b3d 602b c63c 17fa edbb b792 693d
00000260: 5e98 313c d6ff 5fbd 621d be3c dcc9 afbb
00000270: e7a7 c2bd 493d 7b3d 6c2c a53c f7bb 8dbd
00000280: ca6e ba3d 79cb 94bd eb00 5ebe 824c a33c
00000290: 31b8 e7bc 2e0f 99bc 3670 003d 41d8 84be
000002a0: 2ccc 26bd 7ce0 53bd ee8c 10bd 8d76 123d
000002b0: dad0 83bd 4360 4a3e ad36 4c3d f366 b83d
000002c0: 0395 76bd 6b8b 713d a680 a2bd 5b46 7c3e
000002d0: cfde 98bd 01fd 443d eab0 2c3e f0f9 ac3c
000002e0: d3c4 993d 4875 a4bd 67ba c9bd ae34 4d3e
000002f0: 5a25 72bc ceb3 b4bd c8b1 acbd 0932 00be
00000300: ae81 a93d 7d2f f43b 0758 7ebc 5f1c 1f3c
00000310: 0cf3 bc3d b05b b83d df1b 7dbd 475c 3fbd
00000320: 9ec4 c33d 58d9 6abc 75d2 a3be 3e86 553e
00000330: 54b1 d33d c2e6 9abd 5e25 193c 841d cfbe
00000340: 1aac e13c 8e70 acbd a3d0 883d 98a1 913d
00000350: 4a67 04bd 667b 8b3d cadd bbbd 7b71 78be
00000360: 800e 153d 0696 843e 4a97 2dbd ebe5 5e3e
00000370: dda0 163d ce51 d6bd 48f2 76bd 39bf ce3d
00000380: 94df 263d 9bce 9c3d a9b5 36b9 5763 6fbd
00000390: 00ea 6cbd 8aad 813c 7ba4 c43d 966c 413d
000003a0: fee5 263d 829a 6e3d 5c33 15bd da89 abbb
000003b0: 5b8a d2bc 2faf 93bd 0783 9cbd f76c a0bd
000003c0: e8ed 95be fdf0 9c3c 81c4 93bd 6adf 733d
000003d0: 1cde 98bd 37a3 a0bd 0dfd 413c aed5 573e
000003e0: 57c4 673e 9a20 8d3d c56d 853a ad8b bdbb
000003f0: a389 9dbd 4168 7cbd 9a0c 5cbd 5dc5 05bd
0.008391636 -0.08960554 0.09263613 -0.044216517 0.064506955 -0.08739049 0.047823254 -7.3796866e-05
0.06170898 -0.0074493336 -0.08871336 0.000446056 -0.3906815 0.055451885 0.14265478 0.06325578
0.17972398 0.11202459 -0.16675457 0.12613459 0.0023733815 -0.076622024 -0.0053892005 0.0060870517
0.103056595 0.021708164 -0.05549859 -0.104191944 0.07083841 0.10155833 -0.09272681 0.09081622
0.06939277 0.08493113 -0.085674375 0.01651727 0.145886 0.116174005 -0.0015191409 -0.030356638
0.12108477 -0.009578149 -0.005696923 -0.13844435 0.07403645 0.08943885 0.040463217 0.08259703
-0.0003688968 -0.03662307 -0.004150787 -0.013576643 0.005810103 -0.084489256 -0.14542873 -0.07026889
0.011807916 0.088942476 0.09185456 0.043963816 0.054180738 -0.03360862 -0.36831647 0.14682421
-0.10121152 -0.121194854 0.017703006 -0.3514694 -0.08253175 0.043510575 0.022574173 -0.085945696
-0.03633088 0.09612648 0.11363457 -0.074147806 -0.07737435 -0.019525932 0.012306206 0.051428277
0.08253485 0.054698598 -0.09427914 -0.10432652 -0.10246141 -0.11709487 0.041319877 0.15704378
0.09262374 -0.09749957 -0.039994795 0.079956956 -0.065502696 0.08718175 -0.03567674 -0.08333798
0.037500743 0.042976107 -0.057452947 -0.06463431 -0.045794025 -0.09394734 0.012072742 -0.0777872
0.057028323 0.10303942 -0.10221866 0.0095981425 -0.07808933 -0.012813012 -0.32321653 0.13806263
-0.15326019 -0.051455192 -0.080130726 -0.0007555375 -0.19461216 0.054574635 -0.044608735 0.027319526
-0.054952625 -0.17137091 -0.010297597 0.27884644 0.087260455 -0.013772651 0.012585384 -0.063949205
-0.013160788 0.0027959493 0.036905754 0.056462847 -0.02378298 0.008125812 -0.053261552 0.013607407
-0.045133106 -0.02658619 0.032841116 0.028854689 0.052921075 0.036849625 -0.003374257 0.10410583
-0.033753645 -0.022733241 0.036404118 0.18458363 0.04589587 0.024190605 -0.007262479 0.057024684
0.01083955 -0.054687344 0.02320737 -0.0053646397 -0.09504681 0.061337743 0.020162784 -0.06920617
0.091031626 -0.07265372 -0.21680038 0.019933943 -0.028286071 -0.018683996 0.031357013 -0.2594624
-0.040722057 -0.051727757 -0.03529065 0.03575759 -0.0643632 0.19763283 0.04985683 0.09004011
-0.060200702 0.05897085 -0.07934694 0.24636213 -0.07464372 0.048092846 0.16864362 0.021115273
0.07508244 -0.08030182 -0.098500066 0.20039627 -0.014779413 -0.088233575 -0.084323466 -0.12519087
0.082766876 0.00745195 -0.015523917 0.009711354 0.09226045 0.09001863 -0.061794158 -0.046718862
0.09558986 -0.014334045 -0.31996503 0.2085199 0.10336557 -0.07563545 0.009347288 -0.40452206
0.027547885 -0.084199056 0.06680419 0.071109 -0.032325067 0.06810646 -0.09173162 -0.2426204
0.03639078 0.2589571 -0.04238061 0.21767394 0.036774505 -0.10464822 -0.06028965 0.100950666
0.040740564 0.07656594 -0.00017424546 -0.058444347 -0.057840347 0.01582982 0.09601685 0.047222696
0.04074668 0.05825282 -0.036425933 -0.005234939 -0.025700739 -0.07211148 -0.07642179 -0.078332834
-0.2928307 0.01915788 -0.072152145 0.059539236 -0.07464239 -0.07843631 0.011840117 0.21077606
0.22633491 0.06890984 0.0010179809 -0.005784473 -0.07692268 -0.06162286 -0.053722955 -0.032658923

encoder.1.fc.0.bias f4 [50]
00000000: 23c3 2a3e 8e67 623d e637 303c 85b8 ee3c
00000010: c665 143c ad72 253d 7b9e a8bc 1ba6 543d
00000020: 2e91 99bd 5984 663c b5d8 553d 93f6 503d
00000030: fd89 d73a c146 f03d 720a dc3c c653 c43d
00000040: fc7f 2f3d 4235 a73d 6ffd 813d efbe 123d
00000050: 5d7e 0d3c 6259 1b3d 0338 eebd 1406 643d
00000060: bde4 9ebd 8a27 97bb 7474 953d adad 903d
00000070: 8b0a bc3d e4cb c23a a661 b83a 8f2e 30bd
00000080: dc8e 7abb 65a5 be3b c4cb dcbd 6e7a 2bbd
00000090: e581 44bd eebe 903b dc08 e63d 9592 463d
000000a0: eade 943d 6039 a33c b799 1abd 3dd9 6e3c
000000b0: c6c5 523c 0cdf 223e 3667 e23c 382c fc3d
000000c0: 5c13 993c 3b12 80bd
0.16676001 0.05527454 0.010755515 0.02914072 0.009057468 0.040392566 -0.020583382 0.051916223
-0.07498394 0.01406964 0.05220862 0.0510164 0.0016444322 0.11732245 0.02686045 0.09586291
0.042846665 0.08164455 0.06347167 0.03582662 0.008636084 0.03792704 -0.11631777 0.05566986
-0.07758472 -0.0046128677 0.07297602 0.07064376 0.091816984 0.001486179 0.0014067187 -0.04301315
-0.0038232123 0.0058180564 -0.10781053 -0.041864805 -0.04797544 0.004417292 0.112321585 0.048479635
0.0726908 0.01992482 -0.03774425 0.014578161 0.012864536 0.15905398 0.027637105 0.123131216
0.01868599 -0.06253477

decoder.0.fc.0.weight f4 [100, 50]
00000000: 73eb a6bc 92bc e1bd 0eac 2bbe 2fcb b2be
00000010: d700 50be 3c97 87be 2c6e a93d 8dfc 7a3e
00000020: b80a 7b3e 7a19 c9be 6ee5 44be d1f5 59be
00000030: ac08 dc3d acab 923e ef3e e23d c0d9 573d
00000040: 7b37 d63d 0c58 4d3d 5e62 81bc 96f0 44be
00000050: 329e 803e 61e5 13bd 043f 12be caa1 ad3d
00000060: 8735 f43c 0d45 8dbe e19d 81be 9392 01be
00000070: bf49 1e3e 30a4 873d 227d d43e 8241 3f3d
00000080: c495 c33c 7127 d93e de3a 31be 8bc1 94bc
00000090: ef98 a33d fbb0 4a3d 1868 963c 6da2 fd3d
000000a0: a776 87be 734e b53d 200c 8cbd 1766 d93b
000000b0: f20d 86bc 5933 fcbc cd83 d1bd ed97 773d
000000c0: 2f48 ccbd 577f ecbc 3c08 113e ff0a 543e
000000d0: 5a41 aa3e e67d 19be ea70 483e 4fd3 693d
000000e0: 073f 0dbe bbbd 9b3c 7192 39bd f0a6 ccbe
000000f0: f4ca 87be 03f6 3bbd 0c48 02be debf 07be
00000100: f96f 0b3e 9837 3ebd b1bc 9ebd 676e d13d
00000110: d8d6 c6be 2a24 1f3e 1239 21bd c1e2 26be
00000120: 2c14 bcbc e2ce c9be 720e c73c ef1b 3ebe
00000130: 60e7 743d 00da 12bf 7e91 d1be ddfe 043e
00000140: a47a e2bd 5ff6 0dbe 33c4 0d3e f4c9 673e
00000150: d752 0abf 2cc0 ddbd b2fd 9c3d fe98 67bf
00000160: 6282 833d 6ca3 03bd 5088 cfbd 40c2 b33e
00000170: a692 313d 082a fb3d a606 493e ece3 0fbf
00000180: a87c 3a3e 7de7 023d 1be3 7a3e 13b6 dc3d
00000190: d8ce 1a3e 997f 423e d714 b9bd 110e f3be
000001a0: 0b70 16bd 8a18 e7bd 286b d0bc aee3 493e
000001b0: cc11 b13d db23 0e3e fa7c ad3d eda0 a8bc
000001c0: 2577 9fbd d42a 8b3d 8ed2 b13e 0bc5 0abe
000001d0: c5e9 723d 7782 f73d 7b85 853c 59a9 5b3d
000001e0: 55f8 31bd 95f3 5ebd 6f19 3abd 113b 433e
000001f0: c52f 97bd 5976 eabd 9896 76bd c452 db3e
00000200: 6178 0abe 5cbd b73c 2402 2bbd ce7b 1b3e
00000210: ff7d 10be 5bd0 6ebe c7bb ea3d d1ca 153e
00000220: 04b0 d13d aed9 593d 1a0d 023e 2dda 213d
00000230: e91d 94bc 7a4d bc3c a719 71bd 869d 143d
00000240: 7bfb eabc 8333 db3c ae9f 2b3d afca 14bd
00000250: 2db1 d9bd c5c2 983d c7d5 b93d 8503 7b3c
00000260: 1699 19bc 8ac8 c43b c914 b83d d51c 793b
00000270: 995b a63d 4078 13bd 1483 71bd d136 39bc
00000280: df4f 11be 9c38 85bd 6420 843d a1c0 66bc
00000290: a7bb a6bc 6fe9 1ebe 8956 3e3d d027 0dbe
000002a0: 39ea bdbd 343f 9d3d 63fa cf3d b971 f8bd
000002b0: 64d2 463d 7a6b 1abe d275 3cbe e5a3 90bd
000002c0: 117b cbbd bf79 f2bd bce6 57bd 3c0f c03d
000002d0: 9e38 b6bd de42 a13d dcec e2bc 8157 d0bd
000002e0: 8d7e ce3d e95a 82bd 969a 563d bbff d13d
000002f0: 3a84 753c 342e 183d ce5a 25be 290b 463d
00000300: d227 eebd 379b 643d 98f0 a7bd 6aa9 ba3d
00000310: 0b33 0e3d 319b 88bd 1945 873d 8ad5 59bd
00000320: 361e d23d c8b0 63be 1705 4ebd baa4 25bd
00000330: 47bb b43c 5b24 373e 601a 1dbe 5f94 94bd
00000340: 7dd2 063e bdc5 b33e 7a4d 06bc 0f0b 033d
00000350: 5a7c 833b 952b 523e 7038 6cbd 35cb abbd
00000360: 5c0d 9f3d b9d6 d0bd d5c0 6e3c 7d9d 84be
00000370: 7ce3 563e 36ac 83bd ebdf e63d 8f24 2d3e
00000380: a21c 0ebb 2b31 2b3d 64f9 2e3e a46c 183c
00000390: 1c17 1e3e 6444 9f3d ee0e 8e3e 6bbb 2a3b
000003a0: 4748 97bd c24c 103e 52b3 363c 127d d9bd
000003b0: 0b22 7d3d 9af6 77bb dd6a 083e e98a cbbd
000003c0: 2451 0bbb c49f 9e3d 0f15 bebd 8aed 07be
000003d0: db82 57bd 3568 d23c 6e67 b93b a8aa 503b
000003e0: 9c39 9b3d fff7 103e 43c1 5f3e b325 d53d
000003f0: 3601 113e 7dc0 e7bc d939 653e 14f0 87be
-0.020375943 -0.11022295 -0.16764852 -0.34920642 -0.2031282 -0.2648257 0.08272967 0.24510403
0.24515808 -0.3927725 -0.19228145 -0.21285178 0.107438415 0.286466 0.1104716 0.052697897
0.10459801 0.050132796 -0.015793975 -0.19232401 0.25120693 -0.036107425 -0.14281851 0.084781244
0.02981068 -0.27591744 -0.25315765 -0.1265357 0.1545782 0.06623113 0.4150172 0.046693332
0.023875125 0.42412904 -0.17307612 -0.018158695 0.07988154 0.049485188 0.018360183 0.12384496
-0.26457712 0.088528536 -0.0683825 0.0066344845 -0.016364072 -0.030786203 -0.10230217 0.060447622
-0.099747054 -0.028869314 0.14163297 0.2070732 0.33252984 -0.14989433 0.19574323 0.057086285
-0.13793574 0.019011369 -0.045305673 -0.39971113 -0.26522028 -0.045888912 -0.12722796 -0.13256785
0.13616933 -0.046439737 -0.07750834 0.10226136 -0.38835788 0.15541139 -0.039361067 -0.16297437
-0.022958837 -0.39415652 0.02429888 -0.18565343 0.05979097 -0.5736389 -0.40931314 0.12987848
-0.11058548 -0.13863514 0.13844375 0.22635633 -0.54032654 -0.108276695 0.07665576 -0.9046782
0.06421353 -0.032138273 -0.101334214 0.35109138 0.043352745 0.12263876 0.19631442 -0.56207156
0.18211615 0.031959046 0.24500696 0.107769154 0.15117967 0.18993987 -0.09037178 -0.4747167
-0.036727946 -0.11283977 -0.025441721 0.19715759 0.086459726 0.13880865 0.08471103 -0.020584548
-0.07786397 0.06795278 0.34730953 -0.13551728 0.05930497 0.12085431 0.016299 0.0536283
-0.04344972 -0.054431517 -0.04543441 0.19065501 -0.07382158 -0.11448354 -0.06020221 0.42836583
-0.13522483 0.02242916 -0.04175009 0.15183946 -0.14110564 -0.23321669 0.11461597 0.1462815
0.102386504 0.05318611 0.1270031 0.03951471 -0.018080669 0.022986162 -0.058862355 0.03628304
-0.028684368 0.026757961 0.04190033 -0.036326107 -0.10629497 0.07459024 0.09073978 0.015320663
-0.009374877 0.0060053514 0.089883395 0.003801157 0.081229396 -0.03600335 -0.058962896 -0.011304573
-0.14190625 -0.06504938 0.064514905 -0.014084012 -0.020353151 -0.15518735 0.046469245 -0.13784719
-0.0927319 0.07678071 0.10155179 -0.12131066 0.048540488 -0.15080062 -0.1840432 -0.070625104
-0.099355824 -0.118396275 -0.05271028 0.09377906 -0.088975176 0.07874082 -0.027700834 -0.1017294
0.100827314 -0.06364996 0.05239352 0.10253855 0.014985139 0.037153438 -0.1614792 0.048350487
-0.11628689 0.055812087 -0.082001865 0.091143444 0.034716647 -0.066702254 0.06604976 -0.053182162
0.102596685 -0.22235405 -0.050297823 -0.0404403 0.022061957 0.17884962 -0.15342093 -0.07254862
0.13166232 0.351118 -0.008197183 0.03199297 0.0040126266 0.20524438 -0.05767101 -0.08388368
0.0776622 -0.10197205 0.014572342 -0.25901404 0.20985216 -0.06429331 0.11273178 0.16908477
-0.0021684547 0.041794937 0.17087322 0.009303246 0.15438503 0.07776716 0.27745765 0.0026051651
-0.07386833 0.14091781 0.011151152 -0.106195584 0.061800044 -0.0037836195 0.13322015 -0.099386044
-0.002125808 0.077453166 -0.0928136 -0.13274208 -0.052615028 0.025684455 0.0056580817 0.003184
0.075793475 0.14157103 0.21851067 0.10407581 0.14160618 -0.028290028 0.22385348 -0.26550353

decoder.0.fc.0.bias f4 [100]
00000000: 05d1 773f e3d3 80be 05ea cebe d837 08be
00000010: f618 2d3f e1d7 563e 3061 623e 01bf 8bbd
00000020: 1eba 4b3e 2f66 5c3d 103c 0dbe a904 81bd
00000030: 4326 33bd 798c 93be c9b3 c93e 8ee4 0dbe
00000040: 6964 9e3e ee7a 94be 2286 9f3e 514d 6fbf
00000050: b393 d73c 0a31 5dbf 464b 113e d1e4 b9be
00000060: d431 0cbf affb 8a3e 1af9 cd3e aa75 3d3f
00000070: e471 10bf c2f7 b43e 608b d53e eae1 30bf
00000080: 009a fcbb 732a 483f 3e58 2d3e a8fe 3d3f
00000090: 9f31 d1be c582 b4bd 3e6a d2be 3002 ee3d
000000a0: 493f 033e ec42 c8bd 345f a93e f8c9 22be
000000b0: 7648 9cbd 6a74 2fbe 2cc1 963e a349 903d
000000c0: b3f8 febe 1f15 e43e fe3d 703f cde6 a03d
000000d0: d100 5abe 8b0f b3bd 00c1 403f 9a3f 53be
000000e0: 3de9 d93e 2ca9 5c3e a4ab 0b3e c089 2c3e
000000f0: 8b61 b3bd e3c9 27bf 22ee 053d 0842 f03e
00000100: 3970 8b3f 2657 58bf 9f99 72bf bc26 49be
00000110: 1c5a 143f 162f 493f 461b b93d e4e5 fdbe
00000120: 824f 4a3e 6f5b 19bf 4268 2ebe f2f0 9c3e
00000130: 8238 433e dbda 23be 61d1 f03d b10e 5a3f
00000140: 3d07 523f 98a0 11be ec30 d5be 5d9f 23bf
00000150: a559 8e3e ca6f 04be 14f4 edbd 12b2 af3e
00000160: a17b 07be 2b47 9a3e 2baf 6b3e 4d0d 363f
00000170: ceea c83e adaa 073e 55fb ebbd 4098 033e
00000180: cbc7 c43e 4f42 6bbe 5796 4bbc c7de 6b3d
0.96803313 -0.25161657 -0.40412918 -0.13302553 0.6761621 0.20980789 0.22107387 -0.068235405
0.19895217 0.053808387 -0.13792443 -0.06299717 -0.04373766 -0.2881811 0.39394978 -0.13856718
0.30935982 -0.29000038 0.31157023 -0.9347735 0.026315546 -0.8640295 0.14188871 -0.36307386
-0.5476353 0.27145144 0.40229112 0.74007666 -0.56423783 0.35345274 0.41707897 -0.6909472
-0.007708788 0.7818977 0.16928193 0.742167 -0.4085817 -0.08814005 -0.4109668 0.11621511
0.1281711 -0.09778389 0.33080447 -0.15897357 -0.07631008 -0.17134252 0.29444253 0.07045295
-0.49799117 0.44547364 0.9384459 0.07856522 -0.21289374 -0.08743199 0.75294495 -0.20629731
0.4256076 0.21548909 0.13639694 0.16849422 -0.08758839 -0.6554243 0.032697804 0.46925378
1.0893623 -0.8450798 -0.9476566 -0.19643682 0.57949996 0.7858747 0.09038405 -0.49589455
0.19756892 -0.5990514 -0.17031959 0.30652577 0.19064525 -0.16001455 0.11758686 0.8517867
0.82042295 -0.14221418 -0.41638887 -0.63915044 0.27802768 -0.12933269 -0.1161882 0.34315544
-0.13230754 0.30132422 0.2301604 0.71114045 0.39241642 0.13248701 -0.11522547 0.12851048
0.3843368 -0.22974513 -0.0124259805 0.057585504

decoder.1.0.weight f4 [784, 100]
00000000: b7ab 0abf 0414 163f d376 103f 1c96 ecbd
00000010: 82d2 07bf f4a4 6fbd e3b1 26bd 3e26 233e
00000020: 529a 76be e1c2 9bbe 92ea 9bbe 1da6 20bf
00000030: 8579 4bbf a4f7 a13d 448a f9be 6c24 00bf
00000040: a262 d9be 5414 f93b eeb8 12bf a0c3 abba
00000050: 642d e1bd 9266 f23e f682 8cbd d406 dabd
00000060: 3b9e 963e cf9a b2bc 3d50 a5be 36a3 24bf
00000070: c3e6 7dbc 1e9e 60bf ee3f 3bbf 6006 fa3e
00000080: dcb0 81be 9db4 03bf a395 ddbe ccda fabe
00000090: b861 c2bd c49d 913d d5f7 db3c 250b b13d
000000a0: 8698 fb3d f6e0 70be e237 19bf dce8 903d
000000b0: 86e4 cc3e 5db2 3fbe df01 6dbf 828e 85be
000000c0: 88e7 ad3e 366b 3cbf 8938 57bf 297a 473e
000000d0: c3fb 0abf 2684 183e 3ad7 43bf 27d5 87be
000000e0: 8a51 fe3c 7bf8 cd3e 7bcb 9b3a 8884 e7bd
000000f0: 1a21 683e 87d0 8abd f6d8 e2bd be31 76bf
00000100: 8953 d7bf a7d0 4a3f 53e1 bc3e 50a8 4a3e
00000110: 163e d0be c1cf 51bf 83fb 763c 6e4d e8be
00000120: 4896 3cbf fa45 13bf b715 ad3e 7df6 01bf
00000130: 74be 66be d004 5cbd d368 fa3d 1176 7bbf
00000140: 7bf9 7ebf b4e2 63bd 77eb 083f dab5 283e
00000150: da2d 30bf da20 11bf 9528 98be a37e a3be
00000160: d451 a5bd 981e 99bf ea3f c63e b2f1 b3be
00000170: 50fe 75bf dc71 cabe 46e8 d1ba 7d19 893d
00000180: 0e56 88be 21d7 25bf dff6 f83b 4f9c a13d
00000190: ac83 1ebf c10f 143f 5e1f 203f 04b7 e2bd
000001a0: 9813 1bbf 3b41 94bd 313c 7fbc 2a6e 143e
000001b0: 4d1b 59be 06ea b6be f4d4 84be 479c 19bf
000001c0: 189b 33bf f45f da3d 2798 00bf 54ae febe
000001d0: 5399 e2be 56c1 9f3b c976 1fbf 34b8 89bc
000001e0: 93aa bfbd 9c3b dc3e 448c d2bd b8f8 d5bd
000001f0: 670a 913e 35cc e8bc 3f1c 96be 5bea 32bf
00000200: b590 78bd b333 42bf 5e7c 3bbf b651 0e3f
00000210: 9dc6 56be 485d 09bf 788d e5be 101d f5be
00000220: fbc3 f7bc ff00 a0bc 70e0 f93a 16a2 81bd
00000230: de0f 0f3e 90d8 8abe 6133 09bf 7343 163d
00000240: e756 ce3e d09f d9bd 315a 64bf c8e1 79be
00000250: 5850 ab3e 9bb4 1fbf 59ee 56bf 3751 473e
00000260: c79a 17bf 6451 133e b886 4fbf e7fe 74be
00000270: f8dc 0f3d 3f33 063f b376 1cbd 6d96 43be
00000280: 2c28 643e 73c1 eebd d626 e3bd 5e10 56bf
00000290: 125e ddbf 1266 433f ab90 8d3e 4875 5a3e
000002a0: 77a9 ccbe 6dd0 5dbf 6a7b 813c d2c5 debe
000002b0: df61 38bf fd9b 18bf de64 b33e bc16 07bf
000002c0: 923b 41be d3bf ef3b d25a e73d 5c19 78bf
000002d0: d2de 73bf ec84 973d 6640 113f 85f5 1e3e
000002e0: e518 43bf d231 1abf c5b8 9cbe e9f8 bfbe
000002f0: 2350 77bd 1b8f 98bf 2297 d63e 842b b7be
00000300: 5ff5 5ebf 0584 ecbe d977 493d 11f9 8f3d
00000310: fc41 90be f8bb 1dbf 1667 41bc 5edb 20bd
00000320: da52 bdbe 7bad 313f d4db 1b3f c95c 03bd
00000330: 229e 40bf 5c51 49be 641c 00be 06fa 5f3d
00000340: 22a4 b8be e1e5 afbe 7ec8 8abe b37d 0abf
00000350: 17ad 55bf b538 e23c 85b1 19bf 1648 0dbf
00000360: fd2c abbe 5a79 49bc 7019 08bf 8f89 123c
00000370: d1f4 d5bb 758a f73e 3271 483c 3fbf 15bc
00000380: 6d70 a23e 7226 5abd f601 a0be f7a3 25bf
00000390: 17aa 04be 2cb0 3cbf e75f fdbe 04e9 033f
000003a0: 60e7 b4be 7145 09bf c756 23bf f2de 05bf
000003b0: ce80 1a3c afb2 39bd b419 20bd 40c7 873d
000003c0: 65a8 be3d f541 bbbe 355b 2dbf 0d97 343c
000003d0: babc fe3e 6724 7ebe 12bf 93bf eeba c1be
000003e0: ac8b 9c3e be13 1bbf 755c 30bf 81e5 623e
000003f0: 4076 f5be 6f8a 373e aaae 89bf 4114 abbe
-0.54168266 0.5862429 0.5643131 -0.115520686 -0.53055584 -0.05850692 -0.04069699 0.15932557
-0.24082306 -0.30422118 -0.304524 -0.6275347 -0.794823 0.07908562 -0.487383 -0.50055575
-0.42458063 0.0076013003 -0.5731343 -0.0013104565 -0.10994986 0.4734388 -0.06860916 -0.106458336
0.29417595 -0.021802334 -0.3228778 -0.6431154 -0.015496912 -0.8774127 -0.73144424 0.4883299
-0.25330245 -0.5144747 -0.43278226 -0.48995054 -0.094912946 0.071101695 0.026851574 0.08644704
0.12284951 -0.23523316 -0.59850895 0.070756644 0.400181 -0.18720384 -0.9258098 -0.26085287
0.33965707 -0.7360109 -0.8407064 0.19480194 -0.5429041 0.1489416 -0.76500285 -0.2652981
0.03104474 0.40228638 0.0011886203 -0.11304575 0.22668877 -0.06778055 -0.11076538 -0.9616965
-1.6822368 0.7922463 0.3689066 0.19790769 -0.40672368 -0.8195763 0.0150746135 -0.45371574
-0.7366681 -0.5752865 0.3380563 -0.50766736 -0.2253359 -0.053715527 0.12227025 -0.9822703
-0.99599427 -0.055636123 0.5348429 0.16475621 -0.68819964 -0.5669075 -0.29718462 -0.31932554
-0.08072248 -1.1962461 0.38720638 -0.35145336 -0.96091175 -0.39539993 -0.0016014657 0.06694315
-0.26628155 -0.64781386 0.0075977887 0.078911416 -0.61919665 0.5783654 0.6254786 -0.11070064
-0.6057677 -0.07239004 -0.015578316 0.14495149 -0.2120182 -0.3572542 -0.2594372 -0.60004085
-0.7015853 0.10662833 -0.50232166 -0.49742377 -0.44257602 0.0048753424 -0.62290627 -0.016811468
-0.09358706 0.43014228 -0.1028066 -0.1044783 0.2832825 -0.028417686 -0.29318425 -0.6988885
-0.06068488 -0.75860137 -0.73236644 0.5559343 -0.20974202 -0.5365796 -0.44834495 -0.47873735
-0.030244818 -0.019531725 0.001906408 -0.063297436 0.13970897 -0.2711835 -0.53594023 0.03668542
0.40300676 -0.10626185 -0.8920012 -0.24402535 0.33459735 -0.6238496 -0.8395744 0.19464575
-0.59220546 0.14386517 -0.8106494 -0.23925363 0.03512284 0.52421945 -0.038199138 -0.19100352
0.2228095 -0.11657991 -0.11091392 -0.83618724 -1.7294333 0.7632762 0.27649435 0.21333802
-0.3997304 -0.8664616 0.015805919 -0.435103 -0.7202434 -0.5961302 0.35037893 -0.52769065
-0.1887038 0.0073165684 0.112966195 -0.96913695 -0.9526187 0.073984 0.5673889 0.15523346
-0.7620986 -0.6023227 -0.30609718 -0.3749459 -0.06037916 -1.1918672 0.4191218 -0.35775387
-0.87093157 -0.46194473 0.04918656 0.070299275 -0.28175342 -0.6161494 -0.011804363 -0.039271705
-0.36977273 0.69405335 0.60882306 -0.03207091 -0.7524129 -0.19659942 -0.1251083 0.0546818
-0.36062723 -0.3435507 -0.27106088 -0.5409805 -0.8346724 0.02761493 -0.600365 -0.5518812
-0.3343276 -0.012296999 -0.53163815 0.008943929 -0.0065294285 0.48347822 0.012234019 -0.009139835
0.317264 -0.05325932 -0.31251496 -0.64703315 -0.12955509 -0.73706317 -0.4948723 0.5152743
-0.35332775 -0.53621584 -0.63804287 -0.5229331 0.0094301235 -0.04533642 -0.039087012 0.06629801
0.093094625 -0.3657376 -0.67717296 0.011022341 0.49753362 -0.24818574 -1.1542685 -0.3783793
0.3057531 -0.60577 -0.6889108 0.22157861 -0.4794178 0.17923902 -1.0756428 -0.3341389

decoder.1.0.bias f4 [784]
00000000: 380d 12c0 5560 14c0 7613 15be bc04 09be
00000010: 08fd 05be f6ee 2abf 6696 13c0 8c69 d9bd
00000020: 432b 13c0 7e90 13c0 fefc 92bd 6bbd cbbe
00000030: 2fd7 e9be 6a66 1abe 2f8b 2cbe d2fe 12c0
00000040: 183b 03c0 a96f 5dbe 160c 14c0 1e2e 9fbe
00000050: 3d82 12c0 aff5 a5bd 2687 e5bd 32d3 d8be
00000060: 98fe d2be 76c6 08be 618a 20be 8570 96be
00000070: f783 e2bd 5d2f 10c0 346a 19be 6673 75be
00000080: a32e f8bd 38d2 d6bd 8ddc acbd fae1 14c0
00000090: 5133 00be bbec c8bd 4b54 40be c8e7 3abe
000000a0: 42fe 98bd 7670 4dbe 69bc e1bd 207b 06c0
000000b0: c64d 95bd 8b0b 77be 8366 0ac0 7472 ddbd
000000c0: ac98 cabd bcf7 48be b4cd 16c0 6865 85be
000000d0: aefa cdbd 80dd 54bd 5016 3dbe 3449 73bd
000000e0: 6ed5 1cbf 5276 16c0 fd51 16c0 b0cf a0be
000000f0: fe4e e9bd 2915 efbe 3436 a9bd 5085 e9bd
00000100: c2e1 02c0 7de9 78bd 9311 44be 4eff babf
00000110: e7d7 89bf 5e8e 49bd b43f 28bf e8f5 f5be
00000120: 8446 16bd 43b9 0ebf 7e0f f7bc d381 dfbc
00000130: 873d 49be 2a5c c1bd 3526 82be a3bb 11bf
00000140: 5b73 1ebe 1ba0 16be 78f1 15c0 db15 74be
00000150: 9495 7fbe 8109 14c0 ef7b e0bd 36b0 16c0
00000160: 7014 32bd 6a61 c7bf 828e 05c0 425e e3bf
00000170: 9e18 15be 6964 a2bf 62ec fcbc 2f79 b5be
00000180: 3891 12be c2ed 76be 193c b0bd 039e e2bd
00000190: cdf4 06bd f2c1 7ebe 6fcb 79be f4d3 eebc
000001a0: b9ba f0bd 769f 0dbf c0f5 3dbe c510 a9bf
000001b0: 9d98 d3bd f901 20be ca59 98bf 408c 14c0
000001c0: 83c7 16c0 e2e9 ecbf 1765 a3bd 9149 6cbe
000001d0: af11 94bc f8b6 ecbf d0d8 d5bf 503b b9bf
000001e0: 36e2 32be cecf 9dbe 26a1 d0bd a210 f2bd
000001f0: a880 e0bc b98c 1dbe 903b 68be 3f7e 6fbe
00000200: 3f47 44be c48c 6ebe 493b c9be 578a 6bbe
00000210: 7a21 aebe 79af 48be 8791 abbf 7c54 15be
00000220: 2578 76be 4609 e2bf 789a 81be 57ae 2ebe
00000230: 54df 12c0 451c e0bd 78da 11c0 0da3 f2be
00000240: 35a2 f3bf 4e06 80bf a66b ffbd cace d5be
00000250: 00ae 70be 642a 3abd 9606 30be ca53 53be
00000260: 24bd d0bb 8b49 b23c 80fc 44bc c0ac 8ebd
00000270: ae03 45be 8c74 8cbe 9d5d bfbe 77b5 9bbe
00000280: 64dd 15be 1933 30be 0ca8 3bbe 82c5 30bf
00000290: 75ad b1bf 4681 75be 4f22 9abf 6e38 16c0
000002a0: 2765 15c0 93f4 e3be 5452 80be 98b8 c1bd
000002b0: 089a ccbf ba65 6fbf 9208 20be a9be 62be
000002c0: c15c 6abe 58c3 5cbd 7cba febd 5ab4 183c
000002d0: 2df4 813d 7898 9b3b f289 1fbe 25dd 06be
000002e0: 5c57 4abe e00f 83be ed06 9bbe c224 d4be
000002f0: 79c8 5bbe 39e1 08be 52f8 31bd 5b82 a5be
00000300: f817 2ebd 593d e6be 9ac6 93bd e726 36be
00000310: 31de b2bd b947 c3be e091 88bf ba63 dabf
00000320: 3123 1cbe 7741 84be 0ca0 fabd 2a32 0fbe
00000330: a53b c83d 1325 6b3d 40da a23d 9efc 3e3d
00000340: c843 a63d 3377 d0bd 11a1 0cbe 6b1c 39be
00000350: 5c76 95be 887a 54be a3f8 8dbe 2dbe 98be
00000360: 5fd7 85be a026 e3bd 3a08 84bd 36c1 47bd
00000370: 040b 92be ea3e 5bbf ba1d f1bf 4f5a fbbf
00000380: 5b8d 8dbd 3dd8 11c0 e1cd e9bd 7a05 e7bd
00000390: a0b4 2cbf bed2 8dbe 4656 3fbd 07fa 21be
000003a0: 9403 10be a0e5 57bd e289 423d da7a 98bd
000003b0: 2a68 3d3d 5143 3ebe dfbc 42be aa55 abbe
000003c0: 5c10 b4be 1ca2 8cbe 2a9a 5bbe 4982 2dbe
000003d0: ff1c 54be 850a 52bd 32e3 8abd 03e6 3bbd
000003e0: dc9a 473c 8dad 85be 5ecd e7bf 0e20 11c0
000003f0: e544 65be 93c5 96bd b163 55be b52b 86bc
-2.2820568 -2.3183796 -0.14558205 -0.13380712 -0.13084805 -0.66770875 -2.3060546 -0.106158346
-2.2995155 -2.305694 -0.07177161 -0.39792952 -0.45671985 -0.1507813 -0.1684997 -2.296803
-2.0504818 -0.21624626 -2.3132377 -0.31089872 -2.289199 -0.08103501 -0.11207418 -0.4234863
-0.41209865 -0.13356957 -0.15677787 -0.2938272 -0.110603265 -2.2528908 -0.1498192 -0.23969802
-0.1211827 -0.10489315 -0.08440504 -2.3262925 -0.12519576 -0.09810778 -0.18782155 -0.1825248
-0.07470371 -0.20062432 -0.110222645 -2.101265 -0.07290225 -0.24125497 -2.1625068 -0.10812846
-0.09892401 -0.19625753 -2.3563051 -0.2605393 -0.10057579 -0.05196905 -0.18465543 -0.059395984
-0.6126317 -2.3509717 -2.3487542 -0.31408453 -0.1139202 -0.4669583 -0.082622916 -0.114023805
-2.0450292 -0.060769547 -0.19147329 -1.4609163 -1.0769013 -0.049208038 -0.65722203 -0.48039174
-0.036688343 -0.55751437 -0.030158754 -0.027283585 -0.19652377 -0.09441407 -0.25419775 -0.56926936
-0.15473692 -0.14709513 -2.342863 -0.23836462 -0.24959403 -2.31308 -0.109611385 -2.354505
-0.043476522 -1.5576603 -2.086823 -1.776314 -0.14560172 -1.2686893 -0.030874435 -0.35444018
-0.14313209 -0.24114135 -0.08605213 -0.110652946 -0.032948304 -0.24878672 -0.2439401 -0.029153802
-0.117543645 -0.55321443 -0.18550777 -1.3208243 -0.10331843 -0.15625753 -1.1902401 -2.3210602
-2.3559272 -1.8508875 -0.07978266 -0.23074938 -0.018074838 -1.8493338 -1.6706791 -1.4471226
-0.17469105 -0.30822605 -0.101869866 -0.11819579 -0.027405098 -0.15385713 -0.22678971 -0.23388003
-0.19167803 -0.23295885 -0.39303043 -0.23001991 -0.34009916 -0.19598188 -1.3403786 -0.1458301
-0.24069269 -1.765908 -0.25313163 -0.17058693 -2.2948809 -0.10942892 -2.2789593 -0.47390023
-1.9033877 -1.0001924 -0.12471704 -0.4175933 -0.23503876 -0.045450583 -0.17190012 -0.20637432
-0.0063702036 0.021763584 -0.012023091 -0.06966543 -0.19239685 -0.27432668 -0.3737611 -0.30411884
-0.14635235 -0.17206992 -0.18325824 -0.69051373 -1.388106 -0.23975095 -1.204172 -2.3471942
-2.3342988 -0.44522533 -0.2506281 -0.094590366 -1.5984507 -0.935146 -0.1562827 -0.22143044
-0.22886945 -0.05389723 -0.12437913 0.009320343 0.06345401 0.0047484003 -0.15579966 -0.13170297
-0.19759887 -0.2559805 -0.3027872 -0.41434294 -0.21463193 -0.13367166 -0.043449707 -0.32326016
-0.042503327 -0.4496868 -0.072156146 -0.17788278 -0.08733786 -0.38140658 -1.0669518 -1.7061684
-0.152478 -0.25831196 -0.12237558 -0.1398398 0.09777001 0.057408404 0.07951784 0.046627633
0.08118397 -0.101789854 -0.13733317 -0.18077247 -0.29191864 -0.20749867 -0.27728757 -0.29832593
-0.26140878 -0.110913515 -0.064468816 -0.048768245 -0.2852403 -0.85642874 -1.8837197 -1.9636935
-0.06911727 -2.2788231 -0.114162214 -0.112803414 -0.6746311 -0.27699846 -0.046713136 -0.15818034
-0.14063865 -0.05270922 0.047494777 -0.07445307 0.046241917 -0.18580367 -0.19017361 -0.33463794
-0.3516873 -0.2746743 -0.21445528 -0.16944231 -0.20714186 -0.051279563 -0.06781615 -0.045873653
0.012182917 -0.2610897 -1.8109548 -2.2675815 -0.22389562 -0.07361903 -0.2083881 -0.016378263

fc_mean.fc.0.weight f4 [10, 50]
00000000: 0653 4b3d bd1e 2bbe f5e1 6dbe f3e5 da3c
00000010: d9e6 60bd dcff ac3c feec a23d c19d 87bd
00000020: 2bca c73d c4f3 42be 57c3 b63d f109 68be
00000030: 6bea f43d c51b 043d faa6 8b3d d1b9 233e
00000040: a545 11bc 13dc a43d 5789 483e 1c26 4b3d
00000050: 5749 b63d 4527 debd ae88 cfbd 94c4 ee3d
00000060: 113f 26be 5c8f 3d3e bdf1 0ebe 1649 543e
00000070: 2658 683d a49f 3e3e 3208 d83c ac19 69bd
00000080: 6fc7 f13d 0c27 14bd bfb7 cebd 38a2 debb
00000090: bda8 e5bc 72f5 d23d c6ee 603c 2281 1ebd
000000a0: ad94 723e 00ea 913c 5739 e03d abf0 10be
000000b0: a475 7a3d 8af4 713d 37d3 6cbc 36a8 bb3d
000000c0: b949 6f3e 502c a53b 2295 9d3d 79d9 01be
000000d0: a5be 7fbd a95d a93d aef1 9d3d 0497 11bd
000000e0: 9fff 40bd e66f cd3d 84be 91bd 0e86 453d
000000f0: 847b 8dbd 5435 30bc 4db6 32bd f718 90bd
00000100: 49b5 9c3d 86a0 6ebd 5717 3f3d 3bee 81bd
00000110: d192 f0bd a273 3cbd f387 303d cc11 55bd
00000120: 9f15 663d 04bc 783d 7ca4 dfbd d3d5 853d
00000130: 2372 4b3b abc3 91bd 3556 e73c a8f6 013d
00000140: 4323 c0bd 5705 583d 5b07 b7bd 91c6 4dbd
00000150: 0131 c83c 0775 7dbd 2efe b5bd 7a0c 43bd
00000160: c694 acbc 2657 dfbb 2a68 bcbd b987 13be
00000170: 5aff 00be a879 19be b0f3 143d 59b0 b1bd
00000180: 7025 efbd e63d 82bd e929 aabd 9631 1fbd
00000190: decf 163e e014 953d a1e8 22be f22f 183e
000001a0: 5e04 323e 485b 1e3d fd95 a2bc cd33 8cbd
000001b0: 620e 88bb fe5c 253c 9a08 983d 0235 b13d
000001c0: 2902 b03d 003e 183e 4fba 2b3c 0934 5bbe
000001d0: 003c 973d d492 e43d 8b51 943b 5e86 bf3d
000001e0: e0c5 af3d bdee ddbb 726a 233b 7ba0 01be
000001f0: 39e3 0bbe 1981 b9bd 6796 a23d d751 7fbd
00000200: f4c0 203c 95ef 8b3d 1b30 883d db44 02bd
00000210: 8831 8abd 6986 c53b 1ec8 dabd 5694 1b3e
00000220: b4c1 d03d 677f 253e e962 c73d 093c 983d
00000230: 1198 abbd 234f 9e3d 8f6c 97bd 6c5d 193c
00000240: e0d1 2a3d 89ff 163e 2012 ea3d c5a2 3b3d
00000250: d7a4 103e 5a6a 6c3c 1d6e 08be 0cc1 70be
00000260: f153 bc3d a78e 753d 5b14 adbd 7b94 c4bd
00000270: cbb8 d4bd f2ec 8c3c 8950 973e 9604 ac3d
00000280: 84d7 df3d 2115 153e 0e7c 16bd a54e 5d3d
00000290: 83c8 2d3e b06c 9d3e 4482 023e e086 babd
000002a0: f3bb 7ebd f757 bfbc a593 093d 34f0 80bc
000002b0: a9c3 febd 6429 043e e58f a5bd a833 d43d
000002c0: d6e6 163e 8c1b 373e 280f e13c fa92 dabc
000002d0: b60a 7cbd 7872 623c 976f 663d 4a0c e2bd
000002e0: fa59 d33d 8ddf 903d 2715 d3bd d182 0e3e
000002f0: 9246 82bc adf7 493b 4fb3 8e3e 060c 3c3e
00000300: 02f4 0c3e 1529 363d 1d6c f43d 0f34 8d3b
00000310: 04d4 0c3e a058 d33c 8e2f 143e 5066 d9bd
00000320: 2035 d33d 82c9 c13a 9888 ce3e 8d37 093d
00000330: b231 463d c6b3 89bd 44ee a73c 8742 0cbd
00000340: b0ba 00bd f327 4c3e b56c babd acd9 0abc
00000350: adee 123d 5dc6 5f3c f8b2 473e 5492 03be
00000360: 9b4e 91bd f6b9 ef3c fe5e fb3d 371e 49bd
00000370: 43c5 8f3d d5e1 b23c 4bd3 b83d 1dbe cbbd
00000380: fab8 7b3b 3129 fe3d 26fb d1bd d098 09bd
00000390: f12f 763c e6a0 eebc ef94 5e3e 9731 3dbe
000003a0: 6f72 a9bd c055 ba3d 6a6e dfbd 6ffe 6ebc
000003b0: ef42 84b9 cc85 863d a73e 4c3e dcb6 073e
000003c0: 14e5 173e 1eed 28bd 1512 8a3d ac03 323d
000003d0: b817 ea3d 88a6 4e3e b2ad ef3d 9b9b 803d
000003e0: 9b3f b43c 2fdc 013e bdfe e03c 72e2 4ebc
000003f0: 6e5f b3bd b2db 98b7 fa84 dd3d c2ea 0dbe
0.049639724 -0.16710944 -0.23230727 0.026720976 -0.054907653 0.021118097 0.07955359 -0.06621886
0.09755357 -0.19038302 0.08923977 -0.22660042 0.11958774 0.032253046 0.068189576 0.15988852
-0.008866702 0.08049788 0.19583641 0.04959689 0.08900707 -0.10847334 -0.101334915 0.11658588
-0.16234995 0.18511719 -0.13959403 0.20731005 0.05672469 0.18615586 0.026371095 -0.05690925
0.11805617 -0.03617005 -0.100936405 -0.0067942403 -0.028034562 0.10300721 0.013728803 -0.03869737
0.23689528 0.017811775 0.10948437 -0.14154308 0.061147347 0.0590711 -0.014454654 0.09162943
0.23367967 0.005040683 0.076944605 -0.12680615 -0.062437672 0.082698174 0.07712112 -0.03554441
-0.04711878 0.100311086 -0.07116416 0.048223548 -0.06908324 -0.010754902 -0.043630887 -0.07036012
0.07651765 -0.058258556 0.046653118 -0.06344267 -0.11746753 -0.046008714 0.0430984 -0.052018926
0.056172963 0.06072618 -0.10920045 0.06534924 0.0031043373 -0.07117399 0.028239349 0.03172937
-0.09381726 0.052739467 -0.0893695 -0.050238196 0.02443743 -0.061879184 -0.088863716 -0.04761932
-0.021067034 -0.006815809 -0.09199555 -0.14407243 -0.12597409 -0.14987814 0.03636521 -0.08676214
-0.116770625 -0.063594624 -0.08308775 -0.03886565 0.14727733 0.07279372 -0.15909053 0.1486204
0.17384478 0.03866127 -0.01984691 -0.06845818 -0.004152105 0.010092972 0.074235156 0.086526886
0.08594162 0.14867401 0.010481431 -0.21406569 0.07384491 0.11160818 0.0045263222 0.093518004
0.085826635 -0.0067728446 0.0024935273 -0.12658875 -0.13660897 -0.090578265 0.07938843 -0.062333908
0.009811629 0.06832806 0.066498004 -0.031803947 -0.067477286 0.006027986 -0.106827006 0.15193304
0.10193196 0.16161881 0.097356625 0.07433326 -0.08378614 0.07729938 -0.07393753 0.009360652
0.04170406 0.14745916 0.11429238 0.045809526 0.14125381 0.014429653 -0.13323255 -0.23511142
0.09195698 0.059950497 -0.08451148 -0.09598633 -0.10386809 0.017202828 0.2955363 0.08399312
0.10929778 0.14558841 -0.0367394 0.05403008 0.1697102 0.30746984 0.12745005 -0.091077566
-0.06219096 -0.023357375 0.03358807 -0.015739538 -0.12439663 0.12906414 -0.08084086 0.10361415
0.14736494 0.17881602 0.027473047 -0.026681412 -0.061533652 0.013821237 0.056258764 -0.110375
0.10319896 0.07073889 -0.10306769 0.1391709 -0.015902791 0.0030817792 0.27871177 0.18363962
0.13764957 0.044472773 0.119346835 0.0043091844 0.13752753 0.025799096 0.14471266 -0.10615218
0.10312867 0.0014784785 0.40338588 0.033500243 0.048387237 -0.06723742 0.020499356 -0.034243133
-0.03142804 0.19937114 -0.091027655 -0.008474749 0.03587215 0.013658133 0.19501865 -0.12848788
-0.07095071 0.029263478 0.12273978 -0.04910108 0.070200466 0.0218362 0.09024676 -0.099483706
0.0038409815 0.124102004 -0.10252981 -0.033593 0.015026079 -0.029129457 0.21736501 -0.18475948
-0.082737796 0.09098387 -0.10909732 -0.014587029 -0.0002522687 0.065684885 0.19945775 0.13253349
0.1483348 -0.041241758 0.0674173 0.043460533 0.11430305 0.20180714 0.117030516 0.062796794
0.022002986 0.1268165 0.027465219 -0.012627231 -0.08758436 -1.8222116e-05 0.10816379 -0.13859084

fc_mean.fc.0.bias f4 [10]
00000000: dc42 433e bdd6 cebd 84db 81bc 46fc 72bd
00000010: 9b53 f2bc 2215 0fbd 6380 d13c bc0a 55bd
00000020: 21e1 22be 5272 fa3b
0.19068474 -0.10099552 -0.015851744 -0.059322618 -0.029580882 -0.034932263 0.025573915 -0.05201219
-0.15906192 0.0076430226
