AutoEncoders/VAE_CL/saved_model/Contrast_model.pth (torch, 682744 bytes, 15 tensors)

encoder.0.fc.0.weight f4 [100, 784]
000000 7a 0d 10 bc f1 b5 d3 3c c0 c3 6a 3b 72 be 24 3b
       -0.008792276 0.025843592 0.0035822242 0.0025137928
000010 e9 4c 14 bd f1 c3 d4 bc b9 9e cb bc b5 bd 18 bd
       -0.03620616 -0.025972338 -0.024855958 -0.037290294
000020 44 de 18 bc 67 d8 b2 3b 8b 00 d5 3c 57 d7 d5 bc
       -0.009330336 0.005457926 0.026001235 -0.026103659
000030 1c 1b c0 bc 32 ae f0 bc c0 ff 74 bc 38 2b cc 3c
       -0.023450427 -0.029379938 -0.014953554 0.024922952
000040 10 0b 70 3c 15 6e e1 bb 16 96 8d 3b 31 1f 1c bd
       0.014651075 -0.006879578 0.00432087 -0.038115684
000050 83 d0 d1 bb 3b 10 82 3b 89 fa d9 3c e1 ca ef bc
       -0.0064030304 0.00396922 0.026608722 -0.029271545
000060 a7 d1 d2 bc 97 7e cd bc a6 bc 3c 3c 3f c1 92 bc
       -0.025734736 -0.025084777 0.011519587 -0.017914413
000070 3f dd 1f bd ff 73 be bc c0 5d 52 3c 6f 36 d7 bb
       -0.039029356 -0.02324867 0.012839735 -0.0065677683
000080 c4 ea 8c 3a c7 cc 2e bc 08 7f 8e 3c 22 87 9e bc
       0.0010751118 -0.01066894 0.017394558 -0.019351546
000090 80 1c ce bc ac a9 17 3c e3 e3 30 bd db 34 89 3c
       -0.025160074 0.0092567615 -0.04318608 0.016748836
0000a0 10 c8 5c bc 6e ce 4e bc c3 25 21 bd 3b 83 1a 3d
       -0.013475433 -0.012622459 -0.039342653 0.037722807
0000b0 cc 36 06 bd c9 c6 b5 bc 4e 0d 99 ba ec 7e 6d 3c
       -0.032767102 -0.022189515 -0.0011676939 0.014495593
0000c0 a8 52 a4 3b e3 43 5c bc e5 46 4c bc 94 85 6a 3c
       0.005014736 -0.01344392 -0.012468074 0.014314074
0000d0 ad 0a 86 bb c0 99 b7 bb 55 7b 19 bd b1 c6 c6 bc
       -0.004090628 -0.005603045 -0.037471134 -0.024264665
0000e0 a7 59 2b bd 6f 0f 0b bd 6d c4 1e bd c7 3e 05 bd
       -0.041833546 -0.033950265 -0.038761545 -0.032530572
0000f0 45 9e 06 bd eb 3b 92 bb 2f 9e 54 bc 91 05 98 bc
       -0.03286578 -0.004462709 -0.012977167 -0.018557342
000100 36 b0 51 3c 86 cc ec bc 26 93 37 bd 42 28 a0 bb
       0.01279836 -0.028906118 -0.044818066 -0.0048876116
000110 fc 94 06 bd f0 f0 f7 39 6f 9b 04 3d 8a 1e 74 3c
       -0.032856926 0.00047291024 0.032374796 0.014899859
000120 b6 70 c8 3c f3 d1 a4 3d 2f f9 ee 3d 3d 77 f0 3d
       0.024467807 0.08047857 0.11668622 0.11741493
000130 ff aa 9b 3d dc 95 8e 3d 30 75 56 3d ca 47 06 bd
       0.07600974 0.06962177 0.052357852 -0.032783307
000140 1d 04 ba bb 76 bd cc bc 35 ff e7 bc d0 d6 cd 3b
       -0.00567676 -0.024992686 -0.028319934 0.006281711
000150 6d ff 24 bd a8 f8 3c bc 33 db e6 bc 6f 7c b0 3b
       -0.040282656 -0.011533894 -0.028180694 0.0053859274
000160 73 84 d8 bc e3 07 42 bc 72 9f 50 3c 5a 65 24 bd
       -0.026430344 -0.011842701 0.012733327 -0.04013572
000170 f1 ef e2 bc 4b 44 2a 3c 90 8f cb bd 7d ea 43 bd
       -0.027702304 0.010392259 -0.09939492 -0.047831047
000180 8f 4a 68 bb 23 90 42 3b c3 f2 4e bd e5 0a 0b bc
       -0.003544483 0.0029687963 -0.050524484 -0.008486484
000190 39 93 6f 3d 5d 44 f6 3c f1 59 25 3c 1b 62 41 3d
       0.05849001 0.030061895 0.0100922445 0.0472127
0001a0 03 80 ac 3d 36 e7 92 3c 05 aa 54 3d 04 b1 56 3c
       0.08422854 0.017932516 0.051919956 0.013103727
0001b0 9f 87 ad 3c ce 7d 9a 3c 1c 24 f5 bc 62 76 e0 3b
       0.021182833 0.018858816 -0.029924445 0.00685005
0001c0 e1 e3 14 bd 21 d3 a8 bc a0 10 ae 3b d0 5f 1c 3c
       -0.036350135 -0.020608487 0.0053120404 0.009544328
0001d0 ae 1d 01 38 6f 4b 9e 3b 0d 43 93 3c 24 f8 c9 3c
       3.0783638e-05 0.0048307697 0.017976308 0.024654455
0001e0 2f f3 c1 3c 28 bf 5e 3d cf 0b c0 3c e4 83 87 3c
       0.02367553 0.05438152 0.02344313 0.016542383
0001f0 f9 53 dc bc ae 1e 80 3d ff e9 07 3e f2 6a 23 3e
       -0.02689551 0.06255852 0.13272856 0.15958765
000200 46 96 0c 3e b3 6a cf 3d fa 4e 9f 3c f9 41 43 bd
       0.137292 0.10127773 0.019446839 -0.04767034
000210 bd 27 1c 3c b3 91 50 3d c9 35 38 3d 7f c0 e7 bc
       0.009530959 0.0509202 0.04497317 -0.028290031
000220 09 52 51 bc 43 4d 44 bc eb c0 7b bc 93 7a a6 ba
       -0.012775906 -0.011981311 -0.015365819 -0.0012701325
000230 79 8c d4 3c d2 ee 70 3b 29 2f 30 bd 12 69 b9 ba
       0.025945889 0.0036763442 -0.043013725 -0.0014145693
000240 0b 43 db bc 76 23 af bb 8a 0a 27 bc 6d 2e 8f ba
       -0.026765367 -0.0053448034 -0.010195384 -0.001092387
000250 9c 66 d8 bc 4e 00 fc bc c1 70 46 bd b4 e7 2a bd
       -0.026416115 -0.030761864 -0.048447374 -0.041724876
000260 94 85 91 bc 4f 00 80 3d 86 6a 88 3d ec f7 0e 3e
       -0.01776389 0.06250059 0.06660943 0.13961762
000270 0a 2f 08 3e 11 47 8d 3d a3 d7 cc 3c e6 27 7e bc
       0.13299194 0.068983205 0.025005167 -0.015512442
000280 2d b5 13 bd e5 85 a7 3c 60 1a c9 3c ef 0d e5 3c
       -0.036061455 0.020449588 0.02454871 0.027960746
000290 ce 31 82 3d af 24 18 3c e4 eb a9 bc ab 64 22 bd
       0.06357156 0.00928609 -0.020742364 -0.039646786
0002a0 c3 cf 98 3c fb c1 97 3c 73 f3 8c 3c b3 38 12 bc
       0.018653756 0.018525114 0.01720593 -0.008924651
0002b0 af 46 dd b9 c4 dd 34 3d 18 d5 01 bd a8 9b b4 bd
       -0.00042205068 0.044156805 -0.031697363 -0.088187516
0002c0 2b 47 8d bd d4 64 0e be 45 6c 63 bd 43 3d aa bd
       -0.0689834 -0.1390565 -0.055523176 -0.08312466
0002d0 9a 5d 47 bd 6c 32 dc bc fe 61 07 3d e7 7b e0 3d
       -0.04867325 -0.026879512 0.033052437 0.109611325
0002e0 09 dd cb 3d 8f 70 cb 3d 19 9d 07 3d 51 96 0c bd
       0.099542685 0.09933578 0.033108804 -0.03432304
0002f0 fc 9e 3a bd 79 d2 93 bc 63 bf b4 3d e2 7d 3d 3d
       -0.045561776 -0.018044697 0.088255666 0.04626263
000300 59 d3 4f 3d 18 4a 81 3a d5 ad b3 bc 1c 7e e7 bc
       0.050738666 0.0009864001 -0.021933476 -0.028258376
000310 09 76 ec bc 7c b7 b6 bc ec 0b 79 bb a4 17 d1 bc
       -0.028864877 -0.022304289 -0.003800149 -0.025523968
000320 f6 25 46 bc a3 81 02 bd 1a 25 3f bd dd 3f 17 be
       -0.0120940115 -0.031861912 -0.046666242 -0.14770456
000330 e7 0f 93 bd 8f 19 b3 bd 68 c0 9f bd a9 6b c1 bc
       -0.071807675 -0.08745109 -0.078003705 -0.023610907
000340 b7 ba 3b bc 95 0f be bc 2c 8b 27 3d 27 a4 23 3d
       -0.0114580905 -0.02320079 0.04090421 0.03995147
000350 92 d5 49 3d 50 5c 5a bb ad 22 da ba 45 ee cd ba
       0.049275942 -0.0033319183 -0.0016642414 -0.0015711269
000360 20 cb 3c 3c d7 d3 c8 bc 53 b4 cb bc 9f a9 89 3d
       0.011523038 -0.024515076 -0.024866259 0.06721806
000370 8b 8a 0e 3c c3 f4 72 bc 6d 47 f6 bc aa aa d2 3c
       0.008700023 -0.014828864 -0.030063355 0.025716145
000380 ff 91 e4 bc 29 8e 81 3c ab 0a 10 bd 2d f9 f1 bc
       -0.027901648 0.015814858 -0.035166424 -0.029537762
000390 15 5a 1f 3c 44 eb 42 3c a7 3d 60 bd fd eb 93 bd
       0.009726067 0.011896912 -0.054746296 -0.072227456
0003a0 15 ab 63 bd 9d e5 66 bd 15 41 78 bd 46 41 c8 bc
       -0.05558308 -0.05637132 -0.060608942 -0.024445187
0003b0 b4 ef 51 3c eb d0 c8 bc 91 bc 6f bd 2f 00 01 bd
       0.012813497 -0.024513682 -0.05852944 -0.031494316
0003c0 a5 c4 90 bd 65 35 f0 bd 6b 4b ba bc d7 43 35 3c
       -0.07068757 -0.11728934 -0.02274104 0.011063538
0003d0 14 0b ca bb 13 ab 3c 3d 5f 92 3e bc 50 6e 92 bd
       -0.0061658714 0.046061587 -0.011631577 -0.07149947
0003e0 d5 94 10 bd 9c 00 4b bd 7f cb 4b 3c 44 0d 2b bb
       -0.035298187 -0.049561128 0.012438654 -0.0026100436
0003f0 b1 6e 44 3c 97 d2 cc bc 42 65 da 3c a5 ad a8 3c
       0.0119892815 -0.02500276 0.026659612 0.020590613

encoder.0.fc.0.bias f4 [100]
000000 15 3a d6 3c 75 f8 dd bc 3f 81 42 3c e3 8b ac 3c
       0.026150743 -0.027096013 0.011871635 0.021062797
000010 e1 a1 f6 3c ae 1a fb bc 53 21 87 3c b2 35 27 3d
       0.030106487 -0.03065237 0.016495382 0.040822692
000020 23 25 97 3c c4 06 9c bc 62 91 20 bd 55 e4 d1 ba
       0.018450325 -0.019046195 -0.039201148 -0.0016013483
000030 0c 84 1f 3c 8f b8 8d 3d b7 e2 4e 3d d7 76 91 3c
       0.009736072 0.069199674 0.05050918 0.017756863
000040 3c 89 f4 ba 99 e4 03 3c 76 ca 36 3a 98 f2 13 bc
       -0.0018656622 0.008050107 0.0006972918 -0.009030007
000050 cd 26 be bc 87 56 2b 3d 1e 21 31 3b be 60 29 3d
       -0.023211861 0.041830566 0.0027027796 0.041352026
000060 16 07 51 bd 9e a5 1c 3d 27 93 7e 3d 05 eb 16 bd
       -0.05103215 0.038243882 0.062152054 -0.036845226
000070 d3 65 21 3c 9d fd 44 bc d2 d6 a7 bc 98 6c 5b bc
       0.009850937 -0.012023357 -0.020488176 -0.01339259
000080 61 80 8a 3b 56 a6 20 bd be ba 14 bd d9 9f 3c bc
       0.0042267297 -0.03922113 -0.036310904 -0.01151272
000090 c5 72 e0 3b 94 1f ff bb 77 21 0c bd 27 ea bf bc
       0.006849619 -0.007785747 -0.034211602 -0.023427082
0000a0 b4 04 e1 bc 97 d1 8f bc fc ae 33 bb dd 44 2e bd
       -0.027468063 -0.017555995 -0.0027417531 -0.042546142
0000b0 09 a6 c4 bb e5 68 14 bd fa d6 1d 3c c9 32 67 bc
       -0.0060012382 -0.036232848 0.009633774 -0.014111229
0000c0 ad c0 5a 3d b5 b8 17 3c 62 59 3f 3d 2e b6 34 3c
       0.053406406 0.009260346 0.0467161 0.011029763
0000d0 1d 57 c2 bb 20 6c dd 39 63 b3 28 bd cd 49 80 3d
       -0.005930795 0.00042232964 -0.0411867 0.062640764
0000e0 9c 4e 0f 3d a2 82 2e 3d ee 1f 4b 3c 32 82 c9 3c
       0.034987077 0.04260505 0.012397749 0.024598215
0000f0 d1 9b f2 3b 76 53 b8 3c d7 a9 bf 3b 5a 32 6a bb
       0.0074038287 0.022500735 0.005849104 -0.0035735578
000100 4e c8 95 3d 50 9e c5 3c bd 9d 1d bd 2a 61 9e 3c
       0.07313596 0.02412334 -0.03848051 0.01933344
000110 9b 63 4b 3c fd 41 7c 3c f2 92 f3 3a a1 cc 7a 3d
       0.0124138845 0.015396592 0.0018583222 0.061230306
000120 1b 09 65 3b 47 35 1a bd 42 6e 36 bc 9e 65 df bb
       0.0034948054 -0.037648465 -0.011134686 -0.0068175336
000130 d1 ae 34 3d 13 20 bc 3c ee 76 64 3b ef 76 96 3c
       0.04411203 0.022964513 0.0034860927 0.018367259
000140 6c 69 08 3d 87 d7 ba 3c 0c 5f 15 bc 76 60 d7 3c
       0.033303663 0.02280785 -0.009116899 0.026291113
000150 a5 80 ed bc 2c 00 13 3d b0 d1 a5 3b de 9c b8 bc
       -0.028992007 0.035888836 0.005060397 -0.022535738
000160 54 0a b6 bc c9 9a 19 bd 32 de 1d bc aa fc 16 3c
       -0.022221722 -0.03750113 -0.009635495 0.009215513
000170 77 82 0e 3d 95 b2 ca 3c 87 a4 2b 3d 32 75 19 3b
       0.03479239 0.024743358 0.041904952 0.00234158
000180 f6 19 3b 3c f6 1b 1b 3d f4 60 df bb 26 37 04 3c
       0.011419764 0.037868463 -0.0068169776 0.008069789

encoder.1.fc.0.weight f4 [50, 100]
000000 7f 29 06 bd 97 b8 28 3d 05 5c 29 3d c3 e5 15 bc
       -0.032754418 0.041191664 0.041347522 -0.009149018
000010 58 87 26 bd e5 e7 c6 bc 61 3f 58 bd 1a 05 c1 bd
       -0.040656418 -0.024280498 -0.052794818 -0.09424801
000020 08 82 29 bc fe 98 e2 3c 53 22 7d bd 78 50 81 3d
       -0.010345943 0.027660843 -0.061800312 0.06314176
000030 59 5e 74 bd 42 a7 8c bd e4 47 86 bc 25 a4 ed bd
       -0.05966029 -0.068678394 -0.016391702 -0.11603574
000040 63 29 f8 3c bb 8f e6 bd c9 96 ac 3d 8f 80 80 3d
       0.030293172 -0.11257883 0.084271975 0.062745206
000050 5a 7f 0e bc fd 7e aa 3b ce 73 c5 bd 2d db a0 3d
       -0.008697355 0.0052031265 -0.096412286 0.078543045
000060 8f a7 b5 bd 13 a2 b4 3c a6 b3 85 3d 2c 91 17 3d
       -0.0886985 0.02204994 0.06528406 0.03700368
000070 25 42 76 ba 35 0b 2e bd ae ed a3 bd 9c ba de 3c
       -0.00093940116 -0.042491157 -0.08004318 0.027188592
000080 68 24 62 bc f8 aa c8 bd 37 f2 80 3d 36 67 9e bd
       -0.013802625 -0.09798235 0.06296199 -0.0773453
000090 e0 e7 cf bd f8 61 a1 3d ca 1a 7d 3c ea ae a0 3c
       -0.101516485 0.07880014 0.015448282 0.019614656
0000a0 6a 0b 92 bd e2 5e 54 3d 19 2c cb bd e0 60 d5 bc
       -0.07131083 0.0518483 -0.0992052 -0.02604717
0000b0 36 38 a2 3d 3b f7 2b 3d b8 a3 4a bd 02 2a ba bd
       0.07920878 0.041983824 -0.04947254 -0.090900436
0000c0 24 2b 49 bc 9a c1 95 bb 45 e2 71 bd 63 a1 0b 3d
       -0.012278352 -0.0045701982 -0.059053678 0.034089457
0000d0 02 fc 8c bd 28 3d 81 bb 45 5e b1 bd a1 13 b9 bd
       -0.06884004 -0.003944058 -0.086605586 -0.09036947
0000e0 6d bf cd 3d 65 42 4b bd b3 bc b3 bc fa 32 a6 bd
       0.10046277 -0.049623866 -0.021940565 -0.08115192
0000f0 23 2f d0 bd 3b a9 92 bd 86 2d d1 b9 6b e5 e8 bd
       -0.101652406 -0.071611844 -0.00039897504 -0.11371883
000100 59 91 5d 3c 12 8a 88 3d f5 27 cf bd 83 c5 ae bd
       0.013523423 0.0666696 -0.10115043 -0.08533766
000110 09 14 24 3d 17 e9 92 3c a2 72 1a 3d fe 71 a4 b9
       0.04005817 0.017933412 0.03770698 -0.00031365448
000120 a9 70 b2 bc fb 90 7f 3d a5 10 c0 bd 9e 7f ce bd
       -0.021782236 0.062394124 -0.09378175 -0.10082935
000130 14 ce ae 3d a1 b7 45 3c 77 80 22 bb ac f8 95 3d
       0.085354 0.012067706 -0.002479581 0.07322821
000140 a4 78 a0 bd e9 44 a7 bd 01 a1 a7 3c 3b 36 92 bd
       -0.078355104 -0.081674404 0.020462515 -0.0713925
000150 65 70 6e 3d e2 aa b5 3d 67 49 28 bd 88 0b ca bd
       0.058212657 0.08870484 -0.041085627 -0.09865481
000160 24 ba e1 bb 6e 25 5e 3d 02 67 9a 3d 8d 64 9e 3d
       -0.006888645 0.054234914 0.075391784 0.07734022
000170 f0 77 c6 bd e1 be da bd 21 13 a2 3c 2d 64 99 3c
       -0.09690845 -0.106809385 0.019784512 0.018724525
000180 72 50 b8 3c d6 bb 64 bd dc 65 c8 3c c7 4b e5 bd
       0.022499297 -0.055843197 0.024462633 -0.11196094
000190 cf 7e 22 bd bb a6 cf bd c2 97 09 bd fb 6a f4 bc
       -0.039671715 -0.10139223 -0.033591993 -0.029836169
0001a0 ab 41 03 be 68 22 be bd 3b c5 8c ba c3 1e 94 bd
       -0.12818019 -0.09283906 -0.0010739932 -0.0723243
0001b0 b0 b3 7f bd a8 4d c9 bd 52 12 d0 bd f3 d0 01 bd
       -0.062427223 -0.09829265 -0.10159744 -0.03169341
0001c0 3d 44 50 3d 3a f2 8b bd 13 ed de bd 28 77 e2 bd
       0.050846327 -0.068333104 -0.10885062 -0.110578835
0001d0 d4 6a 80 bc 71 f2 3b bd 9a 42 f0 3c f3 21 c9 3c
       -0.01567594 -0.045885507 0.029328633 0.024552321
0001e0 ce 9c 8e bd 9e 8d 39 3d 19 93 20 bd d1 5c f6 bd
       -0.06963502 0.045301072 -0.039202783 -0.12029422
0001f0 bf eb 1b bd 1d f8 34 bd d7 59 68 bc 72 a9 3e bd
       -0.038066622 -0.04418193 -0.014181576 -0.046548314
000200 24 29 9d 3c 7d 5a 90 bd 12 27 3a 3d be c1 b7 3c
       0.019184656 -0.07048509 0.045447417 0.02243125
000210 42 27 1e bd 0e 19 d0 3c cc 53 c2 bc b7 43 ba bd
       -0.038611658 0.025402572 -0.023721598 -0.09094947
000220 27 36 2d bd e1 68 88 3d ca f3 56 bd ad 77 8f bb
       -0.04228797 0.06660629 -0.05247859 -0.00437828
000230 67 b4 d8 bc 7c 10 86 bd 92 3e 04 be be 08 af 3d
       -0.02645321 -0.06546113 -0.12914494 0.08546589
000240 c9 28 95 3d e0 b7 0a bc a8 07 47 3d 7d 7b bd bd
       0.0728317 -0.008466691 0.048591286 -0.09252069
000250 18 3d 6f 3b 47 1a bd bb 4d e7 70 3b 92 a9 27 bb
       0.003650492 -0.005770955 0.003675896 -0.002558325
000260 72 0e 93 bd da 6e ac bd f1 6c 97 3d 19 46 05 3c
       -0.071804896 -0.08419581 0.07393826 0.008134388
000270 3f 95 37 3d b9 ab 89 bc 0e 79 1a bd aa ac 0e 3c
       0.044820067 -0.016805517 -0.037713103 0.0087081585
000280 b4 9d 9d bd 03 e6 39 3d 6e f7 89 bd b2 f5 c0 3c
       -0.07696095 0.045385372 -0.067366466 0.023554657
000290 0b 03 e9 3c ee 49 2b bd 6a 77 19 3c b8 a9 d8 3c
       0.028443834 -0.04181855 0.009366849 0.026448116
0002a0 b9 66 f4 bd de 25 11 bd 63 20 10 bc 5a 61 a4 bd
       -0.11933655 -0.035436504 -0.008796784 -0.08026381
0002b0 fb 4c c4 3b 9c ee 3d 3d ff 39 98 bd ed 97 1e bc
       0.005990622 0.046370134 -0.07432937 -0.009679777
0002c0 48 4c 06 bd 62 b4 89 bd 3b 8a 9f bc d2 60 92 bd
       -0.03278759 -0.067238584 -0.019475093 -0.07147373
0002d0 ce 1e af bc 69 ed 89 3d 82 3b 18 bd 7a 41 c1 bd
       -0.021376994 0.067347355 -0.037166126 -0.09436317
0002e0 11 a8 a0 bd b4 e9 c2 bc 06 9d 87 bd aa 54 82 3d
       -0.07844556 -0.023793079 -0.06621747 0.06363805
0002f0 15 0c 7d bc 49 bc d8 bd 88 41 d7 bd 92 a7 26 3d
       -0.015444775 -0.105827875 -0.10510546 0.04068715
000300 9c 5b e5 3c 2b e2 65 3d ad 80 68 3a 4e b3 01 bd
       0.027997784 0.056123894 0.0008869272 -0.03166514
000310 b5 5a 93 3d 73 7b 0f bd 23 80 91 3d e1 7a 97 bd
       0.07195035 -0.03502984 0.07104518 -0.07396484
000320 8e e9 dd 3d da e4 d6 3d 05 6e b5 3c 7e a6 92 bd
       0.10835563 0.10492869 0.022147188 -0.07160662
000330 99 6a aa 3c f3 c4 af 3d 9a ed d5 3d 84 ab d6 3d
       0.020802783 0.08582487 0.104457095 0.10481933
000340 17 a8 2b 3d 6d c7 80 3c 3e 31 18 3d ff 60 31 bd
       0.04190835 0.015720094 0.037156336 -0.043305393
000350 b0 ec a1 3c 9e 1f a3 3b 93 53 85 bd ec 6c fc bc
       0.019766182 0.0049781343 -0.06510081 -0.030813657
000360 5d 50 cf bd de c3 96 3d e6 d0 e5 bc 8a f0 31 3c
       -0.1012275 0.073615775 -0.028053712 0.010860572
000370 c3 89 a1 3d 59 17 91 3d 35 a1 3a bd 7d 6b ab 3d
       0.07887604 0.07084531 -0.045563895 0.08370111
000380 e1 09 c6 bd f8 1d b5 bd 1c f5 43 3d c3 e5 5c bd
       -0.09669853 -0.08843607 0.047841176 -0.053930055
000390 c6 c1 7a bd 36 77 db 3d 89 44 d1 bd e0 1c ba 3d
       -0.061219953 0.10716097 -0.1021815 0.09087539
0003a0 cf 29 18 bc 90 53 f1 bc be 0e 83 3d 59 14 fd bd
       -0.009287312 -0.029458791 0.06399296 -0.12357397
0003b0 c0 04 e0 3c 7e 0e 95 3d d8 ed 5d 3d 5d ba 64 3c
       0.027346015 0.07278155 0.054181904 0.013960448
0003c0 d3 26 dd 3c 9a cf 14 3c 06 8d 81 3d 3c 70 90 bc
       0.026996052 0.009082699 0.06325726 -0.017631643
0003d0 c7 59 42 3d 85 a8 97 3b a0 8c 2c 3d 50 27 46 bc
       0.0474489 0.0046282434 0.042126298 -0.012094334
0003e0 3e 10 b9 bd 70 83 ee 3d fa 7c aa bc 50 e7 88 3d
       -0.09036301 0.116461635 -0.020811547 0.06684744
0003f0 b2 89 83 3d a0 e9 9f 3d a5 8e e5 ba 92 4c 23 bd
       0.06422748 0.07808232 -0.0017513825 -0.039867945

encoder.1.fc.0.bias f4 [50]
000000 b3 81 f0 bc c3 05 5d bd 51 58 eb 3d 25 d0 cf 3d
       -0.02935872 -0.053960573 0.114914544 0.10147122
000010 56 9c 33 bc 9f 70 a2 3d d4 17 bb bd dc e2 8d bd
       -0.010962566 0.07931637 -0.09135404 -0.069280356
000020 c2 e4 0b bc a1 c4 93 3d 4b 18 1d bd 60 fd 26 bd
       -0.008538427 0.07215238 -0.038353246 -0.04076898
000030 71 80 59 bd 33 10 a3 3d 1a 87 02 3a 7d e0 24 3d
       -0.053101007 0.07962074 0.0004979238 0.04025315
000040 d7 67 3b bd 5e a1 eb 3b 6a f5 14 bd 6d e2 89 3d
       -0.045753326 0.0071908673 -0.036366858 0.067326404
000050 66 43 3b bc 80 c9 06 3d 9d fb da 3d 01 07 77 3d
       -0.011429643 0.03290701 0.10692523 0.060309414
000060 bc 7e ac 3d 08 75 60 bb 6a 4c a2 bd e1 d7 10 bc
       0.0842261 -0.0034249444 -0.07924731 -0.008840532
000070 08 d1 88 bc 76 73 46 ba 4c 67 7a 3d 69 6b ee bc
       -0.016701236 -0.00075703056 0.061133668 -0.029103952
000080 ca 0d b1 3d 0a 24 2b bd bf 97 2a bc 83 bf a8 3d
       0.08645208 -0.041782416 -0.010412156 0.08239653
000090 04 ef 4e bd 16 21 8b bd bb 00 ac bd da 78 d4 bc
       -0.05052091 -0.0679342 -0.08398577 -0.025936533
0000a0 eb 07 78 3c 1e 23 86 3d ed 82 f6 3d 1a c2 db 3c
       0.015138607 0.06549667 0.12036691 0.026825953
0000b0 2a bd d8 3d 45 7a 13 bd 70 60 02 3d ef 97 9d 3b
       0.10582955 -0.036005277 0.03183025 0.0048093717
0000c0 06 c6 ba 3d 54 ae b8 3c
       0.09119801 0.022544064

decoder.0.fc.0.weight f4 [100, 50]
000000 97 40 6e be 3b 29 0b be f7 0c c3 3e 17 89 b6 bc
       -0.23266827 -0.13589947 0.3809583 -0.022282166
000010 4f 7e d8 bc fc 91 8a 3e 55 65 b1 be f4 cf f1 3e
       -0.026427416 0.27064502 -0.34647623 0.47228968
000020 c5 d8 41 bd bb f1 cf bd 64 31 60 3e 1b 6c 3e be
       -0.04732587 -0.10153528 0.21893841 -0.18595926
000030 c1 38 4c 3d f0 2c c2 be 9d fc 0d be df dd 8e 3e
       0.049858812 -0.3792491 -0.13865896 0.2790365
000040 9f 10 ef be 39 24 99 bd 01 ae 08 3e b8 47 25 3e
       -0.46692368 -0.07477612 0.13347627 0.1614064
000050 ec 73 e2 bd 7f 79 a4 be e9 bb ea 3e d8 1d fd 3e
       -0.110572666 -0.32123944 0.4584649 0.4943683
000060 73 2a e5 bd d3 2f c2 be 0d 0a f4 bd f3 7b 4b bc
       -0.11189737 -0.37927112 -0.119159795 -0.0124196885
000070 1e 52 87 3d 38 0e c8 bb 0a db 8d 3e a4 a9 7a 3d
       0.066074595 -0.0061052106 0.27706176 0.06119694
000080 71 e3 d8 3e a7 40 a2 3e 18 f4 8e 3d e9 84 31 be
       0.42361024 0.3168995 0.06980151 -0.17335857
000090 a7 ce 63 be a8 0f 1c be 39 53 2f 3e 9c ce 87 3d
       -0.222468 -0.15240347 0.1712159 0.066312045
0000a0 65 03 9d be 39 f7 56 be 13 fb 4d 3e 9e fa 86 3e
       -0.30666652 -0.20992745 0.20115308 0.2636308
0000b0 ce 37 80 bd d9 70 bc 3e 1a f1 3f 3d 26 69 9b 3e
       -0.06260644 0.36804846 0.04686079 0.3035366
0000c0 0a 12 3f be 33 30 2f 3d c0 b5 1e be 21 e2 4a 3e
       -0.18659225 0.042770576 -0.1549902 0.19812824
0000d0 63 27 b9 bd cb c8 0d be 55 10 b3 3e 7d 67 db 3d
       -0.090407155 -0.13846128 0.34973398 0.10713098
0000e0 8e 3f f8 bd ce 03 06 3e 8d 83 97 3e d1 65 85 3e
       -0.12121497 0.13087389 0.29592553 0.26054242
0000f0 1d 6d 1e 3e ed df 06 3e fe 47 75 be 8e 3e 0d be
       0.15471311 0.13171358 -0.23953244 -0.13793394
000100 27 cb ec bd 2b 5d 24 3e f9 b3 02 be 02 39 62 bd
       -0.11562186 0.16051166 -0.12763967 -0.055230148
000110 80 5b d0 bd e3 e7 1d be ca 26 6d 3d 14 8b d7 3e
       -0.10173702 -0.15420489 0.05789832 0.42098296
000120 38 fa e0 bd 78 a9 7f 3d 47 44 73 3d d5 b8 33 be
       -0.109852254 0.062417477 0.059391286 -0.17550977
000130 cc bd 85 be ad 84 05 be ec 60 1e 3d 6e ea aa bc
       -0.26121366 -0.13038893 0.03866665 -0.020863738
000140 a9 50 60 3e ff 0d ba 3d d6 de 08 be 3c 9e 03 3f
       0.2190577 0.09084701 -0.13366255 0.5141332
000150 9d c1 9c bc 93 37 48 3e 26 66 c9 bd 63 fb 8f bd
       -0.01913529 0.1955245 -0.098339364 -0.0703037
000160 90 0b 94 3b f4 0a ab be a4 7c ec 3d ae 44 66 bd
       0.00451798 -0.33406794 0.11547211 -0.05621784
000170 c7 c3 46 3e fe c7 b8 bd c5 33 b7 be 4d a2 44 3e
       0.1941062 -0.090225205 -0.35781685 0.19202538
000180 97 bd 8f 3c ad 9b 0e be 72 ef 5a 3e c9 f5 92 3d
       0.017546458 -0.13926573 0.21380404 0.07175786
000190 57 9c 06 bc f3 1b 4f 3e 5f af 9a 3d 0e 96 d3 bd
       -0.008215985 0.20225506 0.07552981 -0.10331355
0001a0 34 95 07 3e 4a fc 08 3d 5b 4f 86 3d 50 c6 af b9
       0.1324051 0.033443727 0.065581046 -0.00033526355
0001b0 f8 3c b6 3e a3 fd 8b 3d 10 f5 09 bd ed 3f 8b be
       0.3559339 0.06835487 -0.033680975 -0.2719721
0001c0 01 c1 e3 bd 37 da f9 3e 77 ba 35 3e 2c 24 00 bd
       -0.11120797 0.48799297 0.17746912 -0.031284496
0001d0 ec c1 0b bd 52 07 e2 bc cd 2b dc 3c f6 96 82 bd
       -0.034120485 -0.027591381 0.026876355 -0.0637645
0001e0 68 10 74 bd a4 df 0e bf c4 80 3a be af 56 b4 bd
       -0.05958596 -0.5581 -0.18213183 -0.08805596
0001f0 06 84 2a 3e f3 23 77 3d de 57 74 be 9b e8 d0 3d
       0.16651925 0.06033702 -0.23861644 0.10200616
000200 95 35 a2 bd 32 26 06 3f 5f 00 d5 bb 2b b4 8e bd
       -0.07920376 0.5240203 -0.0065002884 -0.06967958
000210 cc 5d 24 be b6 cb 0a 3e 9a 36 4d 3e 28 8e ef bd
       -0.16051406 0.13554272 0.2004036 -0.11697036
000220 fe 75 6b 3e 94 9e c9 bd bd dc e9 bd e7 0b 6f be
       0.22994229 -0.098446995 -0.114190556 -0.23344384
000230 6e 41 dc bd d9 6e a0 3e e7 9f 5d bd 6d dc 8b bc
       -0.10754667 0.3133457 -0.054107573 -0.01707288
000240 3f e5 52 3e c6 06 43 3e 62 0e 28 be 10 63 eb bd
       0.20595263 0.19045553 -0.16411737 -0.11493504
000250 24 bc 89 3e a6 1e 17 be ec 4c b2 bd b3 63 03 be
       0.26901352 -0.14757785 -0.08706078 -0.12831001
000260 8b 68 04 bc 8f 52 14 3f 9f d9 7e 3e 70 00 87 bb
       -0.008081566 0.57938474 0.24887703 -0.004119925
000270 bc ae 10 3d 15 b5 41 be dd bc 8a be 13 1a 59 3e
       0.03532289 -0.18916734 -0.27097216 0.21201353
000280 97 0b 5f 3e f5 bf c8 3e b0 b8 04 bf 6c 60 ee 3d
       0.21781765 0.39208952 -0.5184431 0.11639485
000290 ef 51 2d 3e af 5d 9a be 4b 80 92 3e 90 eb f7 bd
       0.16925786 -0.301496 0.28613505 -0.12105477
0002a0 2a 64 44 3d ba 08 31 be a4 bb 27 bc f9 c9 c9 3e
       0.047947086 -0.17288485 -0.010237608 0.39411905
0002b0 cf 36 32 be f5 fb 1d bd 32 17 a5 bc 79 da b4 3d
       -0.1740372 -0.038570363 -0.020152662 0.08830733
0002c0 77 61 0b 3d 0b cf b5 3c 4d cd 65 be b9 a5 d7 be
       0.034028497 0.022193452 -0.22441597 -0.42118624
0002d0 f6 dc d4 bd 69 56 3d 3d 6f ff f3 be 75 14 b6 be
       -0.103937075 0.046224985 -0.47655818 -0.35562482
0002e0 78 57 80 3d c7 c0 ab 3e f8 ad 04 3e 06 79 c4 3e
       0.06266683 0.33545515 0.12956989 0.38373584
0002f0 9c 70 95 3b b6 47 b9 3e 45 51 e8 3e 2f 29 99 be
       0.004560543 0.36187524 0.45374504 -0.29914233
000300 d2 7a ac be 5f bc 27 bf ae 71 4d be 0e 44 3c bd
       -0.33687454 -0.65521806 -0.20062897 -0.04596334
000310 80 65 5e 3b 25 c3 9c 3c 1c 2c f5 3d 9f 9b 3a 3e
       0.003393501 0.01913602 0.11971304 0.18223427
000320 04 cf b2 3d d9 3e c1 bd 3a 6e b9 be a4 14 0e bf
       0.08730891 -0.09435815 -0.3621691 -0.55500245
000330 43 fa 7c bd 8e 56 dc be 61 9c 77 bd 41 c6 7c be
       -0.061762106 -0.43034786 -0.06045187 -0.24685003
000340 95 c0 b5 3e 8d 53 ab 3e cd 2b 32 3e 47 f9 9e 3d
       0.3549849 0.33462182 0.17399521 0.0776239
000350 6b 73 08 be 84 46 7a bd 0b 4c 3a 3e 59 da 0d be
       -0.13325278 -0.061102405 0.1819307 -0.13852824
000360 2a d8 3a bc 55 9d 50 3e bd be 5f bd b9 30 23 3e
       -0.011404077 0.20372517 -0.05462526 0.15936555
000370 6a 8f 67 bd 10 13 37 3e 29 8d 2a 3d cd e3 48 3d
       -0.056533255 0.17878366 0.041638527 0.049045373
000380 a2 3f 87 3e 52 82 68 bd 22 0f 32 be 9b e5 4e bd
       0.26415735 -0.056764908 -0.17388585 -0.050511938
000390 93 64 09 3e d2 5f cb 3e 6c e7 9f 3e 16 35 2a 3e
       0.13417272 0.39721543 0.31231248 0.16621813
0003a0 fa f9 a1 be 8f c0 61 3f 64 24 ad 3d 65 65 03 3d
       -0.3163603 0.88184446 0.084542066 0.03207912
0003b0 ed bb 0a bd 59 f8 56 3e d8 e1 0c bd ed 29 3e be
       -0.033870626 0.20993175 -0.03439507 -0.18570681
0003c0 31 9f ed 3d 53 14 e9 bd f0 04 7d 3d 9c d9 f2 bb
       0.11602629 -0.1138083 0.061772287 -0.007411195
0003d0 63 75 da be 79 42 30 3e bf 52 df bd af 77 c1 be
       -0.42667684 0.17212857 -0.109044544 -0.37786624
0003e0 c4 39 b7 3c cf 80 18 3d 74 35 bc 3c 00 72 88 bd
       0.022366412 0.037232216 0.022974707 -0.06662369
0003f0 8a 0a cd 3d 6c 52 ec bd b6 1e d0 3d de e1 14 bd
       0.10011776 -0.11539158 0.10162108 -0.036348216

decoder.0.fc.0.bias f4 [100]
000000 cf 98 a8 3e f3 59 8b bd 79 72 36 be b9 ec 39 3e
       0.32929084 -0.06804266 -0.17817105 0.18156709
000010 ba 8b e0 3e f1 1b 06 3e 6d b0 8f bd 0f d0 9b 3e
       0.43856603 0.13096596 -0.070160724 0.30432174
000020 41 d6 6d be b6 ea f9 3d fd b9 7c 3e 0b ca 0a bd
       -0.23226263 0.12202971 0.24680324 -0.03388409
000030 d0 c3 36 3d e7 12 9a bd 35 15 b1 3c fd 2f a0 bd
       0.044620335 -0.075231366 0.021616558 -0.07821653
000040 8a 53 18 be d5 78 17 bc f0 2e 47 bd 68 cc 88 bc
       -0.14875618 -0.009245117 -0.048628747 -0.016699031
000050 75 cc 76 3d 42 e2 fd be 8e 64 23 3f 28 83 54 bd
       0.06025358 -0.49586684 0.6382531 -0.051882893
000060 fb 94 44 3e a3 ee 17 be 3c f7 47 be 4a 25 f8 3d
       0.19197457 -0.14837126 -0.19527906 0.12116487
000070 42 5a d6 bd b8 5e eb 3d 8e a1 1d 3c 45 95 2a 3f
       -0.10466434 0.114926755 0.009621037 0.6663402
000080 91 4a 82 be 59 95 37 3e 83 58 dc be 10 84 54 3e
       -0.25447515 0.17928065 -0.4303628 0.20753503
000090 2f a5 a7 bd 91 0f 07 3d 99 4d f0 be bf 07 9b bc
       -0.08185803 0.03297383 -0.46934202 -0.018924592
0000a0 fb 2c 69 3d 83 ab 21 bd 2c b3 29 be 18 fd 18 be
       0.056927662 -0.039470207 -0.16572255 -0.14940298
0000b0 0f 86 04 be 25 6f 5d bd 0c ca 9f 3e 14 65 88 be
       -0.12941764 -0.054061074 0.31208837 -0.26639616
0000c0 f6 ed ba be 3f 59 b6 bc d7 8a fe bc 8d 04 1a be
       -0.36509675 -0.022259353 -0.031072063 -0.15040798
0000d0 36 c6 ec bd 7d e0 be bd b7 73 55 3e dd 2a 96 bd
       -0.11561243 -0.093201615 0.20844923 -0.07332394
0000e0 b7 2d fd bd cf 11 e5 bc 74 18 88 be 9e 5d 25 3d
       -0.12362235 -0.027962593 -0.26581156 0.040372483
0000f0 88 3a fc bc e5 ae 28 3e c8 aa 84 bd d8 2d 15 3e
       -0.030789629 0.16472967 -0.064778864 0.14568269
000100 ba f1 92 3d 4c 31 44 be 12 db 5c 3e 90 77 11 3d
       0.07175012 -0.1915943 0.21567944 0.035514414
000110 a6 85 5d be 31 05 2d be 38 c5 cf bd 52 23 d6 bd
       -0.21633014 -0.16896512 -0.10145038 -0.104559556
000120 27 bd a0 3e 87 85 a2 3b 00 3c cc bd b6 73 85 be
       0.31394312 0.0049597654 -0.099723816 -0.26064843
000130 58 56 d7 3d 30 42 9a bd 32 a5 84 3e 65 23 63 3d
       0.10514516 -0.075321555 0.25907284 0.055453677
000140 85 65 f1 be 4a 11 f3 3d ca 5d a5 3e 87 4d 76 bd
       -0.47147766 0.11868532 0.32298118 -0.06013253
000150 b3 1e 01 3d 4c 64 b1 3e db f3 fc 3d 64 86 31 3e
       0.031523418 0.34646833 0.12351199 0.17336422
000160 f0 41 3b bd eb 77 84 bd fc 3a d4 bd f0 44 9f be
       -0.04571718 -0.06468185 -0.10362813 -0.31107283
000170 3a f3 82 3e a7 4e 6f 3f dd f3 76 bd 62 89 da bd
       0.25576192 0.9347939 -0.06029116 -0.10670735
000180 d2 dd 4c 3e bd e4 a6 be 0c cd 95 3c c2 df 87 3e
       0.20006493 -0.32596388 0.01828625 0.265379

decoder.1.0.weight f4 [784, 100]
000000 cb b5 a9 bd 7d 85 15 bc f7 51 91 bd 2d f7 b7 bc
       -0.082866274 -0.009126064 -0.07095712 -0.02245673
000010 09 6b 54 bd 6b 6c 6b 3c 02 72 89 bd 23 ad 51 bd
       -0.05185989 0.014369111 -0.067111984 -0.051190507
000020 70 ca 7b 3d bd 07 b6 bb 52 d1 8f bd 40 8a af 3c
       0.061472356 -0.0055551217 -0.070223466 0.021428227
000030 bd 0f 04 be b4 2f 40 bd 14 84 05 3c 54 24 b7 bd
       -0.12896629 -0.046920493 0.008149166 -0.08942476
000040 e0 f3 e5 b9 e8 1f 13 3d ad bc 40 3c f1 db 06 be
       -0.00043859985 0.0359191 0.011763734 -0.13169838
000050 f2 15 d3 bd 31 1e 10 3d cf 3e 6b bd ea b6 5e 3d
       -0.1030692 0.035185043 -0.057432946 0.05437366
000060 0d 1c ae bc 9a be eb bd c9 d3 ae bd 6f da 35 3b
       -0.02125361 -0.11510964 -0.085364886 0.0027748605
000070 6f 03 0f ba 11 55 a6 bd cc 1e a3 bd 9b 1e 87 be
       -0.0005455529 -0.08121694 -0.079648584 -0.26390538
000080 79 bb 86 3d 6f 6f 7c 3b 32 31 e7 3b 37 60 6f 3d
       0.06578726 0.0038518568 0.007055425 0.058441367
000090 61 58 41 bd 5c 90 8e bc d3 8c c4 bd a3 ad d9 bd
       -0.047203425 -0.01740282 -0.095971726 -0.10628822
0000a0 a6 32 c6 bd b7 a4 5f bc f6 5d c0 bd f2 bf 09 be
       -0.09677629 -0.013650111 -0.093929216 -0.13452128
0000b0 3e ee 35 3d f3 7f 0f bc a9 fd b0 bd d8 ca dc bd
       0.04441666 -0.008758533 -0.08642132 -0.10780877
0000c0 b2 ff 2b bd b8 16 57 3c ce 2f 7c 3c cd 62 a6 bd
       -0.041991897 0.013127975 0.015392257 -0.081243135
0000d0 2b d8 2c 3c 96 42 1d bd 5c 94 98 3d e4 65 03 bd
       0.010549585 -0.03839358 0.07450172 -0.032079592
0000e0 45 ca b2 3d de 3d ff bd 77 7a e8 bc 19 e8 04 3d
       0.08729986 -0.12462972 -0.028378708 0.032447908
0000f0 97 23 18 bd 6b a3 02 ba cd 2f cb bd 5d 70 da 3c
       -0.037143316 -0.00049834576 -0.09921227 0.026664907
000100 ab c0 5c 3d ad d8 4d bb fe 64 73 bd 5b 21 f6 bc
       0.05389468 -0.0031409666 -0.059422486 -0.030045202
000110 c5 7b 84 3d 49 27 f5 bd 12 66 7b 3d b5 b7 98 bd
       0.0646892 -0.11970384 0.06137664 -0.07456914
000120 f5 4a a6 bd 23 22 6d 3d a6 34 c1 bd 59 0d 73 bd
       -0.08119766 0.057893883 -0.0943387 -0.0593389
000130 68 73 84 3d bc 25 00 bd 9d 72 10 be b1 82 c8 bd
       0.064673245 -0.031285986 -0.14106221 -0.097905524
000140 3c a0 52 3d 3f 2b f9 3c ac 06 37 be 0f 03 22 3b
       0.051422343 0.03041613 -0.17873639 0.0024721061
000150 29 28 33 bd 5a f1 f1 bc 4b 29 08 be 84 87 8c be
       -0.04373947 -0.02953403 -0.13297002 -0.2744714
000160 60 77 ef bd 7b f4 d9 bd d7 12 81 be 29 7e a8 bc
       -0.11692691 -0.10642334 -0.25209686 -0.02056797
000170 ce 8a 70 bd 03 b3 68 be 32 8f 1f 3c 64 80 74 3c
       -0.058726124 -0.22724538 0.00973873 0.014923189
000180 fe e6 46 bd 52 4f a7 3b c8 f6 5d 3d 7f c3 fd bd
       -0.048560135 0.0051058913 0.054190427 -0.123908035
000190 b0 22 00 be d2 e4 c8 bd 4c f6 82 bd c4 f4 cf bd
       -0.12513232 -0.09809269 -0.06394634 -0.10154107
0001a0 d4 51 87 3d 09 8f 27 3d 87 cd bc 3c f0 a6 0d be
       0.06607404 0.040907893 0.023047222 -0.13833213
0001b0 7a 41 4e 3d d6 07 41 3d de 25 dd bd 47 6f bc bd
       0.050355412 0.047126614 -0.10798238 -0.09200912
0001c0 0c 4d 5f be 80 a8 cd bc 60 0c d8 bc 4a 62 9b bc
       -0.21806735 -0.025104761 -0.026373088 -0.018967766
0001d0 b5 0b 60 3c f9 57 6e bc 99 98 41 bd ae 28 89 bd
       0.013674666 -0.0145473415 -0.04726467 -0.06697212
0001e0 97 02 21 bd 30 cf 67 3c 1b 0b e6 bb 90 d0 66 bd
       -0.03930911 0.014148518 -0.007020367 -0.056351244
0001f0 a8 65 1d bd 9f ac 20 3c f8 09 44 3d ec 71 30 bd
       -0.038427025 0.009806781 0.04786107 -0.043077394
000200 57 ad cf bd 7e 43 3d bd 22 60 8a 3d d7 84 4b be
       -0.10140484 -0.046206944 0.06756617 -0.19874893
000210 23 50 ca bc e9 45 65 bd 8e 77 af 3c db 47 9c bb
       -0.024696415 -0.055974875 0.021419313 -0.004769308
000220 4a ea 02 3b 46 9a 69 bd f7 ad c1 bd ca 8f 85 3d
       0.0019976073 -0.057031892 -0.09457009 0.06521566
000230 a3 09 23 3d 58 10 1c 3d 48 73 cf bd 83 11 1e 3c
       0.039804112 0.038101524 -0.1012941 0.00964773
000240 48 09 48 3d 77 0f c1 bd c2 d0 f9 bc d3 bb 6f bd
       0.048836976 -0.09426778 -0.030495051 -0.058528733
000250 c7 c8 ea bd 90 97 1c 3d db 6a 7f bd 59 81 64 3d
       -0.114640765 0.03823048 -0.062357765 0.055787418
000260 6e 3b b0 3c 4a a8 5d 39 57 e5 37 3c ed 4e 1a bc
       0.021512713 0.00021138895 0.0112241125 -0.009418231
000270 84 ef f5 bb a8 ad 44 be 9f 32 0f bd 7c 4b d9 bd
       -0.007505359 -0.1920687 -0.034960385 -0.106101006
000280 a3 cc d0 bd 53 5b 38 bd ae 24 e1 bd 4f 7a 4a 3c
       -0.10195281 -0.04500897 -0.10993324 0.012358262
000290 68 17 ea bc a3 0f a7 bd 01 78 91 bd 34 78 a3 bd
       -0.028575614 -0.08157279 -0.07102967 -0.07981911
0002a0 d8 c1 34 bd 7e 68 65 3d d3 17 31 bd 6d 15 9c 3d
       -0.044130176 0.056007855 -0.04323561 0.07621274
0002b0 8d 6b f1 bd b4 a1 68 3d d8 24 92 3c 95 66 1a 3d
       -0.11788092 0.056794837 0.017839834 0.037695486
0002c0 13 a3 2e bb 3c 4c 02 be 7a 49 0b be a3 e6 b3 bd
       -0.0026647493 -0.12724394 -0.13602248 -0.08784225
0002d0 5a c2 ce bd a4 6b 73 bc 10 02 2a be 16 39 e5 bd
       -0.10095663 -0.0148572065 -0.1660235 -0.11192529
0002e0 cf c8 de bd 0c e5 a0 bd 08 48 44 3d 4f f8 5c be
       -0.10878145 -0.07856187 0.047920257 -0.21579097
0002f0 a7 2b 05 be ea 55 14 bc 12 d4 65 be 50 f7 c1 bd
       -0.13004933 -0.009053687 -0.2244418 -0.09470999
000300 ec 7a ed 3a bd b9 6b be 19 8a b1 3c 6a 4c ce bd
       0.0018118299 -0.23020072 0.021672295 -0.100731686
000310 fe f5 00 3c f7 9a c6 bd 56 4e a7 bd 43 e1 b0 bd
       0.007871149 -0.09697526 -0.08169238 -0.08636715
000320 cc 71 e9 bc 9e b6 2a b9 ff 87 8f bd 33 4c 2f bc
       -0.028496645 -0.00016280494 -0.07008361 -0.01069932
000330 d8 61 b2 bb 09 63 0f 3d d3 1b 82 bd 52 27 4d be
       -0.005443793 0.035006557 -0.06352963 -0.20034531
000340 22 11 7a bd 1a 66 41 3d 3a b5 d9 bd f9 aa d3 bc
       -0.061051495 0.047216512 -0.10630269 -0.025838362
000350 4e 63 bb bd 8a 1d a0 bd 8c e8 a1 bb d3 01 a2 bd
       -0.091498 -0.07818134 -0.004941052 -0.07910504
000360 f9 fc 2b 3d 94 0f f0 bd 89 52 36 bd d7 ab ea bd
       0.0419893 -0.11721721 -0.044512305 -0.11458557
000370 ac 24 15 be 23 f2 a0 3c 5c f8 e5 bc 78 92 ad bd
       -0.1456477 0.01964671 -0.028072529 -0.08475202
000380 5c 6c 8e 3c 33 70 7f 3d 60 22 06 bd f8 6b 93 bc
       0.017385654 0.06236286 -0.032747626 -0.01799582
000390 25 27 5e 3d c8 ff 72 3c 0a 99 f5 bc dd 88 63 be
       0.05423655 0.014831491 -0.029980201 -0.22220178
0003a0 93 41 45 bd 04 f6 79 bd fd 0f 3e bd d2 f3 db bd
       -0.04815824 -0.061025634 -0.046401966 -0.107398644
0003b0 a1 8e 44 3d fe 0f 58 bd 0f 6a 33 be 63 29 01 3d
       0.047987584 -0.052749626 -0.17520927 0.03153361
0003c0 99 68 03 be 57 ff 54 bd f4 0f df ba 97 9f 79 bd
       -0.1283287 -0.052001324 -0.0017018304 -0.060943212
0003d0 fa d7 ee bd f4 ef 20 bd 1f 06 8a 3d f2 f5 a8 bd
       -0.11662288 -0.039291337 0.06739449 -0.08250035
0003e0 1c 30 c4 bc 08 f8 3f 3d 61 48 16 3d 12 35 b3 bc
       -0.023948722 0.0468674 0.03669012 -0.021875892
0003f0 45 41 2f bc 7b 65 86 bd 9c 1b 58 3d 7c 45 26 bc
       -0.010696714 -0.065623246 0.052760705 -0.010148402

decoder.1.0.bias f4 [784]
000000 9a 8a 80 3a 89 be 3c bd fb 57 89 bd 57 44 4f bc
       0.0009806931 -0.046080146 -0.06706234 -0.012650571
000010 d7 6b a0 bd 9f fa 6d bd f3 3a 73 bb 04 8b 82 bd
       -0.07833069 -0.05810034 -0.0037113994 -0.063741714
000020 75 66 e0 bd 41 34 f2 bd 6a c3 e7 bd 4c 91 5c bc
       -0.10957042 -0.11826373 -0.11316569 -0.013462376
000030 bd 38 67 3d ce 4a be 3a ff 57 ec bd 17 3e 1e 3c
       0.056450594 0.0014518143 -0.115402214 0.009658358
000040 3b 27 d5 bc d9 3a 54 3d 18 15 e4 bd e4 98 04 bd
       -0.026019683 0.051813934 -0.11136836 -0.03237237
000050 74 38 a9 bd 20 84 68 bd 7d c0 61 bd 6c 28 9e 3c
       -0.08262721 -0.05676663 -0.05511521 0.019306384
000060 03 68 a1 b9 ab f9 b1 bd 8d 52 5d 3d b2 cc 8d 3d
       -0.00030785808 -0.086901985 0.054033805 0.06923808
000070 db 62 3e bd 02 f2 fd bc 5e 99 80 bd 43 c0 83 bd
       -0.046480995 -0.030999187 -0.062792525 -0.064331554
000080 7e 4d e0 bd a4 18 80 3d a9 7c 67 bc aa fc 83 3d
       -0.109522805 0.062547 -0.014128842 0.06444676
000090 f1 4f c4 bd 80 3a d2 bd 81 de 98 3c 7b e1 f5 bd
       -0.0958556 -0.10265064 0.018660786 -0.120058976
0000a0 4a cd 13 bd bf 72 d8 bd 95 89 0d bc 2c 26 d2 3c
       -0.03608445 -0.10568761 -0.008638759 0.025652967
0000b0 1a 53 a2 bd 7e 04 b3 bd 6d c7 0a 3d 96 c4 d7 3c
       -0.079260066 -0.08741091 0.033881593 0.026338857
0000c0 e2 ff cc bd c7 85 6c 3d 68 a7 21 3d dc 39 f6 bd
       -0.10009743 0.057744768 0.03946629 -0.120227545
0000d0 16 aa 42 3d d5 9b 81 3b ac c1 98 3d 6c 27 3b bd
       0.047525488 0.003955344 0.07458815 -0.045691893
0000e0 c7 1f 62 3c be ed c5 bd 91 24 e3 3c ca 6f 87 bd
       0.013801522 -0.09664486 0.027727397 -0.06613119
0000f0 e0 91 90 bd 28 f3 84 bd 5c 0c b7 3c 46 a1 3d bd
       -0.070590734 -0.06491691 0.02234476 -0.04629638
000100 88 95 91 bd c0 9d 30 3d 7e 9b 25 bd 88 fd d6 bd
       -0.07108599 0.043119192 -0.040431492 -0.10497576
000110 48 21 a8 bd 6e 18 0e 3d a3 d9 d4 bd 60 17 9c bd
       -0.08209473 0.034691267 -0.103930734 -0.07621646
000120 6f 38 02 be 57 1d 94 bd d9 57 fa bd e2 80 4a 3d
       -0.1271684 -0.07232159 -0.12223787 0.04943932
000130 1f 43 de bc c3 95 e6 bd 6f 94 36 bd 9a 5b 0f 3c
       -0.027131615 -0.112590335 -0.04457515 0.008749867
000140 09 44 66 3d f6 6a c4 3b 52 e2 cf bd 7b b1 82 3d
       0.056217227 0.005994196 -0.10150589 0.06381508
000150 87 85 81 bc b9 d6 0c 3d 73 b3 08 3d da f8 e2 bd
       -0.015810741 0.034384463 0.03337426 -0.11082621
000160 a3 fb 6a 3d 57 33 f1 bd 3a ec 91 3d b7 93 fb bc
       0.057368886 -0.117773704 0.07125135 -0.030710084
000170 53 3d 15 3d af 6a 4a bc 6b 93 c6 bc 43 96 e1 bd
       0.036435436 -0.012354537 -0.024240216 -0.11014988
000180 7b 4f db bc 41 24 1e bc b2 c5 41 3d f1 41 44 bd
       -0.026771298 -0.009652198 0.047307678 -0.04791445
000190 f7 ca 83 bd ab 51 0b bd 57 8f f9 bc 0d 51 ac bc
       -0.06435197 -0.03401343 -0.030463858 -0.021034742
0001a0 c8 66 51 bd 73 05 df 3c 01 51 fc 3b 64 47 a6 3c
       -0.05112341 0.027224278 0.007700086 0.020297714
0001b0 a4 44 b8 bd f8 cd f6 bd 0c dc 79 3d ff ba 4f 3c
       -0.08997467 -0.12051004 0.06100087 0.012678861
0001c0 4c 5b fb bd 45 7c 50 bd 92 ab c1 bd cb d3 b4 b9
       -0.12273273 -0.050899763 -0.094565526 -0.00034490073
0001d0 0f 9c df bd e8 64 65 bd be 3f 23 bd 96 f9 af bd
       -0.10918438 -0.056004435 -0.03985571 -0.085925266
0001e0 c9 a1 13 be 11 20 a1 bd 1c 1a 97 be 9b 76 c8 be
       -0.14417185 -0.07867444 -0.29512107 -0.3915299
0001f0 32 a1 62 be 10 3d a2 be 98 a6 c6 be 24 55 b1 be
       -0.22131804 -0.31687212 -0.38798976 -0.3463527
000200 e6 ca 9f bd 44 4c b8 3c 45 8b 3d bc 8b 5d 94 3d
       -0.07802372 0.022497304 -0.011568849 0.072444044
000210 d4 e2 b5 bb a2 06 e1 3c 41 20 2d bd 84 09 1f 3c
       -0.0055507217 0.027468983 -0.042267088 0.009706859
000220 a5 6a 48 bc 58 4c 34 3d a1 30 b9 bd 44 13 9a bd
       -0.012232457 0.04401812 -0.09042478 -0.07523206
000230 4e a9 b2 bd 5e d3 79 bd da 04 23 3d 38 b4 fc bd
       -0.087236986 -0.06099259 0.03979955 -0.123390615
000240 b2 ab c8 bd 00 eb e9 bb 79 f3 f2 3c 8a 7f ac 39
       -0.09798373 -0.00713861 0.029657112 0.0003290142
000250 a3 27 26 be 09 0c 07 be 18 97 bb be fa 9c 91 be
       -0.16226058 -0.13188185 -0.36638713 -0.28440076
000260 a1 fb 60 be 2a 50 c6 be 7c 3c 74 be 5e 2c 95 be
       -0.21970989 -0.38733035 -0.23851198 -0.29135412
000270 24 56 ab be b3 b8 8a be 83 f2 90 be 31 47 a2 be
       -0.33464158 -0.2709404 -0.28310022 -0.3169494
000280 be 81 99 bd 5f fe c0 3c 53 49 d2 bd 0a 9c 58 bd
       -0.074954495 0.023558794 -0.10267892 -0.052883185
000290 74 71 9c 3c 4d 60 89 bd 84 d4 f3 bd 43 c1 11 3d
       0.019097067 -0.06707821 -0.119057685 0.0355847
0002a0 a0 26 fc bd 1b e7 a2 bd ac 8f 01 3d 70 16 40 3d
       -0.12312055 -0.07954236 0.031631157 0.046896398
0002b0 74 25 5f bd d8 c8 02 bd 0e 15 1a bc 8a d1 8f bd
       -0.054479077 -0.03192982 -0.009404434 -0.07022388
0002c0 95 82 b8 bd 1b 2a 8b bd f8 8e 2f be 48 b2 49 be
       -0.090092815 -0.0679514 -0.17144382 -0.19696915
0002d0 be 6d d0 bd c3 08 b8 bc 03 19 be bd ae c1 c5 bd
       -0.10177182 -0.022465115 -0.09282114 -0.09656082
0002e0 0e 90 80 be 22 60 4f be 57 3f 05 be fe d6 0b be
       -0.25109905 -0.20251516 -0.13012443 -0.13656232
0002f0 b3 c8 cf bd bc d8 80 3d 07 32 4c 3d f4 a3 31 bb
       -0.10145702 0.06291339 0.049852397 -0.002710578
000300 80 da 07 bb e2 68 2f 3d 12 77 bb bd 0b 10 fa 3a
       -0.0020729601 0.042824633 -0.0915357 0.0019078268
000310 63 be 5d 3d ab 5a 8d bd bd ba cd bd 5e ce e0 bd
       0.054136645 -0.06902059 -0.10045383 -0.109768614
000320 73 e3 c1 bd e4 62 5a bd e5 80 f0 3d 1d 3e 83 3d
       -0.094672106 -0.053316966 0.11743335 0.064083315
000330 fb 8d 31 bd 42 1d 99 bc 1a 22 22 be 56 d5 28 3c
       -0.043348294 -0.018690709 -0.15833321 0.0103047695
000340 0f 8a 0c 3e c5 28 43 bd 0b 1d 54 bd d3 4c 40 be
       0.1372454 -0.047646303 -0.05178551 -0.18779306
000350 0c 74 3c be 2d 97 9d bc 36 85 98 bd 23 d3 18 3d
       -0.18403643 -0.019237125 -0.07447283 0.03731073
000360 a6 b8 69 3d 96 e0 2b 3a c8 b5 c0 3a df 89 20 3d
       0.05706086 0.0006556598 0.0014702613 0.039193984
000370 cd e5 1c 3d 13 ad 9c bd 26 a9 3b 3d 30 d4 a2 bd
       0.038305093 -0.07650199 0.04581561 -0.07950628
000380 32 43 ee bd 73 36 ee 3b 77 2e db bd 52 7e 66 3d
       -0.1163391 0.0072696744 -0.10702222 0.056272812
000390 b5 f3 98 3b d2 72 69 bd e4 5d 8e 3d be ff 2a 3d
       0.004667724 -0.056994267 0.06951502 0.0417478
0003a0 ca b3 15 3c a6 ed be 3c fa af 78 bd cc 5a 4a bd
       0.009137103 0.023306679 -0.0607147 -0.049402997
0003b0 72 eb c3 3d 81 d0 f8 bd c3 f0 84 be 78 6b 8a be
       0.09566392 -0.12149144 -0.25964937 -0.27035117
0003c0 a4 b9 3d be 88 ce bf 3c b4 54 40 3d 36 c5 6c bd
       -0.18527848 0.023413911 0.04695578 -0.057805263
0003d0 0a bb 9f 3c c5 9d 19 bd b9 de 30 3e 26 be 74 3d
       0.019498367 -0.037503976 0.17272462 0.059751652
0003e0 3d 4c 3e bd b9 6b 1b bd a8 90 69 bc 53 e0 ce 3c
       -0.046459425 -0.03794453 -0.01425568 0.02525345
0003f0 ce 51 c8 bd ec 82 0f 3d 95 17 70 ba a3 a9 93 bd
       -0.09781228 0.035036966 -0.00091587874 -0.0721009

fc_mean.fc.0.weight f4 [10, 50]
000000 e0 99 64 bd d3 09 d1 3d 1d 7d 1b 3e b4 d4 b5 3c
       -0.05581081 0.10206952 0.15184446 0.022196151
000010 82 7d 4d 3e c0 88 1e 3e 3c ef 79 3d 91 91 ce 3d
       0.20067409 0.15481853 0.061019167 0.10086358
000020 a9 e1 ff 3d aa bf a3 3d f6 96 dd bd 06 ba 11 bd
       0.12494213 0.079955414 -0.10819809 -0.035577796
000030 f1 b8 62 be 94 d4 db 3d bc 3e 17 be 96 c8 84 bd
       -0.22140862 0.107339054 -0.14770025 -0.06483571
000040 a4 a4 35 3c 68 96 e1 3b 0d b7 2a 3e c3 8b be bb
       0.011086617 0.006884385 0.16671391 -0.0058150007
000050 19 e8 9e 3d 88 15 bf 38 e6 4d 16 3e cf 13 89 bd
       0.07759113 9.1116e-05 0.14678153 -0.06693231
000060 86 ae 10 3e d9 8b 94 bd 2a e9 13 bd 0c 4a 2a 3d
       0.14129075 -0.07253236 -0.036111034 0.041574523
000070 27 70 81 3d cd ce 61 3e 7b 24 3d bd 4f 9b c7 3d
       0.063202195 0.22051544 -0.04617737 0.0974642
000080 ca f5 cc bd 89 96 ea 3d 79 52 be 3b a1 01 73 bd
       -0.10007818 0.114544936 0.0058081714 -0.059327725
000090 0a 45 89 3d 38 1f 19 bd 42 71 b3 bd 29 2c e1 bc
       0.06702621 -0.03738329 -0.087618366 -0.027486878
0000a0 1a 82 d6 3d ec e3 ba 3d 0d b4 6c bb 87 a8 70 3c
       0.10474034 0.09125504 -0.003611806 0.014688618
0000b0 cd 4b 72 3c 15 f4 5b be 36 ac 33 bc 29 9f 1e 3e
       0.01478858 -0.21479829 -0.010966351 0.15490402
0000c0 c0 0c 88 bc c6 89 31 3e 23 73 34 3c e0 03 a2 bd
       -0.016607642 0.17337713 0.011013779 -0.07910895
0000d0 0f cf 86 3d 03 70 9d 3c 93 96 ed 3d 0e 5d 6b 3c
       0.06582462 0.01921845 0.116009854 0.014365448
0000e0 85 3b a2 3c 0c 4c cd 3d 8e e2 a3 3d d4 25 2a 3e
       0.019803772 0.100242704 0.08002196 0.16615993
0000f0 54 4a a7 3d 01 a6 60 3d 49 7e bb bd 75 b4 62 3e
       0.08168474 0.054845814 -0.09154946 0.22139151
000100 a3 65 e6 bb af 20 97 3d 6f 6d ed bd 72 46 4d 3e
       -0.007031159 0.07379281 -0.115931384 0.20046404
000110 98 94 c2 3d bb ee 81 3d d4 3c d2 3d 02 2d bc 3b
       0.09500998 0.06344362 0.10265508 0.00574267
000120 43 8c 87 3e 4c 6a 7b bd ec 60 2f bd d3 25 77 ba
       0.264742 -0.06138067 -0.04281704 -0.00094279385
000130 3a 93 c2 bd 63 28 c2 bd fe 55 38 bd b0 fd c8 3c
       -0.095007375 -0.094803594 -0.045003884 0.02453503
000140 0d a1 d7 3c 77 95 98 bd 8e f1 f7 bd dd c5 3d bc
       0.026321912 -0.07450383 -0.1210662 -0.011582819
000150 3c c4 f5 3c 29 90 8f bc e1 e4 ca 3e fc 8f 07 be
       0.030000798 -0.017524796 0.39627746 -0.1323852
000160 bc 6a e8 3d 49 b9 a1 3c c9 2a 37 3d 4f b0 01 bd
       0.11348483 0.019741671 0.044718537 -0.03166228
000170 93 ff 0f be bd bd 11 3e 8b cd 38 3e ad 6f da 3d
       -0.14062338 0.14232536 0.18047158 0.10665832
000180 63 6a ea bd 9d 18 40 3e b8 b7 a4 bd 53 cd 9b bd
       -0.11446073 0.18759389 -0.08042854 -0.07607522
000190 9b 37 98 bd d9 14 88 bd 6a ed 1f bd 5c 79 8a bc
       -0.07432481 -0.066446014 -0.039044775 -0.016903572
0001a0 b3 ee 13 3e 14 99 c6 3b 1d be 20 3e c8 ac d8 3b
       0.14446525 0.006060729 0.15697522 0.006612394
0001b0 57 74 38 3d a4 ae ca bd 75 77 8e bc 2e 81 9d 3d
       0.045032825 -0.09896591 -0.017390946 0.07690655
0001c0 fc ee 0f bb 2b 09 7c 3e c3 e4 f5 bd d5 6b 0a 3e
       -0.0021962514 0.24612872 -0.120065235 0.13517697
0001d0 41 0c 32 3e 95 4f 8e 3d d4 17 0a 3e 05 42 d1 bd
       0.17387487 0.06948773 0.13485652 -0.1021767
0001e0 c0 e6 a1 3d 4e c4 e9 3d ed 20 6b be af a8 9f ba
       0.0790534 0.11414395 -0.22961779 -0.0012181009
0001f0 ce 10 c8 3d d0 fb a5 bd f7 8b 04 bc f6 d8 90 3d
       0.0976883 -0.0810467 -0.008090011 0.07072632
000200 ec 60 a2 bd d0 17 df bc df 9c 24 3d f1 48 26 3c
       -0.07928643 -0.027233034 0.040188666 0.0101492265
000210 d7 08 ff 3c 8b ef be bd 82 0b 49 3e 1d 44 c7 bd
       0.031132145 -0.09323033 0.19633296 -0.097297885
000220 97 db 4f be d2 8e 05 3d ec 22 f8 3d 4a 93 8e 3d
       -0.2029861 0.032606907 0.12116036 0.06961687
000230 c6 0d b4 bc 6d a5 11 3e 1e 21 23 be 98 a2 17 3e
       -0.021979224 0.14223261 -0.15930602 0.14808118
000240 64 c6 55 bd bc b2 50 bc 31 c8 ee bd b4 e2 69 bd
       -0.052191153 -0.012737926 -0.11659277 -0.057100967
000250 b6 4f bb 3d 32 bc c0 bd 73 61 f0 3d 8b d7 e3 bd
       0.09146063 -0.094108954 0.11737337 -0.11125096
000260 e4 65 af bc d2 30 aa 3d af 50 cf bd a8 6b 77 3c
       -0.02141089 0.08310093 -0.10122811 0.015101351
000270 6c d4 85 bd 3b 00 fd bd 44 0f 47 bd 75 3e dc 3d
       -0.06534657 -0.123535596 -0.048598543 0.107541
000280 a2 5d ae bd df 08 16 be d6 95 ee 3d 84 83 e2 bd
       -0.08513953 -0.14651822 0.11649673 -0.11060241
000290 e8 3b e2 bc 40 b0 24 3b 81 4a a4 3d b9 5d aa bd
       -0.027616456 0.0025129467 0.08022023 -0.083186574
0002a0 06 aa f4 bc 8b e4 0b be 32 01 ee 3d 5c bf 8f 3b
       -0.02986623 -0.13661401 0.11621322 0.0043868255
0002b0 7c 15 e8 bc 30 6a d2 bc b5 51 82 bd 88 54 b8 bc
       -0.028330557 -0.0256854 -0.06363241 -0.022501245
0002c0 8a d3 b8 bd 1a 3f 2c 3d b8 23 27 3d 1c 8b c5 bd
       -0.09024723 0.042052366 0.04080555 -0.09645674
0002d0 2a b1 4a bd 1d ab 72 3d f4 b5 30 bd 56 a0 0c bd
       -0.049485363 0.059245218 -0.043142274 -0.034332596
0002e0 7f ac 9b bd ec 2e 29 bd 18 90 d4 3d a6 f6 b7 bd
       -0.076012604 -0.041304514 0.10379046 -0.08982591
0002f0 21 60 50 3d 1e 27 fe bd 2e 9d 21 bd 99 df bd 3d
       0.050872926 -0.12409805 -0.03945654 0.092711635
000300 29 51 cf bd db 10 89 3c 05 fe af 3d 5a 3b b0 3d
       -0.10122902 0.01673167 0.08593372 0.086050704
000310 5e 2a e5 bd 57 52 ea bd 2b 0a 0a be 20 16 b2 bd
       -0.111897215 -0.11441486 -0.13480441 -0.08695626
000320 7e 6d 80 3d 3a 79 bd 3a ac e4 c2 3d 5d 2f e0 3a
       0.06270884 0.0014455684 0.09516272 0.0017103959
000330 e9 aa 0f bd 27 2e a6 bc 28 95 d1 3d 0c fa 84 bd
       -0.035075102 -0.020285679 0.102335274 -0.06493005
000340 74 d3 6f bc ea 6e 18 3e df 34 4e 3e 76 42 48 bd
       -0.014637817 0.1488606 0.20137356 -0.048891507
000350 83 38 8e bd b0 bc ed bd e5 96 ad bd ee 73 b4 bd
       -0.069443725 -0.11608255 -0.084760465 -0.08811174
000360 36 2e 04 bd 8e 70 16 bc a2 b3 06 3e 52 a7 86 bd
       -0.032270633 -0.009182109 0.13154462 -0.065748826
000370 26 8b 13 3e 34 2c 30 3e 82 3e b8 bd 28 95 01 3d
       0.1440855 0.17204362 -0.089962974 0.031636387
000380 a7 29 14 3e 51 c8 0c 3e f7 e3 f2 3d 68 7c 0c 3d
       0.14469014 0.1374829 0.11859887 0.03429833
000390 31 a6 52 bd e7 d7 31 3d d1 62 bc 3c 77 4c d0 ba
       -0.051428024 0.04341879 0.022996338 -0.0015891929
0003a0 a9 85 d2 3b ff 53 c7 bd de 3d 93 bb 63 38 60 3d
       0.006424625 -0.09732818 -0.004493459 0.054741275
0003b0 14 48 bc 3e 4f a7 25 3e 23 4d 62 bd e9 7e 86 bd
       0.3677374 0.16177104 -0.055249345 -0.06567175
0003c0 45 d5 f7 3c cf 4a b2 3d 28 7a 94 bd 32 86 36 3c
       0.030253062 0.08705675 -0.07249862 0.011140393
0003d0 e9 7d d0 3d 58 0d 09 be f7 c8 ba bd 53 4e e2 bd
       0.101802655 -0.13383996 -0.09120362 -0.110500954
0003e0 ee 50 08 3e 31 21 80 bd c9 a9 ee 3d af 7a 98 bd
       0.13312122 -0.06256331 0.11653478 -0.07445275
0003f0 52 7b 92 bb 0b 6b 51 bd 6d b1 a0 3d 6f aa 0d bc
       -0.0044702673 -0.051127475 0.07846341 -0.008646592

fc_mean.fc.0.bias f4 [10]
000000 d4 32 e2 ba fb bd 08 3e 1d 20 53 bc 36 d1 6e bd
       -0.001725758 0.13353722 -0.012886074 -0.058304988
000010 ea d9 f4 3c 4e 42 bc 3d 57 3a 87 bc a4 64 fe bc
       0.029889066 0.09192334 -0.01650731 -0.031053849
000020 63 ba 73 bc 5c d6 c4 bd
       -0.014875981 -0.09611198
