AutoEncoders/VAE_CL/saved_model/Contrast_model.pth (torch, 682744 bytes, 15 tensors)

encoder.0.fc.0.weight f4 [100, 784]
0.03751738 0.003351626 0.012191501 0.035878297 -0.014507622 0.0405336 0.0117677925 0.037284546
0.024080021 0.01474212 0.029020881 0.020876978 0.032158986 0.005197232 0.016511237 0.015899863
0.0242917 0.018972449 0.050335355 0.030229058 0.005814902 -0.0024549186 0.013128853 0.0037101088
0.007670531 0.020825185 0.0404054 0.038527146 -0.015797403 0.041255143 0.029092412 0.052992098
0.04268869 -0.013425501 -0.014842312 0.0018889896 0.05047625 0.013166233 0.034399386 0.0025182993
0.05415862 0.004004471 0.045898147 0.019538036 0.00030022714 0.037472796 0.00015727474 0.02961887
0.008802365 0.015199612 -0.015220161 0.002087218 0.038494907 0.010433794 0.054688312 0.047743276
0.017442847 -0.0047235517 0.040863775 0.030199308 -0.003971289 0.042313147 0.04079733 0.050789934
-0.00090484525 0.013236341 0.018161383 0.023905007 -0.008107809 -0.006291915 0.03848019 0.0107198795
0.036582824 0.021189617 0.030865453 0.0269683 0.032100815 0.03681907 -0.013960306 0.037091956
-0.0059964126 -0.007831617 0.021287069 0.013029155 0.040090982 -0.0015682873 -0.012634224 0.045106854
0.013819345 0.03920288 0.030596714 -0.00766613 0.02629007 0.02766559 -0.004959041 0.0017185502
0.030453503 0.02464591 0.002682995 0.0072644334 0.051381223 0.012379268 0.039315503 0.034618232
-0.003932141 -0.0112471 0.05339686 0.02098001 0.043595757 0.026516255 0.03060165 0.04579221
0.052979924 -0.0045841923 0.023580447 0.045767166 0.04498779 0.04253602 -0.011304595 -0.021967
-0.025186233 0.0018351089 0.032219324 -0.037922088 0.008754713 -0.014981459 -0.028101176 -0.0025029304
0.027800836 0.03754329 -0.010340145 0.021643281 0.052955274 0.024586912 0.03860362 0.044446424
0.041704997 0.028340006 -0.0053070183 -0.010876245 0.0027501148 0.014956343 -0.0027760272 0.032181323
0.030323476 0.012011615 0.015403861 0.011145553 0.014255334 0.0161668 -0.02087028 0.02608509
-0.012184384 -0.006007558 -0.03027963 -0.016014725 -0.013058172 -0.035008408 0.02082814 -0.01484939
-0.017280318 0.02566368 0.02554379 0.0413882 0.0005918507 0.026858523 0.0061133173 0.011091028
-0.009346244 0.002837959 -0.0007283982 0.020159595 0.020322027 0.024742171 0.04661217 0.028863072
0.00404273 -0.02353078 -0.017025525 0.02697064 -0.016197808 -0.015010797 -0.031249208 -0.012680748
-0.025430746 0.015787775 -0.032104027 -0.023161037 0.0058792355 -0.01314943 0.025979405 0.0045655933
0.0023084667 0.021247562 0.04505754 -0.006007145 0.035886772 0.038084056 0.038718287 -0.011923357
0.040246114 0.0062564546 0.077673055 0.019084347 0.01669077 -0.0065129064 0.00062286603 -0.016208583
-0.023633176 -0.030278267 -0.047100358 -0.033346646 -0.07621445 -0.01272298 -0.0017462564 0.0026891395
0.01255247 -0.027974531 -0.0004820314 0.050384976 -0.008480008 0.051489193 -0.008921611 -0.0060423156
0.03657505 -0.011200859 0.010416221 0.035143465 0.06443611 0.065577954 0.03349962 0.001945042
0.036203474 -0.034542784 -0.038324226 -0.015221033 -0.052836344 -0.012447854 -0.017605223 -0.07034069
-0.06639935 -0.04033464 -0.017648676 -0.023312064 -0.039473232 -0.0031812838 -0.030600455 -0.0061320947
-0.0048427456 0.04835903 0.050597463 0.006984166 0.020716924 0.030240746 0.016481536 -0.010552392
00000000: d3ab 193d f4a6 5b3b ddbe 473c 1ff5 123d
00000010: 61b1 6dbc 8f06 263d b3cd 403c aeb7 183d
00000020: 7743 c53c ef88 713c 33bd ed3c 3206 ab3c
00000030: 24b9 033d 8b4d aa3b 9342 873c 6e40 823c
00000040: 63ff c63c 1c6c 9b3c 722c 4e3d eea2 f73c
00000050: ef8a be3b b3e2 20bb 671a 573c 4c25 733b
00000060: 1459 fb3b 9499 aa3c 2280 253d a4ce 1d3d
00000070: 8e69 81bc 27fb 283d 3653 ee3c 3e0e 593d
00000080: 56da 2e3d a2f6 5bbc 2b2d 73bc f997 f73a
00000090: 2fc0 4e3d 2fb7 573c 5fe6 0c3d 0d0a 253b
000000a0: 6ed5 5d3d f037 833b b2ff 3b3d 3b0e a03c
000000b0: ce67 9d39 137d 193d 1eea 2439 46a3 f23c
000000c0: cb37 103c cb07 793c fb5d 79bc b5c9 083b
000000d0: d6ac 1d3d 81f2 2a3c da00 603d 748e 433d
000000e0: 4de4 8e3c 06c8 9abb c660 273d 8a64 f73c
000000f0: 9621 82bb 8d50 2d3d 1a1b 273d 1b09 503d
00000100: 2333 6dba 3ddd 583c 2ec7 943c 6fd4 c33c
00000110: 9ed6 04bc 692c cebb 679d 1d3d 6fa2 2f3c
00000120: dfd7 153d d995 ad3c 8cd9 fc3c a0ec dc3c
00000130: 257c 033d 98cf 163d c4b9 64bc bced 173d
00000140: 8e7d c4bb 2f50 00bc 3862 ae3c 3d78 553c
00000150: 7136 243d fd8e cdba c7ff 4ebc f7c1 383d
00000160: 896a 623c 3393 203d f6a5 fa3c 2934 fbbb
00000170: 465e d73c f3a2 e23c 737f a2bb fa40 e13a
00000180: a079 f93c 38e6 c93c 30d5 2f3b 7c0a ee3b
00000190: 1e75 523d 6ad2 4a3c 4b09 213d d9cb 0d3d
000001a0: 30d9 80bb c245 38bc aab6 5a3d 45de ab3c
000001b0: 7791 323d 9e38 d93c 50b0 fa3c 9d90 3b3d
000001c0: 7a01 593d fe36 96bb c82b c13c 5a76 3b3d
000001d0: 1e45 383d 403a 2e3d e836 39bc 23f4 b3bc
000001e0: 5c53 cebc 0988 f03a 69f8 033d 3154 1bbd
000001f0: ee6f 0f3c cb74 75bc 7034 e6bc 3408 24bb
00000200: 94be e33c fec6 193d b669 29bc 404d b13c
00000210: a1e7 583d 7e6a c93c d41e 1e3d 740d 363d
00000220: dcd2 2a3d 4d29 e83c 7fe6 adbb 4732 32bc
00000230: 453b 343b 730b 753c 02ee 35bb 90d0 033d
00000240: f068 f83c 5dcc 443c 7a60 7c3c d69b 363c
00000250: 348f 693c 3d70 843c 26f8 aabc 66b0 d53c
00000260: 03a1 47bc 0ddb c4bb fd0c f8bc 5031 83bc
00000270: f1f1 55bc fa64 0fbd c79f aa3c db4a 73bc
00000280: 748f 8dbc a33c d23c 3641 d13c ac86 293d
00000290: 6e26 1b3a 6806 dc3c 3952 c83b 25b7 353c
000002a0: fd20 19bc 0dfd 393b faf1 3eba bc25 a53c
000002b0: 617a a63c 18b0 ca3c 67ec 3e3d 4072 ec3c
000002c0: e178 843b 9fc3 c0bc 1d79 8bbc 88f1 dc3c
000002d0: 44b1 84bc d9ef 75bc 57fe ffbc e9c2 4fbc
000002e0: 2454 d0bc 5d55 813c 837f 03bd 37bc bdbc
000002f0: 9aa6 c03b b570 57bc c3d2 d43c f99a 953b
00000300: a549 173b 5e0f ae3c 418e 383d 96d7 c4bb
00000310: 02fe 123d 07fe 1b3d 1197 1e3d 2f5a 43bc
00000320: 1cd9 243d f202 cd3b 0d13 9f3d c756 9c3c
00000330: 15bb 883c 386a d5bb d547 233a ddc7 84bc
00000340: 5d9a c1bc 210a f8bc 4eec 40bd 7e96 08bd
00000350: 5216 9cbd 0c74 50bc a4e2 e4ba 463c 303b
00000360: e0a8 4d3c d82a e5bc 29b9 fcb9 7a60 4e3d
00000370: bbef 0abc 55e6 523d f32b 12bc 9efe c5bb
00000380: b8cf 153d cf83 37bc cca8 2a3c 98f2 0f3d
00000390: 14f7 833d bc4d 863d e636 093d c8f0 fe3a
000003a0: 184a 143d bc7c 0dbd ddf9 1cbd a461 79bc
000003b0: ec6a 58bd 15f2 4bbc d438 90bc c80e 90bd
000003c0: 62fc 87bd ef35 25bd f593 90bc f1f8 bebc
000003d0: afae 21bd 167d 50bb cead fabc bdef c8bb
000003e0: e5af 9ebb 1e14 463d 493f 4f3d 6edb e43b
000003f0: 8ab6 a93c 71bb f73c 4904 873c f1e3 2cbc

encoder.0.fc.0.bias f4 [100]
-0.02475755 -0.006845021 -0.040534783 -0.073646896 -8.573029e-05 -0.00074333913 0.08792528 -0.03224064
0.0016714312 -0.025105577 -0.008838533 -0.03178965 0.03334036 0.042383835 0.004467561 0.034119315
-0.014751346 -0.022032354 0.0043255584 -0.016396303 -0.0134778265 -0.026150497 0.00866872 -0.029256783
0.020995773 -0.020977901 -0.018231368 0.020117147 0.00623874 -0.05521204 0.008089521 0.11307339
0.025968473 0.032649927 -0.05476647 0.01333902 -0.05609568 0.07177749 0.040233716 0.020093307
0.13289577 0.0947382 0.012013343 0.04547126 0.022791052 0.03248411 0.062294427 -0.016447922
-0.01534508 -0.006696095 -0.019958846 0.009130806 -0.022615233 0.008787179 -0.022140795 0.040530898
0.03504005 -0.05211926 -0.033853594 0.094754994 0.057111975 -0.029706767 0.013421453 0.032627534
0.010184637 -0.0029036547 -0.004392561 0.02064184 -0.02087 0.023453804 0.02017521 -0.022229567
-0.0030933586 0.008683057 0.026839795 -0.007521114 0.0011926559 0.04990417 0.015919242 0.057055123
-0.0037096224 -0.0061748214 0.001550265 -0.040260322 -0.039253782 0.012255848 0.046347935 0.0076245433
-0.0076692556 -0.021102328 -0.043349955 0.06657896 0.025282899 -0.007036126 -0.010796047 0.019106999
-0.0049847565 0.06590681 0.016614106 -0.03716523
00000000: 58d0 cabc 334c e0bb cd07 26bd 2fd4 96bd
00000010: 19ca b3b8 a5dc 42ba 2b12 b43d c30e 04bd
00000020: ed13 db3a 36aa cdbc 7fcf 10bc dd35 02bd
00000030: e78f 083d ac9a 2d3d 9e64 923b b2c0 0b3d
00000040: a1af 71bc 327d b4bc 6abd 8d3b 8a51 86bc
00000050: 1ad2 5cbc 9139 d6bc 3f07 0e3c ecab efbc
00000060: 54ff ab3c d9d9 abbc f359 95bc b7cc a43c
00000070: 586e cc3b 0526 62bd e989 043c 0693 e73d
00000080: d6bb d43c eebb 053d ce52 60bd e88b 5a3c
00000090: 95c4 65bd 1400 933d 1ccc 243d b89a a43c
000000a0: d415 083e 1a06 c23d 9dd3 443c 1240 3a3d
000000b0: 4db4 ba3c 0f0e 053d 7128 7f3d cbbd 86bc
000000c0: ee69 7bbc eb6a dbbb bc80 a3bc 6099 153c
000000d0: 9543 b9bc 1af8 0f3c 9d60 b5bc ba03 263d
000000e0: 2886 0f3d 017b 55bd 11aa 0abd e80e c23d
000000f0: 3fee 693d 9b5b f3bc a7e5 5b3c 73a4 053d
00000100: 77dd 263c 3e4b 3ebb 79ef 8fbb 1319 a93c
00000110: 90f7 aabc 3122 c03c 7b46 a53c c81a b6bc
00000120: f2b9 4abb 6143 0e3c 21df db3c ad73 f6bb
00000130: e452 9c3a 5168 4c3d 1269 823c a2b2 693d
00000140: 231d 73bb 2856 cabb 4332 cb3a 02e8 24bd
00000150: 93c8 20bd c1cc 483c 55d7 3d3d 4ed7 f93b
00000160: 614e fbbb cade acbc b98f 31bd 8d5a 883d
00000170: 151e cf3c 4e8f e6bb e7e1 30bc 4886 9c3c
00000180: 2b57 a3bb 26fa 863d 4e1a 883c 913a 18bd

encoder.1.fc.0.weight f4 [50, 100]
-0.025585588 0.019229857 -0.06994262 0.13408406 0.03924697 -0.12901954 0.067592375 -0.087145366
-0.0042860303 0.0975587 -0.41447258 0.08120644 -0.029956536 0.13046819 -0.042828232 0.061491758
0.022627778 -0.056688428 -0.06071356 -0.08887525 0.2351283 -0.07097533 -0.036281113 -0.66742146
0.04741281 0.087856695 0.038579743 0.07669589 0.12620279 0.06793305 0.088333465 -0.07431715
0.036090057 -0.17895772 0.11187435 0.078583345 0.29055682 0.2473458 -0.38005614 -0.090702616
-0.0031450181 -0.0483774 0.020528523 -0.081044726 -0.107164346 0.037870754 0.06252217 0.04284022
-0.029916013 0.07688841 -0.007060701 0.005681466 -0.09476543 -0.10018604 -0.03824337 0.046942297
-0.032529444 -0.09427384 0.08099627 -0.108917 -0.069592424 -0.04363566 0.09161235 -0.09271553
0.17731704 -0.059316926 -0.072218604 0.05581142 -0.023388417 -0.095101796 -0.047557227 -0.015482724
0.01003635 0.06532153 0.05883386 -0.08383585 -0.027229164 0.21595736 0.22943628 0.014371
-0.07061746 -0.1178347 -0.0017942637 0.08434616 0.06444495 -0.5508415 -0.15579058 0.0320542
0.05228508 -0.16522056 0.13343242 0.146002 -1.9401778e-05 0.045288038 -0.11804315 0.06594604
-0.092015654 0.075576045 0.0054815817 -0.054861836 -0.09153844 -0.009825424 -0.096919626 0.19574021
-0.08992699 0.015555555 -0.08325083 -0.05539682 0.12643813 0.034579795 -0.09207927 -0.04552985
0.20615536 0.08769742 -0.017261026 0.02754196 -0.08950451 -0.090885445 0.04757658 -0.028098902
0.061556306 0.042807918 0.05646471 0.02869509 0.09715873 0.09108844 0.053981375 -0.08298992
0.10035431 -0.06694022 0.061190285 -0.08504966 0.14045362 0.06394078 -0.021062141 -0.048610605
0.021376751 0.04472241 -0.10027101 0.018913254 -0.054017797 0.033562817 0.023655469 -0.009789772
0.059833825 0.032744594 0.013922606 0.1050838 0.039052907 0.07267447 -0.03171637 -0.054782793
0.043747194 -0.013421332 -0.0030753003 0.014880425 0.12952621 0.11082281 0.026449997 0.17990346
0.046144888 -0.053890742 0.02265426 0.060163092 -0.0954502 -0.056830905 -0.04713819 -0.055486888
0.17715412 0.051181376 -0.041010547 -0.09917964 0.022114377 0.03181054 0.12407755 0.06654526
-0.027309766 0.001304426 0.023291292 -0.043093946 -0.023110887 -0.03486635 -0.014007421 0.026659548
-0.00038395863 0.069997616 0.049014084 0.19685571 -0.08490168 0.05493505 -0.0038634376 -0.015217483
-0.06838948 -0.06265953 0.07850755 -0.0032900556 -0.07927477 0.040572025 0.06066592 0.0132077215
0.01246062 -0.019495266 0.047314998 0.14840394 0.081196785 0.04140493 -0.0055823154 0.017057458
-0.08855334 0.056268334 0.07861685 -0.09359754 0.109673694 0.096169956 -0.041535195 -0.0066337003
0.014121731 -0.069556534 0.03203672 0.043138623 -0.03949233 -0.032163154 -0.2722284 0.07090328
0.088047214 -0.031747766 -0.085910454 0.05527133 -0.14567195 0.1762675 0.03137986 0.14089945
0.058521412 0.043762155 0.070927836 0.009841934 0.04280699 -0.042544015 0.007381685 -0.02396977
0.0286685 0.13783163 -0.08284371 0.02625074 0.022952778 -0.04623909 0.032961156 0.16505
0.054270085 0.013135853 0.062803425 -0.098784246 -0.11204553 0.14270787 0.16157971 -0.21994475
00000000: de98 d1bc ef87 9d3c 143e 8fbd 554d 093e
00000010: 6ec1 203d b31d 04be df6d 8a3d 4579 b2bd
00000020: d471 8cbb dbcc c73d c035 d4be 904f a63d
00000030: 6967 f5bc 7499 053e a86c 2fbd c8de 7b3d
00000040: e45d b93c 2032 68bd c8ae 78bd 3a04 b6bd
00000050: 79c5 703e 845b 91bd 819b 14bd 22dc 2abf
00000060: ef33 423d 36ee b33d cb05 1e3d bc12 9d3d
00000070: 4e3b 013e 7c20 8b3d 2de8 b43d 9733 98bd
00000080: 2bd3 133d b140 37be 611e e53d 4ef0 a03d
00000090: ddc3 943e 3848 7d3e b896 c2be 4bc2 b9bd
000000a0: a61c 4ebb 6127 46bd 6f2b a83c c7fa a5bd
000000b0: fb78 dbbd 5d1e 1b3d a00b 803d 3a79 2f3d
000000c0: 6d12 f5bc ac77 9d3d 745d e7bb 972b ba3b
000000d0: 6114 c2bd 572e cdbd 14a5 1cbd 9146 403d
000000e0: 983d 05bd a512 c1bd 5fe1 a53d e00f dfbd
000000f0: 7986 8ebd 4ebb 32bd 419f bb3d a4e1 bdbd
00000100: 9992 353e 4ef6 72bd 59e7 93bd 849a 643d
00000110: 1199 bfbc bbc4 c2bd 5ecb 42bd 40ab 7dbc
00000120: 816f 243c 4bc7 853d c6fb 703d 21b2 abbd
00000130: b20f dfbc ed23 5d3e 58f1 6a3e 5874 6b3c
00000140: e39f 90bd 5253 f1bd 802d ebba aebd ac3d
00000150: b7fb 833d f303 0dbf 9187 1fbe 444b 033d
00000160: e128 563d 942f 29be 82a2 083e 8c81 153e
00000170: 00c1 a2b7 f37f 393d 9bc0 f1bd b80e 873d
00000180: b472 bcbd 9dc7 9a3d d79e b33b ceb6 60bd
00000190: 8178 bbbd d1fa 20bc cc7d c6bd 1f70 483e
000001a0: a42b b8bd badc 7e3c 697f aabd c7e7 62bd
000001b0: ff78 013e 8ba3 0d3d 0e94 bcbd 827d 3abd
000001c0: 641a 533e b49a b33d ff66 8dbc ad9f e13c
000001d0: 244e b7bd 2622 babd a9df 423d ab2f e6bc
000001e0: 7722 7c3d 5b57 2f3d 8a47 673d f711 eb3c
000001f0: 28fb c63d 938c ba3d 931b 5d3d 9ff6 a9bd
00000200: 8f86 cd3d f417 89bd aaa2 7a3d 842e aebd
00000210: 13d3 0f3e 62f3 823d 838a acbc ea1b 47bd
00000220: 4c1e af3c d92e 373d e35a cdbd f8ef 9a3c
00000230: c441 5dbd 2a79 093d 1dc9 c13c 4865 20bc
00000240: 5014 753d 321f 063d a41b 643c 2d36 d73d
00000250: f1f5 1f3d 5ad6 943d 06e9 01bd ec63 60bd
00000260: 4230 333d 26e5 5bbc fa8a 49bb 07cd 733c
00000270: 85a2 043e 12f7 e23d aaad d83c 9d38 383e
00000280: 6c02 3d3d 8abc 5cbd 6d95 b93c 936d 763d
00000290: 657b c3bd 86c7 68bd fa13 41bd 3846 63bd
000002a0: e467 353e 90a3 513d adfa 27bd b21e cbbd
000002b0: 3629 b53c c54b 023d 5f1c fe3d e248 883d
000002c0: bbb8 dfbc 46f9 aa3a 61cd be3c 4783 30bd
000002d0: 0b53 bdbc 05d0 0ebd 627f 65bc 2065 da3c
000002e0: 0e4e c9b9 e95a 8f3d fec2 483d 8b94 493e
000002f0: efe0 adbd 9303 613d ba31 7dbb c052 79bc
00000300: c90f 8cbd a453 80bd 91c8 a03d f99d 57bb
00000310: d05a a2bd da2e 263d d47c 783d 3365 583c
00000320: a127 4c3c 89b4 9fbc 5fcd 413d 34f7 173e
00000330: 804a a63d 3798 293d dbeb b6bb 15bc 8b3c
00000340: 745b b5bd a079 663d df01 a13d 11b0 bfbd
00000350: 9a9c e03d c1f4 c43d cf20 2abd 835f d9bb
00000360: d55e 673c a873 8ebd f038 033d 20b2 303d
00000370: b6c2 21bd 83bd 03bd 8561 8bbe bd35 913d
00000380: 1952 b43d f209 02bd d2f1 afbd 3164 623d
00000390: 072b 15be 787f 343e 2b88 003d f247 103e
000003a0: 26b4 6f3d f23f 333d 9d42 913d 1040 213c
000003b0: 6256 2f3d a242 2ebd 10e2 f13b 405c c4bc
000003c0: 34da ea3c bc23 0d3e f7a9 a9bd cb0b d73c
000003d0: 7707 bc3c 3365 3dbd 4702 073d de02 293e
000003e0: 4f4a 5e3d c337 573c 159f 803d 654f cabd
000003f0: 2078 e5bd 0322 123e 2775 253e 3239 61be

encoder.1.fc.0.bias f4 [50]
-0.032351073 0.05445035 0.06907446 -0.005087177 -0.06003646 0.1485758 0.16975743 0.11095537
-0.0008673472 -0.0141448025 0.015805926 -0.022572286 0.030752527 0.04955166 -0.011283438 -0.079622194
0.13792074 0.07956053 0.15631537 0.049629275 -0.06010029 -0.11207901 -0.08518108 -0.008901063
-0.07676172 0.12434119 -0.05457896 0.046780925 0.1405643 0.008426994 0.15754722 -0.047122102
0.042116355 0.05880265 0.15438464 -0.06249683 0.044112176 0.09074693 -0.061670754 0.13820747
0.14827986 0.02165069 0.029983336 -0.029966362 -0.008331835 0.032381684 0.021761121 0.26417047
0.033544645 0.023152282
00000000: 8f82 04bd 5507 5f3d e976 8d3d 55b2 a6bb
00000010: cbe8 75bd 4124 183e e4d4 2d3e 923c e33d
00000020: af5e 63ba 9abf 67bc 6e7b 813c 84e9 b8bc
00000030: b9ec fb3c aef6 4a3d 2bde 38bc f610 a3bd
00000040: 183b 0d3e a2f0 a23d 2311 203e 1148 4b3d
00000050: b92b 76bd ae89 e5bd 6b73 aebd c4d5 11bc
00000060: 4035 9dbd 98a6 fe3d 308e 5fbd 5b9d 3f3d
00000070: 16f0 0f3e 6011 0a3c 0f54 213e 1b03 41bd
00000080: 3382 2c3d 0cdb 703d 0217 1e3e adfc 7fbd
00000090: f8ae 343d 87d9 b93d 799a 7cbd 4286 0d3e
000000a0: add6 173e ca5c b13c 9d9f f53c 047c f5bc
000000b0: 4082 08bc a8a2 043d 6144 b23c 5a41 873e
000000c0: 1c66 093d dba9 bd3c

decoder.0.fc.0.weight f4 [100, 50]
-0.024711417 -0.24407417 0.11688592 0.3785316 0.32915518 0.09461747 -0.061997276 -0.18317443
0.24939406 0.050934177 -0.018835437 0.05609776 -0.015166998 -0.14819041 -0.08479938 -0.028964268
-0.04728106 0.18152374 0.09630357 0.28288096 -0.32315302 0.021447243 0.047412682 -0.05473945
-0.09844411 0.42704597 -0.2777345 -0.3032838 0.034982324 -0.052445352 0.1658386 -0.12213157
0.28709823 -0.0509439 0.25020945 0.2101267 -0.07217535 -0.038415093 -0.097296156 -0.08472554
0.1424053 0.13611704 0.2938083 0.170755 0.037261456 -0.21618257 -0.035794977 -0.1141595
0.0792915 -0.09798687 0.18100367 0.0646128 0.0009796225 -0.23072843 -0.10514937 0.06312573
0.027060729 0.095658645 -0.02953218 -0.13670267 0.20329916 -0.005882789 -0.17495203 -0.09975822
0.17180161 -0.1996451 -0.14690226 -0.11692229 0.07738516 -0.06861964 -0.15606458 -0.6228069
0.12417535 -0.053035114 -0.37329477 -0.28734782 -0.016386107 -0.13944644 -0.091398954 0.058617093
0.13600923 0.19771305 -0.24961035 0.108781435 0.110426374 0.114697546 -0.12909564 -0.23903775
0.11164801 0.034832086 0.22039798 0.17547 -0.062848106 0.16931267 0.010396126 0.16778292
-0.08177097 -0.029896494 0.11022989 0.071877204 0.025009695 0.33433104 -0.106802665 -0.18739556
-0.09219308 0.21763867 -0.04001819 -0.3841383 0.17669047 0.08335918 -0.18988185 0.006074935
-0.22678758 -0.24499808 -0.14098802 0.080078 0.29007882 0.20011933 -0.014862375 -0.13870485
0.1688745 -0.28282782 -0.2089481 0.047677904 0.04506899 -0.0068073617 0.22154962 -0.1964567
0.01311642 0.100376084 0.08455643 0.21909197 -0.019998057 -0.030741546 -0.21946044 0.11932905
-0.1852428 -0.38637143 -0.0009162436 0.009940655 0.0113660125 0.0124865305 -0.25225323 0.108932324
0.17663218 0.110877596 0.036421113 0.17280097 -0.019899108 -0.0040689576 -0.11281178 -0.00117819
0.039201364 -0.7427496 -0.07414383 -0.04916425 -0.10545091 0.04514395 -0.0042235674 0.053022884
-0.17634703 0.08285478 0.03198569 -0.12107553 -0.15363415 -0.003809349 -0.017061107 0.20216703
0.19947258 0.079359576 0.058323137 0.16953318 0.17201918 -0.094907165 0.22643055 0.029130168
0.072894566 0.09576077 0.15600453 0.036899745 -0.19716902 0.04223032 -0.089786746 0.03773337
-0.016684128 0.15859196 0.13095425 0.16111673 -0.08475791 0.12823486 0.13586599 -0.03523921
0.1474992 0.04586398 0.0033610887 0.035545986 -0.021474829 -0.075013064 0.09979621 -0.072174944
-0.04589968 -0.0953383 -0.08282736 0.032216057 0.06542959 -0.15065794 -0.14005904 -0.10440766
0.10654086 -0.06782584 0.0017285794 0.0507576 -0.07388793 0.04066159 -0.1684115 -0.103911534
-0.054530047 0.043219306 -0.14219457 0.09862791 -0.06266587 -0.12313557 -0.09921893 0.068511285
0.09061859 -0.13043372 -0.040901687 -0.08689168 -0.0011628427 -0.048149437 -0.102500826 -0.12527585
0.03825447 0.015366251 0.019852504 -0.049262606 -0.0778573 0.0052937283 -0.115598306 0.11470516
0.044283643 0.0115068555 0.0172337 -0.056397554 -0.035501435 0.10133134 -0.13314453 -0.06638376
-0.077067435 -0.12555188 0.06535124 -0.059034485 -0.025509873 -0.09924518 -0.43962365 0.21209027
00000000: 996f cabc 94ee 79be e361 ef3d e5ce c13e
00000010: 0787 a83e cec6 c13d dbf0 7dbd 1492 3bbe
00000020: 2861 7f3e 5ba0 503d c64c 9abc c4c6 653d
00000030: 007f 78bc 3abf 17be 4cab adbd 7946 edbc
00000040: c9a9 41bd 5ce1 393e ce3a c53d c6d5 903e
00000050: 5074 a5be 21b2 af3c cd33 423d 7936 60bd
00000060: 119d c9bd c5a5 da3e 3733 8ebe 0448 9bbe
00000070: a049 0f3d f0d0 56bd 98d1 293e 1e20 fabd
00000080: 8afe 923e 8daa 50bd 741b 803e 742b 573e
00000090: abd0 93bd 2559 1dbd 3543 c7bd 9584 adbd
000000a0: b2d2 113e 4462 0b3e 0b6e 963e 66da 2e3e
000000b0: 789f 183d f75e 5dbe c19d 12bd 75cc e9bd
000000c0: 9563 a23d 57ad c8bd 0759 393e b753 843d
000000d0: ad66 803a 1344 6cbe 8e58 d7bd 1048 813d
000000e0: 76ae dd3c aee8 c33d 78ed f1bc c9fb 0bbe
000000f0: a82d 503e 69c4 c0bb a026 33be 0a4e ccbd
00000100: c3ec 2f3e c46f 4cbe 8c6d 16be f474 efbd
00000110: 1c7c 9e3d 7488 8cbd 65cf 1fbe 4670 1fbf
00000120: a54f fe3d 593b 59bd 7e20 bfbe 411f 93be
00000130: 283c 86bc 0ccb 0ebe 602f bbbd 7a18 703d
00000140: 0146 0b3e 4a75 4a3e db99 7fbe cdc8 de3d
00000150: 3927 e23d 8ce6 ea3d a631 04be 50c6 74be
00000160: b6a7 e43d 17ac 0e3d 02b0 613e 68ae 333e
00000170: 82b6 80bd 4d60 2d3e 8354 2a3c 49cf 2b3e
00000180: 8a77 a7bd 7ee9 f4bc 35c0 e13d 5b34 933d
00000190: 22e1 cc3c 702d ab3e 5bbb dabd 9fe4 3fbe
000001a0: bacf bcbd acdc 5e3e 1dea 23bd c6ad c4be
000001b0: 59ee 343e 38b8 aa3d 6370 42be 4010 c73b
000001c0: 013b 68be c7e0 7abe 2a5f 10be efff a33d
000001d0: 3685 943e 15ec 4c3e 5281 73bc a508 0ebe
000001e0: 70ed 2c3e cfce 90be 7ef6 55be e849 433d
000001f0: 439a 383d 4a10 dfbb e7dd 623e f22b 49be
00000200: 41e6 563c fa91 cd3d ec2b ad3d a559 603e
00000210: f7d2 a3bc b2d5 fbbc 3dba 60be ca62 f43d
00000220: 4ab0 3dbe 7ad2 c5be 1130 70ba 21de 223c
00000230: 8338 3a3c 4e94 4c3c 5627 81be e917 df3d
00000240: 11df 343e cb13 e33d 4e2e 153d bdf2 303e
00000250: 7403 a3bc e454 85bb dd09 e7bd 7f6d 9aba
00000260: 9c91 203d d624 3ebf b8d8 97bd 7460 49bd
00000270: a6f6 d7bd dde8 383d da65 8abb 862e 593d
00000280: 5194 34be c4af a93d 6d03 033d 73f6 f7bd
00000290: 4552 1dbe 45a6 79bb bcc3 8bbc e004 4f3e
000002a0: 8a42 4c3e 4687 a23d 3ee4 6e3d 1b9a 2d3e
000002b0: cc25 303e b05e c2bd 69dd 673e 64a2 ee3c
000002c0: bf49 953d 391e c43d a7bf 1f3e 3024 173d
000002d0: ade6 49be b3f9 2c3d 1de2 b7bd 4e8e 1a3d
000002e0: 27ad 88bc ee65 223e df18 063e c9fb 243e
000002f0: 8e95 adbd 0050 033e 7420 0b3e fd56 10bd
00000300: 080a 173e dedb 3b3d b645 5c3b ab98 113d
00000310: fbeb afbc 73a0 99bd f561 cc3d 75d0 93bd
00000320: 4e01 3cbd ba40 c3bd 64a1 a9bd fcf4 033d
00000330: f3ff 853d 1346 1abe a36b 0fbe afd3 d5bd
00000340: 1832 da3d 46e8 8abd 8091 e23a 34e7 4f3d
00000350: 8e52 97bd c48c 263d 1074 2cbe 92cf d4bd
00000360: e65a 5fbd ba06 313d 749b 11be 6efd c93d
00000370: f756 80bd 802e fcbd 4b33 cbbd a54f 8c3d
00000380: 3d96 b93d 6b90 05be 8788 27bd 44f4 b1bd
00000390: 876a 98ba 5838 45bd f4eb d1bd 5048 00be
000003a0: b8b0 1c3d bac2 7b3c b8a1 a23c 96c7 49bd
000003b0: a673 9fbd 0377 ad3b cebe ecbd 8aea ea3d
000003c0: c462 353d 4087 3c3c b02d 8d3c 1f01 67bd
000003d0: f469 11bd ce86 cf3d 0a57 08be 35f4 87bd
000003e0: 88d5 9dbd ac90 00be dfd6 853d 25ce 71bd
000003f0: 15fa d0bc 0f41 cbbd 5a16 e1be 312e 593e

decoder.0.fc.0.bias f4 [100]
0.3495852 -0.09213372 -0.56028205 0.40587226 -0.16853653 0.5172935 0.54662454 -0.035963114
0.20743053 -0.037357803 0.31243572 -0.07255449 0.111033455 -0.25161242 -0.32393765 -0.0031161688
0.14302693 -0.34501943 -0.11610215 -0.50732476 0.4636325 0.15867938 0.3654034 -0.14630888
0.3540489 -0.17084186 0.26657322 0.31149402 0.32960242 0.17806552 0.019691905 -0.004956083
-0.7182473 0.37902007 0.111288756 0.2922778 -0.31072947 -0.0101882415 -0.32260957 0.09108299
-0.47252658 -0.2969178 -0.30268115 0.97968554 1.148222 0.09228546 -0.30732632 0.70035857
0.08132153 -0.027299039 -0.07958176 -0.24418887 -0.06288096 -0.09199884 0.0555575 0.7079305
0.4352819 -0.520144 0.041788764 -0.37353358 -0.15267283 0.33189124 -0.04859146 -0.25745535
0.023245659 -0.13131802 0.3426292 0.026275279 -0.23940548 -0.062381852 -0.09599212 -0.105239235
-0.078065574 -0.18505947 -0.0015121888 -0.6855943 -0.12184664 -0.13868627 -0.35065228 -0.10478122
0.16699344 0.71802527 -0.31930944 0.17376228 -0.15724084 0.5037623 0.3745062 0.4017125
-0.18291412 -0.50472564 0.18237458 0.17718303 -0.12772764 -0.3274156 0.86491936 0.27702314
-0.09192889 -0.14801206 -0.73696977 0.6709292
00000000: d5fc b23e 9bb0 bcbd a56e 0fbf 7dce cf3e
00000010: d794 2cbe 596d 043f 96ef 0b3f 0f4e 13bd
00000020: ab68 543e 7f04 19bd 93f7 9f3e 7397 94bd
00000030: 8265 e33d 58d3 80be 28db a5be a338 4cbb
00000040: a775 123e 63a6 b0be f7c6 edbd 09e0 01bf
00000050: 3d61 ed3e d97c 223e 2816 bb3e ffd1 15be
00000060: e645 b53e 2bf1 2ebe 497c 883e 257c 9f3e
00000070: a6c1 a83e cf56 363e eb50 a13c a366 a2bb
00000080: 0edf 37bf eb0e c23e 5ceb e33d 70a5 953e
00000090: ef17 9fbe 95ec 26bc 152d a5be b889 ba3d
000000a0: 01ef f1be 9c05 98be 06f9 9abe accc 7a3f
000000b0: f0f8 923f 2900 bd3d e059 9dbe b34a 333f
000000c0: e78b a63d 3ca2 dfbc c3fb a2bd a60c 7abe
000000d0: bcc7 80bd e369 bcbd 4390 633d ef3a 353f
000000e0: 45dd de3e 2828 05bf b22a 2b3d cb3f bfbe
000000f0: 4456 1cbe a6ed a93e d707 47bd 30d1 83be
00000100: ae6d be3c 3b78 06be 186d af3e 413f d73c
00000110: b626 75be 1d84 7fbd 8497 c4bd ab87 d7bd
00000120: d8e0 9fbd 3b80 3dbe a334 c6ba 1c83 2fbf
00000130: bb8a f9bd c603 0ebe b288 b3be 8997 d6bd
00000140: 5400 2b3e 81d0 373f 877c a3be bdee 313e
00000150: be03 21be 91f6 003f 47bf bf3e 43ad cd3e
00000160: d74d 3bbe b335 01bf 67c0 3a3e 786f 353e
00000170: 09cb 02be 04a3 a7be 5b6b 5d3f fad5 8d3e
00000180: 3745 bcbd 7990 17be 0daa 3cbf 04c2 2b3f

decoder.1.0.weight f4 [784, 100]
-0.20511712 0.026043028 0.042508785 -1.0937645 0.002666634 -0.23970562 -1.1325693 -0.06321186
-0.33028287 -0.16990297 -0.005968099 0.19707778 -0.64511263 0.031318918 0.12417957 -0.041415084
-0.09168292 0.100441985 0.2333839 0.37709144 -0.7497069 0.12427992 -0.30169114 0.009721615
-0.21444832 0.047574695 0.08961786 -0.060249858 -0.37226725 -0.07061913 -0.058758695 0.6913703
0.06312191 -0.47059327 -0.571534 0.02061693 -0.0769466 0.06266042 0.16450946 -0.12996085
0.26877335 0.11845881 0.082948476 -1.1218709 -1.8706105 -0.10623184 -0.0466855 -0.94200295
0.24086578 -0.044746067 -0.08838873 -0.05992749 0.19586529 -0.027655456 0.22905384 -0.30612516
-1.9881762 0.21573046 -0.2566212 0.27761936 -0.0045828624 -0.76888514 -0.2208374 -0.50838757
0.017152615 -0.057737526 -0.26998258 0.18970902 -0.020973722 -0.45996946 -0.11370553 -0.28614575
-0.009885258 -0.3250824 -0.042525854 0.1334723 -0.08635562 -0.57289684 0.031198267 0.17429835
0.53014636 -0.46942103 -0.1753529 -0.6517313 -0.3194863 -0.73774433 -1.2740071 -1.1568485
-0.14747155 -0.19012563 -0.63663256 -1.033097 -0.48567653 -0.3431866 -1.2742294 -0.33423188
-0.08666232 -0.06735678 -0.042605683 -0.92174745 -0.1701276 -0.082924485 0.104095034 -1.04919
0.051542755 -0.22638702 -1.0318669 -0.01623397 -0.26821986 -0.31518 -0.03695758 0.2817381
-0.60643727 -0.008288723 0.20427574 -0.06850538 -0.2158219 0.76386017 0.3498094 0.38654718
-0.9672995 0.15840092 -0.37044874 0.048233304 -0.31597602 0.016845042 0.058316257 -0.08660875
-0.6452351 -0.029261949 -0.08423269 0.8244991 0.1190721 -0.54986244 -0.4905794 -0.020604758
-0.17849636 -0.057388257 0.33825022 -0.3546487 0.21831436 0.36215556 0.0067010615 -1.2394483
-1.9192514 3.883792e-05 -0.029019222 -0.8426798 0.36038756 -0.08366295 -0.06653112 0.077966385
0.20915572 0.020079346 0.38835403 -0.18067181 -1.6074655 0.8084302 -0.40926918 0.29081342
-0.016456144 -0.7158022 -0.30386567 -0.41665486 -0.12858239 -0.0067458 -0.39750943 0.3112225
-0.05250714 -0.41084412 -0.119485766 -0.5731735 0.027174665 -0.33261874 -0.042021938 0.8476676
-0.14299269 -0.29405534 0.20350398 0.10948835 0.5222536 -0.8041439 -0.23426199 -0.47039452
-0.36619124 -0.72813356 -1.1108961 -1.0087212 -0.15550262 -0.39643067 -0.6989144 -1.0522919
-0.3109729 -0.5299594 -1.2110443 -0.18266623 -0.24775802 -0.09066863 -0.12276075 -0.98998183
-0.1884049 -0.023474913 0.09903573 -0.97043407 0.029446725 -0.23175849 -1.1084982 0.026901344
-0.33876932 -0.28120577 -0.02032954 0.2902639 -0.6057211 -0.044625923 0.18291453 -0.07130052
-0.23987922 0.79330236 0.34238482 0.40728986 -0.98758745 0.22346771 -0.36074477 0.010177418
-0.33076382 0.025315855 0.033925604 -0.0115572475 -0.62679535 -0.0038705347 -0.05856168 0.82301974
0.09853421 -0.45044875 -0.41612476 -0.06090057 -0.22003034 -0.085035525 0.30636007 -0.35717583
0.2264972 0.33971572 -0.017431863 -1.2145008 -1.9635489 0.01947448 -0.08516931 -0.87787974
0.37455222 0.08469511 -0.05419928 0.03399546 0.23176809 0.019549223 0.37799564 -0.16235943
00000000: 390a 52be 3058 d53c b11d 2e3d 7a00 8cbf
00000010: b2c2 2e3b 6475 75be 08f8 90bf 3875 81bd
00000020: d61a a9be 0bfb 2dbe 0b90 c3bb c2ce 493e
00000030: 1a26 25bf 4448 003d dc51 fe3d dda2 29bd
00000040: 41c4 bbbd 87b4 cd3d 30fc 6e3e 2112 c13e
00000050: cbec 3fbf 7886 fe3d 4377 9abe 6947 1f3c
00000060: 5798 5bbe afdd 423d 9289 b73d 8ec8 76bd
00000070: d099 bebe c3a0 90bd f5ac 70bd a5fd 303f
00000080: 0f46 813d 9af1 f0be 0d50 12bf d6e4 a83c
00000090: 2e96 9dbd 1b54 803d 2b75 283e 7514 05be
000000a0: a99c 893e 889a f23d e4e0 a93d 7799 8fbf
000000b0: 2a70 efbf 1490 d9bd 4b39 3fbd 1b27 71bf
000000c0: 85a5 763e a747 37bd 2705 b5bd 8776 75bd
000000d0: e990 483e b28d e2bc 178d 6a3e 70bc 9cbe
000000e0: 8f7c febf 72e8 5c3e db63 83be 2024 8e3e
000000f0: d62b 96bb a8d5 44bf 3323 62be b025 02bf
00000100: a483 8c3c 2f7e 6cbd 283b 8abe 1543 423e
00000110: 15d1 abbc 1e81 ebbe 72de e8bd b281 92be
00000120: c7f5 21bc 3371 a6be 972f 2ebd f6ac 083e
00000130: 37db b0bd 5ea9 12bf 8293 ff3c 447b 323e
00000140: acb7 073f f457 f0be b68f 33be ddd7 26bf
00000150: b593 a3be d0dc 3cbf aa12 a3bf 9d13 94bf
00000160: c802 17be 4bb0 42be 5afa 22bf 863c 84bf
00000170: 98aa f8be 27b6 afbe f319 a3bf 7120 abbe
00000180: 047c b1bd 5af2 89bd 4c83 2ebd a4f7 6bbf
00000190: ee35 2ebe 50d4 a9bd c72f d53d dc4b 86bf
000001a0: 7f1e 533d 00d2 67be 3714 84bf 1afd 84bc
000001b0: 1d54 89be 465f a1be d560 17bd fa3f 903e
000001c0: 793f 1bbf 6dcd 07bc a92d 513e 8c4c 8cbd
000001d0: 6b00 5dbe 578c 433f 381a b33e 83e9 c53e
000001e0: f1a0 77bf da33 223e 75ab bdbe 4990 453d
000001f0: 9cc7 a1be 9dfe 893c 07dd 6e3d ee5f b1bd
00000200: 212e 25bf c1b6 efbc 3082 acbd 5f12 533f
00000210: 13dc f33d c9c3 0cbf 392d fbbe 4fcb a8bc
00000220: c0c7 36be f30f 6bbd 222f ad3e 8494 b5be
00000230: cd8d 5f3e 746c b93e 9494 db3b 3ea6 9ebf
00000240: 08aa f5bf e6e5 2238 b8b9 edbc ddb9 57bf
00000250: b884 b83e 7b57 abbd 7841 88bd d7ac 9f3d
00000260: eb2c 563e 717d a43c 57d6 c63e 0802 39be
00000270: 6ec1 cdbf 48f5 4e3f bb8b d1be 7fe5 943e
00000280: 09cf 86bc d03e 37bf 4894 9bbe c953 d5be
00000290: 1aab 03be df0b ddbb 5b86 cbbe 8e58 9f3e
000002a0: ba11 57bd 295a d2be f4b4 f4bd 80bb 12bf
000002b0: 679d de3c 014d aabe 321f 2cbd be00 593f
000002c0: ad6c 12be 6c8e 96be 5963 503e 6e3b e03d
000002d0: 69b2 053f 60dc 4dbf 60e2 6fbe 8dd7 f0be
000002e0: 6b7d bbbe f666 3abf d831 8ebf c71d 81bf
000002f0: 143c 1fbe f6f8 cabe 0eec 32bf 80b1 86bf
00000300: d737 9fbe 6bab 07bf 8003 9bbf db0c 3bbe
00000310: 47b4 7dbe 7ab0 b9bd fd69 fbbd 736f 7dbf
00000320: 37ed 40be 764e c0bc 3fd3 ca3d 5e6e 78bf
00000330: 423a f13c 1952 6dbe 45e3 8dbf 3560 dc3c
00000340: 2c73 adbe 34fa 8fbe 238a a6bc 789d 943e
00000350: 8a10 1bbf acc9 36bd f24d 3b3e 0206 92bd
00000360: e6a2 75be dd15 4b3f 104d af3e 4c88 d03e
00000370: 88d2 7cbf b8d4 643e 8ab3 b8be 2fbf 263c
00000380: e059 a9be 3263 cf3c 93f5 0a3d 9c5a 3dbc
00000390: a975 20bf cca8 7dbb 5fde 6fbd 6cb1 523f
000003a0: 4ecc c93d 38a1 e6be 4e0e d5be e072 79bd
000003b0: a24f 61be 1b27 aebd 3adb 9c3e c0df b6be
000003c0: e2ee 673e 38ef ad3e 44cd 8ebc c374 9bbf
000003d0: 9255 fbbf f288 9f3c 3f6d aebd babc 60bf
000003e0: 4fc5 bf3e a174 ad3d 1000 5ebd d33e 0b3d
000003f0: 9d54 6d3e b125 a03c a588 c13e 8d41 26be

decoder.1.0.bias f4 [784]
-0.18962976 -2.0560513 -1.9486388 -1.9392518 -0.88895047 -2.0114572 -1.0244989 -0.19119614
-0.6803158 -2.0445971 -0.04716975 -0.089960165 -1.9653552 -1.9906591 -1.9432775 -2.0534642
-0.05951104 -0.10803194 -0.09202196 -2.0346797 -1.9649178 -0.060855143 -2.0285408 -0.28012076
-0.066187516 -1.970332 -2.013357 -2.0454736 -0.06117113 -0.13964775 -1.9196178 -0.106836714
-0.044582173 -0.0912257 -2.0090146 -2.015323 -1.9124463 -1.9631288 -0.2988763 -1.7324396
-1.8306849 -0.12464208 -0.119332775 -1.7683878 -0.10871884 -0.16070251 -1.8472037 -1.9020882
-0.21937999 -1.9742635 -0.10540467 -2.0135248 -2.0134146 -2.023713 -1.927928 -0.8427978
-0.10506956 -0.024824012 -0.12495189 -2.033524 -2.0566285 -1.9339788 -1.9682342 -0.04609271
-0.13016559 -1.6566255 -1.4912353 -0.19999087 -0.120033614 -0.6672654 -0.5292906 0.008594935
0.062091295 -0.5534019 -0.09584691 -0.053962853 -1.6432725 -0.03627008 -0.0878866 -1.9233563
-1.9930387 -0.18812701 -0.17543255 -0.08312049 -0.0944044 -2.05805 -0.12606044 -0.027370654
-0.10069112 -1.4304947 -1.7702091 -1.5689381 -1.3935914 -1.1020899 -0.67568266 -0.3469998
-0.29828843 -0.029709566 0.14366284 0.19424424 0.11899789 -0.2313441 -0.19625112 -0.26386893
-0.45176086 -1.0897676 -0.21015778 -0.15934616 -1.8807249 -1.9879019 -1.9918664 -0.06223674
-1.945461 -2.0076442 -0.13558404 -0.08362469 -0.21871373 -1.6267813 -1.4599553 -0.026742218
-0.22035262 0.015242941 0.015069434 -0.010253136 -0.1226854 0.017619612 -0.061665136 0.028607856
-0.03611849 -0.08920071 -0.3009412 -0.051602107 -0.27872768 -0.1328738 -0.24230893 -0.15309305
-1.4483324 -0.1928193 -1.9248043 -1.9933426 -0.13155583 -0.082921475 -2.0434687 -0.014841135
-0.08845138 -0.08400416 -0.6769587 -0.10253263 0.05680947 -0.058040842 -0.25670987 -0.18009265
-0.089298666 -0.20171714 -0.0074438206 0.034376178 -0.10136666 -0.13885792 -0.31449273 -0.25420088
-0.29891542 -0.08414067 -0.09505688 -0.023401372 -1.0631863 -1.4126711 -1.834658 -0.18699725
-0.18956473 -0.048413187 -0.121423334 -1.7116458 -1.4071128 -0.5965487 -0.06958173 0.015958704
-0.07907525 -0.2055423 -0.14613938 -0.15560004 -0.1360365 -0.09566423 -0.088944 -0.069498904
-0.23994975 -0.12986855 -0.25089994 -0.37120482 -0.37721395 -0.1782615 -0.25015166 0.08537184
-0.21628025 -1.1096373 -1.6026399 -0.0913086 -0.1369269 -1.9104581 -0.06921409 -0.16384056
-0.9854019 -0.16053903 -0.174161 -0.07614546 -0.06859332 -0.016195282 -0.06315432 -0.058870386
0.079454795 -0.08559393 -0.19739518 -0.20601022 -0.20217244 -0.23589689 -0.2174753 -0.1590532
-0.3631886 -0.31488177 -0.21192536 0.07715372 0.047254015 -0.650351 -0.092537165 -0.053587392
-2.0503561 -0.20272295 -0.2527595 -0.19902022 -0.022143934 -0.18170588 0.05308136 -0.050778177
-0.06656435 -0.10340582 0.041506186 -0.008229043 0.053643133 -0.11223942 -0.25251853 -0.28229466
-0.2840884 -0.18888383 -0.14255375 -0.22421639 -0.22809835 -0.2988616 -0.15849544 -0.13928783
0.1289649 -0.5093508 -0.006847181 -0.07905016 -1.9513359 -0.057790145 -1.5767367 -0.021067653
00000000: 4e2e 42be 5896 03c0 ff6c f9bf 6739 f8bf
00000010: 4292 63bf b7bb 00c0 c822 83bf ecc8 43be
00000020: 2d29 2ebf aeda 02c0 1135 41bd 093d b8bd
00000030: c290 fbbf ebcd febf 51bd f8bf f56b 03c0
00000040: d9c1 73bd da3f ddbd 0276 bcbd 3138 02c0
00000050: 6d82 fbbf 3e43 79bd 9dd3 01c0 fd6b 8fbe
00000060: 528d 87bd d733 fcbf d7da 00c0 0ae9 02c0
00000070: 948e 7abd d2ff 0ebe 09b6 f5bf 35cd dabd
00000080: cc9b 36bd 8ad4 babd b293 00c0 0dfb 00c0
00000090: 0acb f4bf ce47 fbbf 5006 99be 95c0 ddbf
000000a0: e253 eabf 5944 ffbd be64 f4bd 885a e2bf
000000b0: fca7 debd 338f 24be 2c71 ecbf a077 f3bf
000000c0: 26a5 60be abb4 fcbf 67de d7bd 97dd 00c0
000000d0: c9db 00c0 8484 01c0 58c6 f6bf 99c1 57bf
000000e0: b62e d7bd ba5b cbbc c7e6 ffbd 4225 02c0
000000f0: cd9f 03c0 9e8c f7bf 19ef fbbf b6cb 3cbd
00000100: 214a 05be 4e0c d4bf cce0 bebf 68ca 4cbe
00000110: 2fd4 f5bd e8d1 2abf 977f 07bf c5d1 0c3c
00000120: 7153 7e3d bfab 0dbf 624b c4bd 2708 5dbd
00000130: c156 d2bf ef8f 14bd e4fd b3bd 8a30 f6bf
00000140: e41b ffbf 5ea4 40be 97a4 33be 133b aabd
00000150: 1857 c1bd 17b7 03c0 fd15 01be 6c38 e0bc
00000160: 2537 cebd 731a b7bf 3696 e2bf f7d2 c8bf
00000170: 3461 b2bf 4811 8dbf 8af9 2cbf f5a9 b1be
00000180: 43b9 98be 7a61 f3bc 5a1c 133e f6e7 463e
00000190: 2ab5 f33d 78e5 6cbe 0ef6 48be d419 87be
000001a0: 334d e7be 817d 8bbf 9a33 57be a42b 23be
000001b0: 98bb f0bf 9273 febf 7af5 febf f4eb 7ebd
000001c0: de04 f9bf 3e7d 00c0 8bd6 0abe 6c43 abbd
000001d0: 7ef6 5fbe 5f3a d0bf d1df babf 7f12 dbbc
000001e0: 1ea4 61be 87bd 793c cae5 763c c5fc 27bc
000001f0: 7c42 fbbd 0157 903c 9594 7cbd 065b ea3c
00000200: fbf0 13bd ddae b6bd f714 9abe bb5c 53bd
00000210: 65b5 8ebe 1210 08be d51f 78be 6dc4 1cbe
00000220: f562 b9bf 6c72 45be fd5f f6bf da25 ffbf
00000230: 92b6 06be bcd2 a9bd 31c8 02c0 3b28 73bc
00000240: ff25 b5bd 5f0a acbd 2a4d 2dbf a1fc d1bd
00000250: 0cb1 683d 3cbc 6dbd 7a6f 83be 356a 38be
00000260: 38e2 b6bd f08e 4ebe 4beb f3bb 09ce 0c3d
00000270: 5399 cfbd c530 0ebe 3105 a1be 9e26 82be
00000280: 710b 99be f251 acbd 2ead c2bd 3cb4 bfbc
00000290: 7d16 88bf 68d2 b4bf 13d6 eabf 357c 3fbe
000002a0: 421d 42be e84c 46bd ccac f8bd 3617 dbbf
000002b0: 461c b4bf 6ab7 18bf de80 8ebd d4bb 823c
000002c0: 34f2 a1bd ae79 52be 90a5 15be 9e55 1fbe
000002d0: 274d 0bbe 9ceb c3bd 4628 b6bd 7155 8ebd
000002e0: 63b5 75be 43fc 04be f575 80be 8f0e bebe
000002f0: 3022 c1be 2f8a 36be e113 80be 6ed7 ae3d
00000300: 9278 5dbe 9808 8ebf 4e23 cdbf 0100 bbbd
00000310: 9136 0cbe e489 f4bf 1ec0 8dbd d2c5 27be
00000320: 4d43 7cbf 5864 24be 4357 32be 27f2 9bbd
00000330: a87a 8cbd f8ab 84bc 0d57 81bd 1322 71bd
00000340: 32b9 a23d df4b afbd f621 4abe 58f4 52be
00000350: 4b06 4fbe f48e 71be d8b1 5ebe d8de 22be
00000360: dbf3 b9be 2f38 a1be f602 59be c502 9e3d
00000370: 6d8d 413d 677d 26bf 2084 bdbd 747e 5bbd
00000380: 0939 03c0 9b96 4fbe b169 81be f5cb 4bbe
00000390: 3267 b5bc 1b11 3abe d76b 593d c7fc 4fbd
000003a0: e452 88bd 6ec6 d3bd 6402 2a3d 1cd3 06bc
000003b0: e7b8 5b3d c8dd e5bd 1c4a 81be ed88 90be
000003c0: 0974 91be c36a 41be 9cf9 11be fb98 65be
000003d0: 9d92 69be 6304 99be a14c 22be 78a1 0ebe
000003e0: 600f 043e d064 02bf 515e e0bb 0de5 a1bd
000003f0: 60c5 f9bf 5cb5 6cbd 82d2 c9bf 1296 acbc

fc_mean.fc.0.weight f4 [10, 50]
0.08328137 -0.007300822 -0.06531486 0.09892591 0.11863546 -0.1637534 -0.115676686 0.058213342
0.039800406 0.08640015 -0.047961947 0.015604198 -0.082562335 -0.04653794 0.09294261 -0.02692169
0.044959635 -0.08981502 -0.17323129 -0.09900673 -0.07175886 -0.1400051 -0.024437249 0.045960274
0.07213448 -0.15127866 -0.10787438 -0.013326451 -0.141197 0.13852058 -0.056811076 0.0154723935
0.022550855 -0.05865172 -0.14043677 0.08024064 0.10086787 -0.0227846 0.06089197 0.017319169
-0.04536711 -0.068179615 -0.017061189 0.06342782 -0.10706606 -0.02970343 0.051351406 0.029636696
-0.16300164 -0.105892085 -0.05947785 -0.006007173 -0.055046573 0.08473949 0.028567165 -0.09818155
-0.09029993 0.061285216 0.06973646 0.121773444 -0.13242486 -0.12188426 -0.13364056 -0.17586268
-0.06926769 0.13329685 -0.03048859 -0.068696894 -0.056410253 0.0026554076 -0.083097614 -0.1009389
-0.1440147 -0.098558836 0.09648748 0.04276328 -0.08387041 0.103254125 -0.10127398 0.10705339
0.03585501 -0.114776425 0.10484276 -0.0890055 0.035787344 -0.12961836 -0.031590007 0.015334097
0.08213225 -0.0747682 0.062766455 0.12850216 0.102077544 0.12189039 0.02350778 -0.06854341
-0.083195314 -0.028512679 -0.058052123 0.08980433 0.08632887 0.18736441 0.0021496625 -0.1899742
-0.05143675 0.11780447 0.094932094 -0.07168427 0.12729234 -0.106490195 0.035958607 -0.07066656
-0.14141923 0.09819046 -0.0810173 -0.062422216 0.17673084 -0.046734933 0.04239345 0.21007809
0.114960186 0.047636557 0.061779257 -0.0426612 0.05367682 0.0022949004 -0.121180676 -0.0951759
-0.10948821 0.0654482 0.0801683 0.022507109 -0.1056429 0.11914279 0.04555159 -0.04947672
-0.04612082 0.15877931 0.045495115 0.13952075 -0.035607327 0.102526024 -0.08935819 0.12932889
0.0093196165 0.03774991 -0.121393755 -0.25947568 0.05575246 0.21882044 -0.15742368 0.008479011
0.043744665 0.049380556 -0.04999402 -0.19556063 -0.16248713 0.07317975 -0.12245702 0.052346416
-0.16535169 0.03639439 0.060537588 -0.033885423 -0.06344062 -0.1019371 -0.015556963 0.023959663
-0.024050752 0.016712546 -0.08763717 -0.036605034 0.13177824 -0.0057750233 -0.14280288 -0.16375549
0.07455534 -0.12756377 -0.045216057 0.02757872 -0.109926656 -0.023280187 0.062042546 -0.12173674
0.07432763 -0.005734606 -0.13100298 0.039777894 0.101447955 -0.07376352 -0.101984404 -0.006685133
0.065635346 0.083681956 -0.17461444 0.09127036 -0.09801681 -0.052679814 -0.07051681 -0.15257409
0.03723433 0.09771928 0.009659247 -0.026430547 -0.1312919 -0.062355977 0.062591895 0.2947404
0.044184737 -0.0111851515 0.034593817 0.053989306 0.08471585 -0.048306756 0.058161575 0.06758933
-0.05248463 -0.005493048 0.059595037 -0.111103736 0.12629062 0.08779568 -0.060507786 0.1571609
-0.023341103 0.035742886 -0.09150916 0.02330387 0.03281668 0.053683795 0.08051009 0.08906485
0.08632999 -0.070922405 -0.07013565 0.1303071 0.23559402 0.18692127 -0.067912176 -0.038147468
-0.11762414 -0.061490726 0.07471141 0.09690778 0.12635835 -0.04545388 -0.13763519 0.039254863
-0.0077659744 0.13292547 0.2371735 0.13769858 -0.031064043 0.06271469 -0.01791322 0.12219237
00000000: 6c8f aa3d bc3b efbb ccc3 85bd ab99 ca3d
00000010: 26f7 f23d f9ae 27be e6e7 ecbd 1d71 6e3d
00000020: c005 233d 90f2 b03d bf73 44bd c0a8 7f3c
00000030: 7116 a9bd 919e 3ebd b258 be3d e08a dcbc
00000040: 9827 383d f0f0 b7bd 8b63 31be 0ac4 cabd
00000050: 4ff6 92bd 7f5d 0fbe a030 c8bc d740 3c3d
00000060: 3ebb 933d cbe8 1abe 3eed dcbd 3057 5abc
00000070: f295 10be 57d8 0d3e bbb2 68bd ec7f 7d3c
00000080: 92bc b83c c93c 70bd a8ce 0fbe 3455 a43d
00000090: d093 ce3d c5a6 babc dc69 793d eee0 8d3c
000000a0: ddd2 39bd c1a1 8bbd e8c3 8bbc 72e6 813d
000000b0: 7345 dbbd 9c54 f3bc da55 523d a8c8 f23c
000000c0: e7e9 26be f3dd d8bd 0c9f 73bd d2d7 c4bb
000000d0: 8478 61bd e68b ad3d b005 ea3c 6913 c9bd
000000e0: 2bef b8bd 3506 7b3d fdd1 8e3d 5b64 f93d
000000f0: 629a 07be 749e f9bd 12d9 08be 5915 34be
00000100: 38dc 8dbd f87e 083e 35c3 f9bc f5b0 8cbd
00000110: 700e 67bd 5906 2e3b 152f aabd 0eb9 cebd
00000120: 9778 13be 37d9 c9bd 3a9b c53d 8d28 2f3d
00000130: 40c4 abbd e676 d33d bc68 cfbd cf3e db3d
00000140: b4dc 123d e70f ebbd cdb7 d63d 8448 b6bd
00000150: c095 123d adba 04be 8664 01bd dd3b 7b3c
00000160: f434 a83d 1220 99bd b38b 803d 1296 033e
00000170: 080e d13d aba1 f93d 6393 c03c 7d60 8cbd
00000180: 4e62 aabd 6c93 e9bc 10c8 6dbd 55eb b73d
00000190: 31cd b03d 75dc 3f3e 5ae1 0c3b 9988 42be
000001a0: 57af 52bd 7843 f13d c26b c23d 34cf 92bd
000001b0: ec58 023e 8817 dabd 5549 133d a1b9 90bd
000001c0: 34d0 10be 1418 c93d 66ec a5bd 70ae 7fbd
000001d0: eef8 343e 216d 3fbd c1a4 2d3d b61e 573e
000001e0: 3f70 eb3d 8d1e 433d 3f0c 7d3d 83bd 2ebd
000001f0: 3adc 5b3d 0a66 163b 932d f8bd 95eb c2bd
00000200: 5b3b e0bd b509 863d 472f a43d d460 b83c
00000210: 4e5b d8bd 2301 f43d 4e94 3a3d 1aa8 4abd
00000220: 2fe9 3cbd 0b97 223e 1659 3a3d 87de 0e3e
00000230: fdd8 11bd 2af9 d13d 6d01 b7bd cb6e 043e
00000240: 4eb1 183c a69f 1a3d 4a9d f8bd ffd9 84be
00000250: b15c 643d 7712 603e ac33 21be 8deb 0a3c
00000260: 9b2d 333d 4443 4a3d 88c6 4cbd 0c41 48be
00000270: 0763 26be 44df 953d bfca fabd 3269 563d
00000280: f451 29be 4912 153d 43f6 773d 71cb 0abd
00000290: 28ed 81bd 66c4 d0bd a2e2 7ebc 0e47 c43c
000002a0: 1506 c5bc c0e8 883c 1e7b b3bd 29ef 15bd
000002b0: e0f0 063e 683c bdbb eb3a 12be 85af 27be
000002c0: 78b0 983d 14a0 02be 7934 39bd c5ec e13c
000002d0: 3a21 e1bd 17b6 bebc 5320 7e3d 1d51 f9bd
000002e0: 1639 983d 5de9 bbbb a525 06be 25ee 223d
000002f0: f2c3 cf3d 5411 97bd 33dd d0bd f60e dbbb
00000300: d36b 863d 7261 ab3d 21ce 32be f4eb ba3d
00000310: 0abd c8bd cac6 57bd 1e6b 90bd 623c 1cbe
00000320: 0683 183d 0c21 c83d d141 1e3c e084 d8bc
00000330: 6271 06be fb68 7fbd 2e30 803d 37e8 963e
00000340: 0efb 343d ed41 37bc 3fb2 0d3d e423 5d3d
00000350: 817f ad3d 4edd 45bd d53a 6e3d 466c 8a3d
00000360: 20fa 56bd 07ff b3bb ed19 743d 5b8a e3bd
00000370: 5452 013e 39ce b33d 03d7 77bd c9ee 203e
00000380: d735 bfbc 2267 123d 2869 bbbd c2e7 be3c
00000390: c86a 063d 8ae3 5b3d 79e2 a43d a267 b63d
000003a0: c7cd b03d c43f 91bd 48a3 8fbd 396f 053e
000003b0: 8f3f 713e 4a68 3f3e 8a15 8bbd 8540 1cbd
000003c0: ede4 f0bd b3dd 7bbd 4c02 993d 9677 c63d
000003d0: 1564 013e d92d 3abd 3df0 0cbe b5c9 203d
000003e0: b779 febb 9d1d 083e 9cdd 723e db00 0d3e
000003f0: 057a febc 8f70 803d bfbe 92bc fe3f fa3d

fc_mean.fc.0.bias f4 [10]
-0.1619157 0.027038084 -0.036867037 -0.041331746 -0.09796376 0.0028799486 -0.10690717 0.09614762
-0.0053393603 0.053526573
00000000: 3bcd 25be f97e dd3c e401 17bd 7a4b 29bd
00000010: 39a1 c8bd 85bd 3c3b 25f2 dabd 0be9 c43d
00000020: cdf5 aebb ae3e 5b3d
