AutoEncoders/VAE_CL/saved_model/model1.pth (torch, 737599 bytes, 84 tensors)

encoder.0.fc.0.weight f4 [50, 784]
00000000: 8222 793d 404d 493d de73 8f3b 4851 4d3d
00000010: 634a 103d 52c2 493c 26c5 193d c73a cf3c
00000020: 8f3f cf3c 0a3d 233c 62c6 f43c 22e8 2f3d
00000030: 0d3d 2a3d ac94 fa3c a28e 3dbc 01b3 9cbc
00000040: 2619 713d 17be ff3c c8a6 503d f04d 5d3d
00000050: 24b7 bfbb 4085 2f3c 6688 663d 6ace 6b3d
00000060: eab1 10bc 6bff 46ba b89e 193d c46a b6b8
00000070: 1134 04bc 6b9e c93c cedd f13c 20a5 5c3c
00000080: e2b7 f7bb db66 a5bc d49d 4a3c 691f 0b3d
00000090: e3a0 bebd aefe bebd 0839 3b3b eb89 7cbd
000000a0: 7847 29bd 3532 fe3a 6730 1e3d 4e53 a6bb
000000b0: b972 22bc 3b8f ae3c c6a5 7abc b730 983c
000000c0: 0121 413d c061 b1bc 59aa c3bb 6b41 e3ba
000000d0: d263 8fba bac9 f23c f6b4 f8bb 39bc 2c3b
000000e0: df3a 123d 9afe 6e3d 8d61 84bc 0b46 853d
000000f0: 3a5f df3d f80d 653d 02cd 873d 34b3 8b3d
00000100: d357 463d 995c 993d 4ef4 593d b861 313d
00000110: 8103 94bd f17c 8cbd 6972 93bc f640 89bd
00000120: 3d20 a4bd 8be6 98bc 9555 a93a 087f efbc
00000130: 8014 143b 7479 263d 64ce 76bc 9937 633b
00000140: 1d52 27bc aff4 4fbd 6a2f 423d fad5 733d
00000150: fb40 013d 8d7f 0e3d 66bd 043d ef3a 08bc
00000160: 705d 86bd f542 2c3a 6847 413d cc99 5cbb
00000170: 24c2 a3bc c037 423d 4d2f 613d 56de f23c
00000180: 3a1f 303d 7641 94bb 1afc 4abc d845 86bc
00000190: c16a 35bc 8ba4 a83c 7d91 0a3c 95a1 8e3c
000001a0: 5c57 db3c eee3 61bc 338e ab3c c8af 713d
000001b0: 667a 3c3d c1a9 3abc b246 2b3d 8b73 9e3b
000001c0: c206 763d 4170 113d 830d 86bb d4e3 2abe
000001d0: 9a01 62bd 6d14 0abc 8996 e7bc 41f7 f7bb
000001e0: 99a5 cebc e1fa 09bd 80a9 213c d649 21bd
000001f0: 65da 92ba 687d 673d 8163 6d3d 63f6 1d3d
00000200: 81aa 2b3d f74d d93c 6d9d 743d be2d 223c
00000210: 6500 ca3c bc8e bf3b 2f74 6f3b 53d3 47b9
00000220: 317a b53c e54e 49bd 382b 163c 52bb b6bd
00000230: 259d da3c 3e0a 3a3d 4446 94bd 6265 78bd
00000240: 94ec 5fbd 1d49 4dbd 6bb7 2ebd 8f11 0e3c
00000250: b2da e8bc fa54 92bd 9d56 efbb af66 86bc
00000260: 0e4f 873b f66c 0f3d 9bcd 263d 1da4 9d3d
00000270: 8d19 e43d 2b11 bf3d 80b3 c53d 84f9 363d
00000280: 8006 263d e403 093d 0938 043d 9938 303d
00000290: 22c7 fd3c 6e8d 923c 859f a1bd 78b9 b13d
000002a0: 54c1 2b3d c372 88bd 7c51 fbbc dff3 093c
000002b0: aed5 0bbd 794b 12bd 9882 56bd c5e1 84bd
000002c0: a5d8 8fbd 229e ecbd 010e bfbd 43b8 a1bd
000002d0: 6d18 8abd 1ab8 313c 8094 ef3c 54b3 8d3d
000002e0: 6a89 853d 5a0c 833d 0ab1 7d3d c249 843d
000002f0: 0740 333b 56d3 423d 8808 de3c 21a3 ecbb
00000300: ca71 acbc 86aa febb 1c67 88bd 55c5 843d
00000310: 75dd 98bc f374 b13c f404 34bd 016e bfba
00000320: b636 8fbc aa5c 04bd def2 c3bc e444 8dbd
00000330: 38a5 03be cb20 09be 168f ddbd 8a6c b3bd
00000340: 8b22 a5bd 69b7 1ebd a6e9 98ba 4588 803a
00000350: 5443 083c 88f3 a33c 9406 afbc 1516 e53c
00000360: ce38 da3c 97ac aa3c cf12 1f3c cb23 c83c
00000370: 2e2d 17bd 4143 9bba 68c8 6d3b bea8 623c
00000380: 424c 94bd b067 013d 449c 18be 45d5 2d3d
00000390: 5990 343d c51d 2bbd 6754 47bd 7ea4 1fbe
000003a0: fe0a 39be c3ad 08be a852 2bbe 4473 9fbd
000003b0: 1997 b0bd 6f61 89bc cdad 92bc 1991 d23b
000003c0: c116 94bc df43 6fbd bd5c 43bd 5af3 ffbc
000003d0: 3b43 f73b 143f 653d 23b4 233d 4079 0c3d
000003e0: bc46 3e3c c62f bcbc 594a 093d b4ce 753d
000003f0: d9bf 92bc 4631 abbc 49be c4bd ee6b c4bc
0.060823925 0.049145937 0.004377826 0.050126344 0.03522719 0.012314396 0.03754153 0.025296582
0.025298862 0.009963283 0.029879753 0.04294599 0.04156213 0.03058847 -0.011569651 -0.019128324
0.058861874 0.031218572 0.050940305 0.054029405 -0.0058506895 0.010712922 0.056282423 0.0575699
-0.0088314805 -0.0007591161 0.03750488 -8.698323e-05 -0.008069054 0.024611672 0.02952471 0.013467103
-0.0075597623 -0.020190647 0.012366731 0.033965502 -0.093080305 -0.0932592 0.0028567929 -0.061654966
-0.041327924 0.0019393625 0.03862038 -0.0050758487 -0.009915047 0.021308532 -0.0152983125 0.018577917
0.047150616 -0.021653056 -0.0059712348 -0.0017338222 -0.0010939783 0.029637206 -0.0075899316 0.0026357307
0.035700675 0.058348276 -0.016159797 0.065075 0.10906835 0.055921525 0.06630899 0.0682129
0.0484236 0.07488365 0.053211503 0.043306082 -0.07227231 -0.06859768 -0.017998891 -0.067018434
-0.080139615 -0.018664619 0.0012919182 -0.029235378 0.0022595227 0.04064317 -0.015063856 0.003467059
-0.010212448 -0.050770458 0.0474085 0.059530236 0.03155611 0.03478961 0.032407187 -0.008314832
-0.065607905 0.00065712567 0.04718724 -0.0033661006 -0.019990034 0.04741645 0.05497675 0.029647034
0.04299853 -0.004524405 -0.012389207 -0.016390726 -0.011072815 0.020586273 0.008457539 0.017411033
0.026775055 -0.013787253 0.02094183 0.05900553 0.046015166 -0.011393012 0.041815467 0.004835551
0.06006504 0.035507444 -0.004090966 -0.16688472 -0.05517731 -0.008427721 -0.028270023 -0.0075673168
-0.025225447 -0.033686522 0.009867072 -0.039377056 -0.0011204003 0.05651608 0.057956222 0.03856505
0.041910652 0.026526434 0.059720445 0.009898601 0.024658391 0.0058458727 0.0036537757 -0.00019056843
0.022152992 -0.049147505 0.009165578 -0.08922447 0.02668626 0.045419924 -0.072399646 -0.06064356
-0.054668978 -0.050118554 -0.04265539 0.0086711785 -0.028424595 -0.07145114 -0.0073040263 -0.016406385
0.004129297 0.035016023 0.040723424 0.07697318 0.11137686 0.093294464 0.096533775 0.04467155
0.040533543 0.033450976 0.03228 0.043022726 0.030978743 0.017889705 -0.07891754 0.086779535
0.04193242 -0.06662514 -0.030678503 0.00841996 -0.034139328 -0.035716508 -0.052370638 -0.064883746
-0.070237435 -0.11553599 -0.09328843 -0.07896473 -0.0674294 0.010847116 0.029245615 0.0691897
0.0652035 0.0639884 0.061936416 0.06459381 0.0027351396 0.047564827 0.027103677 -0.007221595
-0.021050353 -0.007771793 -0.066602916 0.064829506 -0.018660286 0.021662211 -0.043950036 -0.0014604927
-0.017482143 -0.032314934 -0.023919519 -0.068979055 -0.12855995 -0.13391416 -0.10818307 -0.087609366
-0.08063229 -0.038749132 -0.0011666312 0.0009806236 0.0083168335 0.020013586 -0.021365441 0.027964631
0.026638415 0.02083425 0.009709074 0.02443113 -0.03690832 -0.0011845605 0.0036282782 0.013834177
-0.072411075 0.031593025 -0.1490336 0.042439718 0.044082973 -0.041776437 -0.048664477 -0.15590093
-0.180706 -0.13347535 -0.1673075 -0.07785657 -0.086225696 -0.016770093 -0.01790514 0.0064259884
-0.018077256 -0.058414336 -0.047695864 -0.031243969 0.0075458563 0.05596836 0.039966714 0.03429532
0.011613544 -0.022971999 0.03351817 0.06001158 -0.017913746 -0.020897519 -0.096066065 -0.023977246

encoder.0.fc.0.bias f4 [50]
00000000: 6131 8fbd ec77 803d a124 7fbd 6c36 313e
00000010: 8f84 f03b 3403 f2bd 8e55 ed3d 4283 4dbb
00000020: 1e7b 6f3c e272 2ebd 8648 edbd ac9c 16bd
00000030: cd46 94bd 9502 49bd 47ac 423d 5ae6 b13c
00000040: 848f 5f3d 93df 0e3d e131 d5bc 1bed 28bd
00000050: 3a3b f93b 2979 d6bb fc88 1e3d ccd1 57bd
00000060: 237e c93c 6059 4cba 2870 22bd 611d e23c
00000070: b799 453d 3f5f 2a3c b63f 3c3c 1ea8 1fbd
00000080: 3fd5 19bd e5a6 15bd e616 063c 8b59 003d
00000090: e949 77bd 277a 3dbd 4a2c 393c a55a 4dbb
000000a0: 2ec3 87bd 74be a0bd 2c2f 1a3d 6660 a43d
000000b0: c213 95bd f9e0 9d3c b321 36bc 89e8 183d
000000c0: 52b6 3b3c e14b 563d
-0.0699184 0.06272873 -0.06229079 0.17305917 0.007340021 -0.11817017 0.11588584 -0.0031358753
0.014616756 -0.04259003 -0.115860984 -0.036770508 -0.07240067 -0.049074728 0.047527578 0.021716285
0.054580227 0.034881186 -0.02602476 -0.041241746 0.0076059373 -0.006545205 0.038704857 -0.052690312
0.02459628 -0.00077953003 -0.03965774 0.0276019 0.048242297 0.010398685 0.011489799 -0.03897869
-0.037556883 -0.036536116 0.00818417 0.031335395 -0.06037322 -0.04625907 0.011302063 -0.0031334546
-0.066290244 -0.07848826 0.037642643 0.08026199 -0.07279159 0.019272314 -0.011116433 0.037331138
0.011457043 0.052318458

encoder.0.fc.1.weight f4 [50]
00000000: 9445 873f a93e 833f 49b6 703f 63cd 573f
00000010: ece9 753f 7b75 6a3f c41c 633f 3cb1 873f
00000020: db92 783f fe1b 823f bb01 873f 303d 743f
00000030: ebea 6d3f 6e43 7c3f f6be 7b3f 7122 803f
00000040: b461 743f ce04 753f 5941 7e3f c234 543f
00000050: 07d1 673f f5ab 843f f19e 823f 9a48 663f
00000060: 89aa 6f3f 49cc 893f 4d4b 713f 6ca9 653f
00000070: fe37 543f 22b6 713f d462 6a3f b060 723f
00000080: 1dd9 7a3f 0c90 873f 7872 8b3f 9fce 8c3f
00000090: d20e 533f f90e 853f b39b 833f 7876 833f
000000a0: 4fa9 643f 6e37 613f cfb5 6f3f 81d5 6b3f
000000b0: b804 803f e404 733f 1ff1 743f b1db 863f
000000c0: 9a04 6b3f 9fb2 733f
1.0568109 1.0253497 0.94028145 0.8429777 0.9606006 0.9158551 0.8871577 1.0600963
0.97099084 1.0164793 1.0547403 0.95405865 0.9293658 0.9854039 0.9833826 1.0010511
0.95461583 0.95710456 0.9931846 0.82893 0.90553325 1.0364977 1.0204755 0.8995453
0.9361959 1.0765468 0.94255525 0.8971164 0.8289794 0.9441854 0.9155705 0.94678783
0.9798754 1.0590835 1.0894308 1.1000556 0.8244449 1.0395194 1.0281891 1.0270529
0.89320844 0.87975204 0.9363679 0.92122656 1.000144 0.9492934 0.9568042 1.0535794
0.91803896 0.9519443

encoder.0.fc.1.bias f4 [50]
00000000: 2a13 873e 0844 31bd 5ae2 1a3d 36e3 013f
00000010: be6f 93be 362b 443f 76f0 073f 69ba 6bbc
00000020: 02c4 fc3e db53 a9bd d22f 763e 7b64 a3be
00000030: 6996 0b3f 8d6d a43d 9cf4 653e 8a7b c73d
00000040: 006a afbe 21dc 293e 18f4 c03e ecfa f73e
00000050: a100 033f fc80 cdbd c2f5 873e f9b2 ca3e
00000060: 362d ea3e aa23 6b3d 879d 5c3e 9c5c b93e
00000070: cd30 133f 9eff d83e a410 493e d189 923c
00000080: 0709 9abd 1486 9c3e 6865 8d3d bc1e 3e3d
00000090: 738b 773e 3f41 1c3e 9daa c83d a099 be3e
000000a0: 2dc7 0b3f a7e6 c73e 874a de3e 7ad0 da3e
000000b0: fbf2 2c3e d975 c83e 1c65 813e d8dc 09bf
000000c0: fe76 153e 355c 1e3e
0.2638181 -0.04327777 0.037813522 0.5073732 -0.2879619 0.76628435 0.5310129 -0.014387705
0.49368292 -0.08267947 0.2404168 -0.31912598 0.5452638 0.08028708 0.22456592 0.0974036
-0.3426056 0.16587879 0.3768623 0.48433626 0.51172835 -0.100343674 0.26554686 0.3958967
0.45737618 0.05740706 0.21544467 0.36203468 0.5749634 0.4238252 0.19635254 0.017887982
-0.07521253 0.30571043 0.06904107 0.04641603 0.2417429 0.15259264 0.09798167 0.37226582
0.54600793 0.3904316 0.43416235 0.4273718 0.16889565 0.3915241 0.25272453 -0.53852606
0.14596173 0.15464862

encoder.0.fc.1.running_mean f4 [50]
00000000: f1a1 173f bf61 5cbf cefc 92bf 66ce b13e
00000010: eefd 74c0 c5bc 3540 a859 8440 1280 2dc0
00000020: b29e 1640 c299 15c0 07ac 6840 7914 d2be
00000030: f7c8 9940 8279 64c0 a25b e1bf 1581 043f
00000040: c696 eabf 4a04 4b3f 88fa c8be 3343 1dc0
00000050: 3c50 1940 73cd d33f 6907 8040 6e54 9040
00000060: 1b57 0740 ab70 8840 bdaa 3840 3ab7 67bf
00000070: a90b f140 9a7c 1f40 fd7d febe 854d a8bf
00000080: 9f84 54c0 a07c 6540 ef70 27bf c763 5cbe
00000090: 18e4 1240 3de7 d8bf 9122 a0bf e34e fd3f
000000a0: 57da eb40 8aea e73e 164d d03f 23fa b140
000000b0: c782 6f3f 90fc a73f fe33 83c0 c1f1 bdc0
000000c0: 5bad 133e c04e babf
0.5923148 -0.8608665 -1.14834 0.34727782 -3.8279986 2.8396466 4.1359444 -2.7109418
2.353436 -2.3375096 3.6354997 -0.41031244 4.805782 -3.5699162 -1.7606089 0.51759464
-1.8327262 0.7930342 -0.3925364 -2.4572265 2.395522 1.6547073 4.0009046 4.5103064
2.1146915 4.2637534 2.885421 -0.90513957 7.5326734 2.49198 -0.49705496 -1.3148657
-3.3205945 3.5857315 -0.654067 -0.21522437 2.2951717 -1.6945568 -1.2510549 1.9789699
7.370403 0.45296127 1.6273525 5.5617843 0.93558925 1.3123951 -4.1000967 -5.935761
0.14421599 -1.4555283

encoder.0.fc.1.running_var f4 [50]
00000000: 0ab7 a141 0b0a 6a41 49ef 4c41 8ad0 5441
00000010: e781 1241 45ef b841 1805 4541 d50a 8d41
00000020: 45ac 9741 7709 5341 0ac1 9841 1b12 3241
00000030: 5442 5b41 81b0 5d41 41fb 8041 11f5 5041
00000040: b497 aa40 5694 8041 931a 9e41 cd69 4741
00000050: 9fdd 6641 5927 2f41 00cc 9b41 588b 5341
00000060: 09e0 9541 6631 8641 667c 7c41 c7e2 6141
00000070: 0253 5841 6989 5041 a44b 3141 d6bf 6741
00000080: a6bb 1941 0d61 b241 c325 8f41 7df3 ab41
00000090: 1ae0 fc40 91e0 5141 0d12 4a41 2611 ab41
000000a0: 9295 7941 b64f 6141 5dde 8e41 17b4 5541
000000b0: b2c3 8241 bd8f 6141 015b 4d41 99c7 3a41
000000c0: bda3 3c41 d9a7 7c41
20.214375 14.627452 12.808419 13.300913 9.156714 23.11683 12.313744 17.63029
18.959116 13.189811 19.094257 11.12942 13.703693 13.855592 16.122683 13.059831
5.3310184 16.07243 19.762976 12.46333 14.429107 10.947106 19.47461 13.221519
18.734392 16.77412 15.780371 14.117866 13.520266 13.033547 11.080967 14.484335
9.608313 22.297388 17.893438 21.49389 7.902356 13.117326 12.629407 21.383373
15.599016 14.081961 17.858576 13.356467 16.345554 14.097592 12.834718 11.67373
11.789975 15.790978

encoder.0.fc_end.0.weight f4 [50, 784]
00000000: 2ebb f63c 13ec b8bc a081 203c 002d ceba
00000010: 403c 953a ce54 32bc 1e43 c93c b008 e0bc
00000020: b0eb 103c d816 253c 2e42 b23c 003c 0fbc
00000030: c8b3 e83b 7c14 2ebc c0c2 033c c000 8d3a
00000040: 9363 10bd d0a0 a63b 1605 f33c a640 58bc
00000050: e2ac cb3c cebb de3c 3868 17bc 30d8 c9bb
00000060: 004f 89bb 90d1 693c acac abbc 1ba7 01bd
00000070: e077 403c e8bb bd3c 0e96 f03c 465c ef3c
00000080: 7c5d 113c 705e 3bbb c6e0 0ebd 7052 ac3b
00000090: a0f2 d8bc 007c 7dbc ff6b 053d b2b1 ea3c
000000a0: ce21 aa3c d096 623b 97c6 033d 0efb 6ebc
000000b0: e376 a1bc 0070 23ba 208d 2e3b eade cd3c
000000c0: fa7c dd3c 178f 003d aa66 20bc 227e f73c
000000d0: 6cd1 94bc e006 9eba ee6d a83c 4820 e7bb
000000e0: f887 463c f8a2 493c 684a 2d3c a0c0 663c
000000f0: 8838 a03c 409a 6abc a81c 973b c3aa b3bc
00000100: aed5 cfbc e095 42bb dc19 bb3c d272 2dbc
00000110: e05c c43a a850 afbc ba50 eebc b5da d7bc
00000120: ee1f 21bc e729 90bc 3397 073d 40a2 8bbb
00000130: 8b07 0c3d 01c7 083d e3a0 0dbd 0c21 af3c
00000140: 00b2 533a 70b4 b3bc 80f2 863c 6085 50bc
00000150: 376c 8abc 9074 a13b 862d 04bd 6603 1dbc
00000160: 90af afbc f390 f0bc b163 f2bc 2050 0abc
00000170: 23b1 ccbc c279 dd3c 5c22 5a3c 8e28 cebc
00000180: b179 edbc 2efa e43c bafd c43c f8cd bcbc
00000190: 9864 d8bc 9703 a2bc 20ab cf3a 90b8 9cbc
000001a0: 70e1 11bb 3cb4 3abc 178b a0bc 235f 80bc
000001b0: 7a9f b7bc 5282 59bc 21e1 f7bc d1e8 003d
000001c0: 18fc b4bc a079 383b 861d 44bc fd71 063d
000001d0: ecc4 953c d4d7 7c3c fa9a c23c eaf2 abbc
000001e0: 509c c93b ce8e b6bc 3800 0f3c d044 123c
000001f0: ae5b 35bc d802 363c c058 f33b 75aa f4bc
00000200: db45 0c3d 9a86 f53c a28a b33c 007e 2039
00000210: bc9e cbbc 0422 143c 9096 ea3b 2151 f4bc
00000220: e4cc 7a3c d6ea cd3c 8694 7cbc b8f3 003c
00000230: 50e3 a53b 78c1 c83b bc19 953c cc0d d23c
00000240: 64e3 153c 94ca 97bb 30a4 40bb 5e43 a6bc
00000250: 70c0 313b de21 06bd 0094 d23a b070 713b
00000260: e8d3 233c 7aba b63c 06b1 fb3c 97e6 053d
00000270: 18ab 0cbd 57ed 073d d18a e5bc d06f 803c
00000280: 6896 d43c 347d 753c 4803 bb3c d8f6 79bc
00000290: 53c8 cbbc a839 a13c 559b 10bd 7382 04bd
000002a0: 3049 5d3b dc7a f1bb c204 e83c b8aa c3bc
000002b0: 9080 de3b 0061 eebb 6b72 093d 6c80 00bd
000002c0: 28ee 85bb 6237 e93c bc58 06bc 9ced d3bc
000002d0: 4e4b 9dbc cfee 043d 30f7 c1bc 6004 c83c
000002e0: 9064 bbbc 78f3 9abb c0f9 b0bb d550 b7bc
000002f0: 5642 e13c b0b2 a9bb a8fc c93c 9fb2 07bd
00000300: 4092 b7bb 753b 92bc 600a 92ba 6858 8c3b
00000310: 754b 85bc 3cca 4fbc 325f 00bc 9efc ec3c
00000320: a0a5 f73b bc70 3f3c 0657 39bc 38c3 e8bc
00000330: aabd 30bc a8bc fbbc 2f6c 063d 38f1 493c
00000340: 3c8f 53bc 504a 0b3c fc1e cf3c 7c69 1f3c
00000350: b8a1 533c 407c 5cbc 52dd 03bc 03eb 00bd
00000360: fc8c 4abc 7c05 f7bc 2059 423b 404d b5ba
00000370: 12ce 993c 7032 15bb 8d55 0ebd b6fb e53c
00000380: 5f9a 10bd fc80 06bc 2a40 95bc d4c7 f5bb
00000390: 48b5 d1bc a950 023d 88b3 023c 4086 e1bc
000003a0: ceba c8bc 6059 9bbc defc de3c c1ab f4bc
000003b0: 0001 f53a 7031 b63b 60f8 fc3a a326 91bc
000003c0: 808c cdbc 228f f23c 1a22 9e3c 8ad9 eb3c
000003d0: ce65 833c f046 0a3c c125 013d 03f6 093d
000003e0: f511 bcbc 6025 16bb 380c 99bb 75c9 b2bc
000003f0: b013 883c e677 a43c 8aba c43c fa7a b23c
0.030118551 -0.022573506 0.00979653 -0.0015729964 0.0011385754 -0.010884477 0.024568137 -0.027347893
0.008845255 0.010076247 0.021760073 -0.008742332 0.0071015097 -0.010625001 0.0080420375 0.001075767
-0.03525121 0.0050850883 0.029665511 -0.013199007 0.02486271 0.027189162 -0.009241156 -0.0061598048
-0.0041903257 0.014271155 -0.02095636 -0.031653505 0.01174733 0.02316089 0.029368427 0.029218804
0.008872386 -0.0028590225 -0.03488233 0.0052588508 -0.02648288 -0.015471458 0.032573696 0.028649185
0.020768072 0.0034574755 0.032171812 -0.014586223 -0.01971001 -0.0006234646 0.002663441 0.025130708
0.027037133 0.03138646 -0.009790102 0.030211512 -0.018166266 -0.0012056492 0.020560231 -0.007053409
0.012117378 0.012306921 0.010576822 0.014084011 0.019558206 -0.014319003 0.0046115704 -0.021932011
-0.025370445 -0.0029691383 0.02283948 -0.010586457 0.0014981292 -0.021400765 -0.029091228 -0.026349405
-0.009834273 -0.017598106 0.03310318 -0.004261285 0.03418688 0.03339291 -0.03457726 0.021378063
0.00080755353 -0.021936625 0.016473055 -0.012727112 -0.016897304 0.0049272254 -0.032269977 -0.00958333
-0.02144602 -0.029365992 -0.029588552 -0.008441955 -0.02498681 0.027035598 0.013313856 -0.025165822
-0.028988691 0.027951326 0.024046768 -0.023047432 -0.026415154 -0.019777102 0.0015843846 -0.019130975
-0.0022259615 -0.01139551 -0.019597573 -0.015670365 -0.022414912 -0.0132757 -0.030258717 0.03147203
-0.022092864 0.0028148666 -0.01196993 0.03282355 0.018282376 0.015432317 0.02375554 -0.020989854
0.006152667 -0.022284891 0.0087280795 0.008927539 -0.011069221 0.011109076 0.0074263513 -0.029866436
0.034246307 0.02997141 0.021916691 0.00015305728 -0.024855964 0.009041313 0.0071590617 -0.029823842
0.015307639 0.025136393 -0.01541627 0.007870607 0.005062498 0.006126579 0.018200748 0.025641344
0.009148452 -0.0046323035 -0.0029394738 -0.020295795 0.0027122758 -0.032747142 0.0016065836 0.0036840849
0.009999253 0.022305716 0.03072406 0.03269061 -0.034342855 0.03318533 -0.028020294 0.015678316
0.025950626 0.014983464 0.022828713 -0.015256606 -0.024875795 0.019680813 -0.035304386 -0.03235097
0.0033765547 -0.0073693823 0.028322581 -0.023885116 0.006790228 -0.007274747 0.033556383 -0.031372473
-0.0040872283 0.028468791 -0.008199867 -0.025870137 -0.019200947 0.032454308 -0.023677438 0.024416149
-0.0228751 -0.004728731 -0.0054008663 -0.02237741 0.027497452 -0.005178772 0.024656609 -0.03312933
-0.005602151 -0.017850617 -0.0011142008 0.004283 -0.016271332 -0.012682494 -0.007835196 0.028929051
0.007557586 0.011684593 -0.011312252 -0.0284134 -0.010787407 -0.030729607 0.032818016 0.012325577
-0.012912568 0.008501604 0.02528333 0.009729739 0.012916975 -0.013457358 -0.008048372 -0.031474125
-0.012362715 -0.030153982 0.0029655173 -0.0013832226 0.01877502 -0.0022765659 -0.034749556 0.028074127
-0.03530347 -0.008209463 -0.018219072 -0.007500628 -0.025599137 0.031815205 0.007977374 -0.027529836
-0.024503138 -0.018963516 0.027220186 -0.029867055 0.0018692315 0.0055600926 0.0019300096 -0.017718619
-0.02509141 0.029609267 0.01930337 0.028790254 0.016039755 0.008439764 0.031530146 0.03368188
-0.022957781 -0.002291046 -0.004670646 -0.021824578 0.01661095 0.020076703 0.02401473 0.021787155

encoder.0.fc_end.0.bias f4 [50]
00000000: 3294 b83c dcc4 9cbc 40c1 acba 5b22 033d
00000010: 9802 68bc 8055 63ba 36c3 e73c 10ee 2e3b
00000020: 33d5 033d 1e9f e0bc 1ed4 cebc 5ebd efbc
00000030: c0fd 5fba 9e28 0abd 6679 3dbc 4c51 9e3c
00000040: 9e94 ef3c 41a5 efbc 1090 0dbd 234b 0b3d
00000050: 7478 1e3c 6274 ee3c 902b c63c 0a16 1cbc
00000060: 9cc6 79bc 1587 fdbc 5492 763c 6886 683c
00000070: 2e9f 5dbc dace 863c 70bf b7bb 7267 eb3c
00000080: c32a a3bc dca9 24bc 0a87 5abc cee1 9ebc
00000090: 90aa 603b e3d8 82bc 4ee7 12bc 9034 37bb
000000a0: 2a0e bf3c 30ad cabb 90d7 b33b 6aa3 56bc
000000b0: 4e0b 0cbd 688a af3c 0a32 59bc 0c96 a53c
000000c0: 731d e9bc 1099 bc3b
0.022531603 -0.019136839 -0.0013180152 0.032015186 -0.014160775 -0.0008672103 0.028291326 0.002669219
0.032185744 -0.027419623 -0.02524763 -0.029265102 -0.00085445866 -0.03373014 -0.011564588 0.019325875
0.02924567 -0.029253604 -0.034561217 0.034007203 0.009672273 0.02910823 0.024190694 -0.009526739
-0.015245106 -0.030948201 0.015049536 0.014192201 -0.013526721 0.016456056 -0.005607538 0.02873585
-0.019917851 -0.010050263 -0.01333786 -0.019394781 0.003428135 -0.01597256 -0.00896628 -0.0027954914
0.023322184 -0.0061851963 0.0054883435 -0.013100484 -0.03419047 0.021428302 -0.013256559 0.02021315
-0.028456425 0.005755551

encoder.0.fc_end.1.weight f4 [50]
00000000: 0000 803f 0000 803f 0000 803f 0000 803f
00000010: 0000 803f 0000 803f 0000 803f 0000 803f
00000020: 0000 803f 0000 803f 0000 803f 0000 803f
00000030: 0000 803f 0000 803f 0000 803f 0000 803f
00000040: 0000 803f 0000 803f 0000 803f 0000 803f
00000050: 0000 803f 0000 803f 0000 803f 0000 803f
00000060: 0000 803f 0000 803f 0000 803f 0000 803f
00000070: 0000 803f 0000 803f 0000 803f 0000 803f
00000080: 0000 803f 0000 803f 0000 803f 0000 803f
00000090: 0000 803f 0000 803f 0000 803f 0000 803f
000000a0: 0000 803f 0000 803f 0000 803f 0000 803f
000000b0: 0000 803f 0000 803f 0000 803f 0000 803f
000000c0: 0000 803f 0000 803f
1.0 1.0 1.0 1.0 1.0 1.0 1.0 1.0
1.0 1.0 1.0 1.0 1.0 1.0 1.0 1.0
1.0 1.0 1.0 1.0 1.0 1.0 1.0 1.0
1.0 1.0 1.0 1.0 1.0 1.0 1.0 1.0
1.0 1.0 1.0 1.0 1.0 1.0 1.0 1.0
1.0 1.0 1.0 1.0 1.0 1.0 1.0 1.0
1.0 1.0

encoder.0.fc_end.1.bias f4 [50]
00000000: 0000 0000 0000 0000 0000 0000 0000 0000
00000010: 0000 0000 0000 0000 0000 0000 0000 0000
00000020: 0000 0000 0000 0000 0000 0000 0000 0000
00000030: 0000 0000 0000 0000 0000 0000 0000 0000
00000040: 0000 0000 0000 0000 0000 0000 0000 0000
00000050: 0000 0000 0000 0000 0000 0000 0000 0000
00000060: 0000 0000 0000 0000 0000 0000 0000 0000
00000070: 0000 0000 0000 0000 0000 0000 0000 0000
00000080: 0000 0000 0000 0000 0000 0000 0000 0000
00000090: 0000 0000 0000 0000 0000 0000 0000 0000
000000a0: 0000 0000 0000 0000 0000 0000 0000 0000
000000b0: 0000 0000 0000 0000 0000 0000 0000 0000
000000c0: 0000 0000 0000 0000
0.0 0.0 0.0 0.0 0.0 0.0 0.0 0.0
0.0 0.0 0.0 0.0 0.0 0.0 0.0 0.0
0.0 0.0 0.0 0.0 0.0 0.0 0.0 0.0
0.0 0.0 0.0 0.0 0.0 0.0 0.0 0.0
0.0 0.0 0.0 0.0 0.0 0.0 0.0 0.0
0.0 0.0 0.0 0.0 0.0 0.0 0.0 0.0
0.0 0.0

encoder.0.fc_end.1.running_mean f4 [50]
00000000: 0000 0000 0000 0000 0000 0000 0000 0000
00000010: 0000 0000 0000 0000 0000 0000 0000 0000
00000020: 0000 0000 0000 0000 0000 0000 0000 0000
00000030: 0000 0000 0000 0000 0000 0000 0000 0000
00000040: 0000 0000 0000 0000 0000 0000 0000 0000
00000050: 0000 0000 0000 0000 0000 0000 0000 0000
00000060: 0000 0000 0000 0000 0000 0000 0000 0000
00000070: 0000 0000 0000 0000 0000 0000 0000 0000
00000080: 0000 0000 0000 0000 0000 0000 0000 0000
00000090: 0000 0000 0000 0000 0000 0000 0000 0000
000000a0: 0000 0000 0000 0000 0000 0000 0000 0000
000000b0: 0000 0000 0000 0000 0000 0000 0000 0000
000000c0: 0000 0000 0000 0000
0.0 0.0 0.0 0.0 0.0 0.0 0.0 0.0
0.0 0.0 0.0 0.0 0.0 0.0 0.0 0.0
0.0 0.0 0.0 0.0 0.0 0.0 0.0 0.0
0.0 0.0 0.0 0.0 0.0 0.0 0.0 0.0
0.0 0.0 0.0 0.0 0.0 0.0 0.0 0.0
0.0 0.0 0.0 0.0 0.0 0.0 0.0 0.0
0.0 0.0

encoder.0.fc_end.1.running_var f4 [50]
00000000: 0000 803f 0000 803f 0000 803f 0000 803f
00000010: 0000 803f 0000 803f 0000 803f 0000 803f
00000020: 0000 803f 0000 803f 0000 803f 0000 803f
00000030: 0000 803f 0000 803f 0000 803f 0000 803f
00000040: 0000 803f 0000 803f 0000 803f 0000 803f
00000050: 0000 803f 0000 803f 0000 803f 0000 803f
00000060: 0000 803f 0000 803f 0000 803f 0000 803f
00000070: 0000 803f 0000 803f 0000 803f 0000 803f
00000080: 0000 803f 0000 803f 0000 803f 0000 803f
00000090: 0000 803f 0000 803f 0000 803f 0000 803f
000000a0: 0000 803f 0000 803f 0000 803f 0000 803f
000000b0: 0000 803f 0000 803f 0000 803f 0000 803f
000000c0: 0000 803f 0000 803f
1.0 1.0 1.0 1.0 1.0 1.0 1.0 1.0
1.0 1.0 1.0 1.0 1.0 1.0 1.0 1.0
1.0 1.0 1.0 1.0 1.0 1.0 1.0 1.0
1.0 1.0 1.0 1.0 1.0 1.0 1.0 1.0
1.0 1.0 1.0 1.0 1.0 1.0 1.0 1.0
1.0 1.0 1.0 1.0 1.0 1.0 1.0 1.0
1.0 1.0

encoder.1.fc.0.weight f4 [40, 50]
00000000: 59aa 0cbd 9baf 03bd 2c53 513e a1a5 cbbb
00000010: 7233 973c babc 6fbd 3e35 21bd e433 693c
00000020: c110 363e 1f78 2e3e e279 8ebe b867 4a3e
00000030: 0398 7cbc d81f 2c3e e1fc bc3d 46ea 923d
00000040: f9e5 41bc 708f 133e bc06 77bc a538 7ebe
00000050: 9037 c4bc b648 aebd d3c5 9fbd 288e a43c
00000060: 7608 4cbe 391c 29be 6bc8 f6bd 2724 c2bc
00000070: ee92 2fbc 5487 0fbe 83c8 d23d 3520 73bd
00000080: 6753 2bbd f6b7 f6bd a93f ab3d 735b d9bc
00000090: cd14 47bc 124e 17bd ce75 253e d65b 8cbe
000000a0: 0a84 ddbd 66f8 debd ede0 cdbc 5961 3abb
000000b0: b2b7 8c3c 4309 863d 649f 853c 66b1 c83d
000000c0: 53b0 91bd ea3e cf3c 3c31 de3c 6b61 9abb
000000d0: 9bf9 02be a3b7 073d 7dad 543e 5f7a d9bb
000000e0: 07c4 953e 830a d1bd e183 ed3c db1d ecbc
000000f0: 7470 3abd e91c bb3d df04 31bd b895 4ebd
00000100: 4b1d 98bd eda4 753c 49ce 253e 34c1 2dbd
00000110: 4d44 04be b4ef 21bc 0664 43be 6b61 b03b
00000120: e4e0 0b3d 2e8c dc3d 9929 873d db8f 97bd
00000130: d86a b13c 086a 83bc 057b b5bc f554 7a3c
00000140: a3a0 763d b8b1 57bc 39f8 463e af47 c53b
00000150: 5571 fbbd fcdf 8abd 37d8 d63d 1c92 493c
00000160: 27c1 e7bc ad73 41bd 87f1 a6bd e1f1 18bd
00000170: 8a79 50bc 07bb 8ebd dbb6 adbd 1793 0fbd
00000180: 5a01 823c d06c ac3e 4e42 0dbd 18f6 68bd
00000190: 284c 8cbd b8f1 983d 2f47 71bb 18f5 83bc
000001a0: 504a 393e ba1c 393d 3988 e63d 508b ed3d
000001b0: 12bf 7d3d 99e4 843d 3c0a 63bd 16dc 6a3d
000001c0: d8ae 0b3e 5911 f6bc 96fc 40bd b9de de3c
000001d0: 8ccf 2b3c 0188 f8bc c0a5 3ebd 393b 7b3b
000001e0: 2bc4 eabd cf34 c1bd 26db 06bc 0f39 f4bd
000001f0: cb64 aabd 3dff bdbc 9f41 2a3d 4eb8 13be
00000200: 87cd 9c3d c830 e73b 5e02 8abd ac7b abbd
00000210: 3761 453d ae43 453e 84e0 95bc 6b80 333e
00000220: 744d 123d 4365 c13c cf1e 8ebd 46d1 593c
00000230: a485 9eb9 de43 593e 99f3 13bd bd60 833d
00000240: 4451 9dbd 3290 703e a7fa b5bc 2f9c a53d
00000250: d0c8 903d fd9a 32bd db70 12be 9e7f 323d
00000260: a460 bcbd 5fc1 21be 53cb 4dbe 198f 88bd
00000270: 9463 4abd f8ec cabd bb3b c7bd beca c53c
00000280: bad9 b83c dff5 9abd 4ec6 37bd 1165 193e
00000290: 93c5 023d d069 a93e 3bd6 4bbd 8a8f ef3d
000002a0: 5b62 52bd 7471 933d 62bb 2f3e ed4f 033e
000002b0: 584f 383d e6df f43d 16e1 efbd fbb0 023e
000002c0: 6843 793d 2682 e6bd 8812 24bc 2759 88bd
000002d0: a4ac 0e3e eca4 ca3d 6165 cdbc a1f1 aabc
000002e0: 8ba9 8abd 060f be3d f609 623d 64ef e03c
000002f0: 1688 f2bc f82c 97bd da63 96bd b4ba 76bd
00000300: d19f 983d f872 f43c de92 903d 8220 863d
00000310: 366d fe3d ad4b 90bd f38e d03d c63b 56bd
00000320: cbb7 a83d e24c 1c3e 142d 413d 1283 14bd
00000330: 0a6b 56bd 56ab 313e a10f a8bd 19e1 afbd
00000340: a082 e8bd 42da f2bd 02da 853d 1950 dcbd
00000350: 03a4 1f3e cf46 66bd 5d90 4a3c ebef 4dbd
00000360: 528d 983c d345 243b 590d 0fbd c278 2b3d
00000370: cb66 873d f567 0fbe 0dd7 0abe 2a76 9f3d
00000380: 5593 9d3e 5050 f3bd ed9c cbbd b7fe 18bd
00000390: 51e7 383e 5e32 42bd 4230 fa3d 4ac2 273e
000003a0: 4235 90bd 61b9 3bbe 8eff cebd 010d a4be
000003b0: d1cc 43bd 3e2a 443c 4ce1 d7bd 1ced 73bc
000003c0: a8e1 e13c 2479 983b 3695 4c3d 5cf5 8fbd
000003d0: 6ee3 8cbd c247 823d daaa aabd 0e61 81bd
000003e0: 6480 b13d 8e12 5f3e 5e02 6fbd 053d 8fbc
000003f0: 5567 6ebe 8d50 fdbc 40a3 53bc d7cd efbd
-0.034342144 -0.032149892 0.20441884 -0.006214813 0.018457148 -0.058529593 -0.039357416 0.014233563
0.17779829 0.1703801 -0.27827364 0.19766128 -0.015417102 0.16809022 0.0922792 0.0717359
-0.011834615 0.14410186 -0.015077289 -0.24826296 -0.023952276 -0.08509962 -0.07801404 0.020087317
-0.19925103 -0.16514672 -0.120499454 -0.02369888 -0.010716183 -0.14016467 0.10292151 -0.059356887
-0.041827586 -0.120468065 0.083617516 -0.026532864 -0.012150955 -0.036939688 0.1615822 -0.27413815
-0.108162 -0.10887222 -0.025131667 -0.0028439371 0.017177437 0.06544735 0.016311355 0.09799461
-0.07113709 0.025298554 0.027123086 -0.00471132 -0.1279053 0.033134114 0.20769306 -0.006636902
0.2925112 -0.10207083 0.028993549 -0.02882283 -0.0455174 0.091363735 -0.043217536 -0.05043575
-0.07427462 0.014992935 0.16191973 -0.04242058 -0.1291668 -0.00988381 -0.19081125 0.005382707
0.03415002 0.10768925 0.06599731 -0.07400485 0.021657392 -0.01604177 -0.022153387 0.015279044
0.06021179 -0.01316493 0.19430627 0.0060205082 -0.12277476 -0.06781003 0.104904585 0.012302902
-0.028290344 -0.047229458 -0.081515364 -0.03734005 -0.01272429 -0.069692664 -0.084821425 -0.035052385
0.015869785 0.33676767 -0.03448706 -0.05687532 -0.06850463 0.07467979 -0.003681611 -0.01610808
0.18094754 0.04519341 0.11256451 0.115988374 0.061949797 0.06488914 -0.055429682 0.057338797
0.13640916 -0.030037569 -0.047115885 0.027205812 0.010486495 -0.03033829 -0.04654479 0.003833486
-0.11463197 -0.094339006 -0.00823096 -0.119249456 -0.08320006 -0.023192996 0.041566487 -0.14425775
0.07656389 0.0070553757 -0.06738733 -0.08373198 0.048188414 0.19264099 -0.018295534 0.17529456
0.035718396 0.023607856 -0.0693947 0.013294524 -0.00030235678 0.21217296 -0.036120985 0.06414936
-0.07681516 0.23492506 -0.022214247 0.0808643 0.07069552 -0.04360484 -0.14300863 0.043578736
-0.0919812 -0.15796421 -0.20097093 -0.06667919 -0.04941137 -0.099084795 -0.097281896 0.024144527
0.022564758 -0.075664274 -0.044866852 0.1497996 0.031926703 0.3308854 -0.049764853 0.116973
-0.05136333 0.07199374 0.17161325 0.12823458 0.044997543 0.11956768 -0.117128536 0.12762825
0.0608553 -0.112552926 -0.010014184 -0.066576295 0.13933045 0.098947376 -0.025072755 -0.02086717
-0.06770619 0.09280209 0.05518528 0.0274579 -0.029605906 -0.07381624 -0.07343264 -0.060236648
0.074523576 0.029839978 0.07059263 0.06549169 0.12423174 -0.07045684 0.101835154 -0.0523031
0.08238181 0.15263703 0.04716213 -0.03625781 -0.052348174 0.17350516 -0.08206106 -0.08587856
-0.1135304 -0.118580356 0.06535722 -0.10757465 0.1558991 -0.056219872 0.01236352 -0.05027763
0.018622074 0.0025066033 -0.03492484 0.04186321 0.06611403 -0.140045 -0.13558598 0.0778621
0.30776468 -0.11880553 -0.099420406 -0.03735229 0.1805699 -0.047411315 0.12216236 0.16382709
-0.07041408 -0.18332435 -0.10107337 -0.3204117 -0.04780275 0.011972962 -0.10541019 -0.014888074
0.027573422 0.004653113 0.049946986 -0.070292205 -0.06879316 0.06361343 -0.083333686 -0.0631734
0.08667067 0.21784422 -0.058351867 -0.017485151 -0.23281606 -0.030922199 -0.01291734 -0.11709183

encoder.1.fc.0.bias f4 [40]
00000000: b19b a73c 656e 033d 4976 03be 444d 0f3e
00000010: c510 b939 f951 be3c cd24 683d 46f3 f5bd
00000020: 194c 4f3d 4d64 b03d c4e3 ffbc f515 d23d
00000030: 084f cfbd 986e 513e 190d 64bd c0e1 f6bd
00000040: 7b82 ae3d faee 0a3b b983 38be 00a5 6e3d
00000050: 3724 a9bd 5f5e 0dbe ecb2 e0bc 9ab5 f73c
00000060: b0c2 36bd 4801 68be c6b1 9e3d 0bad 663d
00000070: 81c4 023e 3fc3 1f3e 10ed ef3c aab8 72bd
00000080: 1c3e a83d 3395 21bd a473 473e b5db 24be
00000090: dc3a 7b3d 89d1 36bd 4bf5 103e e576 493e
0.020459982 0.032087702 -0.12838091 0.13994318 0.00035298444 0.023232447 0.05667572 -0.12009291
0.05060968 0.08612881 -0.031236537 0.10258094 -0.10122496 0.20452344 -0.055676553 -0.12054777
0.08520981 0.002119957 -0.18018998 0.058262825 -0.082588606 -0.13805531 -0.027429067 0.030237962
-0.044619262 -0.22656739 0.07748751 0.05631737 0.12770273 0.15601824 0.029287845 -0.05925814
0.082149714 -0.039448928 0.19477707 -0.16099437 0.06133543 -0.044633422 0.14156072 0.19674261

encoder.1.fc.1.weight f4 [40]
00000000: 2b61 823f 78a5 6d3f 3362 753f 7d3d 773f
00000010: d694 613f 9063 773f b122 7f3f d84b 733f
00000020: 6e0f 803f 1de1 6a3f 3b3c 873f 25ca 543f
00000030: 20a6 6e3f 090f 873f 4159 623f 25e6 7b3f
00000040: 55a6 723f 4e52 623f 30fa 763f b6fc 6f3f
00000050: ab56 643f fd55 843f f971 783f e6c5 793f
00000060: 3800 893f 3b23 833f 5c4b 803f 8768 8e3f
00000070: bcd9 7d3f f62d 753f 9636 663f cf5f 883f
00000080: b272 763f 08f0 773f d0fc 5c3f 978b 783f
00000090: 7e2b 723f 67f1 713f be39 6b3f 80b5 663f
1.0185903 0.9283061 0.95852965 0.965782 0.8811773 0.96636295 0.9966231 0.95037603
1.0004709 0.91749746 1.0565256 0.8312095 0.93222237 1.0551463 0.8841744 0.9839805
0.9478505 0.88406837 0.96475506 0.9374498 0.89194745 1.0338742 0.9704891 0.97567594
1.0703192 1.0245126 1.0022998 1.1125649 0.9916036 0.95773256 0.8992704 1.0654238
0.9626876 0.96850634 0.8632326 0.97088 0.94597614 0.94508976 0.9188498 0.901207

encoder.1.fc.1.bias f4 [40]
00000000: 9b3f c13e 24b1 f9be 5ac6 9f3e 6393 a73e
00000010: fabf 2c3f ce94 893e e2ab 08bb dbb2 9b3e
00000020: 08d7 b1bd 0fbc 833e 5f6d 3a3e 74db 573e
00000030: b5d7 1e3f 0107 8d3e bc87 1d3f ea5d 573e
00000040: 2aa3 d1bc 6115 763e 8150 2cbe 03ef 913e
00000050: 652d b43e 8d61 893e a90c c73d 5e98 de3e
00000060: 6dc7 83be 072d e03e 8672 273e 92bd 8dbd
00000070: a2b3 9f3e bb08 923e 304e d4be 1bc8 1d3e
00000080: b496 be3d e7ea 8b3e eeb2 063f f11d d03e
00000090: de8a ca3e 9dfd 5abb 2b0d fe3e 69d4 473e
0.3774384 -0.4876796 0.31206018 0.32729635 0.67480433 0.2687134 -0.0020854403 0.30409893
-0.08683592 0.25729415 0.18205784 0.21079808 0.6204789 0.27544406 0.6153524 0.21031919
-0.025590498 0.24031593 -0.16827585 0.28502664 0.35190883 0.26832238 0.097192116 0.43475622
-0.25738087 0.43784353 0.16352281 -0.06920923 0.31191736 0.28522286 -0.41465902 0.15408365
0.09306088 0.27327654 0.52616775 0.40647843 0.39559072 -0.0033415325 0.4961942 0.19514622

encoder.1.fc.1.running_mean f4 [40]
00000000: 8a24 14bf 99d8 d6bd ac5d 8d3e 1e65 a23e
00000010: 89c3 053d b065 14be c374 6a3e f90a 26be
00000020: a8a1 0a3f 77e1 1b3f ef73 a23e 7218 8abe
00000030: 376c cd3e b524 c03e b439 513f ffba 13be
00000040: 7a5f 333e d040 283e 670c f9be cf0f 78bc
00000050: 0c75 93be 85c1 fbbe a1cd ddbe 3c53 473e
00000060: 5cd0 a53e 7bc9 a1be a17e 5c3d ead4 903c
00000070: 2e10 8c3e 79e8 ad3d d550 e23d 57c2 23bb
00000080: 23c8 c83e 87f3 193d 7211 733f 75c4 103e
00000090: 2e7e de3e e28b 56be ff14 0a3e 8a75 25be
-0.57868254 -0.104905315 0.27610528 0.3171777 0.03265718 -0.14491916 0.22896104 -0.16215123
0.5415292 0.6089091 0.31729075 -0.26971775 0.40121624 0.37528005 0.81728673 -0.14426802
0.1751689 0.16430974 -0.48642275 -0.015140488 -0.28800237 -0.4917108 -0.43320945 0.19465345
0.32385528 -0.3159903 0.0538317 0.01767965 0.27356094 0.08491606 0.11050574 -0.0024987662
0.39215192 0.03758576 0.94948494 0.14137442 0.43455642 -0.20951799 0.13484572 -0.16158119

encoder.1.fc.1.running_var f4 [40]
00000000: 9424 2b3f 3f4b bf3e f380 933e 97bf 223f
00000010: e5cd 883f a1a3 eb3e c5a4 043f 6d21 083f
00000020: 7d2e e93e 2ed5 153f 820d ee3e 49e3 aa3e
00000030: cf0e 043f 3956 133f a8d6 173f ab99 cf3e
00000040: 5d62 f33e 8652 143f 73d3 853e 2e3d cb3e
00000050: f9b0 0e3f cc0c 1f3f 4ffa 093f 5586 043f
00000060: 137e 113f c2e2 db3e e30a 093f 81ae 173f
00000070: 2551 073f 67a3 e93e 2dc1 443e 7a28 f83e
00000080: 7747 fe3e 6ca4 3a3f 8490 1a3f a109 6d3f
00000090: b5c8 0d3f 3aa6 153f a193 4c3f ee8f bb3e
0.6685269 0.37362096 0.28809318 0.6357359 1.0687834 0.46023276 0.5181392 0.53176004
0.4554328 0.5852841 0.4649468 0.3337653 0.51585096 0.5755344 0.59311914 0.40546927
0.47535983 0.5793842 0.26137885 0.39695114 0.5573879 0.621289 0.53897566 0.51767474
0.56833 0.4294644 0.53532237 0.59250647 0.5285819 0.4563248 0.19214316 0.4846838
0.49663898 0.7290714 0.60376763 0.9259282 0.5538438 0.58456767 0.79912764 0.36633247

encoder.1.fc_end.0.weight f4 [40, 50]
00000000: cd84 c5bd ec4a b63d 044f ffbc 6f24 99bd
00000010: 78fd 853c db6b fdbd beed 51bd d628 d5bd
00000020: a882 b93d 3087 293c 9048 52bc 9005 0d3d
00000030: 00c6 a1b9 1023 743d c0ee be3d 03e7 8dbd
00000040: 74e3 1abd 2840 5dbd c451 753d 3837 38bd
00000050: e8ab 7a3d 4f3c 8abd 26ce 8dbd fe5d 5fbd
00000060: c116 0ebe d027 b53d 1ef5 f13d ae81 b5bd
00000070: 0011 ed3a 5327 b7bd 0341 06be 3805 bb3d
00000080: b911 0abe 4883 d13d bcf5 c73d 601d 8c3c
00000090: e62f ca3d ab19 0c3e 40bc 933d fa1a ec3d
000000a0: f09a df3c d653 b1bd e4a9 663d 5fea 0a3e
000000b0: 13a2 0bbe 3820 933c 1a5e 983d 784c acbc
000000c0: 8490 9dbc a8ca b4bc fed4 a63d 6c22 813d
000000d0: dcda 3a3d 2e9e b83d a284 843d b0d0 31bc
000000e0: d090 eb3c f433 613d 3e53 b0bd bcbd aa3d
000000f0: c24b eebd b077 bebc a22c e53d 52bb d0bd
00000100: 8296 fa3d 82eb ddbd c82c 8f3d 2c73 b5bd
00000110: c00e b0bb 9e9a e03d 6099 143d fbb6 97bd
00000120: dcef 47bd e618 dd3d 2cf4 f4bc f86a ea3c
00000130: 8c65 b1bd 89f8 043e c06b 503d 209a a33d
00000140: 085d 5c3d ee69 913d b467 59bd 6835 353d
00000150: 60d0 31bd 001e a13d e8d8 b03d 4069 a83d
00000160: 70fd cabd f0ef 9dbc f253 ad3d 38d3 09bd
00000170: 787d a6bc 3881 e9bc e0be d8bd 0af2 b4bd
00000180: 81bc 0d3e 4b42 09be f05f 8fbc 74a9 843d
00000190: bc99 1bbd d222 78bd 3c82 b53d c7b1 8bbd
000001a0: 1a79 22bd c03f dc3c 7e9b ca3d d404 743d
000001b0: c8c9 f3bc 28c8 683d 8024 67bb 2cd0 65bd
000001c0: 0030 f1ba 889f 12bd 3c69 4fbd 2f7e a3bd
000001d0: a861 bc3d 20eb f3bc c0da 3fbb 004f 44bc
000001e0: 00f2 13ba 708a 523c 62e1 dabd 0938 9cbd
000001f0: 82e9 a1bd e2a5 f3bd 5f3b 0fbe 6ac6 27bd
00000200: 0ea6 d53d f031 78bc 7870 2c3d e37b 063e
00000210: b528 87bd f242 f03d 30a3 cbbd b9dc b9bd
00000220: 4584 0e3e 4f5d c6bd e01c 1e3c 281d c53d
00000230: 6898 24bd 308b 77bc 48b0 f73c dd72 9dbd
00000240: 14b8 bc3d a070 9abb 0876 133d 0486 debc
00000250: 6e26 7fbd 18d6 9d3c 4232 81bd 1dbb 003e
00000260: c28f e1bd 3874 143d 082b a13d 04d5 98bd
00000270: 6ca5 cc3d 308c 3c3c d2b0 ef3d 8031 b73d
00000280: e0ca 6cbc 4fd5 81bd deb1 f83d 94f1 1abd
00000290: 3cf3 823d 44d5 163d f0dc 393d 5093 543c
000002a0: 95ee 93bd c637 a43d b066 db3d f875 6a3d
000002b0: 7cbe 2bbd 3327 10be b277 ec3d 2814 9bbc
000002c0: 8e3a 85bd 7095 c0bc e372 083e 156a 0abe
000002d0: 202e 583d e865 163d f26f 943d 8e1e ae3d
000002e0: 6243 b5bd 309a 1b3d ca22 ae3d 6c8d 1c3d
000002f0: aac1 0dbe 987f 7c3d a07e cb3b 70ae db3c
00000300: fa5d f23d f7cc 0e3e e812 173d 6012 e5bd
00000310: 7a79 2ebd 405e 82bd 00ab bcba 4c40 2abd
00000320: 667d cebd 1895 443d 2c89 b4bc 3e3e ef3d
00000330: 7c32 de3d 00e8 693b e626 e93d 7033 043d
00000340: 0c5d 9dbc e8cd 2a3d 5cb9 97bd bc11 b33d
00000350: a8e3 633d 78d7 07be a0b7 073d 047d 723d
00000360: ef8e 003e 608b b33d 0880 203d 21f1 febd
00000370: 0ae3 9b3d 348a 523d 34af 6e3d 38ff f23c
00000380: 3064 1a3c f8bf d2bc 8225 48bd 9667 cd3d
00000390: 6829 973c 6371 0bbe a292 a3bd bcd8 243d
000003a0: 1c72 f5bc 0467 9ebc a874 633d 7d88 02be
000003b0: bcbd b3bc 35e8 093e 3c97 c1bd 40fb b2bc
000003c0: 886e e4bd 4d74 003e 78fb fcbd 8018 b63d
000003d0: 2019 02be c741 023e def9 d23d cec8 e33d
000003e0: e013 03be aadf bf3d 40fa 773d 6a64 12bd
000003f0: be0e 903d 3021 6a3c 9ed0 0bbd a0da d3bd
-0.0964447 0.08901009 -0.031165607 -0.07477652 0.016356215 -0.123740874 -0.05125212 -0.104081795
0.09058124 0.010347173 -0.012834683 0.034429133 -0.00030855834 0.05960375 0.09322882 -0.069288276
-0.037814572 -0.054016262 0.05989243 -0.044974536 0.0611991 -0.06749784 -0.06924085 -0.054532997
-0.13875867 0.08845484 0.118143305 -0.08862625 0.0018086731 -0.089430474 -0.13110738 0.09131855
-0.13483323 0.10230118 0.09763667 0.01710385 0.09872417 0.13681667 0.0721364 0.11528583
0.02729556 -0.086585686 0.056314364 0.13565968 -0.13636045 0.017959699 0.074398234 -0.021032557
-0.01923395 -0.02206929 0.08146094 0.063053936 0.045618877 0.090145454 0.0647061 -0.010852978
0.028755575 0.054981187 -0.08609627 0.0833697 -0.116355434 -0.02325043 0.11190154 -0.101919785
0.12235738 -0.10835935 0.06990963 -0.08859858 -0.005372852 0.10966991 0.036279082 -0.07407948
-0.048812732 0.107957646 -0.029901586 0.02861546 -0.08661947 0.12985434 0.05088401 0.079883814
0.05379966 0.071002826 -0.053077415 0.044240385 -0.043411613 0.0786705 0.086351216 0.082232
-0.099116206 -0.01927945 0.08463277 -0.0336487 -0.0203235 -0.028504 -0.105832815 -0.08835228
0.1384144 -0.13404195 -0.017501801 0.06477633 -0.03798841 -0.060580082 0.08862731 -0.06821018
-0.039666273 0.026885867 0.09892939 0.059574917 -0.029759303 0.05683151 -0.0035269558 -0.05610673
-0.0018401146 -0.035796672 -0.05063747 -0.07983052 0.09198314 -0.029775202 -0.0029274672 -0.011981726
-0.0005643666 0.012850389 -0.106875196 -0.07627875 -0.07905866 -0.11896874 -0.13987492 -0.040960707
0.10432063 -0.015148625 0.042099446 0.13133197 -0.06599561 0.11731519 -0.09943235 -0.09075303
0.13917644 -0.09685766 0.009650439 0.09624702 -0.04018441 -0.0151088685 0.030235425 -0.07687924
0.092147976 -0.004713133 0.036001235 -0.027163513 -0.06229251 0.019267127 -0.06308414 0.12571378
-0.11013748 0.036243647 0.07869536 -0.074625045 0.09992489 0.011508033 0.11703648 0.08944988
-0.014452666 -0.063395135 0.121433005 -0.037828043 0.063940495 0.03682448 0.045376718 0.012974575
-0.0722324 0.080184504 0.107129455 0.05724141 -0.041929707 -0.14077453 0.115462676 -0.01893051
-0.06505309 -0.023508757 0.13325076 -0.1351703 0.052778363 0.03671828 0.072479144 0.085019216
-0.08850743 0.03798884 0.08502729 0.038220808 -0.13843408 0.06164512 0.0062101632 0.026816577
0.11834331 0.13945375 0.036883265 -0.111851454 -0.042596318 -0.06365633 -0.0014394224 -0.041565225
-0.100825116 0.04799375 -0.022038065 0.11681794 0.10849473 0.0035691261 0.113843724 0.032275617
-0.019209407 0.041700274 -0.07408401 0.08743617 0.05563703 -0.13265789 0.033134103 0.059201255
0.12554525 0.08766818 0.0391846 -0.124483354 0.07611664 0.051401332 0.058272555 0.029662713
0.009423301 -0.025726303 -0.048863895 0.10029523 0.018452361 -0.13617472 -0.07986952 0.040245757
-0.029961638 -0.019336231 0.055531174 -0.12747379 -0.021941058 0.13467486 -0.09452674 -0.021848321
-0.11153895 0.12544365 -0.12352651 0.08891392 -0.12704897 0.12720405 0.10301565 0.11122285
-0.1280055 0.093688324 0.06054139 -0.035740294 0.07034062 0.014290139 -0.0341345 -0.10344434

encoder.1.fc_end.0.bias f4 [40]
00000000: 1c83 2f3d 91c9 d2bd 4c8d b0bd 60b7 603c
00000010: b0c1 32bc d4d9 8a3d 1011 873d 6a60 883d
00000020: 9443 953d 8d7b 063e 8058 7bbb 62ed d1bd
00000030: af03 01be b085 f93c ac31 a8bd ea50 b7bd
00000040: 3c4c 2d3d 801d fa3b 494e 9abd a058 133c
00000050: 7a31 8e3d 88ef ba3c e42c a13d d53b 0d3e
00000060: 4e70 dd3d 4ecb 46bd 3cdb 623d f0ec a0bd
00000070: 181c 00be a6f7 49bd f06f 7f3d 50bf 453d
00000080: aa43 55bd e024 ecbd 1089 183c ffb6 013e
00000090: 306d 983c 40a5 53bb 7eaa fc3d f8d4 c0bc
0.042849645 -0.10292352 -0.086207 0.013715595 -0.0109104365 0.06779829 0.06595051 0.066590145
0.0728828 0.13133068 -0.003835231 -0.10250355 -0.12599061 0.030459255 -0.08212599 -0.0895098
0.04230903 0.007632911 -0.07534463 0.008993298 0.06943031 0.022819296 0.0786989 0.13792355
0.10812436 -0.04853373 0.05538486 -0.07857692 -0.12510717 -0.04930844 0.06236261 0.048278153
-0.052066483 -0.11530471 0.009310022 0.12667464 0.018606752 -0.0032294542 0.12337206 -0.023539051

encoder.1.fc_end.1.weight f4 [40]
00000000: 0000 803f 0000 803f 0000 803f 0000 803f
00000010: 0000 803f 0000 803f 0000 803f 0000 803f
00000020: 0000 803f 0000 803f 0000 803f 0000 803f
00000030: 0000 803f 0000 803f 0000 803f 0000 803f
00000040: 0000 803f 0000 803f 0000 803f 0000 803f
00000050: 0000 803f 0000 803f 0000 803f 0000 803f
00000060: 0000 803f 0000 803f 0000 803f 0000 803f
00000070: 0000 803f 0000 803f 0000 803f 0000 803f
00000080: 0000 803f 0000 803f 0000 803f 0000 803f
00000090: 0000 803f 0000 803f 0000 803f 0000 803f
1.0 1.0 1.0 1.0 1.0 1.0 1.0 1.0
1.0 1.0 1.0 1.0 1.0 1.0 1.0 1.0
1.0 1.0 1.0 1.0 1.0 1.0 1.0 1.0
1.0 1.0 1.0 1.0 1.0 1.0 1.0 1.0
1.0 1.0 1.0 1.0 1.0 1.0 1.0 1.0

encoder.1.fc_end.1.bias f4 [40]
00000000: 0000 0000 0000 0000 0000 0000 0000 0000
00000010: 0000 0000 0000 0000 0000 0000 0000 0000
00000020: 0000 0000 0000 0000 0000 0000 0000 0000
00000030: 0000 0000 0000 0000 0000 0000 0000 0000
00000040: 0000 0000 0000 0000 0000 0000 0000 0000
00000050: 0000 0000 0000 0000 0000 0000 0000 0000
00000060: 0000 0000 0000 0000 0000 0000 0000 0000
00000070: 0000 0000 0000 0000 0000 0000 0000 0000
00000080: 0000 0000 0000 0000 0000 0000 0000 0000
00000090: 0000 0000 0000 0000 0000 0000 0000 0000
0.0 0.0 0.0 0.0 0.0 0.0 0.0 0.0
0.0 0.0 0.0 0.0 0.0 0.0 0.0 0.0
0.0 0.0 0.0 0.0 0.0 0.0 0.0 0.0
0.0 0.0 0.0 0.0 0.0 0.0 0.0 0.0
0.0 0.0 0.0 0.0 0.0 0.0 0.0 0.0

encoder.1.fc_end.1.running_mean f4 [40]
00000000: 0000 0000 0000 0000 0000 0000 0000 0000
00000010: 0000 0000 0000 0000 0000 0000 0000 0000
00000020: 0000 0000 0000 0000 0000 0000 0000 0000
00000030: 0000 0000 0000 0000 0000 0000 0000 0000
00000040: 0000 0000 0000 0000 0000 0000 0000 0000
00000050: 0000 0000 0000 0000 0000 0000 0000 0000
00000060: 0000 0000 0000 0000 0000 0000 0000 0000
00000070: 0000 0000 0000 0000 0000 0000 0000 0000
00000080: 0000 0000 0000 0000 0000 0000 0000 0000
00000090: 0000 0000 0000 0000 0000 0000 0000 0000
0.0 0.0 0.0 0.0 0.0 0.0 0.0 0.0
0.0 0.0 0.0 0.0 0.0 0.0 0.0 0.0
0.0 0.0 0.0 0.0 0.0 0.0 0.0 0.0
0.0 0.0 0.0 0.0 0.0 0.0 0.0 0.0
0.0 0.0 0.0 0.0 0.0 0.0 0.0 0.0

encoder.1.fc_end.1.running_var f4 [40]
00000000: 0000 803f 0000 803f 0000 803f 0000 803f
00000010: 0000 803f 0000 803f 0000 803f 0000 803f
00000020: 0000 803f 0000 803f 0000 803f 0000 803f
00000030: 0000 803f 0000 803f 0000 803f 0000 803f
00000040: 0000 803f 0000 803f 0000 803f 0000 803f
00000050: 0000 803f 0000 803f 0000 803f 0000 803f
00000060: 0000 803f 0000 803f 0000 803f 0000 803f
00000070: 0000 803f 0000 803f 0000 803f 0000 803f
00000080: 0000 803f 0000 803f 0000 803f 0000 803f
00000090: 0000 803f 0000 803f 0000 803f 0000 803f
1.0 1.0 1.0 1.0 1.0 1.0 1.0 1.0
1.0 1.0 1.0 1.0 1.0 1.0 1.0 1.0
1.0 1.0 1.0 1.0 1.0 1.0 1.0 1.0
1.0 1.0 1.0 1.0 1.0 1.0 1.0 1.0
1.0 1.0 1.0 1.0 1.0 1.0 1.0 1.0
