AutoEncoders/VAE_CL/saved_model/nocon_model.pth (torch, 682744 bytes, 15 tensors)

encoder.0.fc.0.weight f4 [100, 784]
0	0x3cdc9082	0.026924375
1	0xbbed4944	-0.0072414
2	0x3ad1847e	0.001598492
3	0x3ccf231a	0.025285292
4	0xbccd9fd9	-0.025100635
5	0x3cf545f8	0.02994059
6	0x3a99fb3b	0.0011747846
7	0x3cdaa838	0.026691541
8	0x3c5cf896	0.013487002
9	0x3b87f53f	0.0041491087
10	0x3c96f605	0.018427858
11	0x3c287e10	0.010283962
12	0x3cb0ab24	0.021565981
13	0xbbb0cf1a	-0.005395782
14	0x3bc1edb6	0.00591823
15	0x3bade51c	0.005306853
16	0x3c60706e	0.01369868
17	0x3c0949ed	0.008379442
18	0x3d22c8e3	0.03974236
19	0x3ca0dbc8	0.01963605
20	0xbb9c91b5	-0.004778112
21	0xbc55c700	-0.013047934
22	0x3b26305c	0.0025358414
23	0xbbe18a14	-0.0068829153
24	0xbb3f8708	-0.0029224772
25	0x3c27a4d4	0.010232169
26	0x3cf4391e	0.029812392
27	0x3ce4d624	0.027934141
28	0xbcd830ba	-0.026390422
29	0x3cfb2f28	0.030662134
30	0x3c978c09	0.018499391
31	0x3d2daaaf	0.042399105
32	0x3d0376c1	0.032095674
33	0xbcc4c27d	-0.02401852
34	0xbcd05dc1	-0.02543533
35	0xbc0e9b62	-0.008704038
36	0x3d235ca1	0.03988326
37	0x3b28a37c	0.002573221
38	0x3cc3059a	0.023806382
39	0xbc044bdc	-0.008074727
40	0x3d3271df	0.043565627
41	0xbbd7e4c2	-0.0065885494
42	0x3d109c22	0.03530515
43	0x3c128e2c	0.008945029
44	0xbc28a320	-0.010292798
45	0x3cdc3302	0.026879791
46	0xbc2afab6	-0.010435751
47	0x3c9bdc1b	0.019025853
48	0xbaeab3f9	-0.0017906419
49	0x3b96f2f7	0.0046066004
50	0xbcd3762a	-0.025813181
51	0xbc0b5bf4	-0.00850581
52	0x3ce49288	0.027901903
53	0xb926f2e2	-0.00015921475
54	0x3d349d4b	0.04409532
55	0x3d182ae6	0.037150286
56	0x3be074a7	0.0068498435
57	0xbc7af25a	-0.01531657
58	0x3cf7fa66	0.030270766
59	0x3ca09d64	0.0196063
60	0xbc6e9f21	-0.0145643065
61	0x3d01ecf8	0.03172013
62	0x3cf76f0e	0.030204322
63	0x3d24a58d	0.040196944
64	0xbc3c6196	-0.011497876
65	0x3b2d3bb4	0.002643329
66	0x3c038cfe	0.008029221
67	0x3c6633c1	0.014050425
68	0xbc9775a1	-0.018488707
69	0xbc89633e	-0.016770955
70	0x3ce563b5	0.028001646
71	0x392bfb00	0.00016401336
72	0x3cd493b9	0.025949346
73	0x3c2c773f	0.010526477
74	0x3ca5b7c6	0.020229232
75	0x3c862573	0.016375279
76	0x3cb03126	0.02150781
77	0x3cd6d80e	0.02622607
78	0xbcc9240b	-0.02455332
79	0x3cd91456	0.026498955
80	0xbc87e68e	-0.01658943
81	0xbc96ef42	-0.018424634
82	0x3c2f361c	0.010694053
83	0x3b1fa7b4	0.0024361433
84	0x3cf1a5bc	0.029497974
85	0xbc474033	-0.012161302
86	0xbcbe470e	-0.02322724
87	0x3d0d5e66	0.034513853
88	0x3b5370ee	0.0032263356
89	0x3cea5f42	0.028609876
90	0x3ca3ded0	0.020003706
91	0xbc959434	-0.018259145
92	0x3c80971a	0.01569705
93	0x3c8c45db	0.017123153
94	0xbc7a1a61	-0.015265078
95	0xbc04a0f3	-0.008095014
96	0x3cae3d91	0.021269592
97	0x3c7e0bbc	0.015505727
98	0xbbc099d0	-0.005877711
99	0xbacd8cda	-0.0015682236
100	0x3d2b1c86	0.04177525
101	0x3b197a74	0.0023418935
102	0x3cec3782	0.028835062
103	0x3cc4d600	0.024027824
104	0xbc6df000	-0.0145225525
105	0xbcb2e889	-0.021839397
106	0x3d2f531b	0.042803865
107	0x3c2a2e38	0.010386996
108	0x3d072de7	0.03300276
109	0x3c827172	0.015923236
110	0x3ca3e92a	0.020008642
111	0x3d102d0c	0.03519921
112	0x3d2d9deb	0.04238693
113	0xbc78a9d2	-0.015177207
114	0x3c54c93a	0.012987429
115	0x3d1012c9	0.035174165
116	0x3d0ce190	0.0343948
117	0x3d028634	0.031866267
118	0xbc849a2f	-0.016186802
119	0xbc8463b9	-0.016160833
120	0xbc44fc59	-0.012023055
121	0x3c703da6	0.014663136
122	0x3d4581f6	0.048219644
123	0xbcaf3cc0	-0.021391273
124	0x3c8ebd35	0.017424205
125	0xbcb58b71	-0.022161217
126	0xbd172ac6	-0.036906026
127	0xbc3aa095	-0.011390825
128	0x3c8dbe82	0.017302755
129	0x3d1dbc3f	0.038509604
130	0xbc3dfdbc	-0.0115961395
131	0x3c8e75b6	0.017390113
132	0x3d24efc1	0.04026771
133	0x3cae805a	0.021301437
134	0x3d03fd46	0.032223962
135	0x3d0b05c5	0.03394105
136	0x3cfede92	0.03111199
137	0x3c91621d	0.01774698
138	0xbc8240c9	-0.015900033
139	0xbcafe04e	-0.021469261
140	0xbc007f8e	-0.007842911
141	0x3b8efa47	0.0043633315
142	0xbc5b09ce	-0.013369037
143	0x3cb0d9fc	0.021588318
144	0x3ca19c50	0.019727856
145	0x3af92c78	0.0019010445
146	0x3cc32adf	0.023824153
147	0x3cad7e79	0.02117847
148	0x3d050a7d	0.032480706
149	0x3d16ca65	0.036814112
150	0xbc34e687	-0.01104129
151	0x3d07e093	0.033173155
152	0xbbdf9ed8	-0.0068243556
153	0xbb8c1576	-0.0042750193
154	0xbd1a5f12	-0.037688322
155	0xbcdf6d7b	-0.027273884
156	0xbccdc930	-0.025120348
157	0xbc9a560e	-0.018839862
158	0x3ccb1bfa	0.024793614
159	0xbc2e181d	-0.010625866
160	0xbc8fb493	-0.01754216
161	0x3cb6067c	0.022219889
162	0x3cb3b558	0.021937057
163	0x3d040a72	0.032236524
164	0xbc229c9a	-0.009925032
165	0x3c853f3b	0.016265502
166	0xbb92ca6f	-0.0044796984
167	0x3a028d93	0.00049802026
168	0xbca357a7	-0.019939257
169	0xbbfe1e34	-0.0077550653
170	0xbb1e5014	-0.0024156617
171	0x3cc2ed54	0.023794807
172	0x3c8139ff	0.015774725
173	0x3c97e1c9	0.01854028
174	0x3d3852a9	0.045000706
175	0x3d36e73c	0.044654116
176	0x3d1fc76c	0.039008543
177	0x3b1a94f3	0.0023587316
178	0xbcdc9069	-0.026924329
179	0x3ccba1a9	0.024857359
180	0xbc3fed11	-0.011714236
181	0xbbc1821b	-0.0059054024
182	0xbd0ca907	-0.034340885
183	0xbc3bda0a	-0.011465559
184	0xbce3cb7d	-0.027806992
185	0x3ce6c5da	0.028170515
186	0xbd10ed81	-0.03538275
187	0xbd0421c2	-0.032258756
188	0xbbae73a1	-0.0053238426
189	0xbca1dabe	-0.019757625
190	0x3cbcf379	0.023065316
191	0xbb95155f	-0.004549667
192	0xbc03f727	-0.008054531
193	0x3c2ea922	0.010660442
194	0x3d0d2fcc	0.03446941
195	0xbc87fd10	-0.016600162
196	0x3ccf34e0	0.025293767
197	0x3d00e2f5	0.031466443
198	0x3d32127a	0.043474652
199	0xbc8673e5	-0.016412685
200	0x3c8ee552	0.017443333
201	0xbc8fcf85	-0.017555008
202	0x3d20b58e	0.039235644
203	0xbb51f420	-0.003203638
204	0x3ca17e8c	0.019713663
205	0xbb40a6e7	-0.0029396357
206	0xbbfc686a	-0.007702877
207	0xbbbbae88	-0.005727593
208	0x3aa0bef6	0.0012263942
209	0x3c461cf3	0.012091863
210	0x3ad27742	0.001605727
211	0x3bd89781	0.0066098575
212	0xbd144507	-0.036198642
213	0x3cb32784	0.021869428
214	0x3cdadb2f	0.026715843
215	0x3ccbbf6a	0.024871547
216	0x3cb41188	0.021981016
217	0xbcee4937	-0.029087646
218	0xbb254260	-0.0025216565
219	0x3d25c53f	0.04047131
220	0xbc943035	-0.018089393
221	0x3d28b9aa	0.041192688
222	0xbc9fd6d0	-0.01951161
223	0xbc8846d2	-0.016635332
224	0x3cd4d84c	0.025982045
225	0xbc8bd1f8	-0.017067894
226	0x3a36e9fe	0.00069776166
227	0x3d101cf3	0.035183858
228	0x3d24bd9f	0.0402199
229	0x3d0b2e81	0.033979896
230	0xbc05c9aa	-0.008165756
231	0xbd160d6e	-0.0366339
232	0x3ca97c21	0.020689072
233	0xbc8cae9f	-0.01717311
234	0xbc9e7546	-0.01934303
235	0x3b826f07	0.0039805206
236	0xbcf27c1b	-0.029600194
237	0x3c9f2986	0.01942898
238	0x3c9f0c80	0.01941514
239	0xbcf93139	-0.030418979
240	0xbcfc5c7c	-0.030805819
241	0xbbd327cc	-0.006443953
242	0x3c2ecae8	0.010668494
243	0xbbd04094	-0.0063553546
244	0xbcdb0be9	-0.026739078
245	0xbbc93862	-0.0061407546
246	0xbd0353ff	-0.032062527
247	0xbc87d2eb	-0.016580066
248	0xbc765834	-0.015035678
249	0x3d1c1046	0.038101457
250	0x3d23dbbb	0.040004473
251	0xbb6c8252	-0.003608842
252	0x3c25dec0	0.0101239085
253	0x3cd592e1	0.026071014
254	0x3c824b0a	0.015904922
255	0xbbb880f5	-0.0056306073

encoder.0.fc.0.bias f4 [100]
0	0xbc681252	-0.014164524
1	0xbbe28ccf	-0.0069137583
2	0xbc33fc6f	-0.010985478
3	0xbda415c7	-0.08011966
4	0xbaeea3c4	-0.0018206765
5	0x3cf898f6	0.030346375
6	0x3d801905	0.06254772
7	0xbd04c7b7	-0.032417025
8	0x3cbc35af	0.022974817
9	0xbcd03162	-0.025414173
10	0x3d8921a2	0.06695868
11	0xbd021373	-0.03175683
12	0x3ca1f0ed	0.019768203
13	0xbcac5982	-0.021038774
14	0x3b941bcf	0.0045199166
15	0x3d306ba5	0.043071408
16	0xbc75ee74	-0.015010465
17	0xbcb81d97	-0.022475047
18	0x3b8ac786	0.004235211
19	0xbc83ecbd	-0.016104097
20	0x3d730eb1	0.059340183
21	0xbcd61224	-0.026131697
22	0xbbea524c	-0.007150924
23	0x3cdfb7e0	0.027309358
24	0xbd09678d	-0.03354602
25	0xbd00b6f8	-0.031424493
26	0xbc95fbc8	-0.018308535
27	0x3ca56d19	0.020193623
28	0x3c3157d6	0.010824164
29	0xbd1e51f8	-0.03865239
30	0x3c0536a4	0.008130703
31	0x3bff55c3	0.007792206
32	0x3c616b7e	0.013758538
33	0x3be4f071	0.0069866707
34	0xbcc0e997	-0.023548884
35	0xbc1018d4	-0.008794982
36	0xbd22b0ad	-0.039719272
37	0x3d126b58	0.035746902
38	0x3c1052e2	0.008808823
39	0x3ca4b5d0	0.020106226
40	0x3dbf9d5a	0.09356184
41	0x3da65d20	0.08123231
42	0x3c45e096	0.012077471
43	0x3d89e054	0.0673224
44	0x3d8552d5	0.065099396
45	0xbc1c95dd	-0.009557215
46	0x3d9d5461	0.076821096
47	0xbcb1ce3f	-0.021704791
48	0xbc7eb56c	-0.015546184
49	0xbbcf2580	-0.006321609
50	0xbca0b38d	-0.019616866
51	0x3c11bb74	0.00889479
52	0xbbd76892	-0.006573745
53	0x3dbaf7b4	0.09129277
54	0xbc2565dd	-0.010095087
55	0x3d8e4ec3	0.06948616
56	0x3d7e125b	0.062029224
57	0xbd9df457	-0.0771262
58	0xbc458480	-0.012055516
59	0x3d4e94be	0.05043482
60	0x3d85f391	0.06540597
61	0x3a70ea25	0.00091901637
62	0x3d6e0959	0.058114383
63	0x3d7cbab0	0.061701477
64	0x3d164a33	0.036691856
65	0xbb3c7cb3	-0.002876085
66	0xbc12411e	-0.008926658
67	0x3ca9519b	0.020668795
68	0xbc2eb4f3	-0.010663259
69	0x3be6dfe9	0.007045735
70	0x3caa0571	0.020754548
71	0xbcb4d684	-0.022074945
72	0xbb461471	-0.0030224586
73	0x3cb3a4ee	0.02192923
74	0x3d2dc428	0.042423397
75	0xbbf35edd	-0.00742708
76	0x3aa302dc	0.0012436765
77	0x3dac8594	0.084239155
78	0x3c31df2b	0.01085643
79	0x3bfe4155	0.007759253
80	0xbd77e919	-0.060525034
81	0xbbca7f6c	-0.0061797407
82	0x3aa4acc1	0.0012563692
83	0xbd259527	-0.040425446
84	0xbd210a7f	-0.03931665
85	0x3d4751e4	0.04866208
86	0x3d97a784	0.07404998
87	0x3d10e785	0.035377044
88	0xbbff749d	-0.007795884
89	0xbd1028c4	-0.035195127
90	0xbc23f995	-0.010008235
91	0x3da4ef03	0.080534
92	0x3db67a97	0.08910101
93	0x3d3ddd04	0.046353355
94	0xbbe7b258	-0.007070821
95	0x3c9abb56	0.018888157
96	0xbb9a7542	-0.0047136853
97	0x3d660d7e	0.05616521
98	0x3cae749f	0.021295844
99	0xbd17152e	-0.036885433

encoder.1.fc.0.weight f4 [50, 100]
0	0xbd55389d	-0.052055944
1	0x3c99d592	0.018778596
2	0xbe21ffac	-0.15820187
3	0x3e16ff9e	0.14745948
4	0x3d20f466	0.039295577
5	0xbd8b90a8	-0.068147
6	0xbbd13215	-0.006384144
7	0xbda886fb	-0.082288705
8	0x3d3dd686	0.046347164
9	0x3dc74e39	0.09731717
10	0xbcb93628	-0.022608832
11	0x3da63d4e	0.08117162
12	0x3d10b10e	0.035325103
13	0xbc8812fb	-0.016610613
14	0xbd308d45	-0.043103475
15	0x3cc07b39	0.023496257
16	0x3cb22b74	0.021749236
17	0xbd6790ee	-0.0565347
18	0xbd7aa216	-0.061189733
19	0xbdb89ecf	-0.09014665
20	0x3e3b82a5	0.18311556
21	0xbd91e83f	-0.071243756
22	0xbb8a2297	-0.004215549
23	0xbdc51393	-0.09622874
24	0x3e1adb21	0.15122654
25	0x3da8143f	0.08206987
26	0x3d1ab32d	0.03776853
27	0x3d9be648	0.07612282
28	0x3d9b6dd1	0.07589305
29	0xbc5d3958	-0.013502441
30	0x3db3d1df	0.08780264
31	0xbd9c4597	-0.07630461
32	0x3da1d1c4	0.07901338
33	0xbdd30568	-0.103037655
34	0x3dc7f220	0.097629786
35	0x3e29de1b	0.16588633
36	0x3d95dcd8	0.07317513
37	0x3e15afdc	0.14617866
38	0x3db3f69b	0.08787271
39	0xbdb9bfa6	-0.09069757
40	0xbd184878	-0.037178487
41	0xbc887509	-0.01665737
42	0x3ca999a2	0.02070314
43	0x3c148a76	0.009066215
44	0xbd55fb4f	-0.05224162
45	0x3dcce05d	0.100037314
46	0x3e188316	0.14893755
47	0x3da89abb	0.082326375
48	0xbcfb35a1	-0.03066522
49	0x3d9cdba7	0.07659083
50	0xbc064d89	-0.008197197
51	0x3bba6b52	0.005689063
52	0x3c32509d	0.0108834775
53	0xbddab9f3	-0.10679998
54	0xbd83795b	-0.06419631
55	0x3e190365	0.14942701
56	0xbc07177c	-0.008245345
57	0x3d46a991	0.048501555
58	0xbd8be883	-0.068314575
59	0xbd9d1b5e	-0.076712355
60	0x3e08282a	0.13296571
61	0x3db04a0a	0.08607872
62	0x3e3f573b	0.1868562
63	0xbdc91b2c	-0.09819636
64	0xbd2e0e7d	-0.042494286
65	0xbd75cb91	-0.06000859
66	0x3c3d4cfb	0.011553998
67	0x3d6203ac	0.055179283
68	0x3dd8e2b2	0.10590114
69	0xbdf89f6d	-0.12139783
70	0xbd488b53	-0.048960995
71	0xbc7dfb92	-0.015501874
72	0x3c243457	0.010022244
73	0x3d829b79	0.0637731
74	0x3e1b2714	0.15151626
75	0xbdabd3fa	-0.08390041
76	0xbcdf35b4	-0.027247287
77	0x3c3fd5f3	0.011708724
78	0xbc7b5e33	-0.015342283
79	0x3d901b0d	0.070364095
80	0xbc6c52ba	-0.01442402
81	0x3db7f02e	0.089813575
82	0xbb2b6972	-0.002615538
83	0x3dac98c9	0.08427579
84	0x3d83ccac	0.064355224
85	0x3d35864d	0.044317532
86	0x3ea00f9d	0.31261912
87	0xbd067afe	-0.03283214
88	0x3d4fed0e	0.050763182
89	0x3db76266	0.08954315
90	0x3eaddbde	0.33956808
91	0x3dd920db	0.1060197
92	0x3d837b80	0.0642004
93	0x3dc3a8c3	0.09553673
94	0xbd3f419d	-0.046693433
95	0x3d88e5c8	0.06684452
96	0xbdbd21e8	-0.09234983
97	0x3dba4f91	0.09097207
98	0x3dd663b2	0.10468234
99	0xbd60ab9c	-0.05485116
100	0xbdb70a86	-0.08937554
101	0xbc2ff04f	-0.010738446
102	0xbd6e0ee4	-0.05811967
103	0x3e8b2667	0.27177736
104	0xbda1596c	-0.07878384
105	0x3c11edf5	0.008906831
106	0xbd86080b	-0.06544503
107	0xbd6522d2	-0.05594141
108	0x3dc244e7	0.09485798
109	0x3d0da528	0.034581333
110	0x3ad98673	0.0016595855
111	0xbd3a7d9f	-0.045529958
112	0x3e57d57c	0.21077532
113	0x3dacf878	0.08445829
114	0xbc8ce46b	-0.017198762
115	0x3e037ae5	0.1283985
116	0xbdb9d095	-0.09072987
117	0xbdba0ae8	-0.090841115
118	0x3d41cf06	0.047316574
119	0xbcf15244	-0.029458173
120	0xbda8a3e6	-0.08234386
121	0x3d2addfe	0.041715614
122	0x3da30ae6	0.07961063
123	0x3d2a7467	0.041614916
124	0x3da2e047	0.07952934
125	0x3da8b8a8	0.082383454
126	0x3d5e3358	0.054248184
127	0xbda8ec12	-0.08248152
128	0x3defbdad	0.117061
129	0xbd7b8023	-0.061401498
130	0x3d78ff36	0.060790263
131	0xbc93e464	-0.018053241
132	0x3e4cc7a4	0.19998032
133	0xbc9b19f2	-0.01893327
134	0x3b1769e4	0.0023103887
135	0x3bf1ab57	0.0073751616
136	0x3cc10688	0.023562685
137	0x3dc88a40	0.09791994
138	0xbdc33dd1	-0.09533275
139	0x3c9af2fb	0.01891469
140	0xbcf49106	-0.029854309
141	0x3cf2ecff	0.029654024
142	0x3cc1aaa9	0.023640947
143	0x3d6f21ff	0.05838203
144	0xbc7d0a9e	-0.015444426
145	0x3dcc4e06	0.09975819
146	0xbbc50d89	-0.0060135764
147	0x3dce81cf	0.10083353
148	0x3d07cac5	0.03315236
149	0x3d956aa1	0.072957285
150	0xbd0653aa	-0.032794632
151	0xbd609912	-0.05483348
152	0xbbd31994	-0.006442258
153	0x3dae0f68	0.08499032
154	0xbda2376a	-0.07920726
155	0x3d286be2	0.04111851
156	0x3e3721d6	0.17884001
157	0x3de0e5bd	0.10981319
158	0x3d2cb37f	0.04216337
159	0x3e44d8dd	0.19223352
160	0xbdaa7fe1	-0.08325172
161	0x3d21098b	0.03931574
162	0xbd097a15	-0.033563692
163	0x3df519a2	0.1196778
164	0xbd42c02c	-0.04754655
165	0xbd63cc82	-0.055614956
166	0x3d964ccf	0.07338869
167	0xbd662441	-0.05618692
168	0x3d9eac22	0.077476755
169	0xbc7ab6a6	-0.015302336
170	0xbd236533	-0.039891433
171	0xbdcbea90	-0.099568486
172	0x3cb529a4	0.022114582
173	0x3d24cc51	0.040233914
174	0x3db273ce	0.08713494
175	0x3d87b8cc	0.06627044
176	0xbce05651	-0.027384909
177	0x3cc74159	0.024323152
178	0x3d121476	0.035664044
179	0xbd24c228	-0.040224224
180	0x3e065cab	0.13121288
181	0xbb7e7e96	-0.0038832775
182	0xbc70efd3	-0.014705616
183	0x3cdb3bfc	0.026762001
184	0xb919e7d7	-0.00014677584
185	0xbb3b72b3	-0.0028602302
186	0xbe16ca24	-0.14725548
187	0x3e52f22e	0.20600197
188	0xbdb0e247	-0.08636909
189	0x3e18ffc1	0.14941312
190	0xbd500963	-0.050790202
191	0xbd8e7a71	-0.069569476
192	0xbd24a21c	-0.040193662
193	0xbe0ca4ab	-0.13734691
194	0x3dfd13f7	0.123573236
195	0xbb3273a0	-0.0027229562
196	0xbda30a90	-0.07960999
197	0xbca12932	-0.019672964
198	0x3d97a6e1	0.074048765
199	0x3c606374	0.0136955865
200	0x3c49e143	0.012321773
201	0xbca41e7c	-0.020034067
202	0xbd2383fa	-0.039920785
203	0x3c90d3f2	0.017679188
204	0x3da649c9	0.08119542
205	0xbd45376a	-0.04814855
206	0x3c817459	0.01580255
207	0x3c8be8c4	0.017078765
208	0xbdf37cd5	-0.11889044
209	0x3d664d29	0.05622593
210	0xbdeff57f	-0.117167465
211	0xbdc44730	-0.095838904
212	0x3cd9eb81	0.026601555
213	0x3d2ccd91	0.04218823
214	0xbd2c28eb	-0.04203121
215	0xbdd34bc5	-0.10317186
216	0x3c69bbfd	0.014266011
217	0xbd8e6d8e	-0.0695449
218	0x3d030c1b	0.031993967
219	0x3d2de1fc	0.042451844
220	0x3b8bd203	0.0042669787
221	0xbd03cb5d	-0.032176364
222	0xbe06dbf2	-0.1316984
223	0x3bb70fde	0.0055866083
224	0x3d4f97be	0.050681822
225	0xbd020907	-0.03174689
226	0xbdb0979b	-0.086226664
227	0x3d62235f	0.055209514
228	0xbd1f9978	-0.03896472
229	0xbcffa5fc	-0.031207077
230	0x3d0044d1	0.03131563
231	0x3d3eb31c	0.04655753
232	0x3c770a49	0.015078136
233	0xbde297d4	-0.11064115
234	0xbd41c586	-0.047307514
235	0xbe09f16f	-0.13471006
236	0x3c04b0c9	0.0080987895
237	0xbd076632	-0.033056445
238	0x3d1ee709	0.03879455
239	0xbcc398d2	-0.023876581
240	0x3cbbb1f6	0.022912007
241	0x3d5717c0	0.052512884
242	0xbda9b33a	-0.08286138
243	0x3c9ef34d	0.019403124
244	0x3cfb7cc0	0.030699134
245	0xbd1d82af	-0.038454708
246	0x3cfdcfe7	0.030982925
247	0xbd6a284c	-0.057167336
248	0x3d5c95c6	0.053853773
249	0x3c557f02	0.013030769
250	0x3d80c9de	0.06288503
251	0xbdca6a27	-0.09883528
252	0xbd9335e6	-0.07188015
253	0x3d15d0cc	0.036576077
254	0x3d5c5b27	0.053797867
255	0xbde61db0	-0.11236131

encoder.1.fc.0.bias f4 [50]
0	0xbaf87613	-0.0018956087
1	0x3da7c1eb	0.08191284
2	0x3cf631f1	0.03005311
3	0xbd536708	-0.05161193
4	0x3db9c8a2	0.09071471
5	0x3dada083	0.08477881
6	0x3e0526b8	0.13003051
7	0xbdd8ed3b	-0.10592123
8	0xbb78b4a3	-0.0037949465
9	0xbc6dd774	-0.0145167
10	0x3cb382e0	0.021912992
11	0xbd0af1d9	-0.03392205
12	0x3d9e0d2e	0.077173576
13	0x3d63b9f2	0.055597253
14	0x3d2a53d7	0.041583862
15	0x3d467b92	0.04845769
16	0x3c8a80fc	0.016907208
17	0x3e16392e	0.1467025
18	0x3dc114b3	0.09427776
19	0x3c7d718e	0.015468968
20	0x3bb037a0	0.0053777248
21	0xbe050c07	-0.1299287
22	0xbda12ad3	-0.07869496
23	0x3b8b256d	0.004246405
24	0x3dc4f727	0.09617453
25	0x3df2596b	0.118334614
26	0xbd366c17	-0.044536676
27	0x3dab75ba	0.08372064
28	0x3c863f59	0.016387628
29	0x3a62c853	0.00086510665
30	0x3d8147e7	0.063125424
31	0x3c7d0053	0.015441972
32	0x3c59eda1	0.013301284
33	0x3b69fb9d	0.0035702952
34	0x3e1edb74	0.15513402
35	0xbd356696	-0.044287287
36	0x3e07e4f5	0.13270934
37	0x3dc63b89	0.09679324
38	0xbd765ec8	-0.060148984
39	0x3d8e5feb	0.06951889
40	0x3d62dfb2	0.055389114
41	0xbdad6fa9	-0.08468563
42	0xbce58314	-0.028016604
43	0xbcda7ab8	-0.026669845
44	0x3bd40b23	0.006471054
45	0x3dc1f6bf	0.09470891
46	0xbc47e09b	-0.012199546
47	0x3db023bb	0.08600565
48	0xbc065e23	-0.008201155
49	0x3d955d54	0.072931916

decoder.0.fc.0.weight f4 [100, 50]
0	0xbd66b0a9	-0.05632082
1	0x3d5675d0	0.05235845
2	0x3e1f7acc	0.15574187
3	0x3e9b656a	0.3035081
4	0xbdc24cae	-0.09487282
5	0x3db08e4c	0.08620891
6	0xbd180335	-0.037112433
7	0xbd621d47	-0.055203702
8	0xbdf19485	-0.11795906
9	0xbd214174	-0.03936906
10	0x3c9bf590	0.019037992
11	0x3d559bba	0.052150466
12	0xbc21a3b3	-0.009865689
13	0xbde0f3b5	-0.109839834
14	0xbd829369	-0.063757725
15	0x3d26e916	0.04074963
16	0xbeb17cf5	-0.34665647
17	0xbe129d24	-0.14317757
18	0x3d8c0b4f	0.068380944
19	0x3e8cbc24	0.2748729
20	0xbeb2f926	-0.3495571
21	0xbdcc2952	-0.09968819
22	0xbd587b48	-0.052851945
23	0x3ca9596b	0.02067252
24	0xbd560077	-0.052246537
25	0x3ecf2886	0.40460604
26	0xbe9e73b8	-0.3094766
27	0xbeb786d2	-0.35845047
28	0xbea28057	-0.3173854
29	0xbdbca76d	-0.092116214
30	0x3dfce859	0.12349004
31	0xbd67dfa4	-0.056609765
32	0xbd8e0e16	-0.069362804
33	0xbd08f9cb	-0.033441346
34	0x3e87a321	0.26491645
35	0x3e123708	0.14278805
36	0xba7506d6	-0.0009347027
37	0xbe658bf2	-0.22416666
38	0x3e9658d9	0.2936466
39	0xbe43a118	-0.19104421
40	0x3d6bc5d1	0.0575617
41	0x3e0b4308	0.13599789
42	0x3d92c6c6	0.07166819
43	0x3df1e31e	0.11810897
44	0xbc219256	-0.009861549
45	0xbe1cc04f	-0.15307735
46	0x3ced7027	0.028984142
47	0xbd0c05d1	-0.034185234
48	0x3cab8e1f	0.020941792
49	0xbe048327	-0.12940656
50	0x3cb30da6	0.021857094
51	0x3e1d291a	0.1534771
52	0xbeb103c4	-0.34573185
53	0x3dcafa05	0.09910969
54	0xbe9ac3a0	-0.30227375
55	0x3dbac1f7	0.09119027
56	0x3d437252	0.047716446
57	0x3d796456	0.060886703
58	0xbeeceb93	-0.4627348
59	0x39b95ac0	0.00035353564
60	0x3dc22410	0.094795346
61	0x3b026287	0.0019895153
62	0xbdcff917	-0.10154932
63	0x3d3bde1e	0.045866124
64	0x3eb72294	0.3576857
65	0xbe0b2c06	-0.13591012
66	0xbeee97fb	-0.46600327
67	0xbea37b88	-0.31930184
68	0xbbe756bf	-0.0070599015
69	0xbdeed985	-0.11662582
70	0xbe061b4d	-0.13096352
71	0x3d03f327	0.03221431
72	0x3e28475d	0.16433473
73	0xbd3b81ac	-0.04577796
74	0xbe8dd968	-0.2770493
75	0xbd9428a8	-0.07234317
76	0x3c1cdae6	0.009573674
77	0xbe81054f	-0.25199363
78	0xbcd7981a	-0.026317645
79	0xbe3c8003	-0.18408208
80	0x3e0c54de	0.1370425
81	0x3e1904cf	0.1494324
82	0xbd7f298b	-0.062295478
83	0x3e096722	0.13418248
84	0x3de12ed3	0.10995259
85	0x3d6af7cb	0.05736522
86	0x3dcae775	0.09907428
87	0xbdd3cb21	-0.10341478
88	0x3de4d5bb	0.11173578
89	0xbde613b7	-0.11234229
90	0x3e033119	0.12811698
91	0x3d9cd81b	0.07658406
92	0xbc96e9ba	-0.018421996
93	0x3e1d91fd	0.15387721
94	0x3d9cb29b	0.07651254
95	0x3d613028	0.054977566
96	0x3da066dc	0.07832119
97	0x3deed086	0.116608664
98	0x3e310ee2	0.17290834
99	0x3d463454	0.048389748
100	0x3d56fc08	0.05248645
101	0xbc907dbc	-0.01763808
102	0x3dedb23b	0.116062604
103	0x3dcf0a6f	0.10109412
104	0xbc8bae64	-0.01705093
105	0x3e0b1f41	0.13586141
106	0x3b3d7bcd	0.0028912902
107	0xbd0781a8	-0.033082634
108	0x3c822070	0.015884608
109	0x3da396ac	0.07987723
110	0x3d2d3f62	0.042296775
111	0xbce619f9	-0.028088557
112	0xbdb792e9	-0.08963568
113	0xbd8a1731	-0.06742705
114	0xbe5a7695	-0.21334298
115	0xbb497fb2	-0.0030746278
116	0x3ef3628b	0.4753612
117	0xbe40d9b6	-0.1883305
118	0x3e9254ea	0.2858041
119	0xbe42b2ea	-0.19013563
120	0x3d6bf312	0.057604857
121	0xbd8d46a6	-0.06898241
122	0xbe2ca121	-0.16858341
123	0x3d271ac1	0.040797
124	0x3cba7179	0.022759186
125	0xbda2bb2a	-0.07945855
126	0xbd159054	-0.036514595
127	0xbda993ea	-0.082801655
128	0x3e5a3a46	0.21311292
129	0x3ebd4b9e	0.36971754
130	0x3daba2e3	0.083806776
131	0x3e1e81d5	0.15479214
132	0xbe8333aa	-0.25625354
133	0x3dafe47e	0.08588503
134	0x3c39f79b	0.011350538
135	0x3e230092	0.15918186
136	0xbe99ea1b	-0.3006142
137	0xbec38e80	-0.38194656
138	0x3e21968d	0.15780087
139	0x3e1ca41a	0.15296975
140	0xbde3ba65	-0.11119536
141	0x3e0f43d4	0.13990718
142	0xbeabdc99	-0.3356674
143	0x3c815994	0.015789784
144	0xbd9181ac	-0.07104811
145	0x3e00c810	0.12576318
146	0x3e9094fb	0.28238663
147	0xbeacf239	-0.3377855
148	0xbdfd9c49	-0.12383325
149	0x3e00e153	0.12585954
150	0xbdf3231e	-0.118719324
151	0x3ca63a17	0.020291371
152	0xbe3626e0	-0.17788267
153	0xbeb1f88c	-0.3475994
154	0xbd43590d	-0.047692347
155	0xbb320b58	-0.0027167406
156	0xbde9b01b	-0.114105426
157	0x3d55c330	0.0521881
158	0xbd91e11f	-0.071230166
159	0x3dee9757	0.116499595
160	0xbdf5483b	-0.119766675
161	0x3df70c67	0.120629124
162	0x3d870b94	0.06594005
163	0xbe1c44de	-0.15260646
164	0xbd48eeb6	-0.049055777
165	0xbd4d9e62	-0.050199874
166	0xbc94cdd3	-0.01816455
167	0xbd989878	-0.07450956
168	0x3e5db34e	0.2165043
169	0x3d252ef4	0.04032798
170	0x3da1883b	0.07887312
171	0xbdd637ac	-0.10459837
172	0x3e138cb5	0.14409144
173	0xbd80e396	-0.062934086
174	0x3e44a36a	0.19202963
175	0x3dbc37b7	0.09190314
176	0x3c49351b	0.012280728
177	0x3dcd4ddd	0.10024617
178	0x3e2748d9	0.16336383
179	0x3e0f1cf7	0.13975893
180	0xbe0cbf55	-0.13744862
181	0xbce8903c	-0.028389089
182	0x3e72506a	0.23663488
183	0x3dc6f6cf	0.09715044
184	0x3c4066ed	0.011743289
185	0x3e1e15c8	0.15437996
186	0x3ce311ac	0.027718388
187	0x3d3e0090	0.046387255
188	0x3d403b8a	0.04693178
189	0x3bf674c1	0.0075212424
190	0x3ddd217f	0.107974045
191	0xbddc86ea	-0.1076792
192	0x3e5d45c7	0.21608649
193	0x3cd5a943	0.026081687
194	0xbc3494a3	-0.011021766
195	0x3d8d6762	0.06904484
196	0xbd01afd7	-0.031661835
197	0xbe80215c	-0.2502545
198	0x3d82521a	0.06363316
199	0xbdbe2d09	-0.092859335
200	0xbd3c0274	-0.045900777
201	0xbd82f146	-0.063936755
202	0xbda9a1ef	-0.082828395
203	0x3d03f4fc	0.032216057
204	0x3d85ff67	0.06542855
205	0xbdf43caa	-0.11925633
206	0xbdde87d0	-0.10865748
207	0xbe0b11dc	-0.13581032
208	0x3dda3218	0.10654086
209	0xbd1531a6	-0.0364243
210	0xbcf3170b	-0.029674074
211	0x3d4fe734	0.0507576
212	0xbd97528e	-0.07388793
213	0x3d268b9c	0.040660486
214	0xbe2c7459	-0.16841258
215	0xbdd4d01f	-0.103912584
216	0xbdaffd75	-0.08593265
217	0x3d98d2d2	0.07462086
218	0xbde2e772	-0.11079301
219	0x3dc9fd6e	0.09862791
220	0xbd80578a	-0.06266697
221	0xbdfc2e80	-0.12313557
222	0xbdcb334b	-0.09921893
223	0x3d8c4f19	0.06851024
224	0x3db995b1	0.090617545
225	0xbe05906b	-0.13043372
226	0xbd2789ae	-0.040902786
227	0xbd6349a0	-0.055490136
228	0x3cf7b730	0.030238718
229	0xbd45397d	-0.04815053
230	0xbdd1ec80	-0.10250187
231	0xbe004898	-0.12527692
232	0x3d1cb0b8	0.03825447
233	0x3c7bbe1e	0.015365152
234	0x3ca2a1b8	0.019852504
235	0xbda533cc	-0.0806652
236	0xbd9f7434	-0.07785836
237	0x3d164dc4	0.036695257
238	0xbdecbece	-0.115598306
239	0x3daa9a89	0.083302565
240	0x3d35619e	0.044282548
241	0x3c3c8740	0.0115068555
242	0x3c8d2db0	0.0172337
243	0xbd670246	-0.056398652
244	0xbd116b1a	-0.03550253
245	0x3dcf8640	0.10133028
246	0xbe287f0f	-0.16454719
247	0xbd0f4984	-0.03498222
248	0xbd9dd588	-0.077067435
249	0xbe20b8b1	-0.15695454
250	0xbcb49dad	-0.022047842
251	0x3e4af991	0.19821765
252	0x3e2cbd5d	0.16869111
253	0x3e491092	0.19635227
254	0xbddc2a81	-0.107502945
255	0x3e133455	0.14375432

decoder.0.fc.0.bias f4 [100]
0	0x3f029577	0.51009315
1	0xbe38e7c1	-0.18057157
2	0xbf11ff9d	-0.5703066
3	0x3ee28a94	0.44246352
4	0xbe2c9521	-0.16853763
5	0x3f2d1ddd	0.6762369
6	0x3f2bc3c2	0.6709558
7	0xbdc35196	-0.09537046
8	0x3e830e74	0.25596964
9	0xbe624d4d	-0.220998
10	0x3ee0d46f	0.43912074
11	0xbea38602	-0.31938177
12	0x3e82a3fc	0.25515735
13	0xbde86a88	-0.11348444
14	0xbe5a8cdb	-0.21342795
15	0xbbe303fa	-0.0069279643
16	0x3f13a468	0.5767274
17	0xbe93be41	-0.2885609
18	0xbeb67cda	-0.3564213
19	0xbe7e83af	-0.24854921
20	0x3f2cf593	0.67562217
21	0x3e31bf07	0.17358027
22	0x3ee50229	0.4472821
23	0x3eb48078	0.35254264
24	0x3ea8b157	0.329478
25	0x3db8ce96	0.09023778
26	0xbd538d51	-0.05164844
27	0x3ea62ac0	0.3245449
28	0x3be0da73	0.0068619787
29	0x3f808300	1.0039978
30	0x3e2d4592	0.1692107
31	0xbd27b852	-0.040947266
32	0xbf0b630a	-0.54447997
33	0xbc002534	-0.00782137
34	0x3e46409b	0.19360583
35	0x3e8f1c70	0.27951384
36	0xbec2bdc0	-0.38035393
37	0x3e589751	0.21151473
38	0xbe88cd16	-0.26718968
39	0xbe148cc1	-0.14506818
40	0xbf1ea4a7	-0.6196999
41	0xbeb2b736	-0.34905404
42	0xbb8ce1ff	-0.004299402
43	0x3f8b7897	1.0896176
44	0x3f8926f1	1.0715009
45	0x3dc132ab	0.09433492
46	0xbe3ea1b3	-0.18616371
47	0x3f2f4f3b	0.6848027
48	0xbc54f11f	-0.012996941
49	0xbcdfa23c	-0.027299039
50	0xbe673af7	-0.22581087
51	0xbe503478	-0.20332515
52	0xbe09b2f9	-0.13447179
53	0xbb340cd7	-0.0027473473
54	0xbe303c65	-0.17210539
55	0xbe337b91	-0.17527606
56	0x3f0c2710	0.54747105
57	0xbeb5ba02	-0.35493475
58	0x3ec85fcd	0.3913559
59	0xbdfc1480	-0.123085976
60	0xbe15ae0a	-0.14617172
61	0x3f42ac47	0.76044124
62	0xbe903232	-0.28163296
63	0xbe3d3877	-0.18478571
64	0x3e08bd05	0.13353355
65	0xbd75fd51	-0.060056034
66	0x3e379fc4	0.1793204
67	0x3e72c781	0.23708917
68	0xbeaecbb4	-0.34139788
69	0xbed74cfb	-0.4205092
70	0xbdd4d2fb	-0.10391804
71	0x3eae7c41	0.34079173
72	0x3e303695	0.17208321
73	0xbe4217a6	-0.18954334
74	0x3be68163	0.007034467
75	0xbf186ca8	-0.59540796
76	0xbc717228	-0.01473669
77	0x3e3cdbe4	0.18443257
78	0xbdea3722	-0.11436297
79	0x3ef8bd38	0.48581862
80	0xbcf43647	-0.029811038
81	0x3e83762f	0.25676104
82	0xbe950bed	-0.2911066
83	0x3ea07898	0.31342006
84	0xbe0e9b4e	-0.13926432
85	0x3f18c9de	0.59683025
86	0x3ed76fea	0.4207757
87	0x3e8b97c2	0.2726422
88	0x3dbc065e	0.09180902
89	0xbf55b2e5	-0.83476096
90	0x3e0fda77	0.14048181
91	0x3df910e9	0.121614285
92	0xbe5e6941	-0.21719839
93	0xbed76489	-0.4206889
94	0x3f7fa461	0.998602
95	0x3eb83562	0.35978228
96	0x3ea553ed	0.32290593
97	0xbd8ff78c	-0.07029638
98	0xbf1d4c2f	-0.6144437
99	0x3f4a7a21	0.79092604

decoder.1.0.weight f4 [784, 100]
0	0x3d585d01	0.05282307
1	0xbd04b748	-0.032401353
2	0x3eb9fac8	0.36324143
3	0xbfba428c	-1.4551558
4	0x3c8bb401	0.017053606
5	0xbee0632c	-0.43825662
6	0xbfb06525	-1.3780867
7	0xbddc04d6	-0.1074311
8	0xbec944e8	-0.39310384
9	0x3e12c9ab	0.14334743
10	0xbe964dc5	-0.29356208
11	0xbf0c19e4	-0.54727006
12	0xbf45611b	-0.77101296
13	0xbd059893	-0.03261621
14	0x3d179e90	0.03701645
15	0xbdb22a66	-0.08699493
16	0xbe939d7e	-0.28831095
17	0xbe0c30ec	-0.13690537
18	0x3e8d0f07	0.27550527
19	0xbe304611	-0.17214228
20	0xbf403963	-0.75087565
21	0xbde351a7	-0.11099558
22	0xbe4fd9d2	-0.20297936
23	0xbe4a39cd	-0.19748612
24	0xbeae0fad	-0.33996335
25	0xbd2651bc	-0.04060529
26	0x3c812fc7	0.015769852
27	0xbf0e5316	-0.5559553
28	0xbdc07082	-0.09396459
29	0xbfce0952	-1.6096594
30	0x3e2d5813	0.16928129
31	0x3de893d0	0.11356318
32	0xbe151332	-0.14558104
33	0x3e2b2f13	0.16717176
34	0xbeb0c12f	-0.34522387
35	0xbed2b040	-0.41150093
36	0xbe593d7d	-0.21214862
37	0xbdfd0860	-0.12355113
38	0xbe86cbd9	-0.26327398
39	0x3dfc2036	0.12310831
40	0x3e6d9e54	0.23204929
41	0x3da3b7e9	0.079940625
42	0xbeb60c7e	-0.35556406
43	0xbf8569dd	-1.0422932
44	0xbfbc19b5	-1.4695345
45	0xbdd9a08e	-0.106263265
46	0xbe2179df	-0.15769146
47	0xbf4046ba	-0.7510792
48	0xbcd63d4b	-0.026152274
49	0xbd3747a7	-0.044746067
50	0xbe6cc544	-0.23122126
51	0x3f07e62b	0.53085583
52	0xbe237ded	-0.15966006
53	0x3d1927a0	0.037391305
54	0xbd679a65	-0.056543726
55	0xbe023932	-0.12717131
56	0xbfda66d4	-1.7062631
57	0x3e00a9e6	0.12564811
58	0xbf280fe5	-0.65649253
59	0xbdccfa5f	-0.10008692
60	0xbda6b106	-0.08139233
61	0xbfd15fae	-1.6357324
62	0x3e45c08c	0.19311732
63	0xbf146c48	-0.57977724
64	0x3dbba9c1	0.09163237
65	0x3ef97230	0.4871993
66	0xbdf2a669	-0.118481465
67	0xbbc9a3bf	-0.0061535533
68	0xbe530ab5	-0.20609553
69	0xbee7d5ca	-0.45280296
70	0xbe2acabb	-0.16678898
71	0xbe26017f	-0.16211508
72	0xbeb17144	-0.34656727
73	0xbee3cab1	-0.4449058
74	0xbcc6cbad	-0.024267042
75	0x3d9ada62	0.075611845
76	0xbde8c678	-0.1136598
77	0xbe894349	-0.26809147
78	0xbda50e85	-0.0805941
79	0xbf0827e2	-0.53185856
80	0x3ed4e11c	0.41577995
81	0xbe6de677	-0.23232447
82	0xbe59711c	-0.21234554
83	0xbeff31b8	-0.4984262
84	0xbe864c44	-0.2623006
85	0xbefd399c	-0.49458015
86	0xbf034ad2	-0.5128604
87	0xbf24cc57	-0.643743
88	0xbf479b3f	-0.7797126
89	0x3e1e5767	0.15463029
90	0xbf4fbd2d	-0.81148034
91	0x3ed1a1d7	0.40943787
92	0x3f0f6b70	0.5602331
93	0x3d732f43	0.059371244
94	0xbf8c6d54	-1.0970864
95	0xbf203eff	-0.62596124
96	0xbed6433d	-0.41848174
97	0x3f52f75a	0.8240868
98	0x3dfbe358	0.12299222
99	0xbedf493a	-0.43610555
100	0xbe0bebcf	-0.13664173
101	0xbcac1d88	-0.021010175
102	0x3ef91c9e	0.48654646
103	0xbfb4fcb6	-1.4139621
104	0x3d8953c1	0.06705428
105	0xbe975f96	-0.29565114
106	0xbfad077b	-1.3517908
107	0xbdbd0209	-0.09228904
108	0xbebb19b0	-0.36543036
109	0x3f191c25	0.5980857
110	0xbe212687	-0.15737353
111	0xbf1eec6b	-0.62079495
112	0xbf305785	-0.68883544
113	0xbbe6d2e0	-0.007044181
114	0xbd57a775	-0.052649934
115	0xbdd87df6	-0.105709
116	0xbe8e40c1	-0.27783778
117	0xbe08ebeb	-0.13371246
118	0x3e10240d	0.14076252
119	0xbeaa700b	-0.33288607
120	0xbf357d8f	-0.7089471
121	0xbe793caf	-0.24339555
122	0xbdada279	-0.08478255
123	0xbebc7a04	-0.3681184
124	0xbefef338	-0.49794936
125	0xbc83d331	-0.016091915
126	0xbdc2bff4	-0.095092684
127	0xbf7da56e	-0.9908055
128	0xbdc2210b	-0.09478959
129	0xbfd308bc	-1.648704
130	0x3e73663a	0.23769465
131	0x3e01011d	0.12598081
132	0xbd858bbe	-0.06520794
133	0x3e3b8471	0.18312241
134	0xbebb8501	-0.3662491
135	0xbec73c24	-0.3891307
136	0xbe8f086b	-0.2793611
137	0x3d99db3c	0.07512519
138	0xbe20cbb9	-0.15702714
139	0x3e3c9a01	0.18418123
140	0x3e9da36a	0.30788738
141	0x3e56d362	0.20979074
142	0xbe825ed1	-0.25462964
143	0xbf83386d	-1.0251595
144	0xbfcf18c8	-1.6179438
145	0x3add5da4	0.0016888869
146	0xbe7438fe	-0.23849866
147	0xbf219739	-0.6312137
148	0xbd8f8eb6	-0.07009642
149	0xbdab577b	-0.08366295
150	0xbed48582	-0.41508108
151	0x3f1c8d12	0.61152756
152	0xbe8f0055	-0.2792994
153	0x3e0c48b3	0.13699608
154	0xbdae8f62	-0.08523442
155	0xbc6d669a	-0.014489794
156	0xbfbad21b	-1.4595369
157	0x3e2deb49	0.16984285
158	0xbf4965d1	-0.78670985
159	0xbe2c8460	-0.16847372
160	0xbd98f961	-0.0746944
161	0xbfb0c7a5	-1.3810927
162	0x3e880c6e	0.26571983
163	0xbecadb8d	-0.3962063
164	0x3e62980c	0.22128314
165	0x3eca08e3	0.39459905
166	0xbe1b8b22	-0.15189794
167	0x3c83ab83	0.016072994
168	0xbed24829	-0.4107068
169	0xbdb5c948	-0.08876282
170	0xbe358851	-0.17727782
171	0xbe517822	-0.20455983
172	0xbeb4d3a2	-0.35317713
173	0xbec5e5b8	-0.38651824
174	0xbccb1f0b	-0.024795076
175	0x3ed59451	0.4171472
176	0xbdcecbcb	-0.10097464
177	0xbe3161ee	-0.17322513
178	0x3b6e9224	0.0036403025
179	0xbf157b73	-0.58391494
180	0x3eb68f46	0.35656184
181	0xbe8ba23d	-0.27272215
182	0xbec802dd	-0.39064685
183	0xbec4d6e1	-0.3844519
184	0xbec260f2	-0.37964588
185	0xbf0f05a9	-0.5586801
186	0xbef2416e	-0.47315544
187	0xbf00d155	-0.50319415
188	0xbf1c69fb	-0.61099213
189	0x3ea0becb	0.31395563
190	0xbf5e9837	-0.8695101
191	0x3eeea007	0.46606466
192	0x3f301c48	0.68793154
193	0xbd62e5e5	-0.055395026
194	0xbf7032bf	-0.9382743
195	0xbf1b4178	-0.6064677
196	0xbef4b283	-0.47792444
197	0x3f4de7f4	0.8043206
198	0x3e87a6f0	0.2649455
199	0xbef5e698	-0.48027492
200	0xbe0904ed	-0.13380785
201	0x3d0192ba	0.03163407
202	0x3efda954	0.4954325
203	0xbfb0cfe5	-1.3813444
204	0x3d38024d	0.04492407
205	0xbe9b053e	-0.30277437
206	0xbfb9052e	-1.4454706
207	0xbb458395	-0.0030138243
208	0xbec30eab	-0.38097128
209	0x3f133762	0.5750638
210	0xbe06af0d	-0.13152714
211	0xbf147e02	-0.5800477
212	0xbf2f900c	-0.68579173
213	0xbd450888	-0.04810384
214	0xbdb36b26	-0.08760671
215	0xbddfdcfb	-0.109308206
216	0xbe88e2da	-0.26735574
217	0xbdbdb69d	-0.09263346
218	0x3e0c8779	0.13723554
219	0xbea7d04d	-0.32776108
220	0xbf2fcf08	-0.6867528
221	0xbe4cdc34	-0.20005876
222	0xbda7fbad	-0.082023
223	0xbec206cd	-0.37895814
224	0xbf007656	-0.50180566
225	0xbcac59e0	-0.02103895
226	0xbd96f401	-0.07370759
227	0xbf7252d0	-0.9465761
228	0xbd42ddcf	-0.047574814
229	0xbfc9272f	-1.5715083
230	0x3e45ac18	0.1930393
231	0x3df0b506	0.117532775
232	0xbdce13ea	-0.10062392
233	0x3e5fe137	0.21863256
234	0xbe8daadc	-0.27669418
235	0xbecd77f1	-0.4013057
236	0xbe974604	-0.29545605
237	0x3d5234a6	0.05131974
238	0xbe56f536	-0.20991978
239	0x3e67e9a3	0.22647719
240	0x3e857b5c	0.26070678
241	0x3e1b64c3	0.15175156
242	0xbe8c24dd	-0.27371874
243	0xbf808688	-1.0041056
244	0xbfd2e9c9	-1.6477596
245	0x3cafda8b	0.021466514
246	0xbe897c76	-0.2685277
247	0xbf269fd6	-0.6508764
248	0x3d43514a	0.047684945
249	0x3dad74a1	0.08469511
250	0xbec8dfd5	-0.3923327
251	0x3f1fe3d5	0.6245702
252	0xbe79c131	-0.24390103
253	0x3df27376	0.11838429
254	0xbd9b012b	-0.07568582
255	0xbe30ec0d	-0.17277546

decoder.1.0.bias f4 [784]
0	0xbe5ce30d	-0.21570988
1	0xc00f693b	-2.2407978
2	0xc0091b1c	-2.1422796
3	0xc007b9a7	-2.1207063
4	0xbf83f560	-1.0309258
5	0xc00cc74a	-2.1996636
6	0xbf9215b6	-1.1412876
7	0xbe551a69	-0.20810856
8	0xbf4349de	-0.7628459
9	0xc00f2da7	-2.2371614
10	0xbd6eb359	-0.058276508
11	0xbdd31331	-0.10306395
12	0xc00a604e	-2.162128
13	0xc00d3bb0	-2.206768
14	0xc008daf6	-2.1383643
15	0xc00df46b	-2.218043
16	0xbd92f8c6	-0.07176356
17	0xbdf70969	-0.12062342
18	0xbdd82cca	-0.10555418
19	0xc00eaa89	-2.2291586
20	0xc00a39d5	-2.1597798
21	0xbd9837d8	-0.07432526
22	0xc00e2039	-2.2207167
23	0xbe9f49e3	-0.3111106
24	0xbda0e15e	-0.078554854
25	0xc00a4ee2	-2.1610646
26	0xc00db94b	-2.2144344
27	0xc00ef703	-2.2338264
28	0xbd954860	-0.07289195
29	0xbe222b83	-0.15836911
30	0xc0064bd3	-2.098378
31	0xbdf1d20e	-0.11807643
32	0xbd657a0a	-0.05602459
33	0xbdd2cda2	-0.102931276
34	0xc00e0629	-2.219126
35	0xc00ef75f	-2.2338483
36	0xc008cf6e	-2.1376605
37	0xc00b841d	-2.1799386
38	0xbeadb554	-0.33927405
39	0xbff7fce6	-1.9374053
40	0xc0059ae5	-2.087579
41	0xbe140d9c	-0.14458317
42	0xbe09e477	-0.13466059
43	0xc000086f	-2.0005147
44	0xbdfcf14f	-0.123507135
45	0xbe3af36b	-0.18256919
46	0xc0055fdf	-2.0839765
47	0xc00745c8	-2.113634
48	0xbe7518e6	-0.23935279
49	0xc00ab80f	-2.167484
50	0xbdf91d2a	-0.12163766
51	0xc00ccb50	-2.1999092
52	0xc00ceb32	-2.2018552
53	0xc00d96d4	-2.2123308
54	0xc007ada7	-2.119974
55	0xbf6e3212	-0.9304515
56	0xbdfe6d50	-0.124231935
57	0xbd0f6636	-0.035009585
58	0xbe108d79	-0.14116468
59	0xc00d0a5f	-2.203758
60	0xc010bcc8	-2.2615223
61	0xc0078380	-2.1174011
62	0xc00cd15d	-2.2002785
63	0xbd803e04	-0.062618285
64	0xbe1f0489	-0.15529074
65	0xbfeafc6e	-1.8358285
66	0xbfd008c1	-1.6252671
67	0xbe5e5b25	-0.21714456
68	0xbe0d77bc	-0.13815206
69	0xbf21fd96	-0.63277566
70	0xbf1174e5	-0.5681899
71	0xbd32bc9a	-0.043636896
72	0x3c4726e3	0.012155267
73	0xbf18e2fc	-0.5972135
74	0xbe124f2c	-0.14288014
75	0xbd080af6	-0.03321358
76	0xbfdc9698	-1.7233458
77	0xbd44a783	-0.048011314
78	0xbdcc417e	-0.09973429
79	0xc0079e80	-2.119049
80	0xc00cb30b	-2.198428
81	0xbe5150b1	-0.20440938
82	0xbe438be5	-0.19096334
83	0xbdc32552	-0.09528603
84	0xbddafd27	-0.10692816
85	0xc00fc567	-2.2464235
86	0xbe12c30b	-0.14332215
87	0xbd1a5d81	-0.03768683
88	0xbde697e7	-0.11259442
89	0xbfcf1eb7	-1.6181248
90	0xbfff937f	-1.9966887
91	0xbfe18956	-1.7620037
92	0xbfc35195	-1.5259272
93	0xbf8bdc83	-1.092667
94	0xbf189c21	-0.59613234
95	0xbe9b0a68	-0.30281377
96	0xbea11053	-0.31457767
97	0xbd7d7904	-0.061882988
98	0x3dd7eeb1	0.10543574
99	0x3e2ac41d	0.16676374
100	0x3e0c56b9	0.13704957
101	0xbe299420	-0.16560411
102	0xbe1d5dbc	-0.15367788
103	0xbe9a7e40	-0.30174446
104	0xbedcca5a	-0.43123132
105	0xbf976ba0	-1.182972
106	0xbe6eb45d	-0.2331099
107	0xbe385e65	-0.18004759
108	0xc00612b6	-2.094892
109	0xc00b6bd9	-2.1784575
110	0xc00c1c75	-2.1892369
111	0xbd95a27a	-0.073063806
112	0xc008951f	-2.1341016
113	0xc00c09c6	-2.1880965
114	0xbe19184e	-0.14950678
115	0xbdc9b5bf	-0.098491184
116	0xbe756e16	-0.23967776
117	0xbfec240b	-1.84485
118	0xbfd34cf3	-1.6507858
119	0xbcf0219c	-0.029312901
120	0xbe44cb43	-0.19218163
121	0x3c883a97	0.0166295
122	0xbd8b374d	-0.06797657
123	0xbdb7a798	-0.08967513
124	0xbe2d314f	-0.16913341
125	0x3d9996cd	0.07499466
126	0x3c8a43da	0.016878057
127	0x3c776311	0.015099303
128	0x3cecd13b	0.028908363
129	0xbdad7031	-0.084686644
130	0xbe899556	-0.26871747
131	0xbe117a32	-0.1420677
132	0xbe3a9b33	-0.18223266
133	0xbd582ac1	-0.05277515
134	0xbe6ef855	-0.23336919
135	0xbe3dbfa2	-0.18530133
136	0xbfd71da7	-1.6805924
137	0xbe5a7883	-0.21335034
138	0xc0078b27	-2.1178682
139	0xc00c0158	-2.187582
140	0xbe147d04	-0.14500815
141	0xbdcfeb03	-0.10152247
142	0xc00d4ac4	-2.2076883
143	0xbd0576bf	-0.03258395
144	0xbdd63652	-0.104595795
145	0xbde16ef5	-0.110074915
146	0xbf3a8c0f	-0.7286996
147	0xbdd6eb71	-0.10494126
148	0xbd81a965	-0.063311376
149	0xbe010e6f	-0.12603162
150	0xbe53a628	-0.20668852
151	0xbe10ead1	-0.14152075
152	0xbc323cac	-0.010878723
153	0xbdc79a66	-0.09746246
154	0xbd84ea17	-0.064899616
155	0xbd8898cc	-0.06669769
156	0xbdef55c8	-0.11686283
157	0xbdca1ef6	-0.098691866
158	0xbea06c85	-0.31332794
159	0xbe81d21c	-0.25355613
160	0xbe8ab4c7	-0.27091047
161	0xbd60ccd5	-0.054882843
162	0xbe000c73	-0.12504749
163	0xbce5edbe	-0.028067466
164	0xbf981a7d	-1.1883084
165	0xbfca680d	-1.5813004
166	0xc001967b	-2.0248096
167	0xbe52aa57	-0.20572792
168	0xbe580aa5	-0.2109781
169	0xbd735fd3	-0.059417557
170	0xbe0ab252	-0.13544586
171	0xbff8a106	-1.942414
172	0xbfcb9c9c	-1.5907168
173	0xbf255be2	-0.6459333
174	0xbde3c274	-0.11121073
175	0xbe0df837	-0.13864218
176	0xbdfd1867	-0.1235817
177	0xbe13641e	-0.1439366
178	0xbdfcc84d	-0.12342892
179	0xbe24abfc	-0.16081232
180	0xbde5323c	-0.11191222
181	0xbddedc43	-0.10881855
182	0xbe3dd1ea	-0.18537107
183	0xbe31226b	-0.17298286
184	0xbe64f233	-0.22358017
185	0xbdfcd9de	-0.12346242
186	0xbe6774a3	-0.22603087
187	0xbea21e52	-0.31663758
188	0xbe86e9fe	-0.26350397
189	0xbe31af66	-0.17352065
190	0xbe8af816	-0.271424
191	0x3d9b3864	0.07579115
192	0xbe8acaa3	-0.27107725
193	0xbf980919	-1.1877776
194	0xbfe13ac2	-1.7596056
195	0xbdd4f61c	-0.10398504
196	0xbe18255b	-0.14858
197	0xc0077800	-2.1166992
198	0xbdab2776	-0.08357136
199	0xbe3b5978	-0.18295848
200	0xbf9ef8dc	-1.2419696
201	0xbe041883	-0.12899975
202	0xbe86655f	-0.26249215
203	0xbe2855bb	-0.16438954
204	0xbde754b3	-0.11295452
205	0xbdc6acaf	-0.097009055
206	0xbdeebc7f	-0.116570465
207	0xbe338000	-0.17529297
208	0x3cb7e24b	0.022446772
209	0xbe385b0f	-0.18003486
210	0xbeaba527	-0.3352444
211	0xbe9d4707	-0.30718252
212	0xbe4c87f5	-0.19973738
213	0xbe8e25e0	-0.2776327
214	0xbe571048	-0.21002305
215	0xbdf07d32	-0.11742629
216	0xbe9f4353	-0.31106052
217	0xbe8ce75f	-0.27520272
218	0xbe4a3f47	-0.19750701
219	0x3db5636b	0.08856853
220	0x3d61ef30	0.055159748
221	0xbf1fb7b1	-0.62389666
222	0xbdca16fc	-0.09867665
223	0xbd852964	-0.06502035
224	0xc00efbdd	-2.2341225
225	0xbe79aeb1	-0.24383046
226	0xbe9f4c2d	-0.31112805
227	0xbe8baeb6	-0.2728173
228	0xbd49c951	-0.049264256
229	0xbe6d11bd	-0.23151298
230	0x3dae61b1	0.08514727
231	0xbdac4852	-0.084122315
232	0xbdbefb09	-0.09325225
233	0xbdcfcb7c	-0.101462334
234	0xbde3d973	-0.111254595
235	0xbe283e36	-0.16429982
236	0xbd99feeb	-0.07519325
237	0xbe5fca5d	-0.21854539
238	0xbea6ffd8	-0.32617068
239	0xbeba51df	-0.36390588
240	0xbe8743d0	-0.26418924
241	0xbe99b1fb	-0.300186
242	0xbe64756a	-0.22310415
243	0xbe1f4a75	-0.15555747
244	0xbe1619b4	-0.14658242
245	0xbe6e0513	-0.23244123
246	0xbe1b3bca	-0.15159526
247	0xbda1cbae	-0.07900177
248	0x3e3eb15e	0.18622348
249	0xbeeb4aee	-0.45955604
250	0xbca84b6f	-0.020543782
251	0xbdbb20a4	-0.09137085
252	0xc0092bc8	-2.1432972
253	0xbd99d185	-0.07510666
254	0xbff31292	-1.8990042
255	0xbc88da23	-0.016705578

fc_mean.fc.0.weight f4 [10, 50]
0	0x3dff61fd	0.12469862
1	0x3d572bbf	0.052531954
2	0x3cd03956	0.025417965
3	0x3e016c85	0.12639053
4	0x3d9a89cd	0.07545815
5	0xbdabffcb	-0.08398398
6	0xbd253b0e	-0.040339522
7	0x3d05178b	0.032493155
8	0x3b9c451e	0.0047689816
9	0x3db45f3a	0.088072255
10	0x3d7a6717	0.06113347
11	0xbcafa6ac	-0.02144178
12	0xbedae11e	-0.42749876
13	0x3d929a24	0.07158306
14	0x3df5cc78	0.1200189
15	0xbb8ca9d9	-0.0042927084
16	0x3dd1bcaa	0.10241063
17	0xbe235b20	-0.1595273
18	0xbde8d1ca	-0.11368139
19	0xbdf47b3e	-0.11937569
20	0x3dcea40b	0.100898825
21	0xbe03f48d	-0.12886257
22	0x3d2f543d	0.042804945
23	0x3dd78883	0.105240844
24	0x3cf4f34c	0.02990117
25	0xbd6a5d6c	-0.057218
26	0xbdb0712d	-0.086153366
27	0x3d76494d	0.0601285
28	0xbe0d7ee7	-0.1381794
29	0x3de011ca	0.10940893
30	0x3c9c94f6	0.019113999
31	0x3e0c3b05	0.13694389
32	0x3d909a5a	0.0706069
33	0x3d1207bf	0.03565192
34	0xbeb178e0	-0.34662533
35	0x3dea5fb5	0.11444036
36	0x3e110df8	0.14165485
37	0x3d8398a6	0.064256
38	0x3d319184	0.043351665
39	0x3e088314	0.13331252
40	0x3d3ced73	0.046124887
41	0xbc8869a4	-0.016651936
42	0x3de73978	0.11290258
43	0x3d288507	0.04114249
44	0xbd367e8a	-0.04455427
45	0x3db15206	0.08658223
46	0x3dfbedf2	0.12301244
47	0xbc7b82d2	-0.015351014
48	0xbdb372eb	-0.08762153
49	0xbe19f0d2	-0.15033272
50	0xbd7f6ec7	-0.062361505
51	0x3c1ff10c	0.00976206
52	0xbd61c255	-0.05511697
53	0x3db345b3	0.087535284
54	0x3c5339b3	0.012892175
55	0xbda9c561	-0.082896
56	0xbd8b3fef	-0.06799304
57	0x3d7b0e10	0.061292708
58	0x3d8ee587	0.069773726
59	0x3df8dc70	0.1215142
60	0xbe065211	-0.13117243
61	0xbdf99bad	-0.12187896
62	0xbdf0439e	-0.11731647
63	0xbe1eb192	-0.15497425
64	0xbd84d48b	-0.06485852
65	0x3e085972	0.1331537
66	0xbcb9a6cb	-0.02266254
67	0xbda50e9f	-0.080594294
68	0xbd308f03	-0.043105137
69	0x3ca88702	0.02057219
70	0xbdc79af7	-0.09746354
71	0xbdcf13c4	-0.10111192
72	0xbe13a719	-0.14419211
73	0xbdc78994	-0.09743038
74	0x3dba4009	0.09094245
75	0x3d324a99	0.043528173
76	0xbdabc440	-0.08387041
77	0x3da6ac5b	0.08138343
78	0xbdcf9184	-0.10135177
79	0x3ddb3ecf	0.10705339
80	0x3cbc9974	0.02302239
81	0xbdd8e3c0	-0.10590315
82	0x3dc0aff2	0.09408559
83	0xbdc925d1	-0.09821666
84	0x3dade526	0.08490972
85	0xbe04b837	-0.12960897
86	0xbd7e98ff	-0.062157627
87	0x3c982882	0.018574003
88	0x3da63136	0.08114855
89	0xbdb55989	-0.08854968
90	0x3d83e172	0.06439485
91	0x3e02fd7a	0.12792006
92	0x3dd3cbc2	0.10341598
93	0x3df9c51a	0.12195797
94	0x3cfe7c77	0.031065209
95	0xbdc79293	-0.09744754
96	0xbdb7f295	-0.08981816
97	0xbc98f20e	-0.018670108
98	0xbd80952d	-0.06278453
99	0x3ddf8448	0.109139025
100	0x3d4b15ee	0.04958146
101	0x3e4bea9f	0.1991372
102	0xbd0f1602	-0.034933098
103	0xbcbf8a69	-0.023381429
104	0xbdce7634	-0.10081139
105	0x3dc3ed76	0.095667765
106	0x3dfc3891	0.12315477
107	0xbaf7eaf8	-0.0018914631
108	0x3dbf0a3d	0.09328125
109	0xbdc5bdfe	-0.09655379
110	0x3d53e266	0.051729582
111	0xbda243db	-0.07923099
112	0xbe6981da	-0.2280344
113	0x3df3a3ae	0.11896454
114	0x3e1b9f10	0.15197396
115	0x3e20f1d5	0.15717252
116	0x3d2a3f8d	0.041564513
117	0xbd97082a	-0.07374604
118	0x3d27132e	0.040789776
119	0x3e861bca	0.26193076
120	0x3df3cc31	0.11904181
121	0x3d4ed902	0.050499924
122	0x3d99fa6f	0.075184695
123	0xba24b172	-0.0006282545
124	0xbe3f648d	-0.18690701
125	0xbd855b4c	-0.06511554
126	0xbde39c91	-0.11113847
127	0xbc7532ed	-0.014965755
128	0x3e02cc0d	0.12773152
129	0x3d5fb0c4	0.054611936
130	0x3dc43c7f	0.09581851
131	0x3e0251e6	0.12726554
132	0xbe0dd8e3	-0.13852267
133	0x3de59c45	0.11211447
134	0x3e3ca32e	0.18421623
135	0xbdb7ec02	-0.08980562
136	0xbce91165	-0.028450677
137	0x3e3586ce	0.17727205
138	0x3d87a6f4	0.06623641
139	0x3e324a9a	0.1741127
140	0xbd86d59b	-0.06583711
141	0x3dcfdc25	0.10149411
142	0x3e44f914	0.19235641
143	0x3df888ea	0.12135489
144	0x3c36b5d3	0.011151749
145	0x3e8ef126	0.27918357
146	0xbdfeb3af	-0.12436616
147	0x3ca552c2	0.020181064
148	0x3d138a89	0.03602079
149	0xbcd1ef87	-0.02562691
150	0xbe204b39	-0.15653695
151	0x3d50d036	0.050979815
152	0x3d332e28	0.04374519
153	0x3d2d2904	0.042275444
154	0xbd6727f9	-0.056434605
155	0xbe17be13	-0.14818601
156	0xbde78428	-0.11304504
157	0x3dd5374e	0.10410939
158	0xbdfb3790	-0.12266457
159	0x3d5669e7	0.05234709
160	0xbde8ac18	-0.11360949
161	0x3d1512e4	0.03639497
162	0x3d90c6ef	0.070691936
163	0x3b8a3c3b	0.004218606
164	0xbd88f5f3	-0.06687536
165	0xbdcf28de	-0.10115217
166	0xbc862420	-0.016374648
167	0x3c9007d3	0.017581856
168	0x3cde0407	0.02710153
169	0x3cc53bac	0.024076305
170	0xbd89a32f	-0.06720578
171	0xbd1610e7	-0.036637213
172	0x3e05be76	0.13060936
173	0x3d22ca45	0.03974368
174	0xbe123aeb	-0.14280288
175	0xbe223fac	-0.15844601
176	0x3d98b078	0.07455534
177	0xbdfc9472	-0.12333001
178	0xbd393431	-0.04521579
179	0x3ce1ecc5	0.02757872
180	0xbd8f95b7	-0.07010978
181	0x3c0b0340	0.008484662
182	0x3dd99bfe	0.10625456
183	0xbdeaa7ef	-0.11457812
184	0x3df403e9	0.11914808
185	0xbbbbe905	-0.005734565
186	0xbdcb3e21	-0.099239595
187	0x3dbb1564	0.09134939
188	0x3dcfc412	0.10144819
189	0xbd06f497	-0.032948103
190	0xbdb2f6a0	-0.08738446
191	0x3d0d1d03	0.034451496
192	0x3d960eaf	0.073270194
193	0x3dab623e	0.083683476
194	0xbe0d2591	-0.13783862
195	0x3d87ca27	0.066303544
196	0xbd3e2a47	-0.046427038
197	0xbd5786d1	-0.052618805
198	0xbd0d52cd	-0.034502793
199	0xbe2204f5	-0.15822203
200	0x3e029bad	0.12754698
201	0x3e028819	0.1274723
202	0x3c5ba4d5	0.013405998
203	0xbd9d8789	-0.07691867
204	0xbce2095c	-0.027592354
205	0xbc8beff5	-0.017082194
206	0x3dce16cb	0.10062941
207	0xbd028f56	-0.031874977
208	0x3d18a151	0.03726322
209	0xbcce06c2	-0.025149707
210	0x3d44d288	0.04805234
211	0x3da28bb0	0.079367995
212	0xbb55543b	-0.0032551426
213	0xbdc6211d	-0.096742846
214	0xbe84712b	-0.2586759
215	0xbe8208ba	-0.25397283
216	0xbdc1dbaa	-0.09465726
217	0xbd745ca9	-0.05965868
218	0x3ba9a38b	0.0051769665
219	0x3e732943	0.23746209
220	0xbc29a09b	-0.010353233
221	0x3db2e0c3	0.08734276
222	0xbe18a2b5	-0.14905818
223	0x3e2c47d7	0.1682428
224	0x3e3ad025	0.18243463
225	0x3d4b5654	0.049642876
226	0xbe14791e	-0.14499328
227	0x3a6a85d6	0.0008946335
228	0xbd9db266	-0.077000424
229	0x3d73181b	0.05934916
230	0x3dc44459	0.09583349
231	0xbd3a231e	-0.045443647
232	0x3dcdc0ed	0.10046563
233	0xbd6752c0	-0.0564754
234	0xbe04f379	-0.12983502
235	0x3de00736	0.109388754
236	0x3e63d4f4	0.22249204
237	0x3e3733c2	0.17890838
238	0xbd80f97b	-0.062975846
239	0xbdb2d0ee	-0.087312564
240	0xbe004e78	-0.12529933
241	0xbdb38fbb	-0.08767649
242	0xbde567c6	-0.11201434
243	0x3e15576e	0.14584133
244	0x3e274fcd	0.16339035
245	0xbd003f09	-0.031310115
246	0xbda3ea6c	-0.08003697
247	0xbda18bc5	-0.07887987
248	0x3d0bfdd4	0.034177616
249	0xbe0b1a22	-0.13584188
250	0x3e292e08	0.16521466
251	0x3e088718	0.13332784
252	0xbd94ac4d	-0.07259426
253	0x3daade3d	0.0834317
254	0x3d9725d1	0.0738026
255	0x3df68bab	0.12038358

fc_mean.fc.0.bias f4 [10]
0	0xbd2ea592	-0.04263837
1	0x3c536d89	0.012904533
2	0xbd906022	-0.07049586
3	0xbc640dd1	-0.01391931
4	0x3bc85c82	0.0061145434
5	0x3cf1d744	0.029521592
6	0xbdd2378d	-0.10264502
7	0xbc2a3044	-0.010387484
8	0xbd42fcf6	-0.047604524
9	0x3a57990f	0.00082244066
