AutoEncoders/VAE_CL/saved_model/nocon_model.pth (torch, 682744 bytes, 15 tensors)

encoder.0.fc.0.weight f4 [100, 784]
00000000: dc67 053d 4888 303d 88be 983c ec65 0ebc
00000010: b1e5 54bb 06c8 383d 0e32 0f3d 61c9 de3c
00000020: 6686 383c 5038 14bc f059 47bc 3e1a bfba
00000030: acfa b6bc 4c9c afbc 226f 5cbc 2e14 2abc
00000040: a2a7 613c 89be 2b3d 86f9 4dbc e7d6 b13c
00000050: 8892 a9bb e940 c83c 7be5 d83a 606f 07bc
00000060: a9be aa3c f5f4 95bc 4964 f53c 14f8 28bb
00000070: 1e59 8a3c bd6a 1c3d 08e7 9abc a232 15bc
00000080: 2849 333d 150a 8dbc 1141 c63c 30a1 123d
00000090: 0746 143d 72b1 213d 43a4 88bc eab4 423c
000000a0: 5609 ebbb bf62 f8bb d760 e0bb 9277 213d
000000b0: 00ce 903c 1497 9dbb 6a89 7b3c 1f5c 9dbc
000000c0: 48f6 18bc 1aec 17ba 88d8 e33b 950f 45bb
000000d0: 16b9 703c 4c30 8cbc daf3 ba3c 8212 233c
000000e0: 1d5a fcbb ab33 d43c 382f ae3b f827 adbb
000000f0: 65b9 69bb 409d 0dba 18e6 6abc f2da c83c
00000100: 5e06 9ebc ec94 483c b279 6c3c d936 b0bc
00000110: 8472 3f3c b560 02bd fe2e adbb c1d2 a53c
00000120: 8a2f cdbc 58f9 8fbc 258c 55bc 62d1 1ebb
00000130: 02e6 643c c2cc 743c d818 bfb9 4783 2d3d
00000140: a020 163b 1b1b da3c 2ee5 2ebc cfd5 e23c
00000150: 9dfa 173d dc66 1e3d 1fc8 d5bc 7f76 bebc
00000160: bdbc b03c 79fd 813c f33f 6abc b313 8d3c
00000170: b755 cdbc 52f6 673c 3cb4 533c 62e7 123d
00000180: 10f1 3cbb 24aa cf3c 7539 f23c 8c4c 4ebc
00000190: f0b7 b6bc dec7 de3c c9c3 fb3b 4f2d 193c
000001a0: 00fd d7bc 5fa1 103d a2bf 783b 6956 46bb
000001b0: 156b a33c b87f fc3b b083 68bc eecc 1d3d
000001c0: 428a fcbb c62d a83b d8fb ec3b faab 0b3d
000001d0: b36f 843c 316b c4bb 4780 9d3c 9b60 32bc
000001e0: 5eff 323c 28b0 ddbc 4d80 043d 9c6d 95ba
000001f0: 0b38 fa3c 8807 4f3c b332 053d fcf5 bb3c
00000200: c003 7d3c 2187 6abc 53ac b73c 2831 b13c
00000210: dde0 c53c 14ae 0cbc 5cf4 193d 92d9 f03c
00000220: 4855 ffbb cf4b 2c3d f66c 953c 7560 8b3b
00000230: 8386 213d 3ec5 7d3c f32e 93bc e93f d43c
00000240: add7 d0bc af6f fb3c bf9e 033d 8d61 993b
00000250: 55b9 17bc beb7 75bc 18b5 df3c 98a8 ee3c
00000260: 1f36 063d c8b1 99bb 5527 923c d25d 9139
00000270: 48ee 92ba ba87 8abc 7b63 c93c 2d46 adbc
00000280: fc53 ddbc f927 eeb9 c76e eb3c 8ec9 19bc
00000290: 1004 42bc 9b31 53bb 5a9e 5fbc d13e b73c
000002a0: cff2 903a c8a9 cc3b 55f8 8dbc ea81 ee3c
000002b0: 9b1d 9abc afe1 003c 4c10 edbb 9a13 f93c
000002c0: d538 073c 0d5d 64bc 9a1a 383c 186f 7e3c
000002d0: f36a 153c 96f6 09bd b703 e4ba 4187 9b3c
000002e0: 7969 873c 5f89 19bc d7b6 6538 bfd4 143d
000002f0: 1d38 8bbb 896a 603c bdf2 e9bc d33d 67bc
00000300: b694 213d 4fe4 d8bc a4ab 593c 6347 1c3d
00000310: 3c61 87ba 634a 0b3b 0bd0 843b 4046 bcbc
00000320: 392d 1f3d 4340 8f3a ca18 fb3b cec1 ea3c
00000330: 57fd 893c 1e66 abbc 1ed6 22bd 6a6a bd3c
00000340: f958 5f3c a9ee d2bc b926 bfbc ca65 ce3c
00000350: 0a06 03bb 9b81 b63c 083b c73c 4940 cbbc
00000360: 3823 b93c 18d6 84ba 522e dc3c 01a1 d6bc
00000370: bf84 2c3d 3278 75bc 3b66 923c cad0 103d
00000380: bb5b cabc 176e 833c 1804 113d 04b0 0ebc
00000390: 892f f63c 0a2e b93c dc66 283d 762c 8f3c
000003a0: 03c6 8fba 618b 88bc 4cbc 983c 4173 dc3c
000003b0: 6efd c03c c3bf 41ba c064 c0bc 2a3b b73c
000003c0: ff0a 16bd dff1 1a3c 4aaf 18bd b7c6 34bd
000003d0: 22cb 6cbc 1b57 7a3b 1506 83ba 51b7 033d
000003e0: 6fdd a1bc d31f beba f0b2 c9bb e559 fcbb
000003f0: 2fa9 95bc ebae 6e3b e780 c43c fc16 993c
0.03256975 0.043098718 0.01864554 -0.008691292 -0.003248554 0.045112632 0.034959845 0.027195634
0.011262512 -0.009046629 -0.012167439 -0.0014579964 -0.022336327 -0.021436833 -0.0134542305 -0.010380788
0.013772877 0.041929755 -0.012571698 0.021708919 -0.0051749386 0.024445014 0.0016547883 -0.0082663
0.020842867 -0.018305281 0.029955046 -0.0025782632 0.016888198 0.03818773 -0.018908992 -0.00910631
0.04377094 -0.017216722 0.024200948 0.03579825 0.036199596 0.039475866 -0.016679889 0.011883954
-0.007172744 -0.007580131 -0.0068474817 0.03942067 0.017676353 -0.0048092697 0.015352586 -0.019208966
-0.009336062 -0.0005795375 0.006953303 -0.0030069102 0.014692565 -0.017112873 0.022821356 0.009953143
-0.007701172 0.025903543 0.0053156875 -0.0052843057 -0.0035663482 -0.0005402155 -0.014337085 0.024518464
-0.019290145 0.012242537 0.014433311 -0.021510528 0.0116850175 -0.03183051 -0.005285143 0.020242097
-0.025047082 -0.017574951 -0.013033901 -0.0024233689 0.013970854 0.014941396 -0.0003644887 0.042361524
0.002290763 0.026624253 -0.010674758 0.027689843 0.037104238 0.038672313 -0.026096402 -0.023249863
0.021574372 0.015867935 -0.014297473 0.017221307 -0.025065286 0.014157848 0.012921389 0.035865195
-0.0028830208 0.025349684 0.029568413 -0.012591492 -0.022304505 0.027194913 0.0076832515 0.009349181
-0.026365757 0.035310145 0.003795602 -0.0030263907 0.019948522 0.007705655 -0.014191553 0.038525514
-0.0077069113 0.0051324097 0.0072321706 0.034099557 0.016166544 -0.0059942235 0.019226206 -0.01088729
0.010925142 -0.027061537 0.03234892 -0.0011400464 0.030544301 0.012636073 0.032519054 0.022944443
0.015442789 -0.014314444 0.022421038 0.021629885 0.024155075 -0.008586425 0.037586555 0.02940062
-0.0077921487 0.042064484 0.018240433 0.004253442 0.03943492 0.015488921 -0.017966723 0.025909381
-0.025493467 0.030692903 0.032133814 0.0046808184 -0.009260495 -0.014997421 0.027308032 0.029133126
0.032766458 -0.0046903826 0.01784102 0.00027726457 -0.0011209929 -0.016910423 0.024583569 -0.021151626
-0.027017586 -0.0004542468 0.028739346 -0.009386433 -0.011841789 -0.0032225612 -0.013648594 0.02236882
0.0011058691 0.0062458254 -0.017330328 0.029114682 -0.018812945 0.007866307 -0.0072346088 0.030404855
0.008253296 -0.013938201 0.011236811 0.0155294165 0.009119737 -0.03368243 -0.0017396127 0.018985393
0.016529785 -0.009371131 5.4768137e-05 0.036335703 -0.0042486326 0.013697275 -0.02855813 -0.014113861
0.039448462 -0.026476054 0.013285551 0.038154017 -0.0010328661 0.0021254055 0.004053121 -0.022982717
0.038861487 0.0010929186 0.007662867 0.028656866 0.016844435 -0.020922717 -0.03975498 0.023122031
0.013632053 -0.025748568 -0.023333894 0.025195021 -0.0019992613 0.022278598 0.02432014 -0.024810927
0.022599801 -0.0010134606 0.026877556 -0.02619982 0.042118784 -0.01498227 0.017871013 0.035355367
-0.024701944 0.016043706 0.035404295 -0.008708958 0.030051963 0.022604961 0.04111372 0.017477255
-0.0010969046 -0.016668024 0.018644474 0.026910426 0.023558345 -0.00073909404 -0.023485541 0.022367079
-0.03663158 0.009457081 -0.037276544 -0.04413482 -0.0144527275 0.0038198892 -0.000999632 0.032157246
-0.019758908 -0.0014505334 -0.006155364 -0.007701146 -0.01826915 0.0036420177 0.023987247 0.018687718

encoder.0.fc.0.bias f4 [100]
00000000: 07a5 d6bc d83a d83b 7914 583c 289a 503d
00000010: 6541 b23c c58e aabb b5c2 34bd 2138 413c
00000020: a7db 1dbd 905f bb3c 1a7a f8bb 5157 acbc
00000030: af3a 02bd ab9e af3c 67fa d8bb 4b98 983c
00000040: 3d7e 253d eeb4 a03c ae3d a5bc 4a76 f2bc
00000050: 0197 63bc 0109 423c 7bfe fcbc 4e73 d9bc
00000060: ae31 c1b9 6568 53bc 249a 813c 0656 04bd
00000070: 0ffc 3bbc 3173 1fbb 9cc3 cc3c 8008 da3c
00000080: 5ec1 df3c 26e1 0cbd 4b00 1c3d ed84 0cbd
00000090: 606b 163d a4ed 413c e88f e9bc fc07 59bc
000000a0: 159e 44bc 0278 bf3c 3777 8cbd ae8b 8cbc
000000b0: 250f 09bd 8325 00bc f540 d03c 0814 fa3b
000000c0: c930 6bbc 25b1 103c 4489 953c e7c4 17bb
000000d0: 65b8 a1bc 9a56 323c 60d9 91bc 061a fabc
000000e0: 7fb8 2fbd e3e7 0abb dbd0 053d decc 443d
000000f0: 69e2 0fbd 3fdb 483c ecbd a33c a732 aa3d
00000100: be9a e6ba c474 0ebc bdc2 013d a4d9 98bc
00000110: 2228 003d 59db febc ebe7 2cbd 4f6d 9c3c
00000120: a70c 21bd 8156 cabc 53de fbbc 0ad7 193d
00000130: d06a 913c 8ebc 1f3d 9322 793c 824d 1b3d
00000140: 3b65 99bb 8884 8cbc c2dd 373c 8375 03bd
00000150: c8e1 1b3c 9277 a5bc 9ad5 10bc 7281 5cbc
00000160: 983a a63d 94a8 45bb 0647 f0bc 7de7 a73c
00000170: 0f6a b3bc 7de5 393d 48a8 bc3c 6791 0bbd
00000180: 59fb fcbc 0141 153b fdda 10bc 6dee 07bd
-0.026201738 0.0065988116 0.013188475 0.050928265 0.021759698 -0.0052050077 -0.044131 0.011793167
-0.038539555 0.022872716 -0.007582915 -0.02103773 -0.031794246 0.021437963 -0.006621647 0.018627306
0.040403593 0.019617524 -0.020171013 -0.02959742 -0.013890983 0.011842967 -0.030883064 -0.02654424
-0.00036848843 -0.012903308 0.01582057 -0.0323086 -0.01147367 -0.0024330134 0.024995618 0.026615381
0.027313884 -0.034394406 0.038086217 -0.034306455 0.036723495 0.011836443 -0.028511003 -0.0132465325
-0.01200058 0.023372654 -0.06858676 -0.017156448 -0.03346171 -0.0078214435 0.025421599 0.0076317824
-0.014354893 0.008831297 0.01825393 -0.0023158134 -0.019741246 0.010884905 -0.017803848 -0.030529987
-0.04290056 -0.0021195344 0.032669883 0.04804694 -0.03512803 0.012259304 0.019988023 0.083104424
-0.0017593724 -0.008694831 0.031679858 -0.018658467 0.031288274 -0.031110452 -0.04221336 0.019095091
-0.039318707 -0.024699451 -0.03074566 0.037558593 0.017751127 0.03899818 0.015205997 0.037915714
-0.004681257 -0.01715304 0.011222305 -0.03209449 0.00951428 -0.020198617 -0.008839989 -0.013458597
0.081166446 -0.0030160295 -0.029330742 0.020496124 -0.021901159 0.045384873 0.023029462 -0.034074213
-0.03088157 0.002277434 -0.008841273 -0.033186365

encoder.1.fc.0.weight f4 [50, 100]
00000000: 7b95 5d3d c1e3 973d b042 7f3d 9162 bf3d
00000010: 9b93 763d a0d1 d5bc ba0c b43c 9670 6dbc
00000020: fe28 8abd b070 103c 55a6 863c 9b66 02be
00000030: ab85 6a3c d3b9 87bd 6fee 8ebd 8bb8 863c
00000040: 6f41 933d 87c6 40bc a0c7 dabc 3c6a 69bd
00000050: fc1e b1bd 5612 89bd 2c0b febc 4485 c9bc
00000060: 2ee2 05bd 6862 22be 8886 9abd f807 7ebd
00000070: 617a d9bb fe2c 4cbe cdae 873d a1a7 5dbd
00000080: ff26 26bc e2ba 833d ae99 0a3d 219b 583d
00000090: ca2f ad3d 1fce 4b3d cefd a63c a3c8 c4ba
000000a0: 3768 da3c 5926 b1bd 4ede 953b 55a9 433c
000000b0: 6e22 45bd 8d37 86bd 6fcf d63d 299c b83b
000000c0: ab41 bb3c 0d3f a8bd b05d b8bd 284c 763d
000000d0: d7b3 ec3c 8d92 393d 17e7 b7bc f3be 5d3d
000000e0: 529e 65bc a3a7 42bc 2c8e e53d 4c7a 04bd
000000f0: de67 873d a725 26bd 3518 abbd 40f0 ea3d
00000100: f859 7b3d 2b41 cbbb 20cf 02bd 40ba 20bd
00000110: acd8 163d 4e20 fcbc 9ccc 68bd 1f0d 9cbc
00000120: 5620 983d 2324 97bd eb8b 86bc 37fa 443c
00000130: 1934 ae3d ffb6 b0b9 bcbd 233d 0fab d0bc
00000140: 93f7 af3c a332 08bd 52fa bc3d ccac b2bc
00000150: 1c6e 363d fc44 5bbb a681 4dbd 3e1a 4dbd
00000160: cc77 cb3d da9e bc3d c8e1 ce3d cb33 863b
00000170: 1af4 c03d 9c99 fa39 0bed 10bd ffce 943d
00000180: 667d 3d3c c615 403d 5074 2dbd 47a3 3dbd
00000190: de23 213b 16e2 cbbb b128 a93d 13ea b83d
000001a0: f1e7 ee3c 185b e43d af6a 513d 0a95 2f3d
000001b0: 0bbd 87bd 99b9 463d a0a0 083d e851 52bd
000001c0: d695 e5bc a947 8b3d 5a9e 05bc 5890 f9bc
000001d0: 4368 e63c 4dd5 3dbd 1612 8a3d 6b52 6d3d
000001e0: 354c aa3c 8238 d9bc 293d 5cbd 8a71 c8bc
000001f0: 4323 2fbd 4c11 523d 52a6 d6bb c85c 893d
00000200: f642 173d 4eba f03c 75a3 c63c 594d 1dbd
00000210: ab52 43bc f2d6 a1bc f231 92bd f6b9 923d
00000220: a3ce fcbc a179 553c 2efb a7bd 9ecb 93bc
00000230: e1a4 b73d 4ad8 0abd 9b89 89bc 76ac d3bc
00000240: a59d e73c 32b4 f7bc 97a6 87bc 2af3 943d
00000250: 9056 933d 88d1 cd3c 6869 a43d c0b9 fabc
00000260: feff 5b3d 64af 66bd 5a90 4a3d c00b 893d
00000270: eab1 333d 8065 40bd e932 bdbd c450 9c3d
00000280: fbe9 603d 7033 9e3d b729 c1ba 6a43 c53d
00000290: 153b 143d 3f14 e53c a925 aabd fd3f 01bd
000002a0: 0a21 e8bc 9f48 523d 5341 0a3c c306 1bbd
000002b0: d5f0 6ebd 5c66 423c 5db2 96bc 9088 9b3d
000002c0: c68f 1fbd 220d de3d e131 943c 95a3 9bbb
000002d0: 5ea0 773d 78b8 2bbd a6b1 633d c40d 46bd
000002e0: ebf5 8fbd 5f4f 5abb 3eda ce3b 82e2 01bd
000002f0: 0573 6d3d 4e6c 833d 4b25 9abd b0bd 0a3d
00000300: a604 39bd b5a5 a8bd ca5b e13b 3ac9 273b
00000310: 54ca e03c 7802 34bc 9f18 153e d21f 983d
00000320: 149f 89bd ecf3 043a 2aa1 b6bc bcd2 b8bd
00000330: a1be 14bd dff0 bc3d 4162 e73d c555 66bc
00000340: d2a0 c03d d712 f0bc 674e ebbc 51b5 efbd
00000350: 0a22 82bb d166 943c 4a79 443d 1537 f2bd
00000360: 3a29 13bd 6c87 90bd fea5 4abd 83b7 213d
00000370: 7a68 cf3d a04b d8bc b81d f0bc 4315 51bd
00000380: 0c1d 013d e4be 02be 2bdb b33c 552b 703d
00000390: 1244 2f3c 2d61 283e bdde 353d e30e d73d
000003a0: e3e3 43bd e4e2 6fbd 09fa 15bd f055 7b3d
000003b0: 6da9 35bd a151 e9bd 8ba4 e63c 4600 1ebd
000003c0: 8e19 823d 614d 853d ddf2 ba3d 6d1d 9abc
000003d0: 99ab 77bd cded f63d 3522 853c b28f d8bb
000003e0: ea0b 8bbd 1c41 a7bc cea9 9b3c c098 083d
000003f0: f342 c9bd 6dd5 b5bd 9b0a 523c b88d 893d
0.054097634 0.074164875 0.062319458 0.09344972 0.06019936 -0.026100934 0.021978725 -0.014492175
-0.067461 0.008815929 0.016436735 -0.12734453 0.0143140955 -0.0662724 -0.06979071 0.016445419
0.07190215 -0.011766083 -0.026706517 -0.05698608 -0.08648488 -0.066929504 -0.031011187 -0.024599679
-0.032686405 -0.15857852 -0.07545191 -0.06201932 -0.006636903 -0.19939038 0.066251375 -0.05411494
-0.010141133 0.064321294 0.033837967 0.052882317 0.08456381 0.04975712 0.020384695 -0.0015013408
0.026661022 -0.08649892 0.00457362 0.011942227 -0.048128538 -0.06553564 0.104887836 0.00563385
0.022858461 -0.08215151 -0.090022445 0.060131222 0.028894348 0.045305777 -0.02244906 0.05413718
-0.014014797 -0.011880788 0.11208758 -0.032343194 0.06611608 -0.04056325 -0.083542265 0.11471605
0.061365098 -0.006202837 -0.03193581 -0.03924012 0.03682773 -0.030777123 -0.056835756 -0.019049225
0.074280426 -0.073799394 -0.01642414 0.0120225465 0.085060306 -0.0003370568 0.039975867 -0.025472192
0.021480357 -0.033251416 0.09227432 -0.021810912 0.044538602 -0.0033457866 -0.05017247 -0.050073855
0.09934959 0.09209986 0.10101658 0.0040955297 0.09421559 0.00047798164 -0.03538231 0.07266044
0.011565542 0.046895765 -0.042347252 -0.04629829 0.002458803 -0.00622202 0.082597144 0.09029021
0.029163333 0.11150187 0.051127132 0.042866744 -0.06627854 0.048516843 0.03335631 -0.051347643
-0.028025549 0.068007775 -0.00815543 -0.030464336 0.028125888 -0.046345998 0.06741731 0.057939928
0.020788291 -0.026516203 -0.053769264 -0.024468202 -0.042758238 0.051286027 -0.0065505886 0.0670715
0.036929093 0.029385712 0.024247864 -0.038403843 -0.011921565 -0.019755814 -0.071384326 0.071643755
-0.03086025 0.013029487 -0.082022056 -0.018041428 0.08966995 -0.033897676 -0.016789248 -0.025839072
0.028273413 -0.030237291 -0.016558928 0.07272942 0.07194245 0.025124326 0.08027917 -0.03060615
0.05371093 -0.05631961 0.04945407 0.06691694 0.043870844 -0.046971798 -0.09238226 0.07632592
0.05491064 0.07724655 -0.0014737163 0.09631999 0.036189158 0.027963756 -0.08307964 -0.031555165
-0.028336067 0.051338788 0.008438426 -0.037848245 -0.058335144 0.011865225 -0.018395597 0.075944066
-0.038955472 0.10842349 0.01809019 -0.004749725 0.060455672 -0.04192397 0.05558934 -0.04835297
-0.07029327 -0.003331147 0.0063126376 -0.031710155 0.05797102 0.06417142 -0.07526644 0.033872306
-0.04517045 -0.08234731 0.006877397 0.0025602118 0.027440228 -0.010986917 0.14560173 0.07427944
-0.06719795 0.00050717476 -0.022293646 -0.090245694 -0.03631461 0.0922563 0.11298037 -0.014058535
0.09405674 -0.029305859 -0.028723909 -0.11704505 -0.003971343 0.018115433 0.047967233 -0.11826912
-0.03592799 -0.0705708 -0.04947471 0.03948165 0.10127349 -0.026403248 -0.029311046 -0.051045667
0.031521842 -0.12768131 0.021955093 0.058635075 0.010697382 0.1644332 0.044401873 0.10500886
-0.04782475 -0.05856599 -0.036615405 0.061361253 -0.04435103 -0.113925226 0.028154632 -0.03857448
0.063525304 0.065088995 0.09128354 -0.01881286 -0.060466383 0.12057076 0.016251663 -0.0066089267
-0.06789382 -0.020416789 0.019001868 0.0333488 -0.09827223 -0.08878598 0.012819911 0.06716484

encoder.1.fc.0.bias f4 [50]
00000000: 5511 153d 890c 4abd c15a 74bd 8167 64bd
00000010: f72f 0dbd 3fb2 f13d df94 c93d ffcf 7e3d
00000020: e16b 8a3d f8df 45bd 2e3b b2bd 3fd2 b4bd
00000030: 8a65 103e b804 133d a581 573c bdde d3bd
00000040: d0f5 bfbc d89c c8bd cfa4 513d b647 58bd
00000050: 4970 793d 71d9 a73d 982d 31bd 235d d4bb
00000060: a6ec 83bd bfe5 c53c cae0 d0bd e850 023d
00000070: 4c9b 3b3d 104a c9bd 6bd8 e4bb 9627 f1bc
00000080: 86e2 4cbc b7b0 1dbd 8dd1 83bd 4e8b 3cbc
00000090: ca8f a8bb cc26 d23c 1577 0cbd 101d 5fbd
000000a0: 2207 1abd d363 993d a9e2 7dbd 903a 093e
000000b0: 2476 19bd cd2f 8e3d 5e1f 2bbd 549f 5dbd
000000c0: d905 47bd 744b 073e
0.036393482 -0.04932836 -0.059656862 -0.05576277 -0.03446957 0.11801576 0.09842848 0.06221008
0.067588575 -0.048309296 -0.08702694 -0.08829164 0.14101234 0.035893172 0.013153468 -0.10345218
-0.023432642 -0.097955406 0.051182564 -0.052802764 0.0608981 0.081957705 -0.043256372 -0.0064808293
-0.064416215 0.024157403 -0.10199125 0.03181544 0.0458024 -0.098285794 -0.006983807 -0.029437821
-0.012505179 -0.038498607 -0.06436453 -0.011507822 -0.005144094 0.025653265 -0.034293253 -0.054471076
-0.03760446 0.07489743 -0.061983738 0.13401246 -0.037466183 0.06942711 -0.04177796 -0.054107025
-0.04858956 0.13212377

decoder.0.fc.0.weight f4 [100, 50]
00000000: 6a4d 03bd 7f07 a9be ba74 d33d f9a2 88be
00000010: 35f1 0c3f 6d5b 443e f846 45be 5dc3 063e
00000020: cd83 a6bd b0cc 33bd f7e7 8fbd be11 433d
00000030: 79a1 fb3d c02d 5c3e b8af 04be c2c0 f73d
00000040: 782c 6e3d 76fb 7d3e 32ce d33d e613 4d3e
00000050: c2a8 433e 6635 7bbd 0889 023e ce14 9abd
00000060: e3f5 e03c 962a 70bc 1b21 f6bd 0a89 0f3a
00000070: e5c0 ddbe 83ab d0bd cde2 0dbe 9500 0bbe
00000080: e35c 083f 10ad 3cbe 39bb 35bc c49b b93d
00000090: 7f97 7fbe b254 4f3e ea24 01bd fc2b d73e
000000a0: 27d2 9abd 7f0b b23e 86f3 d5bd 4ede 943e
000000b0: 3279 743e 0524 963c 2093 cb3d cb9f f33d
000000c0: ee21 213e b54f ec3d 7672 8f3e c1b3 1c3f
000000d0: 2066 bd3e 9b93 3fbe e9c0 aebe f43f 703d
000000e0: 3629 f7be 947a 94bd 81c2 0a3e f788 e6be
000000f0: 6370 c43e 9c46 a83e 6b82 dbbe 386c 05be
00000100: 8bab fa3e 26b3 cd3b cc3e 1a3b d45f 97be
00000110: b64f bd3d a9f4 7a3e 89ee 693d 8d8a 563e
00000120: 149f d83d 44b6 853e c95e acbe 65f4 fe3e
00000130: 13c1 593e fbe4 a53e 03c5 f03c d270 fe3a
00000140: e344 fabd 020a c93e 6a56 1f3e b42d a83e
00000150: 5289 0b3e 7a1b b93e 4ecc b03d 6bd0 b0bd
00000160: 5713 be3e aa64 70be 9dee b93e b54d 80be
00000170: e28d 783e e408 893e 4530 22bf a9f7 a63e
00000180: 0e21 1b3e 968a 9a3e 7c6b f4bd ce04 f2be
00000190: de8c 943e bc31 38be ce98 f23d d775 aabe
000001a0: d246 b8be 9844 743d 9615 0a3e b27d 8538
000001b0: 87d1 f03d 712a c63e 876c fe3e e5a2 613e
000001c0: 8dc9 313e 262a 66be 6b10 5e3e 74f1 0f3d
000001d0: 1551 1cbe 012c d63c ae40 cfbd b8b8 053e
000001e0: bdc1 c03d 2c81 c33d 1394 b6bc 66c2 79bd
000001f0: 7163 223e 3d03 9c3e cdf0 c23e fd40 23be
00000200: e680 f83c aac5 943e 90a6 6a3e fe31 293e
00000210: 5d1c b6be 338a e63e f708 803d 24c1 593e
00000220: e149 543e ebfe b33d 6f1e 913d fded 943d
00000230: a7e7 47be d80b 10bf 3a2e a53d 515f 543c
00000240: a817 eebd 26c2 5fbe 3b28 573e 6328 1dbd
00000250: c60f e53d 03a9 d73e c9bf 073e 7772 0abf
00000260: 02db 4abf 939d 9d3e 58d7 68bf 7168 3abb
00000270: 0d1a 473f 767d ef3d 066b 543e 249b 283f
00000280: 7e5c 653f a3cc 713e 50c8 66be d8bc 9fbe
00000290: 358b 0e3e c037 463d c6c5 f83e 4b70 df3d
000002a0: c0a6 793d 1ea5 d5bf 14e2 e0ba 6da4 8dbe
000002b0: 1c19 253e 9247 5c3f 924d 183d 4685 133f
000002c0: 1434 8bbe 496a 313d ffac 8a3e 1da9 bfbc
000002d0: 14bd 913d 18a1 bb3e eb97 e3be 5f75 473f
000002e0: 5cae cdbe 8319 543e 0b31 6f3d 6b58 af3d
000002f0: cb18 5e3a e60f 9d3e 77e7 61bf d6f2 b2bf
00000300: a1d0 6a3e 5293 8fbb d250 dabd 7d7f e6be
00000310: 37a2 8bbe 9cff 47bf d3c7 033e 803b 46be
00000320: 11ee 0a3f 2101 a3bf a5a6 843d 4615 8ebf
00000330: c980 22bf 2f4e d73e e57b 8bbe 886c 803c
00000340: 0190 60bf fe1e 8e3e 7fa1 593e d62d 9b3d
00000350: b08f 323f 881e d6be d266 7ebe a701 9ebe
00000360: 93c6 94be 2d54 0a3f c433 4bbd 1b2c 523e
00000370: dd69 a6bc e17b 1f3f 352b c53e 5f4f 0dbf
00000380: 67cd 233f 96b5 403e c50d 5b3e 425e 91be
00000390: 8e0a 85bf 2227 cd3e 1929 7b3d 3505 f83b
000003a0: 8da8 b4be 9b57 c0bd 96da 3abe 0952 123f
000003b0: 771a 923d 318b 4e3e 6602 fc3d ba0e 703e
000003c0: 2ac5 1fbf 7704 00bf fb1c 91bb 9180 163e
000003d0: 9cf9 bb3e a5f5 aabe 38a2 f33b 60c6 1abe
000003e0: 14b6 aa3e 299a da3d 1c92 a4be cae6 733e
000003f0: b020 d4be 0128 1e3f eddd 82be 2e3c 3e3e
-0.03205625 -0.33013532 0.10324998 -0.26686838 0.5505555 0.19175501 -0.19265354 0.13160463
-0.08130608 -0.043896377 -0.07026666 0.047624342 0.12286658 0.21501827 -0.12957656 0.120973125
0.058147877 0.24802956 0.10342063 0.20027122 0.19107345 -0.06133022 0.12747586 -0.075234994
0.027460998 -0.014658591 -0.12018033 0.00054754375 -0.4331123 -0.10188963 -0.13856049 -0.13574441
0.53266734 -0.18425393 -0.011092001 0.09062913 -0.24960135 0.20247152 -0.031529345 0.42025745
-0.07559615 0.34774396 -0.10446839 0.29075855 0.23874357 0.018327722 0.09940171 0.118957125
0.157356 0.115386404 0.28017014 0.6121178 0.36991978 -0.18708651 -0.34131554 0.05865474
-0.4827363 -0.072499424 0.1355076 -0.4502637 0.38366994 0.3286637 -0.4287294 -0.13029563
0.48959002 0.0062774597 0.0023535965 -0.295653 0.09243719 0.24507393 0.05711225 0.2095129
0.10577217 0.2611562 -0.33666065 0.49795833 0.21265058 0.3240126 0.029390818 0.0019412285
-0.1222017 0.39265448 0.15560308 0.3284737 0.13626602 0.36153775 0.08632718 -0.086335026
0.3712413 -0.234759 0.3631486 -0.25059286 0.24272874 0.26764596 -0.63354903 0.32610825
0.15149328 0.30183858 -0.119345635 -0.4726929 0.29013723 -0.17987722 0.118455514 -0.3329303
-0.35991532 0.05963573 0.13484797 6.365347e-05 0.11758714 0.38704255 0.49692175 0.22034796
0.17362042 -0.22477016 0.2168595 0.035142377 -0.15265305 0.02614403 -0.101197585 0.13058746
0.09411953 0.09546122 -0.022287404 -0.06097641 0.15858246 0.3047122 0.3807434 -0.1594276
0.030334901 0.29057056 0.22915101 0.16522977 -0.35568514 0.45027313 0.0625171 0.21265084
0.20731308 0.08788856 0.07085883 0.07271955 -0.19521962 -0.5626807 0.08065458 0.012962178
-0.11625606 -0.21851406 0.2101144 -0.038368594 0.11184649 0.42121133 0.13256754 -0.5408091
-0.7924043 0.30784282 -0.9095359 -0.00284436 0.77774125 0.11693852 0.20743951 0.65861726
0.89594257 0.23613219 -0.2253735 -0.31198764 0.13920291 0.04839301 0.4858839 0.1091009
0.06095004 -1.6691015 -0.001715722 -0.2766451 0.1612286 0.8604671 0.03718335 0.57625234
-0.2718817 0.043314252 0.2708511 -0.02339607 0.07116142 0.36646342 -0.44451842 0.7791347
-0.40172088 0.20712857 0.05839638 0.08561786 0.00084723224 0.30676192 -0.8824381 -1.3980358
0.22931148 -0.0043815756 -0.106599465 -0.4501914 -0.27272198 -0.78124404 0.12869196 -0.19358635
0.5426951 -1.273472 0.064770974 -1.1100242 -0.6347776 0.42051837 -0.27242962 0.015676752
-0.8771973 0.2775802 0.21253012 0.07577102 0.697505 -0.41820168 -0.2484391 -0.30860636
-0.2905775 0.5403469 -0.049609914 0.20524637 -0.020314151 0.622984 0.38509527 -0.55199236
0.63985294 0.1881927 0.21391971 -0.28392226 -1.0393846 0.40068918 0.06131849 0.00756898
-0.35284844 -0.093917094 -0.18247446 0.57156426 0.07133954 0.20170285 0.12305145 0.23443118
-0.62410223 -0.5000681 -0.0044285036 0.14697482 0.36713874 -0.33390537 0.0074351095 -0.15114737
0.3334204 0.10673935 -0.32142723 0.23818508 -0.4143119 0.6177979 -0.2555994 0.18577644

decoder.0.fc.0.bias f4 [100]
00000000: 8185 efbd ca33 0a3f 07ed 463d 08fd bf3d
00000010: f0d1 3fbe 8e3c 493d 1141 023e c2ca 263f
00000020: 24a8 c9bb b0d9 93be 519c b8bc efa1 30bd
00000030: b6c5 933d 43f2 393f 47c9 d7be b229 babe
00000040: af98 d23e c72b 4e3f fc40 623e 162b 14be
00000050: ebf3 523e 538f 46bd c4c2 60be 6111 b63c
00000060: 1859 e9be 80e4 0d3f bfcb dd3d a89b eabd
00000070: 7ce9 303e 1066 543c 5ac3 083e f83c cabb
00000080: 4aba 8a3c 4570 883e e68a 43bc 1904 1b3d
00000090: 8e3d 66bc b667 c83c 4f0c 00bd 6046 dcbd
000000a0: 32e6 5c3e 1568 043f a8c2 253e 87fa 923d
000000b0: 40c0 58bc f2b4 f23d 1e65 3a3e 76ca 043e
000000c0: 627d 293e 97d4 8a3e 0ed8 bebd 2fe5 5f3b
000000d0: 8434 ba3e 5c1c 583d 5c25 f1bd 56f5 8a3e
000000e0: 1dd3 36be fea2 453e cd6d 363e 38dc f2be
000000f0: 2361 33bd c535 9d3e f6ad d5bd 3af7 993e
00000100: 68a9 753e c327 843e a4f6 1bbc bc15 a6be
00000110: 6926 1e3e 7d1b 88be e07c 573e 8553 143e
00000120: 4d71 f33d 1159 85bd 7bd3 673d 6034 993d
00000130: a864 dcbe 64c3 98be a675 363e e8e1 90be
00000140: 8f37 50be d25c 0e3e ed50 563d 0902 1e3f
00000150: dd4c 9e3d a0fe 333d 4812 0d3f 0d87 13bf
00000160: 658c 183f 097e 04bf 3b0d 043f fc92 3f3f
00000170: 8f9b f03e 9826 973e e76d 063f 72a5 b83d
00000180: 3beb 07be f325 0a3f 9a60 853e ed48 55be
-0.11695386 0.53985274 0.04856589 0.09374434 -0.18732429 0.049130015 0.12720133 0.65153134
-0.006154077 -0.2887702 -0.022535475 -0.043123182 0.07215445 0.7263529 -0.4214575 -0.36359936
0.41132113 0.8053555 0.22095102 -0.14469561 0.2060086 -0.04847653 -0.21949297 0.022225084
-0.45575786 0.5542679 0.10829877 -0.1145547 0.17276567 0.012963787 0.1335577 -0.006171819
0.016934533 0.26648155 -0.011934971 0.037845705 -0.014052762 0.024463516 -0.03126174 -0.107556105
0.21572188 0.51721317 0.16187537 0.071766905 -0.01322943 0.11850919 0.18202636 0.12967858
0.16551736 0.27115318 -0.09318553 0.0034163704 0.3636819 0.05276142 -0.11774704 0.271403
-0.17853971 0.19300458 0.17815323 -0.4743364 -0.04379381 0.30705085 -0.10433571 0.3007143
0.23990405 0.25811586 -0.009519253 -0.32438457 0.1544434 -0.26583472 0.2104373 0.14484985
0.11886845 -0.06511129 0.056598168 0.07480693 -0.43045545 -0.2983657 0.17818317 -0.28297353
-0.20333694 0.13902596 0.05232327 0.61721855 0.07729504 0.043944 0.5510602 -0.57627946
0.59589225 -0.51754814 0.5158269 0.74833655 0.46993682 0.29521632 0.5251145 0.09015931
-0.13273327 0.53964156 0.26050264 -0.208286

decoder.1.0.weight f4 [784, 100]
00000000: bb6c 09be 1c07 29be 189c e7bd 65b4 40bd
00000010: 59f7 88bd bb1f 49be ee51 01be 9f0f 21be
00000020: 4022 6fbd 271c 0ebe 418f c1bd 3e4b c1bd
00000030: 6468 ebbd 6c40 62bd a322 69bd 7be9 12be
00000040: 4574 6abd 0103 1dbe ef42 17be fdf2 7e3a
00000050: 57b8 fdbd ee2c b0bd b4fd 9cbc a427 8fbd
00000060: 75d3 c8bd 79e8 bcbc 8dea 42be 28b8 2ebc
00000070: 3d57 173d 7174 a7bc 8746 48bd ec8e 1cbd
00000080: dbcb d9bd 22dc a8bd d88a d7bd 187e abbd
00000090: 783f a8bd b418 ccbd e1e0 14bd 499b 19bf
000000a0: 5cc3 17bd 7117 d5bd e1f7 cb3c 819b 0dbe
000000b0: d48d d63c 2281 f2bd caf5 88bc 3bf8 ad3b
000000c0: 20f1 2f3d e547 e0bd 72d1 a1bd bd97 3bbc
000000d0: 33f6 82bc e557 563d f8b4 e2bc 6e9f f53c
000000e0: f42b 15bd c991 dbbd 575f 07be 32a7 fcbd
000000f0: 85f2 af3d 5c47 78bd 80c5 c43a 14d1 e03c
00000100: 6430 1fbc 2648 a8bb 5adf 8ebd 0068 4fbe
00000110: f1df e0bd c07a f3bd 5565 d4bc 2d62 febd
00000120: c2ac 843c 003f d7bd d717 1ebe 0852 0abe
00000130: 9e32 14be fd04 17be e0ab 503d 14af a3bd
00000140: 740e 83bd 1731 8abd 82e0 0bbe 61c6 dfbd
00000150: 3896 fbbd 1f7d b83c 304d 703d 5ab1 96be
00000160: 1b2a 1ebe aa81 00be 61b0 12be 03ef 82bf
00000170: 3eff 97bd d94b 38be 668e 2e3d 5f5d babd
00000180: b210 403d ed62 bdbc 7269 fcbd ab73 13be
00000190: 08dc 41bd b67e a2bd 4d16 88bd 0bba a2bd
000001a0: b817 9fbd 8886 80bc ef0a 86bd b321 3bbe
000001b0: c9a4 18be 81fd 923c 5d1d 5cbe e5e8 0abd
000001c0: ea52 aebb 78af f4bd 6072 d4bd d7f9 6ebe
000001d0: bb8c 88bb 5d8b 13be a77f a1bd fc95 e7bd
000001e0: ca0f 6139 6904 ac3d 1601 e8bd 8baf acbd
000001f0: 5122 57be 8596 f6bd 1475 b3bc cc62 c43c
00000200: 1c7e 5dbd 9bd2 aabd aabf b2bd 7f2e 0fbe
00000210: eb46 d7bd f9ec 663b 6f10 af3b 6f75 c7bd
00000220: 29d4 93bd 1bc5 5f3c 31fb 1abe 90dd 0ebf
00000230: 8bd4 17be 5766 07be da07 23bc 0616 59be
00000240: 40d2 573b 5905 07bd f7bb 9a3d 7ea2 3cbd
00000250: f979 dbbb b1db 4a3d 2acd 8fbd f9cb 9ebd
00000260: e783 d1bc a74c 4ebd 4ea7 843d 6742 c6bd
00000270: 3f05 adbd c471 afbd 8bc4 2fbe 3944 0ebe
00000280: a5b9 923d 59ef b8bd 70f2 1c3c fbad c2bd
00000290: 1e8c c4bd d6f9 d0bd 1f96 a8bd 46b0 0cbe
000002a0: 0411 28be 1ae8 e6bd 5ef5 683c d8f3 51be
000002b0: 102d 41bd 28a2 26bd 1e0e b1bd b76e d8bd
000002c0: a1d0 4cbe 90ed 033c 4ae5 023d 00d2 04be
000002d0: 7971 87bc 9764 223d 1b34 45be 254e b1bb
000002e0: 1b5c 913a ec37 33bd 7f37 7d3d 00db adbe
000002f0: b6f9 05be 8971 6a3c 2258 46be 9fdb 6cbf
00000300: fe38 0b3d f011 b1bd 205a d6bc 7343 44be
00000310: a9a7 563d 2f51 bdbd 55d8 5cbd 7041 093d
00000320: 9677 0bbe 60f1 3abe d747 9bbd 1d5c 10be
00000330: e413 17be bfc5 c2bd a9d7 8dbc 60b3 55be
00000340: 82b4 ecbd 5d56 e03c f042 64be 27df 973c
00000350: 32d5 5fbb 7c54 81bb cf10 d0bd 110a bebd
00000360: a2d9 50bd 86c4 03be fbf6 56bd 520c ebbd
00000370: 244b 65bc 9109 a33d 835a ffbd 9700 f1bc
00000380: 2df5 3dbd 4224 d2bd cd14 0dbd c28f a1bd
00000390: 7478 3abd c60e a43d c620 4d3c ab78 c2bd
000003a0: c8b1 0cbd 2e34 5a3c ccbc b0bd aaf7 59bd
000003b0: be6b 19be 84d3 12bc 5a89 073b f819 1bbf
000003c0: ae3e eabd 6d7d 07be 4f48 b7bd fd3a 77bd
000003d0: 66dd 593d 6a0f bf3c 2f9e 9dbd a8e6 433d
000003e0: 5ee2 86bd ead8 b5bd 96ca 0cbc 6acd 2b3d
000003f0: 5fca 0dbc dfd2 74bd d3cb ae3d 85bc a43c
-0.13420384 -0.16506618 -0.113090694 -0.047047038 -0.06687803 -0.1964101 -0.1262891 -0.15728615
-0.058382273 -0.13877927 -0.09451152 -0.094381794 -0.1149452 -0.05523722 -0.056917798 -0.14346878
-0.05723979 -0.15333177 -0.14771627 0.0009725539 -0.12388676 -0.0860232 -0.019163944 -0.06989983
-0.09805957 -0.02306007 -0.19034787 -0.010664023 0.03694843 -0.020441266 -0.048895385 -0.03822224
-0.106345855 -0.08245112 -0.10524529 -0.0837366 -0.08215231 -0.09965649 -0.036347274 -0.6000257
-0.037051544 -0.10404862 0.024898471 -0.13828851 0.026190676 -0.118410364 -0.016718764 0.0053091324
0.042954564 -0.10951213 -0.07901277 -0.011449751 -0.015986538 0.052329917 -0.027674183 0.029983249
-0.03641887 -0.10721166 -0.13219963 -0.123365775 0.08591179 -0.06061493 0.0015012473 0.027443446
-0.009716127 -0.005135554 -0.06976195 -0.20254517 -0.109802134 -0.11888647 -0.025927225 -0.12421069
0.016195659 -0.10510063 -0.15438782 -0.13507855 -0.14472434 -0.14747997 0.050945163 -0.07992378
-0.06399241 -0.067476444 -0.13659862 -0.1092651 -0.12284511 0.0225206 0.05866736 -0.29432184
-0.1544575 -0.12549463 -0.14325096 -1.022919 -0.074217305 -0.17997684 0.04261627 -0.090998404
0.046890922 -0.02311846 -0.123247996 -0.14399593 -0.04732898 -0.079343244 -0.066448785 -0.07945641
-0.07768196 -0.01568915 -0.06545054 -0.18274574 -0.1490661 0.017943146 -0.21495576 -0.03391351
-0.0053199427 -0.119475305 -0.10373378 -0.23337494 -0.004167167 -0.14408632 -0.07885676 -0.11307904
0.00021463554 0.08399279 -0.11328332 -0.0843192 -0.21009184 -0.12040428 -0.021906413 0.023972891
-0.054075345 -0.08340951 -0.08727963 -0.1398258 -0.105115734 0.0035236462 0.005342535 -0.097391956
-0.07218201 0.013657833 -0.15134884 -0.5580683 -0.14827172 -0.13222633 -0.009950602 -0.21199808
0.0032931715 -0.032964084 0.07555383 -0.046053402 -0.00669789 0.04952592 -0.07021554 -0.077537484
-0.025575591 -0.05036607 0.06477223 -0.09680634 -0.08448266 -0.08566621 -0.17164819 -0.13893212
0.07164315 -0.09030027 0.009579286 -0.095058404 -0.09597038 -0.102039024 -0.08231758 -0.13739118
-0.16412741 -0.112747386 0.014218656 -0.20503175 -0.047162116 -0.040681988 -0.08645271 -0.10567992
-0.2000146 0.008052245 0.03195695 -0.12970734 -0.0165336 0.03964671 -0.19258158 -0.005410927
0.0011090072 -0.043754503 0.061820503 -0.33956146 -0.13083538 0.014309295 -0.19369557 -0.92522615
0.0339899 -0.086459994 -0.026166022 -0.19166355 0.052405987 -0.09244 -0.053917248 0.03350967
-0.13619837 -0.1825614 -0.07582062 -0.14097638 -0.14753681 -0.09510373 -0.017314749 -0.20869207
-0.11557867 0.027384931 -0.2229116 0.018539025 -0.0034154174 -0.003946839 -0.10159456 -0.09279264
-0.0509888 -0.12867936 -0.052481633 -0.11476959 -0.013994966 0.07960809 -0.124684356 -0.029419227
-0.046376396 -0.10260822 -0.034443665 -0.07888748 -0.04552503 0.0801063 0.012520021 -0.09495672
-0.034349233 0.013318105 -0.0862976 -0.053214706 -0.14982507 -0.008961562 0.0020681233 -0.605865
-0.114377365 -0.1323144 -0.08949339 -0.06035899 0.053189658 0.02332278 -0.07696187 0.047827393
-0.06586145 -0.08879264 -0.008593222 0.041943945 -0.008654206 -0.059771415 0.0853497 0.020109424

decoder.1.0.bias f4 [784]
00000000: a503 b53c 90ba 7d3d cac0 8fbd b711 3e3d
00000010: 304a f63c 8a6b 9bbd 2e1f 28bc c14c eabd
00000020: 9dcc 85bd c83e 0fbb da01 debd ba67 16bd
00000030: 44ee 67bc e114 043d 16e0 a2bd 18ac bb3b
00000040: f573 53bd c11c 1fbd 2894 43bd da50 1a3d
00000050: 7d60 a53c 7240 b0bd 299d cbbd f03f 45bd
00000060: 3edc 0c3d 0648 95bd 5ca7 eabd f7ed f8bd
00000070: 0950 0fbd 8232 1ebd 78eb 95bd c244 d83c
00000080: 7eac 7f3d daed 3a3d bb06 c2bd 43f1 773d
00000090: fd18 bfbd 1ac9 ecbd e0d1 01be 65f5 b23c
000000a0: a76d d8bd d246 b63c 75fc b8bd 5039 eabd
000000b0: 41ab 99bd c111 8a3a 622b 40bd a392 3e3d
000000c0: 1ff8 cfbd 9feb c4bd 8ed8 ae3c f6f7 483b
000000d0: 0ba7 bebd 541e 75bc 694a 60bd 0773 1fbb
000000e0: 18dc 11bd cd90 70bd ea0f 71bd 3ff3 56bd
000000f0: 8e43 fa3c 1a11 d53c 5661 063c 69e6 ba3c
00000100: 0c73 023d 89b9 a0bb d65d d1bc 123f 0cbd
00000110: cfad 52bd 53ab 7cbc 6fb9 62bd 8984 efbc
00000120: 1b7d f6bd 4626 39bd 3561 743c 097c ebbd
00000130: d894 863c 0bab bbbd 5c2c 75bd 3716 a83c
00000140: ea47 11bd c003 81bb ee8a e1bd 8c6f 853d
00000150: 0329 fabd 6bad bfbd dca3 2abc 9efe 67bd
00000160: cae3 c6bd 0b35 c3bd e39d 90bd 24fa b43c
00000170: ea80 bcbd ee07 a6bd b4a9 443d 6d1e b6bd
00000180: 16af bcbd 7d4b babd c92f 56bd bab5 5c3c
00000190: 4e9b 9fbd ab74 00be 1bb7 05be 5c62 2e3d
000001a0: c875 033d 2343 5c3c f2b5 f2bc 5e41 423d
000001b0: 47e7 b0bc c3a6 23bd c016 d7bd eab8 f5bb
000001c0: 80a3 7f3d 6069 80bd 0694 5d3d 1006 07be
000001d0: acdd 73bd d0f8 b9bd 5eb9 073d fe98 ee3b
000001e0: df92 42bc 854c 26bd 1923 da3d 96ff 1e3d
000001f0: 8e49 9a3d 7e70 e73d e2d6 1a3e d954 263e
00000200: 23bd 82bc 660b cbbd 1bd0 edbd 5727 eabd
00000210: 2cd1 af3b 07d0 f9bc 23fe 633a 8d71 0ebd
00000220: f4a6 02be 9795 68bc 7cae 6f3b c8fa 7ebd
00000230: 0957 d63b f5f8 453d 8b88 333d 0d25 b2bd
00000240: dada 10bc 963d 90bd 59d2 aabd 6b1f c8bd
00000250: e8ca 16be 2315 76bd 5dcf cd3d bf4d 3d3e
00000260: 1ea0 8e3e 3de8 883e 6a20 4e3e 2d0e fd3d
00000270: 3a4a ec3c 0807 04be 7687 06be 6035 c6be
00000280: cfd9 bdbe dc1c dbbd 9bdd 87bd ad64 fdbd
00000290: 29c9 c0bd 5d1d 59bd c75f bc3c 95fc 9bbd
000002a0: 27c7 c03c 079f 27bd 9455 043d 36c8 f8bd
000002b0: ae85 193d 3164 cbbd 3b33 d0bd 0ac0 1ebe
000002c0: b3d2 b93c 61a4 f03d 038f b53e a37a c13e
000002d0: c02f 973e 0418 45bd 347b 9f3c 35c6 60bc
000002e0: 957c 143d bc81 253c bfd7 f6bd fa12 f3bd
000002f0: ddd5 91be c9c5 b5be c08d a8bc 6c7b dabd
00000300: 7f86 bebd c3b0 583d 0840 cdbb 2d0c e6bc
00000310: 43f2 b5bd 8a17 efbd 7d93 93bd f954 4cbd
00000320: 4577 01be 10a0 803d c1ca e3bd f77d babb
00000330: 35a1 0ebd 13c5 663e c69f 783e b5b4 c03e
00000340: c6b4 413e e0f0 8abd 0e32 08be a5cf 0cbd
00000350: 175b 3f3d 7906 163d 0e5a 363d 35e1 04be
00000360: 0dee a3be d8f7 94be cac1 93be 2f2b 8b3d
00000370: b919 98bd 03a3 1abd ef4f 83bd 6fe7 85bd
00000380: a6e2 0dbe a54a 863d 712f 0f3d 8fa4 4d3d
00000390: c17b e33c 2bb1 acbd 27ae 48be 29e3 2fbd
000003a0: d436 9a3d de04 593e 8d37 433e 2d00 4a3e
000003b0: f344 bfbd e52a 45be f359 a4be 6128 f5be
000003c0: db44 9ebe e4b1 9abd bf34 7dbb aee3 b2bd
000003d0: ebad 6abe 7e44 8abe a4c3 6dbe c0ec f4bd
000003e0: bdbc 1cbd a350 ddbd 679c 1e3d c312 983c
000003f0: 1ce4 08be 7ffb c9bc 4338 223d 418a d6bd
0.022096464 0.061945498 -0.070191935 0.046403613 0.030064672 -0.07588871 -0.01026134 -0.11440421
-0.065331675 -0.002185749 -0.10840197 -0.036720015 -0.014155928 0.032246474 -0.07952897 0.0057273023
-0.051624257 -0.03884578 -0.047748715 0.037674762 0.02018761 -0.08606042 -0.09942085 -0.04815668
0.034389727 -0.07289128 -0.114577025 -0.12154763 -0.034988437 -0.038622387 -0.07320303 0.026399974
0.06242036 0.04563699 -0.0947394 0.06053282 -0.09330938 -0.115617946 -0.12677717 0.021845529
-0.105677895 0.022250567 -0.09032527 -0.11436713 -0.07503367 0.0010533856 -0.046916373 0.046526562
-0.10154747 -0.09615254 0.021343496 0.0030665374 -0.09309205 -0.014960844 -0.054758463 -0.0024330036
-0.03561029 -0.058731843 -0.058853067 -0.05247807 0.03054979 0.026009131 0.008201918 0.022814946
0.031848 -0.00490493 -0.02555744 -0.034239836 -0.051435288 -0.015421706 -0.055352625 -0.029238002
-0.12035581 -0.045202516 0.014915754 -0.11498267 0.016428396 -0.09163483 -0.059856758 0.020518405
-0.035468973 -0.0039372146 -0.11012827 0.065154165 -0.122148536 -0.09359249 -0.010415044 -0.056639306
-0.09711416 -0.095316015 -0.070613645 0.022091933 -0.09204276 -0.08106981 0.048013404 -0.08892522
-0.092130825 -0.090964295 -0.052291665 0.013471061 -0.07793294 -0.12544505 -0.1305813 0.04257427
0.032094747 0.013443741 -0.029627774 0.04742562 -0.021594657 -0.03995396 -0.10502386 -0.00749885
0.062411785 -0.06270099 0.054096244 -0.13185906 -0.059537575 -0.0908066 0.033135764 0.0072814217
-0.011875837 -0.04060032 0.106512256 0.038817964 0.07533561 0.11300753 0.15121034 0.16243304
-0.015959328 -0.099142835 -0.116119586 -0.11433285 0.0053655114 -0.030494703 0.0008697232 -0.03477626
-0.12759 -0.014195821 0.0036572507 -0.062250882 0.006541137 0.048333127 0.04383139 -0.08698473
-0.008841241 -0.070429966 -0.08340902 -0.097716175 -0.1472584 -0.06007875 0.10049317 0.18486689
0.27856535 0.26739684 0.20129552 0.123562194 0.028843988 -0.12893307 -0.13137612 -0.38712597
-0.37080237 -0.10698864 -0.06634065 -0.12372718 -0.09413368 -0.05300652 0.022994889 -0.076165356
0.023532463 -0.040923145 0.032308176 -0.12147562 0.037481003 -0.09931219 -0.101660214 -0.15502945
0.022683477 0.11750103 0.35460672 0.37788877 0.29528618 -0.048118606 0.019467928 -0.013719131
0.036251623 0.010101732 -0.12052869 -0.11868854 -0.28483477 -0.3550246 -0.020575404 -0.10668072
-0.09302997 0.052902948 -0.0062637366 -0.028081978 -0.088840984 -0.116744116 -0.072058655 -0.049885724
-0.12643154 0.062805295 -0.111226566 -0.0056912857 -0.034821708 0.22536115 0.24279699 0.3763787
0.18916616 -0.067842245 -0.13300344 -0.034377713 0.04671773 0.036627267 0.044519477 -0.12976535
-0.32017556 -0.2909534 -0.28858787 0.06795346 -0.07426781 -0.037753116 -0.064117305 -0.06538283
-0.13855991 0.06557206 0.034957353 0.050205763 0.027768971 -0.084322296 -0.19597684 -0.042941246
0.07529989 0.21193263 0.1906416 0.1972663 -0.09339323 -0.19254644 -0.32099876 -0.4788237
-0.30911908 -0.07553461 -0.0038636175 -0.08734833 -0.22917907 -0.2700538 -0.23219162 -0.11959219
-0.038265932 -0.10806396 0.038723376 0.018563634 -0.13368267 -0.024656055 0.039604437 -0.104755886

fc_mean.fc.0.weight f4 [10, 50]
00000000: 657b 233d 8854 333e 589d 553c 9bd0 4e3c
00000010: adb6 173c 8253 02be 43d6 413e 52de eebc
00000020: f166 b4bd c86a 103d dff1 d5bd 71c3 7c3d
00000030: 35a3 7c3d 9c33 6f3c 712c 26bd e4df c4bd
00000040: 1aff 26be 683c edbd d130 053e d28c 0ebe
00000050: 06d7 b2bd 8800 aa3d 27ef 393d c0cf 513d
00000060: 9911 003e 5916 cd3b 2b93 dc3c f60c 343d
00000070: 5d08 a13d e6fa bc3d 185e a6bc 11b1 b83d
00000080: c7f0 093d 02c9 a4bd 00c1 d63d 7534 993d
00000090: f610 563d eff4 96bd bf33 a83d 201d f0bd
000000a0: aeec 56be 27d9 44bc 4b1f 683b 5ee1 043e
000000b0: ecea 513d 4554 fbbd 9bf2 c5bd 7bf6 803d
000000c0: b794 b9bc 566c 073e 59cc 353d 928c 493e
000000d0: 973c dcbc abd2 7ebd 66f6 dfbc 66e5 18bd
000000e0: dfd4 9e3d cf5d acbd 01d6 c33d 1611 313d
000000f0: de1a ee3d d995 c53c cb09 0b3e 7ce1 c2bc
00000100: ffe7 66bc d17c 533c 9358 3dbc 2934 0cbe
00000110: 3320 903d ca87 b4bd c0cf 2ebe 03d7 56bc
00000120: 9659 993d eee0 acbd ccac 823d bf01 7ebd
00000130: f0c3 113e bde6 b83d dd50 a2bb 3afb 263d
00000140: 26ce 50bd d8a5 c6bd ffb8 bf3c 6b81 003c
00000150: b45b 3fbd 2462 ebbc 91bf f93d 1713 b53c
00000160: ef09 9b3d fef4 ab3c 61fc 87bb 5895 15bc
00000170: affc 323d dd67 8c3d eafb c83d 831d be3c
00000180: 3dc9 073e 7c96 61bc 0cfd bcbd ccee 103d
00000190: 194c 35bd e4e1 a33d dbf7 ed3d 49c2 24bd
000001a0: 2529 14be efbe 133d 8101 d1bd e547 c83d
000001b0: fce7 733d d094 d6bd a330 06be cc1f 2dbe
000001c0: fe21 23be 17d7 3b3d 7266 c8bd dacd 5ebd
000001d0: cce9 f1bd d1a5 59bd ea76 43bd 5fe2 013e
000001e0: 7770 edbd 4752 b5bd 16fe f03d 86a3 40be
000001f0: 5e82 48bd 6d73 89bd 3be2 0b3e ebfe 653c
00000200: b940 b7bd 49b4 c43d 1807 483d efbf bcbc
00000210: 65c5 adbd e583 27bd 4332 1dbe 531b 96bd
00000220: 80c9 06be 1eed 35bc 7a10 b6bc 1b24 71bc
00000230: e831 12bd 3628 22be cc8e 64bd 8d3e 13be
00000240: 5cfe 8b3d de7a 333d 5dee 20be 7b8b b0bd
00000250: 8851 243d 8b76 c83d 10a1 993e 4d5b 05be
00000260: 7a45 4fbe 3c71 db3d bea9 debd e094 3c3d
00000270: cf8a 5abd 646d e7bc a339 533d 43ec 223e
00000280: 203a a23c 7fcc 5e3e 9e6b 903c a5a0 0e3e
00000290: 2f9d 0cbd 3ce6 a0bd 2e94 d13b dd6c e7bd
000002a0: e48b 653d 566e 79bd eebd 563e 531e a73c
000002b0: 2dc8 9cbd 06d4 a7bd c501 b4bb 263e a1bd
000002c0: 499a 7d3c 02d7 c2bd f0ae 333c 5d34 01bd
000002d0: 71a8 98bc 2f68 383d 6e6a a7bd cfc9 843d
000002e0: 5117 883d 94de c8bc 2960 16bd 2991 4fbd
000002f0: 9d7b 98bd 1994 7d3d d533 973d 36d0 f3bd
00000300: c427 093e 083a 463e 32ee 08bd dbe9 cd39
00000310: e028 da3d 111c f7bc a7b3 59bd 5896 d63d
00000320: 4e80 febc 04bb 143e c2cc 8c3d 8789 4ebd
00000330: d55a 923c c52e 4bbd f5be 4f3e f879 81bd
00000340: 52b6 093e f5db 963d b915 bebd d891 96bd
00000350: 662a 20be 13c5 8f3d 3584 ad3d 94db 8cbc
00000360: 011a 28be a327 99bd ecd1 8c3c 93ec f9bd
00000370: fc3c a4bd 6d8b a13c 62bc bc3d 1c34 5a3d
00000380: 3113 853d 0a86 d5ba 990c 083d f8dd e13d
00000390: 97d0 e8bc 2c48 7c3c 27b8 dcbc 7cd8 183e
000003a0: ebc2 e43d 1d1a 483d 9e01 de3d 341f 28be
000003b0: c423 e5bd e2e4 1dbc 8335 83bd 8efa 0abe
000003c0: a615 523d ec55 b0bd 646c 94bd 7b25 033e
000003d0: 986c 54bd a9a7 c63d 7c7c f63d 6f94 dbbc
000003e0: 1100 17bd 64fc 53bd 03ee f93d 1139 1c3d
000003f0: 699f 6bbd b12b cbbb 0844 a6bd 3b48 cf3d
0.0399126 0.17512715 0.013038002 0.012622978 0.009259862 -0.12727168 0.1892939 -0.029158745
-0.08808697 0.035258085 -0.10446524 0.061709825 0.061679084 0.014599707 -0.040569726 -0.09613016
-0.16308251 -0.11583787 0.13006903 -0.13920906 -0.08732419 0.083008826 0.04539409 0.051223516
0.12506713 0.0062587676 0.026925644 0.043957673 0.07862923 0.092275426 -0.02030854 0.09018148
0.03367689 -0.08046152 0.104860306 0.074807085 0.05226227 -0.07370936 0.08212995 -0.11724305
-0.20988724 -0.012014664 0.0035419043 0.12976596 0.05124943 -0.122719325 -0.09665414 0.062970124
-0.02265392 0.1322492 0.044384334 0.1968253 -0.02688436 -0.062212627 -0.027339172 -0.037328146
0.07755446 -0.0841633 0.095623024 0.043229185 0.11626218 0.024119304 0.13577954 -0.02378916
-0.014093398 0.0129081765 -0.011556762 -0.13691773 0.070373915 -0.08814962 -0.17071438 -0.013112786
0.0748779 -0.084413394 0.06380615 -0.062013384 0.142349 0.09028385 -0.0049534873 0.040766932
-0.05097785 -0.09699601 0.023403643 0.007843356 -0.046718314 -0.02873332 0.121947415 0.02210383
0.07570254 0.020990845 -0.004149959 -0.009129845 0.04369801 0.06855748 0.09813674 0.023207432
0.1326036 -0.013768788 -0.09227952 0.035383984 -0.044262026 0.080020696 0.1161954 -0.040224347
-0.1446882 0.03607076 -0.10205365 0.09779338 0.05954741 -0.104776025 -0.13104491 -0.16906661
-0.15930936 0.045859423 -0.09785165 -0.054395534 -0.11812171 -0.05313665 -0.047720827 0.1268401
-0.115937166 -0.08853584 0.11767213 -0.18812379 -0.048952453 -0.06711469 0.13660519 0.014037828
-0.08947892 0.09604699 0.04883489 -0.02304074 -0.08484916 -0.04089727 -0.15351205 -0.073294304
-0.13162804 -0.011103896 -0.022224654 -0.014718081 -0.035692126 -0.15835652 -0.055800244 -0.1437933
0.068356246 0.043818347 -0.15715928 -0.08620354 0.040116817 0.09788235 0.30005693 -0.1302311
-0.20241347 0.10714957 -0.108722195 0.046040416 -0.053355034 -0.028250404 0.05156864 0.15910439
0.019803107 0.21757697 0.01762944 0.13928469 -0.03432959 -0.07856414 0.006395838 -0.11300061
0.056041613 -0.06089624 0.2097089 0.020400202 -0.07655368 -0.08194737 -0.005493375 -0.07873182
0.015478679 -0.09513666 0.010967001 -0.03154408 -0.018635007 0.045021232 -0.08174597 0.064838044
0.06645072 -0.024520196 -0.0367128 -0.050675545 -0.07445452 0.061908815 0.07382933 -0.119049475
0.13394076 0.19358075 -0.033430286 0.00039274883 0.106523275 -0.03016475 -0.053149845 0.104778945
-0.03106704 0.14524466 0.06874992 -0.050424125 0.017865578 -0.04960515 0.20287688 -0.06322092
0.13448456 0.07366172 -0.09281487 -0.07352036 -0.15641174 0.07020011 0.08472482 -0.017194547
-0.1641617 -0.07478263 0.017189942 -0.12203326 -0.08019444 0.019719804 0.09215619 0.05327235
0.06497801 -0.0016290557 0.03321514 0.11028665 -0.028419776 0.0153980665 -0.02694328 0.14926332
0.1116999 0.04885303 0.10840152 -0.16418153 -0.111884624 -0.009637089 -0.06406691 -0.13572142
0.051290177 -0.08610138 -0.07247236 0.12807266 -0.051861376 0.096999474 0.12035462 -0.026804177
-0.036865298 -0.05175437 0.122036 0.03814036 -0.057525072 -0.006200277 -0.08118445 0.10121199

fc_mean.fc.0.bias f4 [10]
00000000: 155a 08bd 34fa 9c3d f4f7 bcbc a3a0 d43c
00000010: 9aa0 f9bc 325a 473d d2af 4ebd 2244 1cbe
00000020: accd 1dbd 34db 003d
-0.033289034 0.0766491 -0.023067452 0.025955504 -0.030472089 0.04867 -0.050460644 -0.15260366
-0.038526222 0.03145905
