LeNet/saved_model/model.pth (torch, 145420 bytes, 44 tensors)

cnn.0.BachNorm.weight f4 [8]
0	0x3f7a6ce3	0.978224
1	0x3f7f1ad4	0.9965031
2	0x3f8d5658	1.1041975
3	0x3f80fe74	1.0077653
4	0x3f843bfc	1.0330806
5	0x3f639f3f	0.88914865
6	0x3f66a5b7	0.9009661
7	0x3f9aad70	1.2084179

cnn.0.BachNorm.bias f4 [8]
0	0x3d5e6560	0.054295897
1	0x3e62731e	0.22114226
2	0x3d157b47	0.03649452
3	0xbd86cd03	-0.06582072
4	0xbb6ffc24	-0.0036618793
5	0x3c7fd087	0.015613682
6	0x3e9a2824	0.3010875
7	0x3e6ff524	0.23433357

cnn.0.BachNorm.running_mean f4 [8]
0	0x3e9e238e	0.308865
1	0x3ea2b1c9	0.31776264
2	0xbe9dcd89	-0.30820873
3	0xbe41bc15	-0.18919404
4	0x3eab2c77	0.3343236
5	0xbd394937	-0.04523584
6	0x3e98bf8e	0.29833645
7	0xbe8d2ced	-0.27573338

cnn.0.BachNorm.running_var f4 [8]
0	0x3fa5210d	1.2900711
1	0x3e97a726	0.29619712
2	0x3e572d9f	0.21013497
3	0x3e98cbdc	0.29843032
4	0x3e66346f	0.2248094
5	0x3eda20d2	0.42603165
6	0x3f918c72	1.1370986
7	0x3fbfe62d	1.4992119

cnn.0.cnn.weight f4 [8, 1, 3, 3]
0	0xbd1628e8	-0.036660105
1	0x3eb09e41	0.34495738
2	0x3d1fe610	0.039037764
3	0x3cb810be	0.02246892
4	0x3e942673	0.28935584
5	0x3e5eda8f	0.21763061
6	0x3e793364	0.2433601
7	0xbd605c64	-0.05477561
8	0x3ec55b2e	0.38546127
9	0xbde68f63	-0.112578176
10	0xbe164b4a	-0.14677158
11	0xbeb3e6b5	-0.35136953
12	0x3df6e3f0	0.120551944
13	0xbe29ba73	-0.16575031
14	0x3dfafe4d	0.12255535
15	0x3eb9063d	0.36137572
16	0x3e2c427a	0.16822234
17	0x3e56f6b2	0.20992544
18	0x3e133556	0.14375815
19	0xbe0066c5	-0.12539203
20	0xbd71fb15	-0.05907734
21	0x3e818f7d	0.25304785
22	0xbddcbc25	-0.10778073
23	0xbe348b56	-0.17631277
24	0xbe12d601	-0.14339449
25	0xbebac1e4	-0.36476052
26	0x3e30e39d	0.17274328
27	0x3e7a801b	0.24462931
28	0x3e076883	0.13223462
29	0xbe1bfcf7	-0.15233217
30	0x3d664181	0.056214813
31	0x3dc25f4b	0.09490832
32	0xbe90e4f6	-0.28299683
33	0x3ecc50ef	0.39905497
34	0xbe0f2f59	-0.13982905
35	0xbd5cd87d	-0.053917397
36	0x3e40b221	0.18817951
37	0x3e6eb258	0.2331022
38	0x3e380d4c	0.17973822
39	0xbdba5127	-0.0909751
40	0x3ccf1492	0.025278363
41	0x3ce9d36d	0.028543198
42	0xbe76740d	-0.24067707
43	0xbe8f287f	-0.27960584
44	0xbd941962	-0.07231404
45	0xbe33555b	-0.1751303
46	0xbe353e62	-0.17699578
47	0x3e35b9ae	0.17746612
48	0x3e002d2e	0.12517235
49	0xbe2ea725	-0.17055948
50	0x3e933320	0.28749943
51	0x3d6a95a5	0.05727162
52	0x3eae6057	0.34057876
53	0x3e33e169	0.17566456
54	0x3e3f0bef	0.18656896
55	0x3e5b5ca8	0.21422064
56	0x3f029b84	0.5101855
57	0xbe3fb939	-0.18723
58	0x3e9983e8	0.2998345
59	0x3e77e9ba	0.24210253
60	0x3e77bea6	0.2419382
61	0xbe708016	-0.23486361
62	0x3bae4bde	0.0053191027
63	0xbe477fbf	-0.19482325
64	0xbd451cfa	-0.048123337
65	0xbe558d94	-0.20854789
66	0x3d7bb533	0.061452102
67	0xbec87ca4	-0.39157593
68	0x3aa762b6	0.0012770507
69	0xbe8111c0	-0.25208855
70	0xbe593d2b	-0.2121474
71	0xbeb5866f	-0.35454127

cnn.0.cnn.bias f4 [8]
0	0x3e9c231b	0.30495533
1	0x3ea21f45	0.31664482
2	0xbe9c7e22	-0.30564982
3	0xbe42badb	-0.19016592
4	0x3eab607f	0.33472058
5	0xbd401ff5	-0.046905477
6	0x3e96f8cd	0.29486695
7	0xbe8a7f80	-0.270504

cnn.1.BachNorm.weight f4 [16]
0	0x3f889166	1.0669372
1	0x3f7843c4	0.969784
2	0x3f84591a	1.0339692
3	0x3f872030	1.0556698
4	0x3f6a376d	0.91490823
5	0x3f7d6798	0.98986197
6	0x3f883595	1.0641352
7	0x3f8703c4	1.0548024
8	0x3f6b08bc	0.918102
9	0x3f809949	1.0046779
10	0x3f707238	0.93924284
11	0x3f85cb4f	1.045267
12	0x3f847639	1.0348579
13	0x3f83fe41	1.0311967
14	0x3f84c378	1.0372152
15	0x3f6fc719	0.93663174

cnn.1.BachNorm.bias f4 [16]
0	0x3d1e0d4a	0.038586892
1	0x3c3db1e6	0.011578059
2	0xbd0d7078	-0.034531087
3	0xbc67071f	-0.014100819
4	0xbd2c601f	-0.042083856
5	0xbda712cf	-0.08157884
6	0x3be3f478	0.006956633
7	0xbdb27304	-0.08713344
8	0xbb9047d2	-0.004403093
9	0xbd5de9e2	-0.054178126
10	0x3cd4775b	0.02593582
11	0xbd49374c	-0.049125
12	0xbc8ce901	-0.017200949
13	0xbd70273a	-0.05863116
14	0xbddb2dce	-0.10702096
15	0xbd86fc16	-0.0659105

cnn.1.BachNorm.running_mean f4 [16]
0	0x3e8da380	0.27663803
1	0x3d67cc3d	0.05659126
2	0xbf1258c1	-0.5716668
3	0x3e683ca4	0.22679383
4	0x3e89850f	0.26859328
5	0x3dcfe495	0.101510204
6	0xbe7fcf44	-0.2498141
7	0x3d3439ba	0.044000365
8	0x3dab8ea4	0.08376816
9	0xbe222695	-0.1583503
10	0x3d5fdc2e	0.05465334
11	0x3e2a918a	0.16657081
12	0x3eb54ce7	0.35410234
13	0xbe5e68bf	-0.21719645
14	0xbe987d7e	-0.29783243
15	0xbe50f52e	-0.20406029

cnn.1.BachNorm.running_var f4 [16]
0	0x3f43dc17	0.76507705
1	0x3eb55d9f	0.3542299
2	0x3f8507c1	1.0392991
3	0x3ebdb3cc	0.37051237
4	0x3ea77f11	0.3271413
5	0x3eaef465	0.34170833
6	0x3f6314db	0.887037
7	0x3f1afb65	0.6053985
8	0x3ecfce01	0.40586856
9	0x3f2f37ea	0.68444693
10	0x3f01c58f	0.50692075
11	0x3f0f9815	0.56091434
12	0x3f53423e	0.8252295
13	0x3f2fc5a2	0.6866094
14	0x3f72af40	0.9479866
15	0x3eb558b7	0.35419247

cnn.1.cnn.weight f4 [16, 8, 3, 3]
0	0xbc323f47	-0.010879344
1	0xbce193ca	-0.027536292
2	0xbca0795e	-0.019589122
3	0xbc00afab	-0.0078543825
4	0x3dbffa87	0.09373956
5	0x3df46f43	0.11935284
6	0x3c57ced6	0.013171872
7	0x3d4c7770	0.049918592
8	0xbc641ab4	-0.013922382
9	0x3d4edb03	0.050501835
10	0x3cbd48d6	0.02310602
11	0x3d20d248	0.03926304
12	0x3c659aa3	0.014013919
13	0xbc046cd4	-0.008082587
14	0x3dfc05b8	0.12305778
15	0x3d6bf6ce	0.05760842
16	0x3c5db8e3	0.01353285
17	0x3e22f663	0.15914302
18	0x3dbaaabe	0.09114598
19	0x3d9083a4	0.070563585
20	0x3daeaa40	0.08528566
21	0x3cff8d17	0.031195207
22	0xbe16864d	-0.14699669
23	0xbddd9980	-0.108202934
24	0x3d59a0df	0.053131934
25	0xbd6b09ce	-0.057382397
26	0xbe19db32	-0.15025023
27	0xbb5c4318	-0.0033609327
28	0x3d21062a	0.03931252
29	0x3d9ce449	0.076607294
30	0xbd3ad6c4	-0.045614973
31	0xbda09dac	-0.078425735
32	0x3cca5976	0.024700861
33	0xbda5432c	-0.08069453
34	0xb882fe6d	-6.2462736e-05
35	0xbd8de0ef	-0.06927668
36	0xbd8838b1	-0.06651438
37	0x3dc35c34	0.09539071
38	0x3de28fc6	0.11062579
39	0x3d3f894b	0.046761792
40	0x3d9d353d	0.0767617
41	0x3d5567e4	0.05210103
42	0xb9fd1207	-0.00048269352
43	0xbd925bc3	-0.071464084
44	0x3bbdbb06	0.005790117
45	0x3dc632d0	0.096776605
46	0x3d4e97f0	0.050437868
47	0x3d9849a2	0.07435919
48	0xbd4cf439	-0.050037596
49	0x3dbbaab4	0.091634184
50	0x3d98a2df	0.0745294
51	0x3d8f918c	0.07010183
52	0x3d4b1a0c	0.049585387
53	0xbb6e63b3	-0.0036375343
54	0xbacfc60b	-0.0015851868
55	0x3bbf5763	0.0058392747
56	0x3dbe609e	0.09295772
57	0xbd175cda	-0.036953785
58	0xbc615649	-0.013753482
59	0x3d7352ed	0.059405256
60	0x3d0067ab	0.031348865
61	0x3d91d22b	0.071201645
62	0x3e0ba6cd	0.13637848
63	0x3dd08ff4	0.10183707
64	0xbdae77fd	-0.0851898
65	0xbddabb91	-0.10680307
66	0xbd486208	-0.048921615
67	0xbe73108e	-0.23736784
68	0xbe130dd3	-0.14360742
69	0x3d8971f3	0.06711187
70	0xbe8a9101	-0.27063754
71	0xbc871ec6	-0.016494166
72	0x3d059e5d	0.03262173
73	0xbd89e2d2	-0.06732716
74	0xbddb230a	-0.107000425
75	0x3dd48f22	0.10378863
76	0xbcc5670a	-0.024096984
77	0x3e09adf9	0.13445272
78	0xbd935712	-0.07194342
79	0xbe03b435	-0.12861712
80	0x3c944e38	0.018103704
81	0xbdba471f	-0.090955965
82	0x3dad45dc	0.0846059
83	0xbd187079	-0.037216637
84	0x3ce1f9db	0.02758496
85	0x3e2f2e46	0.17107496
86	0x3df7aaba	0.120931104
87	0xbd548c00	-0.051891327
88	0x3d548ff3	0.051895093
89	0xbd9d3437	-0.07675975
90	0x3e23320b	0.15937059
91	0x3e2889a4	0.16458756
92	0xbdc26dd4	-0.09493604
93	0xbd7a545c	-0.061115608
94	0xbd1d1664	-0.03835143
95	0xbcb2c1e6	-0.021820974
96	0xbe2898e2	-0.1646457
97	0xbd74fa26	-0.059808873
98	0x3dbe109a	0.0928051
99	0x3dabf7af	0.08396851
100	0x3d88c4b5	0.06678144
101	0xbcec7809	-0.028865831
102	0x3ba0eee0	0.0049112886
103	0x3da539f8	0.08067697
104	0xbd46bf1d	-0.048522104
105	0xbdade818	-0.08491534
106	0xbd8fd443	-0.070229076
107	0x3c5dc9f4	0.013536919
108	0xbdcb5325	-0.09927968
109	0xbd969357	-0.073523216
110	0x3d167d63	0.03674067
111	0xbc7891d5	-0.015171488
112	0x3d5e25e3	0.05423535
113	0x3cc57da9	0.024107771
114	0x3a81a7fd	0.0009891983
115	0x3e0dc317	0.13843952
116	0x3da76a92	0.081746235
117	0x3d8fa70a	0.07014282
118	0xbd3aea3b	-0.045633536
119	0xbc802f60	-0.01564759
120	0xbb9e723e	-0.004835396
121	0x3d3d5915	0.046227533
122	0xbbc96eed	-0.0061472566
123	0xbd784fab	-0.060622852
124	0x3b7fe2e1	0.0039045142
125	0x3d4497bf	0.04799628
126	0x3d2e64b1	0.042576496
127	0x3d31d5ee	0.04341691
128	0x3cb00884	0.021488436
129	0x3cb93a4a	0.022610802
130	0x3d8f04de	0.0698335
131	0x3d62fcf2	0.05541701
132	0x3d6e70f3	0.058213186
133	0xbc237172	-0.009975778
134	0xbd53036d	-0.05151694
135	0x3c93d4e0	0.018045843
136	0xbdcbbec6	-0.099484965
137	0xbd5be158	-0.0536817
138	0x3df457ee	0.11930834
139	0xbe517fe1	-0.20458938
140	0xbde70095	-0.11279408
141	0x3dbfa88f	0.09358322
142	0xbcc32c85	-0.02382494
143	0xbd614c61	-0.05500448
144	0x3cd2efe3	0.025749153
145	0x3d489c85	0.048977394
146	0xbc89800c	-0.01678469
147	0x3d338893	0.04383142
148	0x3e23820d	0.15967579
149	0x3dd0c4b4	0.10193768
150	0xbc842b6a	-0.016133983
151	0xbdb42a54	-0.08797136
152	0xbe5ed7a9	-0.21761955
153	0x3ce72d86	0.02821995
154	0xbd187f7e	-0.03723096
155	0x3d5237d8	0.051322788
156	0x3dd22a6d	0.10261998
157	0x3da9a8d7	0.08284157
158	0xbc499e5b	-0.012305821
159	0xbe17297c	-0.14761919
160	0x3d80c519	0.062875934
161	0xbdf7a66b	-0.120922886
162	0x3dcf6501	0.10126687
163	0xbb8944e0	-0.0041891187
164	0x3d9bbe39	0.076046415
165	0xbe0c86aa	-0.13723245
166	0xbe059683	-0.13045697
167	0xbe19a7dd	-0.15005441
168	0xbe194cc6	-0.14970693
169	0xbe55b62b	-0.20870273
170	0xbde75aa2	-0.11296584
171	0xbce995fc	-0.028513901
172	0x3d3177c5	0.04332711
173	0x3d93679f	0.071974985
174	0x3cb33842	0.021877412
175	0x3bb4c28f	0.0055163573
176	0xbd38ae51	-0.045088116
177	0xbe02e5c6	-0.12782964
178	0xbe0f2006	-0.1397706
179	0xbe43407a	-0.19067565
180	0xbdfaeb62	-0.12251927
181	0xbd0491bf	-0.032365557
182	0xbbaf5d8a	-0.005351727
183	0xbc2b0337	-0.010437778
184	0xbcd93c7b	-0.026518097
185	0x3de68bae	0.112571105
186	0x3d8b03ff	0.067878716
187	0xbd5c8cba	-0.053845145
188	0xbdb05de9	-0.08611662
189	0xbd310055	-0.043213207
190	0xbc8369c7	-0.01604165
191	0xbdb28b34	-0.08717957
192	0xbc8afb68	-0.016965583
193	0x3d702add	0.058634628
194	0xbd5e34cf	-0.05424958
195	0xbdd90027	-0.10595732
196	0xbc8d439f	-0.017244158
197	0xbea3f4ad	-0.3202261
198	0xbba65626	-0.0050761877
199	0xbc8ed0c2	-0.017433528
200	0x3cc56a81	0.024098637
201	0x3dc1fa2b	0.09471544
202	0x3e1af1c3	0.15131287
203	0x3de228bd	0.110429265
204	0xba5a3be3	-0.0008324964
205	0xbd8539a6	-0.06505136
206	0xbdbc9f3e	-0.092100605
207	0x3d663732	0.056204982
208	0xbcbfa33b	-0.023393264
209	0xbe080bc7	-0.13285743
210	0xbdfff468	-0.12497789
211	0x3de3b70d	0.111188985
212	0x3d1ee63b	0.038793784
213	0x3da6e002	0.08148195
214	0x3c92704d	0.017875815
215	0x3db47bbf	0.08812665
216	0x3da3be30	0.0799526
217	0x3d8b155a	0.06791182
218	0xbdc0801f	-0.09399437
219	0x3cc6ccd7	0.024267597
220	0xbdab75d1	-0.08372081
221	0xbdd9e1d4	-0.106387764
222	0x3c6551ad	0.013996524
223	0x3d9acd9a	0.07558747
224	0xbd37141a	-0.044696905
225	0xbb3c4a54	-0.0028730826
226	0xbb9bd859	-0.0047560153
227	0x3d073ff7	0.033019986
228	0x3dc6ad70	0.09701049
229	0x3c9ab6a0	0.01888591
230	0xbdf9f36a	-0.12204631
231	0x3d991b60	0.074759245
232	0x3dbfcbe5	0.09365062
233	0xbd7e0245	-0.062013883
234	0xbda7e98b	-0.08198842
235	0xbaa5d518	-0.0012652008
236	0xbbe7238b	-0.0070537976
237	0xbe15317e	-0.14569661
238	0xbe64ab2c	-0.22330922
239	0xbdb6b632	-0.0892147
240	0xbd7bbf66	-0.06146183
241	0xbbaca31a	-0.0052684667
242	0xbba83002	-0.005132676
243	0x3cbf2414	0.023332633
244	0xbaaac9b9	-0.0013030089
245	0xba78241d	-0.00094658305
246	0xbe057d16	-0.13035998
247	0xbd49727f	-0.049181458
248	0xbd9ce4de	-0.076608405
249	0x3c3f5901	0.011678935
250	0x3e1109d1	0.14163901
251	0x3de93e02	0.1138878
252	0x3d675bbc	0.05648397
253	0x3cd19f68	0.025588706
254	0x3d599902	0.053124435
255	0x3dd4c9d1	0.10390056

cnn.1.cnn.bias f4 [16]
0	0xbd1b684b	-0.03794126
1	0xbd4b21f4	-0.049592927
2	0xbd7bbde0	-0.061460376
3	0x3d9cedcc	0.07662544
4	0xbd8159d5	-0.06315962
5	0xbdce24c2	-0.10065605
6	0xbd8fe750	-0.07026541
7	0x3d0cfaac	0.034418747
8	0xbd9908e7	-0.07472401
9	0xbdea0e25	-0.11428479
10	0xbd2f957a	-0.04286716
11	0x3ca3206c	0.01991292
12	0x3de5114d	0.111849405
13	0xbd168fe9	-0.036758337
14	0xbdaa7b0b	-0.0832425
15	0xbd58fd69	-0.052976046

cnn.2.BachNorm.weight f4 [32]
0	0x3f70b7ec	0.9403064
1	0x3f8126e9	1.009
2	0x3f85d37e	1.0455167
3	0x3f7545ab	0.9580943
4	0x3f74c277	0.9560923
5	0x3f773d1b	0.96577615
6	0x3f880c5a	1.0628769
7	0x3f7e0681	0.99228674
8	0x3f8b4d75	1.0883013
9	0x3f828e18	1.0199614
10	0x3f8294b0	1.0201626
11	0x3f7e89d9	0.9942909
12	0x3f8a3ffd	1.0800778
13	0x3f75aecf	0.9596986
14	0x3f75b360	0.9597683
15	0x3f7604f4	0.9610131
16	0x3f6fd830	0.9368925
17	0x3f74723f	0.95486826
18	0x3f8887f5	1.0666491
19	0x3f7a8094	0.97852445
20	0x3f73b9d8	0.9520545
21	0x3f8275c6	1.0192192
22	0x3f6f3e11	0.9345408
23	0x3f7b6c4f	0.9821214
24	0x3f64dfc2	0.8940393
25	0x3f83c000	1.0292969
26	0x3f70e51e	0.94099605
27	0x3f727567	0.9471039
28	0x3f655b28	0.8959222
29	0x3f75d8d5	0.96033984
30	0x3f835c59	1.0262557
31	0x3f80b96d	1.0056587

cnn.2.BachNorm.bias f4 [32]
0	0xbdb51dd1	-0.08843578
1	0xbd970fef	-0.07376086
2	0xbca2d530	-0.019877046
3	0xbd3b4352	-0.0457185
4	0xbdad92aa	-0.084752396
5	0xbd8d1d7e	-0.06890391
6	0xbd595ce5	-0.053067107
7	0xbd1c3507	-0.03813651
8	0xbd497817	-0.049186792
9	0x3c4e29c6	0.012583202
10	0xbdaee335	-0.0853943
11	0xbd38061b	-0.044927698
12	0x3c611868	0.013738729
13	0xbd941412	-0.072303906
14	0xbd201f73	-0.039092492
15	0xbdb4107d	-0.087922074
16	0xbdd9bc6c	-0.10631642
17	0xbda3a0ff	-0.07989692
18	0xbcccef87	-0.02501656
19	0xbda16af9	-0.078817315
20	0xbdb01a75	-0.08598796
21	0xbd604237	-0.054750647
22	0xbdbf06ef	-0.09327494
23	0xbd614b78	-0.055003613
24	0xbdf416ed	-0.11918435
25	0xbcba629a	-0.022752095
26	0xbdff7389	-0.124732085
27	0xbdb1260e	-0.086498365
28	0xbdc9cd12	-0.09853567
29	0xbda82bc8	-0.082114756
30	0xbc3f1f15	-0.011665125
31	0xbd299369	-0.041400347

cnn.2.BachNorm.running_mean f4 [32]
0	0xbea2d8d4	-0.31806052
1	0x3ded7253	0.11594071
2	0xbe1acc13	-0.1511691
3	0x3e59f494	0.21284705
4	0xbd57d086	-0.052689098
5	0xbdd3c862	-0.10340954
6	0x3e18d3eb	0.1492459
7	0xbe39adef	-0.18132757
8	0x3e355be0	0.17710829
9	0x3c0675f0	0.008206829
10	0x3d1ac2dc	0.03778349
11	0xbc7d97c2	-0.015478076
12	0x3e16ee3e	0.1473932
13	0x3e2cadb7	0.16863142
14	0x3e005a6d	0.12534495
15	0x3e0c68b6	0.13711819
16	0x3d7535e4	0.059865847
17	0xbdaddf06	-0.08489804
18	0x3dd75c8d	0.105156995
19	0xbe2fcbfb	-0.17167656
20	0x3e25a952	0.16177872
21	0xbdfa5fc2	-0.122252956
22	0xbe1e699f	-0.15469979
23	0xbe724155	-0.23657735
24	0xbea4016b	-0.32032332
25	0x3ca93621	0.020655693
26	0x3deaaa87	0.11458307
27	0xbe0fdd6e	-0.14049312
28	0xbec0a3c2	-0.37624937
29	0xbe1bf41d	-0.1522984
30	0x3e6c7abc	0.23093694
31	0x3ca93506	0.020655166

cnn.2.BachNorm.running_var f4 [32]
0	0x3e623ac2	0.22092727
1	0x3e02dec7	0.12780295
2	0x3dd3c8e9	0.10341055
3	0x3e8c662d	0.27421704
4	0x3e2feb9d	0.17179723
5	0x3e0f8cfb	0.14018624
6	0x3ddcb5f6	0.10776894
7	0x3de3650c	0.111032575
8	0x3e1afc56	0.15135321
9	0x3e0a5737	0.13509832
10	0x3dbbc1c4	0.09167817
11	0x3e5e7477	0.21724115
12	0x3e479641	0.19490911
13	0x3e22e218	0.1590656
14	0x3e08fc4d	0.13377495
15	0x3e1388a0	0.14407587
16	0x3e1e2f64	0.15447766
17	0x3def65d8	0.11689347
18	0x3e0d6083	0.13806348
19	0x3e912b13	0.28353176
20	0x3e24a2a4	0.16077667
21	0x3e000a71	0.12503983
22	0x3f23b9ea	0.6395556
23	0x3de37278	0.111058176
24	0x3efeaece	0.4974274
25	0x3dbcbb34	0.09215394
26	0x3e242984	0.16031462
27	0x3db64358	0.088995636
28	0x3f0afa0a	0.5428778
29	0x3def502a	0.11685212
30	0x3e4d34e4	0.20039707
31	0x3e2b887f	0.16751288

cnn.2.cnn.weight f4 [32, 16, 3, 3]
0	0x3c2db4d6	0.010602197
1	0xbbf87fdd	-0.007583602
2	0x3d39eb22	0.045390256
3	0xbda041ef	-0.07825076
4	0x3b18861b	0.0023273292
5	0xbdbd9069	-0.0925606
6	0xbcdb42b4	-0.026765205
7	0xbd77b85a	-0.060478546
8	0xbd3a4c8c	-0.045483157
9	0xbd13632c	-0.03598325
10	0xbd83fe20	-0.06444955
11	0x3d1b6546	0.03793838
12	0xbd52d406	-0.051471733
13	0x3b8962de	0.004192694
14	0x3dbf75fd	0.09348676
15	0xbd4255db	-0.04744516
16	0xbd59b159	-0.053147648
17	0xbc3b1a8e	-0.011419905
18	0xbce4eec5	-0.027945885
19	0xbd999cc8	-0.07500607
20	0x3b43d314	0.002988045
21	0xbc8426d5	-0.016131798
22	0x3d4cfce7	0.050045874
23	0x3b0c1c69	0.0021379238
24	0x3cffa1ae	0.031205025
25	0x3c86f6fd	0.016475195
26	0xbd2343a4	-0.03985943
27	0x3d40c228	0.04706016
28	0xbd9426ff	-0.072340004
29	0x3d126dcd	0.035749245
30	0x3da06f07	0.07833677
31	0x3cafec87	0.02147509
32	0x3c6e6cc5	0.0145523
33	0x3d421296	0.047381006
34	0xbd951568	-0.072794735
35	0xbdcc9f4a	-0.099913195
36	0xbd28fb9a	-0.04125557
37	0x3beb6aa3	0.007184343
38	0x3dfaf97f	0.12254619
39	0x3caa55ed	0.020792926
40	0xbcae5897	-0.021282477
41	0xbcc653b0	-0.024209827
42	0x3d1f4c27	0.038890984
43	0xbc1475e3	-0.0090613095
44	0xbbf3db57	-0.007441919
45	0x3c5e60a7	0.013572848
46	0xbd57f9b0	-0.052728355
47	0xbd4c3303	-0.049853336
48	0xbd2bad02	-0.04191304
49	0x3d6f2869	0.058388148
50	0x3e018d4d	0.12651558
51	0xbd2f49e4	-0.042795077
52	0x3b8b63df	0.004253849
53	0xbd0b4704	-0.034003273
54	0x3aa63913	0.0012681804
55	0xbd14126d	-0.036150385
56	0x3c4343e1	0.011918039
57	0x3d35d813	0.044395518
58	0x3d075931	0.033044044
59	0xbd3078f7	-0.04308411
60	0xbb83cd79	-0.004022297
61	0x3d7d6ea0	0.06187308
62	0x3c9ed41b	0.01938825
63	0x3d35f4dc	0.04442297
64	0xbd23ae5c	-0.039961204
65	0x3c7c011a	0.015381122
66	0xbd06a6de	-0.03287398
67	0xbd02c7f4	-0.03192897
68	0x3cc15eb8	0.023604736
69	0x3d34ba03	0.044122707
70	0x3c59fa74	0.013304342
71	0x3db0580a	0.08610542
72	0xbcdbb7b5	-0.026820997
73	0xbd12ec60	-0.035869956
74	0xbd6dc016	-0.058044516
75	0x3db4167d	0.08793352
76	0xbcad254c	-0.021135949
77	0x3cbfb01f	0.02339941
78	0xbd6c26ef	-0.057654317
79	0xbd676dd1	-0.056501213
80	0x3d95e76e	0.07319532
81	0xbc6b0315	-0.0143439965
82	0xbdd6f3ec	-0.10495743
83	0x3da501f3	0.080570124
84	0xbd235f4f	-0.039885815
85	0xbda9f145	-0.08297972
86	0xbc762bcc	-0.01502509
87	0x3d2ec4df	0.04266822
88	0x3d195a20	0.037439466
89	0x3c2672b0	0.01015918
90	0x3d8290f7	0.06375306
91	0xbdc1da54	-0.09465471
92	0x3d8f48cb	0.06996306
93	0xbd3a240a	-0.045444526
94	0x3cd1c2b0	0.02560553
95	0xbd0d59f4	-0.034509614
96	0xbdf65bea	-0.1202925
97	0x3aef5a20	0.0018261112
98	0xbdaa3867	-0.08311539
99	0x3d259505	0.04042532
100	0x3ce7828d	0.028260494
101	0x3d3c0245	0.045900602
102	0x3d967df3	0.07348242
103	0xbc08c98f	-0.008348837
104	0xbc7d0044	-0.015441958
105	0x3d5a8739	0.053351615
106	0x3de8cc20	0.11367059
107	0xbd6d9a50	-0.058008492
108	0x3cf1979c	0.029491238
109	0x3a9bbdb2	0.0011882095
110	0xbd56f3c1	-0.052478556
111	0xbd9f23e8	-0.077705204
112	0xbd21037b	-0.03930996
113	0x3e077936	0.13229832
114	0xbd42f7b0	-0.047599494
115	0x3d02cfd2	0.031936474
116	0x3d0bbb43	0.034114134
117	0xbcdfd8cc	-0.027325056
118	0xbd35ac9a	-0.04435406
119	0xbd85c8f5	-0.0653247
120	0xbb9b17d2	-0.004733064
121	0xbce227fa	-0.027606953
122	0x3ba60683	0.005066694
123	0xbc4c9f56	-0.0124891605
124	0xbd1e309a	-0.03862057
125	0x3dc7e8b7	0.09761184
126	0xbca9d351	-0.020730646
127	0x3cd5cbd6	0.026098173
128	0xba1b6dcb	-0.0005929141
129	0x3d6b0d24	0.05738558
130	0xbdb720f3	-0.089418314
131	0xbd97968f	-0.07401764
132	0xbd295d1c	-0.04134856
133	0x3dc9a3e4	0.09845713
134	0x3d96c5f1	0.07361973
135	0x3d853816	0.06504838
136	0xbd8ae7b8	-0.06782478
137	0x3d9f5643	0.07780125
138	0xbd54269d	-0.051794637
139	0xbc81e527	-0.015856339
140	0xbdca0729	-0.09864647
141	0xbc8a52f8	-0.016885266
142	0xbb96ac62	-0.0045981864
143	0x3d84ffa7	0.06494074
144	0x3c072082	0.008247497
145	0x3d286399	0.04111061
146	0xbc40b04d	-0.011760783
147	0x3c0fa154	0.008766491
148	0x3cb8b871	0.022548886
149	0xbcec989c	-0.028881364
150	0xbd40c7e8	-0.047065645
151	0x3d3a1737	0.045432296
152	0x3d06a8fe	0.032876007
153	0xbd6281cd	-0.05529957
154	0xbc85fbb1	-0.016355367
155	0xbc9fe532	-0.019518469
156	0x3c9134f7	0.01772545
157	0xbd69f7be	-0.05712103
158	0x3d2ce16b	0.042207163
159	0xb9762056	-0.00023472434
160	0xbd499a7c	-0.049219593
161	0x3c5749a2	0.013140114
162	0x3d014cb5	0.031567294
163	0x3d3406c6	0.043951772
164	0xbdbb699c	-0.09151003
165	0x3cf1c495	0.029512683
166	0x3d0b66e8	0.034033686
167	0xbd89e92e	-0.067339286
168	0x3da4416c	0.08020291
169	0xbd684147	-0.05670288
170	0xbcaf95d5	-0.02143375
171	0xbc29a528	-0.010354318
172	0x3da8476b	0.08216747
173	0x3d6fbdfa	0.058530785
174	0x3d7e1a07	0.06203654
175	0xbd94b162	-0.072603956
176	0xbd8d12fa	-0.06888385
177	0xbd447d48	-0.04797104
178	0x3e07351e	0.13203856
179	0x3dcba89b	0.09944268
180	0xbd025e93	-0.031828474
181	0xbd5d960c	-0.054098174
182	0xbbe9d3c5	-0.0071358406
183	0x3d207976	0.039178334
184	0xbd02a68b	-0.03189711
185	0xbcd714b9	-0.026254999
186	0xbc876a9b	-0.016530326
187	0xbd9d56a2	-0.076825395
188	0xbd1fd583	-0.03902198
189	0x3d189e0b	0.037260097
190	0x3d28b1fd	0.041185368
191	0xbb55b467	-0.003260875
192	0xbd0fbf87	-0.035094764
193	0xbc28ff84	-0.010314826
194	0xbd3d4c24	-0.04621519
195	0xbdb7c688	-0.08973414
196	0x3d0ca0a5	0.03433289
197	0xbcf6e331	-0.03013763
198	0x3ca0a747	0.019611014
199	0xbd0a2981	-0.033730987
200	0xb84a5f76	-4.8249458e-05
201	0xbc2bb55c	-0.010480251
202	0xbd227ae4	-0.03966798
203	0x3d8f5d6d	0.070002414
204	0x3d97f605	0.074199714
205	0x3cab3fa3	0.020904368
206	0x3d044331	0.03229064
207	0xbc660a0d	-0.014040482
208	0x3d094d48	0.033520967
209	0x3dd95524	0.106119424
210	0xbcf36f4f	-0.029716162
211	0xbd5e7769	-0.054313097
212	0x3b136a04	0.002249361
213	0x3dc835bc	0.09775874
214	0xba17d5a1	-0.0005792026
215	0x3dbad04c	0.09121761
216	0x3c9ac5bc	0.018893115
217	0x3ced4a95	0.028966228
218	0x3a8c9bc2	0.0010727572
219	0x3dc9afc6	0.09847979
220	0x3aae124d	0.00132806
221	0xbd9b6edc	-0.07589504
222	0xbc3ed4d3	-0.011647421
223	0xbd3882b6	-0.04504653
224	0x3d81ff50	0.06347525
225	0x3ccc135b	0.024911573
226	0xbd882441	-0.0664754
227	0xbde084d6	-0.109628364
228	0xbdb2a30e	-0.087225065
229	0x3d18761a	0.037222005
230	0x3c5cdf3f	0.01348096
231	0x3d7c79ca	0.061639585
232	0x3de79910	0.11308491
233	0xbb91c09d	-0.00444801
234	0xbd5081ec	-0.050905153
235	0xbda4de81	-0.08050252
236	0x3ce559b9	0.027996885
237	0x3ca6f06c	0.020378314
238	0x3d3855e9	0.045003805
239	0x3dac1148	0.08401734
240	0xbc299ad1	-0.0103518525
241	0xbd38acf2	-0.04508681
242	0xbce55a42	-0.02799714
243	0xbcf68799	-0.030093955
244	0xbdc3d30c	-0.09561738
245	0x3c9d5e51	0.019210013
246	0xbd13f6a3	-0.036123883
247	0x3d84a961	0.06477619
248	0xbd9ba67e	-0.07600115
249	0x3dc3cace	0.09560166
250	0xbd9cdd3f	-0.07659387
251	0x3c99d717	0.01877932
252	0xbd99f65f	-0.07517695
253	0x3dcb66b5	0.09931699
254	0x3d31d429	0.043415222
255	0x3e3463e6	0.17616233

cnn.2.cnn.bias f4 [32]
0	0x3be645b6	0.007027353
1	0x3d500eaa	0.050795235
2	0xbbfa547e	-0.007639467
3	0x3d405955	0.046960194
4	0xbd6a6a4f	-0.05723029
5	0x3b9796f4	0.0046261493
6	0x3c8ab358	0.01693122
7	0xbd9778b8	-0.07396072
8	0x3d410d3a	0.047131754
9	0x3ce3d81d	0.027813012
10	0xbc9d3071	-0.019188138
11	0xbce2131d	-0.027597005
12	0x3d17849c	0.0369917
13	0x3a355f9a	0.0006918848
14	0xbcf1bd4d	-0.029509211
15	0x3d2d8460	0.04236257
16	0x3d94f9da	0.07274218
17	0xbd33566f	-0.0437836
18	0xbd194f67	-0.03742924
19	0xbc947ec5	-0.018126855
20	0x3d4e65b3	0.050389957
21	0xbd552cc8	-0.05204466
22	0xbc141fe8	-0.00904081
23	0xbda62575	-0.08112613
24	0x3d88f832	0.066879645
25	0xbd8ea412	-0.06964888
26	0x3d84ad92	0.064784184
27	0xbd411820	-0.047142148
28	0xbda0108b	-0.07815655
29	0xbd415cc5	-0.047207613
30	0x3d9b81d6	0.075931236
31	0xbd1e8b81	-0.03870726

cnn.3.BachNorm.weight f4 [64]
0	0x3f89506e	1.072767
1	0x3f85408b	1.0410322
2	0x3f774184	0.96584344
3	0x3f83289e	1.024677
4	0x3f7b8aba	0.98258555
5	0x3f79c1d1	0.97561365
6	0x3f79f5ff	0.97640985
7	0x3f810bf5	1.0081774
8	0x3f859e4d	1.0438935
9	0x3f71dcc0	0.9447746
10	0x3f865e5e	1.0497549
11	0x3f792e03	0.97335833
12	0x3f7cd97b	0.9876935
13	0x3f6dd372	0.92900765
14	0x3f8731ae	1.0562036
15	0x3f726836	0.94690263
16	0x3f6fd621	0.9368611
17	0x3f81cb6e	1.0140207
18	0x3f73aea2	0.95188344
19	0x3f80bdff	1.0057982
20	0x3f7688c1	0.9630242
21	0x3f80f22b	1.0073904
22	0x3f8db4b6	1.1070774
23	0x3f792f51	0.97337824
24	0x3f6ee5b3	0.93319243
25	0x3f789d90	0.9711542
26	0x3f810b82	1.0081637
27	0x3f854f2c	1.0414786
28	0x3f865d74	1.049727
29	0x3f7349f9	0.9503475
30	0x3f7c2398	0.9849181
31	0x3f7c7858	0.9862113
32	0x3f742a12	0.95376694
33	0x3f7e732e	0.993945
34	0x3f79de1a	0.97604525
35	0x3f80e6a2	1.0070384
36	0x3f772ebc	0.96555686
37	0x3f81d29d	1.0142399
38	0x3f75c64e	0.96005714
39	0x3f7c45fa	0.98544276
40	0x3f7b0785	0.9805835
41	0x3f88e112	1.0693686
42	0x3f79ca57	0.9757437
43	0x3f7e97eb	0.9945056
44	0x3f7eac2e	0.99481475
45	0x3f7ca341	0.98686606
46	0x3f7c8945	0.98646957
47	0x3f7f1118	0.9963546
48	0x3f73a39b	0.9517152
49	0x3f7171a3	0.9431402
50	0x3f7b7592	0.98226273
51	0x3f7a2761	0.9771634
52	0x3f7971fd	0.9743956
53	0x3f7d9a8c	0.99063945
54	0x3f7598c2	0.95936215
55	0x3f79ab14	0.9752667
56	0x3f762a96	0.9615873
57	0x3f7d6c47	0.98993343
58	0x3f7bca70	0.9835577
59	0x3f9255e4	1.1432462
60	0x3f6e4d2a	0.93086493
61	0x3f845afc	1.0340266
62	0x3f7702e0	0.9648876
63	0x3f752ef2	0.9577476

cnn.3.BachNorm.bias f4 [64]
0	0xbd22aff9	-0.0397186
1	0xbc98d122	-0.01865441
2	0xbd06383f	-0.032768484
3	0xbdeafa94	-0.11473575
4	0xbd358d6c	-0.044324324
5	0xbdb104dc	-0.08643505
6	0xba3aea0d	-0.0007130213
7	0xbda8fd4c	-0.082514375
8	0xbe156b80	-0.14591789
9	0xbbbabbe6	-0.005698669
10	0xbd8c0bd2	-0.06838192
11	0xbdce34b4	-0.10068646
12	0xbda97f89	-0.082762785
13	0xbacfd0ab	-0.0015855035
14	0xbd00262f	-0.031286415
15	0xbbb1377d	-0.005408226
16	0xbb2a3093	-0.0025968894
17	0x3d52bdf1	0.051450673
18	0xb88fe1f5	-6.860859e-05
19	0x3c5cf43a	0.0134859625
20	0x3a222ff2	0.0006186954
21	0xbdde4649	-0.108532496
22	0xbc9716b9	-0.018443452
23	0xbe7e9193	-0.2486022
24	0x3b8b3754	0.004248539
25	0x3c2b32dd	0.0104491385
26	0xbde58769	-0.11207468
27	0xbdc9b39c	-0.09848711
28	0xbc40f8dc	-0.011778083
29	0xbb03f0ef	-0.0020132621
30	0xbde08052	-0.10961975
31	0xbc9dc406	-0.01925851
32	0xbbb81328	-0.005617518
33	0xbd54b4a4	-0.051930085
34	0xbadae85f	-0.0016701332
35	0xbdb9c369	-0.09070475
36	0xbcb7c678	-0.022433504
37	0xbd1b0cf1	-0.03785414
38	0xbc82545a	-0.015909363
39	0xbc9d2890	-0.01918438
40	0xbb203f43	-0.002445177
41	0xbd281cab	-0.041042965
42	0x3ba9bdfc	0.0051801186
43	0xbd1e610f	-0.03866678
44	0x3bf4556e	0.007456473
45	0xbb473b48	-0.0030400325
46	0xbdac071b	-0.08399793
47	0xbd010183	-0.031495582
48	0xbbfd8e2a	-0.0077378945
49	0xbbffcc17	-0.007806312
50	0x3a234c41	0.0006229319
51	0xbd48de3e	-0.04904007
52	0x3b139fee	0.0022525745
53	0x3c84a041	0.016189696
54	0x3bc4bd62	0.0060040215
55	0x3c95d79a	0.018291283
56	0xbc95a994	-0.018269338
57	0x3c5db1b5	0.013531138
58	0xbb19a625	-0.0023444977
59	0x3cb26d21	0.021780552
60	0x3bb44477	0.0055013257
61	0x3ac1c6a7	0.0014783934
62	0xbe18d6e6	-0.14925727
63	0xbaf4f212	-0.0018687865

cnn.3.BachNorm.running_mean f4 [64]
0	0x3e67de70	0.22643447
1	0xbd88b1e8	-0.06674558
2	0xbd97df55	-0.07415644
3	0xbe390bff	-0.18070982
4	0xbd30f73b	-0.043204527
5	0xbee15334	-0.4400879
6	0xbf1636fc	-0.5867765
7	0xbe7ae5ec	-0.2450177
8	0xbe392c50	-0.1808331
9	0xbecf72af	-0.40517184
10	0x3de7efe4	0.113250524
11	0x3ca820ee	0.020523515
12	0x3d1093c4	0.03529717
13	0xbed1766d	-0.40910664
14	0x3d387468	0.04503289
15	0xbf317860	-0.693243
16	0xbef38bdf	-0.4756765
17	0xbe83a846	-0.2571432
18	0xbf2449b5	-0.6417497
19	0xbe380bc0	-0.17973232
20	0xbe94bbf6	-0.29049653
21	0xbc089891	-0.008337156
22	0x3d9707ac	0.0737451
23	0x3d9a8688	0.07545191
24	0xbebfa965	-0.37433925
25	0xbcd91488	-0.026499048
26	0xbe828d08	-0.25498223
27	0xbddd44d0	-0.108041406
28	0x3d1d12fa	0.038348176
29	0xbf48820e	-0.7832345
30	0xbd88d174	-0.06680575
31	0xbe8aa733	-0.27080688
32	0xbee9d996	-0.45673817
33	0xbec1d84d	-0.37860337
34	0xbeee4657	-0.4653804
35	0xbd94617e	-0.07245158
36	0xbf1f70dd	-0.6228159
37	0x3df5c33b	0.12000128
38	0xbe7ade7e	-0.24498937
39	0xbdd27eed	-0.102781154
40	0xbeef2ae0	-0.467124
41	0x3da236ec	0.07920632
42	0xbe7e488b	-0.2483236
43	0xbf20accb	-0.6276366
44	0xbe91f9ed	-0.2851099
45	0xbe55d6fe	-0.20882794
46	0xbecf2a00	-0.4046173
47	0xbe1bfd24	-0.15233284
48	0xbdfdf87b	-0.124009095
49	0xbed8dc46	-0.42355555
50	0xbf35ec82	-0.7106401
51	0xbb8a10e5	-0.0042134398
52	0xbe0ef628	-0.13961089
53	0x3b58f534	0.0033105137
54	0xbf22c9b6	-0.63589036
55	0xbe9a4058	-0.30127215
56	0xbe3bcd88	-0.18340123
57	0xbe16b955	-0.14719136
58	0xbe53da08	-0.20688641
59	0xbd3bcdf3	-0.045850705
60	0xbf05c680	-0.5225601
61	0x3c9d1631	0.01917562
62	0xbe9e88c9	-0.30963734
63	0xbf4c3404	-0.7976687

cnn.3.BachNorm.running_var f4 [64]
0	0x3e010dac	0.12602872
1	0x3e5b33cc	0.21406478
2	0x3ec4bdb3	0.3842598
3	0x3e14de44	0.14537913
4	0x3e52a305	0.2057
5	0x3dc75a1e	0.09733985
6	0x3f05865c	0.5215814
7	0x3e21469a	0.15749589
8	0x3dce6cdf	0.10079359
9	0x3f3d33e4	0.73907304
10	0x3e27026f	0.16309522
11	0x3e04fdcc	0.12987441
12	0x3df92732	0.12165679
13	0x3f1632e5	0.5867141
14	0x3e071b17	0.13193928
15	0x3f64ff9e	0.8945254
16	0x3f8f6159	1.1201583
17	0x3e927752	0.2860666
18	0x3f59d9bc	0.8509786
19	0x3e8fa82f	0.28058
20	0x3eebb1af	0.46034
21	0x3eda6fca	0.42663413
22	0x3e1d4c86	0.15361223
23	0x3e15f025	0.14642389
24	0x3f99900b	1.1997083
25	0x3ec4d778	0.3844564
26	0x3e39692a	0.18106523
27	0x3dc8464e	0.097790346
28	0x3e07bf8c	0.13256663
29	0x3f98cef8	1.1938162
30	0x3e18f795	0.14938195
31	0x3ea9b54e	0.33146137
32	0x3f2107a0	0.6290226
33	0x3eaf0fe1	0.34191802
34	0x3f05479e	0.52062404
35	0x3e442e37	0.19158255
36	0x3f0f56b6	0.55991685
37	0x3e105184	0.14093596
38	0x3e9d80a8	0.3076222
39	0x3e9067a1	0.28204063
40	0x3f112992	0.56704056
41	0x3df3f16f	0.11911284
42	0x3ec2364b	0.37932047
43	0x3e473c21	0.19456531
44	0x3e8a9722	0.2706843
45	0x3ee3b8db	0.4447697
46	0x3e96acf6	0.29428834
47	0x3e06ba51	0.13157012
48	0x3ed77325	0.42080036
49	0x3f3ec675	0.7452157
50	0x3eb7a955	0.35871378
51	0x3e5bdb3c	0.2147035
52	0x3ef4ff74	0.47851145
53	0x3e6a638a	0.22889534
54	0x3f20905b	0.6272027
55	0x3eeb7277	0.45985767
56	0x3eb1abe0	0.34701443
57	0x3e75a286	0.23987779
58	0x3ea3c53c	0.31986415
59	0x3e06239a	0.13099518
60	0x3f80d8a0	1.0066109
61	0x3e0cc64d	0.1374752
62	0x3df9c36f	0.12195479
63	0x3f79795f	0.9745082

cnn.3.cnn.weight f4 [64, 32, 3, 3]
0	0x3c2593f8	0.010106079
1	0x3c93fc26	0.01806457
2	0x3bcb4694	0.006203482
3	0x3d280dd5	0.041028816
4	0xbd2ec40a	-0.042667426
5	0xbb3bb620	-0.002864249
6	0x3ccfb146	0.025353085
7	0xbd6ddac9	-0.058069978
8	0x3d015f2d	0.031584907
9	0x3d51c52a	0.05121342
10	0x3bd690f8	0.0065480433
11	0x3c9676e5	0.01836724
12	0xbb652bf0	-0.0034968816
13	0xbce22bfc	-0.027608864
14	0x3d0952f5	0.03352638
15	0xbd71aae4	-0.059000865
16	0x3be35278	0.0069373213
17	0x3db59151	0.088656075
18	0xbca06fd4	-0.019584574
19	0xbd515610	-0.051107466
20	0xbc9370ff	-0.017998217
21	0x3c31df1c	0.010856416
22	0xbd5dee94	-0.054182604
23	0xbd4f6641	-0.050634626
24	0x3c93c7db	0.018039634
25	0xbcb960ea	-0.02262922
26	0xbdbf7306	-0.09348111
27	0x3c2c16a0	0.010503441
28	0xbcbdea06	-0.02318288
29	0x3d3ae52c	0.04562871
30	0x3d66eab3	0.05637617
31	0x3d1eec3d	0.038799513
32	0xbd215dfd	-0.039396275
33	0xbd22f8e8	-0.039788157
34	0x3d6d5789	0.05794481
35	0x3d81e100	0.063417435
36	0xbd264667	-0.040594485
37	0x3c246c94	0.010035653
38	0x3d26b020	0.04069531
39	0xbcae0e52	-0.021247063
40	0x3d563e4b	0.0523055
41	0xbcec48c9	-0.0288433
42	0x3cdfc293	0.02731446
43	0xbc620474	-0.013795007
44	0x3d7cc2f5	0.061709363
45	0x3cd2a965	0.02571554
46	0x3ce69f8e	0.028152253
47	0xbcb6f8cc	-0.022335432
48	0x3d63597f	0.055505272
49	0xbd6b01b5	-0.057374675
50	0xbcf44129	-0.029816227
51	0xbc35bcf9	-0.011092418
52	0x3c3f59a4	0.011679087
53	0x3d344613	0.04401214
54	0xbc6a1bea	-0.014288882
55	0x3c18a38c	0.009316336
56	0x3d5b3fd5	0.05352767
57	0x3d06230f	0.03274828
58	0x3d110a5d	0.035410274
59	0xbd708e6e	-0.05872958
60	0x3cc8f9ef	0.02453324
61	0x3d6b3cf1	0.057431165
62	0xbd66b1cd	-0.056321908
63	0xbd438c12	-0.047741003
64	0x3c7bc404	0.015366558
65	0x3d615faa	0.055022873
66	0x3d65c2e5	0.05609407
67	0xbcaeb178	-0.021324858
68	0x3d3ca647	0.046057012
69	0x3ccb5479	0.024820553
70	0x3d1b48f3	0.037911367
71	0x3dbcaea9	0.09213001
72	0x39dd51e5	0.0004221342
73	0x3c8eefea	0.017448384
74	0xbd9d7891	-0.07689012
75	0xbce12976	-0.02748559
76	0xbcc377da	-0.02386086
77	0x3c387f5c	0.011260834
78	0xbd145976	-0.03621813
79	0x3c9496b2	0.018138263
80	0xbc62c108	-0.013839968
81	0x3cc13421	0.023584427
82	0x3d3bb999	0.045831297
83	0xbd643a48	-0.055719644
84	0xbb175ce0	-0.002309613
85	0x3d68d6df	0.056845542
86	0x3d494697	0.049139585
87	0xbc038c79	-0.008029097
88	0xbce0bbee	-0.027433362
89	0xbcc003b3	-0.023439264
90	0x3d0d330a	0.034472503
91	0x3cb829fe	0.022480961
92	0xbd061e8d	-0.03274398
93	0xbd625fa7	-0.055267002
94	0xbc52ce98	-0.012866639
95	0xbc8d6440	-0.017259717
96	0xbb84a833	-0.004048371
97	0x3d13f3e9	0.036121283
98	0x3c799d46	0.015235251
99	0x3bf44aeb	0.00745522
100	0xbb0e38d0	-0.0021701343
101	0x3d5ea273	0.054354142
102	0xbd60ca44	-0.054880396
103	0x3d09989f	0.033592816
104	0x3d5e715d	0.05430733
105	0xb96db085	-0.0002266784
106	0x3d05f5bd	0.032705057
107	0xbdd840df	-0.10559248
108	0xbc160922	-0.009157451
109	0xbd0e00da	-0.03466878
110	0x3da88f5e	0.0823047
111	0x3cbd5686	0.023112547
112	0xbc22dd68	-0.009940483
113	0xbd36bdca	-0.04461459
114	0x3d122590	0.035680354
115	0x3c3a4174	0.011368144
116	0x3db28e73	0.08718576
117	0xbd0a8101	-0.033814434
118	0x3d072fff	0.033004757
119	0xbcca30ef	-0.024681536
120	0xbd22a2ea	-0.03970615
121	0xbc6e2200	-0.014534473
122	0xbd4246bf	-0.04743075
123	0x3c4e87b4	0.012605596
124	0x3c05b1e4	0.008160088
125	0xbcd272dc	-0.025689535
126	0x3d5e18ad	0.05422275
127	0xbd0fa151	-0.035065953
128	0xbd108db2	-0.03529138
129	0xbcdf66ae	-0.027270641
130	0x3c4b5dec	0.012412529
131	0xbd27ed29	-0.040997658
132	0xbd3e9646	-0.04653003
133	0x3cf661f6	0.030076008
134	0x3c06db94	0.008231062
135	0x3bbb6687	0.0057190093
136	0x3c8a612e	0.016892042
137	0xbc99b944	-0.0187651
138	0xbd653ce4	-0.055966273
139	0x3d32b771	0.043631975
140	0xbd676dc8	-0.05650118
141	0x3c427119	0.011867785
142	0x3cbaa6ea	0.022784669
143	0x3d4fa63e	0.05069565
144	0x3c891331	0.016732784
145	0xbd2ddc06	-0.04244616
146	0xbc345a5e	-0.011007873
147	0xbb6c0ff0	-0.0036020242
148	0x3ce7514a	0.028237004
149	0xbc90eea4	-0.017691918
150	0x3d501884	0.05080463
151	0x3ccd007a	0.025024641
152	0xbd068fcb	-0.032851975
153	0x3d21fee8	0.03954974
154	0x3d0db7dd	0.034599174
155	0xbd1b720d	-0.037950564
156	0x3d713e35	0.058897216
157	0x3c9cbd26	0.019133162
158	0x3b70ac70	0.0036723875
159	0xbc00fb11	-0.007872359
160	0x3d6e2bf9	0.058147404
161	0x3c7ca085	0.01541913
162	0xbd686b8e	-0.056743197
163	0xbc829240	-0.015938878
164	0x3d888e90	0.06667817
165	0xbd0d3d51	-0.034482304
166	0xbcf25e00	-0.029585838
167	0xbb2da900	-0.0026498437
168	0x3da92ef1	0.082609065
169	0x3bfa5c28	0.0076403804
170	0x3bc48465	0.005997228
171	0x3d8c555d	0.06852219
172	0x3d453d75	0.048154313
173	0xbb3f0ff8	-0.0029153805
174	0xbd0835c0	-0.033254385
175	0x3b289ca0	0.0025728121
176	0xbd00a558	-0.031407684
177	0xbcb63443	-0.022241717
178	0xbd30df17	-0.043181505
179	0x3da7c70b	0.08192261
180	0xbc4132fe	-0.011791943
181	0xbc72a01c	-0.014808681
182	0xbd2a8ed4	-0.041640118
183	0xbd241614	-0.040060118
184	0x3d063b55	0.032771427
185	0xbd15b246	-0.036546968
186	0xbc1fd49d	-0.009755281
187	0xbd300660	-0.04297483
188	0x3d94987e	0.07255648
189	0x3d035009	0.03205875
190	0x3d128d5f	0.035779353
191	0xbbfdf6b4	-0.0077503566
192	0xbc91a1ac	-0.017777286
193	0x3cdcaf76	0.026939135
194	0x3cdca77a	0.026935328
195	0xbda8bd64	-0.082392484
196	0x3d6ee0dd	0.058319915
197	0x3de8d37b	0.11368462
198	0x3d448593	0.04797895
199	0xbca53c8a	-0.020170469
200	0xbd435c49	-0.04769543
201	0xba24bdc0	-0.00062843785
202	0xbcaa6664	-0.020800777
203	0xbd6acb62	-0.057322867
204	0x3c97ed86	0.018545877
205	0x3c0e255c	0.008675899
206	0x3bd8844d	0.0066075684
207	0x3d292b58	0.0413011
208	0x3b91ade8	0.00444578
209	0xbcbc0569	-0.022951799
210	0xbd51c101	-0.051209453
211	0x3b0836e0	0.0020784661
212	0xbc2b1fa8	-0.010444559
213	0x3da34c82	0.07973577
214	0x3a168e80	0.000574328
215	0x3ce3b802	0.027797703
216	0xbd271cb1	-0.040798847
217	0x3cb77236	0.022393327
218	0xbd61a629	-0.055090103
219	0xbcea6e28	-0.02861698
220	0x3c112f54	0.008861382
221	0xbc134794	-0.0089892335
222	0x3b99e5f8	0.004696604
223	0x3d7084ff	0.058720585
224	0xbd622108	-0.055207282
225	0xbd21b64f	-0.039480504
226	0xbd0691b2	-0.03285379
227	0x38cce7a8	9.7706274e-05
228	0xbd3e4909	-0.04645637
229	0xbc0a113c	-0.008426961
230	0xbd15304c	-0.036423013
231	0xbb5e2d11	-0.0033901373
232	0xbc9935fe	-0.018702503
233	0x3b5319ab	0.0032211344
234	0x3cf31885	0.029674778
235	0x3c376a04	0.01119471
236	0xbcbfffd1	-0.023437412
237	0x3d6ba60d	0.057531405
238	0x3ca82b52	0.02052847
239	0xbcff7f3b	-0.031188598
240	0xbb0da256	-0.0021611652
241	0xbcb76624	-0.022387572
242	0x3d2eae20	0.042646527
243	0x3c2fc7ac	0.010728758
244	0xbc5eea34	-0.013605643
245	0x3ca4284b	0.020038744
246	0x3c12c6a4	0.008958492
247	0xbb08f440	-0.0020897537
248	0x3cf4f00e	0.029899623
249	0x3c6fa44d	0.014626575
250	0x3d2cdecb	0.04220466
251	0x3d0b2a67	0.033975985
252	0x3ac8a7ff	0.0015308856
253	0x3cde45b2	0.027132843
254	0x3d62b871	0.05535168
255	0xb9ef5180	-0.00045646355

cnn.3.cnn.bias f4 [64]
0	0x3d39e965	0.045388598
1	0xbd1f6147	-0.03891113
2	0xbd2ee9fe	-0.04270362
3	0x3d39b93f	0.04534268
4	0xbcd11117	-0.025520844
5	0x3b8520a6	0.00406273
6	0xbd194b8f	-0.037425574
7	0xbce52c95	-0.02797536
8	0xbd2728cf	-0.040810402
9	0xbd0676c5	-0.03282811
10	0x3c8090cd	0.015694046
11	0x3c940ded	0.018073047
12	0x3d55bd54	0.05218251
13	0x3c13266b	0.0089813275
14	0xbb9a3409	-0.00470591
15	0x3c44ee90	0.012019768
16	0xbcf3a828	-0.02974327
17	0x3c86a3f0	0.016435593
18	0x3d0a0693	0.033697676
19	0x3d614120	0.05499375
20	0x3d291a9e	0.04128515
21	0x3cb0a1fa	0.021561611
22	0xbb6d1ecc	-0.0036181686
23	0x3c425569	0.011861184
24	0xbd1473c8	-0.03624323
25	0x3d25030b	0.040286105
26	0xbc3c3d29	-0.011489191
27	0xbd4b65b0	-0.049657524
28	0xbbabc76a	-0.005242278
29	0xbd577bb9	-0.052608225
30	0xbc726a20	-0.01479581
31	0xbcc5b177	-0.024132473
32	0x3d0dc310	0.034609854
33	0xbd1d9434	-0.038471416
34	0xbc39c85e	-0.011339275
35	0x3cd6750f	0.026178865
36	0xbcebdf3a	-0.028792966
37	0x3d5e1248	0.054216653
38	0xbd048377	-0.032351937
39	0x3d6a2a1d	0.05716907
40	0xbd4df2a9	-0.050280247
41	0x3d510b98	0.051036447
42	0xbc1bd38e	-0.009510888
43	0xbd53cfa2	-0.051711686
44	0xbceff63b	-0.029292217
45	0xbce99d3e	-0.028517362
46	0x3d194ab6	0.037424766
47	0xbcbc8236	-0.023011308
48	0xbaca90da	-0.0015454546
49	0x3a5cc7c7	0.0008422103
50	0xbd0adcca	-0.033901967
51	0x3cfd9284	0.030953653
52	0x3d2cb191	0.042161528
53	0xbc3532de	-0.011059491
54	0x3bddd7c8	0.006770108
55	0x3cc965fa	0.024584759
56	0xbd2e9bbe	-0.042628996
57	0x3cef2eb5	0.029197076
58	0x3c59f395	0.013302703
59	0xbd61451b	-0.054997545
60	0xbd1d7a53	-0.038446736
61	0x3b822153	0.0039712577
62	0x3cae81c7	0.021302117
63	0xbd75145c	-0.05983387

linear.0.0.weight f4 [80, 64]
0	0x3e020687	0.12697802
1	0xbd006a73	-0.031351518
2	0x3b90625c	0.0044062566
3	0x3d4c2b8f	0.04984623
4	0xbd9c8490	-0.07642472
5	0xbd8e44fe	-0.06946753
6	0x3dc59f5b	0.09649535
7	0x3d861219	0.065464206
8	0xbe3e7d0f	-0.18602394
9	0xbd133c5b	-0.03594623
10	0x3d66918a	0.05629114
11	0xbc25d780	-0.01012218
12	0x3d1f196d	0.038842607
13	0x3d9ca9d5	0.076495804
14	0xbcbfd81c	-0.023418479
15	0xbd9328d4	-0.07185522
16	0xbdd79927	-0.10527258
17	0xbe274912	-0.16336468
18	0xbdc53357	-0.09628933
19	0xbde1dc91	-0.11028398
20	0x3ddf48a9	0.10902531
21	0xbe115371	-0.14191987
22	0x3d8d418e	0.06897269
23	0x3d9c7d82	0.07641126
24	0x3defd0dd	0.117097594
25	0x3e015f15	0.12633927
26	0x3dc45b61	0.09587742
27	0x3d9e6232	0.07733573
28	0xbc9aff1d	-0.018920476
29	0x3c1a1273	0.009403813
30	0xbc8888f1	-0.016666861
31	0x3dd19b59	0.10234708
32	0xbd3542ec	-0.044253275
33	0x3d33b929	0.043877754
34	0x3d2ffa97	0.04296359
35	0x3cdc5a7c	0.026898615
36	0xbd8d478b	-0.06898411
37	0x3dedd78c	0.11613378
38	0xbe0167ca	-0.12637249
39	0xbb976102	-0.0046197185
40	0xbd83c133	-0.06433334
41	0x3c2c2f78	0.010509364
42	0x3d74e8df	0.059792396
43	0x3cb2a538	0.021807298
44	0xbd27f2d6	-0.04100307
45	0xbdbf5251	-0.093418725
46	0x3d94b6c4	0.07261422
47	0xbdb90eea	-0.09036048
48	0x3d284d17	0.041089144
49	0x3d4e3f1c	0.050353155
50	0xbd84ffd6	-0.06494109
51	0xba250a76	-0.0006295809
52	0xbd8d0294	-0.06885257
53	0xbcf1b7c7	-0.029506577
54	0x3e40e418	0.18837011
55	0x3c829c48	0.015943661
56	0xbcef3533	-0.029200172
57	0x3db4b4ff	0.08823585
58	0x3caaa0ae	0.020828571
59	0xbde6d542	-0.112711444
60	0xbd9a69b3	-0.07539692
61	0xbd857c6f	-0.065178744
62	0xbb4890be	-0.0030603851
63	0x3d045939	0.03231165
64	0x3dc3f31c	0.09567854
65	0xbddaf431	-0.10691107
66	0xbd9deb6d	-0.077109195
67	0x3d0930e6	0.0334939
68	0xbe23c0ce	-0.15991518
69	0x3dabce0b	0.08388909
70	0x39df927c	0.00042643014
71	0x3ddd901f	0.108185045
72	0xbdf578cd	-0.119859315
73	0x3cde78cc	0.02715721
74	0xbdb5dc6f	-0.08879935
75	0x3d4ef14f	0.0505231
76	0xbe01e00d	-0.12683125
77	0xbd2bb7fa	-0.0419235
78	0x3b837837	0.0040121335
79	0x3d9e9f92	0.07745279
80	0x3d171ffe	0.036895745
81	0xbc97fd61	-0.018553438
82	0xbd2b0110	-0.04174906
83	0x3cf8d15a	0.030373264
84	0x3dc429cd	0.09578285
85	0x3c193771	0.009351597
86	0x3de25952	0.11052193
87	0x3da3db72	0.0800084
88	0x3d77eaa8	0.06052652
89	0xbda8f2a2	-0.082494035
90	0xbe260954	-0.16214496
91	0x3d86cc24	0.065819055
92	0xbdaa4636	-0.08314173
93	0x3d71a96f	0.058999475
94	0xbd1bd8d9	-0.0380486
95	0x3cb57f1d	0.022155339
96	0xbd99ff33	-0.075193785
97	0xbd579993	-0.052636694
98	0xbddb657c	-0.10712716
99	0xbd05fa67	-0.032709505
100	0x3dc6265f	0.096752875
101	0x3d3c8f3d	0.04603504
102	0x3d241842	0.040062197
103	0xbb4d3a9c	-0.0031315451
104	0x3c007b8d	0.007841957
105	0x3a8f2ac6	0.0010922782
106	0x3c968bd2	0.018377218
107	0xbdea0d15	-0.114282764
108	0x3dd03aa4	0.10167435
109	0xbd16d22f	-0.03682154
110	0x3d8ff4ec	0.07029137
111	0xbd6dc83c	-0.058052287
112	0x3e0e0006	0.13867196
113	0x3d800a72	0.06251992
114	0xbc82c386	-0.015962373
115	0xbd8ce465	-0.068795
116	0x3e0d2dd6	0.13787016
117	0x3dc9de2f	0.09856831
118	0x3af94948	0.0019019032
119	0xbcbb33f8	-0.022851929
120	0xbd9a021d	-0.07519934
121	0xbd279a4c	-0.040918633
122	0xbdd726f9	-0.1050548
123	0x3e33738b	0.17524545
124	0x3dfa0cd3	0.12209477
125	0x3d8667e5	0.06562785
126	0x3de60bf1	0.112327464
127	0x3d9502dd	0.07275937
128	0x3cd1f36b	0.025628766
129	0xbd0fc34c	-0.03509836
130	0x3d125d3c	0.035733446
131	0x3d1b86f6	0.037970506
132	0xbda500af	-0.08056771
133	0xbdfaae0f	-0.1224023
134	0xbd26d142	-0.040726908
135	0x3d27e3d3	0.040988754
136	0x3df2ee1f	0.11861824
137	0x3d972f00	0.073820114
138	0x3c319c0f	0.01084043
139	0xbdd4d723	-0.103925966
140	0x3cd13627	0.025538517
141	0xbcafbcf8	-0.021452412
142	0xbde2ef31	-0.110807784
143	0xbdceeaaf	-0.10103356
144	0xbbd1cb46	-0.006402406
145	0x3e1e400f	0.15454124
146	0xbbee2ca1	-0.007268504
147	0x3da06ced	0.07833276
148	0x3be83076	0.007085855
149	0xbdc5008d	-0.09619246
150	0xbc8a2662	-0.016864005
151	0xbe032f20	-0.12810946
152	0x3d98fe23	0.07470348
153	0x3dfa1dbf	0.12212705
154	0xb98d1a59	-0.00026913246
155	0xbbb9cfe6	-0.0056705354
156	0xbd32f59f	-0.043691274
157	0x3c4e4342	0.012589278
158	0x3d881fac	0.06646666
159	0xbde4a9cd	-0.111651994
160	0xbd720022	-0.059082158
161	0x3e35528e	0.17707273
162	0x3db5031f	0.08838486
163	0x3b571709	0.0032820127
164	0xbd935698	-0.07194251
165	0x3c9e5940	0.019329667
166	0x3b96a9a0	0.0045978576
167	0x3d05f23b	0.032701712
168	0x3d36f403	0.0446663
169	0x3c8a9d20	0.016920626
170	0xbd2a8baf	-0.04163712
171	0xbce8fe33	-0.028441524
172	0xbdd641da	-0.10461779
173	0xbd80b9be	-0.062854275
174	0x3db712d8	0.08939141
175	0xbe2f181a	-0.17099038
176	0xbd145fb2	-0.036224075
177	0xbd7ac95f	-0.0612272
178	0x3da4d69e	0.080487475
179	0x3bab7ada	0.005233151
180	0x3ddf02bf	0.10889196
181	0xbd9224ab	-0.071359
182	0x3d59c0c0	0.053162336
183	0xbe08f6db	-0.13375418
184	0xbdc2fa7e	-0.09520434
185	0x3ddf6643	0.10908177
186	0xbcd87c4a	-0.026426453
187	0x3d3ddba7	0.046352055
188	0x3d98f72b	0.074690185
189	0xbbc42afe	-0.0059865704
190	0xbddf093c	-0.10890433
191	0xbd8083b0	-0.062751174
192	0x3dacb9e3	0.084338926
193	0x3de61fe2	0.1123655
194	0xbad3e48c	-0.0016166135
195	0x3dd1a540	0.10236597
196	0xbd758152	-0.059937783
197	0xbd95b798	-0.07310408
198	0x3a69b9a5	0.0008915908
199	0xbd4e9c2f	-0.050441917
200	0xbd26c7bc	-0.040717825
201	0x3ccc5ffb	0.02494811
202	0xbddc8b74	-0.10768786
203	0xbe2813ab	-0.16413753
204	0x3d0bc6a4	0.034124985
205	0xbddb9dde	-0.1072347
206	0x3dad1bfa	0.08452602
207	0x3d02122f	0.031755622
208	0x3c9c4d96	0.019079965
209	0xbdccbef1	-0.09997357
210	0xbd158e51	-0.036512677
211	0x3d3a4995	0.04548033
212	0xbe146a11	-0.14493586
213	0xbdc4bcf6	-0.09606354
214	0xbdf98074	-0.121827036
215	0xbdfcb5f3	-0.123393916
216	0xbd74a8a1	-0.05973113
217	0xbe1c8ace	-0.15287325
218	0xbcece881	-0.02891946
219	0x3d8db060	0.069184065
220	0x3d8d128a	0.06888302
221	0x3dd5952e	0.104288444
222	0x3e222c53	0.15837221
223	0xbd8d185b	-0.06889411
224	0x3db7cab6	0.08974211
225	0x3ce35541	0.027750613
226	0xbccf6c1f	-0.02532011
227	0x3c66539a	0.014058018
228	0x3c9775a0	0.018488705
229	0xbd2dde39	-0.042448256
230	0xbce83694	-0.028346337
231	0xbdcb4794	-0.09925762
232	0xbd261163	-0.040543925
233	0xbd9eb474	-0.077492625
234	0xbd0c1c22	-0.034206517
235	0xbd24d984	-0.0402465
236	0x3c9f44e1	0.019442024
237	0xbe13f04c	-0.14447135
238	0x3da5098a	0.0805846
239	0xbd48696c	-0.048928663
240	0x3dd7f7ba	0.10545297
241	0xbd74c749	-0.059760366
242	0x3d78421f	0.060609933
243	0xb9eebedd	-0.00045537102
244	0xbd8f29d5	-0.06990401
245	0xbdca4cfb	-0.09877964
246	0x3c95ff03	0.018310076
247	0xbd1caebb	-0.038252573
248	0x3cd50c9e	0.026006993
249	0x3d48ec81	0.049053673
250	0xbe0d48b4	-0.13797265
251	0x3d2964fa	0.041356064
252	0x3d1271a5	0.03575291
253	0xbdac122e	-0.08401905
254	0xbd95914c	-0.07303104
255	0xbd4d4818	-0.050117582

linear.0.0.bias f4 [80]
0	0x3da4a087	0.08038431
1	0x3d129e43	0.03579546
2	0x3ca94872	0.020664427
3	0xbd00ebd8	-0.031474918
4	0x3b3fd5d8	0.0029271748
5	0x3c8379f6	0.016049366
6	0x3cc7059c	0.024294667
7	0xbdca0b21	-0.09865404
8	0x3d87261d	0.065990664
9	0xbd727ca6	-0.059200905
10	0x3c9620ce	0.01832619
11	0x3dafeec2	0.08590461
12	0xbdc18727	-0.094496064
13	0x3df8590d	0.1212636
14	0xbd5db9d7	-0.05413231
15	0xbd9a9541	-0.07547999
16	0x3de035ff	0.10947799
17	0xbdc11399	-0.09427566
18	0x3d2e658f	0.042577323
19	0xba7c0090	-0.0009613121
20	0x3de6649f	0.11249661
21	0xbdd11f04	-0.10210994
22	0xbcee05f8	-0.02905558
23	0xbdedf8f2	-0.11619748
24	0x3d6818df	0.056664344
25	0xbd81edf5	-0.06344215
26	0x3da2272f	0.0791763
27	0x3dd23683	0.102643035
28	0x3dd1f530	0.10251844
29	0x3ceee6ff	0.029162882
30	0xbd17176d	-0.036887575
31	0x3d9a56cd	0.07536087
32	0x3c0b94a5	0.008519326
33	0xbdca92de	-0.09891294
34	0xbda29ce4	-0.07940081
35	0xbcbafb00	-0.022824764
36	0x3dd2063d	0.10255096
37	0x3da7ed15	0.08199517
38	0xbda509df	-0.080585234
39	0x3d640983	0.055673134
40	0xbde3fe1d	-0.11132453
41	0xbd8cc86c	-0.06874165
42	0xbd3e0d2f	-0.04639929
43	0xbb7bb0b8	-0.0038404893
44	0x3d119790	0.035544932
45	0xbdb19d86	-0.08672623
46	0xbd41e01c	-0.047332868
47	0xbc0a0624	-0.008424316
48	0xbca9a9f8	-0.02071093
49	0x3dd833ed	0.10556779
50	0xbd14f6c6	-0.036368154
51	0xbdb7f788	-0.0898276
52	0x3db9074d	0.09034596
53	0xbda3dea0	-0.08001447
54	0xbdf2ea54	-0.11861101
55	0xbd55f221	-0.052232865
56	0x3daeb173	0.085299395
57	0x3db108a1	0.08644224
58	0xbde681d4	-0.112552315
59	0xbd07320c	-0.033006713
60	0x3d962922	0.07332064
61	0xbc90078f	-0.01758173
62	0x3da2bca9	0.0794614
63	0x3d042aa4	0.032267228
64	0x3dc6417c	0.09680459
65	0xbdd4d9f6	-0.10393135
66	0xbd8078d3	-0.062730454
67	0xbdea432b	-0.114385925
68	0xbc6c478a	-0.014421353
69	0xbd36e6cc	-0.0446537
70	0x3d3a1844	0.045433298
71	0xbd7215e2	-0.0591029
72	0xbc2df969	-0.010618546
73	0x3d978e6f	0.07400214
74	0x3d241833	0.04006214
75	0x3d995e8d	0.07488737
76	0xbd9e731c	-0.07736799
77	0x3def1b71	0.11675156
78	0xbdbd72f0	-0.09250438
79	0xbd9f0c3a	-0.07766004

linear.0.1.weight f4 [80]
0	0x3f78ef4b	0.9724013
1	0x3f80797b	1.0037073
2	0x3f78980b	0.97107
3	0x3f6c4019	0.92285305
4	0x3f6eb2c7	0.9324154
5	0x3f7727ef	0.9654531
6	0x3f85a5fe	1.0441282
7	0x3f837de6	1.0272796
8	0x3f7ae7bd	0.98009855
9	0x3f7e1f72	0.9926673
10	0x3f721ac7	0.9457211
11	0x3f787010	0.97045994
12	0x3f83a02f	1.0283259
13	0x3f76d9a9	0.96425873
14	0x3f8af427	1.0855759
15	0x3f7b5f66	0.9819244
16	0x3f7fc266	0.99906003
17	0x3f8072d5	1.0035044
18	0x3f84f7d6	1.0388134
19	0x3f6e7369	0.9314485
20	0x3f854b21	1.0413553
21	0x3f7d1a75	0.98868495
22	0x3f86ef17	1.0541714
23	0x3f8205b2	1.0157988
24	0x3f76302d	0.9616726
25	0x3f84ed4b	1.0384916
26	0x3f8d23cb	1.1026548
27	0x3f7c638a	0.98589385
28	0x3f718786	0.9434742
29	0x3f876ce9	1.0580112
30	0x3f808b1d	1.0042454
31	0x3f831913	1.0242027
32	0x3f69bc48	0.9130292
33	0x3f73e7ec	0.9527576
34	0x3f7807fc	0.96887183
35	0x3f7ed6a9	0.99546295
36	0x3f7f5705	0.99742156
37	0x3f780087	0.96875805
38	0x3f86039a	1.0469849
39	0x3f7a5b77	0.97795814
40	0x3f7b459d	0.98153096
41	0x3f6a6643	0.9156229
42	0x3f7b28ba	0.9810902
43	0x3f821f88	1.0165873
44	0x3f747147	0.9548535
45	0x3f7e30dc	0.99293303
46	0x3f7bedb1	0.98409563
47	0x3f70deab	0.94089764
48	0x3f7645db	0.9620034
49	0x3f87cda0	1.0609627
50	0x3f816a93	1.0110649
51	0x3f8198f2	1.01248
52	0x3f7c5eac	0.9858196
53	0x3f83001f	1.0234412
54	0x3f88d13a	1.0688851
55	0x3f843a3b	1.033027
56	0x3f6f45bf	0.934658
57	0x3f8a081a	1.0783722
58	0x3f70db78	0.9408488
59	0x3f72ed85	0.94893676
60	0x3f889785	1.067124
61	0x3f7ba597	0.98299545
62	0x3f83250c	1.0245681
63	0x3f851cb7	1.0399388
64	0x3f716b85	0.94304687
65	0x3f86c2ac	1.0528159
66	0x3f77f215	0.9685376
67	0x3f804d10	1.0023518
68	0x3f79f451	0.9763842
69	0x3f7e8533	0.99421996
70	0x3f742d29	0.9538141
71	0x3f818843	1.0119709
72	0x3f82a679	1.0207053
73	0x3f80cf04	1.0063176
74	0x3f7d78b8	0.9901233
75	0x3f83049d	1.0235783
76	0x3f6d2f1c	0.9265001
77	0x3f84144f	1.0318698
78	0x3f820e68	1.0160646
79	0x3f86e5ce	1.0538881
