LeNet/saved_model/model.pth (torch, 145420 bytes, 44 tensors)

cnn.0.BachNorm.weight f4 [8]
00000000: c0d1 7e3f 8579 813f 9a67 813f ba43 893f
00000010: 9c7d 7d3f 370a 6a3f 86ea 703f 4e49 833f
0.99538803 1.011521 1.0109742 1.0723794 0.9901979 0.91421837 0.94107854 1.0256746

cnn.0.BachNorm.bias f4 [8]
00000000: 8106 a43d a8f6 ba3b 1350 753d 8094 bbbc
00000010: e330 1dbd 2ff1 1e3d 46c1 02be 0a54 843e
0.08009053 0.0057056732 0.059890818 -0.022897959 -0.0383767 0.03880423 -0.1276904 0.25845367

cnn.0.BachNorm.running_mean f4 [8]
00000000: 13b9 de3d 76b2 fc3c ddbe 903e 3624 0e3e
00000010: 7cb1 b73d 0334 1abe f37e 623e f1fb 88be
0.10875144 0.030846816 0.28270617 0.13881001 0.08969399 -0.15058903 0.2211874 -0.26754716

cnn.0.BachNorm.running_var f4 [8]
00000000: f3b2 7a3e ff1d 733e 2978 993e d1a0 033f
00000010: a29a e43e de68 453e fd70 d13e 2660 5b3f
0.24482326 0.23741911 0.29974487 0.5141726 0.44649225 0.19278285 0.40906516 0.85693586

cnn.0.cnn.weight f4 [8, 1, 3, 3]
00000000: 1198 823e 990d 29be a0b3 14be b4cc 63bd
00000010: 9408 40bd 7c83 4abe dda5 1cbd 2f97 7abe
00000020: a718 153e 27fc 71be b7a0 0abe cc9b 973e
00000030: b49c 1bbd cff9 afbe a2b6 6bbe d97a 9a3e
00000040: de8f d3bc 84dc 9ebd 8f2d 423d 7497 453e
00000050: 3134 9f3e f0c0 7b3e e8be 91bc a1ea ca3d
00000060: b543 8abe 60c8 9abe 5cd1 5cbe 9ad4 98bd
00000070: 568a a93e df0d fa3d a55b 1a3d af2c 53be
00000080: 0fdc bbbe ad34 9ebe c1c2 5dbd 458a 77be
00000090: ce27 843e 17ec 91bd b79c 96be efec 5c3e
000000a0: a882 ae3c 3b81 77be a3cf 483e d293 d33d
000000b0: 417a d9be e470 efbd b66b ac3e 14a5 c0bd
000000c0: 520e 40be 267b b1bd 2ea2 6c3e 82c4 6cbe
000000d0: 90da 01be e66f 20be 941b b3be c05c 17be
000000e0: f296 4ebe 13c7 143d 6e70 28be 95a6 7a3d
000000f0: 0a8b 54be 30e6 7a3e d6b6 ad3e 2815 8a3e
00000100: 14d4 04bd 75b6 963e 3eea 0cbe 55a2 573e
00000110: 5ef0 8e3e 9c2f 3a3d 7a88 3f3e 5ac9 963d
0.25506642 -0.16509093 -0.14521646 -0.055615142 -0.04688318 -0.1977672 -0.038244117 -0.24471734
0.14560185 -0.23631345 -0.1353787 0.2961105 -0.03799124 -0.34370276 -0.23018888 0.3017185
-0.025825437 -0.07756904 0.04740673 0.19296056 0.31094506 0.24585319 -0.017791227 0.09908033
-0.2700478 -0.30231 -0.2156424 -0.074624255 0.33113354 0.12209677 0.037685055 -0.20622514
-0.3669133 -0.30899563 -0.05414081 -0.2417384 0.2581162 -0.07125109 -0.2941644 0.21574758
0.021302536 -0.24170391 0.19610457 0.10330929 -0.42476085 -0.11691454 0.33675927 -0.09406486
-0.18755463 -0.08666067 0.23108742 -0.23121837 -0.12681031 -0.15667686 -0.34981978 -0.14781475
-0.20174769 0.036322664 -0.16449139 0.06119402 -0.20756164 0.24501872 0.33928555 0.26969266
-0.032428816 0.2943608 -0.13761231 0.21058019 0.2791776 0.04545556 0.18704405 0.073626235

cnn.0.cnn.bias f4 [8]
00000000: f3b9 db3d ab38 013d e2fa 903e 1742 0c3e
00000010: d165 b63d b689 1bbe c43d 633e 4cb6 88be
0.107288264 0.031548183 0.28316408 0.13697086 0.08906139 -0.15189251 0.2219153 -0.2670158

cnn.1.BachNorm.weight f4 [16]
00000000: f11d 823f 4e3e 823f 1522 843f 1ff6 883f
00000010: 391f 703f 1cf5 803f 8cdd 803f e6ea 803f
00000020: 81a9 793f 024a 853f 1ee9 6f3f 27ed 6e3f
00000030: 2700 703f 47ff 803f 20d4 843f 8c06 823f
1.0165387 1.0175264 1.0322901 1.070011 0.9379764 1.0074801 1.0067611 1.0071685
0.9752427 1.041321 0.93715084 0.93330616 0.9375023 1.0077904 1.0377235 1.0158248

cnn.1.BachNorm.bias f4 [16]
00000000: da1e 39bd 27b7 6b3d 0308 193d 4f31 c2bc
00000010: c7ae 1abd 81d3 60bc 8091 8d3d ba93 0cbd
00000020: 5d42 96bd 9456 12bd 480f 29bd 77a0 fbbc
00000030: 99a6 a3bd 4e20 a2bd 41da ce3d 368f b1bd
-0.045195438 0.057547715 0.037361156 -0.023705153 -0.037764337 -0.013722301 0.069125175 -0.03432057
-0.073368765 -0.0357271 -0.04127434 -0.030716164 -0.0799076 -0.07916318 0.101002224 -0.086698934

cnn.1.BachNorm.running_mean f4 [16]
00000000: cbf8 efbe 7938 c23d a710 493e ffa7 a0be
00000010: 2186 aabe b07b 3c3e e9df 2d3e 2627 42bd
00000020: 7ae4 833e 3a01 da3d 5cc2 243d c8d4 7d3e
00000030: b658 6d3d 1cfa 9dbe b72f 243f 9bd9 bdbd
-0.468695 0.094834276 0.19635259 -0.3137817 -0.33305457 0.18406558 0.16979946 -0.047400616
0.2576025 0.10644765 0.040224418 0.24788201 0.05794593 -0.3085488 0.6413531 -0.092700206

cnn.1.BachNorm.running_var f4 [16]
00000000: 0383 203f 5997 1b3e 06ab bc3e ff30 ff3e
00000010: ae0f 243e a723 2d3e 1daf 4e3e 4003 5e3e
00000020: 8dc7 5c3e c58b 8a3e 6c52 6a3e e74d ba3e
00000030: b312 493e 3b05 893e ee24 033f f7e2 603e
0.6269991 0.15194453 0.3684923 0.4984207 0.16021606 0.16908132 0.20183988 0.21680927
0.21560498 0.2705976 0.22883004 0.3638756 0.1963604 0.26761803 0.51228225 0.2196158

cnn.1.cnn.weight f4 [16, 8, 3, 3]
00000000: ace6 ad3d 8031 1b3d f643 213e dc58 a73d
00000010: c22a 8abd feed 643d f799 6a3c 23f2 0cbe
00000020: 7b00 0abe d34c 04be d280 28bd e31a 32bd
00000030: e8da 7ebd 8958 2abc 0ada 913d 0489 cdbd
00000040: 21cc bdbc 332f 7fbd 646c c43c ba69 843d
00000050: a279 96bd 668e 0a3d cbc1 99bd e0ad d2bd
00000060: 1205 303b 2256 11be 7070 0e3d c03b 133e
00000070: 8b46 31bd 1f77 bfbc 7064 003e 6c2a 5abd
00000080: 578a f6bc 396a 413d 0fb1 4b3d 9132 efbd
00000090: 01ee 213d 7cd0 9d3d c015 bcbc 2494 0e3e
000000a0: cddc 0bbe d956 b1bd 9cc9 443c 21d9 b5bd
000000b0: 123d 50bd 44b9 fbbd 12e7 a4bd 4eeb 073c
000000c0: eb32 1ebb 66e6 8b3d 7491 e6bd f2f9 353d
000000d0: b7a2 9dbd 1f1f d5bd bc74 e5bd b65e 823d
000000e0: a47e 4a3c 8eaa f43c 3ad1 c33c 2afa aa3c
000000f0: c007 b7bd fad3 15be 7cf7 cebc b58a b33c
00000100: a1fa 9f3d ce5b 69bd 7ed7 ebbd 93ad eebd
00000110: 9e7e f1bd 9782 bbbd 5e19 a83b 092a e4bd
00000120: 6ff5 6cbd 5725 8f3d ca43 23bd 4da8 f7bc
00000130: 39d0 90bc ea6e 293d c882 11bd 9df9 2abd
00000140: 27ae 173d b79c e73d e966 b13d 126c 8bbc
00000150: ffdc 1d3d 7b12 6d3d 6d5b e03c 1e3b de3d
00000160: 5bde fc3d d6b3 143d a3b5 d4bc d8e0 393d
00000170: db03 c1bd 143c 0f3d b62c a7bd 3a6e d9bd
00000180: d4f1 dfba 7088 f6bd 9bf8 29be f3b7 543a
00000190: e8a7 0c3e 31e5 cabd 9ebd f13c c9e1 d1bd
000001a0: eba8 bf3b b517 67bd 37f8 40be 74d9 25be
000001b0: 0a8b 4bbd df40 8fbd 336d 273d 5d95 dc3b
000001c0: 8d1e 463d d4e9 a13d 0583 cd3d 402b 083e
000001d0: 5a7a c63d 0c46 e73d 243e 103e 4373 233d
000001e0: 512b 8b3d 6277 f33d 3651 89bd 7376 fa3d
000001f0: 9811 973d cd74 5f3d e8ae 13be 56bf cbbd
00000200: f2ed 5b3d 8173 7239 a859 42bd dd16 31bd
00000210: f3d8 893c fa06 92bd 9047 42be 7e19 8c3c
00000220: 2af4 00bb 6ef6 873d 692e 98bd 08f6 9f3d
00000230: 3e6f c3bc ab09 213d b021 af3c af6b 08bd
00000240: 5868 eabd 82f0 7b3d 8ce4 ab3d e17f 15bb
00000250: 2d04 dfbd 62ee 87bc d8a2 e3bd eeae b4bd
00000260: 766d 53bd 0923 5bbb b937 95bd ff2e c0bc
00000270: cdff 1c3e ec61 9e3d 5b67 80bc e364 a43d
00000280: 8414 ed3d f2ea 6bbd 8388 01bd 6e36 e83d
00000290: 229b aa3d beeb 373d 9303 f83d b098 b43d
000002a0: 27d6 a4bc 2a93 393d 2a00 bcbc 2852 833b
000002b0: 4611 b53d ed8d 0b3d 50c9 ec3c a20b 20bd
000002c0: c6e4 d13c fc96 813d a7e8 053e fd0f 193d
000002d0: 3358 6d3d 0907 5b3d 9331 663c 42ff abbd
000002e0: 4806 89bd cae7 2bbc 5028 f5bd 0985 e3bd
000002f0: c95c 48bd 91ea 303c dec0 c4bc 5e77 de3c
00000300: f63a 0b3e 4ccd 303e ec40 5bbd b7bf 03bd
00000310: 662c e7bc 2c35 2ebd 5cdf a6bd 3f8d 25bd
00000320: e53e 8abd f1a7 7abd 9160 1fbd e7f6 3bbc
00000330: f4ac b0bc cbb8 a2bd 48d0 49be 22c5 923d
00000340: 58ed e33d 86ad a53d 49a8 f6bc 8060 093e
00000350: 49b4 f03d 5da3 8abd 9572 f6bd 751d c3bd
00000360: e63e ab3d 5577 abbc 6d84 bd3d 0696 073d
00000370: b75d 63bc 32bb e63c a475 a73d 0dc6 a0bc
00000380: 30a9 d73d dd18 d13d 664f b33d d3b8 b9bd
00000390: 1d9b d73d 1af3 0c3d 9a64 e63c 8a1f 273d
000003a0: ed6b 513c 8425 44be 7491 9abc 2cdf cdbd
000003b0: 4ed2 a5bd 7281 52bd 8fdf cbbd e23f 953c
000003c0: 7ece 60bd 5d8d 08be a192 2bbd e2e2 553e
000003d0: db52 273e cbfc adbc fdc9 d8bc e258 ac3c
000003e0: 6355 5cbd f7d2 08bd f8ed 86bd 6dd2 db3c
000003f0: a174 d53d aa0b 94bc 61c6 1f3c 65df d73d
0.08491263 0.037889004 0.15748581 0.081712455 -0.06746437 0.05589103 0.014318935 -0.13764243
-0.13476746 -0.12919931 -0.041138478 -0.043482672 -0.062220484 -0.010397085 0.07121666 -0.10035899
-0.023168625 -0.062300872 0.023977466 0.06465478 -0.07347418 0.033827208 -0.07507666 -0.1028707
0.002685849 -0.14193013 0.034775198 0.14378262 -0.043280166 -0.023372231 0.12538314 -0.053263113
-0.030095262 0.047220442 0.049729403 -0.11679567 0.03953362 0.07705781 -0.02295959 0.13923699
-0.13658448 -0.08659143 0.012010958 -0.08879305 -0.05083949 -0.12291196 -0.08051886 0.008295847
-0.0024139236 0.068310544 -0.11258212 0.04442782 -0.07697051 -0.104063265 -0.11203906 0.06365721
0.012359295 0.029866483 0.023903478 0.02087124 -0.08937025 -0.14631644 -0.025264494 0.021916727
0.078114755 -0.056972317 -0.11515711 -0.116542004 -0.117917284 -0.091557674 0.005129977 -0.1114083
-0.05785125 0.06989544 -0.03985957 -0.03023162 -0.017677413 0.04136554 -0.035525113 -0.041741956
0.03703132 0.11309188 0.08662207 -0.017019305 0.038540836 0.057878952 0.027387345 0.108511195
0.123470984 0.036304317 -0.025965517 0.045380443 -0.094245635 0.034969404 -0.08162825 -0.10616727
-0.001708562 -0.12037742 -0.16598742 0.0008114569 0.13735926 -0.09906996 0.029509362 -0.10248143
0.005848994 -0.056419093 -0.18844686 -0.16196233 -0.049693145 -0.06994795 0.040875625 0.0067316727
0.04836898 0.07905927 0.100347556 0.13297749 0.096913055 0.11292657 0.14086205 0.039904844
0.06795371 0.11888005 -0.06704943 0.12229624 0.073764026 0.05455475 -0.1442219 -0.09948604
0.05369372 0.00023121947 -0.047448784 -0.043234695 0.016827082 -0.07130237 -0.18972611 0.017102
-0.0019676783 0.066387996 -0.07430727 0.078105986 -0.023856755 0.03931586 0.021378368 -0.03330582
-0.11445683 0.061508663 0.08393201 -0.0022811817 -0.10889468 -0.016593162 -0.11115044 -0.08822428
-0.051618062 -0.003343763 -0.07286019 -0.02345991 0.15331955 0.07733521 -0.015674284 0.08027055
0.11576179 -0.05759711 -0.03162433 0.11338507 0.083303705 0.044902556 0.12110057 0.08818185
-0.020121647 0.045306362 -0.022949297 0.0040075965 0.08841185 0.034070898 0.028904587 -0.039073594
0.025621783 0.06327626 0.13077031 0.037368763 0.05794544 0.053473506 0.014049905 -0.08398296
-0.06690651 -0.010492275 -0.119705796 -0.11109359 -0.04891661 0.0107981125 -0.024017747 0.027156528
0.1359671 0.17265815 -0.05352871 -0.032165255 -0.028219413 -0.042531177 -0.08148071 -0.040417906
-0.067502774 -0.061195318 -0.038910452 -0.01147244 -0.021566845 -0.07945403 -0.19708359 0.07166506
0.11129254 0.080897376 -0.030109541 0.13415718 0.11753137 -0.0676944 -0.120335735 -0.09527103
0.08361606 -0.020930925 0.09253774 0.033102058 -0.013877324 0.028165434 0.08176735 -0.019625688
0.10530317 0.102098204 0.087553784 -0.090684555 0.105276324 0.034411527 0.028124142 0.040801562
0.012782079 -0.19154936 -0.018868186 -0.10052332 -0.08096753 -0.05139298 -0.0995475 0.018218938
-0.054884426 -0.13335176 -0.041887883 0.2088733 0.163402 -0.021238705 -0.026463503 0.021038476
-0.05379237 -0.033404317 -0.06588358 0.026833737 0.10422636 -0.018071968 0.009751887 0.10540656

cnn.1.cnn.bias f4 [16]
00000000: aefd 863d 57ea 8d3d a3eb b83d 3da9 e4bd
00000010: 291a 4f3d 8c0e cf3d d927 833d 391f 4abd
00000020: 4598 3ebd 939b 24bc 1577 edbd 8a96 91bc
00000030: bd12 9c3c 2efe 233d 1e0e f13d 8fb3 ab3c
0.06591354 0.069294624 0.09029319 -0.11165092 0.050562058 0.101101965 0.06404085 -0.049346182
-0.046531934 -0.010046857 -0.11594979 -0.017771978 0.019051904 0.040037327 0.11770271 0.020959644

cnn.2.BachNorm.weight f4 [32]
00000000: 5408 6a3f 4219 7b3f 15ab 743f 3b71 6c3f
00000010: 5420 7a3f ea44 783f b36c 863f 8c1c 693f
00000020: ba12 803f f937 703f 6d1a 703f ee85 8b3f
00000030: 4a03 763f bc9f 723f d22d 713f 8a7f 843f
00000040: 9c8a 753f 20e3 813f e5c8 733f 9958 843f
00000050: 2dff 843f 80fa 7b3f 6768 693f e2a5 853f
00000060: bb82 863f 406b 853f 4f69 6a3f aa96 763f
00000070: f07d 853f 0616 6c3f 50f6 7f3f 1b2b 823f
0.9141896 0.98085415 0.9557355 0.92360276 0.9770558 0.96980155 1.0501922 0.91059184
1.0005715 0.9383541 0.9379032 1.0900247 0.9609877 0.94774985 0.9421054 1.0351422
0.95914626 1.0147438 0.95228416 1.0339538 1.0390373 0.9842911 0.9117493 1.0441248
1.0508646 1.0423355 0.9156694 0.96323645 1.0429058 0.92221105 0.9998522 1.0169405

cnn.2.BachNorm.bias f4 [32]
00000000: eea9 debd e056 22bd b543 debd d268 adbd
00000010: a826 99bd 3490 22bd 82ee 04bb 2a54 e5bd
00000020: c476 c8bc 7a09 9cbd db39 bfbd 46f6 a13a
00000030: bda9 80bd e2cc 85bd de9a ecbd dc64 82bc
00000040: f869 87bd b95b 8abd f1f1 ccbd 8f1f 95bd
00000050: b59d 00bd 3978 a7bd 4dd9 aebd a0fe f9bc
00000060: 2c37 ddb9 ca23 dc3b c85b e7bd bf9a acbd
00000070: eb57 3bbc a9d4 c2bd 3e47 1abc 92e5 32bd
-0.10872255 -0.03963363 -0.10852758 -0.084672585 -0.07478076 -0.039688304 -0.0020283763 -0.11197694
-0.024470694 -0.07618995 -0.09337207 0.001235672 -0.06282375 -0.06533219 -0.11552976 -0.015917234
-0.06612009 -0.06755776 -0.10007084 -0.0728141 -0.0314004 -0.081772275 -0.085375406 -0.030516922
-0.0004219351 0.0067181336 -0.11296803 -0.08427953 -0.0114345355 -0.09513218 -0.0094163995 -0.043675967

cnn.2.BachNorm.running_mean f4 [32]
00000000: 14c1 c6be 8b8c 02be eaae 50be 083e 843c
00000010: a486 09be 94d5 14be 5a3d 9a3d 6db1 d3be
00000020: ab04 8e3e 8219 f9bb 1c90 9abe b4ac 4e3e
00000030: 46c3 87be 26be 14bf b999 89bd 8033 55be
00000040: 34e4 2d3e 73a2 a4bd 4638 0bbe ed05 f73c
00000050: ece1 773e bcad 403e 6c6b 02bf 4b2b bc3d
00000060: 1f52 083e d7dd b23d 17db 00bf c221 31be
00000070: c8a3 de3d 51d6 aabe 89c5 1a3e c22f 3ebe
-0.38819182 -0.12748925 -0.20379224 0.01614286 -0.13430268 -0.14534599 0.07531233 -0.41346303
0.27737936 -0.0076019177 -0.30188072 0.20183069 -0.2651617 -0.58102643 -0.067187734 -0.20820427
0.16981584 -0.08038797 -0.13595685 0.030154193 0.24207276 0.18816274 -0.5094516 0.09187945
0.13312577 0.08733719 -0.50334305 -0.17298034 0.108710825 -0.33366635 0.15114416 -0.18572906

cnn.2.BachNorm.running_var f4 [32]
00000000: 8833 9e3f 7064 193e cb87 ff3d c2c0 ab3e
00000010: 9aa9 f53d 2628 0d3e 779b e43d 96f9 d53e
00000020: c9d6 5f3e 5d6f e63e 1820 fb3e e7ed 383e
00000030: a9b8 0a3f 8dab 963f d935 e63e 253b e23d
00000040: 1885 843e 656f cf3d e6e3 5a3e 66da e03d
00000050: a31c 123e e29a 063e fc16 0b3f 5c6b 123e
00000060: 9342 333e 435c 493e 2bcc f93e 9815 e23d
00000070: 8723 0c3e 06de 913e a32e 5e3e dc15 f73d
1.2359476 0.1497972 0.12477072 0.335455 0.119952396 0.13784847 0.11162465 0.4179198
0.21859278 0.45006838 0.49047923 0.18059503 0.5418802 1.1771103 0.44962958 0.11046437
0.25882792 0.10128669 0.21375999 0.10979156 0.14268737 0.1314502 0.54331946 0.14298767
0.17505865 0.19664101 0.4878858 0.11039275 0.13685428 0.28489703 0.21697478 0.12064716

cnn.2.cnn.weight f4 [32, 16, 3, 3]
00000000: 1ae8 ddbd a9fe 383d c738 173d b2bc eebc
00000010: ada7 bcbd 321f 4e3d 0652 09bd f408 e9bb
00000020: 1e13 ca3c ab57 8ebd 540f d8bd bc62 7b3d
00000030: 3126 0ebd 8790 fcbd 8a8b ecb9 4fde 07bd
00000040: 0642 373b b2f9 713c 0c79 24bd e0a5 14bd
00000050: c951 d7bc cee8 02be b7a1 15bb 6f3a 85bc
00000060: 724f 14bd 0d33 58bd 4ada 283d 5fe5 8fbd
00000070: 0f38 593d 8062 f53a ff94 e2bc 5fc4 e8bc
00000080: dbd5 9c3d 6a4f 493c 422f 17bd fe0b 8ebc
00000090: 461d 8bbd 6a98 8b3c 2d02 c8bc 5347 abbd
000000a0: c097 953b b181 92bc 621d 82bd e03b e2bc
000000b0: 269a a83c 99ef b4bd 1493 a1bd 577e 42bd
000000c0: 3f9c 0a3d b167 c6bc 99e9 69bc 80a0 8ebd
000000d0: a342 a63c be79 c1bb 33ca 21bd 1b59 80bd
000000e0: 5ab4 203b 30f9 893b b6fb fa3c 248b e33c
000000f0: 1779 113d 2ee8 b63c 7cf0 573c f9ef 28bd
00000100: a3f5 a1bb e0cc 1bbd ae57 39bd 6082 e0bd
00000110: aea3 633d eb12 4dbc 9abb 76bd dd42 9f3d
00000120: 82e8 373d 618c 1dbd 3bcd 37bd ee42 cfbc
00000130: c1f8 2c3d 80c3 033d ad88 2ebd a551 873d
00000140: c514 053d ae84 0fbd 6ab1 213c 0ff3 e83b
00000150: 5b2c 5d3c 1020 a4bd 33e8 063e 3df3 a9bc
00000160: 207c c43d e5fa bd3d 7ebb 093d bf48 b23b
00000170: 6aec 91ba 7d16 95bd 5a28 abbd 90a1 513c
00000180: 5465 f6bc aa6a 37bd 86f9 d53d 287e 58bd
00000190: 5ed9 61bd da8d 9bbd 70fd e23c ccae d3bd
000001a0: c09f 7a3d 45f8 8d3d 38f7 b63d 64b2 923b
000001b0: bc92 a13c 270f 153c 5b7b a33b 2eb9 81bb
000001c0: f7c6 fabc ab3f 223d 95bb a63d d3c6 993b
000001d0: 973c 9b3c 3aa2 07bd e650 3d3c 5b51 5bbd
000001e0: 4bf3 67bd a6cb a9bd e068 453d e842 38bd
000001f0: 8396 b63b 1fec 823d c299 d4bc 3bcd f93c
00000200: 77ac b33d 6ce3 883c 7623 a4bd cab5 153e
00000210: d69c d63d b18b 31bd cba5 d93d 511b 22bd
00000220: 2aaa 0d3d 6861 753d 42bd e13c f5e3 c1bd
00000230: ad4b de3b a1e8 2d3d b066 c7bb 6b78 bc3d
00000240: 5d6d 59bc bce0 07be 8090 09bd 3131 203d
00000250: 738e 00bd f90f 97ba abb7 93bd 56e8 be3c
00000260: c408 ec3a 3d22 cc3c 10d0 0d3e ea21 9fbd
00000270: 7262 15bd 00cb a83b d009 913c 99d3 cebc
00000280: 0fc1 c3bc a48b fabc 5b55 533d 15f8 1b3d
00000290: b189 a03b 20a0 0ebd 3b89 133e b388 923c
000002a0: 88d3 09bd fc03 e03c ec0c 6a3d 27f8 2d3d
000002b0: a0c8 203d 3227 df3c d96d 0ebd afbc a3bc
000002c0: 8a9e 7cbd 68b1 423d df96 99bc 8310 953a
000002d0: e9b4 c0bd 1e5a f7bb c4cd 6fbc e702 1c3c
000002e0: 69da 41bb f594 a2bd 11e4 b73b bd63 853d
000002f0: 84c2 93bc 6806 76bd 9fb4 a8bc 2dd6 6dbc
00000300: 4328 7abc d588 2b3e 4813 123d a6a1 a93c
00000310: 77bc 883c bd47 e8bc 72ea 413d a37c 79bd
00000320: 6cfc 273d 6538 91bc ede3 1ebd 9700 e53c
00000330: 4ce3 123d 34e8 ac3b 0ec7 c9bb 39fa c3bc
00000340: d478 dbbb c291 aabd 47b2 2bbc 86eb 27bd
00000350: 2513 96bc 13f2 31bc 0cdd ddbc 31f3 323d
00000360: 1fcc ca3d 1f86 b1bc 01d3 193d 2bdb 8fbc
00000370: 5f73 81bd e149 dcbc 08ee 65bc 1172 ccbd
00000380: c2d5 26bd 9b2c 833c df26 70bd 41b8 9a3d
00000390: 2324 a43c 4084 183d 6c15 52bd 1efc 8d3b
000003a0: b747 49bd 5006 413d 21bf e43c 3628 63bd
000003b0: c63c 86bd ac85 14bc b9c1 d13b 2402 913d
000003c0: 6362 8ebd 2506 92bd 0c43 c2bc 675d 1abe
000003d0: 1fa1 193e 8a3f 5d3d 36d2 b03d 97dd 8bbd
000003e0: cf92 23bd 53f1 acbc 0f12 8abd fc31 18bb
000003f0: 3c90 aebd 41a5 8dbc 6dc8 343d 5e87 d43d
-0.108352855 0.045164738 0.03691938 -0.029142711 -0.09211669 0.05032272 -0.03352549 -0.007111663
0.024667319 -0.06950315 -0.105497986 0.061373457 -0.03470439 -0.12332254 -0.00045117392 -0.033170994
0.0027962937 0.014769005 -0.0401545 -0.036291003 -0.026284115 -0.1278412 -0.0022831985 -0.016263215
-0.036208577 -0.05278306 0.0412238 -0.07026171 0.053031977 0.0018721372 -0.027658937 -0.02841395
0.07657977 0.012287 -0.036910303 -0.017339703 -0.06792693 0.01704045 -0.0244151 -0.083632134
0.004565209 -0.017884107 -0.063532606 -0.027616441 0.020581316 -0.08834762 -0.07889381 -0.04748377
0.033840414 -0.024219366 -0.014276885 -0.06964207 0.020295447 -0.0059044054 -0.039499473 -0.062669955
0.002452156 0.0042106137 0.030637603 0.027776308 0.03551587 0.022327509 0.013179895 -0.04124448
-0.0049426123 -0.03803718 -0.045249633 -0.10962367 0.05557602 -0.012516717 -0.060237505 0.07776425
0.04489947 -0.038463954 -0.044873457 -0.02530047 0.042229418 0.032168865 -0.042610813 0.06607369
0.03249051 -0.035038643 0.009868959 0.007109053 0.013499345 -0.08013928 0.13174514 -0.020745868
0.095939875 0.0927637 0.033626072 0.005440801 -0.0011133079 -0.0727968 -0.08357306 0.012794867
-0.030077614 -0.044779457 0.104479834 -0.052854687 -0.055138938 -0.075954154 0.027708739 -0.10336074
0.061187506 0.06932119 0.08933872 0.004476832 0.019723289 0.009097851 0.0049890704 -0.0039588427
-0.030612452 0.0396115 0.08141247 0.004692891 0.01894979 -0.033113696 0.011554932 -0.053544383
-0.056628507 -0.08290796 0.04819572 -0.04498568 0.0055721416 0.06392693 -0.025952224 0.03049337
0.087731294 0.016710006 -0.08014576 0.14620128 0.10479133 -0.04334611 0.106273256 -0.039576832
0.03458611 0.059907347 0.027556065 -0.094673075 0.0067839236 0.04245818 -0.0060852394 0.092026554
-0.013270703 -0.13269323 -0.03358507 0.039109413 -0.03138585 -0.0011525146 -0.07212766 0.023304146
0.0018007983 0.02491867 0.13848901 -0.077701405 -0.036470838 0.0051511526 0.017704874 -0.025247382
-0.023895768 -0.030584164 0.051595073 0.038078386 0.0048992266 -0.034820676 0.14407818 0.017887449
-0.033648998 0.02734565 0.05714123 0.042472985 0.03925383 0.02724037 -0.034772728 -0.019987432
-0.061674632 0.04753247 -0.018748699 0.0011372719 -0.09409506 -0.0075485846 -0.014636461 0.009522176
-0.0029579645 -0.079385675 0.0056119044 0.06513164 -0.018037088 -0.060064703 -0.02059394 -0.0145163955
-0.015268388 0.16751416 0.03566292 0.020706963 0.01669143 -0.02835452 0.047342725 -0.06090988
0.041012213 -0.017727086 -0.038791586 0.027954383 0.0358613 0.005276704 -0.0061577624 -0.023923026
-0.0066977534 -0.08328582 -0.010479516 -0.040996097 -0.018319676 -0.010860938 -0.027082942 0.043688957
0.09902214 -0.0216704 0.037554745 -0.017560562 -0.063208334 -0.026890697 -0.014033802 -0.09982694
-0.0407312 0.01601248 -0.05863082 0.07554675 0.020036763 0.0372355 -0.05128996 0.004333033
-0.04914066 0.04712516 0.027923169 -0.05545827 -0.0655456 -0.009065073 0.0064012674 0.070804864
-0.069523595 -0.07130078 -0.023713611 -0.15074693 0.15002869 0.054015674 0.086338446 -0.06829374
-0.03993493 -0.021111166 -0.06741726 -0.0023223152 -0.08523604 -0.017290713 0.044136453 0.10377382

cnn.2.cnn.bias f4 [32]
00000000: ee0e 553c 74e5 f3bc 6bbb d93c 8e97 89bc
00000010: 4aa9 90bd 7988 36bd 6e6f 81bc bf7e 71bd
00000020: e93a d2bb e50a 7e3c 3ba5 b3bb 629c d0bc
00000030: cd19 303d 120e 32bd 3165 7cba f82d 873d
00000040: 2edd 943d 3624 4dbd a91c 87bd 8666 993d
00000050: 8b94 6e3d 7603 af3c 3496 29bd 0a98 a23d
00000060: 507e 073d 9102 43bd c1d9 003d e7d3 88bd
00000070: b1da c43c 7eb9 08bd 8459 17bd c781 32bd
0.013004048 -0.029772498 0.026578626 -0.0167959 -0.07063539 -0.044563744 -0.015800204 -0.058958765
-0.006415714 0.015505527 -0.0054823435 -0.025465194 0.042993356 -0.04347045 -0.0009628116 0.06600565
0.07268749 -0.05008336 -0.06597263 0.07490258 0.05824713 0.021363955 -0.04140301 0.079391554
0.033079445 -0.04760987 0.031457666 -0.06681042 0.024030061 -0.033380024 -0.036950603 -0.043580797

cnn.3.BachNorm.weight f4 [64]
00000000: 38b7 6f3f 2326 7c3f 82c9 793f 1482 7b3f
00000010: c395 793f 6f89 883f 0046 7a3f 7c89 863f
00000020: 62ae 813f 7151 7a3f 725f 6b3f 826f 793f
00000030: 0d96 7e3f 57b1 7f3f 8efd 833f 9860 7e3f
00000040: 04fa 833f ef4f 7f3f 1d4b 823f f486 7c3f
00000050: b18d 793f 120e 833f 91f4 7e3f a318 833f
00000060: 8611 843f 0860 823f c854 7c3f 197c 7c3f
00000070: b06a 813f b1f2 843f 8b2c 7e3f 807d 813f
00000080: 81c0 7f3f 64d8 7f3f 3565 793f de2f 773f
00000090: f648 7d3f 7132 7e3f da47 7f3f 3ae5 753f
000000a0: 221a 7c3f 421c 7d3f 4ccb 7f3f da99 7b3f
000000b0: b321 803f c5a3 7c3f e924 7f3f 2021 863f
000000c0: 83b3 793f f8e4 743f 4551 6c3f f7bc 7d3f
000000d0: 8aec 7c3f 2410 763f 2b15 793f ee3e 833f
000000e0: 6f3d 7c3f 5964 8a3f e404 833f 793c 823f
000000f0: 95fd 713f e732 7b3f 0ca3 803f c237 733f
0.93638945 0.9849569 0.975731 0.9824536 0.97494143 1.0666941 0.9776306 1.0510707
1.0131342 0.9778052 0.91942513 0.9743577 0.9944771 0.99879974 1.0311754 0.9936614
1.0310674 0.99731344 1.0179173 0.9864342 0.9748183 1.0238669 0.9959193 1.0241894
1.0317848 1.0185556 0.98566866 0.9862686 1.0110683 1.0386564 0.9928672 1.0116425
0.9990311 0.9993956 0.97420055 0.96557415 0.98939455 0.9929572 0.9971901 0.96052897
0.98477376 0.98871243 0.9991958 0.98281634 1.0010284 0.9868739 0.99665695 1.0478859
0.9753954 0.9566188 0.9231151 0.9911646 0.9879843 0.9611838 0.97297925 1.025358
0.9853124 1.0811874 1.0235868 1.0174705 0.9452756 0.98124546 1.0049758 0.95006955

cnn.3.BachNorm.bias f4 [64]
00000000: b34b 7539 073b 22bd d816 ac3b 2464 89ba
00000010: 0670 9d3a 1cae 20bc cfb6 5abc 186e 8d3d
00000020: d205 6d3d a244 34ba 7396 b53a 8aba 96bc
00000030: 9669 a3bc ed28 953b 277c 17bc 89f4 9f3b
00000040: 19bd 58bd 9553 a0bc 2b76 1fbb a2dd 0f3c
00000050: 5806 8dbc e8ed 39bc e837 24bd a8a2 debd
00000060: 9a7a 66bd a08d 0cbe 8108 80b9 32dd 153b
00000070: 7335 e23b 219a 00be 0174 23be 473d e53c
00000080: 86ff 3abc 11f5 b23c d93e ffbb 5bd5 0abc
00000090: 5c48 65bc ff6f 07be 2975 c43a 9b0d 6fbc
000000a0: b300 28bd 50b8 12bd 81e2 15bc efe5 99bb
000000b0: 042f bbbd 30bc 033a e89e 4fbc b62d 0abe
000000c0: e9dd c4bd 2b16 15bc d852 03bc 3aaa 39bd
000000d0: 157f c8bd 33f8 0bbc 0383 833b 5d29 e8bc
000000e0: 435e cfbc 40ef d0bc d368 8dbc b3b3 833c
000000f0: d510 d2bc 4485 7a3a a006 923c 531d 33b9
0.00023393221 -0.039607074 0.0052517466 -0.0010482115 0.0012011535 -0.009807136 -0.013349249 0.06905764
0.05786688 -0.0006876682 0.0013854041 -0.018399496 -0.019947808 0.004551998 -0.009245909 0.004881446
-0.052914713 -0.019571105 -0.0024331908 0.008780869 -0.017214939 -0.011348225 -0.04009238 -0.10870868
-0.056269266 -0.137259 -0.00024420398 0.0022867438 0.0069033443 -0.12558796 -0.1596222 0.02798332
-0.011413461 0.021845372 -0.0077894744 -0.0084737195 -0.013994303 -0.13226317 0.001498853 -0.014590646
-0.04101629 -0.035820305 -0.009148241 -0.0046965997 -0.09139827 0.00050252955 -0.012672164 -0.13494
-0.096126385 -0.009099524 -0.008015357 -0.045328356 -0.09789864 -0.008543062 0.0040134205 -0.028340036
-0.025313502 -0.025504708 -0.017261898 0.016076898 -0.025642792 0.0009556601 0.017825425 -0.00017081694

cnn.3.BachNorm.running_mean f4 [64]
00000000: 4947 1ebf 457d 3abe 8eb1 dfbe 06de 13bf
00000010: a211 a8be 9611 fe3b d5b6 73bc 6ef9 e2bd
00000020: 9b8a d3be 0f5c c9be f0a6 41bf 2ecb 03bc
00000030: 2685 70be 86e7 54bb 2ae7 63bc a84d bebd
00000040: c48d 96be d157 83be 2e96 36be d4fb 2c3d
00000050: 471a 13bf ffc3 e7be aca3 9abe 1c79 c93e
00000060: cac1 9e3e faae 3c3c 42bb e83b 22e4 93be
00000070: 4d37 e23c d60f a3bd 09a1 8bbe 5301 02be
00000080: 3f4a ce3d 4adb 24be e907 31bd e58c f2be
00000090: e6a8 dfbe cd1b 773b e09c 70be 4601 a7be
000000a0: ef5c c53d a580 a1be 343c 00be 92d9 b4be
000000b0: fa42 b5be 0f48 033e f203 34be 55b1 963d
000000c0: bdb0 b3be 5ed4 a6bc 3d32 59bf 44fa abbe
000000d0: 1e9d 06be ff6d c6be 859b e3be 6c23 27be
000000e0: 4d87 4cbe 5f12 243e ec73 12be cbac 73be
000000f0: 70d8 4fbe 5072 34bf 6ecc 543e 29cb 15bf
-0.6182752 -0.18211849 -0.4369015 -0.57760656 -0.32825953 0.0077535613 -0.0148751335 -0.11082731
-0.41316685 -0.39328048 -0.7564535 -0.008044047 -0.23488292 -0.0032486632 -0.013910094 -0.092921555
-0.29405034 -0.25652936 -0.17830727 0.04223235 -0.5746197 -0.4526672 -0.30202997 0.39350212
0.31007224 0.011516327 0.007102401 -0.2888499 0.02761426 -0.07962005 -0.27271298 -0.12695818
0.10072755 -0.16099277 -0.043220434 -0.4737312 -0.43683547 0.003770578 -0.23497343 -0.3261816
0.09636866 -0.3154346 -0.12522966 -0.35322243 -0.35402662 0.12820457 -0.1757963 0.07358042
-0.35095778 -0.020364936 -0.8484228 -0.33589375 -0.13145873 -0.38755795 -0.4445459 -0.16322106
-0.19973488 0.16022633 -0.14302033 -0.23796384 -0.20297408 -0.7048693 0.20781109 -0.5851312

cnn.3.BachNorm.running_var f4 [64]
00000000: 781f 233f b791 913e 02c7 f83e b3e1 183f
00000010: d0b3 9d3e a21d 2a3e 3960 583e ac53 283e
00000020: c662 7e3e 6fe1 1f3f be46 903f 338f 203f
00000030: daf5 a23e f400 6d3e 0e3a d33d 8e1e 7d3e
00000040: 86f1 f03d 00c6 a63e 51d9 7a3e 28a9 983e
00000050: b90d c43e 75a0 363e a15b 633e 0f09 d63d
00000060: cc59 f23d b3c9 cc3d 9ece cf3d 7869 ed3e
00000070: 9fb3 743e 3981 d73d 1ab2 0a3e bee3 703e
00000080: df4c 813e 7c9e 263e 6040 4b3e 867d 0a3f
00000090: a145 813e fadd ef3d ce72 533e b5a0 e03e
000000a0: f019 e53e 297e 1d3e 55f7 143e 5ed8 853e
000000b0: cc16 5e3e 4806 263f 3e4d 493e 8574 f53d
000000c0: ae87 c23e 3f68 ea3e 4cd6 8f3f b8d4 9b3e
000000d0: 6f89 d23d 36af a13e 90af b93e dfba 653e
000000e0: b7db 663e 67dd d43d 8815 393e 8696 193e
000000f0: 24e8 143f 0e97 b03e ba88 683e 73df a43f
0.6371989 0.28431484 0.4858933 0.5971939 0.3080125 0.16612867 0.21130456 0.16438168
0.24842367 0.6245336 1.1271589 0.62718505 0.31828195 0.23144895 0.103138074 0.24718687
0.11764817 0.32572937 0.24496962 0.29816556 0.3829172 0.17834647 0.22202922 0.104509465
0.11833534 0.099994086 0.10146831 0.4636953 0.23896645 0.10522694 0.13544503 0.23524377
0.2525396 0.16271394 0.19848776 0.54097784 0.25248435 0.117122605 0.20649263 0.4387261
0.4474635 0.15380158 0.14547475 0.26141638 0.21688384 0.64853334 0.19658372 0.11985115
0.3799414 0.45782658 1.1237273 0.3043573 0.1028012 0.31578988 0.36266756 0.22434567
0.22544752 0.10393792 0.1807462 0.14998826 0.5816672 0.34490246 0.22708407 1.2880691

cnn.3.cnn.weight f4 [64, 32, 3, 3]
00000000: 0d09 393d 11ab 5d3d 7a87 f5bc 22ef d53c
00000010: ae4b 0bbd 5143 2d3d 9c54 5a3d e1e7 4abd
00000020: a1c0 7dbd aa3f 1a3b b28e a9bc 72a7 aabd
00000030: d50a 543d ff4e 68bd ff4d 703d 403f 5abd
00000040: 8100 713d eee9 80bd 32be 9abb 36b6 873c
00000050: a5a0 d63c cd38 103d 389b 2dbc e353 1f3d
00000060: 159f 08bd ca9b 42bd 3bb7 05bc 70ad 463d
00000070: 820f de3c b8d3 a2bd e640 1abd 9062 39bc
00000080: 63bc 023d d667 e13c 507e b2bb 201c 20bd
00000090: e980 1bbd d288 f8bc f0fe c4bd 7e7c d73c
000000a0: f8cc 24bc 0c98 fcbc 0ff1 183b 24ff 49bd
000000b0: 03c7 bbbd 8d25 38bb 029e a93c 7943 adbc
000000c0: 28d5 b13b f415 55bc e05a 0abd 6507 363d
000000d0: 2e9d ed3c 658a 09bd dc53 5d3d a808 22bc
000000e0: 3eba 8cbd 9c91 493c c3d7 46bd c043 1ebc
000000f0: f63b e43c 57d6 643d 014a 5bbc 86de 2fbd
00000100: c611 933c 8cc1 9cbb f470 cebc 767b 49bd
00000110: d75a 263d 24e1 643d 09c7 373d fa55 d13b
00000120: fd91 5e3b bfa9 4b3d 07e1 ecbc 64a2 49bd
00000130: 61ce 1cbd 8a23 2dbd 2523 fc3c a64f 5abd
00000140: f057 d33b 2cdd 96bc 23cb 223d 027e 0dbd
00000150: f2ca 4cbd 80d4 07bd a544 263d 4267 443d
00000160: 228b 993c b4b0 d0bc 49b9 883d e8eb ef3b
00000170: 4bcb 2ebd 9c7e 4dbd 8b43 033d 3857 d03b
00000180: 202c 3ebd 5f2c 033d f8af b93c 8a67 f4bb
00000190: 68e6 38bc c948 3bbd 7218 813c 6820 13bd
000001a0: 5493 54bc 2816 2c3d 800f cbbc 4049 74bd
000001b0: 2a2a 443d 721a 973c b356 81bd 45a7 ffbc
000001c0: fcbc 44bc 3feb 0f3d 30d9 3bbd 45dc 523d
000001d0: c52f 85bd 1b8d 6c3d d691 c13c 2e40 32ba
000001e0: fd1d 243d a286 e6bc 786b de3b 562d e43c
000001f0: 40e5 4dbd dba7 34bd 6a82 33bd 9d77 3dbd
00000200: e25f 15bd c1ad 6a3d a109 32bd 92f4 993c
00000210: 43af 753c bc42 6dbc e539 80bd adfc fb3c
00000220: 7c0f 22bc 3e2a 4abd 47c2 433d 6b18 083d
00000230: 1384 023d c637 0c3d ff34 4c3d 9f89 d1bb
00000240: 2bf0 153d 6239 b43c d11c 47bd d713 06bd
00000250: 48b9 a03b f344 e9bc 221b 8e3b 3503 693d
00000260: 421c 8bbd df97 b73c c0a9 703a 6c72 33bb
00000270: 79c0 4d3d dce9 07bc 38de 12bc 1361 83bc
00000280: 9adf e33c 1aea ea3a 948b ab3b 7ca5 d9bc
00000290: 6c37 83bd cd3a 123d 4c13 58bd d4c4 49bc
000002a0: 04ec b0bc 2206 57bd 3006 583c 78e1 a9bc
000002b0: 5ab7 c63c 6e64 babd aae7 31bd e812 9cbc
000002c0: d11c 70bd 69ec f7bc 096d 6cbd 98d0 99bd
000002d0: 2a10 053d c0dc 3b3a 488e 41bd 2eb5 813c
000002e0: 0a81 66bd 3ef4 45bd fecb 1cbd 069f a63c
000002f0: 4962 a83c 9520 e4bb b293 0bbd 5c20 44bd
00000300: 6c98 10bd 1ad5 8b3c 4fc9 5abd 01ad 433d
00000310: 6814 cabb 9009 ebbb ccd9 e63c c1dd 193d
00000320: 2af3 1bbd e756 273d 8074 993a 6989 603d
00000330: 5039 5c3c f3eb 313d 95f6 e9ba b2d3 7bbc
00000340: 6742 39bd 3486 86bd 0034 6eb8 365f 67bd
00000350: 47be 2a3d 46f5 83bc 061d e33c 9eb5 a7bd
00000360: 4cfc 72bc f62d b03c 5b1b f9bc 9d97 5c3d
00000370: fe8f a73c 2d4e 273d 7f62 66bd 47e4 19bd
00000380: 74da 56bd 929c c0bc 8007 213a be1b c4bd
00000390: 9940 4e3d 1c7f 16bd 5624 4bbd 85b1 353d
000003a0: eb33 3e3d 5cac 9ebd 39b3 59bc 4d75 573d
000003b0: 10a7 8b3c 9115 063d bb28 1c3d 48d1 e63b
000003c0: a38b d13b 18d6 99bc 84c3 7bbb dd5a cebb
000003d0: e995 41bd dc76 90bd 32a8 ed3c 3666 dfbc
000003e0: 589a 4cbd b7d7 7ebc 16fa 29bd 5830 673c
000003f0: fda6 3e3d 5a25 1cbd dd35 953c 367c aa3c
0.045174647 0.05411822 -0.029971827 0.026115004 -0.03400772 0.042300526 0.053303346 -0.049537543
-0.061951283 0.0023536482 -0.020697925 -0.08332719 0.051768143 -0.05671596 0.058668133 -0.053282976
0.05883837 -0.062946185 -0.00472238 0.016566377 0.026199648 0.03521042 -0.010596089 0.03889836
-0.033354837 -0.047511853 -0.008161361 0.048505247 0.027107004 -0.079505384 -0.03765955 -0.011315003
0.03191794 0.027515333 -0.0054471865 -0.039089322 -0.037964735 -0.030338679 -0.09618938 0.02630448
-0.010058634 -0.03083422 0.0023337041 -0.049315587 -0.09168818 -0.0028098554 0.020705227 -0.021150338
0.0054270215 -0.013005722 -0.03377807 0.044440646 0.029005613 -0.03357925 0.054035053 -0.009889759
-0.068714604 0.012302782 -0.04854561 -0.009659708 0.027860623 0.055868473 -0.013384343 -0.042936824
0.017952811 -0.004783815 -0.025200345 -0.049190007 0.040613975 0.055878773 0.04486755 0.006388423
0.0033961528 0.04972243 -0.028915895 -0.049227133 -0.038282756 -0.04227022 0.030778477 -0.053298615
0.006449692 -0.01841601 0.039744508 -0.034544 -0.04999823 -0.03316164 0.04059281 0.047950037
0.018743102 -0.025474884 0.06675965 0.0073218234 -0.042674344 -0.050169572 0.032046836 0.0063580535
-0.0464288 0.032024737 0.022666916 -0.007458632 -0.011285402 -0.04572371 0.015758727 -0.035919577
-0.012974579 0.042013317 -0.024787664 -0.05964017 0.047891773 0.018445227 -0.06315365 -0.03120769
-0.012007948 0.035136458 -0.045861423 0.051479597 -0.06503252 0.057751756 0.02362911 -0.00067997247
0.04006766 -0.02814037 0.0067877136 0.02785365 -0.050267458 -0.044105392 -0.043825544 -0.04625665
-0.036468394 0.05729461 -0.043466214 0.018793378 0.014995399 -0.014481243 -0.062610425 0.030760134
-0.009891387 -0.04935669 0.0477927 0.03322641 0.031864237 0.034232877 0.04985523 -0.0063945795
0.036605995 0.022000019 -0.048611466 -0.032733764 0.0049048997 -0.02847526 0.0043367306 0.056887824
-0.06792499 0.022411285 0.0009180568 -0.0027381433 0.050232384 -0.0082955025 -0.008964114 -0.0160375
0.027816582 0.0017922551 0.005235145 -0.026568167 -0.06407055 0.035700608 -0.052752778 -0.012314994
-0.021596916 -0.052496083 0.013185069 -0.020737395 0.02425735 -0.09101187 -0.043433823 -0.019051984
-0.05862123 -0.030264096 -0.05772117 -0.07510489 0.03248612 0.0007166378 -0.04725483 0.015833464
-0.056275405 -0.04832863 -0.03828048 0.0203395 0.020554679 -0.006961892 -0.0340764 -0.047882423
-0.03530161 0.017069388 -0.05341464 0.04777241 -0.0061669834 -0.007172771 0.028180026 0.037564997
-0.038073696 0.04085436 0.0011707693 0.054818545 0.013441399 0.04343791 -0.0017849976 -0.015370296
-0.04522934 -0.06568566 -5.679205e-05 -0.056487285 0.04168537 -0.016108166 0.0277238 -0.081889376
-0.01483066 0.02150629 -0.030408552 0.053855527 0.020454403 0.04084604 -0.056246277 -0.037571218
-0.052454427 -0.023512159 0.000614278 -0.09575604 0.050354574 -0.036742315 -0.0495952 0.04435875
0.04643623 -0.07747719 -0.013287359 0.0526021 0.017047435 0.03273541 0.03812478 0.0070439912
0.00639482 -0.018778846 -0.0038416097 -0.006297453 -0.047262106 -0.070539206 0.029010866 -0.027270418
-0.04995188 -0.01555436 -0.041498266 0.014110647 0.04654597 -0.03812156 0.01821416 0.020811182

cnn.3.cnn.bias f4 [64]
00000000: 4e4a 34bd c20e 213c c400 84bc 3e86 afbc
00000010: 7eff 6bbc 953a 163d 618e db3c c8e8 813d
00000020: 80d8 37bc 1433 bc3c e2ce 80bc 1104 073d
00000030: bf50 1f3d 7841 653d 570d af3c 027f 233d
00000040: fa22 d13c 425b 46bd 6523 21bc 98e3 723d
00000050: 274e 4f3d e524 a33c 4e4c 073d c91e 7d3d
00000060: a832 4b3d c554 5dbd 3b51 fe3c 10e0 d23c
00000070: c38d a63a e9ba 60bc 1c94 25bc 2f84 bc3c
00000080: 36bd e9bb 0cca 1bbc 2747 e4bb 58a7 40bd
00000090: 6e68 17bd dae1 113d 51b7 bc3a 8020 1d3d
000000a0: 4bde 12bd 7071 f03c a373 383c 5329 b0bc
000000b0: a74d 79bd 622c 3e3c 259d 463d 0d30 dbbc
000000c0: b22c 44bd 3ffc aebc c15d 39bd 1b43 68bc
000000d0: cb73 323c 60c7 0fbd 7134 dbbc e5fd 31bd
000000e0: 328f 30bc ace8 a03c 92aa 9dba 11c2 dc3c
000000f0: 7716 31bd 2728 5e3d 9a79 04bd da22 443c
-0.044016175 0.009830179 -0.016113646 -0.021426316 -0.014404176 0.036676962 0.02680129 0.063432276
-0.011221051 0.022973575 -0.01572365 0.032962862 0.038895365 0.05597064 0.021368666 0.039916046
0.025529373 -0.048426874 -0.009835099 0.05929908 0.05061164 0.019915054 0.033031754 0.061796937
0.049608856 -0.05403592 0.031044593 0.025741607 0.0012707043 -0.013716438 -0.010106113 0.023012249
-0.0071331514 -0.009508621 -0.00696649 -0.04703459 -0.036964826 0.03561578 0.0014397894 0.038361073
-0.035856526 0.029350966 0.011258039 -0.02150408 -0.06086507 0.011607261 0.04848971 -0.02675631
-0.047894187 -0.021360515 -0.045255426 -0.014176155 0.010891865 -0.03510225 -0.026758404 -0.043455023
-0.010776328 0.019642197 -0.0012028983 0.026948007 -0.043234315 0.05423751 -0.03234253 0.0119712

linear.0.0.weight f4 [80, 64]
00000000: 5053 543c aeb8 e3bd 52f2 423d 1b97 efbd
00000010: 33b6 f23d 7e34 b93c fffd 3e3d 55da 16be
00000020: d0a3 943c 4b8e c7bd f885 643b ecf5 1abe
00000030: 772d 82bb ac5d 04be c79f 1c3d 6479 1b3d
00000040: fe23 7c3c 5a38 febd ab9b 88bc 4874 80bd
00000050: 99ff 223d d16e e93d 056e f1bd 1d97 413d
00000060: 8f4d 423d 46ab 27bd 1355 b1bb 5066 773d
00000070: c5d7 c0bd fb64 f7bd 49e4 8abb 0dcc 9cbd
00000080: 44e2 1cbd 4b87 693d e678 983a 63fe cc3d
00000090: 3907 87bd 901f 483d 73fb 25bd e1f5 a3bc
000000a0: d7c8 613c c0f9 a5bd 9443 083d 0f03 bd3d
000000b0: c5b5 943d dcc0 c83d a4f7 b73d d420 7e3d
000000c0: de21 c53d 1c0e 3a3d c6e5 733d 0e6a 1dbd
000000d0: 9e72 62bd 0343 523d f1df 983d ed09 b9bd
000000e0: a6ad aa3d d02d f5bd 3a36 933d d6ba 933c
000000f0: 2d4e 143d 9098 813d 1056 023b b4fe efbd
00000100: f636 fcbc 0671 b7bd f7ae 95bd e6d3 c5bd
00000110: a1da 9cbd 9f6d a3bd 535f 15bd 2c44 2c3b
00000120: d810 a0bd 02fe f03c 99b0 acbd 807d 2dbe
00000130: 833e 9f3d ef87 25be ff6a a0bd aa7f a03c
00000140: 09f0 ae3b 8299 babd 2cf8 c93d 678f a8bd
00000150: c659 93bd fa13 183d be15 e7bd 26f6 16be
00000160: b314 09be 7699 96bc 6ebe 5f3d df4f 64bd
00000170: 774a 283d de1f e1bc 1983 e2bd 80dd a7bb
00000180: 6b35 8f3d 7954 723d 2c93 513d 19ed a0bd
00000190: 0239 22bd d222 123d 4816 8e3d 9a08 fe3c
000001a0: 5df3 883d 2745 03be ba19 70bc adc3 de3c
000001b0: fa22 463a adce c43d 1f99 ca3c 63b9 573d
000001c0: 7761 b6bd 9acb 18bb 4cf3 dabc a403 3fbc
000001d0: 5a33 23bd a8ad 4b3d 4e07 5bbd d79b 663d
000001e0: 573c 803d 4aa9 9abd 8975 99bd 6804 fe3d
000001f0: 188d b93d ce4d 973c f1a3 c0bd f7a2 993d
00000200: 09b8 41bd 79ed babd 5925 e93c df87 e9bd
00000210: 82fe 1d3b ef12 82bd 183e 963d ed83 a23b
00000220: 39f5 30bd 1b9d 833d 1c5d 32bd 6aee c3bd
00000230: daf3 69bd 49c3 fcbc b95e 0dbe a262 3e3d
00000240: 2940 373d 1132 463d 0e57 9ebd ad03 d0bd
00000250: dd3d 8d3d aec8 e63c 7039 803d 0df2 5f3d
00000260: e825 8a3d abdb bdbc 3c41 c93b 816d fc3c
00000270: 2137 1e3e dda8 36be 89f2 243d 3493 a3bd
00000280: 3f84 b03d 4674 8d3d ea59 503d a3c7 8dbd
00000290: 2ba1 d53c 1f9b 263c 198a 6b3c 6404 d23b
000002a0: 9409 b13d 93a5 f03b c964 8ebd f302 a33c
000002b0: 50a3 debb c695 e33b beaf 0b3d 9316 bb3d
000002c0: 9ebe 1cbc ec21 863d 88c1 f13d f799 363d
000002d0: 68ef bdbd 42d5 b33d 39e3 ebbd 2640 1e3e
000002e0: 8306 aebd 1d78 d7bd de4d 9f3c 2172 a03d
000002f0: 7450 70bd 86a1 edbd fe00 efbd c481 8cbd
00000300: 1312 7abc 173a 16bc 7b77 6cbd 511d b83c
00000310: 584a 143c 1c8f 23be af2c 6bbd e603 273d
00000320: f262 c6bd c38e ed3c 4bdf db3c 867d 30bd
00000330: 81c3 3c3d 820d f0bc c352 443d 37bf e23d
00000340: 4731 3c3e 26e0 8cbc 7a06 9d3d cde8 a5bd
00000350: 517f 743d 4709 bbbc 5dd4 e0bd cb03 e8bc
00000360: fee9 cdbd 684b aebb 77f9 5e3d f6fc 093e
00000370: 1f63 7b3d f414 01be 3f06 88bd 6e97 05be
00000380: bf86 983d 4e4a df3d c024 2139 a450 383d
00000390: 69c5 74bd 05e3 89bd 1807 b5bd a487 e23d
000003a0: 2d85 673d 8515 a03d deb4 95bc 89f0 eabd
000003b0: b32c 603d 83cc f33b e506 b83d 7ee4 b93b
000003c0: e598 b33b 7308 0abd 8d73 e73d f20d 49bc
000003d0: 54d1 57bd 817b 0abe 1955 93bc 3372 ba3d
000003e0: 6714 17bd dbce ef3c 6742 723d b34a cb3d
000003f0: abc9 09be 358c e0bd 8851 8bbc e4c0 0eba
0.012959316 -0.11119209 0.047594376 -0.11698743 0.11851158 0.022608038 0.04662895 -0.14731725
0.018144518 -0.09743937 0.003486989 -0.15132874 -0.003972705 -0.12926358 0.038238313 0.037957564
0.015389441 -0.12413092 -0.01667579 -0.06272179 0.03979454 0.1139809 -0.11788563 0.047263253
0.047437247 -0.040934823 -0.005411753 0.060400307 -0.09416155 -0.12079807 -0.0042386395 -0.07656107
-0.03830172 0.05701379 0.001163271 0.10009458 -0.065931745 0.048858225 -0.040523004 -0.020014705
0.013780794 -0.08104277 0.033267573 0.09229099 0.07261232 0.0980241 0.089827806 0.062043026
0.096256 0.045423612 0.0595453 -0.03843122 -0.05528509 0.05133344 0.074645884 -0.09035096
0.08333902 -0.11971629 0.07188077 0.018033426 0.036207367 0.06327927 0.0019887723 -0.11718503
-0.030787926 -0.089571044 -0.073087625 -0.09659557 -0.07658888 -0.07979893 -0.03646786 0.002628575
-0.07815713 0.029417995 -0.08432121 -0.16942406 0.07775595 -0.16165136 -0.07832908 0.019592125
0.005338673 -0.091113105 0.09861788 -0.08230477 -0.07194857 0.037128426 -0.11283444 -0.14742336
-0.13386802 -0.018383723 0.054624967 -0.055740234 0.04108664 -0.027481016 -0.11060161 -0.0051228404
0.069926105 0.05916259 0.051165745 -0.07857723 -0.039605148 0.03567774 0.069378436 0.03100996
0.06687043 -0.12819348 -0.014654571 0.027192915 0.00075583125 0.09609733 0.024731217 0.052667033
-0.08905309 -0.0023314715 -0.026727341 -0.011658583 -0.039843895 0.04972616 -0.053473763 0.056300964
0.06261509 -0.075518206 -0.07493121 0.12403184 0.090601146 0.018469717 -0.09406269 0.07501786
-0.04729465 -0.091273256 0.028460192 -0.114028685 0.0024107997 -0.063512675 0.07336062 0.0049595744
-0.043202613 0.0642645 -0.043545827 -0.09566958 -0.05711732 -0.030854838 -0.13805665 0.046480782
0.044738922 0.04838759 -0.07731448 -0.10156951 0.06896565 0.028171863 0.06260955 0.054674197
0.06745511 -0.023176035 0.0061418097 0.030813934 0.15450718 -0.17837854 0.040270362 -0.07987061
0.08618974 0.06906943 0.050867 -0.06922843 0.026077827 0.01016882 0.014376187 0.006409215
0.08644405 0.0073439567 -0.06952817 0.019898867 -0.0067943707 0.0069453446 0.034103148 0.09135165
-0.009566931 0.06549439 0.11804491 0.044580426 -0.09274179 0.0878091 -0.11517949 0.15454158
-0.08497336 -0.10520957 0.01944631 0.07834268 -0.058670476 -0.11603074 -0.11670111 -0.06860688
-0.015263098 -0.009169123 -0.057731133 0.022474917 0.009050928 -0.1597256 -0.05741566 0.040775202
-0.09686841 0.028998738 0.026839873 -0.04308846 0.046084885 -0.029303316 0.04793049 0.110716276
0.18378173 -0.017196726 0.07667251 -0.08101044 0.05969173 -0.022831572 -0.10978005 -0.028322121
-0.10054396 -0.0053190477 0.054437127 0.13475403 0.061373826 -0.12605649 -0.06641816 -0.13046047
0.07447576 0.10902844 0.00015367847 0.04499878 -0.059758577 -0.06732754 -0.08839244 0.11061028
0.05652349 0.078166045 -0.01827472 -0.1147166 0.05473013 0.007440151 0.0898569 0.0056729903
0.005480873 -0.033699464 0.113013364 -0.012271391 -0.052689865 -0.13523676 -0.017984914 0.09103813
-0.03688469 0.029273441 0.059145357 0.09926357 -0.13455836 -0.10964242 -0.01700665 -0.0005445613

linear.0.0.bias f4 [80]
00000000: d59d 52bd f38e efbd c258 513d b04f d8bd
00000010: 3b2c c23d c0a8 ce3d 1701 d2bb ea19 4b3d
00000020: 811d f539 c280 543d a4e2 bbbd dc6f c13c
00000030: 05ce ac3c d3e0 b0bd 91b8 8a3c 09e3 95bd
00000040: 1244 25bb a920 f6bd 86c9 773d 78e8 e23d
00000050: 95ea 723d 4e90 fbbd 8e46 bebd 9b17 7b3d
00000060: 2008 c4bd a2bc e13c c362 003d a430 d9bd
00000070: d8c9 aabc 7b08 8c3d 16e7 15bd 3067 42bd
00000080: 0157 ea3d a81f 893d f581 84bb 9869 893d
00000090: 1b61 e8bc 2fa0 adbd 240a 89bd 5e68 a2bc
000000a0: ffd5 8dbd 864e 90bd 7e5f 923c 49c4 663d
000000b0: 1bc9 c7bc 7d78 c5bd 8004 e53d 978a b53d
000000c0: b67a 73bc 425b 5c3c e2af 9ebc b370 c2bc
000000d0: 72b9 bfbd 8311 d1bd 0fae e63c 87bc ab3d
000000e0: 968d 91bd 38d3 a9bd f615 e83c cee1 2fbd
000000f0: 570e 863c 5a62 d73d 1779 bdbd 2584 bcbd
00000100: 9770 96bd 47fc a33a fd66 9fbd c4e8 ca3c
00000110: de26 e0bd 69dc 1abd 74a1 743c 498a d5bd
00000120: 3fba f3bd d6a6 e63c 861b ecbd 9c34 f33c
00000130: 5bcc fc3d ab35 ccbd 3a7c 2e3d 8559 7d3d
-0.05142005 -0.11697187 0.051110037 -0.10562074 0.094810925 0.1009078 -0.0064088213 0.04958526
0.00046752024 0.051880606 -0.09174088 0.023612909 0.021094332 -0.08636632 0.016933711 -0.07318694
-0.0025217575 -0.12017948 0.060494922 0.11079496 0.059305746 -0.12283383 -0.09290801 0.06130181
-0.09571862 0.027555767 0.031344187 -0.106049806 -0.0208482 0.06837555 -0.036597334 -0.04746169
0.11442376 0.06695491 -0.0040438124 0.067095935 -0.028366616 -0.08477818 -0.06691387 -0.019825157
-0.06925582 -0.07046227 0.0178678 0.056339536 -0.024387887 -0.09642122 0.11182499 0.088643245
-0.0148608 0.013449492 -0.019370977 -0.02373538 -0.09361543 -0.10208418 0.02815917 0.08385568
-0.071070835 -0.0829224 0.028330784 -0.042939954 0.01636426 0.10516806 -0.09251612 -0.09204892
-0.073456936 0.0012511098 -0.07783315 0.024769194 -0.10944913 -0.037807856 0.014931072 -0.104267664
-0.11900758 0.028155725 -0.11528687 0.029688172 0.12343665 -0.09971174 0.04259894 0.06185295

linear.0.1.weight f4 [80]
00000000: 5589 703f 5442 7f3f ea19 763f 1573 7d3f
00000010: 77be 833f f35e 813f 37c2 833f d954 783f
00000020: 86e2 813f 85fc 793f 63a2 6a3f 2ed3 6c3f
00000030: 8324 793f fccd 7f3f 2d16 823f e4f8 7c3f
00000040: a1b3 7d3f d5ad 883f 3a61 6e3f 2484 853f
00000050: c7de 853f 4c1e 753f 20a0 733f 2d7e 7e3f
00000060: 20e1 803f 7902 823f af82 823f b05f 813f
00000070: 83ab 7e3f 359d 853f 6b1c 803f 6001 783f
00000080: 2a65 823f fa98 743f 3f65 813f 577e 7d3f
00000090: bc38 683f 107e 673f c866 843f 399a 7f3f
000000a0: e3e2 693f 83f0 783f f737 703f 2a30 763f
000000b0: 774f 7d3f e1d5 693f 8131 723f 1265 6a3f
000000c0: 9248 833f 28a2 8c3f bd44 813f a882 8a3f
000000d0: c58b 7b3f e2fb 7e3f 34b7 703f be03 853f
000000e0: fa82 803f 46d4 813f e1ef 6f3f 7d8e 843f
000000f0: 16cc 773f b6f5 8b3f 1edc 843f 954d 743f
00000100: 05b9 753f a9a0 863f eb37 7e3f b1be 7b3f
00000110: 275e 843f d986 823f f8d1 7f3f 75b1 843f
00000120: 8cb5 843f 1e61 813f 4ac8 853f b603 723f
00000130: 6e9a 873f 427d 823f ae34 8c3f 2a1b 823f
0.9395955 0.99710584 0.9613329 0.99003726 1.02925 1.0107101 1.0293645 0.9700447
1.0147254 0.9765094 0.9165403 0.92509735 0.9732134 0.9992368 1.0163018 0.98817277
0.99102217 1.0678049 0.93117106 1.0430951 1.0458611 0.95749354 0.95166206 0.9941128
1.0068703 1.0157005 1.0196131 1.0107327 0.99480456 1.0438601 1.0008672 0.968771
1.0187123 0.95545924 1.0109023 0.99020904 0.9071157 0.9042673 1.0343866 0.998447
0.91361827 0.9724199 0.93835396 0.9616724 0.9894938 0.9134198 0.94606787 0.9156047
1.0256522 1.0986986 1.0099102 1.0821123 0.98260146 0.9960309 0.94029546 1.0391767
1.0039971 1.0142906 0.937254 1.0355984 0.96795785 1.093436 1.0379674 0.9543088
0.9598544 1.051778 0.99304074 0.98337847 1.0341233 1.0197402 0.9992976 1.0366656
1.0367904 1.0107763 1.0451748 0.9453691 1.0594003 1.0194476 1.0953577 1.016454

linear.0.1.bias f4 [80]
00000000: f7ea 72bd 7b57 2f3c 4883 433d dcd6 c4bd
00000010: ff24 453d 89ce b2bd b027 b7bd 67de 54bd
00000020: 4de4 acbd 9588 b2bd 0185 58bd c541 99bd
00000030: 7727 b0bd 492d e0bd e111 f73d 7d60 0bbd
00000040: 1fe1 8dbd 5464 a4bd fe48 84bd 948a 98bd
00000050: 7812 32bd dadb a3bd b20c 0bbd 4d6e 41be
00000060: c09b a4bd 9e12 d1bc 5fa2 e6bc 4f6a 4dbd
00000070: cae6 a53d 8dfc ccbc 254e 38bd 3c07 4cbc
00000080: cea3 9ebd 5a5c afbd cc7e 1bbc 9a8d 083d
00000090: d31c bbbd ae74 0aba 8734 a1bd 60a5 393d
000000a0: 0b80 323d fa14 66bd eb00 d1bc 32db 3aba
000000b0: 2ba4 c2bc 6a2d 32bd f173 58bd ab9a d2bd
000000c0: 76da d8bd c5ad 8bbd d25c 8e3a 3bef e1bc
000000d0: 86b8 39bd d0ad b6bd df3c e93c dcf4 babd
000000e0: 53cb 79bc 4f9d 57bd 1a5c 91bd 6921 933c
000000f0: 6b46 33bd adca 00be 820b 73bd 8a2e dc3c
00000100: d2ea 82bd 3dce dabd 59c0 1a3c 0b4d 89bd
00000110: 901f 60bd f4cf b3bc 9d17 adbd 1f71 c2bd
00000120: f7e3 0dbe 496c e4bc 029e 9abc 5f9d 1ebe
00000130: 5773 2bbe 51e7 b7bd 7917 53bd e1de c6bd
-0.05930611 0.010702009 0.04773262 -0.09611294 0.048130985 -0.087308 -0.08943117 -0.051969912
-0.084419824 -0.08717457 -0.052861217 -0.07483248 -0.08601277 -0.109461375 0.12063957 -0.034027565
-0.06927704 -0.080269486 -0.06459235 -0.07448307 -0.043474644 -0.08000918 -0.033947654 -0.18889733
-0.080375195 -0.025521573 -0.028153596 -0.050150212 0.0810066 -0.02502277 -0.0449964 -0.012452897
-0.07746087 -0.085625365 -0.00949068 0.033338167 -0.09136357 -0.0005281669 -0.07871347 0.04532373
0.043579143 -0.05617235 -0.025513133 -0.00071279996 -0.023759922 -0.04350034 -0.052844945 -0.10283407
-0.10588543 -0.06820253 0.0010861403 -0.027579894 -0.04534199 -0.08919871 0.028471408 -0.091287345
-0.01524623 -0.052640256 -0.07097645 0.017960267 -0.043768328 -0.12577315 -0.059337147 0.02687766
-0.06392445 -0.10683868 0.009445273 -0.06704148 -0.0547176 -0.021949746 -0.084517695 -0.094942324
-0.13856493 -0.027883666 -0.018874172 -0.1548972 -0.16743217 -0.08979667 -0.051536057 -0.097104795

linear.0.1.running_mean f4 [80]
00000000: ab92 b1be 5daf d6bf d1fa 10be 3c4b 91be
00000010: b780 bb3e dbb9 63bf 6679 8ebf beae 16c0
00000020: d60e 0d40 c412 78bf c37d eabf cb33 66be
00000030: 120d 0fc0 2b9e 59bf e333 36bc a0f5 85bf
00000040: faf8 ac3d 5c8e e6bf ec49 17bf c257 87bf
00000050: 7aaa 6dbf 7298 9cbf 0853 c0bd 841a 51bf
00000060: 151d 75bf 0461 8b3f 1554 c23f 710c 0e3f
00000070: 1006 27bf 6a78 12bf 8b2b 5d3e 0824 923e
00000080: 00ad 70bf 6730 19be 7df4 263f da9e 6d3f
00000090: c302 84bf 5f0a 6b3f b69d 73bf 90b1 97bf
000000a0: f98d 12bf f48f 52bf 5944 c03e 4d18 10bf
000000b0: 161a 1a3e e61c 5bbf 66ca 943d b04e 68bf
000000c0: 49a4 2ebe 2dde 39bf 0c0e a5bf 6d13 d2bf
000000d0: b776 adbf ec88 2a3d af18 393f fb4b 08bf
000000e0: e17e 9f3e b74c f3be f3ca 1fc0 880f 06c0
000000f0: 1608 0cc0 0757 08bf f0bf afbe 2aef 92be
00000100: 2799 b9be e580 bcbe 5e6e 7bbe b45e f3bf
00000110: 67c5 8abf 7fb0 943e 256c f8bc 2ffb a7bf
00000120: 7539 09bf 1577 96bf 19eb 01be 7ac2 123e
00000130: 909c 873e 1f5d b3be 2363 a5bf bc0d 9dbe
-0.3468221 -1.6772267 -0.14158179 -0.28377712 0.3662164 -0.8895547 -1.1130798 -2.3544154
2.2040305 -0.96903634 -1.831963 -0.22480695 -2.2351727 -0.8500697 -0.011120769 -1.0465584
0.08445926 -1.8012195 -0.5909717 -1.0573657 -0.9283825 -1.2234023 -0.09390837 -0.81681085
-0.957475 1.0888982 1.518191 0.55487734 -0.65243626 -0.5721499 0.21598642 0.28543115
-0.9401398 -0.1495987 0.6521681 0.92820513 -1.0313343 0.918127 -0.9516252 -1.1851063
-0.57247883 -0.82250905 0.37552145 -0.5628708 0.15049013 -0.8559097 0.07265167 -0.9074507
-0.17054857 -0.7260464 -1.2894912 -1.6412178 -1.3551854 0.041634485 0.7230329 -0.53240937
0.31151488 -0.47519466 -2.496762 -2.094698 -2.1879935 -0.53257793 -0.34326124 -0.28698093
-0.36249658 -0.3681709 -0.2455382 -1.9013276 -1.0841492 0.29040906 -0.030325005 -1.312353
-0.536033 -1.1755091 -0.12687339 0.14332 0.26486635 -0.35031983 -1.2920879 -0.3067454
