LeNet/saved_model/model.pth (torch, 145420 bytes, 44 tensors)

cnn.0.BachNorm.weight f4 [8]
000000 f9 c9 58 3f 3f ac 8f 3f e0 7a 7c 3f c4 eb 90 3f
       0.84683186 1.122444 0.9862499 1.132195
000010 e1 fe 88 3f 2a 2c 80 3f aa c0 84 3f 88 76 66 3f
       1.0702783 1.0013478 1.0371296 0.90024614

cnn.0.BachNorm.bias f4 [8]
000000 44 01 6f 3e 55 d4 42 3e b1 b4 5a bd 80 1e 20 be
       0.23340327 0.1902631 -0.053394977 -0.15636635
000010 c8 fe 87 3d 17 87 d9 3d a3 71 ba 3c 54 08 9a bc
       0.066403925 0.106214695 0.022759264 -0.0188028

cnn.0.BachNorm.running_mean f4 [8]
000000 7c e4 3d 3d f4 bd 26 bd 65 78 91 be 19 ab c3 3d
       0.046360478 -0.040708497 -0.28412166 0.09554119
000010 92 74 67 be a5 bf 81 3e 62 07 38 be 2e 9a 1f ba
       -0.22603062 0.25341526 -0.17971566 -0.0006088343

cnn.0.BachNorm.running_var f4 [8]
000000 37 45 a1 3e a6 1b 33 3e a6 ad 15 3e be 55 69 3e
       0.3149812 0.17491016 0.14617023 0.22786614
000010 99 de bf 3e 17 05 03 3f 45 7a 94 3e 91 92 1c 3e
       0.37474516 0.5117964 0.28999534 0.15290286

cnn.0.cnn.weight f4 [8, 1, 3, 3]
000000 45 4e 4e be e0 10 51 bd 06 c6 55 be ba 46 ab 3e
       -0.20147045 -0.051041484 -0.20876321 0.33452398
000010 75 9e 23 3e f3 13 a1 3e f3 c1 94 3e 43 3d 4f 3c
       0.15978415 0.31460533 0.29054222 0.012648883
000020 06 0f 16 be 02 7b 8c bd 3b 53 3b be c9 56 80 be
       -0.14654168 -0.068593994 -0.18293469 -0.25066212
000030 e6 51 d6 bd e9 ff 17 3d 1c 25 0f 3e 99 9a 41 bd
       -0.1046484 0.03710929 0.13979 -0.047266576
000040 14 12 78 3d ba fa d1 bd e9 c9 92 3e 69 3b e8 3d
       0.060564116 -0.102529004 0.2866967 0.113394566
000050 60 81 2a 3d 10 15 c4 bd ed 9d 20 3e c3 28 3e bc
       0.041627288 -0.0957433 0.15685244 -0.011606398
000060 7d c9 9b be d6 98 c4 bd e6 de 60 3e 69 5b 2b 3d
       -0.3042716 -0.09599464 0.21960029 0.041835222
000070 60 63 d0 bd 9a df 9c bd c0 79 47 be 70 7f db bd
       -0.10175204 -0.07659836 -0.19480038 -0.10717666
000080 d3 86 34 be 7d 37 57 be 9a 8d d6 3d 9e 6d a3 3e
       -0.17629556 -0.21017261 0.10476227 0.3191957
000090 13 b0 3d be 70 9c 24 be aa 6c 87 3e db 1d a1 be
       -0.18524198 -0.16075301 0.26450092 -0.3146809
0000a0 1b 73 3f bd d8 13 80 3e 9c 20 08 be ba aa 55 3e
       -0.046740633 0.2501514 -0.1329369 0.20865908
0000b0 13 fd 5b 3e 58 e0 30 be c4 45 a0 3e fd b2 14 3e
       0.21483259 -0.1727308 0.31303227 0.14521404
0000c0 2f 81 27 3d 7e 19 2b 3d 3f 4e 39 3e 91 49 37 3e
       0.040894683 0.041772358 0.18096255 0.17899157
0000d0 d0 76 38 3d 3c c8 f9 3d 9f 35 12 be 67 5b 74 be
       0.045035183 0.12196395 -0.14278267 -0.23862992
0000e0 1d 19 83 be 6d 55 ef bd 42 d8 31 3b e7 a7 26 3c
       -0.25605097 -0.116862155 0.0027136956 0.010171867
0000f0 2c 5f a0 3e 6c b3 47 3e 74 25 6b 3e 3e c5 ae 3e
       0.3132261 0.19502038 0.22963506 0.3413486
000100 01 f0 b3 bd b2 70 5d be af cd 01 bd 6c b1 2a 3e
       -0.087860115 -0.21625021 -0.031690296 0.16669244
000110 e9 ad 5d be 81 19 24 3e 5f 55 6f bd db 40 8e bd
       -0.21648373 0.16025354 -0.058431026 -0.06945964

cnn.0.cnn.bias f4 [8]
000000 85 83 49 3d 74 81 33 bd 0f ce 90 be c9 97 bf 3d
       0.049197692 -0.043824628 -0.2828221 0.093551226
000010 a9 bf 66 be ef 3c 84 3e 7a 4e 38 be 54 3f 98 ba
       -0.2253405 0.2582774 -0.17998686 -0.0011615553

cnn.1.BachNorm.weight f4 [16]
000000 a7 ac 88 3f 3f ed 84 3f a5 82 88 3f dd 93 8c 3f
       1.0677689 1.0384902 1.066487 1.0982624
000010 3b 42 73 3f 85 d5 75 3f a8 06 80 3f 5e ae 79 3f
       0.95022935 0.9602893 1.0002031 0.9753169
000020 be a9 88 3f 96 4b 69 3f dc 7b 6d 3f c0 a5 71 3f
       1.0676801 0.9113096 0.9276712 0.9439354
000030 dd a5 82 3f 71 5d 7c 3f 22 2c 7d 3f 8a 40 6e 3f
       1.0206867 0.9858008 0.98895466 0.9306723

cnn.1.BachNorm.bias f4 [16]
000000 c4 63 66 3d 30 e4 25 bd 1f 1d 28 3b 43 da ad bc
       0.056247488 -0.04050082 0.0025652123 -0.02122224
000010 a2 e6 3b bd 9f f3 8d bd 61 67 6b bd 42 b1 6e 3d
       -0.045874245 -0.06931233 -0.057471637 0.058274515
000020 5f 24 ab bd 4e 89 d1 bd b6 30 e6 bc a9 ad 3d bd
       -0.083565466 -0.10231267 -0.028099399 -0.046308193
000030 f4 1b b8 3d 97 d8 9f 3c 48 f7 a3 3c 86 d6 1a bb
       0.08989707 0.019512458 0.020015374 -0.00236264

cnn.1.BachNorm.running_mean f4 [16]
000000 48 84 33 3a 50 54 ff 3d 73 1a 92 bd 92 9c a0 3e
       0.00068480195 0.12467253 -0.07133951 0.31369454
000010 2b b8 ba 3e fc 77 11 3e 40 82 c4 3e 54 a5 8c 3e
       0.36468634 0.14205927 0.38380623 0.27469885
000020 5b 8a 8a bd 00 6e c0 be c2 b8 ec 3c 93 b6 e4 bd
       -0.067646705 -0.37583923 0.028896693 -0.11167636
000030 95 23 08 3f 99 ac 92 3e e1 34 5b 3e f1 54 83 3e
       0.53179294 0.28647307 0.2140689 0.25650743

cnn.1.BachNorm.running_var f4 [16]
000000 0a 5d 1c 3f b7 14 06 3f f2 fc fa 3e 61 cf 60 3f
       0.61079466 0.5237536 0.49021107 0.87816435
000010 e1 9f d7 3e f5 2c 84 3e 49 28 e6 3e 2f 78 ca 3e
       0.42114165 0.2581555 0.4495261 0.39544818
000020 10 d6 1e 3f 2b 75 3f 3f c9 20 a7 3e 6b b6 16 3f
       0.62045383 0.7478816 0.326422 0.588721
000030 bf f5 0e 3f 56 ee a2 3e 7a d5 a5 3e 5b 51 93 3e
       0.5584373 0.3182246 0.32389432 0.28773007

cnn.1.cnn.weight f4 [16, 8, 3, 3]
000000 93 49 f4 3c f8 5d a1 3d 6c 56 86 3d 53 c2 b7 3c
       0.02982024 0.07879251 0.065594524 0.022431528
000010 5a 80 dd bc 2d 5a 38 bc 07 b9 ff bc 1b f2 7c 3d
       -0.027038742 -0.011251968 -0.031216158 0.061754327
000020 85 94 b1 3c 2e cc d4 bc 9b 5b 4e bd 6c 89 58 bd
       0.021677265 -0.025976267 -0.05038033 -0.05286543
000030 6b a1 5f 3d b7 cc 1a 3e 39 d3 f4 3d 91 11 c5 3b
       0.0545973 0.15117155 0.1195435 0.006014057
000040 f1 ce a6 bc 5a 2d a4 3b b3 1f ad 3d 3d d8 98 3d
       -0.02036235 0.005010289 0.08453312 0.07463119
000050 51 54 9c bd 0f 87 fc 3d e9 2f 6e 3d b3 2d 27 3d
       -0.076332696 0.12330448 0.05815116 0.040815067
000060 ac 9f e1 3d 3d f6 88 3c 05 22 9d be 42 23 a8 3d
       0.11016783 0.016718978 -0.30690017 0.0820985
000070 55 58 cf 3d c2 87 83 3d fb 65 24 bd be c1 f5 bd
       0.1012427 0.06422378 -0.04013632 -0.11999844
000080 94 57 26 be c5 0f 94 bc 77 65 b0 bd 60 bd 39 be
       -0.16244346 -0.018073926 -0.08613103 -0.18138647
000090 d1 d9 a8 bc 5e c9 dc 3c 9c 2a 36 bd 16 bb 0e be
       -0.020611675 0.026951488 -0.04447423 -0.13938555
0000a0 bc 64 6d be 31 37 3e be 26 a3 66 3d b0 40 51 3e
       -0.23182958 -0.18575741 0.056307934 0.20434833
0000b0 55 ce 29 be ad 64 64 bd 31 55 7d bc 7f 08 cd 3d
       -0.16582616 -0.055760074 -0.015462206 0.10011386
0000c0 d8 22 74 3d 87 dc 87 bd fe ba cc bc 26 a1 b8 3d
       0.059603542 -0.06633859 -0.024991509 0.090151116
0000d0 e9 f1 c8 3d c7 12 69 bc 3f 5a 9f bb 5a 73 70 3d
       0.09811766 -0.014225668 -0.004863053 0.058703758
0000e0 92 73 ab 3d d7 f2 ad 3d 30 53 80 3c d1 f1 26 bd
       0.08371653 0.08493584 0.015664667 -0.040757958
0000f0 c2 8c 03 3e 56 7b 09 bd 7d 3d 27 3d c7 cc 7a 3b
       0.12846664 -0.033564888 0.040830124 0.003826903
000100 9e af 64 bd 14 b8 06 bc 49 db a0 3d c2 4a e9 bc
       -0.055831544 -0.008222599 0.07854325 -0.02847803
000110 1c 8c 85 bd 6c c9 2a 3d 74 f6 28 3d b9 f5 de 3d
       -0.06520864 0.041695997 0.04125066 0.108867116
000120 fb 14 84 bd 36 97 12 be af 05 c4 bc 9d 69 80 3d
       -0.06449314 -0.14315495 -0.023928491 0.06270144
000130 28 b2 bf 3d 76 36 54 3a da 30 19 bd cc 98 15 be
       0.093601525 0.00080952735 -0.037400104 -0.14609069
000140 bb 80 50 bd e0 ec 1b 3e 51 46 c7 3d a3 a6 bd 3c
       -0.050904017 0.1522708 0.09730209 0.023150748
000150 92 0b a2 3d 83 8e b7 3d 11 68 30 3c 27 9c 6b 3d
       0.07912363 0.08962729 0.010766999 0.057521965
000160 28 5a 07 3d 9e a2 bf 3d 65 e0 7b bd f5 0e d4 bb
       0.033044964 0.09357189 -0.061493296 -0.0064715096
000170 ec 3a 35 bc 83 73 6b 3d ce fb e5 bb c1 bf 0a 3d
       -0.011061411 0.057483207 -0.007018543 0.033874277
000180 1d 46 64 bd 5a 2b 7e bd df 94 09 bd 01 2d 36 3e
       -0.055730928 -0.062053062 -0.03358924 0.17790605
000190 f2 89 e3 3d bc 59 06 bd 71 a2 8e bd b7 ec 00 bd
       0.11110295 -0.03280042 -0.06964577 -0.03147575
0001a0 f1 6d 52 be 76 79 20 bd 43 43 8a bc a8 9c 8d 3d
       -0.20549752 -0.039178334 -0.016877776 0.069146454
0001b0 d7 e8 5e 3d af bc 26 bd d9 81 cb 3d 30 a8 40 3c
       0.054421272 -0.040707286 0.09936876 0.011758849
0001c0 8d 80 42 3d e9 b2 55 bc 3a a1 eb bd 16 02 31 be
       0.047485877 -0.013043144 -0.11505361 -0.17285952
0001d0 e0 d1 5c bd 94 f1 22 bd 2d 7a 44 3c 99 29 11 3e
       -0.05391109 -0.039781168 0.01199202 0.14176024
0001e0 39 06 a9 3d c2 91 05 3e 4d f5 69 3d dc 1c 82 3c
       0.0825314 0.13043883 0.057118703 0.015882902
0001f0 0e cc a7 bd 2f 18 00 be 21 a9 bf 3c b4 2b 94 bc
       -0.08193217 -0.12509225 0.023396077 -0.018087246
000200 89 35 ca 3c 39 dc b2 3d 70 7f 03 bd a0 e1 70 bd
       0.02468373 0.087334104 -0.032103956 -0.058808923
000210 59 00 a1 3d 54 dc 11 be 6d bf 81 3d 89 1f 24 3d
       0.078613944 -0.14244205 0.0633534 0.040069137
000220 38 dd 90 bd a3 f4 e1 3c 45 12 a4 3d e3 db 93 3d
       -0.07073444 0.027582472 0.08011297 0.072196744
000230 a9 2f fc 3d 67 94 a3 bc 1d 0a 88 bd c2 54 26 be
       0.12313778 -0.019968225 -0.06642554 -0.1624327
000240 7d 20 a1 3d 5d 8d 20 3c 8b e8 9c 3b 29 37 9f bd
       0.07867525 0.009799329 0.0047884635 -0.07774193
000250 cc 92 c4 bc ab ec d3 ba b9 3e 6d be 3e e1 99 bd
       -0.02399578 -0.0016168555 -0.23168458 -0.07513665
000260 76 55 54 bd 27 69 08 bd 13 44 d3 3d 88 47 8b bd
       -0.051839314 -0.033303406 0.103157185 -0.06800753
000270 81 30 1a 3e 2b c9 8e 3e 89 48 0c 3e 09 ec 0c bd
       0.15057565 0.27887854 0.13699545 -0.03440479
000280 9f e1 c3 bd a5 86 51 3d 87 59 63 3d 36 19 68 3d
       -0.09564518 0.051153798 0.0555053 0.056664668
000290 1f c8 8e 3c 6a ad 73 3d a8 75 83 bc 0d 4b 81 bb
       0.01742941 0.059491552 -0.016047314 -0.0039457143
0002a0 e4 14 fb bd 7d 12 0d be 41 4e f0 bd b2 02 36 bd
       -0.12259844 -0.13776584 -0.11733676 -0.044436164
0002b0 8c 16 85 3d cf ee fc bb 5f d5 ba bc bf af 2f 3d
       0.06498441 -0.007718898 -0.022806821 0.042892214
0002c0 5b 93 3f bd 73 14 00 3d 90 89 39 bd 66 f5 d4 3c
       -0.04677139 0.031269502 -0.045297205 0.025995921
0002d0 d0 08 7d 3c 0b 5f 84 bc 32 b4 cd 3d 38 14 04 bb
       0.015443996 -0.016158601 0.10044135 -0.0020153653
0002e0 c1 d7 e0 3c 8b 56 5b 3d 3a 6d c3 bc 19 61 c0 3d
       0.02744663 0.05354933 -0.023855794 0.0939352
0002f0 b1 6c 89 3d b3 26 07 3d 05 81 15 bc 12 d6 a2 3d
       0.06710184 0.03299589 -0.009124999 0.07950987
000300 22 6c 84 bd 74 3c 21 bd e0 5b a0 3b 97 f9 90 3d
       -0.06465937 -0.039364293 0.004893765 0.070788555
000310 2d c2 9b 3d ec 1a db 3c da b3 d2 3b 74 a0 19 39
       0.076053955 0.026746236 0.0064301314 0.0001465099
000320 db 80 a6 bd d7 bc 52 bc fa 7c 13 be 67 1f 7f be
       -0.08130046 -0.012862406 -0.14403144 -0.24914323
000330 bf da f6 bc 37 ad ee bd 18 86 28 bd c1 ed f7 3d
       -0.030133603 -0.11654132 -0.041143507 0.12105895
000340 eb e7 32 3d cc 87 d8 bc fe 03 56 bd 39 cb cf bd
       0.043678205 -0.02643194 -0.0522499 -0.101461835
000350 07 f7 c7 3d 5d 1b 62 be ea b2 8d 3d 1e f0 64 3d
       0.097639136 -0.22080751 0.06918891 0.055893056
000360 7c 4c 16 3d b2 a0 cc 3d dc ab 58 3d ed 0f 2c 3d
       0.036694035 0.09991588 0.052898273 0.042007376
000370 de a9 f2 3d 36 b0 af bc 3b b3 99 bc 02 65 ce bc
       0.11848806 -0.021446329 -0.018762222 -0.025194649
000380 8e 52 9b 3d c4 98 a7 bd 0f 13 38 3d 23 10 a8 3d
       0.075841054 -0.081834346 0.04494005 0.08206203
000390 8a be 01 bd 87 8a 6e be b9 9a 04 be 48 23 e5 bd
       -0.031675853 -0.23295031 -0.12949647 -0.1118837
0003a0 6c df d4 bd ea bc 4c be 6e bf 33 ba ca 3a 80 bd
       -0.10394177 -0.1999394 -0.00068568334 -0.06261213
0003b0 58 41 ab bb 72 8a 65 3d f0 e9 47 3d fd 4e c3 3d
       -0.0052262954 0.056040235 0.048807085 0.0953655
0003c0 15 0f af 3d 83 f1 2a 3e 24 55 f4 3c f8 5b ad 3c
       0.085477985 0.16693692 0.029825754 0.021162018
0003d0 f4 6c 0f 3e 01 3e be 3d a0 6f 3d bc 00 a9 7a 3c
       0.14006406 0.0928917 -0.011562258 0.015299082
0003e0 9f 8e 8e bd 32 e4 d5 bd c0 85 7a 3b c8 b6 97 bc
       -0.069607966 -0.104439154 0.0038226694 -0.018519774
0003f0 81 aa 86 bc 56 34 1c 3d 37 1a 1f 3e 4e ef de 3d
       -0.016438724 0.03813585 0.15537344 0.108854875

cnn.1.cnn.bias f4 [16]
000000 de 0f 60 bd e4 19 6b 3d 9f 2a 9e 3d a4 9f 84 bb
       -0.054702632 0.057397738 0.07722973 -0.004047351
000010 4b 2c 14 bd be 18 0d bb d9 3b 53 3d 87 fc bd 3d
       -0.036175054 -0.002152964 0.051570747 0.092766814
000020 25 9a 34 3d 28 e1 41 3d 11 16 cc 3d 35 67 d5 bd
       0.044092316 0.047333866 0.09965146 -0.10420076
000030 07 c1 d6 bc fe df 3c 3d 28 f6 03 3d 86 c8 90 3c
       -0.02621509 0.046112053 0.032217175 0.017673742

cnn.2.BachNorm.weight f4 [32]
000000 60 72 8a 3f 98 cf 6c 3f 45 b1 76 3f d0 42 81 3f
       1.0816154 0.9250426 0.9636424 1.0098515
000010 c5 ac 73 3f 67 b3 75 3f 21 38 7b 3f d0 77 6e 3f
       0.951855 0.9597687 0.9813252 0.9315157
000020 e7 d3 84 3f e4 5a 84 3f c0 0b 78 3f a8 42 7a 3f
       1.0377167 1.0340238 0.9689293 0.9775796
000030 88 8d 6c 3f 47 3b 82 3f eb 50 7c 3f 07 32 64 3f
       0.9240346 1.017434 0.9856097 0.89138836
000040 a4 01 75 3f 42 50 74 3f e2 06 84 3f e0 ec 73 3f
       0.9570563 0.95434964 1.03146 0.9528332
000050 a6 00 8a 3f 79 7d 6d 3f 24 43 7a 3f 4b eb 7b 3f
       1.0781448 0.9276958 0.977587 0.98405904
000060 f1 8d 83 3f 27 7b 7d 3f ea 46 88 3f 2e fb 73 3f
       1.0277692 0.9901604 1.0646641 0.95305145
000070 d7 87 7b 3f 52 2a 71 3f 7f f1 77 3f f0 a4 80 3f
       0.9825415 0.942052 0.9685287 1.0050335

cnn.2.BachNorm.bias f4 [32]
000000 ac fc 6f 3b 08 86 03 be a2 5c a8 bd 50 fb 54 bc
       0.003661911 -0.12844098 -0.08220793 -0.012999371
000010 b2 30 83 bd 31 ae 19 bd 0f d7 9b bd d3 9d ac bd
       -0.06405772 -0.037519637 -0.076093785 -0.0842854
000020 4b d0 3b bc 90 2e cc 3c 1b 80 96 bd 62 62 6e bd
       -0.011463235 0.024924546 -0.07348653 -0.058199294
000030 10 01 b0 bd 72 e3 30 bd c2 de 57 bd ff ed ca bd
       -0.08593953 -0.04318566 -0.052702673 -0.099086754
000040 07 30 87 bd b0 83 8b bd 05 fb 11 bd 5b ee 64 bd
       -0.06600957 -0.06812227 -0.03563978 -0.055891376
000050 45 bb 9e bd a7 3e cf bd 64 a3 92 bd 39 ce 88 bd
       -0.077505626 -0.10119372 -0.071600705 -0.06679959
000060 10 85 41 bd 99 14 87 bd 15 95 d4 3c 4c 0b ef bd
       -0.04724604 -0.065957256 0.025949994 -0.116720766
000070 30 4d 81 bd 5a 53 96 bd 1e 65 74 bd 49 d6 97 bd
       -0.063135505 -0.07340117 -0.059666745 -0.074139185

cnn.2.BachNorm.running_mean f4 [32]
000000 ce 9e a6 3e 7a 32 3b bd 06 e5 7a be ca 49 0d bc
       0.32543033 -0.045702435 -0.24501428 -0.00862355
000010 06 b9 a4 be 16 6f 39 bd 6d ec 6a be d4 bd 0a bf
       -0.32172412 -0.045271955 -0.22941752 -0.54195905
000020 d5 18 fd 3d 0c 26 a2 3e eb 86 80 be 10 e7 02 3e
       0.12358252 0.31669652 -0.25102934 0.12783456
000030 84 4e 34 be bc bc a9 be cf 48 1a 3d 13 7b 0a bf
       -0.17608076 -0.33151805 0.037667092 -0.54094046
000040 1e e4 60 be 29 5a df be 4b df 83 3e 6a 7c 0d bf
       -0.2196202 -0.43623474 0.25756297 -0.55267966
000050 7f 82 28 be 6b b2 f9 be 2e 16 ae be a9 ad 88 be
       -0.1645603 -0.48768935 -0.34001297 -0.26694992
000060 37 36 0d 3e d8 25 87 be 0c 81 26 3e 6b 38 f1 bd
       0.13790213 -0.2639606 0.16260165 -0.11778339
000070 df 6f 90 3e 06 1e 37 bf 36 4d af be e7 db 83 be
       0.2821035 -0.7153019 -0.34238595 -0.2575371

cnn.2.BachNorm.running_var f4 [32]
000000 ea 69 64 3e 79 f0 0b 3e 15 25 c4 3e 4c cd 1b 3e
       0.22306028 0.13665952 0.3830954 0.15215033
000010 f1 f8 5a 3f 74 e0 19 3e 81 f0 35 3e da 2a 93 3f
       0.85536104 0.15027028 0.17767526 1.1497452
000020 c9 21 84 3e 58 a0 cc 3e 0b 96 3c 3e 00 21 50 3e
       0.25807026 0.39966083 0.18416612 0.20325089
000030 a4 c0 38 3e b9 f7 2f 3e 6f ee 8d 3e 24 eb a5 3f
       0.18042237 0.17184342 0.27720973 1.2962384
000040 52 bd a3 3e d7 ce 74 3e 91 a4 2f 3e 28 b9 09 40
       0.31980377 0.23907028 0.17152621 2.151926
000050 86 da 1a 3e b8 77 76 3f 85 2a 3f 3e f3 52 40 3e
       0.15122423 0.96276426 0.18668564 0.18781643
000060 9d 3a d8 3d 61 a6 a1 3e cf bb 62 3e 74 46 b7 3d
       0.105580546 0.3157225 0.22141956 0.08948985
000070 b2 57 16 3e 55 05 20 40 ee db 37 3f 66 6a 15 3e
       0.1468189 2.5003254 0.7181996 0.14591369

cnn.2.cnn.weight f4 [32, 16, 3, 3]
000000 1b fb 00 be 22 0d 4a 3c 3f 5a 3d bd 28 4b 3d 3d
       -0.12595789 0.012332233 -0.046228644 0.046214253
000010 e4 c7 aa bd fe 00 1b bd a6 20 b1 bd 1c 44 5c 3d
       -0.08338907 -0.037842743 -0.08648805 0.05377589
000020 de 5b bc bc 95 3c 74 3d 6f 78 93 3d 1d da fb 3c
       -0.022993024 0.059628088 0.07200705 0.030743653
000030 35 88 4e 3c 3c 9a a1 3d 36 3a 04 bd e4 12 93 3d
       0.0126057165 0.07890746 -0.032282077 0.071813375
000040 f5 2c 87 3c f8 40 92 3d be f9 99 3c 4a e9 e5 bd
       0.01650093 0.07141298 0.018795844 -0.11226137
000050 4d dd bc ba 9c 48 e5 bc 99 79 34 3d 51 ea 4d bd
       -0.0014409214 -0.027988724 0.044061277 -0.05027229
000060 a8 dd 42 bc f0 5b c1 3c ec 2d af bc df d3 09 bd
       -0.011893667 0.02360341 -0.021384202 -0.03364932
000070 b1 00 15 bd d5 70 3b 3d 38 53 50 3d 73 fb 51 3e
       -0.036377613 0.045761902 0.050860614 0.20506077
000080 79 78 49 3d 35 48 74 bb a6 6c 01 bd 7d 5c 06 bd
       0.049187157 -0.0037274484 -0.031597756 -0.032803047
000090 34 99 96 3d 62 96 3b 3d e5 f6 5d 3c 7e d2 12 3c
       0.0735344 0.045797713 0.013547634 0.008961318
0000a0 cf 4f c6 3d f3 73 83 3d 41 a4 3f 3c 54 df 57 bc
       0.09683191 0.064186 0.011696876 -0.013175804
0000b0 7b 8d 00 bd 3e 73 23 bd e6 a9 1e bd be 31 c1 bc
       -0.031384926 -0.039904825 -0.038736247 -0.02358329
0000c0 74 06 75 3d 39 e4 d6 bc aa 9a 24 bd 38 2f 71 3d
       0.059820607 -0.026231872 -0.04018656 0.058882922
0000d0 56 05 6e bd 5d 4f 85 bc ae 4f 2d bd e2 17 65 bd
       -0.058110557 -0.016273195 -0.042312317 -0.05593098
0000e0 2a 66 59 3d bf 9b 0c 3b 37 25 26 3d b7 13 e1 3c
       0.053075947 0.0021455137 0.040562835 0.027475221
0000f0 9f cd 31 ba 8e 7e 55 bd 4a dd 0c bd a4 f9 75 3d
       -0.0006782654 -0.052122645 -0.034390725 0.06005253
000100 2f 2b a4 bd 0a d1 15 bd 7c 24 12 3b a7 c7 00 bd
       -0.08016049 -0.03657631 0.0022299578 -0.031440403
000110 73 b1 ca 3c 49 ef b4 3c c6 43 67 bc 8c da ae 3d
       0.024742818 0.022086756 -0.01411528 0.08537778
000120 72 41 04 3e e3 29 5e 3d 13 2a 30 3d 3c 56 87 3d
       0.1291559 0.054239165 0.043008875 0.06608245
000130 2e d1 dd 3d f5 4a 13 3d 52 bc e5 3d 15 39 5b bc
       0.108309135 0.035960156 0.1121756 -0.013380309
000140 e6 b4 fc 3c 15 d2 d9 3a 22 d8 0b 3d 6f 9e bc 3c
       0.030847978 0.0016618395 0.034141667 0.023024766
000150 a4 01 ba bb 1b af 68 bd 7c b6 96 3d 19 84 4b 3d
       -0.005676465 -0.05680762 0.07359025 0.049686525
000160 1e 55 8c bc 5c 61 88 3d c7 30 d5 3d 0e c4 18 bd
       -0.01713043 0.06659195 0.10409694 -0.037296347
000170 db a4 f1 bb 0c 49 bd 3c 29 42 93 3d 95 31 20 bc
       -0.0073743886 0.02310612 0.071903534 -0.009777446
000180 1a 1c de bc 80 d2 42 bc 34 e1 de 3d 3e 2c a1 3b
       -0.02711301 -0.011891007 0.10882798 0.004918604
000190 99 cf 37 bd 42 21 3f bd 3f e7 72 bd 81 ae eb 3d
       -0.044875715 -0.046662576 -0.059302565 0.11507893
0001a0 f3 4d 48 3d f7 dd 05 bd 47 40 ab 3d 13 1a ad 3d
       0.048902463 -0.032682385 0.08361869 0.08452239
0001b0 5e 77 2e bc 7d 7f 1c 3d a4 99 0d 3d 25 25 98 3d
       -0.010648577 0.03820752 0.03457035 0.0742896
0001c0 77 e4 23 bd 5e 8a 74 bd 46 fb 22 3c b9 9a 4c bd
       -0.040012803 -0.05970227 0.009947604 -0.049952243
0001d0 fe a3 9a 3b 3f e4 70 3d 31 90 25 3d 1e dd 96 bd
       0.0047192564 0.058811422 0.040420715 -0.073663935
0001e0 94 2f de bd ff 7b ab bc 2a a1 2c 39 6f e8 36 3d
       -0.108489186 -0.02093315 0.00016463237 0.04465526
0001f0 a1 02 5c 3d 7b 13 d8 bc 01 71 80 bb c9 f0 3a 3c
       0.053713445 -0.026376477 -0.003919721 0.011409947
000200 7b 7b 80 bb 19 54 0b bc 71 1c 06 be 1e 8a 0f bc
       -0.00392097 -0.008503937 -0.13096787 -0.008760957
000210 9c 49 0c bc dd c2 fa 3a e1 41 06 3d 7b b6 a4 3d
       -0.008562472 0.001913156 0.03277767 0.08042618
000220 94 71 ac 3c d2 3c 9e 3d b6 65 d4 bc 39 1a ce 3c
       0.021050252 0.07726444 -0.025927406 0.025158988
000230 56 b1 2c 3d d6 74 2d 3d e9 59 19 3d 67 40 62 bc
       0.04216131 0.04234775 0.03743926 -0.0138093
000240 a9 f2 02 be 1e c4 43 3d 4e b3 27 bd 36 e0 58 bc
       -0.1278788 0.047794454 -0.040942483 -0.01323705
000250 7c 64 a5 bd ad 73 96 bd a5 71 96 3d 8e df 6b 3d
       -0.080758065 -0.07346282 0.07345895 0.057586245
000260 73 a6 c0 bc 25 7d 1a 3c fa fc f7 3c 5a 8f 3d 3d
       -0.02351687 0.009429251 0.030271996 0.04627929
000270 82 a7 f1 3d 2f a7 2c 3d 22 94 8f bd fc 2b da 3c
       0.11799528 0.042151626 -0.07010676 0.026632302
000280 05 bc 0e 3e 79 ab 43 3c a8 04 91 3d ce 8e 25 3d
       0.13938911 0.011942738 0.07080966 0.040419392
000290 f7 57 ab bd 5b ad 1a 3b 56 88 b2 3d 3c 3a bb bd
       -0.08366387 0.0023601863 0.0871741 -0.09141967
0002a0 28 d5 47 3c cb 35 d1 bc e0 f5 b1 bc 0c 3a ea bc
       0.0121968165 -0.025538346 -0.021723688 -0.028592132
0002b0 c1 06 ae bc 53 a7 72 3d 75 05 4d bc b9 99 d3 bd
       -0.021243455 0.059241604 -0.012513508 -0.10332055
0002c0 11 cd 87 3d 06 39 44 bd 75 ca 15 bd 88 65 4b 3b
       0.0663091 -0.047905944 -0.03657003 0.003103586
0002d0 9d f1 5e bb 0b 8e 90 bd 0c 81 af 3c dc 5c cf 3c
       -0.0034018524 -0.070583425 0.021423839 0.025312833
0002e0 cc a6 21 3d 9b 1f bc bc 71 79 45 3d 72 3f 9d 3c
       0.03946571 -0.02296429 0.04821152 0.019195292
0002f0 cf b3 56 bd 53 96 0e 3d 6e ee 5f bd 87 44 c5 bd
       -0.052417573 0.03481133 -0.054670744 -0.09632211
000300 fa c7 66 bd cd c9 b1 3d 80 d6 db bc 41 1c 73 3d
       -0.056343056 0.086810686 -0.02683568 0.059353117
000310 ad 46 49 bb c0 c1 2d bd 41 bd c6 bc 72 cd 6e bd
       -0.0030712292 -0.042421103 -0.024260165 -0.058301397
000320 f3 d0 10 3d 66 a0 67 bd 11 07 c7 bc 83 33 da 3c
       0.03535552 -0.056549452 -0.024295362 0.02663589
000330 6c f5 a8 bd d3 48 92 bd de e4 78 bc 27 28 65 bd
       -0.082499355 -0.07142796 -0.015191285 -0.055946495
000340 77 66 a7 3d 5a d5 7d bd e6 01 87 bd be 67 22 bc
       0.081738405 -0.061971046 -0.06592159 -0.009912429
000350 04 6d d3 3b 18 75 41 3d 7b f3 43 bd f5 61 e7 3c
       0.0064522047 0.04723081 -0.047839623 0.028244952
000360 fb 1d f1 3b 7c 37 4c 3d 46 47 42 3c 13 09 41 3d
       0.0073583103 0.0498576 0.011857813 0.047127794
000370 ad c0 29 3e 51 b6 b4 bd af 0f 05 3c 49 51 61 3d
       0.16577406 -0.088238366 0.008121415 0.05500916
000380 2c 03 97 bd 1c a6 bb bc 82 dc cc 3c 4e b2 ef bc
       -0.07373652 -0.022906356 0.02500749 -0.029259827
000390 8f ff 75 bd 67 b9 48 3c 0d 38 db 3c 8c 01 e9 bc
       -0.060058173 0.012251235 0.026760126 -0.02844312
0003a0 0d fd 80 3d 64 21 81 bd 31 fd a1 3d 9f 27 cb bb
       0.062982656 -0.06305197 0.079096206 -0.0061997916
0003b0 b4 24 81 bd 3f b0 ca 3d d4 ec d3 bb 90 07 56 bd
       -0.06305829 0.098968975 -0.006467441 -0.052253306
0003c0 ee 46 3e 3c 3a 6f d7 bb 2f 21 8f bd 20 f5 a9 bc
       0.011613591 -0.0065745385 -0.06988751 -0.020746768
0003d0 3c 7d 1f 38 8c ab 45 bb 45 79 8f 3d 26 72 2a 3d
       3.8025188e-05 -0.0030162064 0.07005552 0.041612767
0003e0 c3 d9 59 3c 6a fa 27 bd e7 f2 57 bd 14 0a 34 3d
       0.013296547 -0.041010298 -0.052721884 0.043954924
0003f0 25 f4 7f bd 2c 18 34 bd a3 85 37 bc 32 1d 38 bc
       -0.062488694 -0.043968365 -0.011201295 -0.011237429

cnn.2.cnn.bias f4 [32]
000000 86 46 2d 3d 3b dc fb bb 54 0e 9f 3c f9 80 8b bd
       0.042303585 -0.0076861656 0.019416012 -0.06811709
000010 07 40 7b 3d dd 4f 86 3d e2 30 4f 3d 70 99 10 3d
       0.061340358 0.065582015 0.050583728 0.03530258
000020 d7 37 a2 bd d8 50 98 3d b8 61 5f bd 41 f5 d9 3a
       -0.07920807 0.07437295 -0.05453655 0.0016628877
000030 ae 80 ea 3b d8 c7 34 3c e8 37 61 bc d4 54 e0 3c
       0.007156453 0.011033975 -0.013746239 0.0273842
000040 98 30 63 3d ca c7 3f bd 9c 56 19 bd b8 40 c1 3c
       0.055466264 -0.046821393 -0.037436113 0.02359043
000050 8c 4d fd bc 0c 69 7a 3d 73 fc 99 bd bc ff 36 bd
       -0.030920766 0.061135337 -0.07518854 -0.04467748
000060 de eb f1 bc f0 db 76 3a 3f fc 79 3d 29 0e 9c 3c
       -0.029531416 0.00094169285 0.061031576 0.01904972
000070 09 56 c0 bc 97 d1 00 bc 9b 6e 12 bd 7d eb a4 bd
       -0.023478525 -0.00786247 -0.035750013 -0.08052728

cnn.3.BachNorm.weight f4 [64]
000000 5d a1 82 3f 0a d9 7c 3f 5d f2 79 3f 5f 8e 77 3f
       1.0205494 0.98768675 0.9763544 0.96701616
000010 45 c6 7c 3f 04 d0 7b 3f 63 48 7e 3f 32 fd 83 3f
       0.98740035 0.9836428 0.99329203 1.0311644
000020 d6 51 78 3f 26 1f 83 3f e7 e5 81 3f fb a7 7a 3f
       0.9699987 1.0243881 1.0148286 0.9791257
000030 6c c4 79 3f 82 83 81 3f 73 f3 76 3f 8a bc 7a 3f
       0.9756534 1.0118258 0.96465224 0.9794394
000040 29 c2 85 3f b0 8d 80 3f 3d fd 82 3f ce 70 7c 3f
       1.0449878 1.004324 1.0233532 0.98609626
000050 98 a7 83 3f d2 c7 7b 3f 16 9b 7f 3f 26 53 74 3f
       1.028552 0.98351777 0.9984602 0.95439374
000060 ef 81 7d 3f 66 5c 82 3f e7 73 7d 3f a0 e5 7b 3f
       0.9902639 1.0184448 0.9900498 0.98397255
000070 7c 23 77 3f 13 00 7d 3f 88 49 87 3f b4 f6 7d 3f
       0.9653852 0.9882824 1.0569315 0.99204564
000080 b8 ca 78 3f 68 eb 78 3f a5 0d 7b 3f c6 25 7a 3f
       0.97184324 0.972342 0.98067695 0.9771389
000090 f9 9a 79 3f db cd 73 3f 5d c6 7b 3f 83 85 87 3f
       0.97502095 0.95235986 0.98349553 1.058762
0000a0 8e fb 78 3f c5 e7 81 3f 99 12 7a 3f 83 8e 7b 3f
       0.9725884 1.0148855 0.9768463 0.9826433
0000b0 07 cd 7f 3f 21 87 85 3f 2b 5f 7a 3f 9d e4 7a 3f
       0.9992222 1.0431863 0.97801465 0.98005086
0000c0 25 59 75 3f 63 be 7e 3f 80 9b 79 3f 53 51 7a 3f
       0.9583915 0.9950926 0.975029 0.9778034
0000d0 24 cc 86 3f aa 30 7e 3f 3b 96 83 3f 5f c1 87 3f
       1.0531049 0.99293005 1.0280222 1.0605887
0000e0 8a 33 7e 3f b2 52 74 3f 3c aa 78 3f 56 20 85 3f
       0.9929739 0.95438683 0.9713476 1.0400493
0000f0 ca e5 81 3f 69 e5 86 3f 79 ca 7d 3f 38 dc 7b 3f
       1.0148251 1.053876 0.99137074 0.983829

cnn.3.BachNorm.bias f4 [64]
000000 c1 40 a7 3b a2 24 15 bd 1c 18 8b bc 31 49 de ba
       0.005104155 -0.03641189 -0.01697927 -0.0016959069
000010 3c 3e d7 3a de 52 31 3a c7 e3 a3 bc 61 55 4b be
       0.0016421746 0.00067643623 -0.020006074 -0.19856788
000020 29 a4 06 3a cb de 85 3c 35 4c 9c 3c 88 11 a7 3b
       0.0005136156 0.016341588 0.019079307 0.0050985254
000030 04 98 dd bd 61 e8 d2 bc 24 27 05 be 27 da 05 bc
       -0.1082001 -0.025745573 -0.13003212 -0.008169687
000040 da 2d 6d bd f2 2f c6 bd 13 c6 90 bd 83 b1 c4 bb
       -0.057905056 -0.096771136 -0.0706903 -0.0060026064
000050 5b 9e da bc 36 78 13 39 d5 2f 2b bb 30 7b 42 bc
       -0.026686838 0.00014063795 -0.002612104 -0.0118701905
000060 06 eb 86 3b f3 69 e5 bd 11 55 13 bc 1d a5 c1 bd
       0.0041173724 -0.11201849 -0.008992449 -0.09455321
000070 4c 67 0d bb 84 4e b8 bd 37 96 e2 bd bf 12 60 bb
       -0.0021576462 -0.08999351 -0.110638075 -0.003419086
000080 9e 41 b0 bb ee 41 83 bb 8d 90 d0 b9 5f 65 c0 bc
       -0.005378916 -0.004005662 -0.0003978055 -0.023485838
000090 9b 46 b1 3b d4 28 fd 3a 31 c2 77 bd ef 54 fc b8
       0.005410028 0.0019314536 -0.06048793 -0.000120321165
0000a0 b3 66 48 3d f3 b8 4d bd 34 fa 7d bd fb 5a 2b bb
       0.048926067 -0.05022521 -0.06200619 -0.0026146758
0000b0 8b 46 21 bd 1b f4 49 bd d7 b7 af bb 61 fd aa 3a
       -0.039373916 -0.049305063 -0.0053624916 0.0013045484
0000c0 b0 3b 33 3b 40 f2 e4 3c fe 38 ce bc 28 c3 c4 bb
       0.002734881 0.027947545 -0.02517366 -0.0060047098
0000d0 d0 73 f6 bd 9c 7e b7 3c c3 81 f5 bc f4 1c f8 bc
       -0.12033808 0.02239924 -0.029969102 -0.030287243
0000e0 ca 57 86 3c 55 93 75 3b 70 87 7c 3c 10 c9 f7 3b
       0.016399283 0.003747185 0.01541315 0.0075618103
0000f0 84 dd e7 bc 6e 74 56 bb 88 47 58 3c c4 25 b3 bb
       -0.028303869 -0.0032723206 0.013200648 -0.0054671485

cnn.3.BachNorm.running_mean f4 [64]
000000 60 cb 86 bd 1b 4e cf 3d c8 7c 81 be 00 52 03 bf
       -0.065817595 0.10122319 -0.25290513 -0.51297
000010 ee b6 cf be 86 ac 04 3e 71 84 b3 bd 8d e4 28 be
       -0.40569252 0.12956437 -0.087654956 -0.16493435
000020 bb 5f e4 bc c0 9d d7 bd a4 ae 14 be 18 46 dd be
       -0.02787768 -0.10528135 -0.14519745 -0.4321754
000030 37 d7 1e 3e c4 14 a5 be 6f 5d 69 bd 0a c7 7a be
       0.15511785 -0.32242405 -0.05697387 -0.2448999
000040 85 de 36 be 89 a7 34 3d 7f 95 03 3e 4f 2c 99 be
       -0.17858322 0.044105086 0.12849997 -0.29916617
000050 22 51 89 bd 90 b4 0d bf 42 03 61 be 66 59 1b 3d
       -0.06704928 -0.5535364 -0.21973899 0.037927054
000060 b8 66 50 be 00 08 0a be 10 ec 9d be c4 ad 43 3e
       -0.20351684 -0.13479614 -0.30844164 0.19109255
000070 94 e7 c3 be a8 0e c4 be 2d 49 8d be 2e 2c 7e be
       -0.38262618 -0.38292432 -0.2759489 -0.2482154
000080 8b 59 c3 be a6 29 76 be fc 8f 8e be a7 f8 8c be
       -0.38154253 -0.24039325 -0.27844226 -0.27533457
000090 25 68 13 be 75 5f 13 bf bb 09 9b be 5a 37 99 be
       -0.14395197 -0.5756753 -0.3028086 -0.29925042
0000a0 77 e7 22 be 6f 00 80 3e 3c 19 39 bd a4 02 ff bd
       -0.1590861 0.2500033 -0.04519008 -0.124516755
0000b0 88 a6 28 bd d7 16 82 bc 25 68 d5 be e2 d5 14 bf
       -0.04117444 -0.015880032 -0.41681018 -0.5813886
0000c0 b5 30 c5 be 66 48 57 be fd 0f 24 bf af 12 15 bf
       -0.38513723 -0.21023712 -0.64086896 -0.58231634
0000d0 fb 86 94 3c 80 ef ad bc 85 44 ed be e8 9a d4 ba
       0.01813077 -0.021232367 -0.4634134 -0.0016220482
0000e0 ff 39 06 bf 92 1e cb be 82 35 b4 be e0 cc 88 3e
       -0.52432245 -0.3967176 -0.35197073 0.26718807
0000f0 99 0b 45 be 2f 7f 3e be d9 56 41 be af 26 54 be
       -0.19242705 -0.18603204 -0.18880786 -0.20717882

cnn.3.BachNorm.running_var f4 [64]
000000 e0 66 4e 3e 80 62 c2 3e cd 18 86 3e ae 52 2e 3f
       0.20156431 0.37965775 0.26190796 0.6809491
000010 f8 a3 a7 3e 88 ff c8 3e 41 ce 41 3e f7 d1 a2 3d
       0.32742286 0.39257455 0.18926336 0.07950204
000020 18 66 23 3f 8a e6 38 3e b0 e8 1f 3e 19 9f 01 3f
       0.6382766 0.18056694 0.15616107 0.5063339
000030 5d 36 90 3e 81 6c 54 3e 55 fe 90 3e a2 f0 65 3e
       0.28166476 0.20744516 0.2831904 0.22455075
000040 d0 a6 13 3e a6 84 0b 3e 8d cd 12 3e f3 ef 8c 3e
       0.14419103 0.1362482 0.14336224 0.27526817
000050 4c 09 ef 3d 42 b9 ee 3e a6 44 2c 3e 36 33 11 3f
       0.11671695 0.46625715 0.16823062 0.56718767
000060 b9 62 7e 3e 59 14 fc 3d 7e ca 88 3e 34 01 8a 3f
       0.24842347 0.123085685 0.2671699 1.0781617
000070 47 8d 27 3f 0d c1 ae 3e 38 6b f3 3d 4c 56 8b 3e
       0.6544995 0.3413166 0.11885685 0.27214277
000080 dd 6e 8d 3e ea 75 da 3e 11 d3 f3 3e 40 0f 95 3e
       0.27623644 0.42668086 0.47621968 0.29113197
000090 58 87 b9 3e 07 6a b2 3e 76 7e 53 3e 4b d9 46 3e
       0.36236072 0.34846517 0.2065371 0.19418828
0000a0 da d4 22 3f a2 35 0d 3e d2 23 6d 3e ee be 93 3e
       0.63606036 0.1378999 0.23158196 0.28856605
0000b0 dc b5 13 3e 9e 45 bb 3d d1 9a 80 3e 6c 8b c2 3e
       0.14424843 0.09144138 0.25118116 0.37996995
0000c0 a8 26 d1 3e f1 d3 2d 3e f5 07 f5 3e 4b a8 aa 3e
       0.40849805 0.1697538 0.47857633 0.33331522
0000d0 26 e5 44 3e c8 cb 05 3e ff d4 20 3e c1 6a 43 3e
       0.19228038 0.13066018 0.15706252 0.19083692
0000e0 a5 3f 8a 3e 50 cb 01 3f 00 49 0c 3f 74 f0 30 3e
       0.27001682 0.50700855 0.5479889 0.17279226
0000f0 f9 29 9e 3d dc 95 00 3e f1 ca 84 3e da f0 84 3e
       0.077228494 0.12557167 0.25936082 0.25965005

cnn.3.cnn.weight f4 [64, 32, 3, 3]
000000 9f 9c 28 bd f8 23 2c bd 43 ca 66 bb c2 2d 95 3c
       -0.04116499 -0.04202649 -0.0035215772 0.018210296
000010 e8 ad 1b bd f9 3c 66 bd 83 fb 1d 3d 94 37 67 bd
       -0.038007647 -0.05621049 0.03856994 -0.056449488
000020 69 f1 93 3b f4 dc 34 3c be 6a 3b bd fa 71 aa bd
       0.0045148623 0.011039007 -0.045756094 -0.083225206
000030 d0 11 01 bb b8 0a 6d bc df 05 1a 3d f7 9c f5 3c
       -0.0019694455 -0.014467888 0.037603255 0.029982073
000040 c1 dc 4c 3d 0e f8 97 3d 95 1a b9 3c a7 86 42 3d
       0.050015215 0.074203596 0.022595683 0.047491696
000050 5d c1 22 3d de a9 96 3c fa d0 f9 3c 39 0b 6b bd
       0.039735187 0.018391546 0.030495156 -0.05738375
000060 ab 53 88 bc 38 0a c7 3b d3 e3 f6 3c 50 6b af 3c
       -0.016641458 0.006074216 0.030137932 0.021413475
000070 1a 21 80 3c d6 a6 b8 3d 8e b0 c3 3c 35 a8 5e 3d
       0.015640784 0.090161964 0.023887899 0.054359633
000080 01 9b f3 bc 7a af c5 3c ee de c8 bc f4 19 dd 3c
       -0.029736998 0.024131525 -0.024520364 0.026989914
000090 54 8c 0b bd 00 0b 28 3a 8f a5 a7 39 25 05 2e 3d
       -0.034069374 0.00064103305 0.00031976073 0.042485375
0000a0 57 b0 45 3d d5 bc 1d 3d f2 9b 0f bb f4 7b 36 bc
       0.048263874 0.038510162 -0.002191302 -0.011137951
0000b0 d4 5e 57 3b 42 d6 b1 ba 30 f4 31 3b ff d7 61 3b
       0.0032862918 -0.0013567882 0.0027153604 0.003446102
0000c0 65 8f 15 bd 8c 25 31 bd 9a 44 a5 3c 92 70 1c 3c
       -0.036513705 -0.043248698 0.020174313 0.009548323
0000d0 92 c0 32 bd 33 4c d5 3c ee c8 90 bd a7 bc 2c 3d
       -0.04364068 0.026037311 -0.07069574 0.0421721
0000e0 08 dc 2a 3d 08 25 bd 3b 07 18 61 3d 75 82 65 3d
       0.041713744 0.0057722367 0.054954555 0.056032617
0000f0 c7 f2 0b 3d 83 1a 5d bd 07 67 12 bd e2 91 86 bc
       0.034167077 -0.05398036 -0.035742786 -0.016426984
000100 f3 fa 4b 3d 1f 82 0c 3d 20 f6 13 bd 08 b0 d0 bb
       0.04979987 0.03430378 -0.036123395 -0.006368641
000110 7c 44 11 3c 13 cf 53 bc 9b 2c 1e 3d ef 4a 59 3d
       0.008866426 -0.012927788 0.038616758 0.053049978
000120 3a b6 fd bc 1c 66 00 bd de 4c 9f bc e4 6a 1c bc
       -0.030970681 -0.03134738 -0.019445833 -0.009546969
000130 a1 d4 33 bd cc 45 18 3c 7c 08 f4 3c 02 d3 ee 3c
       -0.04390395 0.009293985 0.029789202 0.02915335
000140 68 06 89 bd 0c a0 f8 3b 5c 13 43 3c b0 b3 95 3b
       -0.06690675 0.0075874384 0.011906471 0.0045685396
000150 6c 08 43 bc 3c 3b 19 bd ed 6d 64 3d b2 6a 81 bd
       -0.011903863 -0.037410006 0.055768896 -0.06319179
000160 60 f9 e9 ba 22 26 b0 3c 24 5a 8e bd ed 1d 19 3d
       -0.0017850809 0.021502558 -0.06950787 0.037382055
000170 e3 4e 5b 3d db e7 f2 bc 99 98 63 bd 3e 42 c7 3c
       0.05354203 -0.029651573 -0.05556545 0.024323579
000180 41 c7 17 3d 27 ab 55 bd 28 47 8c bd 98 df 35 bd
       0.037055258 -0.052165177 -0.068495095 -0.04440269
000190 e0 44 87 ba 8f e9 6d bd 6e 49 52 bd 52 14 a7 3c
       -0.0010320209 -0.058084067 -0.05133956 0.020395432
0001a0 02 3a ad 3c 99 e6 78 bd 34 d0 6f bd 2b a8 f4 3c
       0.021145824 -0.06076679 -0.058548167 0.029865345
0001b0 89 40 01 3d 05 a5 70 3d 00 08 ae 3c 92 9a 35 bd
       0.031555686 0.058751125 0.02124405 -0.044336863
0001c0 cc e5 2e 3c b0 cb c7 bc 81 ca 4f 3c de d8 bf bc
       0.010674905 -0.024389118 0.012682558 -0.02341884
0001d0 af 24 8e bc cf 62 9d 3c 44 d8 55 bc 33 59 1a 3d
       -0.017351476 0.019212155 -0.01305205 0.037682723
0001e0 60 03 4a bc 15 27 48 3d a9 94 34 3d 12 c9 bd 3c
       -0.012329906 0.048865397 0.044087086 0.023167167
0001f0 6e 5a 15 bd fe d6 b9 3d ab 9d 03 3d 89 12 08 3d
       -0.036463194 0.0907421 0.032132786 0.0332208
000200 a9 d5 76 bb 36 30 c0 bc 00 1e de 3a 4b fc 3a 3d
       -0.0037663972 -0.023460489 0.0016946197 0.04565076
000210 cc 17 77 3c 32 ba c3 3c 02 d1 1d 3d 5e a0 e4 39
       0.015081357 0.023892496 0.038529404 0.00043607032
000220 96 2c a7 3c cd 06 13 bd 01 e7 08 bd 7e 81 ba 3c
       0.020407002 -0.035895158 -0.033423427 0.022766825
000230 f6 40 fa 3c 11 5f 16 3c 66 41 d3 3c eb 99 fd 3c
       0.030548554 0.009177939 0.02578802 0.030957183
000240 28 26 44 3c 55 04 4c 3d a6 9a 61 bd 41 b5 53 bd
       0.011971988 0.04980882 -0.055079125 -0.05168653
000250 19 4f 41 3d c4 b2 72 bc eb 59 70 bc 74 e0 0b 3c
       0.047194574 -0.014813129 -0.014669876 0.0085374005
000260 bc 6c b3 b9 76 67 ff bc 2d 6b 0e 3d bb ab 6c 3d
       -0.00034222554 -0.031177264 0.03477018 0.057780962
000270 68 f2 a1 bc 68 2f bd bc b2 25 28 bd 8f bb 61 bc
       -0.019768909 -0.023093894 -0.041051574 -0.013777628
000280 7b 52 2c 3d 68 67 94 3d a3 6e 26 3d 7e 21 9b 3c
       0.042070847 0.07246286 0.040632855 0.018936869
000290 c6 72 a4 bd 20 9c 61 bb 4f 46 66 3d 14 6a 9f bc
       -0.08029704 -0.0034425333 0.056219395 -0.019459762
0002a0 94 5c 4c 3d 98 cc c7 3b 3f c5 cd 3d e4 6c 89 bd
       0.049892977 0.0060973875 0.10047387 -0.06710222
0002b0 84 6f af bc a9 e6 a5 3b 6c 8a 70 bc e0 8e 38 bb
       -0.02141548 0.005062897 -0.01468144 -0.0028161332
0002c0 b8 5d b0 bb 96 1c dc bc 30 74 b0 bc 9d 13 21 3d
       -0.005382266 -0.0268691 -0.021539778 0.039325345
0002d0 ee 41 66 bd f7 91 0c 3d 33 6a 51 3d ae 78 e2 3c
       -0.05621522 0.03431889 0.05112667 0.027645435
0002e0 1b 57 6c bd 46 11 fd 3c a7 c1 e0 bc 5c a7 4f 3c
       -0.057700258 0.030892026 -0.02743609 0.012674179
0002f0 eb 74 8e bd 90 8c d0 bb f1 56 27 3d 32 63 a4 3b
       -0.06955894 -0.0063644126 0.0408544 0.005016708
000300 a8 15 bd 3b 95 1e f3 bc 6e 02 65 bd 0b a9 73 3d
       0.005770404 -0.029677669 -0.05591052 0.059487384
000310 4b 7a 1b 3d c6 82 8c 3d 1c 59 6b bd 0f f2 62 3d
       0.037958425 0.068608806 -0.05745803 0.055406626
000320 82 da 15 bd 80 2f 38 bd a3 c5 3f bd 45 24 12 bd
       -0.03658534 -0.044967175 -0.04681934 -0.03567912
000330 95 5e 1d 3d ec 79 7c bc 38 9e 2b 3d fa 5e 7d 3b
       0.03842028 -0.015409928 0.041898936 0.0038661347
000340 65 6b 48 bd ef c2 23 bd 3c 87 1d bd d6 6b 6d bd
       -0.048930544 -0.039980825 -0.038459048 -0.05796417
000350 06 8b e1 3c 77 48 fa bc 3b 89 68 3d 44 7a d8 3c
       0.027532112 -0.030552132 0.0567715 0.026425488
000360 66 6d 18 bd c8 b1 8c 3b 83 8e 29 bc 84 16 6f 3c
       -0.037213705 0.004293654 -0.010348919 0.0145927705
000370 f0 31 36 3b 9e c9 d1 bc 79 04 fe bc 4b 9d 1c 3d
       0.002780076 -0.025608834 -0.031007992 0.038235944
000380 bb 54 93 bd 2b 51 1a bd 5e 9c 16 bd 1c 1a 3c bd
       -0.071938954 -0.037675064 -0.036770217 -0.045923337
000390 50 01 39 3b 35 c3 5a 3d ad 09 1d 3d b5 8a 09 bd
       0.0028229542 0.05340882 0.038339306 -0.033579547
0003a0 41 81 06 3d fd 94 5a bc 6c fb a5 bc cc f0 6a 3c
       0.03283811 -0.013341186 -0.020261489 0.014339637
0003b0 00 ec ec bc 5e 3c 22 bd 61 44 55 bd a0 75 bb bc
       -0.028921127 -0.039608352 -0.052067164 -0.022883236
0003c0 eb 34 a6 bd 53 7b 20 bd 58 33 95 bd 16 ee 24 bd
       -0.08115562 -0.03918011 -0.07285184 -0.04026612
0003d0 61 f2 52 3d f4 ab 59 bd 5f 42 0d 3d 09 6a 10 3d
       0.05150068 -0.053142503 0.034487125 0.035257373
0003e0 72 4d b7 3c 6b 7b 84 3c 0e e6 f6 3c a2 30 fc 3d
       0.022375796 0.016172132 0.030138995 0.123139635
0003f0 44 77 3c bd a4 b0 7a 3c 89 9f 5d 3d 61 17 51 3d
       -0.046012178 0.0153009035 0.054107223 0.051047686

cnn.3.cnn.bias f4 [64]
000000 8d 54 02 3d 6c 2b 23 3b 34 35 1d bd e7 9d 1c 3d
       0.031818915 0.0024897708 -0.038380817 0.038236525
000010 c9 2d 8c 3c 1e 8e 5a 3d 5c 1b 74 3d 97 33 59 3d
       0.017111676 0.05335819 0.059596404 0.053027716
000020 20 94 09 ba 8d 7c a5 3c ea d6 35 bb ba af e1 bc
       -0.00052482076 0.020200992 -0.0027746507 -0.027549613
000030 df 29 ab 3c 9b e8 d9 3c 77 43 cb 3c dc 77 f7 bc
       0.02089399 0.026600173 0.024812443 -0.03020852
000040 ba 8b 19 bc 5b 02 10 bd e1 e1 a7 3b fc bb ba 3c
       -0.009371692 -0.035158496 0.0051233624 0.022794716
000050 65 4a 1a 3d d8 79 5e 3c 9c e6 48 bd eb 06 62 3d
       0.037668604 0.0135788545 -0.04904805 0.05518238
000060 eb cd bf 3c 73 cc 2f bd cb 2d 14 3c f4 6a 40 3d
       0.023413619 -0.042919587 0.009044121 0.046977
000070 bd 3f dc bc 73 f6 b4 3a 64 12 16 bd e4 18 9f 3c
       -0.026885862 0.0013806358 -0.036638632 0.019421048
000080 41 3a d6 3b 01 3f 13 3b 40 53 3c 3d ac 30 3b bd
       0.006537706 0.0022467973 0.04597783 -0.045700714
000090 ef eb 67 bd c9 f4 69 bc a0 aa 4c 3d b4 16 4a 3c
       -0.05662149 -0.014279553 0.04996741 0.012334514
0000a0 5f a7 9e bc dd 58 e1 3c d6 64 d7 3c f4 e5 ba 3c
       -0.019366918 0.027508194 0.0262932 0.022814728
0000b0 ac 4d d9 bc f2 bf dd 3a 38 4e 52 bd 0c 88 9b 3c
       -0.026526295 0.0016918166 -0.051344126 0.01898577
0000c0 b1 3c 52 3d 6e 80 ba 3c a5 73 33 bc 20 a7 5a bd
       0.05132741 0.022766318 -0.010952865 -0.05338204
0000d0 29 13 5f 3d ac cf ac 3b 3b e1 3d bd 77 05 4d 3d
       0.054461632 0.00527378 -0.046357375 0.05005404
0000e0 ce a8 0d bd c8 27 20 bd 30 bb 44 bc 68 eb 80 3c
       -0.034584813 -0.03910044 -0.01200752 0.01573725
0000f0 09 7b 68 bd e6 44 76 bd c1 47 67 3c 35 b7 ea 3c
       -0.05675796 -0.0601243 0.014116229 0.028651813

linear.0.0.weight f4 [80, 64]
000000 cd 76 1c 3d 98 25 06 be ca bc a2 bd 42 3a 95 bb
       0.038199235 -0.13100278 -0.07946165 -0.004554064
000010 8e f0 6d bb 0a 83 8e bc ef d0 11 3d 1e a9 40 bd
       -0.0036306712 -0.017396469 0.035599645 -0.047036283
000020 5d 8e a4 bc 73 f4 9e 3c 3a 25 07 be c2 ae 6d 3b
       -0.020087415 0.019403672 -0.13197795 0.0036267494
000030 27 7d 80 bd 32 75 06 3e 4a d2 68 bd e8 69 e9 bd
       -0.06273871 0.13130644 -0.056841172 -0.11397153
000040 32 ac e3 3c 5a 2e 7d bd bb cf 1f be a6 14 43 bb
       0.02779207 -0.061811782 -0.15606587 -0.0029766946
000050 bc 42 14 3c ce 8f 1e 3d f1 cf 18 3d 42 fa 16 3a
       0.009049114 0.03871136 0.037307683 0.0005759337
000060 48 b3 b9 bd c4 85 a2 bd 6d f4 f3 3c ae 73 ba 3c
       -0.09067398 -0.0793567 0.029779637 0.022760238
000070 29 e3 93 3d fd 87 14 3e cf 85 bf 3b c8 e0 d8 bd
       0.07221062 0.14505 0.0058448086 -0.105897486
000080 b8 fb 06 be 19 7e 86 bd 71 a1 36 bd 3b f9 31 3d
       -0.1318196 -0.0656702 -0.044587556 0.043450575
000090 39 20 85 3d fd 68 86 3d a7 91 01 be cd 7f c7 bc
       0.065002866 0.06562994 -0.12653218 -0.024352932
0000a0 61 d2 a3 bc 90 49 ec bc 45 f3 0b 3d d7 0f b5 bc
       -0.019997777 -0.028843671 0.034167547 -0.02210228
0000b0 6e fb a4 3d 4a 49 03 3e 88 42 5c 3d 31 7b 7f bd
       0.08055769 0.12820926 0.053774387 -0.062373344
0000c0 94 83 5b bd eb e4 2a bd a2 7b 8c 3d de fe e7 bd
       -0.05359228 -0.04172222 0.068595186 -0.11327909
0000d0 f3 9b 8a 3d 65 22 0a 3d 25 b9 29 be a5 30 1b be
       0.06768026 0.033724207 -0.16574533 -0.15155275
0000e0 64 6c 72 3d 10 94 9b 3d fe 2f 37 bd bb 85 0d be
       0.0591854 0.075966 -0.044723503 -0.13820545
0000f0 ce 02 42 3d 79 b2 1c bd fc 5f 4f 3d 00 8b b2 3d
       0.047365956 -0.038256142 0.050628647 0.087179184
000100 12 10 ab bd b9 e5 01 bd 21 bd 31 bd 68 88 ec bd
       -0.083526745 -0.03171322 -0.043393258 -0.11549455
000110 b1 dc 50 bd 5e 55 6b bd 27 06 7c 3d f2 f7 50 bc
       -0.050991718 -0.05745446 0.061529305 -0.012754427
000120 c4 bc b1 bd 14 00 a1 3d 74 f6 05 be 84 d9 11 bc
       -0.08678582 0.07861343 -0.13082296 -0.008901957
000130 0f 75 22 3d b1 1b a7 3c 85 da d8 bd e0 8b 0d be
       0.039662417 0.020398946 -0.10588554 -0.1382289
000140 c5 d3 f8 3d fc 8c b6 3d 17 68 81 bd 44 fa 53 3c
       0.12149767 0.089136094 -0.06318682 0.012938086
000150 75 5f 53 bd 5e 72 87 bd 2b f0 48 bd 9b ad d9 bd
       -0.051604707 -0.06613611 -0.049057167 -0.10628816
000160 75 05 5d 3d 94 37 c2 ba 7d 7b e8 bd 15 df fa bd
       0.053960282 -0.0014817589 -0.113516785 -0.12249581
000170 54 57 13 be 06 85 ec 3c 1a 52 69 bd ec 2e cf 3c
       -0.14388782 0.028872024 -0.056963064 0.025290929
000180 96 aa ad 3d 6c a3 fa bd 62 56 c4 bd b5 06 98 3d
       0.08479802 -0.122382015 -0.09586789 0.07423154
000190 3f e6 14 be ac 59 f6 3c 05 75 63 bc d1 9a ff 3d
       -0.14540957 0.030072056 -0.01388288 0.12480701
0001a0 25 3a 4d 3d 34 c9 ac 3d b6 2d b3 3d 31 ff ba bb
       0.05010428 0.08436814 0.08748953 -0.0057066907
0001b0 c3 0b 0e bd e9 da df bb c5 02 c3 bd 51 9f 06 3e
       -0.034679186 -0.006831516 -0.095220126 0.13146712
0001c0 7a 0b c2 3d ce 6c 2d be 9b 4e bd 3d e6 94 90 3c
       0.09474845 -0.16936037 0.092435084 0.017649125
0001d0 28 82 09 bb 6c be d5 3d 23 17 cb 3c 3f 84 1f be
       -0.002098212 0.10436711 0.024791306 -0.15577792
0001e0 2b 20 c7 3d 60 68 06 bd 63 f0 12 be 6a 0f 3b bd
       0.097229324 -0.032814384 -0.14349513 -0.045668997
0001f0 d0 f2 43 bd ac 16 8c 3d e6 44 4a 3d 21 91 d9 bc
       -0.047838986 0.06840262 0.049382113 -0.02655846
000200 33 1b c6 3d 3b b3 07 be 56 cc d3 3d d5 7e 12 be
       0.096731566 -0.13251965 0.10341708 -0.14306195
000210 c0 7f e6 3c 64 d2 37 bd a3 dc ca bd 11 56 94 bd
       0.028137088 -0.04487838 -0.09905364 -0.07242978
000220 f5 85 5e bd 82 9e 7b bc 2b 2e 13 3e a8 96 1f bd
       -0.05432697 -0.015357615 0.1437308 -0.038962036
000230 c5 ad d6 bc 69 06 a4 3d 3a 15 0d 3e 02 a6 ae bc
       -0.026205907 0.08009035 0.13777629 -0.021319393
000240 5e 08 94 bd 92 a2 4b bd ae 78 9e bd 71 f6 b1 b9
       -0.072281584 -0.049715586 -0.077378616 -0.00033943684
000250 5e 67 a0 3c 56 28 e9 bb a6 30 21 3e 8e 30 fe 3d
       0.01958054 -0.007115404 0.15741214 0.12411605
000260 05 ed 92 3d 7a 75 ef 3d 15 2b 46 3d ac 3b 12 bc
       0.07174114 0.11692329 0.04838093 -0.00892536
000270 58 30 cc 3c ed 1e 06 3b 7b 0d 86 3c 7b 14 5a bc
       0.024925396 0.002046521 0.01636385 -0.013310547
000280 87 21 a1 bc d4 24 15 3b 80 0a 94 bd 14 3d 77 bd
       -0.019669307 0.0022757547 -0.07228565 -0.060360983
000290 3e 57 71 bd 15 83 a3 3d 4e 8d ca 3d 1c bb b2 3c
       -0.05892109 0.07983986 0.09890233 0.021817736
0002a0 a6 08 06 be 4d 8a 26 3e c3 56 9f 3c fd a5 ae 3d
       -0.13089237 0.16263695 0.01945055 0.085277535
0002b0 d7 ae 62 3d 3b dd 46 3d 16 27 02 3d 87 84 ae 3d
       0.05534252 0.048550826 0.031775557 0.08521371
0002c0 41 e6 de 3d a8 90 60 bd 5f a8 8b bc 9d 3a f1 3c
       0.10883761 -0.054825455 -0.017048059 0.029446894
0002d0 46 4b 4d 3d 69 35 d3 3a 57 4b 0e bd 4c 7b 9f 3d
       0.050120614 0.001611394 -0.03473982 0.07787189
0002e0 ee 4a bd bc c8 8c 8f 3d 2a f8 30 bc b5 65 c0 bb
       -0.023107018 0.07009274 -0.010801354 -0.0058714994
0002f0 91 47 38 3d 88 20 16 3e 78 ef c5 bd 9f 31 ac 3c
       0.044990126 0.14660847 -0.09664816 0.021019755
000300 c9 34 04 bd 98 5d 92 3d 91 6e 8c bd 3f d7 10 3e
       -0.032276902 0.07146758 -0.06857026 0.1414461
000310 b3 b7 15 be cb 74 81 3d 64 d0 3a be 65 a3 d9 3c
       -0.14620857 0.063211046 -0.18243557 0.02656717
000320 14 c2 4e bd 37 a1 38 bd 37 3f cd bd 48 da b5 bc
       -0.050478056 -0.04507562 -0.10021823 -0.022198811
000330 f1 4b c7 3c a6 9c 89 bd a0 6b 9e bc 15 b1 16 bd
       0.024328204 -0.067193314 -0.019338429 -0.036789972
000340 4b 0b e3 bd 15 a0 a3 3b 52 e1 ab bd b7 53 90 bd
       -0.11086138 0.0049934485 -0.08392586 -0.07047217
000350 8d a2 15 3c 2f 41 9a 3c 73 ee 6d bd 67 d5 35 bd
       0.009132993 0.01882991 -0.05808873 -0.04439297
000360 2c 43 0e 3c fe e9 6d 3d 03 14 8f bd a8 57 6d 3c
       0.008683007 0.05808448 -0.06986239 0.014486231
000370 c3 d8 21 3d b1 0b 18 bc 2f 7e fb 3d ed 9f be bd
       0.03951336 -0.009280131 0.12279927 -0.09307847
000380 18 79 8c bd 02 4d 04 3e 3e 31 35 bd 3a 9d 23 3d
       -0.06859034 0.12920001 -0.044236414 0.039944865
000390 8e f6 8a bd fa 6c a4 bc 1e b6 07 3d a0 8d 14 bd
       -0.06785308 -0.020071495 0.033132665 -0.036267877
0003a0 3d 1a af 3d 61 cf ac 3c d0 fe f4 3c 26 85 07 bd
       0.085499264 0.02109498 0.02990666 -0.033085965
0003b0 2a 76 67 bd fd 2a 00 be f7 b4 b0 3d f7 d9 2c 3d
       -0.056509174 -0.12516399 0.08628266 0.042200055
0003c0 b2 5c 5c bd 7e 44 b4 3d 0b 7c 97 3c 19 3b 62 bd
       -0.05379934 0.08802126 0.018491765 -0.05523214
0003d0 a6 0a c6 ba 68 7c c6 bd 55 38 81 3d 68 90 c5 bd
       -0.0015109375 -0.09691697 0.063095726 -0.09646684
0003e0 ee f6 f8 bc 49 6f 8a bd ea 1f f2 3c 7b f2 af bc
       -0.030391183 -0.06759507 0.029556233 -0.021477928
0003f0 f7 08 92 bd 4e cc 30 bc 0b 78 d7 bc f6 79 f4 bd
       -0.07130616 -0.0107908975 -0.026302358 -0.11937325

linear.0.0.bias f4 [80]
000000 6f 3b df bd ba da 23 bd 15 af b6 bb d0 fb f1 3d
       -0.10900008 -0.040003516 -0.0055750706 0.118156075
000010 4f 34 ff bd 1d 6a be 3c 0e 93 81 3c 5d f8 a5 3d
       -0.12461149 0.023243958 0.015817191 0.08104012
000020 69 4d 2d bd 02 a3 05 bd 78 f5 1f 3d 16 93 f1 3d
       -0.042310152 -0.03262616 0.039052457 0.117956325
000030 26 9f e5 bc 2f 41 cc bc d5 1a 44 bb 87 a8 60 3d
       -0.02802999 -0.024933426 -0.002992322 0.05484822
000040 ca 7b 9c 3c 95 b2 a3 bd 8b ac 14 bd bc fd b7 3d
       0.019101996 -0.07993046 -0.036297362 0.08983943
000050 78 4b 46 bd 82 03 c4 bb b2 1b 3e 3d 92 1a a0 3d
       -0.048411816 -0.0059818635 0.04641313 0.07817568
000060 10 14 e4 bd da 7f fb 3d 64 7b 2d bd 8a 0f 98 bd
       -0.11136639 0.12280245 -0.042354003 -0.07424839
000070 e2 3f 98 bd 9f 91 77 bd db 04 33 bd cc 56 a5 bb
       -0.0743406 -0.06044161 -0.043705802 -0.0050457474
000080 46 94 31 ba 42 b5 f5 3c b7 d0 46 bd 37 3b 3c bd
       -0.00067741086 0.029993657 -0.04853889 -0.04595491
000090 eb 3b 62 bd 9a 8c fe ba d0 3f 31 bd 8f ce 72 3d
       -0.055232923 -0.0019420565 -0.043273747 0.05927902
0000a0 71 57 db bd b2 3a f8 bd cc 98 9e 3d b7 a3 7d 3d
       -0.107100375 -0.1212057 0.077439874 0.06192371
0000b0 fc 7c ad bc a8 93 71 3c 67 d9 c9 3c 72 a7 f8 bd
       -0.021177761 0.014744677 0.024639798 -0.12141313
0000c0 09 ea c5 bd b8 37 ad ba 36 00 ab 3d 56 f5 a3 bd
       -0.09663779 -0.0013215458 0.083496496 -0.080057785
0000d0 d5 63 80 3d 84 da 04 3d 4c 08 d0 bd e2 fe ba 3d
       0.062690414 0.032434955 -0.101578325 0.09130646
0000e0 4b d5 0d bd 38 cf e2 3d f1 f2 d9 3d 62 f4 f5 bd
       -0.03462724 0.1107468 0.106420405 -0.12009503
0000f0 10 69 e0 3d 40 53 a3 bd 70 c6 85 3d 53 69 98 bd
       0.10957539 -0.07974863 0.065319896 -0.07441964
000100 f1 34 2c 3d 2c f7 61 bc d3 61 eb bd b4 1f d8 bd
       0.042042676 -0.0137918405 -0.11493268 -0.10552922
000110 e0 da b6 3c 94 19 2a bc 04 3f ff 3d ee 53 f1 3d
       0.022321165 -0.010382075 0.12463191 0.117835864
000120 c1 24 80 bd 39 e0 a2 3c 26 21 bb bd a6 34 9e 3d
       -0.0625701 0.019882308 -0.09137182 0.07724886
000130 7c c4 d3 bd 16 a6 dd 3d 11 7a 80 bd d0 6f fa 3b
       -0.10340211 0.10822694 -0.06273282 0.0076427236
