AutoEncoders/saved_model/model_nocon.pth (torch, 96189 bytes, 44 tensors)

encoder_faltten.0.BachNorm.weight f4 [10]
0	0x3f6d38e2	0.9266492
1	0x3f8cf9a0	1.101368
2	0x3f57e2ff	0.84330744
3	0x3f932bc9	1.1497737
4	0x3f720a96	0.945474
5	0x3f8d6cc3	1.1048816
6	0x3f8df1cb	1.1089414
7	0x3f5bc24d	0.85843354
8	0x3f82c8af	1.0217494
9	0x3f7551e3	0.95828074

encoder_faltten.0.BachNorm.bias f4 [10]
0	0x3e18b619	0.14913215
1	0x3dc1f726	0.09470968
2	0x3e7a0836	0.24417195
3	0x3d0558cd	0.03255539
4	0x3e59a466	0.2125412
5	0x3dfc2ee0	0.12313628
6	0x3e0b3447	0.13594161
7	0x3ed5af99	0.41735533
8	0x3ecbcfd0	0.39806986
9	0x3f0456b1	0.5169478

encoder_faltten.0.BachNorm.running_mean f4 [10]
0	0x3e30d6f8	0.17269504
1	0x3e9d926b	0.3077577
2	0xbe99e137	-0.30054638
3	0x3eb39cf0	0.3508067
4	0x3de28088	0.11059672
5	0xbe08e3c3	-0.13368134
6	0x3ea98791	0.3311124
7	0x3ddf4473	0.109017275
8	0xbce00439	-0.027345764
9	0xbdafe9ae	-0.08589493

encoder_faltten.0.BachNorm.running_var f4 [10]
0	0x3e4e1dd5	0.20128568
1	0x3f3e39b5	0.74306804
2	0x3eba7a53	0.3642145
3	0x3f0688e4	0.5255263
4	0x3e909ac3	0.28243074
5	0x3f1a44ae	0.60261047
6	0x3f88495d	1.0647389
7	0x3eb7fd18	0.35935283
8	0x3ec8d3b7	0.39224026
9	0x3f9b345d	1.2125355

encoder_faltten.0.cnn.weight f4 [10, 1, 3, 3]
0	0x3dfd8656	0.12379138
1	0xbd981210	-0.0742532
2	0xbde18a5f	-0.1101272
3	0x3c46c42f	0.012131735
4	0x3c2315a1	0.009953887
5	0xbe726f7d	-0.23675342
6	0x3ecc6b45	0.3992559
7	0x3e2f0de4	0.17095143
8	0xbe1876ed	-0.14889117
9	0xbcc6168d	-0.024180675
10	0xbe130c3a	-0.14360133
11	0xbee83f28	-0.45360684
12	0xbded3228	-0.11581832
13	0x3df595c1	0.11991454
14	0xbd28d123	-0.041215073
15	0xbddb9bd7	-0.107230835
16	0xbdbf7f70	-0.09350479
17	0xbe90f0df	-0.2830877
18	0x3ed5ba63	0.41743764
19	0x3e5e05a1	0.21681835
20	0x3e785ba2	0.24253705
21	0xbd241e94	-0.040068224
22	0xbe360fd8	-0.17779481
23	0x3dd2c4db	0.102914535
24	0x3da4d610	0.08048642
25	0xbe360b3d	-0.17777725
26	0xbea6aa3e	-0.3255176
27	0xbe1daf48	-0.15398896
28	0x3e7f107c	0.24908632
29	0x3e72a752	0.2369664
30	0xbe385a59	-0.18003215
31	0x3d18cded	0.03730576
32	0x3d34a7f4	0.044105485
33	0xbe961d8e	-0.29319423
34	0xbeaa1277	-0.33217213
35	0xbea2cd1c	-0.3179711
36	0xbde61852	-0.112351075
37	0xbe3653ad	-0.17805357
38	0xbe2b2b93	-0.16715841
39	0xbcb36f39	-0.021903621
40	0xbe09403a	-0.13403407
41	0xbcf4208d	-0.029800678
42	0x3dc22ceb	0.09481224
43	0x3e88cdde	0.26719564
44	0x3ed32d7a	0.41245633
45	0x3e1c3b22	0.15256932
46	0xbd7e707f	-0.062119003
47	0xbe41d52b	-0.18928973
48	0x3ea3a75c	0.31963623
49	0xbdbcd67f	-0.092205994
50	0xbdb80231	-0.08984793
51	0xbe398c13	-0.1811984
52	0xbe991c4f	-0.2990441
53	0xbea7cd4d	-0.3277382
54	0xbf0a5d4f	-0.5404863
55	0xbe924d27	-0.28574488
56	0x3d2eaaec	0.042643473
57	0x3d7fa181	0.06240988
58	0x3d139319	0.036028955
59	0xbe8b86fa	-0.27251416
60	0x3cbc41ba	0.02298056
61	0xbdefcc02	-0.11708833
62	0xbea8148d	-0.3282818
63	0x3a843383	0.0010086152
64	0x3dc4e7cf	0.096145265
65	0xbea6b5e4	-0.32560647
66	0x3e4c084d	0.19925041
67	0x3ebf1580	0.3732109
68	0x3e928c0a	0.28622466
69	0xbaa0b8c4	-0.0012262096
70	0xbe297e85	-0.1655217
71	0x3e57d323	0.21076636
72	0xbdc1724c	-0.094456285
73	0x3df85be9	0.121269055
74	0x3ebd4157	0.36963913
75	0xbe330043	-0.17480569
76	0x3d896be8	0.067100346
77	0x3ea4ce0a	0.32188445
78	0xbd018393	-0.03161962
79	0x3d292baa	0.041301407
80	0xbd06d7fb	-0.03292082
81	0x3decf848	0.115707934
82	0x3e4cbd1e	0.19994017
83	0x3e0da109	0.13830961
84	0x3e8c4682	0.27397543
85	0x3dbd4af2	0.0924281
86	0xbe543ddc	-0.20726722
87	0x3ea05fb9	0.3132303
88	0x3ea6b23a	0.3255785
89	0x3e138516	0.14406237

encoder_faltten.0.cnn.bias f4 [10]
0	0x3e2f6ff8	0.17132556
1	0x3e9ed098	0.3101852
2	0xbe999d5b	-0.30002865
3	0x3eb332b5	0.34999624
4	0x3ddfe5bd	0.10932491
5	0xbe088cd5	-0.13334973
6	0x3eaa98ba	0.33319646
7	0x3dda920c	0.106723875
8	0xbcd08eec	-0.025458775
9	0xbdac85e9	-0.08423979

encoder_faltten.1.BachNorm.weight f4 [16]
0	0x3fa555e1	1.2916833
1	0x3f8bf7fa	1.0935051
2	0x3f64e4c3	0.8941156
3	0x3f87da5b	1.0613512
4	0x3f7a56dd	0.9778879
5	0x3f7dc4ed	0.9912861
6	0x3f7dbc12	0.991151
7	0x3f8d8525	1.1056257
8	0x3f68cb3c	0.9093511
9	0x3f718d46	0.9435619
10	0x3f67f1a1	0.9060307
11	0x3f6f4819	0.9346939
12	0x3f608cc1	0.87714773
13	0x3f8b4934	1.0881715
14	0x3f70b2fd	0.94023114
15	0x3f8407f7	1.0314931

encoder_faltten.1.BachNorm.bias f4 [16]
0	0x3c455764	0.012044761
1	0x3a8962ad	0.0010481678
2	0xbd95ebc6	-0.07320361
3	0xbc35fe4d	-0.011107993
4	0xbcfa0e79	-0.03052448
5	0xbd9308e8	-0.07179433
6	0xbba50346	-0.0050357906
7	0xbb964a35	-0.004586483
8	0xbcbad42a	-0.022806246
9	0xbd52267d	-0.051306237
10	0xbd738875	-0.059456307
11	0xbd21d3d6	-0.039508663
12	0xbd217682	-0.03941966
13	0xbc231a74	-0.009955037
14	0x3d0943f4	0.03351207
15	0x3d9f3313	0.077734135

encoder_faltten.1.BachNorm.running_mean f4 [16]
0	0xbf25fb5c	-0.6483667
1	0x3e5c0d68	0.21489489
2	0x39bfa2a3	0.00036551533
3	0xbe0409fa	-0.12894431
4	0xbe4681b1	-0.19385411
5	0xbe103d96	-0.14085993
6	0x3f261fee	0.6489247
7	0xbea68dae	-0.32529968
8	0x3f1a1e11	0.6020213
9	0x3f4daf16	0.80345285
10	0xbeed05fd	-0.4629363
11	0xbe9e0b6c	-0.3086809
12	0x3e96fb16	0.29488438
13	0x3e5d3f4e	0.2160618
14	0x3f668892	0.9005214
15	0x3f4f2e68	0.80930185

encoder_faltten.1.BachNorm.running_var f4 [16]
0	0x3fb00fd7	1.3754834
1	0x3f58a732	0.8463012
2	0x3f02d870	0.5111151
3	0x3fd4bd9a	1.6620362
4	0x3f674c69	0.9035097
5	0x3fd06e0d	1.6283585
6	0x3f0e0af0	0.5548544
7	0x3fd279c5	1.6443411
8	0x3f5b6da4	0.85714173
9	0x3f3bfbb9	0.73430973
10	0x3f2e51cf	0.6809358
11	0x3f76bc86	0.96381414
12	0x3f107670	0.5643072
13	0x3f900c65	1.1253783
14	0x3f7143e7	0.94244236
15	0x3fb69e7d	1.4267117

encoder_faltten.1.cnn.weight f4 [16, 10, 3, 3]
0	0xbc029085	-0.007969026
1	0xbd8987e0	-0.06715369
2	0x3b409e51	0.002939124
3	0xbdf8eb21	-0.12154222
4	0xbcb66178	-0.022263274
5	0x3e1a2aa4	0.15055329
6	0xbd93a80e	-0.07209788
7	0xbe27aa7c	-0.16373628
8	0xbe0f6d26	-0.1400648
9	0x3e22dd3d	0.15904708
10	0x3e3a3690	0.18184876
11	0x3d7d540f	0.061847743
12	0x3c026712	0.007959144
13	0x3dbd37e1	0.09239174
14	0x3da5db82	0.080985084
15	0x3d8770f4	0.06613341
16	0x3e2ee688	0.17080128
17	0xbbd0bed9	-0.006370407
18	0x3d93e632	0.07221641
19	0x3c27f43a	0.010251099
20	0xbdf4730d	-0.11936007
21	0xbb526549	-0.0032103828
22	0x3c35bfc8	0.0110930875
23	0xbdad63c6	-0.08466296
24	0xbc0b8c17	-0.008517287
25	0x3dbd598b	0.092455946
26	0xbd8a8a1e	-0.06764625
27	0xbe28ce95	-0.16485055
28	0x3dd02f36	0.10165255
29	0x3d95920d	0.073032476
30	0x3bd3ad98	0.006459903
31	0x3d00a42d	0.03140657
32	0x3cbcf429	0.023065643
33	0x3d9d74fd	0.07688329
34	0x3dce82d0	0.10083544
35	0xbcd963b5	-0.026536802
36	0x3cb071d3	0.02153865
37	0x3db0f0d6	0.08639686
38	0x3c991cb7	0.01869045
39	0x3cbb077b	0.022830715
40	0x3e02d59e	0.12776801
41	0xbddce8a6	-0.10786562
42	0xbda6813f	-0.081301205
43	0xbd28f72b	-0.041251343
44	0x3d97be1f	0.074093096
45	0x3d6537da	0.055961467
46	0xbc751f74	-0.014961112
47	0x3d162bb8	0.036662787
48	0xbe282e40	-0.16423893
49	0xbd817642	-0.06321384
50	0x3e1ba6bc	0.15200323
51	0xbc9f9386	-0.019479524
52	0x3b8bb40d	0.004263407
53	0x3dae8b43	0.08522656
54	0xbc314a4a	-0.010820935
55	0xbbea6dfb	-0.007154224
56	0xbd3b53d4	-0.04573424
57	0xbd38fc37	-0.045162406
58	0x3d0b429b	0.033999067
59	0x3d044079	0.03228805
60	0x3dd04d04	0.101709396
61	0x3de1509f	0.110017054
62	0xbca776f2	-0.02044246
63	0x3bee830c	0.0072788056
64	0xbbce68a3	-0.0062990948
65	0xbd8e2f00	-0.06942558
66	0xbd76f932	-0.060296245
67	0x3ddd4396	0.108039066
68	0xbdc52e39	-0.09627957
69	0xbd9859cb	-0.07439002
70	0xbd0926d6	-0.033484302
71	0xbe10793e	-0.1410875
72	0xbd60dd0f	-0.054898318
73	0xbe305ed8	-0.1722368
74	0xbe12af4a	-0.1432468
75	0xbda0b5d5	-0.07847182
76	0xbcf5e2e5	-0.030015418
77	0xbdd0c042	-0.1019292
78	0xbdd23d3f	-0.10265588
79	0xbdcb0d82	-0.09914686
80	0xbddcf09e	-0.107880816
81	0x3d06f35c	0.03294693
82	0xbd93583b	-0.07194563
83	0xbd97aff9	-0.07406611
84	0xbd73aa9d	-0.05948888
85	0xbd392a5c	-0.045206413
86	0xbb972427	-0.004612464
87	0xbdcd0d39	-0.10012288
88	0xbd80b380	-0.06284237
89	0xbd5de286	-0.054171108
90	0xbdb03e93	-0.08605685
91	0xbcb41a18	-0.021985099
92	0xbc489849	-0.012243339
93	0x3d11060a	0.03540615
94	0xbd4a8b30	-0.049449146
95	0xbd82bafb	-0.0638332
96	0xba60c00e	-0.000857354
97	0xbd383a1f	-0.044977304
98	0x3d6a5e44	0.057218805
99	0x3dfe4466	0.1241539
100	0xbce2f08f	-0.027702598
101	0x3c8f0bbc	0.01746165
102	0x3d31228a	0.04324583
103	0xbd0c54b0	-0.03426045
104	0x3dda6329	0.106634445
105	0x3e004683	0.12526898
106	0x3cde7ef1	0.02716014
107	0xbc1eb35d	-0.009686318
108	0xbd2971f1	-0.04136843
109	0x3e06dc5b	0.13169996
110	0x3e15f7a7	0.14645253
111	0x3dd237e0	0.102645636
112	0x3db5be6b	0.0887421
113	0x3dca1f1e	0.098692164
114	0xbdcdf7f2	-0.100570574
115	0x3c85a922	0.016316
116	0xbd69d817	-0.057090845
117	0x3e24bb78	0.16087139
118	0x3e1e4405	0.15455635
119	0x3e15c524	0.14625984
120	0x3c078780	0.008272052
121	0xbb8d4370	-0.0043110177
122	0x3c51a0dd	0.0127947
123	0x3e16552a	0.14680925
124	0xbd89e05e	-0.06732248
125	0x3e06f164	0.1317802
126	0x3d90925c	0.07059166
127	0xbda4c405	-0.080452
128	0xbc6492e3	-0.013951036
129	0xbd0284f1	-0.031865064
130	0xbd4e0ca7	-0.050305035
131	0xbe164ebf	-0.14678477
132	0x3bf3ac8a	0.0074363397
133	0x3ce50f11	0.027961286
134	0xbe54e9e6	-0.2079235
135	0x3cc3eaf0	0.023915738
136	0xbdc32f3b	-0.09530493
137	0xbd1089c0	-0.03528762
138	0xbdf23b32	-0.11827697
139	0x3dbdedef	0.09273898
140	0x3d81d9d1	0.06340373
141	0x3d23807f	0.039917465
142	0xbd079700	-0.03310299
143	0x3d1d3fe2	0.038391
144	0x3d198c2b	0.03748719
145	0xbd00190d	-0.03127389
146	0x3d871be9	0.0659712
147	0x3d5b40b3	0.0535285
148	0x3d0dd885	0.034630317
149	0x3b8d8589	0.004318897
150	0x3e16bf0e	0.14721319
151	0x3ccb6e5d	0.024832899
152	0xbdddaeba	-0.10824342
153	0x3d18dca8	0.03731981
154	0x3d518412	0.051151343
155	0x3dcdc1e6	0.10046749
156	0x3d7373a1	0.059436444
157	0xbcd6b972	-0.026211474
158	0xbdf9fccd	-0.12206421
159	0xbdc34686	-0.09534936
160	0xbdf64cc2	-0.12026359
161	0xbdeecc6f	-0.11660086
162	0xbd20c026	-0.039245747
163	0x3da01e88	0.078183234
164	0x3dd700b4	0.10498181
165	0xbcb9488c	-0.0226176
166	0x3b413959	0.0029483645
167	0xbd840a7b	-0.064473115
168	0xbe0c44ca	-0.13698116
169	0xbdc3ef7d	-0.09567163
170	0xbd3b25b3	-0.04569025
171	0x3be0ba2b	0.0068581305
172	0xbc403d14	-0.011733312
173	0x3dc2a17e	0.095034584
174	0x3d662b69	0.056193743
175	0x3aba9570	0.001423521
176	0x3d9cd182	0.07657148
177	0xbdb9e09a	-0.090760425
178	0xbd9e8104	-0.077394515
179	0xbdd97f2e	-0.10619961
180	0xbbe6697f	-0.007031619
181	0x3d10989c	0.03530179
182	0xbdc47290	-0.095921636
183	0x3dade591	0.08491052
184	0x3db20a20	0.086933374
185	0x3da6aaa3	0.08138015
186	0xbdf223ee	-0.11823259
187	0xbd87fce9	-0.06640036
188	0xbdb5cd32	-0.088770285
189	0x3dd70951	0.10499824
190	0xbdd37508	-0.10325056
191	0x3cf1f8a8	0.029537514
192	0x3da58617	0.08082216
193	0xbdaed795	-0.08537213
194	0xbc9c18d3	-0.019054806
195	0xbe33aaf2	-0.17545679
196	0xbe18445d	-0.14869829
197	0xbdce52ce	-0.100743875
198	0x3e12c480	0.14332771
199	0x3c0a6e16	0.008449098
200	0x3d33a69e	0.04386007
201	0x3bed922e	0.007250092
202	0x3dbe0e17	0.09280031
203	0xbb001d05	-0.0019548547
204	0x3d37a797	0.04483756
205	0x3cc09a8b	0.023511192
206	0xbbb59d30	-0.00554242
207	0x3dbc189b	0.091843806
208	0x3d0dc9a4	0.034616128
209	0xbd4f92cc	-0.050677106
210	0x3dd45eea	0.10369666
211	0x3da5e004	0.08099368
212	0xbd2c6439	-0.042087767
213	0xbd08fb20	-0.033442616
214	0x3e0a94e7	0.13533364
215	0x3cd2dd53	0.025740301
216	0xbd86ac1c	-0.06575796
217	0xbc92e912	-0.017933402
218	0xbe069567	-0.1314293
219	0x3c7d158d	0.015447033
220	0x3dc04439	0.093880124
221	0x3d4852e3	0.048907172
222	0xbcb688f9	-0.02228211
223	0xbc911c80	-0.017713785
224	0x3dcf8d1c	0.10134336
225	0x3e0bc7cb	0.13650434
226	0xbd3270fc	-0.04356478
227	0x3d4d5667	0.050131228
228	0x3d135286	0.035967372
229	0xbc5fa6e7	-0.013650632
230	0xbcf1139e	-0.0294283
231	0x3d8d108d	0.068879224
232	0xbd5793a3	-0.05263103
233	0xbde178b4	-0.110093504
234	0x3bed927c	0.0072501283
235	0x3d2f1cb8	0.042751998
236	0x3de2abe4	0.11067942
237	0x3c65605c	0.014000025
238	0xbd513dfb	-0.0510845
239	0xbcdcacdf	-0.0269379
240	0xbcce7ed8	-0.025206968
241	0xbd93e2d0	-0.072209954
242	0xbd7867d0	-0.06064588
243	0x3e1c56a6	0.15267429
244	0xbc074305	-0.008255725
245	0xbe24acd2	-0.1608155
246	0x3cd5a504	0.026079662
247	0x3d882468	0.06647569
248	0x3dd4dfd9	0.10394258
249	0xbdd82ba0	-0.10555196
250	0xbcdebb98	-0.027189061
251	0x3cdd5087	0.027015937
252	0x3cd07f44	0.02545131
253	0xbd37fae2	-0.044916995
254	0xbd178134	-0.036988452
255	0x3c9ccd6b	0.01914092

encoder_faltten.1.cnn.bias f4 [16]
0	0xbd2ad4e1	-0.041706923
1	0x3d325907	0.043541934
2	0x3d992737	0.07478183
3	0xbc0c5d4d	-0.0085671665
4	0x3b264b14	0.002537434
5	0x3a52083c	0.0008012091
6	0x3a54acca	0.0008112906
7	0xbd3b64bf	-0.045750376
8	0xbd20b8f6	-0.039238892
9	0x3d6cdc0d	0.057827044
10	0xbda37746	-0.07981734
11	0x3d23d4e9	0.03999797
12	0x3d2c0f46	0.042006753
13	0x3db74ad3	0.089498185
14	0xbcc46e10	-0.023978263
15	0x3c9c8444	0.019106038

encoder_unfaltten.0.BachNorm.weight f4 [10]
0	0x3f800000	1.0
1	0x3f800000	1.0
2	0x3f800000	1.0
3	0x3f800000	1.0
4	0x3f800000	1.0
5	0x3f800000	1.0
6	0x3f800000	1.0
7	0x3f800000	1.0
8	0x3f800000	1.0
9	0x3f800000	1.0

encoder_unfaltten.0.BachNorm.bias f4 [10]
0	0x00000000	0.0
1	0x00000000	0.0
2	0x00000000	0.0
3	0x00000000	0.0
4	0x00000000	0.0
5	0x00000000	0.0
6	0x00000000	0.0
7	0x00000000	0.0
8	0x00000000	0.0
9	0x00000000	0.0

encoder_unfaltten.0.BachNorm.running_mean f4 [10]
0	0x3d82a63c	0.06379363
1	0x39dea885	0.00042468696
2	0x3d8a310e	0.06747638
3	0xbcb07085	-0.021538028
4	0x3cdc68b2	0.026905391
5	0x3dadc7e6	0.08485393
6	0x3d8593de	0.06522344
7	0xbc7c3df8	-0.015395634
8	0xb9ec9aad	-0.0004512867
9	0xbc9b194d	-0.018932963

encoder_unfaltten.0.BachNorm.running_var f4 [10]
0	0x3f67d473	0.90558547
1	0x3f676197	0.90383285
2	0x3f6888f8	0.90834
3	0x3f670abf	0.9025077
4	0x3f677767	0.9041657
5	0x3f68310b	0.90699834
6	0x3f67c460	0.9053402
7	0x3f673fa0	0.9033146
8	0x3f67da0c	0.9056709
9	0x3f678dfc	0.90451026

encoder_unfaltten.0.cnn.weight f4 [10, 1, 3, 3]
0	0xbde8ba60	-0.11363673
1	0x3e263410	0.16230798
2	0x3daeac8c	0.085290045
3	0x3e811139	0.25208452
4	0x3ea1721f	0.3153238
5	0x3e217566	0.1576744
6	0x3ca84150	0.020538956
7	0x3ea4260b	0.32060274
8	0x3e539f7e	0.2066631
9	0x3e913fed	0.28369084
10	0x3e5b3f66	0.21410903
11	0xbe7a1ef8	-0.24425876
12	0xbe9d7c98	-0.3075912
13	0x3def0904	0.116716415
14	0xbea9c7a4	-0.33160126
15	0x3d4dfae8	0.05028811
16	0xbd053958	-0.03252539
17	0x3e3d4a52	0.18485382
18	0x3e949911	0.2902303
19	0x3e86e591	0.2634702
20	0x3e759456	0.23982367
21	0x3e6bbe82	0.23021892
22	0x3db8b1f0	0.09018314
23	0xbc831e50	-0.016005665
24	0x3e9894a5	0.29800907
25	0x3e79238a	0.24329963
26	0xbea3965c	-0.31950653
27	0x3dc7903c	0.097443074
28	0xbe3750d3	-0.17901926
29	0xbe124628	-0.14284575
30	0x3e05a126	0.13049755
31	0x3e50fb2a	0.20408311
32	0xbe4a0063	-0.1972671
33	0x3e8833f1	0.26602128
34	0xbe50aecb	-0.20379178
35	0x3e26905a	0.16266003
36	0x3e948d8d	0.29014245
37	0x3e889155	0.2667338
38	0xbe5814d6	-0.21101698
39	0xbe7f4d6e	-0.24931881
40	0x3e76c84a	0.24099842
41	0x3db817f4	0.08988944
42	0x3b309200	0.0026942492
43	0x3e66948a	0.225176
44	0xbe27ec16	-0.16398653
45	0x3e82c22d	0.2553877
46	0x3ea10a7b	0.31453308
47	0x3e87135d	0.2638196
48	0x3e6ea382	0.23304561
49	0x3d598ea0	0.053114533
50	0xbe86ee87	-0.26353857
51	0x3dc24104	0.09485057
52	0x3ea810c5	0.32825294
53	0x3cf6ce50	0.030127674
54	0x3ea965b5	0.3308541
55	0xbd1ec680	-0.038763523
56	0x3bdd08c0	0.006745428
57	0xbc2c3420	-0.010510474
58	0x3e945c6d	0.28976765
59	0x3e18f70e	0.14937994
60	0x3e46fbee	0.19432041
61	0x3e98f025	0.29870716
62	0xbe80bb8c	-0.25143087
63	0xbe995787	-0.2994959
64	0x3e7a5446	0.2444621
65	0xbe575ff6	-0.210327
66	0x3d88154c	0.06644687
67	0xbe6cfe2b	-0.23143832
68	0x3dacfd50	0.08446753
69	0xbd0488a0	-0.03235686
70	0xbe933abe	-0.28755754
71	0xbd9f4fe0	-0.07778907
72	0x3cabebb0	0.020986408
73	0x3d43e0b8	0.04782173
74	0xbe9f2b60	-0.3108778
75	0xbe7ad0a6	-0.24493656
76	0x3e971a05	0.2951204
77	0xbe8c513e	-0.27405733
78	0x3e921085	0.28528228
79	0x3dd7e554	0.10541788
80	0xbea0d336	-0.3141114
81	0xbe1a637b	-0.15077011
82	0x3e209238	0.15680778
83	0xbe69f440	-0.2284708
84	0x3e6580f2	0.2241247
85	0x3e577a52	0.21042755
86	0xbe9cbee3	-0.30614385
87	0xbe492d80	-0.19646263
88	0x3ea3fb37	0.320276
89	0x3e89e5db	0.26933178

encoder_unfaltten.0.cnn.bias f4 [10]
0	0x3cbfc970	0.023411483
1	0x3d11be80	0.035582066
2	0x3dca21dc	0.098697394
3	0xbe8cc348	-0.27492738
4	0x3d63dee8	0.0556325
5	0x3e8e31a5	0.2777225
6	0x3e6b0dfa	0.2295455
7	0x3e2d7936	0.1694077
8	0x3e2b6862	0.16739038
9	0xbea378f6	-0.31928223

encoder_unfaltten.1.BachNorm.weight f4 [16]
0	0x3f800000	1.0
1	0x3f800000	1.0
2	0x3f800000	1.0
3	0x3f800000	1.0
4	0x3f800000	1.0
5	0x3f800000	1.0
6	0x3f800000	1.0
7	0x3f800000	1.0
8	0x3f800000	1.0
9	0x3f800000	1.0
10	0x3f800000	1.0
11	0x3f800000	1.0
12	0x3f800000	1.0
13	0x3f800000	1.0
14	0x3f800000	1.0
15	0x3f800000	1.0

encoder_unfaltten.1.BachNorm.bias f4 [16]
0	0x00000000	0.0
1	0x00000000	0.0
2	0x00000000	0.0
3	0x00000000	0.0
4	0x00000000	0.0
5	0x00000000	0.0
6	0x00000000	0.0
7	0x00000000	0.0
8	0x00000000	0.0
9	0x00000000	0.0
10	0x00000000	0.0
11	0x00000000	0.0
12	0x00000000	0.0
13	0x00000000	0.0
14	0x00000000	0.0
15	0x00000000	0.0

encoder_unfaltten.1.BachNorm.running_mean f4 [16]
0	0x3d08a9a2	0.0333649
1	0x3c549825	0.012975727
2	0xbd7488bd	-0.059700716
3	0x3c3fdb2e	0.011709971
4	0xbc5e817a	-0.013580674
5	0xbcfa14f5	-0.030527571
6	0x3b95a003	0.004566194
7	0x3c880cda	0.01660769
8	0xbcce5472	-0.025186751
9	0x3cdb6d7e	0.026785608
10	0xbcfb92c5	-0.030709634
11	0x3d0dc884	0.034615055
12	0x3b88fcf9	0.0041805473
13	0xbb78389d	-0.003787554
14	0x3d3af53c	0.04564403
15	0xbb0d8f4b	-0.0021600302

encoder_unfaltten.1.BachNorm.running_var f4 [16]
0	0x3f6adbfb	0.91741914
1	0x3f68910c	0.90846324
2	0x3f6d3b48	0.9266858
3	0x3f6b3c74	0.9188912
4	0x3f68a8b8	0.90882444
5	0x3f6a8e6e	0.9162358
6	0x3f681cd6	0.90669
7	0x3f68199c	0.90664077
8	0x3f692d96	0.91085184
9	0x3f68642f	0.9077787
10	0x3f68e9c5	0.90981704
11	0x3f6b38d1	0.9188357
12	0x3f68cf80	0.9094162
13	0x3f6909ef	0.9103078
14	0x3f69cb2a	0.9132563
15	0x3f69067b	0.91025513

encoder_unfaltten.1.cnn.weight f4 [16, 10, 3, 3]
0	0xbb0c1360	-0.0021373853
1	0x3da14c13	0.07875838
2	0x3ae5d0c0	0.0017533526
3	0xbd7537c2	-0.059867628
4	0xbdcb02dd	-0.099126555
5	0xbcc378b4	-0.023861267
6	0xbdc82148	-0.09771973
7	0xbd8076b6	-0.06272642
8	0xbcbf3ed0	-0.023345381
9	0x3d169716	0.03676518
10	0xbd86cdc2	-0.06582214
11	0xbd73959a	-0.059468843
12	0xbd6160b1	-0.055023853
13	0x3d55902a	0.05213944
14	0xbb0ae680	-0.0021194518
15	0x3da220cb	0.07916411
16	0x3d49638a	0.049167193
17	0xbd359c85	-0.04433872
18	0xbd609781	-0.054831985
19	0xbc6e34f0	-0.0145389885
20	0x3dd533c1	0.10410262
21	0x3cf2d114	0.029640712
22	0xbd8009eb	-0.06251892
23	0x3dd1a789	0.10237033
24	0xbd8f737a	-0.07004447
25	0x3da5efd3	0.081023835
26	0x3d80f6ff	0.06297111
27	0xbdad8d33	-0.08474197
28	0x3cbe5954	0.023235954
29	0x3da2390f	0.07921039
30	0x3bc98620	0.006150022
31	0x3d56d092	0.052445002
32	0xbdae672e	-0.08515774
33	0xbd51ff25	-0.051268715
34	0x3d8899d5	0.06669966
35	0xbc905464	-0.017618366
36	0xbc072eb0	-0.008250877
37	0x3d975e05	0.0739098
38	0xba7dcd80	-0.0009681806
39	0x3dc52a41	0.096272
40	0x3dd3b94b	0.10338076
41	0x3daa6357	0.08319729
42	0x3daca62f	0.084301345
43	0xbdd63e55	-0.10461108
44	0xbce35ff8	-0.027755722
45	0xbdc3d80e	-0.095626935
46	0x3dc7f2d9	0.097631164
47	0xbda4b379	-0.08042044
48	0xbd9dc1b6	-0.07702963
49	0x3d5aae76	0.053389035
50	0x3d29faba	0.041498877
51	0xbb8d7190	-0.004316516
52	0x3dc9fe39	0.09862942
53	0x3c9e563c	0.01932823
54	0x3dc9e007	0.09857183
55	0x3daf7c45	0.085686244
56	0x3d7abd62	0.061215766
57	0x3da5f8b3	0.08104076
58	0x3b575840	0.0032858998
59	0x3d8c6f8b	0.06857213
60	0x3da9da9b	0.08293649
61	0x3dcd83e5	0.100349225
62	0xbdad10f9	-0.08450503
63	0xbd1f5b4e	-0.038905434
64	0x3dc8cd01	0.098047264
65	0xbd8f9c4e	-0.07012235
66	0x3c84af0c	0.01619675
67	0xbdb05c24	-0.086113244
68	0xbca6905c	-0.020332508
69	0xbdc2c898	-0.095109165
70	0xbd981b6e	-0.07427107
71	0x3cea41ec	0.028595887
72	0x3dbb0423	0.091316484
73	0xbcd7b2b0	-0.026330322
74	0xbdb4982f	-0.08818089
75	0x3c31b278	0.010845773
76	0x3d987109	0.07443435
77	0xbdbc0ddd	-0.09182332
78	0x3dacb36d	0.0843266
79	0x3d73acd2	0.059490986
80	0x3dccd36b	0.10001262
81	0x3cb77854	0.022396244
82	0xbd56d9ff	-0.05245399
83	0x3afc40c0	0.0019245371
84	0xbba53de0	-0.0050427765
85	0xbd5c19d9	-0.053735588
86	0x3dd7541f	0.10514092
87	0x3d8ffb29	0.07030327
88	0xbd1134a0	-0.035450578
89	0x3d4eca4e	0.0504859
90	0xbdaa3313	-0.08310523
91	0x3cd13acc	0.025540732
92	0x3b980640	0.004639417
93	0xbdc5d80a	-0.09660347
94	0x38fd7000	0.00012084842
95	0xbbe83bb0	-0.0070871934
96	0x3da4aaa3	0.08040359
97	0x3d84a273	0.06476297
98	0xbdba9e2c	-0.091122
99	0xbd55c03d	-0.052185286
100	0xbcc13ec0	-0.023589492
101	0xbd356e02	-0.044294365
102	0xbcfd724c	-0.03093829
103	0xbdd4005e	-0.103516325
104	0xbd9cfbda	-0.076652244
105	0xbd5c6035	-0.053802688
106	0x3d86d443	0.065834545
107	0xbd56d793	-0.05245168
108	0x3d5dc932	0.054146953
109	0x3c906c7c	0.017629854
110	0x3d8f5e39	0.070003934
111	0xbdcd2ef4	-0.10018721
112	0x3d977edb	0.07397243
113	0x3dc44283	0.095829986
114	0x3c95b324	0.018273897
115	0xbdd12f25	-0.1021407
116	0xbcabe15c	-0.020981483
117	0x3dafd6e3	0.08585908
118	0x3d59ec6e	0.053203993
119	0xbcea7160	-0.028618515
120	0xbc0014b8	-0.00781744
121	0x3d4b047a	0.049564816
122	0xbc813e0c	-0.015776657
123	0x3c2f8360	0.010712475
124	0xbcb23b88	-0.021756902
125	0xbc8915d4	-0.016734041
126	0xbd81e7de	-0.06343053
127	0xbdb65f2c	-0.08904871
128	0xbbc55e20	-0.0060231835
129	0xbdd4f2e2	-0.10397889
130	0xbd5a01d7	-0.05322441
131	0x3da616a5	0.08109788
132	0x3d24f62a	0.040273823
133	0x3ce37904	0.027767666
134	0xbda8566a	-0.08219607
135	0x3d9bb261	0.076023825
136	0x3d6b77ce	0.0574873
137	0x3c7b9c88	0.015357144
138	0x3db240f3	0.08703794
139	0x3da961e5	0.08270625
140	0xbc83558c	-0.016032003
141	0x3b8b2e20	0.004247442
142	0xbc013e10	-0.007888332
143	0xbd0cf19a	-0.034410097
144	0x3d031b6e	0.03200858
145	0x3b65f9a0	0.0035091415
146	0x3d861525	0.06547002
147	0xbd13a00e	-0.036041312
148	0xbd9ef1e2	-0.07760979
149	0x3d986321	0.07440782
150	0xbd4a1886	-0.049339794
151	0xbd87b998	-0.06627196
152	0xbdbdf068	-0.092743695
153	0x3c279450	0.010228232
154	0x3d2699c2	0.04067398
155	0x3d6ce07a	0.057831265
156	0x3d5f597e	0.054528706
157	0xbcd61f58	-0.026137993
158	0x3dc43cb7	0.09581893
159	0x3c5921e0	0.013252705
160	0xbd5054b2	-0.05086202
161	0x3dc94285	0.09827141
162	0xbd444195	-0.047914106
163	0x3d91135b	0.0708377
164	0xbc1d94b0	-0.009617969
165	0x3db9f3cf	0.09079706
166	0x3974a400	0.00023330748
167	0x3d75a98e	0.059976153
168	0xbd9a5802	-0.075363174
169	0x3d503d7a	0.05083988
170	0x3d9cece1	0.076623686
171	0xbd562ca0	-0.05228865
172	0xbd37a5d5	-0.044835884
173	0x3dd3560b	0.10319146
174	0x3dbe275f	0.09284853
175	0xbbf2ecf0	-0.007413499
176	0xbd7f8ec2	-0.062392004
177	0x3d1eba3e	0.038751833
178	0xbd062d74	-0.03275819
179	0xbd5633b0	-0.052295387
180	0x3c1743c8	0.009232469
181	0xbdc1b300	-0.0945797
182	0x3d445d12	0.04794032
183	0xbbf7c910	-0.0075618103
184	0xbd934f9c	-0.07192919
185	0x3dbbedf3	0.091762446
186	0xbc7cce20	-0.015430003
187	0xbd60c95d	-0.054879535
188	0xbdd481aa	-0.10376294
189	0x3ccdd0e4	0.02512402
190	0x3ca4f7c4	0.020137675
191	0x3daaf1e3	0.083469175
192	0x3dd55a17	0.10417574
193	0xbc8b52ac	-0.017007194
194	0x3dc6df99	0.097106166
195	0xbdb9264b	-0.09040507
196	0x3c2ae370	0.010430202
197	0x3d87a513	0.06623282
198	0x3d17940e	0.03700643
199	0xbdb593b1	-0.088660605
200	0xbdbf391a	-0.09337063
201	0x3dc024ad	0.09381995
202	0x3d47c23e	0.04876923
203	0x3d77e5b6	0.060521804
204	0xbcc8a330	-0.024491876
205	0xbdd20c55	-0.102562584
206	0xbd70880e	-0.0587235
207	0xbb9198f0	-0.0044432804
208	0x3d03f4ca	0.03221587
209	0xbdbd2bb7	-0.092368536
210	0xbd80abfe	-0.06282805
211	0xbbab6520	-0.005230561
212	0xbd8246b1	-0.063611396
213	0x3ae59b80	0.0017517656
214	0x3d331e92	0.043730326
215	0x3cd89f14	0.026443042
216	0xbdce7f22	-0.100828424
217	0x3d6bff1a	0.05761633
218	0x3d9ed3e1	0.077552564
219	0x3d9a3021	0.07528711
220	0xbd495e84	-0.049162403
221	0x3da1133d	0.078649975
222	0x3c0eb028	0.008708991
223	0x3c08c2c8	0.008347221
224	0xbd991274	-0.07474223
225	0x3d5a6e7a	0.053328015
226	0xbd898cc6	-0.067163035
227	0xbdb4d713	-0.08830085
228	0x3cc12284	0.023576029
229	0xbd018468	-0.031620413
230	0xbdcded9f	-0.10055088
231	0xbd8f644a	-0.070015505
232	0x3d94ecfd	0.072717644
233	0xbd14784a	-0.03624753
234	0xbd72842e	-0.059208088
235	0xbdbf5fdf	-0.09344458
236	0xbd9ac4f4	-0.07557097
237	0xbc182700	-0.009286642
238	0x3dca9051	0.098908074
239	0xbdcacb51	-0.09902061
240	0xbb99e7b0	-0.0046968088
241	0xbdd7340d	-0.10507975
242	0xbd93f0e8	-0.072236836
243	0x3da45c63	0.08025434
244	0xbd4c0ced	-0.049817014
245	0xbd8a897c	-0.06764504
246	0x3cd480d4	0.025940336
247	0x3d8cd7e7	0.068771176
248	0xbd95a9c4	-0.07307771
249	0xbda4a830	-0.08039892
250	0xbdbdcafe	-0.09267233
251	0xbd36cbd2	-0.044627972
252	0x3d954689	0.07288844
253	0xbd9c112a	-0.07620461
254	0xbdbdcf00	-0.09267998
255	0x3dcc99c3	0.09990265

encoder_unfaltten.1.cnn.bias f4 [16]
0	0xbd2d737a	-0.042346455
1	0x3dcbfb4d	0.09960041
2	0x3dc225ff	0.094799034
3	0x3d2ea522	0.04263795
4	0xbd2b3c5a	-0.041805603
5	0x3da5a6af	0.08088433
6	0xbd324068	-0.043518454
7	0x3cdf4d14	0.027258433
8	0x3aa47240	0.0012546256
9	0x3ce4ca5c	0.027928524
10	0x3d0ed45a	0.034870483
11	0xbd959a22	-0.07304789
12	0xbdb8f6cb	-0.09031447
13	0xbd40130f	-0.046893176
14	0x3dc3dcab	0.095635734
15	0x3dc3d8e3	0.09562852

embedding.weight f4 [10, 8]
0	0xbf74f44e	-0.9568528
1	0xbe1c43cb	-0.15260236
2	0xc0113813	-2.2690475
3	0xc005de18	-2.0916805
4	0xbd78abd5	-0.060710747
5	0xbf99b078	-1.2006979
6	0x3fbe2f8f	1.4858264
7	0xbf806725	-1.0031477
8	0x3f343ed1	0.7040835
9	0xbe108d45	-0.1411639
10	0x3e88bd47	0.26706907
11	0x3f62550c	0.8841102
12	0x3d97d2d9	0.07413263
13	0x3f95d095	1.1704279
14	0xbf63dc55	-0.89008075
15	0xc0224503	-2.5354621
16	0x3f8c2aa3	1.0950512
17	0xbf85a905	-1.0442206
18	0xbea62002	-0.32446295
19	0x3ded64c4	0.11591485
20	0xbfcde423	-1.6085247
21	0x3f9587a0	1.1682014
22	0xbc0a1caa	-0.008429686
23	0x3ddcd41f	0.107826464
24	0x3f41c99b	0.7569825
25	0x3e65ab2d	0.2242858
26	0xbdbe2d39	-0.09285969
27	0xbf5575b0	-0.833827
28	0x3ca17808	0.019710556
29	0xbea58e57	-0.3233516
30	0xbf0c0bb7	-0.54705375
31	0xbff50fe4	-1.9145474
32	0xbe3b49d5	-0.18289883
33	0x3e9d40f2	0.30713612
34	0x3b76c492	0.0037653786
35	0x3f80557f	1.0026091
36	0xbfb0fc42	-1.3826983
37	0x3ef3baa0	0.4760332
38	0x3f56a4b4	0.8384507
39	0x3f65cec1	0.89768606
40	0xbf3f72aa	-0.7478434
41	0x3eaf0277	0.34181568
42	0x3f4d4c80	0.80194855
43	0x3f24be68	0.64353037
44	0xbef9d1b7	-0.48792812
45	0xbefa342d	-0.48867932
46	0x3f0c81bd	0.54885465
47	0xbf1cd909	-0.6126867
48	0xbfc7af6c	-1.560041
49	0xbfe709bf	-1.8049849
50	0xbdd4f25d	-0.103977896
51	0x3f21d5ae	0.63216674
52	0xbfa9946f	-1.3248423
53	0x3fba7e0d	1.4569718
54	0xbf335e31	-0.700656
55	0xbde4666e	-0.111523494
56	0x3d6a30ec	0.05717556
57	0x3deb14fb	0.11478611
58	0x3f41b39f	0.75664705
59	0x3f41be58	0.75681067
60	0xbcd47201	-0.025933268
61	0x4003a638	2.0570202
62	0xbfd5e37e	-1.671005
63	0x3fc60fc5	1.5473562
64	0xbf3a1b59	-0.7269798
65	0xbea7f5cd	-0.3280472
66	0xbee32b70	-0.44369078
67	0xbfa0120a	-1.2505505
68	0x3e335c12	0.17515591
69	0x3c458779	0.012056225
70	0xbf075fc5	-0.5288051
71	0xbf18999c	-0.5960939
72	0x3f3b9ea7	0.7328896
73	0xbeef1800	-0.46697998
74	0x3fac707d	1.3471829
75	0x3eb954f2	0.3619762
76	0x3c4aa6e7	0.012368894
77	0x3f0f3c63	0.5595152
78	0x3f3becb8	0.7340808
79	0x3f8a9c96	1.0829036

decoder.1.BachNorm.weight f4 [16]
0	0x3f6f56ac	0.93491626
1	0x3f712d7a	0.94210017
2	0x3f84e011	1.038088
3	0x3f829345	1.0201193
4	0x3f6d84aa	0.92780554
5	0x3f785f1d	0.9702013
6	0x3f895c46	1.0731285
7	0x3f807bbf	1.0037764
8	0x3f7b4413	0.9815075
9	0x3f79af24	0.9753287
10	0x3f7c0ef2	0.98460305
11	0x3f827b32	1.0193846
12	0x3f794ec0	0.9738579
13	0x3f88b549	1.0680324
14	0x3f6ba215	0.9204419
15	0x3f77616b	0.96633023

decoder.1.BachNorm.bias f4 [16]
0	0xbdfe5321	-0.12418199
1	0xbe5c474a	-0.2151157
2	0xbe80d675	-0.25163618
3	0xbdc6a720	-0.09699845
4	0xbe62775f	-0.22115849
5	0xbc66e574	-0.014092792
6	0xbe27292f	-0.16324304
7	0xbe14aadf	-0.14518307
8	0xbdba8cca	-0.09108885
9	0xbdbe93dc	-0.09305546
10	0xbd637f0b	-0.05554108
11	0xbde88d75	-0.11355106
12	0xbe664181	-0.22485925
13	0xbe064b6a	-0.13114706
14	0xbdcf8000	-0.10131836
15	0xbe329587	-0.17439853

decoder.1.BachNorm.running_mean f4 [16]
0	0x3d589b37	0.0528824
1	0xbd7b4c36	-0.061351977
2	0x3c32886c	0.010896783
3	0xbe3d9958	-0.18515527
4	0xbca0bbb9	-0.019620763
5	0xbd6b0ef3	-0.057387304
6	0xbca54987	-0.020176662
7	0xbb976027	-0.0046196165
8	0xba77a7bf	-0.00094472984
9	0xbe0147e4	-0.1262508
10	0xbdc3a825	-0.095535554
11	0xbd94ac3c	-0.072594136
12	0xbd44d02a	-0.048050083
13	0x3d342254	0.04397805
14	0x3bf30b9c	0.0074171554
15	0xbd4e05cf	-0.05029851

decoder.1.BachNorm.running_var f4 [16]
0	0x3eaa81b8	0.33302093
1	0x3eb2ee1b	0.34947285
2	0x3ebc538d	0.36782494
3	0x3eb410b5	0.35168996
4	0x3eac01ad	0.3359503
5	0x3eb01621	0.34391883
6	0x3ec832c1	0.39101222
7	0x3ece90ab	0.40344748
8	0x3ea75ead	0.3268942
9	0x3ea9ba5d	0.33149996
10	0x3eb97549	0.36222294
11	0x3eb16ffc	0.3465575
12	0x3ebad911	0.36493734
13	0x3eae5521	0.34049323
14	0x3e914223	0.2837077
15	0x3ebc2cac	0.36752832

decoder.1.cnn.weight f4 [16, 16, 6, 6]
0	0x3e060ba4	0.13090378
1	0x3bc89d91	0.006122299
2	0xbc0ee678	-0.00872194
3	0xbc805f87	-0.015670551
4	0x3ccd2352	0.025041256
5	0xbcd658ec	-0.026165448
6	0x3cdcb7e6	0.026943158
7	0xbd396d63	-0.045270335
8	0xbd5ed8b2	-0.054405876
9	0x3d5e3b8e	0.054256015
10	0xbcd7c737	-0.02634011
11	0x3d3cf976	0.046136342
12	0x3ce1beab	0.027556738
13	0xbd025dc0	-0.03182769
14	0x3df3447f	0.11878299
15	0xbd18a9fc	-0.037271485
16	0x3cde1fdc	0.027114801
17	0xbd3c5f32	-0.045989223
18	0xbd1da9f4	-0.038492158
19	0x3c8ce84e	0.017200615
20	0x3d8010e1	0.062532194
21	0xbd219d10	-0.039456427
22	0xbd0bbc1d	-0.034114946
23	0x3d5070a4	0.050888672
24	0x3ce756b5	0.028239587
25	0xbd17cdd2	-0.03706152
26	0xbc8bc849	-0.017063277
27	0x3bd5b9f1	0.00652241
28	0xbc8e62a7	-0.017381025
29	0x3c378dbb	0.011203225
30	0xbba82f3e	-0.005132585
31	0x3d024fa9	0.03181425
32	0x3d8d7b82	0.06908323
33	0x3d780c35	0.060558517
34	0x3d49fe5e	0.04931485
35	0xbc6862bb	-0.014183695
36	0x3d3a2fa2	0.045455582
37	0x3d1339c3	0.035943758
38	0xbdc75ed5	-0.09734885
39	0xbdd86918	-0.1056692
40	0x3d255df2	0.040372796
41	0xbba95acc	-0.0051682945
42	0xbd058797	-0.03260001
43	0x3d8e3310	0.06943333
44	0x3d34d0dc	0.044144496
45	0x3d30ef64	0.04319705
46	0xbda95043	-0.08267262
47	0xbd391c52	-0.045193024
48	0x3c045410	0.008076683
49	0x3d80e707	0.06294065
50	0xbba18364	-0.004928993
51	0xbd5832a5	-0.052782673
52	0x3c086378	0.008324496
53	0xbcfbb2a3	-0.030724829
54	0x3d843171	0.06454743
55	0x3be2de9d	0.00692351
56	0xbcfbf1ac	-0.030754887
57	0x3df1f1ec	0.11813721
58	0x3c6cb5da	0.014447654
59	0xbd5c2ac3	-0.05375172
60	0x3dcc5a40	0.09978151
61	0xbc37ad73	-0.011210787
62	0xbc74f20d	-0.0149502875
63	0xbd8fab69	-0.07015116
64	0xbd3a26f7	-0.045447316
65	0x3d9463ea	0.072456196
66	0xbc26832c	-0.01016311
67	0xbd3f3f8d	-0.046691466
68	0x3d89a750	0.067213655
69	0x3d41093a	0.04712794
70	0xbbe53e79	-0.0069959727
71	0x3cf0175e	0.029308017
72	0xbcd6f3e3	-0.026239341
73	0xbda5011e	-0.08056854
74	0x3e3d0448	0.18458664
75	0x3c899906	0.0167966
76	0xbd586725	-0.05283274
77	0x3da5d982	0.08098127
78	0xbd306e54	-0.043073967
79	0xbbd4550e	-0.006479866
80	0x3cc010a3	0.023445433
81	0xbba8a7c4	-0.0051469523
82	0x3cbab1b1	0.022789808
83	0xbd1bc2fa	-0.03802774
84	0x3df2305f	0.11825632
85	0x3bd19076	0.006395395
86	0x3d393502	0.045216568
87	0xbcdd8c23	-0.027044361
88	0x3cde29a8	0.027119473
89	0xbc3f7fe5	-0.011688207
90	0xbdd4e8bb	-0.10395952
91	0xbd6368e0	-0.05551994
92	0xbccb297e	-0.024800058
93	0xbd0cf2b1	-0.034411136
94	0x3d1508fb	0.036385518
95	0xbd228e97	-0.039686766
96	0xbd2df96b	-0.04247419
97	0xbc82714f	-0.01592317
98	0x3b96d0f9	0.004602548
99	0xbcd279b6	-0.025692802
100	0xbd9fa3b0	-0.07794893
101	0x3ce57f38	0.028014764
102	0x3ce70d56	0.028204601
103	0x3c81e36f	0.01585552
104	0x3b53020c	0.0032197265
105	0xbd89c04f	-0.06726133
106	0x3d112a19	0.035440538
107	0x3c6c5004	0.014423374
108	0x3ceb4ecd	0.028724099
109	0x3dca71dd	0.09884999
110	0xbbb6d474	-0.0055795256
111	0x3d337350	0.043811142
112	0x3d4e10b8	0.050308913
113	0x3d614bfd	0.05500411
114	0x3d392ea4	0.045210496
115	0xbd39d957	-0.045373287
116	0xbd992b32	-0.07478942
117	0xbda8220c	-0.08209619
118	0xbd4ac843	-0.04950739
119	0xbd53de2d	-0.051725555
120	0xbcbd9b52	-0.023145352
121	0x3cd1354f	0.025538115
122	0x3d139391	0.036029402
123	0xbd5f39f4	-0.054498628
124	0x3d2973d0	0.041370213
125	0xbdf44e05	-0.119289435
126	0x3d186c26	0.037212513
127	0xbd7ebb34	-0.06219025
128	0x3cb43302	0.021996979
129	0x3d0cdf4a	0.034392633
130	0x3cc47da8	0.023985699
131	0xbddb7993	-0.10716548
132	0x3cfc4bff	0.030797957
133	0x3c1d0f5e	0.009586183
134	0x3d135291	0.035967413
135	0x3d66308a	0.056198634
136	0x3ccf1f10	0.025283366
137	0x3d16c5a1	0.036809567
138	0x3c99471a	0.018710662
139	0xbc0e47fa	-0.008684153
140	0x3d4de1dc	0.050264224
141	0xbd3eebcb	-0.04661159
142	0xbdc0e254	-0.09418169
143	0xbdc32e2f	-0.09530293
144	0x3d93d220	0.072178125
145	0x3d13d6e8	0.036093622
146	0x39e7b8af	0.00044197353
147	0xbc5e6f26	-0.013576305
148	0xbc94e39e	-0.018174943
149	0xbc256721	-0.010095389
150	0xbd31377a	-0.043265797
151	0xbb3ede3c	-0.0029124161
152	0x3d245915	0.040124018
153	0x3cd82892	0.026386533
154	0x3d6b329c	0.05742131
155	0xbc9c1e3b	-0.019057384
156	0xbcf212a5	-0.029549906
157	0x3d187cff	0.03722858
158	0xbd4cc946	-0.049996637
159	0xbd870501	-0.06592751
160	0xbbe9f097	-0.0071392762
161	0x3cd303c9	0.02575864
162	0x3d25df00	0.040495872
163	0x3cda17b6	0.026622634
164	0x3b9fc87e	0.0048761955
165	0x3d4c8a91	0.049936835
166	0x3c1009ad	0.008791369
167	0x3c224929	0.009905138
168	0x3c0b85b4	0.008515764
169	0xbca4cd32	-0.020117376
170	0x3d669dd4	0.05630286
171	0xbda60832	-0.08107032
172	0xbbffeaaa	-0.0078099566
173	0x3d987929	0.074449845
174	0x3d780055	0.06054719
175	0xbc83fb4e	-0.016111042
176	0xbc629803	-0.013830188
177	0x3d33d67a	0.043905713
178	0x3d1a7c41	0.037716154
179	0xbd032850	-0.032020867
180	0x3dc44c31	0.09584845
181	0xbc52dfd9	-0.012870752
182	0xbbbc0901	-0.005738378
183	0xbc87ad02	-0.016561989
184	0x3cdcd2cb	0.026955983
185	0xbbfc7975	-0.0077049085
186	0xbbf7170c	-0.007540589
187	0xbd8d391d	-0.06895659
188	0xbd1aadcf	-0.037763413
189	0xbc9057c8	-0.017619982
190	0x3d361f5d	0.044463504
191	0xbd8b0eed	-0.06789956
192	0x3c25d070	0.010120496
193	0x3dc92b3b	0.09822699
194	0x3c6739ad	0.014112872
195	0x3c1d654d	0.0096066715
196	0x3c8e212c	0.017349802
197	0xbddd39cb	-0.10802039
198	0x3d8b8c63	0.06813886
199	0x3b48a9ff	0.0030618904
200	0xbcb817ee	-0.022472348
201	0x3c124f24	0.008930001
202	0xbbb6c785	-0.005577984
203	0xbd928691	-0.07154573
204	0x3d2bb7a5	0.041923184
205	0x3e0342c5	0.1281844
206	0xbd08c5a3	-0.033391606
207	0x3cb58188	0.022156492
208	0x3c85602a	0.016281206
209	0xba89c235	-0.0010510149
210	0xbdbff23b	-0.09372374
211	0xbc419873	-0.011816132
212	0xbd5a9066	-0.053360365
213	0x3cb9b8b5	0.022671083
214	0x3d91a3a3	0.07111289
215	0xbd1136c2	-0.03545261
216	0xbbc5aa8c	-0.0060322937
217	0xbd9a4c02	-0.075340286
218	0x3cb09cd3	0.021559155
219	0xbbc98c10	-0.00615073
220	0x3de8c083	0.11364844
221	0x3de2e6e6	0.11079197
222	0xbd2c9dcf	-0.042142686
223	0x3d101c1d	0.03518306
224	0x3d7e8fc4	0.062148824
225	0x3bcf719f	0.0063306834
226	0xbc13e3be	-0.009026466
227	0xbbfb5c0f	-0.0076708863
228	0xbb88017c	-0.0041505676
229	0xbd89f4d5	-0.06736151
230	0xbdbd8511	-0.09253896
231	0xbb99c29e	-0.0046923896
232	0xbde0286d	-0.109452106
233	0xbc88d5e8	-0.016703561
234	0x3cecefaf	0.028922884
235	0x3d458f15	0.048232157
236	0x3da21e4b	0.07915934
237	0x3c8e69ed	0.017384494
238	0xbd250931	-0.04029197
239	0xbdb4c0db	-0.08825847
240	0xbd7ffb38	-0.06249544
241	0xbc89764f	-0.016780047
242	0x3c616cf5	0.013758888
243	0xbdf29090	-0.11843979
244	0x3ca579f9	0.020199763
245	0xbcd1b706	-0.025599968
246	0x3c7868a8	0.015161671
247	0x3d58fff9	0.05297849
248	0x3ab69472	0.0013929738
249	0x3dac71fb	0.084201775
250	0xbd085e28	-0.03329292
251	0xbdbe9566	-0.09305839
252	0x3d45ced2	0.048292942
253	0xbcdf14d6	-0.027231615
254	0x3d3cb4e2	0.04607094
255	0x3caf6da7	0.021414591

decoder.1.cnn.bias f4 [16]
0	0x3d480c29	0.04883972
1	0xbd1f49d1	-0.038888756
2	0x3cf376b7	0.029719694
3	0xbd66e52d	-0.056370903
4	0xbd58b7a4	-0.05290951
5	0x3d326e92	0.04356248
6	0x3d281e4d	0.041044522
7	0x3afd4b3c	0.001932479
8	0x3b93b305	0.004507425
9	0xbcde6074	-0.027145602
10	0xbbcf8ac5	-0.0063336813
11	0xbd1afdbc	-0.037839636
12	0xbd46375d	-0.048392642
13	0x3ccdd793	0.025127208
14	0x3cbe1e8c	0.023207925
15	0xbc850433	-0.016237354

decoder.2.BachNorm.weight f4 [10]
0	0x3f7a6e49	0.9782453
1	0x3fb1ef72	1.3901198
2	0x3f995792	1.1979849
3	0x3f8cbac0	1.0994492
4	0x3f811e9d	1.0087467
5	0x3f80d102	1.0063784
6	0x3f91bd45	1.1385885
7	0x3f910008	1.1328135
8	0x3f92646a	1.1436894
9	0x3fa3b06b	1.2788213

decoder.2.BachNorm.bias f4 [10]
0	0xbe72c1a1	-0.23706676
1	0xbdec9b5f	-0.11553072
2	0xbde05b03	-0.10954859
3	0xbe92454b	-0.2856849
4	0xbd11b0f9	-0.035569165
5	0xbde476bb	-0.111554585
6	0xbda78502	-0.08179666
7	0xbe99ea4d	-0.3006157
8	0xbe6271f5	-0.22113784
9	0xbdf9e7fe	-0.12202452

decoder.2.BachNorm.running_mean f4 [10]
0	0x3bb83ffc	0.005622862
1	0x3e2fcdd7	0.17168365
2	0x3d64f1d0	0.055894673
3	0x3d949a24	0.072559625
4	0x3e278e2a	0.16362825
5	0x3e854601	0.2602997
6	0x3dcf4479	0.10120482
7	0x3daf47ad	0.08558593
8	0x3df8b0bf	0.12143087
9	0x3e422b0a	0.1896173

decoder.2.BachNorm.running_var f4 [10]
0	0x3e063adf	0.13108395
1	0x3e3cbf39	0.1843232
2	0x3e2bee49	0.16790117
3	0x3e23b42c	0.15986699
4	0x3e0b92c7	0.1363021
5	0x3e4e11c3	0.20123963
6	0x3e30c66e	0.17263195
7	0x3e12cb29	0.14335312
8	0x3e13d809	0.1443788
9	0x3e3c0d6c	0.18364495

decoder.2.cnn.weight f4 [16, 10, 6, 6]
0	0xbd729996	-0.059228502
1	0xbbec5516	-0.0072122915
2	0x3c87fccc	0.016600035
3	0x3d4a71ec	0.04942505
4	0x3a89a49d	0.0010501329
5	0x3db02586	0.08600907
6	0xbd0b5656	-0.034017883
7	0x3d44b7b5	0.04802676
8	0x3d468165	0.048463244
9	0x3d38b988	0.04509881
10	0x3c9c98f3	0.0191159
11	0xbd0d8d0f	-0.034558352
12	0x3c17eb3f	0.009272396
13	0xbde2981b	-0.11064168
14	0xbd9ae472	-0.07563104
15	0xbcba9661	-0.022776784
16	0x3d197947	0.037469175
17	0x38f09b22	0.000114729875
18	0xbd047805	-0.032341022
19	0xbe005345	-0.12531765
20	0x3cf5365e	0.02993315
21	0xbd6570e9	-0.056015883
22	0x3ceb1d7d	0.028700585
23	0xbd286c4c	-0.041118905
24	0x3d66a005	0.05630495
25	0xbd588f2f	-0.052870926
26	0x3c401965	0.0117248045
27	0xbe01cae9	-0.1267506
28	0x3d5e1088	0.054214984
29	0xbb29fa24	-0.002593645
30	0x3c1c6bd3	0.009547192
31	0x3d7c2d74	0.061566785
32	0xbd7d6317	-0.061862078
33	0xbd301d5b	-0.042996746
34	0x3d0ce587	0.03439858
35	0xbcdbd24c	-0.026833676
36	0xbc925f6c	-0.017867766
37	0x3d00951a	0.031392194
38	0xbcd88969	-0.02643271
39	0x3cd2ffcf	0.025756745
40	0x3ca1bc83	0.01974321
41	0x3beea03f	0.0072822864
42	0x3cc7ae5a	0.02437513
43	0xbd4fa761	-0.050696734
44	0xbd0e4f2c	-0.034743473
45	0xbd299c87	-0.04140904
46	0x3c800980	0.01562953
47	0xbd1b4764	-0.03790988
48	0x3d6a8f59	0.057265613
49	0x3ce61aee	0.028089013
50	0x3bdf75df	0.0068194713
51	0xbd8acc4e	-0.06777249
52	0x3ba563d5	0.0050473013
53	0x3dabc0ad	0.08386359
54	0x3e19fb7a	0.15037337
55	0x3da3ec55	0.08004061
56	0x3d2ec835	0.0426714
57	0x3e1813cb	0.148513
58	0x3db57be5	0.08861522
59	0x3d41bff4	0.0473022
60	0x3c7c49c3	0.015398446
61	0xbd5d1e36	-0.05398389
62	0x3dbc5c51	0.091972955
63	0x3ce62340	0.02809298
64	0xbd1ff71e	-0.03905403
65	0x3d18d451	0.037311856
66	0xbcc440ce	-0.023956683
67	0xbd5d39be	-0.054010145
68	0xbda030de	-0.07821821
69	0xbcc2b0d5	-0.02376596
70	0xbc144c9f	-0.009051471
71	0xbc8f23bc	-0.017473094
72	0xbcd47929	-0.02593668
73	0xbd85dd32	-0.0653633
74	0xbe040d95	-0.12895806
75	0xbbba2702	-0.0056809196
76	0xbbb36f77	-0.005475934
77	0x3d10a989	0.03531793
78	0x3c901068	0.017585948
79	0xbcafe647	-0.02147211
80	0x3d668cce	0.056286626
81	0x3dac0a9c	0.08400461
82	0x3d05339a	0.032519914
83	0x3d55f797	0.052238073
84	0x3d5d2d09	0.053998027
85	0xbc4e5896	-0.012594363
86	0x3c51a8ae	0.012796564
87	0x3d498dd1	0.049207512
88	0x3b817dea	0.0039517777
89	0xbd355a5d	-0.04427563
90	0x3d496aae	0.049174003
91	0x3ca8d9ed	0.020611728
92	0x3d4efbac	0.05053298
93	0x3dc63699	0.096783824
94	0x3dad05ca	0.0844837
95	0xbd1a9e5b	-0.037748676
96	0xbd853872	-0.06504907
97	0x3b8f9085	0.0043812417
98	0x3d1f9b33	0.03896637
99	0x3d4f2b5b	0.050578456
100	0xbe02406e	-0.1271989
101	0xbda2bb54	-0.07945886
102	0x3d3e90b6	0.046524726
103	0xbc9f0ab0	-0.019414276
104	0x3c682fc4	0.014171544
105	0x3c92ad66	0.017904948
106	0x3d1fc120	0.039002538
107	0xbceeff8d	-0.02917459
108	0xbc78aed6	-0.015178403
109	0xbc45ca24	-0.01207212
110	0xbdab1cc0	-0.08355093
111	0x3b3b49d6	0.0028577945
112	0xbcbb9650	-0.022898823
113	0x3b8b2182	0.004245938
114	0x3d020a69	0.03174821
115	0x3aeaaf62	0.0017905051
116	0x3c97893a	0.018498052
117	0x3d729c40	0.059231043
118	0xbd19741d	-0.03746425
119	0x3d1946f2	0.037421174
120	0x3d1e1a1f	0.03859913
121	0xbd50994a	-0.050927438
122	0x3d37a641	0.044836286
123	0xbd0b1ee0	-0.03396499
124	0x3d429eee	0.04751485
125	0x3d3421e0	0.04397762
126	0xbd89310a	-0.066988066
127	0xbd45c0ec	-0.048279688
128	0xbd512908	-0.05106452
129	0x3c6d20be	0.014473138
130	0x3ce52dcb	0.027975937
131	0x3d697e1d	0.057005037
132	0x3de35a45	0.11101202
133	0x3c994c2f	0.018713085
134	0x3d6b9928	0.057519108
135	0x3d29fee0	0.041502833
136	0x3c9b7b0d	0.018979574
137	0x3da13f98	0.07873458
138	0xbd5c52e0	-0.053789973
139	0xbd8f0464	-0.06983259
140	0x3cc25c2a	0.023725588
141	0xbe157d18	-0.145985
142	0x3d52588e	0.051353984
143	0xbc756f53	-0.014980155
144	0xbcc54963	-0.024082845
145	0xbcf04b2a	-0.029332716
146	0xbc23d167	-0.009998656
147	0xbd1616a1	-0.036642674
148	0x3c6031bb	0.013683732
149	0x3d29d6e3	0.041464698
150	0x3cf4027d	0.029786343
151	0xbbbf02ea	-0.005829205
152	0x3c15e82a	0.0091495905
153	0xbd6be681	-0.057592873
154	0xbc841d02	-0.016127113
155	0xbc290173	-0.010315287
156	0x3dc864bd	0.09784839
157	0x3d9b3771	0.07578934
158	0x3ce82d15	0.02834181
159	0x3b3cadd2	0.0028790128
160	0xbc9d313a	-0.019188512
161	0x3a251779	0.0006297748
162	0xbd4edd5a	-0.050504066
163	0x3db04bd7	0.08608215
164	0xbd625449	-0.05525616
165	0x3d6e2fca	0.058151044
166	0x3ad2eb9c	0.0016091946
167	0x3b85b272	0.00408011
168	0xbd680e86	-0.056654476
169	0x3c334e4d	0.010943961
170	0xbd16cab7	-0.036814418
171	0xbbf3c6bf	-0.007439464
172	0x3da2c8ac	0.079484314
173	0xbd5732ef	-0.05253881
174	0x3be0c845	0.0068598115
175	0x3c31a37d	0.010842201
176	0x3a97ed23	0.0011591058
177	0xbb3cc2ff	-0.002880275
178	0x3c92934e	0.017892506
179	0xbcca6e88	-0.024710909
180	0x3d411026	0.04713454
181	0xbc2a6980	-0.01040113
182	0x3b46d064	0.0030336613
183	0x3c9b29da	0.018940855
184	0xbd745b6b	-0.059657495
185	0xbbab1a98	-0.005221676
186	0xbd30f212	-0.043199606
187	0xbcbd8d4f	-0.02313867
188	0xbc6bf44c	-0.014401507
189	0xbd1cee80	-0.03831339
190	0xbc8ddf37	-0.017318351
191	0xbd59ec82	-0.053204067
192	0x3d349ce0	0.04409492
193	0xbc789b71	-0.015173779
194	0xbce9f161	-0.028557481
195	0xbd2871e5	-0.041124243
196	0x3d645271	0.055742685
197	0xbdac7f59	-0.08422727
198	0x3e044bc3	0.12919526
199	0xbc97e948	-0.018543854
200	0x3da6f4fb	0.08152195
201	0x3c4296f6	0.011876812
202	0x3c0df01a	0.008663202
203	0x3d303adf	0.043024894
204	0x3da97374	0.08273974
205	0x3c9bbb15	0.019010106
206	0x3c01778a	0.0079020355
207	0x3cd0acf6	0.0254731
208	0xbda3d3ff	-0.079994194
209	0x3c9c8ad2	0.019109163
210	0x3dd4b89c	0.10386774
211	0xbda9c75b	-0.08289977
212	0x3d650017	0.05590829
213	0xbcab23df	-0.020891128
214	0xbc29efeb	-0.010372142
215	0xbddd07b8	-0.10792488
216	0xbcde1528	-0.027109697
217	0xbd999867	-0.074997716
218	0xbcef6027	-0.029220654
219	0xbb36fdfc	-0.0027922383
220	0x3c170906	0.00921846
221	0xbc2caaf6	-0.010538807
222	0xbcff595f	-0.031170545
223	0x3d4b87a6	0.04968991
224	0x3c56c686	0.013108855
225	0xbd6a805b	-0.057251316
226	0x3c77a381	0.015114666
227	0xbcadf9ee	-0.02123734
228	0x3c86f9fe	0.016476627
229	0x3cef2d97	0.029196544
230	0x3c43f78b	0.011960874
231	0x3d783b4b	0.06060342
232	0xbd0e33fa	-0.034717537
233	0xbcdafcbd	-0.026731843
234	0xbc754098	-0.014969014
235	0x3d6ab3bb	0.05730031
236	0x3d91ea71	0.07124794
237	0x3e073532	0.13203886
238	0x3d8e9c34	0.06963387
239	0xbbbf3c4f	-0.0058360468
240	0xbc0caf13	-0.008586663
241	0xbc1d3111	-0.009594218
242	0x3c144cd5	0.009051521
243	0xbd71204a	-0.058868684
244	0xbc8d6643	-0.017260676
245	0x3d74234f	0.059603985
246	0x3983bf25	0.0002512868
247	0x3bf106b4	0.0073555354
248	0xbd869dfc	-0.06573102
249	0x3c07b41b	0.008282687
250	0xbb11b686	-0.0022234037
251	0xbcdc0695	-0.026858607
252	0x3d899f1e	0.06719802
253	0x3dcf11a3	0.10110786
254	0xbcaa3975	-0.02077935
255	0x3c07add1	0.008281187

decoder.2.cnn.bias f4 [10]
0	0xbd6232b9	-0.055224154
1	0xbc1d1dc8	-0.00958962
2	0xbdb866a3	-0.090039514
3	0x3d370180	0.044679165
4	0x3bf28af8	0.0074018203
5	0x3d0e0def	0.034681257
6	0xbb97d4c3	-0.0046335175
7	0xbcf0c547	-0.029390944
8	0xbcf94c37	-0.03043185
9	0x3a512ea9	0.000797967

decoder.4.cnn.weight f4 [10, 1, 6, 6]
0	0xbd17bde4	-0.03704633
1	0xbd9684a4	-0.07349518
2	0xbdc7f106	-0.097627684
3	0xbdef48a4	-0.11683777
4	0xbd8fcf70	-0.070219874
5	0xbd0113f1	-0.03151316
6	0xbda3d16b	-0.07998928
7	0xbe0a0ba4	-0.13481003
8	0xbe3b49dc	-0.18289894
9	0xbe3d3c87	-0.1848012
10	0xbdc6dead	-0.09710441
11	0xbc96e4df	-0.018419681
12	0xbdaf870d	-0.08570681
13	0xbdf9080b	-0.12159737
14	0xbe4bf3b5	-0.19917186
15	0xbe2bd93e	-0.1678209
16	0xbda13321	-0.0787108
17	0xbb4e5f2e	-0.0031489837
18	0xbd6affeb	-0.05737297
19	0xbdc47dc0	-0.095942974
20	0xbe2bfb2a	-0.1679503
21	0xbe019e49	-0.12658037
22	0xbd3703ec	-0.044681475
23	0x3b4cb372	0.0031234887
24	0xbbb343eb	-0.005470743
25	0xbd8c283c	-0.068436116
26	0xbe0efaf5	-0.1396292
27	0xbde7619b	-0.11297914
28	0xbd2cb107	-0.042161014
29	0x3c2fda41	0.010733188
30	0xbc5cdb2a	-0.013479987
31	0xbd8e58cc	-0.069505304
32	0xbdaf13ce	-0.08548699
33	0xbdb354cd	-0.08756409
34	0xbcea6e81	-0.028617145
35	0x3c293bfc	0.010329243
36	0xbc86565c	-0.016398601
37	0xbdc1a4e3	-0.09455278
38	0xbd8a5fcf	-0.06756555
39	0x3c7187df	0.014741867
40	0x3d51a079	0.05117843
41	0x3d003392	0.03129918
42	0xbd4b5c92	-0.04964883
43	0xbde3a5f4	-0.111156374
44	0xbd8146d9	-0.06312341
45	0x3d2c9797	0.042136755
46	0x3dd272b9	0.10275788
47	0x3d9e688a	0.07734783
48	0xbd59fc2e	-0.053219013
49	0xbdbcfa3d	-0.09227417
50	0xbc70cd9e	-0.01469746
51	0x3dee4079	0.11633391
52	0x3e347e9b	0.17626421
53	0x3dc8cfcd	0.0980526
54	0xbd89ef60	-0.0673511
55	0xbd8d8890	-0.06910813
56	0x3d17177b	0.036887627
57	0x3e3af301	0.18256761
58	0x3e5274f6	0.2055243
59	0x3de6e5dd	0.11274312
60	0xbe028404	-0.12745672
61	0xbdb70824	-0.089370996
62	0x3d21c88a	0.03949789
63	0x3e3c1ded	0.18370791
64	0x3e3da30b	0.18519227
65	0x3dc9777e	0.098372445
66	0xbdc360bb	-0.09539934
67	0xbd97beed	-0.07409463
68	0x3b6e8340	0.003639415
69	0x3db6efaa	0.08932431
70	0x3dad1fdb	0.084533416
71	0x3d1912f1	0.03737158
72	0xbbdf2274	-0.006809527
73	0xbd4b2e38	-0.049604625
74	0xbd1ccb31	-0.038279716
75	0xbd10c490	-0.035343707
76	0xbd675785	-0.05647995
77	0xbd637189	-0.055528197
78	0xbd17bbcb	-0.037044328
79	0xbd2fec69	-0.042950068
80	0x3c7949b4	0.015215326
81	0x3cce4855	0.025180975
82	0xbd47a9d4	-0.048745945
83	0xbda7e81c	-0.08198568
84	0xbd291115	-0.041276056
85	0x3d3cb3c1	0.046069864
86	0x3e2713fe	0.1631622
87	0x3e272f59	0.16326655
88	0x3ceb4265	0.028718183
89	0xbd97b123	-0.07406833
90	0x3d3eb727	0.046561386
91	0x3e2cabdf	0.16862439
92	0x3e86323c	0.262102
93	0x3e69f0dd	0.22845788
94	0x3d646701	0.055762295
95	0xbd3c6382	-0.045993336
96	0x3d4b483e	0.049629442
97	0x3e2dfa5d	0.16990037
98	0x3e6c9de4	0.23107105
99	0x3e41fcaf	0.18944047
100	0x3d5f46b3	0.054510783
101	0xbd1f814c	-0.038941666
102	0x3c893519	0.016748952
103	0x3dcb8e2c	0.099392265
104	0x3e02f808	0.12789929
105	0x3db361d3	0.08758893
106	0x3cac4e60	0.021033466
107	0xbd088812	-0.03333289
108	0xbca85985	-0.020550499
109	0xbd258931	-0.04041404
110	0xbce3258b	-0.027727863
111	0xbd31a3b5	-0.043369014
112	0xbc867b9d	-0.016416365
113	0x3c5a0050	0.013305739
114	0xbd4d4402	-0.050113685
115	0xbdd89dc3	-0.10576966
116	0xbe228ef7	-0.1587485
117	0xbe322fe0	-0.17401075
118	0xbdfbd7ba	-0.12297006
119	0xbd552d9d	-0.052045453
120	0xbd99ffbe	-0.07519482
121	0xbe31d4ac	-0.17366284
122	0xbe75639b	-0.23963778
123	0xbe710604	-0.23537451
124	0xbe32dc82	-0.1746693
125	0xbda39681	-0.07987691
126	0xbdb87649	-0.09006936
127	0xbe372a4c	-0.17887229
128	0xbe79ce9c	-0.24395221
129	0xbe63a4fd	-0.22230907
130	0xbdff9208	-0.12479025
131	0xbd75c29a	-0.06000004
132	0xbdd46e58	-0.10372609
133	0xbe13404d	-0.14379998
134	0xbe27b083	-0.16375928
135	0xbde87a95	-0.11351506
136	0xbcc1a6e1	-0.023639144
137	0xbcc55c68	-0.024091914
138	0xbc8ad092	-0.016945157
139	0xbd09c98a	-0.03363947
140	0xbc7a6b91	-0.015284435
141	0x3d1cc0be	0.03826975
142	0x3d68c7fe	0.056831352
143	0x3c9754a6	0.01847298
144	0x3d1fdda4	0.039029732
145	0x3ce06c47	0.02739538
146	0xbbf42620	-0.007450834
147	0xbd1ec807	-0.03876498
148	0xbd28127b	-0.04103325
149	0x3b935daa	0.0044972496
150	0x3bf73ff4	0.0075454656
151	0xbcfc24f7	-0.030779345
152	0xbd8a2d7c	-0.06746957
153	0xbdbcfcab	-0.0922788
154	0xbdaf0996	-0.0854675
155	0xbc30fca6	-0.010802424
156	0x3c33c628	0.010972537
157	0xbcba3336	-0.022729497
158	0xbd8272a8	-0.06369525
159	0xbdaf8bf6	-0.08571617
160	0xbd442ac0	-0.047892332
161	0xbb35da7a	-0.002774863
162	0x3d1039b2	0.035211273
163	0x3d4e04f0	0.050297678
164	0x3d3e4017	0.04644784
165	0x3cee2176	0.02906869
166	0x39828066	0.00024891197
167	0x3c7eea92	0.015558856
168	0x3dd18b04	0.10231593
169	0x3e316d17	0.1732677
170	0x3e28dc50	0.16490293
171	0x3dfcf67e	0.12351702
172	0x3d854456	0.06507175
173	0x3d648059	0.055786464
174	0x3ddfacde	0.10921644
175	0x3e177d6c	0.14793938
176	0x3e234826	0.15945491
177	0x3e0a7eb1	0.13524891
178	0x3de25fee	0.110534534
179	0x3d9c91c5	0.07644991
180	0xbba88e16	-0.005143891
181	0x3be93199	0.007116508
182	0xbcb63042	-0.022239808
183	0xbce92fb6	-0.028465133
184	0xbd72478c	-0.059150264
185	0xbc424176	-0.011856427
186	0xbd2b2e5b	-0.041792255
187	0x3bda6b77	0.006665643
188	0x3d304d23	0.043042313
189	0x3c9e37f5	0.019313792
190	0xbd0fd338	-0.035113543
191	0xbba33d50	-0.0049816743
192	0x3c3dc2b3	0.011582064
193	0x3df8564d	0.121258356
194	0x3e46ec63	0.19426112
195	0x3db3d75c	0.08781311
196	0x3cb30465	0.021852681
197	0x3ce24905	0.027622709
198	0x3d98d634	0.07462731
199	0x3e57f14f	0.21088146
200	0x3e8f351a	0.279702
201	0x3e273c8e	0.16331694
202	0x3dc45bee	0.09587847
203	0x3d527289	0.05137876
204	0x3de785a1	0.113047846
205	0x3e53261b	0.20620005
206	0x3e78d0a0	0.24298334
207	0x3e12affa	0.14324942
208	0x3d8e8c9c	0.06960413
209	0xbc4e18b0	-0.012579128
210	0x3d2284ad	0.03967731
211	0x3db213bc	0.0869517
212	0x3d9db819	0.077011295
213	0x3ca6f645	0.020381102
214	0xbc2040df	-0.0097810915
215	0xbd01a030	-0.031646907
216	0xbd12e8c5	-0.035866518
217	0x3ca66d45	0.020315776
218	0x3d6dc7f5	0.058052022
219	0x3d769fae	0.060210876
220	0x3c8d9d4f	0.017286925
221	0xbc3217e4	-0.010869954
222	0xbd67a49c	-0.056553468
223	0x3d1bb0fa	0.038010575
224	0x3dc257b1	0.09489382
225	0x3daba98a	0.083819464
226	0xbc957c53	-0.018247759
227	0xbd93234c	-0.07184467
228	0xbc1679bc	-0.009184297
229	0x3dceb316	0.10092752
230	0x3e1eb62f	0.15499185
231	0x3e07d88c	0.132662
232	0x3ce47c08	0.027891174
233	0xbcc881aa	-0.024475891
234	0x3d95f400	0.0732193
235	0x3e425a23	0.18979697
236	0x3e71f12e	0.23627159
237	0x3e353866	0.17697296
238	0x3d3a946f	0.045551714
239	0xbccde3da	-0.025133062
240	0x3df8aca6	0.12142305
241	0x3e3d5773	0.1849039
242	0x3e52a6e0	0.2057147
243	0x3e238098	0.15967023
244	0x3d9eced4	0.07754293
245	0x3b72bc15	0.0037038375
246	0x3d3a11f7	0.04542729
247	0x3da61572	0.08109559
248	0x3daade9e	0.08343242
249	0x3d64e398	0.055881113
250	0x3ba4848b	0.005020683
251	0xbc6f0054	-0.014587481
252	0xbd37f0cd	-0.04490738
253	0xbd9c3f6f	-0.076292865
254	0xbd809d8b	-0.06280049
255	0xbce0ac6a	-0.027425963
