AutoEncoders/saved_model/model1.pth (torch, 90493 bytes, 44 tensors)

encoder_faltten.0.BachNorm.weight f4 [8]
000000 5f 68 76 3f 86 50 9d 3f af 84 60 3f 3c 61 96 3f
       0.9625301 1.2290199 0.8770246 1.1748424
000010 59 9a 89 3f f1 2c 94 3f 0b 3a 79 3f 31 72 70 3f
       1.0750228 1.1576215 0.9735419 0.9392424

encoder_faltten.0.BachNorm.bias f4 [8]
000000 f9 91 c0 3e 3f 91 39 3f 17 ff d0 3d 82 30 7f be
       0.37611368 0.7248725 0.102049045 -0.24920848
000010 95 c5 09 3f ad ce 23 3f d9 dd e4 3e 1c cd 0d 40
       0.5381711 0.6398724 0.44700506 2.215644

encoder_faltten.0.BachNorm.running_mean f4 [8]
000000 ed e3 0a 3f 72 24 27 bf d2 65 05 3f aa 32 35 3f
       0.5425404 -0.65289986 0.5210849 0.7078043
000010 56 3b 28 3f 3e 34 49 bd a1 e3 b4 3e 20 5f 03 3e
       0.6571554 -0.049122088 0.35329917 0.12829256

encoder_faltten.0.BachNorm.running_var f4 [8]
000000 60 30 02 41 c9 ed ce 40 71 6c 85 40 5c b7 9b 40
       8.13681 6.4665265 4.1694875 4.8661327
000010 09 de 31 41 20 10 94 41 7d 7f 5d 41 44 93 7c 41
       11.116708 18.507874 13.843625 15.7859535

encoder_faltten.0.cnn.weight f4 [8, 1, 3, 3]
000000 52 28 8a be 7a 70 c2 3d b0 f7 03 40 10 7d 20 3d
       -0.26983887 0.094941095 2.0619926 0.03918177
000010 1b c6 45 3e 74 a9 c9 3f f7 e9 11 bf a8 6c 3c bf
       0.19313852 1.5754838 -0.5699763 -0.73603296
000020 51 7a 8a 3d 69 51 f0 3d 98 d7 06 3f 0a a1 90 3f
       0.06761611 0.11734278 0.5267272 1.1299145
000030 0f 3c 66 bf 85 08 06 3d 99 1f c9 be 6b 7f 89 bf
       -0.8993539 0.03272297 -0.3928192 -1.074201
000040 40 86 68 bf d7 4d 70 bf 26 73 62 3e 3f 8d dd be
       -0.9082985 -0.93868774 0.22114238 -0.43271825
000050 b9 b6 7c bf e4 73 b7 3e 10 7c 09 be dd da 89 bf
       -0.9871631 0.35830605 -0.13426232 -1.0769917
000060 71 c6 b5 3f c6 be 85 3f cc e1 37 be cb 75 93 bf
       1.4201185 1.0448844 -0.17957228 -1.1520323
000070 38 38 38 bf 3d 0d f6 be de 12 f3 be 6a a8 9a bd
       -0.71960783 -0.48056975 -0.47475332 -0.07551654
000080 43 dc 97 be ed 4f 09 3f 99 96 2c 3e 03 57 c2 3f
       -0.29660234 0.5363758 0.16854323 1.5182804
000090 6d b7 a9 bd ab 52 0e 3f fd 34 2d bf 0c ab 7e be
       -0.08286939 0.5559489 -0.6765898 -0.24869937
0000a0 cb 91 08 3f 60 29 e2 3e c7 64 1e bf 2e fe a6 3f
       0.5334746 0.44172192 -0.61872524 1.304632
0000b0 ef 82 13 40 9c 2c 12 be ca a5 ba 3e bf a1 fd 3e
       2.3048666 -0.1427483 0.36454612 0.49537465
0000c0 c0 ab 6c 3f 4a 8a 40 3f 61 bd b0 be 74 ef 29 40
       0.9244957 0.7521101 -0.34519485 2.65524
0000d0 22 b4 56 3e 3e 81 8b 3e 90 f9 5b 40 63 ee 0c 3f
       0.20967153 0.2724704 3.437107 0.5505125
0000e0 c6 55 76 3e 95 d0 d8 3e b3 df 09 bf 7c 3d bb 3e
       0.24056157 0.42346635 -0.5385696 0.36570346
0000f0 ac 81 fc 3d fe cc 8b be 2e 27 4c bf e7 9f 3d be
       0.123294204 -0.27304834 -0.79747283 -0.18518029
000100 ba 69 81 bf 14 50 5a bf c5 be e8 bd dc f8 13 bf
       -1.011039 -0.8527844 -0.113645114 -0.57801604
000110 69 48 b7 bd 21 35 15 3f 99 87 95 bf 79 3c c6 bf
       -0.08949358 0.58284193 -1.1682006 -1.5487205

encoder_faltten.0.cnn.bias f4 [8]
000000 6a 93 03 3f b5 94 25 bf eb 80 01 3f 58 11 37 3f
       0.5139681 -0.64680034 0.5058734 0.7151084
000010 1e 27 27 3f 92 ee a3 bd 1c 81 aa 3e d8 7c 1c 3e
       0.65294063 -0.08004488 0.33301628 0.15281999

encoder_faltten.1.BachNorm.weight f4 [16]
000000 00 b1 09 3f 25 2a 64 3f f2 fd d3 3e de c5 01 3f
       0.53785706 0.8912681 0.41404682 0.50692546
000010 c1 50 fd 3e 2c bb c6 3e d5 5d 2c 3f 25 ba 1a 3f
       0.49475673 0.38814676 0.67330676 0.60440284
000020 c8 61 92 3f c4 71 49 3f f7 d6 2f 3f 14 8c 71 3f
       1.143609 0.7868922 0.68687385 0.9435437
000030 55 cf 1f 3f 32 40 fe 3e e2 3c 27 3f 3d 2b 4a 3f
       0.6242574 0.49658352 0.65327275 0.78972226

encoder_faltten.1.BachNorm.bias f4 [16]
000000 21 47 43 be 26 be 8d bf 1c 5c 3a be f6 62 71 be
       -0.19070102 -1.1073654 -0.181992 -0.23572907
000010 a2 6c 95 be 39 a0 98 3d 82 30 d6 bd 18 ad b7 3c
       -0.29184443 0.07452435 -0.10458471 0.022421405
000020 53 d6 e3 bd 19 4a e8 be a9 d0 d9 be ee dc 86 3d
       -0.111248635 -0.45369032 -0.42542008 0.06585108
000030 c3 42 85 be e2 9b 82 be 17 bd c8 be 91 43 00 be
       -0.26027498 -0.25509554 -0.39206764 -0.12525775

encoder_faltten.1.BachNorm.running_mean f4 [16]
000000 f2 a5 06 c1 f7 79 ac 40 ea 9e 69 40 76 28 ae 3e
       -8.415514 5.3898883 3.6503243 0.34015244
000010 38 47 b2 40 94 6a 4f 3f cd 5d 44 41 a2 47 39 40
       5.5711937 0.81022 12.272901 2.8949971
000020 7d 91 97 c0 de c5 5b 41 b9 63 de 40 71 1f 60 bf
       -4.73651 13.735807 6.949673 -0.87547976
000030 23 3f 30 41 2c 43 89 be 77 c2 ac 3f 38 ff f3 be
       11.015414 -0.2680906 1.3496846 -0.47655654

encoder_faltten.1.BachNorm.running_var f4 [16]
000000 7c 76 4d 42 50 77 4d 43 ed 59 5b 42 71 cc ba 42
       51.365707 205.46606 54.83782 93.3993
000010 57 93 5d 42 c8 19 55 42 5f 53 f9 42 e3 da 37 42
       55.393887 53.275177 124.662834 45.963757
000020 31 be f3 42 83 5f 19 43 d6 4d 87 42 8e a3 df 42
       121.87147 153.3731 67.65202 111.81944
000030 14 9d 20 43 be 14 15 42 5e ca 43 42 ca 1f b2 42
       160.61359 37.270256 48.947624 89.06209

encoder_faltten.1.cnn.weight f4 [16, 8, 3, 3]
000000 7f 61 b3 be 6d 66 90 3f ac 73 4b bf 69 e9 d3 3e
       -0.3503532 1.1281258 -0.79473376 0.41389015
000010 72 8f cc be 8c 0d 17 bf f7 b6 27 be 19 21 8b bd
       -0.3995319 -0.59005046 -0.1637839 -0.06793422
000020 37 00 0d bf d3 6e 90 bf 4b 6f 26 3d 8e e8 c8 3e
       -0.5507845 -1.1283821 0.04063348 0.39239925
000030 38 cf 19 be 73 01 97 bf 5a f5 38 3f 0e 94 3b bf
       -0.15020454 -1.1797317 0.72249377 -0.7327279
000040 0c 7b 12 bf 5e fb ca bf c2 43 36 3f e5 ea ac 3e
       -0.57219005 -1.5857961 0.7119714 0.3377296
000050 6b 23 44 be 81 17 97 3d 76 93 6f 3e 72 82 35 bf
       -0.19154136 0.0737753 0.23396096 -0.7090217
000060 d7 0e 4e 3e 11 b5 d9 3e 11 62 45 be 44 fb ea bd
       0.20122848 0.42520955 -0.1927569 -0.11473706
000070 64 31 43 3f 70 6f 46 bf ce 9c 03 bf 7a 15 6b be
       0.7624724 -0.7751379 -0.5141114 -0.22957411
000080 c0 1d 90 3f 91 d7 75 3e e6 e7 63 bd 29 1a ad 3d
       1.1259079 0.24008013 -0.055641077 0.08452255
000090 60 5f 5d 3e 23 32 21 3e 24 a1 61 be ee f2 12 3f
       0.21618414 0.15741782 -0.22034127 0.5740193
0000a0 b5 79 f7 3e c2 08 80 bf 07 6f 29 3f 80 c6 57 3f
       0.48335043 -1.0002673 0.6618504 0.8428726
0000b0 85 3a 3f 3f a4 66 45 3f 0c 0e 28 3e a3 6c 5b 3e
       0.7469867 0.7710974 0.16411608 0.2142816
0000c0 43 b2 4d bd 98 74 ea be f9 fe 03 3e 9a 97 71 3f
       -0.05021883 -0.4579208 0.12890233 0.9437195
0000d0 03 a8 1f 3f ae 4a c0 3f b7 76 c1 bf 08 37 c5 be
       0.6236574 1.502279 -1.5114354 -0.38518548
0000e0 41 75 a4 3f 2d 4f 2a bf 64 9f 08 3d cc 67 0b bf
       1.2848283 -0.6652706 0.03335513 -0.54455256
0000f0 d6 27 15 be bc cd 5f be c0 c7 1d be b1 8c 9d 3f
       -0.14565977 -0.21855825 -0.1540823 1.2308561
000100 33 b5 81 bf 08 2f 2b bf 40 ce b9 be c3 18 15 bf
       -1.0133423 -0.6686864 -0.3629017 -0.5824091
000110 7f 9f b8 3e 67 39 77 bf dd f6 34 bf fa fd da bf
       0.36059186 -0.96571964 -0.70689183 -1.7108757
000120 e3 de 3a 3f 1e dc 43 3f 66 2b ca 3f 9c 94 a6 3e
       0.7299635 0.7650775 1.5794494 0.32535255
000130 20 e6 19 3f e1 2c 7e bf 71 6c f8 3e d5 de 11 3e
       0.6011677 -0.9928723 0.48520234 0.1424516
000140 52 96 88 bb 72 e9 8d be 2f 0e f0 3d c4 d8 b6 3e
       -0.00416831 -0.27717167 0.11721455 0.35712254
000150 81 23 25 bf 09 9a 81 bf 4c 54 34 bf e0 2d 96 be
       -0.645073 -1.0125133 -0.70441127 -0.29331875
000160 00 ba 9b bf 23 b7 bc bf 52 98 4f 3f ae aa 7d be
       -1.2166138 -1.4743389 0.810918 -0.2477214
000170 37 fb 91 bf d9 05 11 be fd 42 b5 be 2e 89 41 be
       -1.140479 -0.14162387 -0.3540267 -0.18899986
000180 9d ba 32 3e 03 3a c4 3e 2c 1f c8 3e 63 3a 5a 3d
       0.17454 0.3832551 0.39086282 0.05327834
000190 f9 cb 27 be 32 6b 82 bd 06 ea 9a 3e b2 59 9c 3c
       -0.16386403 -0.06368102 0.3025667 0.019085739
0001a0 4b a3 e2 be b6 1b 85 bf 43 14 87 bd 94 99 f2 3e
       -0.44265208 -1.0399082 -0.065956615 0.47382796
0001b0 eb 13 38 3f 0e a2 77 3f 95 06 ce 3f 05 b2 5f 3d
       0.7190539 0.9673165 1.6095759 0.054613132
0001c0 e6 40 33 3f 59 18 a0 3d bf a7 58 3f 78 e0 88 3f
       0.700209 0.07817144 0.8463096 1.0693502
0001d0 04 6c a4 3f 66 6d 82 3f 30 aa ce 3e 5c d0 46 3f
       1.2845464 1.0189636 0.40364218 0.7766168
0001e0 15 80 8d 3e 69 46 d3 3f 64 a0 3b 3f a1 d4 c4 3d
       0.2763678 1.6505862 0.7329161 0.09610868
0001f0 94 41 82 3f 67 9f ca 3f 1e 50 11 3e b3 eb ac 3d
       1.0176263 1.5829896 0.14190719 0.084433936
000200 12 7d 4b 3f 64 3d 68 be 88 a5 5c 3f 6b 2d 3b 3f
       0.7948772 -0.22679669 0.8619008 0.7311618
000210 aa fc 81 bd 9d ae 01 3f 8c fa 2b 3f f2 f4 18 3f
       -0.0634702 0.50657064 0.6717918 0.59748757
000220 85 6a 0c 3e ba c5 4f be 1b 85 a3 bd 27 86 80 be
       0.13712509 -0.2029027 -0.07984372 -0.2510235
000230 ab e1 2b 3f bb e7 ba bf 66 66 06 bf 58 44 83 bf
       0.67141217 -1.4601969 -0.525 -1.0255232
000240 7d ef 83 3f d1 d8 9e be 02 c5 c7 bd c8 72 49 3f
       1.0307461 -0.31024793 -0.09754373 0.7869077
000250 30 27 93 3f d7 53 6f 3f 6a 7d bf 3e ff 0d 3d 3f
       1.1496334 0.93487304 0.3740037 0.7384948
000260 ed c6 17 3f 6d 5c c8 3e 57 e6 ca 3d 6f b5 97 3f
       0.5928791 0.39133015 0.09907215 1.1852244
000270 c4 1b 1b bf aa 71 93 3f c9 0a d8 be 56 d1 4a bf
       -0.6058924 1.1519063 -0.42195728 -0.7922567
000280 46 9e a8 3f 27 14 9b 3e 98 48 18 c0 e5 46 da be
       1.3173301 0.30288813 -2.3794308 -0.42632213
000290 e3 04 d9 3e 23 10 41 3e e6 cb eb 3e d7 1b d1 3e
       0.4238654 0.18853812 0.46054 0.40841553
0002a0 fd 5d d1 3e 31 4d be 3f 58 e3 00 bf af f8 41 3f
       0.4089202 1.4867307 -0.503469 0.75770086
0002b0 c6 3f 08 bf 55 78 1b 3f 31 b5 83 bf eb c1 14 bf
       -0.5322231 0.6073049 -1.028967 -0.58108395
0002c0 f3 1e bc be 92 01 69 be e1 1e 12 bf 09 53 ae 3e
       -0.36742362 -0.22754505 -0.5707837 0.34047726
0002d0 ef 41 48 3e 13 ca 3a be 34 ba 2a bc 7c 8a 2a 3f
       0.19556402 -0.18241148 -0.010420371 0.6661756
0002e0 df 0d 80 3e 0b 79 11 3f fd 30 55 3f 7d 88 a2 be
       0.25010583 0.5682532 0.83277875 -0.31744757
0002f0 7e 5c 36 3f e5 ed 5f bf 1c d4 87 be 4d 3f a6 bf
       0.7123488 -0.87472373 -0.26529014 -1.2988068
000300 3c f3 1f 3e 6e cb 8e 3e e0 1d 86 3e ba 0b 1a bf
       0.1562013 0.2788958 0.26194668 -0.60174143
000310 11 35 02 bf c2 48 34 3d 63 c1 39 bf 76 4c a2 3f
       -0.5086222 0.0440147 -0.7256071 1.2679584
000320 6f 98 32 be f7 88 05 bf 03 1c bb 3f 94 05 c5 be
       -0.17440961 -0.52162117 1.4617923 -0.38480818
000330 d4 e9 67 bf b1 1d 39 3f a4 bc 07 3e 29 2e 2f be
       -0.9059117 0.7231093 0.13255554 -0.17107452
000340 55 4b a7 be a2 b3 8d 3f 38 20 17 3d 84 8f 17 be
       -0.3267466 1.1070445 0.03689596 -0.1480084
000350 a3 b9 ce be 19 dd 69 bf 3f f0 d8 3f 80 85 91 bf
       -0.40376005 -0.91352993 1.6948317 -1.1368866
000360 05 74 39 bd 28 d5 17 3d 7d e7 66 3f cc 83 8b bd
       -0.04527666 0.037068516 0.90196973 -0.06812248
000370 48 5e 31 3f 0a 98 1d 3f c2 25 3f bf 29 1b 3b 3f
       0.69284487 0.6156012 -0.7466699 0.7308832
000380 12 43 18 3f 4a 2b b2 3e da c1 11 3e 05 e7 9d be
       0.5947734 0.34798652 0.14234105 -0.30840316
000390 22 bc df 3f cb af 4c 3e 7a 59 3d bf ca 43 eb 3f
       1.7479289 0.19988935 -0.73964655 1.8380063
0003a0 b7 80 8e bf 1f 9a 85 be ec 57 ce 3e 88 08 9c be
       -1.1133031 -0.26094148 0.40301454 -0.3047526
0003b0 45 67 86 bf 10 bf 4a bf 51 2a d6 be 65 cf 87 bf
       -1.0500265 -0.7919779 -0.4182916 -1.0610167
0003c0 fb 48 27 bf 86 89 e5 3e 29 bb a6 3e 84 db 22 bd
       -0.65345734 0.44831485 0.32564667 -0.039760128
0003d0 84 89 a9 be 22 8f 91 3f 39 6f c8 3d 8c 91 bf 3e
       -0.3311273 1.1371806 0.09786839 0.3741573
0003e0 85 eb 34 3f 04 67 8f 3e 5d 64 1b 3e 12 fe 62 3e
       0.70671874 0.28008282 0.15175004 0.22167233
0003f0 70 8b a1 3e 46 c7 c7 3c 21 6f 0b 3f 0e 57 94 bf
       0.31551695 0.024387013 0.54466444 -1.1589067

encoder_faltten.1.cnn.bias f4 [16]
000000 d6 fa 8a bf f8 1a 56 3d ae d6 3b 3f b9 ff bf 3d
       -1.0857799 0.052271813 0.7337445 0.09374947
000010 01 9c 4c 3f 3a 2c ac 3e 50 07 14 3e 39 77 e7 3f
       0.79925543 0.33627492 0.14455914 1.8083259
000020 4d 6b f2 bf 34 b2 93 bf b8 3a a6 bf cb 7b 17 bf
       -1.8938996 -1.1538758 -1.298667 -0.5917327
000030 c1 7b d6 be f4 9c 2c bf 4a ff c0 bd 6b 46 87 3f
       -0.41891292 -0.6742699 -0.094236925 1.0568365

encoder_unfaltten.0.BachNorm.weight f4 [8]
000000 00 00 80 3f 00 00 80 3f 00 00 80 3f 00 00 80 3f
       1.0 1.0 1.0 1.0
000010 00 00 80 3f 00 00 80 3f 00 00 80 3f 00 00 80 3f
       1.0 1.0 1.0 1.0

encoder_unfaltten.0.BachNorm.bias f4 [8]
000000 00 00 00 00 00 00 00 00 00 00 00 00 00 00 00 00
       0.0 0.0 0.0 0.0
000010 00 00 00 00 00 00 00 00 00 00 00 00 00 00 00 00
       0.0 0.0 0.0 0.0

encoder_unfaltten.0.BachNorm.running_mean f4 [8]
000000 a3 e3 1f bd 29 f9 89 bc e6 3a 01 bd 69 b4 96 3c
       -0.03903545 -0.016842442 -0.03155031 0.018396573
000010 18 d5 b7 bc a2 9b f4 3b b5 b2 d9 3b e6 c0 af bc
       -0.022440478 0.007464842 0.006643618 -0.021454286

encoder_unfaltten.0.BachNorm.running_var f4 [8]
000000 3d 44 67 3f 11 e6 66 3f 13 dc 66 3f dd e9 66 3f
       0.903385 0.90194803 0.90179557 0.902006
000010 7b b7 67 3f 2a a1 67 3f b5 1a 67 3f bd e0 66 3f
       0.90514344 0.9048029 0.90275127 0.90186673

encoder_unfaltten.0.cnn.weight f4 [8, 1, 3, 3]
000000 f3 6a 42 be 98 28 17 3e 0b f9 3a be e3 ba 3c be
       -0.1898611 0.14761579 -0.18259065 -0.18430667
000010 53 ad 6e be 3a 80 31 3e 40 df b4 3d 27 0e 9f be
       -0.23308305 0.17334071 0.08831644 -0.31065485
000020 f4 0f 80 bd 10 22 d1 bc 36 d8 72 be 08 26 6e be
       -0.06253043 -0.025528938 -0.2371529 -0.23256695
000030 80 de 98 3c b8 9c 10 bd 0c 87 84 bd 8c ad e5 bd
       0.018660784 -0.03530571 -0.06471071 -0.11214742
000040 1e 50 56 3e 14 af 99 3d f2 0a 0a 3e 60 11 0e 3d
       0.20929 0.075040966 0.13480738 0.03468454
000050 e0 02 7f be f6 f7 c8 bd c0 74 e1 bb 44 52 da 3d
       -0.2490344 -0.0981292 -0.0068803728 0.10660222
000060 d6 2d 05 3e 30 78 a8 bd de fc 8b be 0c 3b c7 3d
       0.13005766 -0.08226049 -0.2734136 0.09728059
000070 c4 b4 94 bd 60 6a 04 3e 17 4f 86 3e e0 7b f7 3d
       -0.07261041 0.12931204 0.26232216 0.12084174
000080 8b 2c 35 be 00 55 ff 3c 82 e6 85 be a6 b9 10 3e
       -0.17692773 0.03116846 -0.26152426 0.1413332
000090 7a 1f a6 be 70 2d b3 3d ac 7f c9 bd a0 10 a4 be
       -0.3244589 0.08748901 -0.098388046 -0.32043934
0000a0 76 09 5e be 92 e3 3e 3e 23 a8 42 be 16 b6 bd bd
       -0.21683297 0.18641499 -0.19009452 -0.09263246
0000b0 18 8a 11 3e 95 b3 a9 3e 50 c5 db bc 37 1b 9b be
       0.14212835 0.33144823 -0.026827484 -0.302942
0000c0 1f 3a 90 be fe 3b 34 be 89 dc 8f 3e 1b cb 8b 3e
       -0.28169343 -0.1760101 0.28097942 0.27303395
0000d0 16 29 25 be 19 c5 a2 3e b6 17 30 be 36 fa 59 be
       -0.16128954 0.31791 -0.17196545 -0.21286854
0000e0 81 0f 99 3e 93 e8 32 be e0 e3 0f 3c ba 0f 38 3e
       0.2989464 -0.17471533 0.008782357 0.17974749
0000f0 42 f8 7e 3e d0 8a c7 3d 08 73 0b bd 70 42 b7 bd
       0.2489939 0.09743273 -0.03404525 -0.08948219
000100 23 1b 37 be ac 86 9b bd 90 d0 53 be 52 70 54 3e
       -0.17881446 -0.07594046 -0.20685029 0.20745972
000110 0c 52 a8 3d a8 d3 5c bd 13 bd 95 3e 58 45 52 bd
       0.08218774 -0.05391279 0.29245815 -0.051335663

encoder_unfaltten.0.cnn.bias f4 [8]
000000 a0 b3 74 bd a0 47 12 3c 66 88 3a be c4 84 85 3d
       -0.059741616 0.00892821 -0.18216094 0.06519464
000010 10 23 0d 3e 38 d3 19 bd a0 67 20 bd eb 8f 3a be
       0.13782907 -0.03755495 -0.039161325 -0.18218963

encoder_unfaltten.1.BachNorm.weight f4 [16]
000000 00 00 80 3f 00 00 80 3f 00 00 80 3f 00 00 80 3f
       1.0 1.0 1.0 1.0
000010 00 00 80 3f 00 00 80 3f 00 00 80 3f 00 00 80 3f
       1.0 1.0 1.0 1.0
000020 00 00 80 3f 00 00 80 3f 00 00 80 3f 00 00 80 3f
       1.0 1.0 1.0 1.0
000030 00 00 80 3f 00 00 80 3f 00 00 80 3f 00 00 80 3f
       1.0 1.0 1.0 1.0

encoder_unfaltten.1.BachNorm.bias f4 [16]
000000 00 00 00 00 00 00 00 00 00 00 00 00 00 00 00 00
       0.0 0.0 0.0 0.0
000010 00 00 00 00 00 00 00 00 00 00 00 00 00 00 00 00
       0.0 0.0 0.0 0.0
000020 00 00 00 00 00 00 00 00 00 00 00 00 00 00 00 00
       0.0 0.0 0.0 0.0
000030 00 00 00 00 00 00 00 00 00 00 00 00 00 00 00 00
       0.0 0.0 0.0 0.0

encoder_unfaltten.1.BachNorm.running_mean f4 [16]
000000 d6 12 40 3b 68 07 f8 bc d5 f0 3d 3c f4 56 18 bc
       0.0029308102 -0.03027697 0.011593063 -0.009298075
000010 0a 38 f0 3a b3 53 88 3c 65 4e 42 bb 48 47 6c 3b
       0.0018327248 0.016641473 -0.0029648778 0.003605323
000020 dd 8c 9b bc a6 39 5a 3d 59 2b b6 3c 7d d5 e0 3c
       -0.018988067 0.053277634 0.022237467 0.02744555
000030 ac 38 04 bd 90 96 ab 3c e2 36 05 3e ea 3c 73 bc
       -0.03228061 0.020945817 0.13009217 -0.014846066

encoder_unfaltten.1.BachNorm.running_var f4 [16]
000000 ec fc 69 3f c6 63 6a 3f 92 19 6a 3f bd 52 69 3f
       0.91401553 0.9155849 0.9144527 0.91141874
000010 45 82 69 3f 39 ca 6a 3f 59 51 68 3f 06 c1 68 3f
       0.912144 0.9171482 0.90749127 0.9091953
000020 05 65 6c 3f 88 9b 6c 3f 85 cb 6b 3f 71 83 6a 3f
       0.92341644 0.9242482 0.9210742 0.91606814
000030 65 60 6a 3f 8a 09 69 3f 3e ec 76 3f 7a 0e 69 3f
       0.91553336 0.9103018 0.96454227 0.91037714

encoder_unfaltten.1.cnn.weight f4 [16, 8, 3, 3]
000000 6e 15 d6 bd 5f 32 a1 3d 8c 9b 05 bd a2 ac 88 bd
       -0.10453306 0.07870936 -0.032619044 -0.06673552
000010 ab a9 bc bd 97 87 ce bd e6 02 8c bd 04 eb 0f bd
       -0.09212049 -0.100844555 -0.0683649 -0.035136238
000020 6b 4b ca bd 01 a0 8c 3d 78 65 6c 3c 84 6d 22 bd
       -0.09877666 0.06866456 0.014428489 -0.039655223
000030 d0 9d 08 bd d0 ce bf bb 4c 12 fd bc 9a 66 31 3d
       -0.033353627 -0.0058535114 -0.030892514 0.04331074
000040 60 be 58 3b af 38 d2 3d e9 ac 95 3d 58 e3 97 bd
       0.0033072457 0.10264718 0.073083706 -0.07416409
000050 4c b0 d1 3c 5c bd 82 3c 02 96 4a bd a8 d9 2c 3c
       0.02559676 0.015959434 -0.049459465 0.01054994
000060 19 c0 c7 bd 40 29 7a bc b8 24 23 3c fb 36 ea 3d
       -0.097534366 -0.015268624 0.009957485 0.11436268
000070 6f 19 68 bd a3 f4 aa bd f5 89 83 bd bd 6c cb 3d
       -0.05666488 -0.08347442 -0.064227976 0.099328496
000080 74 12 f2 bc 63 61 db 3d f4 42 e1 3c 7c 84 bc bc
       -0.029549815 0.107119344 0.027497746 -0.023012392
000090 ef e3 b6 bd 6e 89 7b 3d 21 e4 65 bd c6 26 2e 3d
       -0.08930194 0.06141036 -0.056125764 0.042517446
0000a0 34 be bc 3c 58 96 64 3c 0e e9 0e bd 1c 2c d8 3c
       0.023039915 0.01395186 -0.034890227 0.02638822
0000b0 2b 1e 89 3d 61 da af 3d ae bd 77 3d de ac d4 bd
       0.06695207 0.08586574 0.060483627 -0.10384534
0000c0 9f ce b6 3d 8e 9d 0d bd 12 52 27 bd eb 50 d3 3d
       0.089261286 -0.034574084 -0.040849753 0.10318168
0000d0 22 47 50 3d 8f 7f 97 3d 8c cc 5f bd a0 93 d5 bd
       0.050849088 0.07397377 -0.05463843 -0.10428548
0000e0 d8 00 68 bc 20 54 32 bd 0a 33 e7 bd 45 bc ab 3d
       -0.014160357 -0.04353726 -0.11289032 0.08385519
0000f0 10 62 ac bb 8e b4 6f bd e8 90 34 3c ce ef 6b 3d
       -0.0052607134 -0.0585218 0.0110208765 0.057601742
000100 04 71 ef 3c 1e 92 0e 3d 48 cb 43 bd 5c da d7 3c
       0.029228695 0.034807317 -0.047801286 0.026349239
000110 46 34 7b 3d a4 fc b0 3c 11 0f c0 3d 65 4e c3 3d
       0.06132915 0.021604843 0.09377874 0.09536437
000120 cd 26 c1 3d d4 6a 87 bd 69 e0 d1 3d 68 7d bb bd
       0.09431229 -0.06612173 0.10247881 -0.09154779
000130 ed 6e c5 3d d8 86 5f bc 40 b4 39 bd e3 12 db bd
       0.09640298 -0.013642989 -0.045337915 -0.10696962
000140 00 53 cf 3a 6e 21 5b 3d 8a 3f b5 bd ba c3 3d bd
       0.0015817583 0.053498678 -0.0885001 -0.046329238
000150 2a 26 8d bd 62 aa 57 3d 00 00 f3 3a f0 f2 ac bc
       -0.06892045 0.052652724 0.0018539429 -0.021111935
000160 20 8b 89 bd b2 21 76 bd 9e 05 0c 3d 4e 78 cb bd
       -0.06715989 -0.060090728 0.034185044 -0.09935056
000170 06 57 a6 bd 3d 34 ad 3d 6a 86 87 bd 9a cf 5c bd
       -0.08122067 0.08457229 -0.06617434 -0.05390892
000180 a0 d5 22 bd cb a0 da 3d 62 01 1d 3d 5e b0 1b 3d
       -0.03975451 0.106752 0.038331397 0.038009994
000190 99 4e cd 3d c0 2f ca bb aa 54 a2 bd 70 22 d5 bd
       0.10024757 -0.006170243 -0.07926305 -0.10406959
0001a0 53 e7 e2 3d 83 8b ef bd dd 5e e1 3d c9 87 af 3d
       0.11079278 -0.116965316 0.11004422 0.08570821
0001b0 8d 7e 84 3d 3c 48 8d bd 0c 4f db bd bd 26 b9 bd
       0.0646945 -0.06898543 -0.10708436 -0.09040592
0001c0 c3 cc eb bd 9c 3f db bd f9 b0 d9 bd 35 70 de 3d
       -0.115136646 -0.10705492 -0.10629458 0.108612455
0001d0 cd 30 bf 3d 03 99 d2 3d b9 5d b9 bd b0 5d d5 bd
       0.0933548 0.10283091 -0.09051079 -0.1041826
0001e0 10 aa e3 bd c6 3e 7f 3d 3b 41 c6 3d e2 c4 2b bd
       -0.11116421 0.062315725 0.096804105 -0.04193581
0001f0 ff c8 87 3d 3c b5 b4 3c ac 15 93 3c 94 ac b9 3c
       0.06630134 0.022059076 0.01795467 0.0226653
000200 44 a2 3c bd c0 10 d6 3b c5 ba 93 3d 4a 0a a9 bd
       -0.046053186 0.0065327585 0.07213358 -0.082539156
000210 af b0 86 3d 18 ab 04 bc 67 78 b5 3d 3e 79 c8 bd
       0.065766685 -0.008097433 0.088608555 -0.0978875
000220 b2 63 24 bd 08 a0 da bc 32 ea 59 3d e8 3a 6e 3c
       -0.04013414 -0.026687637 0.05320186 0.0145404115
000230 5d dd c3 bd a8 aa 90 bd b3 18 82 bd 28 23 2a bd
       -0.09563706 -0.070638 -0.06352367 -0.041537434
000240 db 82 cb bd 5b 5c f0 3d 24 d1 4a bd b0 59 9d bd
       -0.09937068 0.117363654 -0.04951586 -0.07683122
000250 c1 cb bd bd da 09 c1 bd 6b 95 92 3d f1 c0 be 3d
       -0.092673786 -0.09425707 0.071574055 0.093141444
000260 76 a0 6e 3d 62 c1 aa bd 00 e2 98 ba 20 c5 4d bd
       0.058258496 -0.08337666 -0.0011664033 -0.05023682
000270 bb e5 e5 3d 3a 8f 9d bd 2f e0 bd bd 49 6c 82 3d
       0.11225458 -0.07693334 -0.09271275 0.0636831
000280 5d 47 ae 3d f9 1c cd 3d 76 46 65 3d 98 ad 41 bd
       0.08509705 0.10015292 0.0559754 -0.047284693
000290 c8 98 f5 bc 8e 64 54 3d 1e 4e 9f bd c7 9a bf 3d
       -0.029980078 0.05185371 -0.077785715 0.09355693
0002a0 c2 37 31 3d 2e 68 b4 bd 24 0f b0 3c 2f b5 e0 3d
       0.043266065 -0.08808933 0.021491595 0.10972058
0002b0 c9 78 93 3d 3f e4 bb bd f7 92 98 bd 6a 20 64 3d
       0.07200772 -0.09174394 -0.07449906 0.055694975
0002c0 1e af 5f 3d 58 33 70 3c fc 5f b0 bd 00 3a 25 3b
       0.054610364 0.014660679 -0.086120576 0.0025211573
0002d0 99 21 d2 3d e9 9b 8c 3d 2a c5 91 bd aa 93 32 3d
       0.102603145 0.06865675 -0.07117684 0.043597855
0002e0 dc 42 f8 3c ea 27 18 3d 01 8f bf bd 95 8e 8a bd
       0.030305319 0.03714744 -0.09353448 -0.067654766
0002f0 a8 f7 cc bd 18 89 b8 bc 77 f1 87 3d e6 cf cd bd
       -0.10008174 -0.022526309 0.06637853 -0.10049419
000300 10 01 eb 3b 6b 28 b9 bd 50 2e ee bb 8e b0 30 3d
       0.0071717575 -0.09040912 -0.0072687045 0.043137126
000310 ef 50 92 3d 88 e9 57 bc c6 f0 57 3d 47 8a c5 3d
       0.07144343 -0.013178237 0.052719854 0.09645515
000320 fe f4 09 3d 23 d9 9a 3d bb fd 8b 3d 3d 6a a6 3d
       0.03368091 0.07560947 0.068355046 0.08125732
000330 8a 68 25 3d 46 fe 1f bd fd 92 8e 3d e4 e6 f6 3c
       0.0403829 -0.039060853 0.069616295 0.030139394
000340 6e da ca bd c8 6c 23 bd 00 aa bb b9 36 fe 51 3d
       -0.099049434 -0.039898664 -0.0003579408 0.051267825
000350 08 68 0b bc 64 eb a2 bc 0d f6 7e bd c2 02 5d 3d
       -0.00850869 -0.019887634 -0.06224637 0.05395771
000360 80 fe 4d bc 80 79 de bc 00 11 17 3a 5f c0 ad 3d
       -0.012572885 -0.027157545 0.0005762726 0.084839575
000370 b1 79 c9 3d d2 de 33 3d 02 7c b8 bd c0 c0 de bb
       0.09837664 0.04391367 -0.090080276 -0.00679788
000380 d4 17 9d 3c 88 00 e6 bd 7d ec db 3d c2 6b 0a bd
       0.019176401 -0.1123057 0.10738466 -0.033794172
000390 78 7f a0 bc 06 94 8b bd 7a 75 67 3d e6 e1 3a bd
       -0.019592032 -0.068153426 0.05650852 -0.04562559
0003a0 c0 68 66 bb 38 c6 08 3c 5c cc a6 3c e2 dd 76 3d
       -0.003515765 0.00834804 0.020361118 0.060270198
0003b0 b7 b4 bb 3d f1 a8 b6 bd a4 d5 8a 3c 6d f3 de 3d
       0.09165328 -0.08918942 0.016947575 0.108862735
0003c0 30 8f f1 3b e3 f1 bc 3d e2 59 34 3d 74 df b9 bd
       0.0073718056 0.09225824 0.04403103 -0.090758234
0003d0 fe 80 6c 3d bd a9 ac bd c2 62 2f 3d 74 79 07 bd
       0.057740204 -0.084308125 0.042818792 -0.03307481
0003e0 f2 1f b4 bd 98 88 59 bc 88 2d 42 bd 00 bf 56 bb
       -0.087951556 -0.013277195 -0.047406703 -0.0032767653
0003f0 db 15 c1 3d f8 65 2b bc 16 27 90 bd a4 e4 fa 3c
       0.09427997 -0.010461323 -0.07038705 0.030626602

encoder_unfaltten.1.cnn.bias f4 [16]
000000 1e aa 2e bd 8f 19 c9 3d b4 34 a3 bd 50 a7 a6 3b
       -0.042642705 0.09819328 -0.07969037 0.005085863
000010 c0 69 e2 bb b6 76 52 bd c1 fb e0 bd 1a 94 40 bd
       -0.006909579 -0.051382743 -0.10985518 -0.04701624
000020 1d 13 b2 3d 7f 52 b4 3d 24 ae f9 3c e4 d0 af 3c
       0.08695052 0.088047974 0.030478545 0.021461911
000030 68 51 1e bc 8c c9 a3 bd d5 3c eb 3d bb 66 ab bd
       -0.009662963 -0.079974264 0.11486212 -0.08369204

embedding.weight f4 [10, 4]
000000 b1 2b b8 3e 98 3c 7b bf 70 2a 99 bf f6 24 a4 3c
       0.35970834 -0.98139334 -1.1966076 0.020037156
000010 e3 18 cb 3e 27 9a 0d 40 ee 8e fc bf f0 13 a2 be
       0.39667425 2.2125337 -1.9731119 -0.31655836
000020 35 aa fb 3f 55 bb 18 bf 65 f9 7a bf a5 48 1d 3f
       1.9661318 -0.59660846 -0.98036796 0.6143897
000030 40 7c ad 3d e8 5b 8a 3f b8 5b e2 3f 40 2e 5a bf
       0.084709644 1.0809298 1.768424 -0.8522682
000040 85 39 13 c0 b8 d6 21 bf c0 d3 4a 40 be c1 4e 3f
       -2.3003857 -0.6321826 3.1691742 0.8076438
000050 7f ee b5 be f4 93 38 bf 73 0f 81 bf 25 3f 06 3c
       -0.3553352 -0.7210076 -1.008284 0.008193766
000060 2b 0c 4a 3f 17 83 3f bd 8a 0b 82 3f ac 94 f0 bd
       0.78924817 -0.046755876 1.0159771 -0.11747107
000070 d0 06 53 bf d6 3e 38 3f ab b3 cd bf 59 df cf 3e
       -0.8243227 0.7197088 -1.6070455 0.40600088
000080 c1 ac 56 3f f9 85 05 bf 68 16 88 3f 3c f2 a3 3e
       0.8385735 -0.5215755 1.0631838 0.32020748
000090 60 1c a3 bf 92 5e af bf ad 2d 9e be 09 a3 10 bf
       -1.2743034 -1.3700736 -0.30894223 -0.5649877

decoder.1.BachNorm.weight f4 [16]
000000 52 87 d0 3f d6 d1 a6 3f 11 81 8b 3f 61 a7 03 40
       1.6291296 1.3032787 1.0898763 2.057091
000010 36 30 ba 3f 8f d4 b1 3f 80 2e 99 3f 96 ae b0 3f
       1.4545963 1.3892993 1.1967316 1.3803279
000020 b7 c5 b8 3f 7c 83 94 3f a1 bf 88 3f 55 c8 ba 3f
       1.4435338 1.1602626 1.068348 1.4592386
000030 54 c8 74 3f 68 61 ba 3f 5a 4f 9f 3f 5e 93 e7 3f
       0.95618176 1.4560976 1.2446091 1.8091848

decoder.1.BachNorm.bias f4 [16]
000000 1a ba 3e bf d5 e8 16 bf e6 bb 60 3b 14 18 60 bf
       -0.7450272 -0.58949023 0.0034291684 -0.8753674
000010 e5 25 e0 be c7 a5 39 bf 26 61 b1 be c0 08 b2 be
       -0.4377891 -0.7251858 -0.3464443 -0.347723
000020 2e 11 08 be 2e 56 1c be 56 1e 0a be a3 d7 42 bf
       -0.13287804 -0.1526725 -0.13488135 -0.76110286
000030 03 df 51 be 8a e0 b2 be 09 74 34 bf d0 d6 60 bf
       -0.20495228 -0.34936935 -0.70489556 -0.8782778

decoder.1.BachNorm.running_mean f4 [16]
000000 3b cb ac c0 4f 7a d4 c0 23 2f ff c0 c2 2e ed c0
       -5.3998084 -6.6399302 -7.974504 -7.4119577
000010 90 4f 24 c1 48 2b be 3f fc c3 7f c0 a2 61 6a c1
       -10.269424 1.4856958 -3.996337 -14.648836
000020 3e 2d 3a c1 e6 79 fa be 7f a2 f3 c0 2b dc 21 c1
       -11.636045 -0.48921126 -7.613586 -10.116252
000030 5d 3b d7 c0 9e c5 a4 c0 bf 34 cf 3f 8f 27 9e 3f
       -6.7259965 -5.149123 1.6187972 1.2355822

decoder.1.BachNorm.running_var f4 [16]
000000 f3 be ce 45 d6 58 a3 45 20 04 a9 45 62 1a ea 45
       6615.8687 5227.1045 5408.5156 7491.298
000010 6f 4e bb 45 a7 3d 94 45 f8 11 9c 45 f6 06 ae 45
       5993.804 4743.7065 4994.246 5568.87
000020 81 68 a2 45 63 98 a6 45 5e 61 99 45 45 60 ac 45
       5197.063 5331.0483 4908.171 5516.0337
000030 16 d6 91 45 a6 ab ae 45 eb 19 89 45 6a eb cd 45
       4666.7607 5589.456 4387.2397 6589.427

decoder.1.cnn.weight f4 [16, 16, 6, 6]
000000 1c fc 9d be 72 9b 03 bc 98 ba f9 3e 15 50 c0 3e
       -0.30856407 -0.0080326665 0.48775172 0.37561098
000010 c9 2d f6 3e 56 73 73 3f fc f4 9f 3f 31 4e b7 3e
       0.48081806 0.95097864 1.2496638 0.35801843
000020 e5 e2 50 bf e1 db 06 bf 77 bd a4 3f 43 12 6b 3f
       -0.81596214 -0.5267926 1.287032 0.9182474
000030 27 28 86 be 2e ef c7 be 17 bb 24 3d 02 ad 82 bf
       -0.2620251 -0.39049667 0.040217485 -1.0209048
000040 59 23 67 3f f7 b2 d9 be 53 62 20 3e fe 15 0a 3f
       0.9028831 -0.42519352 0.15662508 0.5393981
000050 89 6f 9b 3d 7d b9 4a bf 89 01 8b be f1 e0 a0 bd
       0.07589633 -0.7918928 -0.2714961 -0.07855404
000060 ee 8b 28 be af 25 d3 3e 1f 92 f3 be 6a 12 42 3f
       -0.16459629 0.41239688 -0.4757242 0.7580935
000070 e2 60 58 bc 26 f4 16 bf c3 e5 31 bf 05 61 38 3d
       -0.013206692 -0.5896629 -0.69491214 0.0450144
000080 dd ee 6f bf 7a f9 7a bf 91 04 40 3f 4f 44 ec be
       -0.9372385 -0.9803692 0.7500697 -0.46145865
000090 97 c5 51 bf 06 2a 6a 3e f0 12 bc 3e dc 5b 70 3e
       -0.81942123 0.22867593 0.36733198 0.23472542
0000a0 37 cf b8 3e be 8a 22 bd 49 cb 39 bf 91 e9 6a 3f
       0.36095592 -0.039683096 -0.72575814 0.91762644
0000b0 15 f8 35 3f 4f 54 bc 3f b8 42 b5 3f 47 dd 39 3f
       0.7108167 1.4713229 1.4160986 0.7260327
0000c0 be 34 65 3d 92 67 f9 3e 29 27 97 bf 7b 07 6f be
       0.055958502 0.4871183 -1.1808826 -0.23342697
0000d0 eb 4b 65 3f b4 7b 99 3f ef ef cf bf 94 de 6b 3f
       0.89568967 1.1990876 -1.6245097 0.921365
0000e0 fa df c4 be df b2 01 bd 26 4a b6 bf 9e 24 e5 3e
       -0.3845213 -0.031664725 -1.4241378 0.447545
0000f0 0e 7c ac 3e c5 11 46 3f 6a 77 49 be 37 e3 4d bf
       0.33688396 0.77370864 -0.19674459 -0.8042483
000100 c0 a9 43 3f 71 0c fd be b7 e4 a3 3f 97 47 7b bf
       0.7643089 -0.49423555 1.2804173 -0.9815611
000110 97 8a 81 3d 67 8b 40 3e 7c 89 72 3f e5 99 2f bf
       0.06325262 0.18803178 0.94741035 -0.685942
000120 13 c7 c0 be 4d de d1 3d 17 d3 02 bd c1 86 20 bf
       -0.37651882 0.10247479 -0.031939592 -0.6270562
000130 f7 2a b1 3e 8a 93 74 bf da c8 dc 3e 36 7f 5b 3e
       0.34603092 -0.95537627 0.43121988 0.21435246
000140 b8 d9 1d 3e bd 61 1f 3e 8e 68 0e bf ed 59 1a 3f
       0.15415084 0.15564628 -0.5562829 0.60293466
000150 72 f5 6d 3e 04 5c 84 3f 53 a5 79 3f 9b 16 6c 3f
       0.23238161 1.0340581 0.9751789 0.92221993
000160 6f 7e 0b be 05 15 88 3f b3 3d 83 3f 60 99 a9 3e
       -0.1362245 1.0631415 1.0253204 0.33124828
000170 79 36 60 be cd 4c 91 be 26 88 b2 bf be d1 71 be
       -0.2189578 -0.28378907 -1.3947799 -0.23615167
000180 d0 24 c8 3d cb ad 07 3f e2 7f 97 3f 70 9c bd 3e
       0.097726464 0.5299956 1.1835902 0.37033415
000190 4a f3 0c bf 91 7c f1 3c af 7f 9e 3f 12 c4 de 3e
       -0.5505873 0.029478343 1.2382716 0.43508965
0001a0 2c 60 fb 3e ee 96 1e 3e 26 d6 95 3f 04 1c 55 bf
       0.4909681 0.15487263 1.1705978 -0.83245873
0001b0 88 5f 4a bf a9 f4 df be cb e1 95 3f fd 99 db 3f
       -0.7905202 -0.43741348 1.1709532 1.7156368
0001c0 fd f4 dd be 62 26 9d 3f e9 27 95 be 40 f3 9b 3c
       -0.43350974 1.2277339 -0.29132012 0.01903689
0001d0 49 7d d5 3e b9 40 bd 3f 52 79 18 3f a0 d2 2a 3b
       0.41697147 1.4785377 0.5956012 0.0026065484
0001e0 91 83 54 3f 89 03 1b 3f db 6d 5d bf a4 0f f1 3f
       0.83013254 0.6055227 -0.8649575 1.8832898
0001f0 5b 3d 19 c0 c2 eb e2 3d 3a 47 bd bd 58 e3 06 3f
       -2.3943698 0.110801235 -0.09242101 0.5269065
000200 58 e8 0b bc 01 5a ae 3f 7e 88 22 bf b4 ef de bf
       -0.008539282 1.3621217 -0.6348952 -1.7416902
000210 53 65 15 3f 2f 69 82 bd ac 2e 46 3f fd 2f 60 bf
       0.58357733 -0.063677184 0.77414966 -0.87573224
000220 c2 54 ec be bb 94 96 bd 74 2a c6 bd 61 a3 5c be
       -0.46158415 -0.07352587 -0.09676066 -0.21546699
000230 5a ec 80 be 3d 04 48 bf 4b 6f e5 3d ba 0d 65 3e
       -0.25180322 -0.7813147 0.11202868 0.22368518
000240 6b d6 29 bf 8a 60 1f bf 69 63 9d bf fa 53 9d 3f
       -0.663428 -0.6225668 -1.2295963 1.2291253
000250 f1 56 7c 3f 59 3a ee bf 48 37 2b bf 78 40 0f 3e
       0.9857016 -1.8611556 -0.6688123 0.13989437
000260 1e 31 5e 3f 52 5c 87 3f c2 cb 52 3f 6c fc 8f bf
       0.86793697 1.0575049 0.8234216 -1.1248908
000270 f5 bc 15 3f 70 08 43 3f 2c 8d df be f6 cf b1 bf
       0.5849145 0.7618475 -0.43662393 -1.389159
000280 55 c9 9e 3f ed 91 5a bf c1 9c 93 3f 51 82 80 be
       1.2405192 -0.85378915 1.1532212 -0.25099424
000290 5e dc 57 3f f1 c0 ac bf 28 fc 17 3f 70 4c 24 3e
       0.8432063 -1.3496381 0.59369135 0.16044784
0002a0 ce 07 ca 3f 17 c2 86 bf 5b fc 83 3d b6 f5 75 3e
       1.5783632 -1.0527982 0.06444617 0.24019513
0002b0 97 5f d0 3e 03 a7 ef be c9 3b 6e 3f ee 94 74 be
       0.4069793 -0.46807107 0.93059975 -0.23884937
0002c0 0e 05 23 bf 58 18 08 bf 58 77 f6 bd ef ae 88 bf
       -0.6367959 -0.53162146 -0.12034482 -1.0678385
0002d0 fd a6 62 bf 52 a6 f7 be 5c b1 32 3f e7 3e e7 3e
       -0.88536054 -0.4836908 0.6980188 0.45165178
0002e0 bb 03 b0 3f f5 32 c8 bf b4 29 21 3f 4b b8 84 bd
       1.3751138 -1.5640551 0.6295426 -0.064804636
0002f0 4f aa f9 bf 5d 78 57 3f 3b a1 8f 3e ba d7 28 bf
       -1.9505099 0.84168035 0.28052697 -0.6595417
000300 db 44 0a be 5c aa 30 3f d3 f9 89 bf 92 1b 94 3f
       -0.13502829 0.6900995 -1.0779365 1.1570914
000310 a4 f9 48 3f 5e 5e de be dd 63 63 be 08 0f 3b 3f
       0.7850592 -0.4343137 -0.22206064 0.7306981
000320 a0 07 68 be c3 12 7d 3f 76 2f 50 3f 29 ee 79 3f
       -0.22659159 0.98856753 0.8132242 0.9762903
000330 32 d3 12 be 11 8a 22 bf 37 f7 a8 3d 3a ca 37 3f
       -0.14338377 -0.6349192 0.082502775 0.7179295
000340 29 4b e4 3b df 94 2a 3e 1b 28 c2 bd 47 3e 94 3d
       0.0069669676 0.16658352 -0.09480306 0.07238441
000350 ae c1 03 bf e7 b4 1c bf 05 77 5b bf e9 dd 0a 3f
       -0.51467407 -0.61213535 -0.85728484 0.5424486
000360 1f b1 b8 bf 41 a0 0a be 0c b2 5b be 01 1c 0c bf
       -1.4429053 -0.13537695 -0.21454638 -0.5473023
000370 5d fe 28 3f 27 c8 2d be dc f7 67 be 28 7e bf 3e
       0.6601313 -0.16970883 -0.22653145 0.37400937
000380 9d 47 3a bf 85 76 43 bf 5e bb ba bd c9 d2 50 3f
       -0.72765523 -0.7635272 -0.09117769 0.8157163
000390 f9 50 48 be ff c2 ee be 9a 2c 9c 3d 2f 3e 92 bf
       -0.19562139 -0.46633145 0.076256946 -1.1425227
0003a0 0d bc 14 3f 70 46 68 3e 41 a9 bd be 53 25 24 bd
       0.5809944 0.2268312 -0.37043193 -0.040074658
0003b0 98 cc 5f bf fa f0 02 3f 99 c4 91 3f 7f 6e 6a bf
       -0.8742156 0.5114895 1.1388122 -0.91574854
0003c0 0a e1 8c 3d c1 c0 46 3f ce 5e 02 bf fe 7e 1a 3f
       0.0687886 0.7763787 -0.5092591 0.60350025
0003d0 3d f5 ee bf ef 2f 01 bf df be 88 3e c1 7b 57 bf
       -1.8668591 -0.50463766 0.26708123 -0.8417321
0003e0 cb 47 5f 3f d3 52 6d bf e7 3c 8a 3e 56 a6 b5 3f
       0.8721892 -0.92704505 0.2699959 1.4191387
0003f0 ec d0 ac be ed 0b b3 bf dd 8b 16 bf f9 93 82 3f
       -0.33753145 -1.3988014 -0.58807164 1.0201408

decoder.1.cnn.bias f4 [16]
000000 2f 8b 01 40 f3 b5 f0 bd e9 48 15 3f 33 e0 8f 3e
       2.02412 -0.11753454 0.5831438 0.28100738
000010 80 6a 39 bd 4a 3d e4 bd 89 ca bc 3c 3a 58 38 3e
       -0.045267582 -0.111445025 0.023045795 0.18002406
000020 a6 1b 2d bf 0b 7d 9d bd 07 b8 a0 bf 01 a1 07 3f
       -0.67620313 -0.07689866 -1.2556161 0.5298005
000030 08 d2 8c 3f cb 2c 16 3e f3 12 60 bf ea 32 99 be
       1.1001596 0.14665525 -0.87528914 -0.29921657

decoder.2.BachNorm.weight f4 [8]
000000 ca e5 57 3f 6e ca ab 3f 4e fd 99 3f a5 de a6 3f
       0.84335005 1.3421152 1.2030427 1.3036696
000010 57 d6 9e 3f 58 37 b5 3f 3a fe a1 3f d2 e0 66 3f
       1.2409161 1.4157515 1.2655709 0.901868

decoder.2.BachNorm.bias f4 [8]
000000 c7 e2 8c be b6 86 0c 3e 87 fc 37 bd 36 cc 23 bf
       -0.27516767 0.13723263 -0.044918563 -0.63983476
000010 8d cd ff bd 1d 8f c7 be 23 aa 72 be 93 d0 f5 bd
       -0.124903776 -0.38976374 -0.23697715 -0.12002673

decoder.2.BachNorm.running_mean f4 [8]
000000 6d b7 19 3c 91 83 40 3f 17 57 04 40 b7 1c ac bf
       0.009382111 0.75200754 2.0678155 -1.3446263
000010 0f 10 8b 40 a1 46 3a bf 88 f3 89 3d de bb f3 3a
       4.3457103 -0.7276402 0.06735903 0.0018595417

decoder.2.BachNorm.running_var f4 [8]
000000 5a 10 27 42 6d a4 22 42 aa 9d 31 42 8d c2 43 42
       41.76597 40.660572 44.40397 48.93999
000010 04 98 28 42 e0 43 50 42 f0 5e 48 42 42 5f 17 42
       42.148453 52.066284 50.092712 37.843025

decoder.2.cnn.weight f4 [16, 8, 6, 6]
000000 00 42 bc 3e 43 49 4a bf 7a e3 9f bf bc 21 a6 bf
       0.36769104 -0.7901804 -1.2491295 -1.2979045
000010 56 fb 0a c0 34 3e 53 bd 82 bf 6d bf 64 5e 9c 3f
       -2.1715903 -0.051572993 -0.9287034 1.2216306
000020 d7 05 3e c0 aa 93 72 bf 57 ed 3c c0 44 35 ee bf
       -2.9691064 -0.9475657 -2.951986 -1.8610005
000030 44 b3 4f 3e 60 49 4e 3f 96 69 60 3f c4 11 41 3f
       0.20283228 0.8058071 0.8766111 0.75417733
000040 24 12 a2 3e 87 5b 37 bf 24 2f 8b be f2 b5 18 3f
       0.31654465 -0.71624035 -0.27184403 0.59652627
000050 49 e5 61 bf 3a 7d b8 3f 07 be 71 bf e4 ee 26 3f
       -0.88240486 1.4413216 -0.94430584 0.6520827
000060 fa 22 39 3d b4 22 22 3f a6 60 aa 3f 4e 0f 1f 3f
       0.045199372 0.633342 1.3310745 0.6213273
000070 6d c2 27 3e c7 84 1e bf 7a c9 6f 3f b5 40 7d be
       0.16382761 -0.6192135 0.93666804 -0.24731715
000080 4d 13 cf 3e 6a 37 c2 3e 87 42 ce bd 80 85 fa 3f
       0.40444413 0.37932903 -0.10071283 1.9571991
000090 35 13 43 3f 8b 1e ed be 72 19 1a bf 07 f3 cf bd
       0.7620118 -0.46312365 -0.60195076 -0.10153776
0000a0 30 ab 50 bf 0e 16 da 3e 11 be 08 3e 4a 6e 8d bf
       -0.8151121 0.4259495 0.13353755 -1.1049283
0000b0 04 53 8c 3e 30 96 96 be f1 e1 85 bf 4e 80 c1 3f
       0.27407086 -0.2941146 -1.0459577 1.511728
0000c0 a4 e3 a7 bf 3a bc 3b bf 8d 2b da 3e cf 17 bf be
       -1.3116345 -0.73334086 0.42611352 -0.37322852
0000d0 a6 cf 75 bf e2 55 7d bf ed fa 4f 3f 66 7d e3 bd
       -0.9601997 -0.9895917 0.8124226 -0.11107902
0000e0 78 cb dd bd 9e 7a e9 3f 87 b7 ad bd ba 8f 01 3f
       -0.10829824 1.8240545 -0.08482271 0.50609934
0000f0 6c 2b 83 3e ac fc b6 3e 97 06 c7 3e cb 0e 8a 3f
       0.25619066 0.35739648 0.38872215 1.0785764
000100 60 05 5f 3f 79 9e 2d 3e 5e ca 78 be df 3d 7d 3e
       0.87117577 0.16954984 -0.24295947 0.24730633
000110 5c f9 07 bf 1c 3f 43 3d 31 15 17 3e a6 6b 54 bf
       -0.5311487 0.047667608 0.14754178 -0.8297676
000120 6c 7a fd be f9 95 25 3f 89 1d 8f 3f ce 70 0c 3e
       -0.49507463 0.64681965 1.1180888 0.13714907
000130 87 62 69 be eb 11 2e 3f 0d c9 41 3e e0 5c a1 3e
       -0.22791491 0.6799609 0.18924351 0.3151617
000140 ea 03 77 3b 74 41 65 3e a1 29 dd 3f 0c 3e 1a 3f
       0.0037691542 0.2238825 1.7278329 0.60250926
000150 68 ee c0 bd c8 d8 02 bf 26 e4 82 bf 2b 41 a3 3d
       -0.094204724 -0.5111203 -1.0225875 0.07971414
000160 29 dc e8 3e b7 24 b3 3f a0 2e c8 3e 83 1b 46 bf
       0.4548047 1.399558 0.39098072 -0.7738573
000170 a5 c8 19 bf b7 b7 43 3e 70 95 9d bc d0 0c 82 3f
       -0.60071784 0.1911305 -0.019236296 1.016016
000180 18 90 18 3d 09 97 b7 be 0e 70 97 3e 69 3c b7 3e
       0.037246794 -0.35857418 0.29577678 0.35788277
000190 e2 38 f7 3d de e9 61 be 2a 4c 6c be 06 ad ba be
       0.120713964 -0.2206187 -0.2307593 -0.3646013
0001a0 8e 0c 8d be 28 4d 08 3e a1 4e 61 bf be 94 61 3e
       -0.2754864 0.13310683 -0.88010603 0.22029397
0001b0 f5 b7 89 bd c1 a2 cf bf 7a 43 27 bd d0 6f cd 3e
       -0.0672454 -1.6221544 -0.040835835 0.4012437
0001c0 73 bc 19 bd e2 ea 09 3e 8c 26 a3 bf 57 a1 e8 bf
       -0.037533235 0.13468507 -1.2746139 -1.8174237
0001d0 1d 26 16 bf 58 5a 92 bd 4a 59 99 bf b9 f6 57 bf
       -0.58651906 -0.07146138 -1.1980374 -0.84360844
0001e0 71 12 1d be a4 8e f3 be 26 62 a6 3e 76 e3 c9 be
       -0.15339066 -0.47569764 0.32496756 -0.3943135
0001f0 69 4b c8 bd 03 56 09 c0 f1 66 cd be d2 9e 45 3f
       -0.09780008 -2.1458747 -0.401176 0.77195466
000200 dd 6c a3 3f 6e eb c6 3f 8c 98 4d 3f 1b 16 7b be
       1.2767597 1.5540597 0.80310893 -0.24520151
000210 b8 2c 5b bf 0a 06 e9 be 4e 3a 84 bc a9 44 52 3f
       -0.8561511 -0.4551242 -0.016141083 0.8213602
000220 9b f2 f6 bc f8 53 01 3f f8 c3 82 3f bc 4c bd 3f
       -0.03014498 0.5051875 1.0216055 1.4789042
000230 fe ae 04 40 ae 4c 84 3f 67 ce 23 3f e1 7e 06 3f
       2.0731807 1.0335901 0.6398682 0.5253735
000240 05 c4 3a bd c3 ce ae 3e 96 24 81 bf 7d f8 e3 be
       -0.045597095 0.34142122 -1.008929 -0.4452552
000250 f8 82 13 bf 97 29 c5 3f 63 76 ba 3e f2 1b 88 bf
       -0.5762172 1.5403317 0.36418447 -1.0633528
000260 4c e5 de 3d 02 47 9f 3e 47 8b 45 3f f5 4b 9b bf
       0.10883579 0.31108862 0.77165645 -1.2132555
000270 23 37 40 3e c3 44 55 3f 7f b8 8e 3e ff 5b 6f 3f
       0.18771033 0.8330805 0.27875134 0.9349975
000280 e0 7a 4f bc ba 50 21 3f 80 1b 5d 3b f2 a4 1d bf
       -0.012663573 0.63013804 0.0033738315 -0.6157981
000290 7a 79 1f be 74 f4 e5 3e b8 d6 08 3f cc 13 5d 3e
       -0.15573683 0.44913065 0.53452635 0.21589583
0002a0 4f 06 8a 3d 16 8f be 3f 4d 0d f2 3e bf a7 20 3f
       0.067394845 1.4887416 0.47275773 0.6275596
0002b0 cc 6e f2 be d5 f1 93 bf 72 cc 1e 3b 48 74 a7 3e
       -0.47350156 -1.1558176 0.0024230746 0.32705903
0002c0 bf 09 1d 3f f6 cb 3d 3f d5 9c 9b 3e 8a 3c 31 bf
       0.61342996 0.74139345 0.3039309 -0.69233
0002d0 4d d3 e8 be 92 fa 26 bf c1 28 61 be fe 0a 12 bf
       -0.4547371 -0.6522609 -0.21988203 -0.5704802
0002e0 3a 30 25 3f 2a 14 5c 3e b0 27 88 be e5 ef 56 3f
       0.6452671 0.21492067 -0.2659278 0.839598
0002f0 c6 1a 7b 3f 19 7d b4 3f 4c 71 23 3f 55 16 64 be
       0.9808773 1.4100677 0.6384475 -0.22274144
000300 34 d1 90 3e 1b dd cc 3e 36 5c b5 3e 62 9e 8b 3e
       0.2828461 0.4001244 0.35421914 0.27269274
000310 f1 76 23 bf 02 db 2a 40 3a 77 34 bd a3 45 f4 be
       -0.63853365 2.6696172 -0.044059016 -0.4770938
000320 e7 0b 24 3f 70 c0 a8 3e 52 13 7d bf 63 af 6a 3e
       0.6408066 0.32959318 -0.98857605 0.22918467
000330 32 92 6f 3e 5e 85 3f 3f ab 44 a9 3f b7 99 ab 3e
       0.23395613 0.7481288 1.3224081 0.33515713
000340 59 e7 0e 3f 24 d2 0d 3d af 96 2c 3f 46 eb e7 3e
       0.5582176 0.034624234 0.67417425 0.45296687
000350 6f 9f db 3e 10 6c 23 be c6 89 38 3f bb d6 33 bf
       0.42895076 -0.15959191 0.72085226 -0.7024953
000360 94 5a a2 bf 96 79 71 bf 63 82 9e be a4 54 21 bf
       -1.2683892 -0.9432615 -0.30958852 -0.63019776
000370 25 b3 5f be 3f e8 c1 bf 83 5c 06 c0 35 b3 b6 3e
       -0.21845682 -1.5149001 -2.0993965 0.356836
000380 5c 58 78 bd ff c7 8a bf d8 5c 8b bf 28 4e ba 3f
       -0.06063114 -1.0842284 -1.0887709 1.4555101
000390 4d e1 4e bd 82 45 14 3f d1 ee ef 3f 65 76 b1 3f
       -0.050507832 0.5791856 1.8744756 1.3864256
0003a0 35 f7 3a 3f 5a a4 62 be 16 48 4a bd cf 41 ce bd
       0.7303346 -0.22133008 -0.049385153 -0.10071146
0003b0 9a b2 a0 3f a3 2f a5 bf 4b 64 c5 be c6 23 4c 3f
       1.2554505 -1.2905163 -0.3855308 0.79742086
0003c0 7c c6 5c 3b 0c ff 59 3f d3 52 6b 3f 4d dd 78 bd
       0.0033687642 0.85154796 0.91923255 -0.060757924
0003d0 ef 14 4e 3f e0 aa 0c be 30 25 bd be 34 1f 5a 3e
       0.8050069 -0.13737059 -0.36942434 0.21300966
0003e0 a2 aa 64 be c1 d1 4b bf 0a 46 67 bd c0 e1 0f 3f
       -0.22330716 -0.79616934 -0.05646328 0.5620384
0003f0 55 32 2d bf 9f 2b 95 bf 63 93 e4 be 43 7e 28 bf
       -0.67654926 -1.1653937 -0.44643697 -0.6581766

decoder.2.cnn.bias f4 [8]
000000 2a 30 de 3b 43 ac 37 bf ec fc 5a be c7 59 88 3f
       0.006780644 -0.71747226 -0.21385545 1.0652398
000010 c4 5d 9b 3e 20 0c 19 3e e0 93 56 be b2 fa 8b bf
       0.30344975 0.14946032 -0.20954847 -1.0935881

decoder.4.cnn.weight f4 [8, 1, 6, 6]
000000 55 69 e4 3d 4c cc cd 3e e6 5f 3c 3f 22 3f 42 3f
       0.11152903 0.4019493 0.7358383 0.75877583
000010 0c bb 1a 3f 49 05 7f 3e f6 bd d4 3e ea d8 6f 3f
       0.6044166 0.2490436 0.4155118 0.9369036
000020 ef bd bf 3f b4 ed c7 3f 43 c2 9b 3f 7c fd 12 3f
       1.4979838 1.5619416 1.2168659 0.57418036
000030 67 a7 d4 3e 4e 4c 63 3f bf c0 a4 3f 78 62 b8 3f
       0.41533968 0.88788307 1.2871321 1.440505
000040 b6 c6 82 3f 60 a5 dc 3e 4e 36 59 3d 1d 02 71 3e
       1.0216892 0.4309492 0.053030305 0.23535962
000050 02 9b d6 3e b2 93 f1 3e 92 0b 82 3e a7 6f 54 3d
       0.41915137 0.47182995 0.25399452 0.051864292
000060 03 39 16 be f9 ef be be 22 90 b6 be 70 27 b3 be
       -0.14670186 -0.3729246 -0.3565684 -0.34991026
000070 20 e5 87 be 8d 99 16 be d8 28 42 be 46 d5 b1 be
       -0.26541996 -0.14707012 -0.18960893 -0.34733027
000080 d2 09 95 be df 11 94 be 70 e5 3b be f2 03 64 bd
       -0.29109055 -0.28919885 -0.18349242 -0.055667825
000090 e7 03 bb 3c 23 f8 28 3e 55 fc a7 3e 6f 95 df 3e
       0.02282901 0.16500907 0.32809702 0.43668696
0000a0 13 43 b7 3e 40 36 00 3e f5 b2 a3 3e 25 9f 24 3f
       0.3579336 0.12520695 0.3197247 0.64305335
0000b0 f2 12 76 3f a1 5b 88 3f ee 65 56 3f ab df cf 3e
       0.9612266 1.0652963 0.8374928 0.40600333
0000c0 ae 3f dc 3e 90 c2 71 3f 99 6f a3 3f 4b 9e 9f 3f
       0.43017334 0.94437504 1.2768432 1.2470182
0000d0 5a 39 5c 3f c5 27 c2 3e 8a d4 c0 3e bd b7 6c 3f
       0.8602501 0.37920967 0.37662154 0.9246786
0000e0 7b 5d 91 3f b2 86 72 3f 43 c5 0e 3f ed 94 2f 3e
       1.1356653 0.9473678 0.5576975 0.17146654
0000f0 4d 14 83 3e af 6d 16 3f 6d ad 21 3f a4 04 e6 3e
       0.25601426 0.58761114 0.6315525 0.44925416
000100 6d 9d 6c 3e 72 b3 4f 3c 22 88 89 3d b9 de 6b 3e
       0.23106928 0.01267706 0.067154184 0.2303418
000110 1c ac 42 3e 2e d0 75 3d dd b0 5e bb f8 14 2b bd
       0.19010967 0.06001299 -0.003397993 -0.041768044
000120 cc b8 8f 3d 99 b9 22 3e 61 02 f7 3d de ba 32 be
       0.07017669 0.15891112 0.120610006 -0.17454097
000130 15 9f 95 be 00 6b 33 be 3c 68 eb 3d de 41 42 3e
       -0.29222932 -0.17521286 0.114944905 0.18970439
000140 e2 24 37 bd 9f c8 16 bf ac b1 45 bf 88 3a e2 be
       -0.04471291 -0.58899873 -0.7722423 -0.4418528
000150 b5 95 46 3d 4e 32 8a bd 66 be 1f bf d7 a5 9d bf
       0.048482616 -0.06747876 -0.623999 -1.2316235
000160 60 16 a7 bf 96 a7 28 bf ea 47 97 bd 1e aa ef be
       -1.3053703 -0.65880716 -0.073867634 -0.46809477
000170 a0 c5 96 bf 6c 49 e9 bf fe 76 c5 bf e7 57 36 bf
       -1.177906 -1.8225532 -1.5426939 -0.7122788
000180 dd 27 21 be 02 a5 20 bf e8 d8 9c bf f2 47 d6 bf
       -0.15737863 -0.6275178 -1.2253695 -1.6740706
000190 69 49 aa bf 52 ea 0b bf 9f fe 24 be 3b 14 dd be
       -1.3303653 -0.5465442 -0.16112755 -0.43179497
0001a0 51 39 2b bf 99 d3 5a bf c8 2b 15 bf 9d 35 20 be
       -0.6688433 -0.8547912 -0.5826993 -0.15645452
0001b0 7c 76 74 bb b8 fc 30 be 95 9f 2b bd df d6 b0 3e
       -0.0037302068 -0.17283905 -0.041900236 0.34538934
0001c0 7f cd e8 3e 18 65 82 3e bb 38 79 be 93 b3 0c bf
       0.4546928 0.25467753 -0.24338047 -0.5496151
0001d0 1a 82 53 be d5 f6 15 3f 81 e1 6b 3f 38 b5 10 3f
       -0.20655099 0.5857976 0.92140967 0.5652652
0001e0 0b 0d dc be b8 51 7d bf 96 13 16 bf ec c9 dc 3e
       -0.429787 -0.9895282 -0.58623636 0.43122804
0001f0 69 92 60 3f 1b 3b 01 3f ec 95 3e bf d8 20 b2 bf
       0.87723404 0.5048081 -0.7444751 -1.3916273
000200 20 09 8b bf c5 3a 08 be 0a c2 ca 3e 88 9c 5e 3e
       -1.086216 -0.13303669 0.39601165 0.217394
000210 aa 8b 33 bf 96 21 a6 bf c4 c7 8a bf dc e8 f4 be
       -0.70134985 -1.2979 -1.0842214 -0.47833908
000220 e7 d4 1a bd f8 03 be 3b 0d d3 a7 be 7a 90 28 bf
       -0.037800696 0.005798813 -0.32778206 -0.65845454
000230 18 f5 06 bf f2 46 61 be 96 4a 25 bd 15 31 58 bc
       -0.52717733 -0.2199972 -0.040354334 -0.013195296
000240 92 23 b4 bd a2 f6 3c be 02 08 5c bd e3 3d fe 3d
       -0.08795847 -0.18453458 -0.053718574 0.12414148
000250 16 ee 51 3e 13 4d 6a 3d d4 57 41 be 6c af 6a be
       0.20500979 0.05720241 -0.1888116 -0.2291848
000260 30 47 1b 3e 52 42 0a 3f 9c 9b 17 3f 73 e9 97 3e
       0.15163875 0.54007447 0.59221816 0.29670295
000270 ba eb 2f be 97 fb f4 bc 52 d6 0c 3f aa 7f 82 3f
       -0.17179766 -0.029905124 0.55014527 1.019521
000280 53 92 82 3f 93 bf 00 3f 97 81 59 bd 00 bf 90 3e
       1.0200905 0.5029232 -0.053102102 0.2827072
000290 92 ea 68 3f 20 23 a9 3f b2 3b 92 3f 43 98 fc 3e
       0.90982926 1.3213844 1.1424468 0.49334916
0002a0 81 a7 d4 3c 5f ee b3 3e 39 9f 51 3f 6e 91 86 3f
       0.025958778 0.351428 0.8188358 1.0513132
0002b0 aa f8 4d 3f 40 c5 89 3e 54 9c 24 3d a4 75 56 3e
       0.80457556 0.26908302 0.04018815 0.20943314
0002c0 23 d6 f7 3e 11 7c 03 3f 75 47 b4 3e b9 7a bf 3d
       0.4840556 0.51361185 0.35210767 0.09349579
0002d0 7a 51 86 bb 64 ca 9e bd d2 76 8a be c7 a1 d0 be
       -0.004099068 -0.07753447 -0.27043778 -0.40748426
0002e0 59 7b db be 04 f7 09 be 20 59 97 bd ce af e3 be
       -0.42867544 -0.13473135 -0.07390046 -0.44470066
0002f0 00 af 62 bf ec d8 92 bf 85 eb 76 bf f9 4d b8 be
       -0.8854828 -1.1472449 -0.96453124 -0.35996988
000300 4e 37 7f be 88 0e 5e bf 00 a5 bb bf 1d c1 d4 bf
       -0.24923441 -0.8674092 -1.4659729 -1.6621433
000310 48 c3 a0 bf 7b f2 ee be 5e 30 e0 be 07 be 98 bf
       -1.2559595 -0.46669373 -0.437869 -1.1932992
000320 1c 39 d4 bf 95 61 df bf 18 0f 96 bf f3 c5 d4 be
       -1.6579928 -1.7451655 -1.1723356 -0.41557273
000330 6f e3 da be 4c c9 85 bf fb c5 9d bf d2 63 93 bf
       -0.42751643 -1.0452056 -1.2326044 -1.1514838
000340 76 b8 42 bf 05 9e 80 be 1e 27 77 be 63 e1 fb be
       -0.76062715 -0.2512056 -0.24136016 -0.49195394
000350 98 d5 01 bf 95 f1 e3 be 00 c9 9a be 0a 3c a1 bd
       -0.50716543 -0.4452025 -0.30231476 -0.0787278
000360 d6 5a 7f bd 92 25 b8 be 52 42 02 bf 0b 47 a4 be
       -0.062342487 -0.35966164 -0.50882447 -0.3208545
000370 f7 21 95 bd 1b 68 29 3d c6 50 c7 be fa 2b 83 bf
       -0.07281869 0.04135905 -0.38928813 -1.0247796
000380 30 ea 8b bf db 30 04 bf ce 66 99 bc 79 e2 cf 3d
       -1.0930843 -0.5163705 -0.018725779 0.10150618
000390 08 c9 26 bf 2e de b7 bf 78 0f a2 bf 35 21 c9 be
       -0.651505 -1.4364679 -1.2660971 -0.39283147
0003a0 b9 60 70 3e ad 44 87 3e e3 4c 33 bf e7 04 be bf
       0.23474397 0.26419583 -0.70039195 -1.4845246
0003b0 9e b0 8e bf da 0a 1f bd 3c 88 19 3f 92 23 d2 3e
       -1.1147649 -0.03882871 0.599735 0.41042763
0003c0 47 10 2c bf 89 a8 92 bf b5 a4 22 bf ff 38 5a 3e
       -0.6721234 -1.1457683 -0.63532573 0.21310805
0003d0 d3 0e 16 3f 70 a8 a6 3e 22 36 99 be 73 4a ec be
       0.5861637 0.32550383 -0.29924113 -0.4615055
0003e0 dc 41 2f be 05 ef 84 3e c5 06 b7 3e 8f e9 b8 3d
       -0.17114967 0.25963607 0.35747352 0.09028923
0003f0 cf e8 19 bd 40 8c 0c be 25 98 d9 bd aa 8a 7e 3d
       -0.03757554 -0.13725376 -0.106247224 0.06214396
