AutoEncoders/saved_model/model_contrast.pth (torch, 96189 bytes, 44 tensors)

encoder_faltten.0.BachNorm.weight f4 [10]
0	0x3f7af2ed	0.98026925
1	0x3f72599b	0.9466798
2	0x3f8140c8	1.0097895
3	0x3f5a09ec	0.8517139
4	0x3f52f566	0.824057
5	0x3f9da835	1.2316958
6	0x3f6efe38	0.9335666
7	0x3f96ec38	1.1790838
8	0x3f887cb2	1.0663054
9	0x3f669b7c	0.90081

encoder_faltten.0.BachNorm.bias f4 [10]
0	0x3da4d093	0.08047595
1	0x3e88583b	0.26629815
2	0x3ed9b6eb	0.42522368
3	0x3ee99dc4	0.45628178
4	0x3ecb4726	0.3970272
5	0x3e579c49	0.21055712
6	0xbdd07141	-0.101778515
7	0x3d29c3ec	0.04144661
8	0x3e26d0bd	0.16290565
9	0x3eeb7807	0.4599001

encoder_faltten.0.BachNorm.running_mean f4 [10]
0	0x3eb9a52f	0.36258838
1	0x3e1edaa8	0.15513098
2	0xbec20aec	-0.37898958
3	0x3d26977b	0.040671807
4	0xbd29eccb	-0.04148559
5	0xbe7f7632	-0.24947432
6	0xbe970361	-0.29494765
7	0x3dbc3ff1	0.09191883
8	0xbdbb7ee5	-0.091550626
9	0xbd47791e	-0.04869949

encoder_faltten.0.BachNorm.running_var f4 [10]
0	0x3ea10e38	0.3145616
1	0x3ef94fb7	0.4869363
2	0x3ee20cef	0.44150493
3	0x3eaca8c6	0.33722514
4	0x3f01a8d8	0.5064826
5	0x3f66042a	0.89850104
6	0x3e854472	0.26028782
7	0x3e849e41	0.25901988
8	0x3eaa5612	0.3326879
9	0x3f27d1e0	0.6555462

encoder_faltten.0.cnn.weight f4 [10, 1, 3, 3]
0	0xbe2ff2a0	-0.17182398
1	0xbea92080	-0.33032608
2	0xbe17dfc9	-0.14831461
3	0x3d2da89f	0.042397138
4	0xbd75a6ab	-0.0599734
5	0xbe85efb9	-0.26159456
6	0x3de27ae6	0.11058597
7	0x3e87faf3	0.26558647
8	0x3e5f860a	0.21828476
9	0x3e62f9a8	0.22165549
10	0x3e3fe4e1	0.18739654
11	0x3dac3973	0.08409395
12	0x3ebe9056	0.37219495
13	0x3c72edb8	0.014827184
14	0xbe350339	-0.1767701
15	0x3e45411f	0.19263123
16	0xbe25395f	-0.16135167
17	0xbe7d1588	-0.24715245
18	0xbe0013df	-0.1250758
19	0x3de50637	0.11182826
20	0xbdbcfd14	-0.09227958
21	0x3d5e93d7	0.05434021
22	0x3d69fa2f	0.05712336
23	0xbd32f980	-0.043694973
24	0x3eaab5e2	0.3334189
25	0x3ee49da4	0.4465152
26	0xbd8c8cf8	-0.06862825
27	0x3eb1ffd6	0.347655
28	0x3ba56d22	0.00504841
29	0xbe88e3a8	-0.26736188
30	0x3d05cf14	0.03266819
31	0x3e31d927	0.17367993
32	0x3e2ac476	0.16676506
33	0x3dddeabf	0.1083579
34	0xbe25a8b0	-0.1617763
35	0x3eb09f4e	0.3449654
36	0xbd415336	-0.047198497
37	0xbcd15257	-0.025551958
38	0x3e8a6c3f	0.2703571
39	0x3e47affc	0.19500726
40	0x3e5e3401	0.21699525
41	0x3ec02a87	0.37532446
42	0x3cc31f03	0.023818498
43	0xbe40aa5d	-0.18814988
44	0x3bb6a09c	0.0055733453
45	0xbe6b963f	-0.23006533
46	0xbd770aa2	-0.060312875
47	0xbe9c8e77	-0.30577442
48	0x3e32acb1	0.17448689
49	0xbdb39514	-0.08768669
50	0xbc8b543c	-0.01700794
51	0xbe59ec2d	-0.212815
52	0xbd50c23d	-0.05096649
53	0xbf006f8f	-0.50170225
54	0xbe0ccdbe	-0.1375036
55	0x3d4e630e	0.050387435
56	0x3e9973e7	0.2997124
57	0xbe31ef2b	-0.17376392
58	0x3e1595cc	0.14607924
59	0x3e8f073e	0.27935213
60	0xbe9aa82b	-0.30206427
61	0xbe2c40fd	-0.16821666
62	0xbe2aba25	-0.16672571
63	0xbd01fc26	-0.031734608
64	0x3e3e7fe9	0.18603481
65	0x3e5f7a53	0.21824007
66	0xbe564e55	-0.20928319
67	0xbd61c458	-0.05511889
68	0xbdaa4578	-0.08314031
69	0xbe053c58	-0.130113
70	0xbe120280	-0.14258766
71	0xbe7aedf2	-0.24504831
72	0x3d808e92	0.06277193
73	0xbe11d255	-0.14240392
74	0x3d145b6c	0.03622
75	0xbe4662ac	-0.19373578
76	0xbe529ae5	-0.205669
77	0xbe91981a	-0.28436357
78	0x3ea639d3	0.3246599
79	0xbd7eebfe	-0.06223678
80	0xbe135c91	-0.1439078
81	0x3d8a4155	0.06750742
82	0x3e629459	0.22126903
83	0x3ebf0c4d	0.37314072
84	0xbe898a53	-0.26863346
85	0xbe22b0e1	-0.15887786
86	0x3d3a08d5	0.04541858
87	0x3d0cd137	0.03437921
88	0x3e7c1c3c	0.24620146
89	0x3ed0d101	0.40784457

encoder_faltten.0.cnn.bias f4 [10]
0	0x3ebad506	0.3649065
1	0x3e23623a	0.15955439
2	0xbec05ced	-0.37570897
3	0x3d27dff6	0.04098507
4	0xbd156c0c	-0.036479995
5	0xbe847094	-0.2586714
6	0xbe9954f9	-0.29947641
7	0x3db9995d	0.09062455
8	0xbdc0985c	-0.0940406
9	0xbd3d36d6	-0.046194874

encoder_faltten.1.BachNorm.weight f4 [16]
0	0x3f7d84b0	0.9903059
1	0x3f80bc12	1.0057395
2	0x3f81e689	1.0148479
3	0x3f662831	0.8990508
4	0x3f87e339	1.0616218
5	0x3f80ce12	1.0062888
6	0x3f6b869c	0.9200227
7	0x3f86a642	1.0519488
8	0x3f8bb86a	1.0915654
9	0x3f6683e3	0.90044993
10	0x3f778192	0.96682084
11	0x3f6f3437	0.9343905
12	0x3f560b93	0.8361141
13	0x3f6d4dad	0.9269665
14	0x3fa2c250	1.271555
15	0x3f836ef8	1.026824

encoder_faltten.1.BachNorm.bias f4 [16]
0	0xbd611aa5	-0.05495705
1	0x3ca04ba1	0.019567313
2	0x3cfc2345	0.030778537
3	0x3bc0fc9c	0.0058894884
4	0x3db08a20	0.08620095
5	0xbd83c8cb	-0.064347826
6	0xbc6e1e85	-0.014533644
7	0xbe0a7f52	-0.13525131
8	0xbdab109f	-0.083527796
9	0xbd2b5b27	-0.041834977
10	0xbd24993e	-0.040185206
11	0xbc50c884	-0.012743119
12	0xbd38affa	-0.0450897
13	0xbd19bda5	-0.037534375
14	0xbc895469	-0.016763883
15	0xbc6ab571	-0.014325486

encoder_faltten.1.BachNorm.running_mean f4 [16]
0	0xbe1cd7b0	-0.15316653
1	0x3e33409e	0.17505118
2	0xbf2b24bc	-0.6685293
3	0x3ead859a	0.33890992
4	0x3e6fa51d	0.2340283
5	0x3de60ba3	0.11232688
6	0x3f73725c	0.95096374
7	0xbef3f2e2	-0.47646242
8	0xbedcdd18	-0.4313743
9	0x3ca2499b	0.019810488
10	0x3f4911d2	0.78542817
11	0x3ec14162	0.37745196
12	0xbd5eb1f7	-0.05436894
13	0x3f20a2cf	0.62748426
14	0xbf0da6ff	-0.5533294
15	0xbe083f1f	-0.13305329

encoder_faltten.1.BachNorm.running_var f4 [16]
0	0x3f34c921	0.706194
1	0x3f242b09	0.64128166
2	0x3fc7c512	1.5607016
3	0x3ef6c649	0.48198155
4	0x3f5a650c	0.85310435
5	0x3f966b9d	1.1751591
6	0x3f69985b	0.912481
7	0x3f8e4fcb	1.1118101
8	0x3fa46f3e	1.2846448
9	0x3f5f17f1	0.87145907
10	0x3f7fe5e3	0.99960154
11	0x3f4909b8	0.78530455
12	0x3f111889	0.5667806
13	0x3f68508b	0.907479
14	0x3fcacf4a	1.584451
15	0x3f69ba16	0.9129957

encoder_faltten.1.cnn.weight f4 [16, 10, 3, 3]
0	0xbcbe1189	-0.02320172
1	0xbd3386bd	-0.04382967
2	0x3cbbe984	0.022938497
3	0x3d32faae	0.043696098
4	0x3cc842d2	0.024445925
5	0xbdb7bc1c	-0.08971426
6	0x3df0ee5d	0.11764214
7	0xbdaf715f	-0.08566546
8	0xbc027334	-0.007962037
9	0xbdf59f26	-0.11993246
10	0xbdc73a15	-0.09727875
11	0x3db80fe1	0.08987404
12	0x3d4c41dc	0.049867496
13	0xbba74fe6	-0.00510596
14	0x3d392b71	0.045207445
15	0x3da09b47	0.07842117
16	0x3cd9e23b	0.026597133
17	0xbdb95c64	-0.09050825
18	0xbdeb0f39	-0.11477513
19	0x3c853597	0.016260905
20	0x3dc37851	0.09544433
21	0x3d955530	0.07291639
22	0x3d207636	0.039175235
23	0xbd249c00	-0.040187836
24	0x3dea04af	0.114266746
25	0x3a899adc	0.0010498422
26	0xbe492757	-0.19643913
27	0xbe208fe0	-0.15679884
28	0xbd129221	-0.03578389
29	0xbacb2cda	-0.0015501038
30	0xbd151e12	-0.03640563
31	0xbb21f882	-0.0024714773
32	0xbdff9cd2	-0.12481083
33	0xbc813d86	-0.015776407
34	0xbcd71ca1	-0.026258769
35	0xbdae510b	-0.085115515
36	0xbdc1d40d	-0.094642736
37	0xbc6e4e26	-0.014544999
38	0x3e4bca3d	0.19901367
39	0x3dabc785	0.08387665
40	0x3d4f4186	0.050599597
41	0xbcd40141	-0.025879504
42	0x3d2712cf	0.04078942
43	0xbd87424b	-0.06604441
44	0xbd9dba87	-0.07701593
45	0x3ddf6afb	0.10909077
46	0x3c0661cf	0.00820203
47	0x3d3543d2	0.04425413
48	0x3d80a0d8	0.062806785
49	0xbd205388	-0.03914216
50	0x3e1f11a4	0.15534073
51	0xbd38d3c7	-0.04512384
52	0xbd86d925	-0.06584386
53	0x3dac4516	0.084116146
54	0xbd6114cd	-0.054951478
55	0x3ca78a29	0.020451622
56	0x3c07e9af	0.008295461
57	0xbd8147c6	-0.06312518
58	0xbbff3199	-0.007787895
59	0xbe051c0d	-0.12998982
60	0x3c69834b	0.014252494
61	0xbc84f448	-0.016229764
62	0x3c3959ad	0.011312884
63	0x3d3b7ee2	0.0457753
64	0xbd8593c4	-0.06522325
65	0x3d3e31f4	0.046434358
66	0x3d324f62	0.043532737
67	0xbc4caf8e	-0.012493027
68	0xbdac4e52	-0.08413376
69	0xbd15e306	-0.03659346
70	0x3c8623dc	0.016374521
71	0x3d5dea62	0.054178603
72	0x3cdb7350	0.026788384
73	0x388057e4	6.1198865e-05
74	0x3d8c26c2	0.0684333
75	0x3db7bbe0	0.08971381
76	0x3cc7d143	0.024391776
77	0x3d5ec49a	0.054386713
78	0x3d8e96ad	0.06962333
79	0xbcc41276	-0.023934584
80	0x3ae8c7ee	0.0017759779
81	0xbdfd33ef	-0.12363421
82	0x3cb8a4ee	0.022539582
83	0x3db123ee	0.08649431
84	0xbd237152	-0.039902993
85	0xbcd42f9a	-0.025901604
86	0x3c7daa38	0.015482478
87	0x3d50c1f0	0.050966203
88	0xbccc190e	-0.02491429
89	0xbde663e1	-0.11249519
90	0xbc978db9	-0.018500196
91	0x3e1ed2bd	0.15510078
92	0x3d454b41	0.04816747
93	0x3c43b7c5	0.01194567
94	0x3c7dfeb0	0.015502617
95	0x3d75fd2d	0.0600559
96	0x3c25ebb9	0.010127001
97	0x3cff2a73	0.031148171
98	0xbd4bdfd4	-0.049774006
99	0xbc7d4028	-0.015457191
100	0xbdaa254a	-0.083078936
101	0xbe2824c9	-0.16420282
102	0x3e2f0cd2	0.17094734
103	0x3cb7d26a	0.0224392
104	0xbd972ddf	-0.07381796
105	0x3d052bc3	0.032512438
106	0xbcb331be	-0.021874305
107	0x3dcf5a2e	0.10124622
108	0x3c7321d2	0.014839606
109	0xbd6bedf5	-0.05759998
110	0xbdff9658	-0.12479848
111	0x3d5eebc0	0.054424047
112	0x3c37b5dd	0.011212793
113	0xbb2ea833	-0.0026650548
114	0xbe23ee8a	-0.16008964
115	0x3e0a1cad	0.13487501
116	0xbcc0f2a7	-0.023553206
117	0xbd08ee30	-0.03343028
118	0xbdbf9e1e	-0.0935633
119	0xbde7a39b	-0.11310502
120	0xbc9399e9	-0.018017726
121	0x3c8f9d4f	0.017531065
122	0x3d514f2c	0.051100895
123	0xbd46a261	-0.0484947
124	0x3c751ccb	0.014960478
125	0x3c982bce	0.018575575
126	0xbd803eee	-0.06262003
127	0xbdaa69a1	-0.08320928
128	0xbdc11e13	-0.09429564
129	0x3d139e7f	0.036039826
130	0x3c821bdd	0.015882427
131	0xbce4c1f2	-0.027924512
132	0xbd8a461b	-0.06751653
133	0x3b4c7a4a	0.003120082
134	0x3d616560	0.05502832
135	0x3ca35eea	0.01994272
136	0x3ddb678d	0.1071311
137	0x3d385d30	0.045010746
138	0x3e14f582	0.14546779
139	0xbc74923c	-0.014927443
140	0xbdb05d5d	-0.08611558
141	0x3dc7397f	0.097277634
142	0xbca386b1	-0.019961687
143	0x3c87c776	0.016574603
144	0xbd4f6edb	-0.05064283
145	0xbc8a327e	-0.01686978
146	0xbd7c5afb	-0.061610203
147	0xbd848fcd	-0.0647274
148	0xba146b8a	-0.00056617765
149	0x3d64b026	0.05583205
150	0xbdbf86f2	-0.09351911
151	0x3de3d971	0.11125458
152	0x3dc447d8	0.095840156
153	0x3e119464	0.14216763
154	0xbd84735d	-0.06467316
155	0x3dae6a45	0.08516363
156	0x3ccbd383	0.02488113
157	0xbc9c2d08	-0.019064441
158	0xba73c282	-0.0009298698
159	0xbc9e46f8	-0.01932095
160	0xbd6636bd	-0.056204546
161	0x3e2587cf	0.16165088
162	0x3e225073	0.15851001
163	0x3ddbf495	0.1074001
164	0x3d5770b2	0.05259771
165	0x3de04731	0.10951079
166	0x3c50e24a	0.012749264
167	0x3c104616	0.008805772
168	0x3d9639bf	0.07335233
169	0x3d95d857	0.07316654
170	0x3e0e32ef	0.13886617
171	0xbd5c06c2	-0.053717382
172	0xbd57ad82	-0.052655704
173	0xbddd22ea	-0.10797675
174	0xbc92db43	-0.017926818
175	0x3b02351d	0.0019868084
176	0xbdc107e4	-0.09425333
177	0xbd2dc1d2	-0.04242117
178	0x3d96b504	0.07358745
179	0xbd18d2bb	-0.037310343
180	0x3dc1841f	0.09449028
181	0xbd49a6a7	-0.049231198
182	0x3e0efe4b	0.13964193
183	0xbe044cab	-0.12919872
184	0x3ca920a7	0.020645453
185	0xba89ee1d	-0.0010523234
186	0xbe190826	-0.14944515
187	0x3d9822f2	0.0742854
188	0x3d2802e7	0.041018393
189	0x3b8022bc	0.0039103907
190	0xbd136459	-0.03598437
191	0x3ce6e57b	0.028185597
192	0x3d4f11b8	0.050554007
193	0xbcf69725	-0.030101368
194	0x3dd85ef1	0.10564984
195	0xbd95b1a7	-0.07309275
196	0xbd664a3c	-0.05622314
197	0xbdb352d0	-0.087560296
198	0x3e1af40a	0.15132156
199	0x3dacc298	0.08435553
200	0x3c5e832b	0.013581078
201	0xbcfbf482	-0.030756239
202	0xbc994a78	-0.018712267
203	0x3c320faf	0.010867997
204	0x3be99158	0.007127922
205	0xbe3a7cc2	-0.18211654
206	0xbd6b36da	-0.057425357
207	0x3db267fb	0.08711239
208	0x3d4c06ea	0.04981128
209	0xbd46a545	-0.048497457
210	0xbaabbafa	-0.0013101988
211	0x3b876c37	0.0041327733
212	0xbe187b9e	-0.14890906
213	0xbc2a9617	-0.010411761
214	0xbe10aa1a	-0.14127389
215	0xbdf20f2a	-0.118192986
216	0x3d6c9d55	0.05776723
217	0x3d9a0065	0.075196065
218	0xbdb0f1ad	-0.08639846
219	0xbca006d8	-0.019534513
220	0xbdacacf0	-0.08431423
221	0xbddfdf70	-0.10931289
222	0xbd6932ed	-0.056933332
223	0xbdf0c2c8	-0.117559016
224	0xbe504766	-0.20339736
225	0xbde7fa92	-0.11327089
226	0xbc996436	-0.018724542
227	0xbda71dc3	-0.081599735
228	0x3c279115	0.010227461
229	0x3deddcef	0.11614405
230	0x3cad1ff8	0.021133408
231	0xbd93b0d1	-0.072114594
232	0xbbc3e39d	-0.0059780614
233	0x3da8c453	0.08240571
234	0x3cab28f2	0.020893548
235	0x3ce512c8	0.027963057
236	0xbdedc3a4	-0.11609581
237	0x3de1b06b	0.11019977
238	0x3db70394	0.08936229
239	0xbe01f615	-0.12691529
240	0x3d186551	0.037205998
241	0xbd95cae6	-0.073140904
242	0xbe2f3700	-0.17110825
243	0xbddb8a9c	-0.10719797
244	0xbc026236	-0.007957986
245	0xbe0e04fc	-0.13869089
246	0x3d30adad	0.04313438
247	0x3d41d526	0.047322415
248	0xbd0234fb	-0.031788807
249	0xbb8a9a09	-0.004229788
250	0x3d8d0438	0.0688557
251	0x3ce45ab0	0.027875274
252	0xbc2aa747	-0.010415859
253	0x3b18f8f8	0.0023341756
254	0x3bbbebf9	0.0057349172
255	0x3d2273d7	0.039661255

encoder_faltten.1.cnn.bias f4 [16]
0	0xbd8f3fe6	-0.069946095
1	0x3d10aa7d	0.03531884
2	0x3d6fe976	0.058572255
3	0x3d14b836	0.03630849
4	0xbd57c265	-0.052675623
5	0xbdbf092f	-0.093279235
6	0x3da0c3a8	0.078498185
7	0x3d5064df	0.05087745
8	0xbc5939a4	-0.0132583715
9	0xbdf0af9c	-0.11752245
10	0xbd78d881	-0.06075335
11	0x3d266aba	0.040629126
12	0x3d3a790f	0.045525607
13	0xbd810548	-0.062998354
14	0xbcd223db	-0.025651863
15	0x3d94c4da	0.07264109

encoder_unfaltten.0.BachNorm.weight f4 [10]
0	0x3f800000	1.0
1	0x3f800000	1.0
2	0x3f800000	1.0
3	0x3f800000	1.0
4	0x3f800000	1.0
5	0x3f800000	1.0
6	0x3f800000	1.0
7	0x3f800000	1.0
8	0x3f800000	1.0
9	0x3f800000	1.0

encoder_unfaltten.0.BachNorm.bias f4 [10]
0	0x00000000	0.0
1	0x00000000	0.0
2	0x00000000	0.0
3	0x00000000	0.0
4	0x00000000	0.0
5	0x00000000	0.0
6	0x00000000	0.0
7	0x00000000	0.0
8	0x00000000	0.0
9	0x00000000	0.0

encoder_unfaltten.0.BachNorm.running_mean f4 [10]
0	0xbce435e0	-0.02785772
1	0xbd3ba65b	-0.045812946
2	0xbd3ac938	-0.045602053
3	0xbc91383a	-0.017727006
4	0xbd0692c0	-0.032854795
5	0x3d28c09e	0.04119932
6	0xbbd6e763	-0.006558345
7	0xbc67e8a8	-0.014154591
8	0x3cb9b316	0.022668403
9	0x3d12b374	0.03581567

encoder_unfaltten.0.BachNorm.running_var f4 [10]
0	0x3f674184	0.90334344
1	0x3f677baa	0.9042307
2	0x3f66a933	0.9010193
3	0x3f67120a	0.902619
4	0x3f66ae0c	0.90109324
5	0x3f66eb97	0.9020323
6	0x3f6784ef	0.90437216
7	0x3f672ca6	0.90302503
8	0x3f670de3	0.90255564
9	0x3f66fd5b	0.9023034

encoder_unfaltten.0.cnn.weight f4 [10, 1, 3, 3]
0	0xbe88fdf6	-0.26756257
1	0x3de4c3a4	0.11170128
2	0xbce24640	-0.027621388
3	0xbe4eb593	-0.20186453
4	0x3ea6e569	0.325969
5	0x3e38bd22	0.18040898
6	0xbde938e6	-0.11387806
7	0xbe8b5758	-0.27215075
8	0xbdf10016	-0.117675945
9	0x3d5be958	0.05368933
10	0xbea8225b	-0.3283871
11	0x3ea37165	0.3192245
12	0xbe723d2e	-0.2365615
13	0xbe732a0b	-0.23746507
14	0xbd969a4c	-0.073536485
15	0xbda020c0	-0.078187466
16	0xbdbc044c	-0.09180507
17	0xbd17e7a0	-0.03708613
18	0xbe582b2e	-0.21110222
19	0xbdeb0fe6	-0.11477642
20	0xbdb148f0	-0.0865649
21	0x3d0bafe0	0.034103274
22	0xbdc7c3b0	-0.09754121
23	0x3d8b6910	0.068071485
24	0x3d9744dc	0.07386181
25	0x3c79ba00	0.0152421
26	0x3cb299c0	0.02180183
27	0x3c837730	0.016048044
28	0xbe546706	-0.20742425
29	0xbd1e0928	-0.03858295
30	0xbe406858	-0.18789804
31	0x3dd351d0	0.10318339
32	0xbe0b15c0	-0.13582516
33	0xbe0500d8	-0.12988603
34	0xbe5fef6b	-0.21868674
35	0xbe05a3eb	-0.13050811
36	0xbd8f04cc	-0.06983337
37	0x3da7e704	0.081983596
38	0xbbd0adc0	-0.006368369
39	0xbe4b41d8	-0.19849336
40	0x3e2a1ce6	0.16612586
41	0xbda22c70	-0.07918632
42	0xbd9cb3a0	-0.07651448
43	0xbe143fbb	-0.14477436
44	0x3e15e4c2	0.14638045
45	0xbd614820	-0.055000424
46	0xbcab6b10	-0.020925075
47	0x3e9a2d75	0.30112806
48	0x3e12c058	0.14331186
49	0xbd817560	-0.06321216
50	0xbe5645a3	-0.20925002
51	0xbe0c411e	-0.13696715
52	0x3e2e334e	0.17011759
53	0x3e4886ea	0.19582716
54	0xbeaa43d7	-0.33254883
55	0xbda3b594	-0.07993618
56	0xbe2e02b8	-0.16993225
57	0xbe242fc3	-0.16033845
58	0x3e9e545f	0.30923745
59	0xbe8b3050	-0.27185297
60	0x3de1f7dc	0.110336035
61	0xbe8b5402	-0.2721253
62	0x3e2e69e2	0.17032579
63	0x3d746dc0	0.05967498
64	0xbe8e6470	-0.27811003
65	0x3e37b832	0.17941359
66	0x3e2bb9d6	0.1677011
67	0xbea059b8	-0.3131845
68	0xbe910284	-0.28322232
69	0x3d92f174	0.0717496
70	0x3e27d0da	0.16388264
71	0x3c6c33e0	0.014416665
72	0xbdd5ec4c	-0.10445461
73	0x3e56222a	0.2091147
74	0x3dce708c	0.1008006
75	0x3df16ca0	0.11788297
76	0xbe88c5d7	-0.2671344
77	0x3d9b8b6c	0.07594952
78	0x3e94e14d	0.2907814
79	0x3e1f06e0	0.15529966
80	0x3cd0ced0	0.02548924
81	0x3e4e7efa	0.20165625
82	0x3dfd2f8c	0.123625845
83	0xbdebac4c	-0.115074724
84	0xbe204c38	-0.15654075
85	0x3e94563d	0.28972045
86	0x3d98a094	0.07452503
87	0x3d224d28	0.039624363
88	0xbe8bee97	-0.27330467
89	0x3da240dc	0.07922527

encoder_unfaltten.0.cnn.bias f4 [10]
0	0xbde3390c	-0.11094865
1	0xbe15c338	-0.14625251
2	0xbea73f16	-0.32665318
3	0x3e6be862	0.23037866
4	0xbe7eb9b6	-0.2487553
5	0x3e8a320d	0.2699131
6	0x3e769e62	0.24083856
7	0xbd3cf578	-0.046132535
8	0xbd1e4798	-0.038642496
9	0x3e7aa852	0.24478272

encoder_unfaltten.1.BachNorm.weight f4 [16]
0	0x3f800000	1.0
1	0x3f800000	1.0
2	0x3f800000	1.0
3	0x3f800000	1.0
4	0x3f800000	1.0
5	0x3f800000	1.0
6	0x3f800000	1.0
7	0x3f800000	1.0
8	0x3f800000	1.0
9	0x3f800000	1.0
10	0x3f800000	1.0
11	0x3f800000	1.0
12	0x3f800000	1.0
13	0x3f800000	1.0
14	0x3f800000	1.0
15	0x3f800000	1.0

encoder_unfaltten.1.BachNorm.bias f4 [16]
0	0x00000000	0.0
1	0x00000000	0.0
2	0x00000000	0.0
3	0x00000000	0.0
4	0x00000000	0.0
5	0x00000000	0.0
6	0x00000000	0.0
7	0x00000000	0.0
8	0x00000000	0.0
9	0x00000000	0.0
10	0x00000000	0.0
11	0x00000000	0.0
12	0x00000000	0.0
13	0x00000000	0.0
14	0x00000000	0.0
15	0x00000000	0.0

encoder_unfaltten.1.BachNorm.running_mean f4 [16]
0	0x3ce35268	0.027749255
1	0x3ace2a1e	0.0015729105
2	0x3d5ffcfb	0.05468462
3	0x3d308792	0.04309804
4	0x3c725ff2	0.014793383
5	0xbc09c10e	-0.008407844
6	0xbcfacc40	-0.030614972
7	0x3bfc367a	0.007696924
8	0xbd29df4d	-0.04147272
9	0x3c489b56	0.012244066
10	0xbb2de22c	-0.0026532514
11	0x3c1338b9	0.008985692
12	0xbcfff5ba	-0.031245101
13	0x3d85274a	0.065016344
14	0x3b06fada	0.0020596297
15	0x3cabbeb5	0.02096496

encoder_unfaltten.1.BachNorm.running_var f4 [16]
0	0x3f6c7ed5	0.9238103
1	0x3f68d90d	0.90956193
2	0x3f6c2c27	0.9225487
3	0x3f6a4203	0.91506976
4	0x3f6852f5	0.9075158
5	0x3f68f14b	0.90993184
6	0x3f6bb773	0.92076796
7	0x3f6a0d36	0.9142641
8	0x3f6a8b6a	0.9161898
9	0x3f69c4a2	0.9131566
10	0x3f68a867	0.9088196
11	0x3f67b148	0.90504885
12	0x3f6b0c17	0.9181532
13	0x3f6d662e	0.9273404
14	0x3f697205	0.91189605
15	0x3f69b3a2	0.9128972

encoder_unfaltten.1.cnn.weight f4 [16, 10, 3, 3]
0	0xbdb864d9	-0.0900361
1	0x3ca78adc	0.020451955
2	0xbd976738	-0.07392734
3	0xbdb3934f	-0.08768331
4	0xbcd47d38	-0.025938615
5	0x3dad20c9	0.08453519
6	0xbc98c1d4	-0.018647112
7	0xbd8637f9	-0.06553645
8	0x3d84a5e7	0.06476956
9	0x3d975061	0.07388378
10	0xbcf1e0b0	-0.029526085
11	0x3d76b046	0.0602267
12	0x3d46d3ce	0.048541836
13	0x3dceeed1	0.10104144
14	0x3cce8d7c	0.02521395
15	0x3c127a80	0.008940339
16	0xbdbda95d	-0.09260819
17	0xbc5a5940	-0.013326943
18	0xbd30b68f	-0.04314285
19	0xbc0d00d0	-0.008606151
20	0x3c500658	0.012696825
21	0xbdc6e41a	-0.09711476
22	0x3c275270	0.010212526
23	0x3d1f5c72	0.038906522
24	0xbd6a9c27	-0.057277825
25	0x3ce399fc	0.027783386
26	0xbd90ac50	-0.07064116
27	0x3bf96850	0.007611312
28	0xbdd7ac2d	-0.10530887
29	0x3dd74c11	0.105125554
30	0xbd51d60f	-0.051229533
31	0x3da4c28b	0.080449186
32	0xbdb89a93	-0.09013858
33	0xbdb5c672	-0.08875741
34	0xbcc2432c	-0.02371367
35	0x3d32078a	0.04346422
36	0xbc949ec4	-0.018142112
37	0x3dd42a49	0.10359628
38	0xbd9d8389	-0.07691104
39	0x3c8a4818	0.01688008
40	0xbc8da140	-0.017288804
41	0x3dcd4f1f	0.10024857
42	0xbc8e8de4	-0.017401643
43	0xbd40241c	-0.046909437
44	0xbd342714	-0.04398258
45	0x3db49ac9	0.088185854
46	0x3dc5b14f	0.096529596
47	0x3d891c7d	0.06694887
48	0x3d58ca5e	0.052927367
49	0xbd76ac46	-0.060222887
50	0xbd40a2fc	-0.047030434
51	0x3d940caf	0.07228982
52	0xbd6d5fe6	-0.057952784
53	0x3caa2cac	0.020773254
54	0xbda032a3	-0.07822158
55	0x3d50fc0a	0.051021613
56	0x3d8538eb	0.06504997
57	0xbd8c4e4a	-0.0685087
58	0x3d685f72	0.05673165
59	0x3dbd93bd	0.092566945
60	0x3d2d1d96	0.042264543
61	0xbda33189	-0.079684325
62	0x3dcfef39	0.1015305
63	0xbc9c0d50	-0.019049317
64	0x3d28d19e	0.04121553
65	0x3d3c282a	0.04593674
66	0xbdb0cd32	-0.08632888
67	0x3d32fc32	0.043697543
68	0x3d8b5d99	0.06804962
69	0xbdae41b8	-0.085086286
70	0x3d00f86e	0.03148692
71	0xbd858344	-0.065191776
72	0xbd368c3f	-0.044567343
73	0x3da3435f	0.079718344
74	0x3d3db7ea	0.046317972
75	0x3dad3105	0.08456615
76	0x3c1f7660	0.009732813
77	0x3d61352e	0.054982357
78	0x3aa830c0	0.0012831911
79	0x3c9e075c	0.019290619
80	0x3d8c2bb1	0.06844271
81	0xbd524f70	-0.05134529
82	0x3cfbbbbc	0.030729167
83	0xbd837709	-0.064191885
84	0xbc732860	-0.014841169
85	0xbb8eeb40	-0.00436154
86	0x3d523a02	0.05132485
87	0x3d663896	0.05620631
88	0xbd940512	-0.072275296
89	0xbcace7d4	-0.021106638
90	0x3d2c100a	0.042007484
91	0x3cc20f94	0.023689069
92	0x3dd673ab	0.10471281
93	0xbc843a30	-0.016141027
94	0xbdd5dfe3	-0.10443094
95	0xbd59982b	-0.053123634
96	0xbd8c2570	-0.06843078
97	0xbdcb07f3	-0.099136256
98	0xbd997a1a	-0.07493992
99	0x3d6888de	0.05677115
100	0xbd9605d6	-0.07325332
101	0xbdb28e0c	-0.087184995
102	0x3c353f78	0.011062495
103	0xbc4bedb8	-0.012446813
104	0xbc749cc8	-0.014929958
105	0xbcbf20d0	-0.023331076
106	0x3dcf4e63	0.10122373
107	0xbd24299a	-0.040078737
108	0xbd237a3a	-0.039911486
109	0x3ca85624	0.020548888
110	0x3d6b1162	0.057389624
111	0x3cf4ab7c	0.029866926
112	0x3c6a5b40	0.014303982
113	0x3c816df4	0.0157995
114	0xbd8c762c	-0.06858477
115	0x3d52d60a	0.051473655
116	0x3d1fea72	0.039041944
117	0xbdc47a23	-0.09593608
118	0x3d99b23b	0.07504698
119	0x3d62dc2a	0.055385746
120	0x3d87d347	0.06632095
121	0xbc6a20f8	-0.014290087
122	0x3c0ded50	0.008662537
123	0x3d9bdc87	0.07610422
124	0xbd9d5ade	-0.07683347
125	0xbd2a8f62	-0.041640647
126	0xbd707afc	-0.058711037
127	0x3dca4189	0.09875781
128	0x3c0e94a8	0.008702435
129	0xbd118842	-0.035530336
130	0x3d802b9d	0.062583186
131	0xbd8eced1	-0.06973041
132	0x3d9c511f	0.0763266
133	0x3d7a2da2	0.061078675
134	0xbd655b6f	-0.0559954
135	0x3cf7505c	0.030189686
136	0xbb118ce0	-0.0022209212
137	0x3c113870	0.008863553
138	0xbbff4c30	-0.0077910647
139	0xbdaf8887	-0.085709624
140	0xbc19b670	-0.009381875
141	0xbd497493	-0.04918344
142	0x3d29b0ba	0.041428305
143	0x3d4d447a	0.050114132
144	0x3dd5d2bb	0.10440584
145	0xbd58cd41	-0.05293012
146	0x3ccf71b4	0.025322773
147	0xbd7529b6	-0.05985423
148	0x3d8b8dc5	0.0681415
149	0xbc9d34f8	-0.019190297
150	0xbd8302c2	-0.063970104
151	0x39ecdb00	0.00045176595
152	0x3c6c1780	0.0144099
153	0x3c65e8d8	0.014032565
154	0xbdb41887	-0.08793741
155	0xbd2d30aa	-0.042282738
156	0xbcda0c28	-0.026617125
157	0xbc9c36cc	-0.019069098
158	0x3d907bcf	0.070548646
159	0xbc425a00	-0.011862278
160	0x3d52487e	0.051338665
161	0x3d72282a	0.059120335
162	0xbd15e428	-0.03659454
163	0xbb4d26a0	-0.003130354
164	0x3db64adb	0.08900996
165	0x3dcf4b8f	0.101218335
166	0x3cffeb1c	0.031240039
167	0xbce76d88	-0.02825047
168	0xbdc4557b	-0.095866166
169	0xbc9c8570	-0.019106597
170	0x3d41e36e	0.047336034
171	0x3dbfd14d	0.09366093
172	0x3cd02fbc	0.025413387
173	0x3d8b2801	0.067947395
174	0xbda8e060	-0.08245921
175	0x3d8d9e9b	0.06915017
176	0xbd3d3d3a	-0.04620097
177	0xbd95d8c3	-0.07316735
178	0x3cfe3524	0.031031199
179	0x3b8db920	0.004325047
180	0xbd86ca86	-0.06581597
181	0xbca45ef4	-0.020064808
182	0x3d8d3993	0.06895747
183	0x3dc69709	0.096967764
184	0x3d0c2d62	0.034222968
185	0x3da3c6bf	0.07996892
186	0xbda6ac90	-0.081383824
187	0x3daa81d1	0.08325542
188	0x3c98efd0	0.018669039
189	0x3d054c92	0.032543726
190	0xbd7f6135	-0.062348563
191	0x3d951b75	0.07280628
192	0x3d35205e	0.04422032
193	0xbd8bba02	-0.068225875
194	0xbd404a8f	-0.046946105
195	0x3d59a06e	0.053131513
196	0x3d9aee13	0.0756494
197	0x3d20e38e	0.039279513
198	0xbd62eb87	-0.055400398
199	0x3c412b98	0.011790179
200	0xbc8d12b0	-0.017220825
201	0x3db95b9d	0.09050677
202	0x3cbc24d4	0.02296678
203	0x3dc9cd3b	0.09853598
204	0xbd156158	-0.036469787
205	0x3bc4c4c0	0.0060048997
206	0x3c88b214	0.016686477
207	0x3c0cbeb8	0.008590393
208	0x3c6b7070	0.014370069
209	0xbd952d16	-0.0728399
210	0xbdaa0922	-0.08302523
211	0xbd8816ab	-0.066449486
212	0x3d480fba	0.048843123
213	0x3dc744b3	0.097299
214	0x3d056292	0.032564707
215	0x3da0eac5	0.07857279
216	0x3dc5f44d	0.09665737
217	0x3d44d34a	0.048053063
218	0x3d1def8a	0.03855852
219	0xbdd5fa73	-0.1044816
220	0xbce70484	-0.028200395
221	0x3d4d42fa	0.050112702
222	0xbd0e1aa8	-0.03469339
223	0x3d9a4bbf	0.07533979
224	0x3b0de260	0.0021649823
225	0x3dd7cb93	0.105368756
226	0xbd01abf6	-0.031658135
227	0x3d921673	0.07133188
228	0x3c369ee8	0.011146285
229	0x3d5c8122	0.05383409
230	0xbbfdbb80	-0.007743299
231	0xbc188780	-0.0093096495
232	0xbda9a115	-0.08282677
233	0x3c790ba0	0.0152005255
234	0xbc9a4824	-0.018833227
235	0x3da9d86d	0.08293233
236	0x3c267a70	0.010161027
237	0xbd2694a8	-0.040669113
238	0x3d7805ae	0.06055229
239	0x3d730fe2	0.05934132
240	0x3dccabc5	0.099937
241	0x3d4c475a	0.049872734
242	0xbd6d240d	-0.05789571
243	0xbd081b4e	-0.033229165
244	0x3c061de8	0.008185841
245	0xbd909f30	-0.070616126
246	0x3d9a4a4d	0.07533703
247	0x3d645c6e	0.05575221
248	0x3d0cc0b6	0.03436347
249	0x3d8addd7	0.06780594
250	0x3d20342e	0.039112262
251	0x3d889bd5	0.066703476
252	0xbd8c9192	-0.06863703
253	0xbd9c6d52	-0.07638039
254	0xbd8ab793	-0.06773295
255	0xbc6b2498	-0.014351986

encoder_unfaltten.1.cnn.bias f4 [16]
0	0x3dc1782f	0.09446751
1	0xbd36e97e	-0.04465627
2	0xbd814768	-0.06312448
3	0x3d9d7ba7	0.076896004
4	0xbda25e65	-0.079281606
5	0xbc85e188	-0.016342893
6	0xbd64ec2d	-0.055889297
7	0x3db3ac9d	0.08773158
8	0xbdbe371e	-0.092878565
9	0x39f3cc00	0.00046500564
10	0x3db93ce5	0.09044818
11	0x3db96d4b	0.09054049
12	0x3ab6a500	0.0013934672
13	0x3ca2bdb4	0.019865848
14	0xbd2ea76e	-0.042640142
15	0x3c69cd48	0.014270134

embedding.weight f4 [10, 8]
0	0xbeb5945d	-0.35464755
1	0x3fa9898f	1.3245105
2	0x3f606f96	0.87670267
3	0x3f64e9dd	0.8941935
4	0x3f561f44	0.8364146
5	0x3f25591e	0.6458911
6	0xbfa9ba5b	-1.3259996
7	0xbfbb8433	-1.4649719
8	0x3e03ff39	0.12890328
9	0xbf3a9493	-0.72882956
10	0xbf715e4f	-0.9428453
11	0x401e8ca7	2.4773347
12	0xbf1527ca	-0.5826384
13	0x3f999506	1.1998603
14	0x3f01b0cf	0.50660414
15	0xbf4c2e8f	-0.7975854
16	0x3f1a3d76	0.6025003
17	0xbf529b67	-0.82268375
18	0x3f9ec9db	1.2405351
19	0xbf1a11bb	-0.60183305
20	0x3e615ddc	0.22008461
21	0x3f57cc44	0.8429606
22	0x3d311817	0.043235864
23	0x3ea23b5c	0.31685913
24	0xbf260206	-0.6484684
25	0x3e6fddba	0.23424426
26	0xbf64aaa5	-0.8932288
27	0xbf1eedb2	-0.62081444
28	0xbf5150c5	-0.8176387
29	0x3e8775d4	0.26457083
30	0x3ff315eb	1.8991064
31	0x4005dde3	2.091668
32	0xc0146abc	-2.3190145
33	0x3e87fce4	0.26560128
34	0x3e933389	0.28750256
35	0xbfb1d515	-1.3893152
36	0xbf385e47	-0.72018856
37	0x3fd0764d	1.6286103
38	0xbf37cbce	-0.71795356
39	0xbe5680fa	-0.20947638
40	0xbe19e8ca	-0.15030208
41	0x3eb85257	0.3600032
42	0x3e7eafde	0.24871776
43	0xbfd29877	-1.6452779
44	0x3ec75e59	0.3893917
45	0xbf5c4cea	-0.8605486
46	0xbfca1be0	-1.5789757
47	0x3eac2b45	0.33626762
48	0x3ef1a455	0.47195688
49	0x3fdd325d	1.7280995
50	0xbfb7c98c	-1.4358382
51	0xbdd39071	-0.103302844
52	0xbe99d146	-0.30042475
53	0x3f00e2be	0.5034598
54	0xbfd6a3a0	-1.6768684
55	0x3ecebc1b	0.40377888
56	0xbf0268a9	-0.5094095
57	0xbdd28979	-0.10280127
58	0x3f693848	0.91101503
59	0x3e20ceab	0.15703838
60	0x3eedaab9	0.46419314
61	0xbf62646e	-0.88434494
62	0x3edca08a	0.43091232
63	0xbf86c017	-1.0527371
64	0x3f9cb55f	1.224285
65	0x3ec45ff6	0.38354462
66	0x3f1072c0	0.56425095
67	0xbf0bcc84	-0.5460894
68	0x3f055a25	0.52090675
69	0xbf157a2b	-0.5838954
70	0xbf6e00f5	-0.9297021
71	0x3f8fc578	1.1232138
72	0x3f5b88b7	0.85755485
73	0xbf456810	-0.7711191
74	0xbf6f8960	-0.9356899
75	0x3f5921f4	0.84817433
76	0x4000c80d	2.0122101
77	0x3eb31f7a	0.34984952
78	0x3e9962dd	0.2995824
79	0x3e9c8101	0.30567172

decoder.1.BachNorm.weight f4 [16]
0	0x3f6b0e74	0.9181893
1	0x3f7c71d4	0.9861119
2	0x3f8e71e2	1.1128504
3	0x3f8007fe	1.0002439
4	0x3f763029	0.96167237
5	0x3f738143	0.9511911
6	0x3f7d6e2b	0.9899623
7	0x3f80395f	1.0017508
8	0x3f7fa146	0.9985546
9	0x3f7ddaeb	0.9916217
10	0x3f7cc63a	0.9873997
11	0x3f83b1f3	1.0288681
12	0x3f6814f7	0.9065699
13	0x3f81daa4	1.0144849
14	0x3f83fec3	1.0312122
15	0x3f79d031	0.975833

decoder.1.BachNorm.bias f4 [16]
0	0xbd333cf2	-0.043759294
1	0xbde57425	-0.112037934
2	0xbe2f7ce5	-0.17137487
3	0xbdbc3a5a	-0.09190817
4	0xbccca5dd	-0.024981434
5	0x3c8bc6af	0.017062513
6	0xbd87c4b0	-0.06629312
7	0xbd9be6b4	-0.076123625
8	0xbe190aba	-0.14945498
9	0xbdb3d75b	-0.0878131
10	0xbe471551	-0.19441725
11	0xbd9a506b	-0.0753487
12	0xbd9e426e	-0.07727514
13	0xbe21a786	-0.15786561
14	0xbdc9e956	-0.098589584
15	0xbe20ea9d	-0.15714498

decoder.1.BachNorm.running_mean f4 [16]
0	0xbd1f01fb	-0.038820248
1	0x3bd50c8e	0.006501741
2	0xbe1742cd	-0.14771576
3	0xbe2a688f	-0.16641448
4	0x3b923f62	0.004463122
5	0xbdf738a5	-0.12071351
6	0xbda45a45	-0.0802503
7	0xbe00ee60	-0.12590933
8	0x3d3321c7	0.043733384
9	0xbd4f9d9b	-0.050687414
10	0xbd4a34ab	-0.049366634
11	0xbd3cf4ce	-0.0461319
12	0x3d7beea2	0.061506875
13	0x3de7919a	0.11307068
14	0xbdd6ddca	-0.10491522
15	0xbcab6ac2	-0.02092493

decoder.1.BachNorm.running_var f4 [16]
0	0x3e91a914	0.2844931
1	0x3e976211	0.29567006
2	0x3e9be4ee	0.30448097
3	0x3e85471c	0.26030815
4	0x3e7daf9d	0.24774022
5	0x3e86cd88	0.26328683
6	0x3e9e66df	0.3093786
7	0x3e8f71b1	0.28016427
8	0x3e8fb39d	0.28066722
9	0x3e90d301	0.28285983
10	0x3ea67f8f	0.32519194
11	0x3e666511	0.22499491
12	0x3e7fd47d	0.24983402
13	0x3e85a2ea	0.26100856
14	0x3e91bbe6	0.28463668
15	0x3e9335e8	0.28752065

decoder.1.cnn.weight f4 [16, 16, 6, 6]
0	0xbe0dd870	-0.13852096
1	0xbd9b022b	-0.07568773
2	0xbb6cc920	-0.0036130622
3	0x3af78785	0.0018884992
4	0x3c8726ab	0.01649793
5	0x3a57dda9	0.0008234629
6	0xbd9d2e5c	-0.07674858
7	0x3c3ce391	0.011528865
8	0x3cdc7455	0.02691094
9	0xb9723a2b	-0.00023100588
10	0xbc8be584	-0.017077215
11	0xbccd00e6	-0.025024842
12	0x3d616cf0	0.05503553
13	0x3c725b30	0.014792249
14	0x3c7bf98c	0.015379321
15	0x3c7d9fbb	0.015479977
16	0xbac020ae	-0.0014658177
17	0xb9b3ebc7	-0.00034317208
18	0x3d3ccf57	0.046096172
19	0x3c874793	0.016513621
20	0x3c7ca47d	0.015420076
21	0x3ced76bd	0.028987283
22	0xbd37db2b	-0.04488675
23	0xbd177fc3	-0.036987077
24	0xbd42ccaf	-0.047558483
25	0x3d893ee1	0.06701446
26	0x3ce9629e	0.028489407
27	0xbd061db4	-0.03274317
28	0xbdd6875c	-0.104750365
29	0x3b85b85a	0.0040808143
30	0x3d93e3b3	0.072211646
31	0xbd10674c	-0.03525476
32	0x3d28ad37	0.041180816
33	0x3b84c39a	0.004051638
34	0x3d5d2048	0.053985864
35	0xbdd58c92	-0.10427202
36	0xbc4e7cdb	-0.01260301
37	0xbb76b43e	-0.0037644054
38	0x3d432082	0.047638424
39	0x3c83bf38	0.016082391
40	0x3cc3b2d2	0.02388898
41	0x3c29615d	0.010338155
42	0x3bbc6657	0.0057495045
43	0x3ccc0299	0.024903582
44	0xbd9986fb	-0.074964486
45	0xbd261638	-0.040548533
46	0xbd4d9e35	-0.050199706
47	0x3d298da3	0.04139484
48	0x3c624ae1	0.013811798
49	0x3ce0cf93	0.02744273
50	0x3cf94ea1	0.030433001
51	0xbd2fc031	-0.042907897
52	0x3d13e483	0.036106598
53	0x3cde2379	0.027116524
54	0x3b7cb70f	0.003856126
55	0xbc4a8a62	-0.012362095
56	0x3cb70a4a	0.022343773
57	0x3d1a33f7	0.037647214
58	0x3c564f1b	0.013080384
59	0x3d81bdb3	0.063350104
60	0xbd9e05f1	-0.07715977
61	0xbd4aa3ed	-0.049472738
62	0x3da28058	0.07934636
63	0x3d7d1ee9	0.061797056
64	0xbd1ad125	-0.037797112
65	0xbd5492fd	-0.05189799
66	0xbc85daff	-0.016339777
67	0x3c9a9c97	0.018873496
68	0x3c266909	0.010156878
69	0x3d176aa4	0.036966935
70	0x3d8d723f	0.06906556
71	0xbdf9d627	-0.121990494
72	0xbd185907	-0.037194278
73	0x3d17fe91	0.037108008
74	0x3d4d3cd6	0.050106846
75	0x3c1b0702	0.00946212
76	0x3c62948e	0.0138293635
77	0x3b85e962	0.0040866593
78	0xbb9b006a	-0.004730274
79	0x3d591432	0.052997775
80	0xbcb1d50e	-0.021708038
81	0xbcccf11a	-0.02501731
82	0x3d69b739	0.0570595
83	0xbd6e50f2	-0.058182664
84	0x3d1a0273	0.037599992
85	0xbcd111c0	-0.02552116
86	0xbce348ce	-0.027744677
87	0xbca5a6a9	-0.020221071
88	0xbdafb46c	-0.085793346
89	0xbe1daf8c	-0.15398997
90	0xbd7535fb	-0.059865933
91	0xbb3b920b	-0.0028620984
92	0xbc62dd53	-0.013846713
93	0x3d13329a	0.03593693
94	0x3cf1d969	0.029522615
95	0x3e0913fc	0.1338653
96	0x3d28c9b4	0.041207984
97	0x3cf28ad9	0.029607223
98	0xbcafe216	-0.02147011
99	0xbd857710	-0.0651685
100	0xbd18e7f4	-0.037330583
101	0xbca4d153	-0.020119345
102	0xbbfe2feb	-0.007757177
103	0xbc5b6aa8	-0.013392128
104	0x3c3d6db1	0.011561797
105	0xbc8b0fd6	-0.016975325
106	0xbd5e2676	-0.054235898
107	0x3d027afc	0.03185557
108	0xbdfb1e31	-0.12261618
109	0xb98f26a6	-0.0002730388
110	0x3a64289c	0.0008703561
111	0x3ba713bd	0.0050987885
112	0xbcaebed6	-0.021331232
113	0xb9d10d74	-0.0003987361
114	0x3d18891d	0.037240136
115	0x3ada6d4c	0.0016664653
116	0x3d55293b	0.052041274
117	0x3cdd602d	0.0270234
118	0x3d5f4ca0	0.054516435
119	0x3d308aee	0.043101244
120	0x3d529c98	0.05141887
121	0x3c4e3d84	0.012587909
122	0xbddd96dd	-0.108197905
123	0xbda10a0d	-0.07863245
124	0x3d3e2c9d	0.046429265
125	0xbd35ee18	-0.044416517
126	0xbc585da7	-0.013205922
127	0x3b08d21c	0.0020877188
128	0x3dbc8a92	0.09206118
129	0x3e0460a5	0.12927492
130	0xbd244d3c	-0.04011272
131	0xbd5bd910	-0.053673804
132	0x3d147e63	0.036253344
133	0x3c1859e9	0.00929878
134	0xbc3a05c9	-0.011353918
135	0xbbc065c7	-0.005871508
136	0xbda1d0b1	-0.07901133
137	0xbc30c8da	-0.010790074
138	0x3d0d6ce8	0.03452769
139	0x3d062ea7	0.032759335
140	0x3c89a57c	0.016802542
141	0xbd072ac8	-0.032999784
142	0x3c4b16e9	0.012395599
143	0xbb71b263	-0.0036880008
144	0xbcc77fb1	-0.02435288
145	0x3bdf1b6d	0.0068086893
146	0x3c9e0256	0.019288223
147	0x3c2d6b89	0.01058472
148	0xbd2022de	-0.039095752
149	0xbda73dd7	-0.08166092
150	0xbd36a889	-0.04459432
151	0xbd844557	-0.06458538
152	0xbc22ba16	-0.009932062
153	0x3d9ccc6a	0.076561764
154	0x3cd24876	0.025669318
155	0xbd4f2c49	-0.050579343
156	0xbcabebb6	-0.02098642
157	0x3d02a056	0.03189119
158	0x3c8b519a	0.017006684
159	0x3d080980	0.033212185
160	0x3db9ad9e	0.09066318
161	0x3d515ae8	0.051112086
162	0xbbe79b5b	-0.0070680804
163	0xbcf79930	-0.030224413
164	0x3d2ba8a5	0.04190888
165	0x3c340d3c	0.010989483
166	0xbdc08dad	-0.094020225
167	0x3d0ffe8d	0.035154868
168	0xbd79acdd	-0.06095587
169	0x3d97fa69	0.07420809
170	0x3d6d1580	0.057881832
171	0x3dd65e44	0.104671985
172	0x3d774110	0.060364783
173	0xbdc29ac1	-0.09502173
174	0xbce3fc66	-0.027830314
175	0xbd194b31	-0.037425224
176	0x3c0afce9	0.00848315
177	0x3d210fe1	0.039321784
178	0x3c0cf905	0.008604293
179	0xbd3d8512	-0.046269484
180	0xbc43c9f5	-0.011950006
181	0xbd09e239	-0.03366301
182	0x3d34e881	0.044167046
183	0x3d9820bb	0.07428118
184	0xbd7e9e41	-0.06216264
185	0xbd86ba93	-0.06578555
186	0x3d258201	0.040407185
187	0x3b6e6e75	0.0036381755
188	0xbc375513	-0.011189717
189	0x3d6c8a3c	0.057749018
190	0x3ca8b324	0.020593233
191	0x3d65fc40	0.056148767
192	0xbd488aea	-0.048960604
193	0xbcf50f11	-0.02991441
194	0xbccb138d	-0.024789596
195	0xbd936687	-0.0719729
196	0x3c14a6b6	0.00907295
197	0xbd845696	-0.064618275
198	0xbd85b359	-0.065283485
199	0xbd1e6dc2	-0.038678892
200	0x3d402f43	0.046920072
201	0x3d449dc7	0.04800203
202	0xbd3ad606	-0.045614265
203	0xbd1b50cb	-0.037918847
204	0xbb5b5696	-0.0033468357
205	0xbc5fa0a0	-0.013649136
206	0x3d536da3	0.05161823
207	0x3ca50032	0.020141695
208	0x3cad173c	0.021129243
209	0xbd90d9f6	-0.07072823
210	0xbcbc7c7a	-0.023008574
211	0xbd5f7301	-0.054553036
212	0xbd602125	-0.05471911
213	0x3d8938c1	0.06700278
214	0x3c28f27d	0.01031172
215	0xbcb51e06	-0.022109043
216	0xbd3892d5	-0.045061905
217	0x3d6674de	0.056263797
218	0xbc7aa223	-0.0152974455
219	0xbd90436a	-0.07044108
220	0xbb6c3980	-0.0036045015
221	0xbd1cf08e	-0.03831535
222	0x3da2f81a	0.07957478
223	0x3bb9d11d	0.00567068
224	0x3d791f68	0.060820967
225	0xbce45209	-0.027871149
226	0x3c8fdee4	0.017562337
227	0x3d1ccd0a	0.038281478
228	0x3b865b95	0.004100273
229	0x3cdff0c0	0.027336478
230	0xbca1505b	-0.019691637
231	0xbd402ab9	-0.046915743
232	0xbd29fa18	-0.041498274
233	0xbd2d81d5	-0.042360146
234	0xbd5082bb	-0.050905924
235	0xbd982392	-0.074286595
236	0xbd50402a	-0.05084244
237	0xbb57a34a	-0.0032903724
238	0xbd1980ee	-0.037476473
239	0xbcde6ee8	-0.027152494
240	0xbaebc5ff	-0.0017988085
241	0x3c0a1929	0.00842885
242	0xbd91ad98	-0.071131885
243	0x3c6dc1c9	0.014511534
244	0xbd0b5f4b	-0.034026425
245	0x3ce04bf5	0.02737997
246	0x3c4309a8	0.011904158
247	0x3d5ba90e	0.05362802
248	0xbdb5f456	-0.08884494
249	0xbc826415	-0.015916863
250	0x3d7fe34d	0.06247263
251	0x3dedcf5c	0.11611816
252	0x3c73a7f6	0.014871588
253	0xb8b4e964	-8.626541e-05
254	0x3d0888f6	0.03333374
255	0x3d0b4454	0.03400071

decoder.1.cnn.bias f4 [16]
0	0x3c99ba6c	0.01876565
1	0x3d8cff67	0.06884652
2	0xbdaebe27	-0.085323624
3	0xbde85ce7	-0.11345845
4	0x3c41adb0	0.0118211955
5	0x3c737954	0.01486047
6	0xbc6a8d59	-0.0143159265
7	0xbcf23785	-0.02956749
8	0x3d5c92d3	0.05385096
9	0xbc334219	-0.010941052
10	0x3d04df82	0.032439716
11	0xbc73861e	-0.014863519
12	0x3d997b8a	0.07494266
13	0x3d61fa45	0.055170316
14	0xbd126fcd	-0.035751153
15	0x3ce6e8e3	0.02818722

decoder.2.BachNorm.weight f4 [10]
0	0x3f89008c	1.0703292
1	0x3f838616	1.0275295
2	0x3f9c7336	1.222266
3	0x3f7ad1be	0.9797629
4	0x3f9fe1a6	1.2490737
5	0x3f4d34a4	0.8015845
6	0x3f91b9de	1.1384847
7	0x3f8f78ac	1.1208701
8	0x3f9e0e62	1.2348139
9	0x3f8d1d9f	1.1024665

decoder.2.BachNorm.bias f4 [10]
0	0xbdb935fb	-0.09043499
1	0xbe7e050e	-0.24806616
2	0xbdcfbd22	-0.10143496
3	0xbe23bd07	-0.15990077
4	0xbdc82b90	-0.09773934
5	0xbed04eeb	-0.4068521
6	0xbe3cbf93	-0.18432455
7	0xbe3de0e9	-0.18542828
8	0xbe10056a	-0.14064565
9	0xbe06f0c8	-0.13177788

decoder.2.BachNorm.running_mean f4 [10]
0	0x3e95734c	0.29189527
1	0x3dd0c5e7	0.10193997
2	0x3e4863d0	0.19569325
3	0x3d762b0c	0.060099646
4	0x3e84e794	0.2595793
5	0xbe29dc37	-0.16587912
6	0x3e746c42	0.23869422
7	0x3d87791d	0.066148974
8	0x3db77a7e	0.089589104
9	0x3dacfefa	0.084470704

decoder.2.BachNorm.running_var f4 [10]
0	0x3e3c5a73	0.18393879
1	0x3e4a06fc	0.19729227
2	0x3e52b0bb	0.2057523
3	0x3e332341	0.17493917
4	0x3e58c335	0.21168216
5	0x3de96bf2	0.11397542
6	0x3e46101c	0.19342083
7	0x3e1aa028	0.15100157
8	0x3e4cd5c8	0.20003426
9	0x3e7b87e7	0.24563561

decoder.2.cnn.weight f4 [16, 10, 6, 6]
0	0x3bcd2519	0.006260526
1	0x3cea7be8	0.028623536
2	0xbc93c56b	-0.018038472
3	0xbbd0cb44	-0.0063718874
4	0xbba63bc0	-0.0050730407
5	0xbd5430ad	-0.051804233
6	0xbbac6362	-0.005260871
7	0x3dc121e0	0.09430289
8	0xbd60d48f	-0.05489021
9	0x3d1900ee	0.037354402
10	0x3d5c4ce0	0.05378425
11	0x3be2d344	0.0069221575
12	0x3d9e0614	0.07716003
13	0xbb636298	-0.0034696218
14	0x3d994454	0.07483736
15	0x3cbbcb55	0.022924105
16	0xbd3aa247	-0.045564916
17	0xbc8ceb89	-0.017202156
18	0xbb6a2dde	-0.0035732905
19	0x3d1dfe15	0.03857239
20	0xbcdf7db3	-0.027281618
21	0xbc9ad213	-0.018899
22	0x3d2e4130	0.042542636
23	0xbd8cfa84	-0.068837196
24	0x3cbb02b3	0.022828436
25	0x3d00af58	0.03141722
26	0x3d1f53a3	0.03889812
27	0x3db0c2d2	0.08630909
28	0xbca9baac	-0.020718895
29	0xbd1f3f3b	-0.03887866
30	0x3bf3da2e	0.0074417805
31	0x3c1be67b	0.0095154
32	0xbc27c561	-0.01023993
33	0xbb3cb7ad	-0.0028796003
34	0xbac88b6b	-0.0015300339
35	0x3df81585	0.121134795
36	0xbdec1f25	-0.11529378
37	0x3d2d74f1	0.042347852
38	0xbd119021	-0.035537843
39	0xbd017753	-0.031607937
40	0xbc84dc21	-0.016218247
41	0x3cab13c1	0.020883443
42	0xbdca41f1	-0.098758586
43	0x3d5b3ac5	0.053522844
44	0x3b85a8e8	0.004078973
45	0xbd4a12cf	-0.049334344
46	0x3d098ff6	0.033584557
47	0xbc8af0b4	-0.01696048
48	0x3c906566	0.017626476
49	0xbd95a9c9	-0.073077746
50	0xbc0cbe5c	-0.008590307
51	0xbe03bc7c	-0.1286487
52	0x3b585496	0.0033009402
53	0xbba3774d	-0.004988587
54	0x3d51a525	0.051182885
55	0x3c3fdd9c	0.011710551
56	0x3ded7887	0.115952544
57	0x3da2a10f	0.07940876
58	0x3db92640	0.09040499
59	0x3cd15899	0.025554942
60	0x3d82de41	0.06390048
61	0x3d433f0f	0.04766756
62	0xbd4452d2	-0.047930546
63	0xbd51f67b	-0.051260453
64	0x3d587d62	0.05285395
65	0xbe291da2	-0.1651521
66	0xbd93d73f	-0.07218789
67	0x3cc33b04	0.023831852
68	0xbbb1dafe	-0.005427717
69	0xbd0ba642	-0.034094103
70	0x3de1a1b8	0.110171735
71	0x3d2e2972	0.042519994
72	0x3b3a1228	0.002839217
73	0x3baff660	0.0053699464
74	0x3d0ace0f	0.03388792
75	0x3d1c7469	0.038196955
76	0xb724ab5c	-9.8150595e-06
77	0xbcf4fa04	-0.029904373
78	0xbcd32ff1	-0.025779696
79	0xbc9601ab	-0.018311342
80	0x3da78042	0.0817876
81	0x3dca7f1e	0.09887527
82	0x3d6ece47	0.05830219
83	0x3d146ec4	0.036238447
84	0xbc635881	-0.013876081
85	0x3d849b60	0.06474948
86	0xbc934a63	-0.017979806
87	0x3d99fddf	0.07519125
88	0xbcba3611	-0.022730859
89	0xbc51aed6	-0.012798032
90	0x3cb36d76	0.021902781
91	0x3d216725	0.039405007
92	0xbc667d80	-0.0140680075
93	0x3df1d508	0.118082106
94	0x3e0e5090	0.1389792
95	0x3d42fba8	0.04760328
96	0xbd87f84d	-0.066391565
97	0x3cccbeb8	0.024993286
98	0x3cb2ff15	0.021850148
99	0x3d795963	0.06087626
100	0xba4e9dde	-0.00078818004
101	0xbd11cd18	-0.035595983
102	0x3db68891	0.08912767
103	0x3d3fd7d6	0.046836697
104	0x3dc069c5	0.09395174
105	0x3db8e609	0.09028251
106	0x3c47c433	0.012192774
107	0x3d837b8b	0.06420048
108	0xbbe79978	-0.0070678554
109	0xbdd5994d	-0.104296304
110	0x3cd63ed1	0.026153
111	0x3c34e8b1	0.011041806
112	0xbcf46093	-0.029831206
113	0xbd476931	-0.048684303
114	0x3d065f2b	0.032805603
115	0x3d7a46d6	0.06110271
116	0xbdd8eddd	-0.10592244
117	0x3e0c5c2e	0.13707039
118	0xbd23c985	-0.039987106
119	0x3d04f530	0.03246039
120	0x3d8dc41d	0.06922171
121	0x3cf1af1f	0.02950245
122	0x3ce6f708	0.028193966
123	0x3c58d9f5	0.013235559
124	0x3d5346de	0.051581256
125	0xbbad2a6e	-0.005284599
126	0xbe02117b	-0.12701981
127	0x3dba9c97	0.091118984
128	0x3deb1ada	0.11479731
129	0x3d8fba1e	0.07017921
130	0x3ca3efb6	0.020011764
131	0xbbea1488	-0.007143561
132	0xbd0a42f5	-0.03375526
133	0xbcf235d0	-0.029566675
134	0x3d5f58a3	0.05452789
135	0xbd6f6fa6	-0.058456086
136	0x3d2eaf82	0.042647846
137	0xbd5d8e7b	-0.054090958
138	0x3c6ea6de	0.014566151
139	0x3c99ce54	0.018775143
140	0x3d2deee7	0.042464163
141	0x3d210728	0.039313465
142	0x3dae1308	0.08499724
143	0x3b883b1c	0.004157437
144	0xbdbafd39	-0.0913033
145	0x3cab3b15	0.020902196
146	0xbc64cb79	-0.013964527
147	0xbd8baf28	-0.06820518
148	0x3c9683e6	0.018373441
149	0xbdda5bf1	-0.10662068
150	0x3d429126	0.047501706
151	0x3d121c7b	0.035671692
152	0x3c6c2ba5	0.014414703
153	0xbbc9fdb2	-0.006164276
154	0xbcadb1ea	-0.021203
155	0x3d9958d5	0.074876465
156	0xbdd54074	-0.10412684
157	0x3da921fd	0.08258436
158	0x3d1126df	0.03543746
159	0x3d097203	0.033555996
160	0x3cd7ba12	0.026333842
161	0x3bd13392	0.0063843215
162	0xbdaeaed3	-0.08529439
163	0xbc875f16	-0.016524833
164	0xbd8d9b5b	-0.06914397
165	0x3ccad55f	0.024759946
166	0xbb77aaac	-0.0037790937
167	0x3cb691c6	0.022286307
168	0x3cf17dd4	0.029478945
169	0xbc88b1cc	-0.016686343
170	0x3de886cf	0.11353838
171	0x3d61accd	0.055096436
172	0x3d023c8f	0.031796034
173	0x3daaeebd	0.08346317
174	0x3d14eaea	0.036356844
175	0x3cb4970d	0.022044683
176	0x3d33bd62	0.04388178
177	0x3c6ae119	0.014335894
178	0xbbc34f00	-0.0059603453
179	0x3d066998	0.032815546
180	0x3a4f3890	0.0007904852
181	0x3cacd9d4	0.021099962
182	0xbde021af	-0.10943925
183	0xbd070985	-0.032968063
184	0xbc39cb64	-0.011339996
185	0xbd04671e	-0.032324903
186	0xbd20148f	-0.039082106
187	0x3d96e809	0.07368476
188	0xbd940368	-0.07227212
189	0x3d916504	0.07099345
190	0x3cc702ed	0.024293387
191	0xbdb74998	-0.08949584
192	0x3ca3cb02	0.019994263
193	0xbd9fe98b	-0.07808217
194	0xbd2fe70a	-0.042944945
195	0x3d0f4089	0.034973655
196	0xbb9e7d15	-0.0048366883
197	0x3b88a333	0.0041698455
198	0xbd117216	-0.03550919
199	0x3bf9fb8a	0.0076288627
200	0xbd6b3dcf	-0.057431992
201	0xbd19c8a8	-0.037544876
202	0x3d20e19d	0.03927766
203	0x3d8cc2fc	0.06873128
204	0xbdde86fc	-0.1086559
205	0x3c96960c	0.018382095
206	0xbe2d2a25	-0.16910608
207	0x3d61be34	0.055113032
208	0xbd2ecb1e	-0.042674176
209	0xbba69859	-0.005084079
210	0x3cc7ca5e	0.024388488
211	0x3c49edec	0.012324791
212	0xbd4c508c	-0.049881503
213	0x3ca5fd2f	0.020262329
214	0xbca1508b	-0.019691726
215	0xba9d935a	-0.0012022064
216	0x3c07cc0b	0.008288394
217	0xbcb26dbe	-0.021780845
218	0x3d703b4e	0.058650307
219	0xbc3ec4fc	-0.011643644
220	0xbd6cc89c	-0.057808504
221	0xbc40bcf7	-0.011763803
222	0x3cc88f17	0.024482293
223	0x3d7243d1	0.059146706
224	0x3c8da6dc	0.017291479
225	0x3d1a0ced	0.037609983
226	0xbc9ae518	-0.018908069
227	0x3d28d59c	0.04121934
228	0xbcc90458	-0.024538204
229	0x3cedad61	0.029013338
230	0x3ca640af	0.020294515
231	0xbdbdb42f	-0.09262883
232	0xbd63843f	-0.05554604
233	0x3bd5fe59	0.0065305647
234	0x3d312723	0.043250214
235	0xbbd63a43	-0.006537707
236	0x3d286965	0.041116137
237	0x3c1bf141	0.009517969
238	0x3c6e0bf0	0.014529213
239	0x3caadd06	0.020857345
240	0xbd31dc5b	-0.043423038
241	0x3a9c7e2b	0.0011939456
242	0xbd0ca7a5	-0.034339566
243	0x3ca00c37	0.019537074
244	0x3cabb306	0.020959388
245	0xbd13e4cd	-0.036106873
246	0x3db8c38a	0.09021671
247	0xbd8da741	-0.06916667
248	0x3cd04049	0.025421279
249	0x3d875041	0.06607104
250	0x3d74ff3c	0.059813723
251	0x3db4324c	0.08798656
252	0x3d6deb72	0.058085866
253	0x3d3faff0	0.046798646
254	0xbb55c6c3	-0.0032619692
255	0x3b8164b6	0.0039487733

decoder.2.cnn.bias f4 [10]
0	0x3d1a6376	0.03769251
1	0xbd74023c	-0.059572443
2	0x3d879505	0.0662022
3	0xbccaf25c	-0.02477377
4	0x3d885730	0.06657255
5	0xbde1c654	-0.11024156
6	0x3d196a9d	0.03745519
7	0x3b19411f	0.0023384762
8	0xbdb9e6e0	-0.09077239
9	0xbd0f9e09	-0.035062823

decoder.4.cnn.weight f4 [10, 1, 6, 6]
0	0xbc922310	-0.017838985
1	0xbd820670	-0.06348884
2	0xbd3af21a	-0.045641042
3	0xbd14545b	-0.03621326
4	0x3d0b3efb	0.03399561
5	0x3d952626	0.07282667
6	0xbd0e8c4c	-0.034801766
7	0xbdcecdeb	-0.100978695
8	0xbdc68398	-0.09693068
9	0xbd80fb7a	-0.06297965
10	0x3db0b67a	0.08628555
11	0x3df4a3fe	0.119453415
12	0xbc740df9	-0.0148959095
13	0xbd9452bd	-0.072423436
14	0xbd90a226	-0.07062177
15	0x3bb7e43f	0.005611926
16	0x3e172428	0.14759886
17	0x3e208ebf	0.15679453
18	0x3cebde8f	0.028792648
19	0xbc87d27a	-0.016579855
20	0x3cf041bb	0.029328218
21	0x3dff851e	0.12476562
22	0x3e5f3a2e	0.21799538
23	0x3e2f850b	0.17140596
24	0x3d29e929	0.041482124
25	0x3c95f976	0.018307429
26	0x3d94fa03	0.072742485
27	0x3e0c8ca6	0.13725528
28	0x3e29021d	0.16504712
29	0x3ddef286	0.108861014
30	0x3d08286d	0.033241678
31	0x3c708687	0.014680511
32	0x3d4c1071	0.049820367
33	0x3dafdaed	0.08586679
34	0x3d9d1c7b	0.07671448
35	0x3d1c36ec	0.038138315
36	0xbcdceab1	-0.026967378
37	0xbd397002	-0.045272835
38	0xbd013b26	-0.03155055
39	0xbbdd18ab	-0.0067473254
40	0xbc8dcae8	-0.017308667
41	0xbba976f0	-0.005171649
42	0xbd24b0d8	-0.040207714
43	0xbd96af1e	-0.0735762
44	0xbda4c1a5	-0.08044747
45	0xbdb7ca9a	-0.0897419
46	0xbdc5476a	-0.09632762
47	0xbd92902d	-0.071564056
48	0xbca401b7	-0.020020349
49	0xbd8e4751	-0.06947196
50	0xbe0a582d	-0.13510199
51	0xbe3c8147	-0.1840869
52	0xbe394096	-0.18091044
53	0xbe1bb37a	-0.15205184
54	0xbd1c0a04	-0.03809549
55	0xbd9baf34	-0.07601777
56	0xbe23c073	-0.15991382
57	0xbe60cf3f	-0.21954058
58	0xbe6b7efb	-0.22997658
59	0xbe1aac20	-0.15104723
60	0xbd2a088a	-0.04151205
61	0xbd8f91dd	-0.07010243
62	0xbe2a0036	-0.16601643
63	0xbe4c5f86	-0.19958314
64	0xbe28351a	-0.16426507
65	0xbdb7245c	-0.08942482
66	0xbcf6e860	-0.030140102
67	0xbd4e890a	-0.05042366
68	0xbde505f6	-0.111827776
69	0xbde29184	-0.11062911
70	0xbda3f298	-0.080052555
71	0xbd14f120	-0.036362767
72	0xbc773de5	-0.01509044
73	0xbcf73b3f	-0.030179618
74	0xbd464c6e	-0.048412733
75	0xbce653a1	-0.02811605
76	0xbc04c9c3	-0.008104744
77	0xbc4bfd13	-0.012450474
78	0xbc8b1ff2	-0.016983006
79	0xbc44111b	-0.011966969
80	0xbce764d1	-0.028246315
81	0xbce3ddc2	-0.027815703
82	0xbceffb44	-0.029294617
83	0xbd631ccb	-0.05544738
84	0x3c59ca3f	0.013292848
85	0x3d9dd759	0.0770709
86	0x3dc7f985	0.09764389
87	0x3d30cb7b	0.043162804
88	0xbd2004d7	-0.039067116
89	0xbdd3eeab	-0.10348257
90	0x3d03a318	0.03213796
91	0x3e03b92d	0.12863608
92	0x3e15d092	0.14630345
93	0x3d3ba52e	0.045811825
94	0xbdb8d78a	-0.09025486
95	0xbe062188	-0.13098729
96	0x3dd089f7	0.10182565
97	0x3e44e998	0.19229734
98	0x3e4978dc	0.1967501
99	0x3d997f11	0.07494939
100	0xbd869a70	-0.06572425
101	0xbdb8cb2d	-0.09023128
102	0x3dab4ce6	0.083642766
103	0x3e0285d2	0.12746361
104	0x3e010529	0.12599625
105	0x3c8817c5	0.016612897
106	0xbd997cdf	-0.074945204
107	0xbd8e9660	-0.069622755
108	0xbd9fe65a	-0.07807608
109	0xbe071d1e	-0.13194701
110	0xbdf0177a	-0.11723228
111	0xbd8e2bbb	-0.06941935
112	0xbbc72395	-0.0060772398
113	0x3c1353a7	0.008992112
114	0xbe02ecac	-0.12785596
115	0xbe231f73	-0.15929966
116	0xbd96405d	-0.07336495
117	0x3c61cf84	0.013782386
118	0x3d91658e	0.07099448
119	0x3d395994	0.045251444
120	0xbde5f83a	-0.11228986
121	0xbdd0829f	-0.10181164
122	0x3d0646b1	0.03278226
123	0x3e009a00	0.12558746
124	0x3e318d70	0.1733911
125	0x3dc5b62b	0.096538864
126	0xbc962766	-0.018329334
127	0x3d3824d7	0.04495701
128	0x3e1855d9	0.14876498
129	0x3e508934	0.20364839
130	0x3e4add8b	0.19811074
131	0x3dc1ceee	0.09463297
132	0xbab24c78	-0.0013603112
133	0x3d856a3d	0.06514404
134	0x3dead54c	0.114664644
135	0x3e018092	0.12646702
136	0x3dbb05a3	0.091319345
137	0x3c8d8612	0.017275844
138	0x3c9a8f8c	0.018867277
139	0x3d0ddbf7	0.034633603
140	0x3d2a12c9	0.04152182
141	0x3d38f603	0.04515649
142	0x3c152cf1	0.009104953
143	0xbd0a317e	-0.033738606
144	0xbc62c477	-0.013840786
145	0x3c6671a1	0.014065177
146	0x3d3a64c5	0.045506258
147	0x3d23ca69	0.039987955
148	0xbc442b52	-0.011973219
149	0xbcfc0de8	-0.03076835
150	0x3c95e87f	0.01829934
151	0x3df2ed56	0.118616745
152	0x3e36cd5c	0.17851776
153	0x3e0957c4	0.13412386
154	0x3cf12a05	0.029438982
155	0xbc2d2b97	-0.010569475
156	0x3db026e1	0.086011656
157	0x3e6a15ae	0.22859833
158	0x3e8b1ed2	0.27171952
159	0x3e1ec1b5	0.15503581
160	0x3cad7582	0.021174196
161	0xbcaa37fa	-0.020778645
162	0x3dda1e8a	0.10650356
163	0x3e606004	0.21911627
164	0x3e4ae957	0.19815575
165	0x3d9044a7	0.070443444
166	0xbd62db73	-0.055385064
167	0xbda29f9d	-0.079406
168	0x3d2b169a	0.0417696
169	0x3df636d5	0.12022177
170	0x3d9e5ad7	0.0773217
171	0xbcb0a37c	-0.02156233
172	0xbd91b1ba	-0.07113977
173	0xbd5a673f	-0.05332112
174	0xbca087b0	-0.01959595
175	0x3d04a2c6	0.032381795
176	0x39c3d888	0.00037354627
177	0xbd393b64	-0.045222655
178	0xbd69dbce	-0.057094388
179	0xbcd5c5e4	-0.026095338
180	0xbd50d4a1	-0.05098403
181	0xbdcb7d92	-0.0993606
182	0xbde761a7	-0.112979226
183	0xbdcce153	-0.10003915
184	0xbdadc566	-0.084849164
185	0xbd66c91e	-0.056344144
186	0xbda1f3c0	-0.0790782
187	0xbe297c6b	-0.16551368
188	0xbe3ab6fd	-0.18233867
189	0xbe394956	-0.18094382
190	0xbe0fb823	-0.14035086
191	0xbde57726	-0.112043664
192	0xbd84bf70	-0.06481826
193	0xbe12e9b8	-0.14346969
194	0xbe53ce40	-0.20684147
195	0xbe678909	-0.22610869
196	0xbe17e16b	-0.14832084
197	0xbdbb4979	-0.09144873
198	0xbc8b370a	-0.016994018
199	0xbdaa1e82	-0.083066
200	0xbe302938	-0.17203224
201	0xbe5bbfa3	-0.21459822
202	0xbe09505f	-0.13409565
203	0xbd896083	-0.06707861
204	0x3cf87bb6	0.030332427
205	0xbc82002f	-0.015869228
206	0xbdc66ff8	-0.09689325
207	0xbe14e3d1	-0.1454003
208	0xbdefd0dd	-0.117097594
209	0xbd8703e4	-0.06592539
210	0xbba702f9	-0.00509679
211	0xbcf8a243	-0.03035081
212	0xbd571ad4	-0.05251582
213	0xbd8c719b	-0.06857606
214	0xbd8c3a73	-0.06847086
215	0xbce9d653	-0.02854458
216	0x3d2e542e	0.04256075
217	0x3de1a21e	0.110172495
218	0x3e0421e1	0.12903549
219	0x3dad0715	0.084486164
220	0x3d2d72ae	0.042345695
221	0x3ccb15e2	0.024790708
222	0x3da78bde	0.081809744
223	0x3e3858a4	0.18002564
224	0x3e2e9d4e	0.17052194
225	0x3da4daee	0.0804957
226	0x3c4a9bee	0.012366278
227	0x3ba8dec1	0.0051535075
228	0x3d8d463f	0.06898164
229	0x3e00810c	0.12549227
230	0x3db71f2b	0.08941492
231	0xbd5c9da6	-0.053861283
232	0xbe0625c9	-0.13100351
233	0xbd92a33b	-0.0716004
234	0xbc78ddfe	-0.015189646
235	0xbbc85d07	-0.0061146053
236	0xbdae34a9	-0.08506138
237	0xbe5b6996	-0.21426997
238	0xbe796517	-0.24354969
239	0xbdee76be	-0.11643742
240	0xbda6df2e	-0.08148037
241	0xbdef072d	-0.116712905
242	0xbe52824b	-0.20557515
243	0xbe953fda	-0.29150277
244	0xbe7d2bd5	-0.24723752
245	0xbdcf2a07	-0.10115438
246	0xbd9fc563	-0.078013204
247	0xbdf66705	-0.12031368
248	0xbe2fd35c	-0.17170471
249	0xbe4aff77	-0.19824015
250	0xbe107fd7	-0.14111267
251	0xbcffe299	-0.03123598
252	0xbcc57c10	-0.02410701
253	0xbd9a85a2	-0.0754502
254	0xbd5b2f68	-0.053512007
255	0x3cc922dc	0.024552755
