AutoEncoders/saved_model/model.pth (torch, 91520 bytes, 43 tensors)

encoder_faltten.0.BachNorm.weight f4 [8]
0	0x3fa8bbee	1.3182352
1	0x3f881982	1.0632784
2	0x3f612128	0.8794122
3	0x3f9ad348	1.2095728
4	0x3fdfc8d4	1.7483163
5	0x3f7069b2	0.9391128
6	0x3fa068c5	1.2531973
7	0x3f9fcad8	1.2483778

encoder_faltten.0.BachNorm.bias f4 [8]
0	0x3f1d5ac8	0.61466646
1	0x3e17397b	0.14768021
2	0x3e913bf4	0.28366053
3	0x3f1364f6	0.5757593
4	0x40049485	2.071565
5	0x3dbf3b06	0.0933743
6	0xbe6f38f1	-0.23361565
7	0x3e8ff6e2	0.28118044

encoder_faltten.0.BachNorm.running_mean f4 [8]
0	0x3f12226d	0.5708378
1	0x3fd25081	1.6430818
2	0x3d80ee56	0.06295459
3	0xbdfd8de0	-0.12380576
4	0xbe8a27d4	-0.2698351
5	0xbfa51667	-1.2897462
6	0x3df597d5	0.1199185
7	0x3e0ffb16	0.14060625

encoder_faltten.0.BachNorm.running_var f4 [8]
0	0x41771332	15.442186
1	0x40af5b9e	5.4799337
2	0x40b7b252	5.7405176
3	0x40d7acc5	6.73984
4	0x41bce54c	23.611961
5	0x4080df75	4.0272775
6	0x40890ccc	4.282812
7	0x4099e08b	4.80866

encoder_faltten.0.cnn.weight f4 [8, 1, 3, 3]
0	0x3e9c572b	0.30535254
1	0xbe001ec6	-0.12511739
2	0x3d61a1c2	0.055085905
3	0x401ff6de	2.4994426
4	0x3f3da204	0.7407534
5	0x3f177e25	0.59176856
6	0x3fa817c4	1.3132253
7	0xbf651703	-0.8948824
8	0x3e5f0d45	0.21782406
9	0x3f9321e7	1.1494721
10	0x3f702093	0.93799704
11	0x3fda5c55	1.7059427
12	0xbe8e61a4	-0.2780887
13	0xbef23ebb	-0.47313485
14	0xbd9548d4	-0.072892815
15	0xbf33ddb0	-0.70260143
16	0xbf1dab78	-0.61589766
17	0xbf65527e	-0.89579
18	0xbefe6771	-0.49688295
19	0x3f5834aa	0.8445536
20	0xbee84412	-0.45364434
21	0xbeea4d7b	-0.45762238
22	0x3f6a647c	0.91559577
23	0x4006adbf	2.1043546
24	0xbf858481	-1.0431062
25	0x3d4cfa0b	0.050043147
26	0x3ee832a2	0.4535113
27	0x3e8809db	0.2657002
28	0x3f0eb5db	0.5574624
29	0x3f2a6a89	0.6656881
30	0xbf53d301	-0.8274384
31	0x3e21d46f	0.15803693
32	0xbf22fccc	-0.6366699
33	0x3f13c354	0.5771992
34	0x401e10bc	2.4697714
35	0xbe90e7e9	-0.28301933
36	0x3edfb6d9	0.4369419
37	0xbe13dbd5	-0.14439328
38	0xbfc0c717	-1.5060757
39	0xbe777190	-0.24164414
40	0xbe638a9a	-0.22220841
41	0xbf984c77	-1.1898335
42	0xbfa32b63	-1.2747616
43	0xbf35ed63	-0.7106535
44	0xbfa57199	-1.2925292
45	0x3f6801c5	0.906277
46	0x3e90a0b1	0.28247598
47	0xbf069b05	-0.5258029
48	0x3f65e92a	0.89808905
49	0xbeb6ae0a	-0.35679656
50	0xbf1515d8	-0.58236456
51	0x3f887e1d	1.0663487
52	0xbf0d0649	-0.55087715
53	0xbf2deba5	-0.6793769
54	0xbf3e5edf	-0.7436351
55	0xbf547c4a	-0.8300215
56	0xbf8c3188	-1.0952616
57	0x3f03a441	0.51422507
58	0xbdc23e13	-0.09484496
59	0xbf0b0dd7	-0.5431799
60	0x3fac17df	1.3444785
61	0x3f0fc5ad	0.56161004
62	0xbe5f9ed5	-0.21837933
63	0x3c10013e	0.008789359
64	0xbf6be5ce	-0.9214753
65	0x3e8c4de7	0.27403185
66	0x3ca5c746	0.020236623
67	0xbf0e1675	-0.55503017
68	0x3e3cb48c	0.18428248
69	0xbe32de5a	-0.17467633
70	0xbec43312	-0.38320214
71	0x40327fdb	2.7890537

encoder_faltten.0.cnn.bias f4 [8]
0	0x3f169dff	0.5883483
1	0x3fcfa5b2	1.6222441
2	0x3d85ac78	0.065270364
3	0xbdca5dc9	-0.09881169
4	0xbe97f1fb	-0.29676804
5	0xbfa64eea	-1.2992833
6	0x3ddbaefb	0.10726734
7	0x3e0788c9	0.13235773

encoder_faltten.1.BachNorm.weight f4 [16]
0	0x3f914dc7	1.1351861
1	0x3f44141a	0.7659317
2	0x3f6c5202	0.92312634
3	0x3f4f36cf	0.80943006
4	0x3f3ebfe6	0.74511564
5	0x3f284566	0.65730894
6	0x3f3d3d51	0.73921686
7	0x3f87f6bc	1.0622172
8	0x3f51b2a2	0.819132
9	0x3f469211	0.7756663
10	0x3fc6c118	1.5527678
11	0x3f833cb5	1.0252901
12	0x3f7550e4	0.95826554
13	0x3f54d74d	0.8314102
14	0x402aa1f0	2.6661339
15	0x40052259	2.0802214

encoder_faltten.1.BachNorm.bias f4 [16]
0	0xbe97cdde	-0.29649252
1	0xbe2177b6	-0.15768322
2	0xbdaf2d57	-0.0855357
3	0xbe942c50	-0.28940058
4	0xbf26c663	-0.65146464
5	0xbe834d08	-0.25644708
6	0xbec1bf32	-0.37841183
7	0xbf859025	-1.0434614
8	0x3d067d66	0.032834433
9	0xbd878c72	-0.06618585
10	0xbf5baa91	-0.8580714
11	0xbd97f8da	-0.074205115
12	0xbc246d89	-0.010035881
13	0xbf74072f	-0.9532346
14	0xbf89f1c3	-1.0776905
15	0xbef8e440	-0.4861164

encoder_faltten.1.BachNorm.running_mean f4 [16]
0	0xc01377b0	-2.3041801
1	0x3c046e24	0.0080829
2	0xc036eb0a	-2.8580956
3	0x40dba17c	6.8634624
4	0x408c464c	4.383581
5	0x40b644a6	5.69588
6	0x402bedbc	2.6863852
7	0x411d62f3	9.836658
8	0x415ecfa0	13.92569
9	0x409ce5a6	4.9030333
10	0xc0cfa43f	-6.4887996
11	0x41941bc1	18.513552
12	0xbf1081e3	-0.5644819
13	0x41437ca4	12.21793
14	0xc122c4ef	-10.1730795
15	0xc07079a3	-3.757424

encoder_faltten.1.BachNorm.running_var f4 [16]
0	0x433c99e9	188.60121
1	0x42b51e78	90.55951
2	0x43004a5e	128.2905
3	0x42f59aa6	122.80205
4	0x42e956c4	116.669464
5	0x42c54719	98.63886
6	0x430565e2	133.39798
7	0x437c0ecf	252.05785
8	0x4321c457	161.76695
9	0x42818123	64.75222
10	0x435ae717	218.9027
11	0x43a75963	334.69833
12	0x43016bbf	129.42088
13	0x429acd01	77.4004
14	0x43d435c8	424.42017
15	0x436a2373	234.13847

encoder_faltten.1.cnn.weight f4 [16, 8, 3, 3]
0	0xbe11d8fe	-0.14242932
1	0xbe5d922d	-0.21637793
2	0x3ebf720b	0.37391695
3	0xbf83ba6f	-1.029127
4	0xbfe49c58	-1.7860212
5	0xbe007076	-0.125429
6	0xbf353a10	-0.7079172
7	0xbfaeca83	-1.3655552
8	0xbe3e6706	-0.18593988
9	0xbf34221b	-0.7036454
10	0xbeb8ef90	-0.36120272
11	0x3f5a2fca	0.8522917
12	0xbe3e2913	-0.18570356
13	0xbf39ff90	-0.7265558
14	0xbed14d9c	-0.40879524
15	0x3f0af987	0.54287
16	0xbf3b0c92	-0.73066056
17	0xbe081b4b	-0.13291661
18	0x3f5ff6fc	0.87486243
19	0xbf2b819f	-0.6699466
20	0x3f0bdda5	0.5463508
21	0x3dc9e034	0.098572165
22	0x3edce64d	0.43144456
23	0x3e55578b	0.20834176
24	0xbf1a7afe	-0.6034392
25	0xbe9dd778	-0.30828452
26	0xbe85094f	-0.25983664
27	0xbf3e301d	-0.74292165
28	0xbf7ca433	-0.9868805
29	0x3f40be9d	0.7529085
30	0xbf50150a	-0.81282103
31	0xbe8501ec	-0.2597803
32	0x3f1321ed	0.5747364
33	0xc01569af	-2.3345754
34	0xbfae3190	-1.3608875
35	0x3e4ac692	0.19802311
36	0xbd753077	-0.059860673
37	0x3f05a876	0.52210176
38	0x3fa8ea59	1.3196517
39	0x3f62a3ff	0.8853149
40	0x3f9625f6	1.1730335
41	0x3ed446e7	0.41460344
42	0x3f0613e6	0.5237411
43	0x3e82becf	0.255362
44	0x3f172b1c	0.59050155
45	0xbfd96e6f	-1.6986827
46	0xbfaf1d86	-1.3680885
47	0x3f981347	1.1880883
48	0xbf9c6098	-1.2216978
49	0x3c6a47d0	0.014299348
50	0x3f359a03	0.7093813
51	0xbe236a11	-0.1595843
52	0xbe13e924	-0.14444405
53	0x3e861054	0.26184332
54	0x3f9e1d94	1.2352777
55	0x3fd2ac0a	1.6458752
56	0xbf77f48a	-0.9685751
57	0xbcde41b0	-0.027130932
58	0xbf9d2601	-1.2277223
59	0xbf1d7f66	-0.6152252
60	0xc024c770	-2.5746727
61	0x3e327cd3	0.17430429
62	0x3ec54f16	0.385369
63	0x3d904e48	0.07046181
64	0xbdd4f584	-0.10398391
65	0x3ceb9a84	0.028760202
66	0xbeb3e500	-0.3513565
67	0xbde083f6	-0.109626696
68	0x3e3453e7	0.17610131
69	0xbf9f0b4e	-1.2425325
70	0xbee10ffe	-0.43957514
71	0x3e14f3de	0.14546153
72	0xbf405c9f	-0.7514133
73	0x3e88fe68	0.26756597
74	0xbe885be0	-0.26632595
75	0xbed67f30	-0.4189391
76	0x3efd9bda	0.49532968
77	0x3f6a5b99	0.91546017
78	0xbf5cca65	-0.8624633
79	0xbfa0b67e	-1.2555692
80	0xbf5233cb	-0.8211028
81	0x3e5b2150	0.21399426
82	0xbed73d2c	-0.42038858
83	0x3f0ca420	0.54937935
84	0x3ef90f60	0.48644543
85	0x3f5b877b	0.857536
86	0x3f6cd2c4	0.925091
87	0xbe8e1bc4	-0.27755558
88	0x3ee485ea	0.44633418
89	0x3e8354c1	0.256506
90	0xbf487810	-0.783082
91	0xbf04bb67	-0.51848453
92	0xbe2f4302	-0.17115405
93	0xbb84f6df	-0.0040577496
94	0x3f6cbc08	0.9247441
95	0x3fc1d797	1.5143918
96	0xbf02323a	-0.5085789
97	0xbf8ab2df	-1.0835837
98	0xbcd12d53	-0.025534308
99	0xbfcc99dd	-1.5984455
100	0x3f411310	0.7541971
101	0x3cd62ef5	0.026145438
102	0xbed1b110	-0.409554
103	0x3f2874d8	0.6580329
104	0x3f105c04	0.56390405
105	0xbec3ff4d	-0.38280717
106	0xbf67db31	-0.90568835
107	0xbecc0cea	-0.39853603
108	0x3fa46d26	1.284581
109	0x3cfbe91d	0.030750806
110	0xbe0de09c	-0.13855213
111	0x3f9cbcf3	1.2245163
112	0xbef5a86b	-0.47980055
113	0xbf7aa5d3	-0.9790928
114	0xbea5e9cd	-0.32404938
115	0x3f5b8830	0.8575468
116	0x3f2234e8	0.6336198
117	0xbfc421b2	-1.5322783
118	0x3fcfabec	1.6224341
119	0x3f817618	1.0114164
120	0xbf530f0a	-0.8244482
121	0x3dda345c	0.10654518
122	0xbf6381b1	-0.8886977
123	0xbe6f4722	-0.23366979
124	0x3d16776a	0.036734976
125	0x3d140d94	0.03614576
126	0xc0447568	-3.069666
127	0xbfecfafe	-1.8514097
128	0xbd6ca9ea	-0.05777923
129	0x3ec6ee91	0.38853887
130	0x3e1b17ba	0.1514577
131	0x3f0758f2	0.52870095
132	0xbf9d5127	-1.2290391
133	0xbdedfe97	-0.11620825
134	0x3f1bceb0	0.60862255
135	0x3d83cc30	0.0643543
136	0x3f21d90e	0.63221824
137	0xbecd350c	-0.40079534
138	0xbdc52637	-0.096264295
139	0x3ed382a7	0.41310617
140	0x3e88211b	0.26587757
141	0x3cccdd10	0.025007755
142	0x3cd0881f	0.025455533
143	0xbe231853	-0.15927248
144	0xbfc1819c	-1.5117679
145	0xbf8fa158	-1.1221113
146	0x3ef9192b	0.48652014
147	0xbf94cc5f	-1.1624869
148	0xbee53c69	-0.44772652
149	0xbe9c4b41	-0.30526164
150	0x3ef16517	0.47147438
151	0xbea40d20	-0.32041264
152	0xbfaeff88	-1.3671732
153	0xbf9d0a05	-1.2268683
154	0x3e7bc21b	0.24585764
155	0x3ee2fcf8	0.44333625
156	0xbf6b0a7b	-0.91812867
157	0x3e4276c1	0.18990614
158	0x3e9bf7af	0.30462405
159	0x3f404120	0.7509937
160	0xbd44e2d0	-0.048067868
161	0xbf107a40	-0.5643654
162	0xbf9c207b	-1.2197412
163	0x3f9cceb2	1.2250578
164	0x3f717c63	0.94330424
165	0xbebc243f	-0.36746404
166	0xbf374d91	-0.7160273
167	0xbe9d025a	-0.30665857
168	0x3ea1b958	0.3158672
169	0xbf0f3b16	-0.55949533
170	0xbf98f63b	-1.1950144
171	0xbe18bc4e	-0.14915583
172	0xbe034640	-0.12819767
173	0x3f1d8e01	0.61544806
174	0xbf0dc23e	-0.55374515
175	0xbedca911	-0.43097737
176	0xbed4ccd2	-0.41562515
177	0x3f1992fa	0.59989893
178	0xbe969cc7	-0.29416487
179	0xbfc5dd47	-1.5458153
180	0x3fb3ed1b	1.4056734
181	0x3e983b18	0.29732585
182	0xbe3d9219	-0.18512763
183	0x3f95153e	1.1647108
184	0x3f1373be	0.57598484
185	0x3e03b656	0.12862524
186	0x3e63f66e	0.22261974
187	0x3eabedfe	0.3358001
188	0xbede9103	-0.4347001
189	0x3f276dd9	0.6540199
190	0x3e4e6932	0.20157316
191	0x3f2f3d91	0.6845332
192	0xbf249404	-0.64288354
193	0xbd2139ec	-0.03936188
194	0x3eb87326	0.3602535
195	0xbe179357	-0.148023
196	0x3da9671f	0.08271622
197	0xbec0ab3f	-0.3763065
198	0xbef3ef33	-0.47643432
199	0xbe225331	-0.15852048
200	0xbfbcae7e	-1.4740751
201	0xbe3eb740	-0.18624592
202	0xbf361de1	-0.7113934
203	0xbfe275e5	-1.7692229
204	0x3e984504	0.29740155
205	0xbedfc53c	-0.43705165
206	0xbf950218	-1.1641264
207	0xbf371213	-0.71511954
208	0x3ed2181c	0.4103402
209	0x3f724a72	0.94644845
210	0x3e275344	0.16340357
211	0xbd9dc0f2	-0.07702817
212	0xbe8e0b41	-0.2774296
213	0x3eeb6bdb	0.45980725
214	0xbefa552e	-0.48893112
215	0xbeb60edd	-0.35558215
216	0xbf162f84	-0.58666253
217	0x3dd9a6d3	0.10627522
218	0x3f86b695	1.052447
219	0xbf287e65	-0.6581786
220	0xbf18a01b	-0.596193
221	0x3f184a70	0.5948858
222	0xbfc5ac4a	-1.5443203
223	0x3fc33d3e	1.5253065
224	0x3f6c5290	0.9231348
225	0x3e31a56e	0.17348263
226	0x3ecaeef5	0.39635435
227	0x3de9a345	0.11408094
228	0x3cce619b	0.025193026
229	0xbe732f14	-0.23748428
230	0x3ee0d0b2	0.43909222
231	0xbd15ca8d	-0.03657012
232	0x3e7797da	0.2417902
233	0x3e3ad642	0.18245795
234	0xbdf8a348	-0.121405184
235	0x3e00db6a	0.125837
236	0x3f2a673e	0.66563785
237	0xbf546be0	-0.82977104
238	0x3cd5eef3	0.026114916
239	0xbf4aca27	-0.7921471
240	0xbf52e86e	-0.8238591
241	0x3ebf03c0	0.3730755
242	0xbddeffc6	-0.10888629
243	0xbf262f8b	-0.64916295
244	0xbe13f3a3	-0.14448409
245	0x3f6b9d0e	0.9203652
246	0xbea2e0b7	-0.3181207
247	0x3bd8dd2b	0.006618162
248	0x3e6a4344	0.22877222
249	0xbf974e50	-1.1820774
250	0x3fa6114d	1.297403
251	0x3dd1db9f	0.102469675
252	0x3f04b432	0.51837456
253	0x3d391d17	0.045193758
254	0x3c8f2187	0.017472042
255	0x3f974ac9	1.1819698

encoder_faltten.1.cnn.bias f4 [16]
0	0xbfe02be8	-1.7513399
1	0xbe00bbaa	-0.12571588
2	0xbed4857f	-0.415081
3	0x3f90a990	1.1301746
4	0xbed63499	-0.41837004
5	0xbe658a20	-0.22415972
6	0xbf182e9c	-0.5944612
7	0x3f2e527e	0.68094623
8	0x3f0f1142	0.5588571
9	0x3e98d534	0.2985016
10	0x3e224af2	0.15848902
11	0x3fa5352e	1.2906854
12	0x3eb73394	0.35781538
13	0x3ea46647	0.3210928
14	0x3f9fa75a	1.2472947
15	0xbe14e1d8	-0.14539278

encoder_unfaltten.0.BachNorm.weight f4 [8]
0	0x3f800000	1.0
1	0x3f800000	1.0
2	0x3f800000	1.0
3	0x3f800000	1.0
4	0x3f800000	1.0
5	0x3f800000	1.0
6	0x3f800000	1.0
7	0x3f800000	1.0

encoder_unfaltten.0.BachNorm.bias f4 [8]
0	0x00000000	0.0
1	0x00000000	0.0
2	0x00000000	0.0
3	0x00000000	0.0
4	0x00000000	0.0
5	0x00000000	0.0
6	0x00000000	0.0
7	0x00000000	0.0

encoder_unfaltten.0.BachNorm.running_mean f4 [8]
0	0xbc990005	-0.018676767
1	0x3d0ac86f	0.033882555
2	0xbbc11493	-0.005892345
3	0x3babd7b4	0.0052442197
4	0xbc7e4788	-0.015519984
5	0x3d2ea9d9	0.042642448
6	0xbc187675	-0.009305586
7	0xbd1d4d45	-0.038403768

encoder_unfaltten.0.BachNorm.running_var f4 [8]
0	0x3f67ba1d	0.9051836
1	0x3f6754c2	0.90363705
2	0x3f671b93	0.9027645
3	0x3f675cc7	0.9037594
4	0x3f66e5a1	0.90194136
5	0x3f681ff6	0.9067377
6	0x3f6705eb	0.90243405
7	0x3f66e576	0.9019388

encoder_unfaltten.0.cnn.weight f4 [8, 1, 3, 3]
0	0xbe9311de	-0.2872457
1	0xbe8a8967	-0.27057955
2	0xbe9bda60	-0.30440044
3	0xbe657513	-0.22407942
4	0x3e6e85c6	0.23293218
5	0x3e57fbba	0.2109212
6	0xbea48dc8	-0.3213942
7	0x3e6a9086	0.22906694
8	0x3db44acc	0.08803329
9	0x3e8c1acf	0.27364203
10	0x3d4d33c8	0.05009821
11	0xbe61d7b6	-0.22054943
12	0xbdb813a6	-0.08988123
13	0x3e9de2fd	0.3083724
14	0xbcae8550	-0.021303803
15	0xbe26d486	-0.16292009
16	0x3e952609	0.2913058
17	0x3e359e0a	0.17736068
18	0x3e46b2aa	0.19404092
19	0xbe8aafdc	-0.27087295
20	0xbe613ad0	-0.21995091
21	0xbd3ce788	-0.046119243
22	0x3db9f770	0.09080398
23	0x3e8ac1f7	0.27101108
24	0x3e3e8a6a	0.18607488
25	0x3e634a42	0.22196296
26	0xbde8d0cc	-0.1136795
27	0x3e884a07	0.26618978
28	0xbe2ea900	-0.17056656
29	0xbe3b6d86	-0.18303499
30	0x3eaa7e95	0.332997
31	0x3e7d4e76	0.24736962
32	0xbe5ee208	-0.21765912
33	0x3da864e4	0.08222368
34	0xbd9c2904	-0.076250106
35	0x3d117508	0.035512
36	0x3e7bf81a	0.24606362
37	0x3d8cf674	0.06882945
38	0xbc8f4890	-0.017490655
39	0x3dbc18bc	0.09184405
40	0x3d069dc0	0.032865286
41	0x3dae90e4	0.085237294
42	0xbc8ff770	-0.017574042
43	0xbc2193e0	-0.009861916
44	0xbe854f87	-0.26037237
45	0x3e553f12	0.2082484
46	0x3ea5756d	0.3231615
47	0x3e7bb16e	0.24579403
48	0xbe00da9e	-0.12583396
49	0x3e180666	0.14846191
50	0x3e225fe8	0.15856898
51	0x3e9e3aa5	0.30904117
52	0x3e88b7c3	0.267027
53	0xbe4a0f48	-0.19732392
54	0x3ded5510	0.1158849
55	0xbe3e6b00	-0.18595505
56	0x3e2127ea	0.15737882
57	0xbca7d280	-0.020486116
58	0x3bc9a440	0.0061536133
59	0xbe20fe58	-0.15722024
60	0xbea13b4c	-0.31490552
61	0x3e806271	0.25075105
62	0xbe568070	-0.20947433
63	0xbe496768	-0.19668353
64	0x3d808734	0.06275788
65	0xbdc55dec	-0.09637055
66	0x3dbb47d4	0.091445595
67	0xbd2fbcc8	-0.042904645
68	0xbdc6db10	-0.097097516
69	0x3ad28d00	0.001606375
70	0xbe6ed5f3	-0.23323803
71	0x3e9f874d	0.31157914

encoder_unfaltten.0.cnn.bias f4 [8]
0	0x3dc63a24	0.09679058
1	0x3d98339c	0.07431719
2	0xbe47f5f8	-0.19527423
3	0xbdae91b0	-0.085238814
4	0xbe80684a	-0.25079566
5	0xbe21d378	-0.15803325
6	0x3d8160a4	0.06317261
7	0xbe9825a3	-0.29716215

encoder_unfaltten.1.BachNorm.weight f4 [16]
0	0x3f800000	1.0
1	0x3f800000	1.0
2	0x3f800000	1.0
3	0x3f800000	1.0
4	0x3f800000	1.0
5	0x3f800000	1.0
6	0x3f800000	1.0
7	0x3f800000	1.0
8	0x3f800000	1.0
9	0x3f800000	1.0
10	0x3f800000	1.0
11	0x3f800000	1.0
12	0x3f800000	1.0
13	0x3f800000	1.0
14	0x3f800000	1.0
15	0x3f800000	1.0

encoder_unfaltten.1.BachNorm.bias f4 [16]
0	0x00000000	0.0
1	0x00000000	0.0
2	0x00000000	0.0
3	0x00000000	0.0
4	0x00000000	0.0
5	0x00000000	0.0
6	0x00000000	0.0
7	0x00000000	0.0
8	0x00000000	0.0
9	0x00000000	0.0
10	0x00000000	0.0
11	0x00000000	0.0
12	0x00000000	0.0
13	0x00000000	0.0
14	0x00000000	0.0
15	0x00000000	0.0

encoder_unfaltten.1.BachNorm.running_mean f4 [16]
0	0xbc9a1a5c	-0.018811397
1	0x3d899d9b	0.06719514
2	0xbc2ff622	-0.010739835
3	0xbcbbe7f4	-0.022937752
4	0x3bea1852	0.0071440125
5	0x3c4c65a9	0.01247541
6	0x3b417ecf	0.0029525047
7	0xbd14cf22	-0.03633035
8	0x3a2fa800	0.0006700754
9	0x3c8ce90a	0.017200965
10	0xbd5d44f2	-0.05402083
11	0xbd86111e	-0.065462336
12	0xbc48147d	-0.012211916
13	0xbcdb5dae	-0.026778068
14	0xbcc9a35a	-0.024614025
15	0xbc46fcb3	-0.012145209

encoder_unfaltten.1.BachNorm.running_var f4 [16]
0	0x3f6919f0	0.910552
1	0x3f6de8ec	0.92933536
2	0x3f685a28	0.9076257
3	0x3f690c71	0.9103461
4	0x3f689db2	0.90865624
5	0x3f6d2acf	0.92643446
6	0x3f6b3073	0.918708
7	0x3f695331	0.91142565
8	0x3f68b0a2	0.9089452
9	0x3f6a5122	0.9153005
10	0x3f6a9def	0.9164724
11	0x3f6b758f	0.91976255
12	0x3f698109	0.9121252
13	0x3f6828bb	0.9068715
14	0x3f6962aa	0.91166174
15	0x3f68b0b6	0.9089464

encoder_unfaltten.1.cnn.weight f4 [16, 8, 3, 3]
0	0x3c42c018	0.011886619
1	0xbcd81ba0	-0.02638036
2	0xbd75693b	-0.05991481
3	0x3d533022	0.051559575
4	0x3c94a8c4	0.01814688
5	0xbda18773	-0.07887163
6	0x3d3d67ea	0.04624168
7	0x3cbf6bdc	0.023366861
8	0x3dd32959	0.10310621
9	0xbd1c536a	-0.038165487
10	0xbd28f302	-0.041247375
11	0xbbc12070	-0.0058937594
12	0x3b216340	0.0024625808
13	0xbc8e5748	-0.017375603
14	0x3d4012e2	0.046893008
15	0xbdb89464	-0.09012678
16	0x3de80dcf	0.11330759
17	0xbdc88049	-0.097900935
18	0xbd9c19fa	-0.07622142
19	0xbd072ef8	-0.033003777
20	0x3d530ff6	0.051528893
21	0x3d8af0a1	0.067841776
22	0x3de1bccd	0.11022339
23	0x3c3c6778	0.011499278
24	0xbdb9c26a	-0.09070285
25	0xbd6833af	-0.056689914
26	0xbdce42be	-0.10071324
27	0xbda14540	-0.078745365
28	0x3de49fd5	0.11163298
29	0xbcac6190	-0.021042615
30	0xbd8bf5b6	-0.06833975
31	0xbd492bea	-0.049114145
32	0xbd9256ce	-0.07145463
33	0xbddd8bee	-0.10817705
34	0x3d724f3e	0.059157602
35	0x3be7de10	0.0070760325
36	0x3d85dcab	0.0653623
37	0xbc488b30	-0.012240216
38	0x3db69d5d	0.089167334
39	0x3da4e65b	0.08051749
40	0x3d8159a9	0.063159294
41	0xbd5c9dba	-0.053861357
42	0xbd7f80f8	-0.062378854
43	0x3da182d5	0.07886282
44	0x3dbc69a7	0.09199839
45	0x3cacc91c	0.02109199
46	0xbd8aeb06	-0.067831084
47	0xbc0bb378	-0.008526675
48	0x3c81f02c	0.015861593
49	0xbd9283f1	-0.07154072
50	0x3ccda644	0.025103696
51	0x3ddf9019	0.10916156
52	0x3d88f49d	0.06687281
53	0x3989c500	0.00026277453
54	0x3bf15e90	0.007366009
55	0xbd05ceb2	-0.032667823
56	0xbdcc4da0	-0.09975743
57	0xbd3ada64	-0.04561843
58	0x3b3b9540	0.0028622895
59	0xbdb20ba2	-0.08693625
60	0x3b9b6ab0	0.0047429428
61	0xbd32511a	-0.043534376
62	0xbd9681a9	-0.073489495
63	0xbdb4c23b	-0.08826109
64	0xbc957908	-0.018246189
65	0x3dd82b37	0.105551176
66	0x3d160ada	0.036631443
67	0xbd6f12d9	-0.058367584
68	0xbd6c325a	-0.057665206
69	0x3dedea69	0.11616976
70	0xbdeff439	-0.11716504
71	0x3db2bac5	0.0872703
72	0x3d24c70a	0.04022888
73	0xbdc8592c	-0.09782633
74	0x3dc7cfd3	0.09756436
75	0xbd177518	-0.036976904
76	0xbd314fec	-0.04328911
77	0xbd2a11e0	-0.041520953
78	0x3d70668a	0.05869154
79	0x3d1a3dda	0.037656642
80	0x3d91a991	0.0711242
81	0xbc6a7410	-0.014309898
82	0x3dc9d80f	0.09855663
83	0xbc130d70	-0.008975372
84	0xbc5ca688	-0.0134674385
85	0xbd8b38d2	-0.06797947
86	0x3da01f35	0.07818452
87	0x3dac7663	0.08421018
88	0xbdec505a	-0.11538763
89	0x3d9a2d1f	0.075281374
90	0x3daf53c7	0.08560901
91	0xbd82237a	-0.06354423
92	0x3d64e82e	0.055885486
93	0x3d5c204a	0.05374173
94	0x3d85e523	0.06537845
95	0x3bd4ec10	0.0064978674
96	0x3db2d0f9	0.087312646
97	0xbbe794b0	-0.0070672855
98	0x3daeb545	0.08530668
99	0x3dbdf12b	0.09274515
100	0x3d9ecd9b	0.0775406
101	0x3dbf9a07	0.0935555
102	0x3d3eede6	0.046613596
103	0x3d96fd65	0.0737255
104	0x3da0e789	0.07856662
105	0xbcbed898	-0.02329664
106	0x3de7de3f	0.11321687
107	0xbdc9ac21	-0.09847284
108	0x3d806fcd	0.06271324
109	0xbc2b65d0	-0.010461286
110	0xbd8cb34c	-0.06870136
111	0x3d32cdce	0.043653302
112	0x3d8bc851	0.06825317
113	0x3c298b28	0.010348119
114	0x3da0d757	0.07853573
115	0x3cac350c	0.021021388
116	0x3d949c4b	0.07256373
117	0x3d3ab35a	0.0455812
118	0xbdc02b21	-0.09383226
119	0x3d37fd82	0.0449195
120	0xbd5af1e8	-0.053453356
121	0x3dd12577	0.10212224
122	0xbd5629f8	-0.05228612
123	0x3d460702	0.048346527
124	0xbdc42900	-0.09578133
125	0x3dd8cb1f	0.10585617
126	0xbd508b22	-0.050913937
127	0xbd8fc344	-0.07019666
128	0xbd839ab5	-0.064259924
129	0x3c8a4bb4	0.016881801
130	0x3db1a829	0.08674652
131	0x3d45cc5a	0.048290588
132	0x3dd29fc1	0.10284377
133	0x3dc88485	0.09790901
134	0xbda18bb9	-0.07887978
135	0xbdc7b680	-0.09751606
136	0x3dd344f5	0.10315887
137	0xbda75e74	-0.081723124
138	0xbdb98536	-0.09058611
139	0x3dbf494b	0.093401514
140	0x3cecdbf4	0.028913476
141	0xbc5503b8	-0.013001375
142	0xbda7900d	-0.081817724
143	0xbd0adc70	-0.03390163
144	0x3d88e85f	0.06684946
145	0xbc9ff634	-0.019526578
146	0x3defd377	0.117102556
147	0xbd82a8fe	-0.06379889
148	0xbd9fb4ec	-0.0779818
149	0x3cf168ec	0.029468976
150	0xbce7fdfc	-0.028319351
151	0xbc7a51e8	-0.015278317
152	0x3d74b002	0.059738167
153	0xbb94f680	-0.0045459867
154	0xbbe10a90	-0.006867714
155	0x3b8bb900	0.004263997
156	0xbd78e3cd	-0.060764123
157	0x3dcf5167	0.10122948
158	0xbd52d080	-0.051468372
159	0x3d9a723d	0.075413205
160	0xbcdf4af4	-0.02725742
161	0xbde19ee4	-0.11016634
162	0xbd82abbc	-0.06380412
163	0x3da65ad9	0.081227966
164	0x3d93ff01	0.072263725
165	0x3d03a35e	0.03213822
166	0xbceab7b4	-0.02865205
167	0x3dc19b13	0.09453406
168	0xbd418d72	-0.047254033
169	0xbd5c10ba	-0.05372689
170	0x3dd03421	0.10166193
171	0x3d8f267b	0.069897614
172	0xbd3e930a	-0.046526946
173	0xbdbd8f4c	-0.09255847
174	0x3db982e1	0.09058166
175	0x3cab382c	0.020900808
176	0x3bb324d0	0.005467035
177	0x3c687008	0.014186867
178	0x3ded7cab	0.11596044
179	0xbd8e4100	-0.069459915
180	0xbdbc5a12	-0.09196867
181	0xbdd711a4	-0.105014116
182	0xbd6e5cf5	-0.05819412
183	0xbd7d5514	-0.061848715
184	0xbda6c41c	-0.08142874
185	0x3d97ccd3	0.07412114
186	0xbd186c3e	-0.037212603
187	0xbd4facfc	-0.05070208
188	0x3b1fa8e0	0.0024362132
189	0xbd47b3b4	-0.048755363
190	0xbc324430	-0.010880515
191	0xbc8d812c	-0.017273508
192	0xbb0e4c00	-0.002171278
193	0x3d7329fa	0.059366204
194	0x3da90c51	0.08254302
195	0x3b6729c0	0.0035272688
196	0x3c8090dc	0.015694074
197	0xbdeff0f8	-0.11715883
198	0x3c83ea9c	0.016103081
199	0x3c951fac	0.018203579
200	0xbc225408	-0.00990773
201	0x3d079972	0.03310532
202	0xbdc9842f	-0.09839665
203	0xbb3c0ba0	-0.0028693452
204	0xbd3683e4	-0.044559374
205	0xbdd2c77b	-0.10291954
206	0x3da8a5dd	0.08234761
207	0xbdd58b1c	-0.10426924
208	0x3d91a19d	0.071109034
209	0xbd94f7b8	-0.07273811
210	0xbd3c3f82	-0.045959003
211	0x3c961a54	0.018323101
212	0xbc60bd90	-0.01371707
213	0x3deccd79	0.11562628
214	0x3c38b1d8	0.01127287
215	0xbd35d830	-0.044395626
216	0xbdb6d534	-0.08927384
217	0x3dc1c3a5	0.09461144
218	0x3d2d3eca	0.04229621
219	0x3dc26a21	0.09492899
220	0xbd01ffc6	-0.031738065
221	0xbda05be5	-0.078300275
222	0x3d62af36	0.055342875
223	0x3dbb0d99	0.09133453
224	0xbd792077	-0.060821977
225	0xbd53920e	-0.05165296
226	0xbd678b82	-0.05652953
227	0xbcd7fad4	-0.026364721
228	0x3d9944dd	0.07483838
229	0x3b956130	0.004558705
230	0xbd12e86e	-0.035866193
231	0xbcfc9900	-0.030834675
232	0x3d96acbd	0.07357166
233	0x3c2393d8	0.009983979
234	0xbdb704c0	-0.08936453
235	0xbbe5b7a0	-0.007010415
236	0xbd9dddb8	-0.07708305
237	0xbd0c0036	-0.03417989
238	0x3dd09f61	0.10186649
239	0x3db1779f	0.08665394
240	0x3db7daa3	0.089772485
241	0xbc849a1c	-0.016186766
242	0x3c2cbd78	0.01054322
243	0xbcdecaf8	-0.027196392
244	0xbda935cc	-0.08262214
245	0x3dc7b7b7	0.09751838
246	0x3d96af6b	0.07357677
247	0x3dbd46f9	0.092420526
248	0xbda30104	-0.07959178
249	0x3cc84e3c	0.024451368
250	0xbdb271ca	-0.0871311
251	0xbd469cea	-0.04848949
252	0xbd80b52a	-0.06284554
253	0x3d4524ca	0.048130788
254	0x3c939c3c	0.018018834
255	0x3c0b0548	0.008485146

encoder_unfaltten.1.cnn.bias f4 [16]
0	0xbd3e5f14	-0.046477392
1	0x3c0d2198	0.008613966
2	0x3cb5c1c4	0.022187121
3	0xbbadaa10	-0.005299814
4	0xbd3f5760	-0.046714187
5	0xbd6d9ca0	-0.058010697
6	0x3cc0623c	0.023484342
7	0x3d8bdc13	0.06829085
8	0xbd31abbe	-0.043376677
9	0xbd98b222	-0.07455851
10	0xbded4e61	-0.11587215
11	0xbd9ab9b1	-0.07554949
12	0x3ddf774b	0.10911425
13	0xbc0568c8	-0.008142658
14	0x3b302620	0.0026878193
15	0x3deab1f9	0.11459727

decoder.1.BachNorm.weight f4 [16]
0	0x3fae2b1f	1.360691
1	0x3fb4a18f	1.4111804
2	0x3f919a52	1.137522
3	0x3fc5eaf0	1.5462322
4	0x3fcef438	1.616828
5	0x3fb74eae	1.4320886
6	0x3fb07986	1.3787086
7	0x3fb52988	1.4153299
8	0x3fa501b1	1.2891141
9	0x3fa3e060	1.2802849
10	0x3fa99ea5	1.325154
11	0x3fc5ee6f	1.5463389
12	0x3f983f2e	1.1894281
13	0x3fa99df2	1.3251326
14	0x3fb9ce65	1.4516112
15	0x3f961beb	1.172727

decoder.1.BachNorm.bias f4 [16]
0	0xbf155791	-0.5833674
1	0xbf391e7a	-0.7231213
2	0x3dd97754	0.10618463
3	0xbf674256	-0.90335596
4	0xbf85e6a3	-1.046101
5	0xbf4d38fb	-0.8016507
6	0xbdfc2a7c	-0.12312791
7	0xbe4b3411	-0.1984408
8	0xbe76cbda	-0.241012
9	0xbe5e628b	-0.21717279
10	0xbf09b58f	-0.5379266
11	0xbe9cc2ad	-0.30617276
12	0x3d5806e0	0.05274093
13	0xbf0776f1	-0.52915865
14	0xbf12ded0	-0.57371235
15	0xbdae86b9	-0.0852179

decoder.1.BachNorm.running_mean f4 [16]
0	0xc1ccc381	-25.59546
1	0x4135f915	11.373311
2	0xc28a5de5	-69.18339
3	0x40c1bb78	6.0541344
4	0x42d273c3	105.2261
5	0x41379882	11.474733
6	0xc2f742af	-123.63024
7	0xc2b19cda	-88.80635
8	0xc2930413	-73.50796
9	0x417e4fcc	15.894482
10	0xc232c2b4	-44.69014
11	0xc26ff75c	-59.99156
12	0xc2781688	-62.022003
13	0x4009a54c	2.150714
14	0xc2549637	-53.146694
15	0xc23119a4	-44.27504

decoder.1.BachNorm.running_var f4 [16]
0	0x4710fdcd	37117.8
1	0x470b0e28	35598.156
2	0x470e5019	36432.098
3	0x47168fcd	38543.8
4	0x46d58f1c	27335.555
5	0x46e18920	28868.562
6	0x47463129	50737.16
7	0x47336cf8	45932.97
8	0x471c5507	40021.027
9	0x473279d0	45689.812
10	0x471134ff	37172.996
11	0x471e67a3	40551.637
12	0x4727f2b1	42994.69
13	0x46f53f98	31391.797
14	0x471b7891	39800.566
15	0x470a7c84	35452.516

decoder.1.cnn.weight f4 [16, 16, 6, 6]
0	0x3c2320c2	0.009956541
1	0x3efb4a45	0.490801
2	0x3e19c171	0.15015198
3	0xbe04e0f0	-0.12976432
4	0x3d854c6c	0.06508717
5	0x3e1be310	0.15223336
6	0xbe9a9bf2	-0.30197102
7	0x3eba5e3e	0.36400026
8	0xbe9917f9	-0.29901102
9	0xbd231db7	-0.03982326
10	0x3e971e63	0.2951537
11	0xbd87b906	-0.06627087
12	0xbf45a052	-0.77197754
13	0x3d90018b	0.07031544
14	0x3ec99ec3	0.39378938
15	0x3e5b8616	0.21437868
16	0xbe84190f	-0.25800368
17	0xbd4b4e15	-0.04963501
18	0xbf01a479	-0.5064159
19	0x3e9d7a1e	0.3075723
20	0x3ecb211b	0.39673695
21	0x3ead3238	0.33827376
22	0x3e8c9373	0.27456245
23	0x3f6148e0	0.88001823
24	0xbef6f320	-0.48232365
25	0x3e35c15a	0.17749539
26	0x3e3cdbed	0.1844327
27	0xbe85d1c6	-0.26136607
28	0xbfcec1fc	-1.6152949
29	0xbf55484f	-0.8331346
30	0xbf49caa4	-0.7882483
31	0x3ee10a72	0.43953282
32	0x3ec40c30	0.38290548
33	0x3e913899	0.28363493
34	0xbfd3fbd6	-1.6561229
35	0x3f9a62b0	1.2061367
36	0xbf47076b	-0.77745694
37	0x3e6a6240	0.22889042
38	0xbe37ac9f	-0.17936943
39	0x3ee74c0c	0.45175207
40	0x3d8933b5	0.066993155
41	0x3e4982e2	0.19678834
42	0x3ecb5c78	0.39718986
43	0x3f4afaaf	0.7928876
44	0xbe5e15c4	-0.2168799
45	0x3d2447ca	0.040107526
46	0x3dac5577	0.084147386
47	0x3d0789c3	0.033090364
48	0x3f4098ac	0.7523296
49	0x3f563632	0.83676445
50	0xbf538ef3	-0.8264
51	0xbe82bddc	-0.25535476
52	0xbef613bf	-0.4806194
53	0xbeb0c206	-0.34523028
54	0x3e85e1ef	0.26148936
55	0x3ead4234	0.3383957
56	0xbe8fc57f	-0.28080365
57	0x3f6f1344	0.9338877
58	0xbdffdc4a	-0.12493189
59	0xbf9e52f8	-1.236907
60	0xbee02af1	-0.43782762
61	0x3e7904e5	0.24318273
62	0xbe85e4d7	-0.26151153
63	0x3f804114	1.001986
64	0xbdbe45d3	-0.09290662
65	0xbf3d38ce	-0.739148
66	0xbe9573af	-0.29189822
67	0xc033727b	-2.8038623
68	0xbdc2d450	-0.09513152
69	0x3d9ac269	0.07556612
70	0xbfbbd2c3	-1.4673694
71	0x3f0b332d	0.54374963
72	0xbf44c6ad	-0.76865655
73	0xbe935387	-0.28774664
74	0x3b798fc0	0.0038080066
75	0xbf31e739	-0.6949344
76	0x3db4698c	0.08809194
77	0x3e04975b	0.12948363
78	0xbeddabca	-0.43295127
79	0x3eb38584	0.35062802
80	0x3ed83300	0.4222641
81	0xbdfdbb2b	-0.12389215
82	0x3ee57682	0.44816977
83	0x3ea59203	0.3233796
84	0xbfd6a918	-1.6770353
85	0xbf324e7c	-0.6965101
86	0x3c059d9e	0.008155255
87	0xbed80dbe	-0.42197984
88	0x3e1bcdd5	0.15215237
89	0x3db9897e	0.09059428
90	0xbf2a892b	-0.6661555
91	0x3f277d1b	0.6542527
92	0x3e1e85f9	0.15480794
93	0xbebcc0bb	-0.36865792
94	0x3dd8caed	0.1058558
95	0x3ee4e97f	0.44709393
96	0x3eead64f	0.4586663
97	0x3f224112	0.6338054
98	0xbf85456e	-1.0411813
99	0xbf4890f4	-0.7834618
100	0xbf4052dc	-0.75126433
101	0x3f8c85dc	1.0978351
102	0x3ea81b8f	0.32833526
103	0x3ed4afbc	0.41540325
104	0x3dda212f	0.106508605
105	0x3cc95f64	0.024581619
106	0xbf4eec04	-0.8082888
107	0x3fdbc3fd	1.7169186
108	0x3e9ce28d	0.30641595
109	0xbecbc6b0	-0.39800024
110	0x3e465629	0.19368805
111	0x3d926285	0.07147697
112	0x3e44f1e5	0.192329
113	0xbd94006f	-0.07226645
114	0x3eb6b4bd	0.35684767
115	0xbf73eac5	-0.95280105
116	0x3f36cccc	0.71406245
117	0x3ea6aa93	0.32552013
118	0x3ed41bb4	0.41427386
119	0x3dfe7ee2	0.12426545
120	0x3e8fd218	0.28089976
121	0xbf6ed392	-0.9329158
122	0xbe77a3eb	-0.24183623
123	0xbf3f5c9f	-0.74750704
124	0xbeb65ce4	-0.35617745
125	0x3e80c5ac	0.25150812
126	0x3efbd34f	0.49184653
127	0xbe843c3d	-0.25827208
128	0xbd833812	-0.06407179
129	0xbca0d824	-0.019634314
130	0xbf5b2f68	-0.8561921
131	0x3d835cb5	0.06414167
132	0xbdb05db5	-0.08611623
133	0xbd106d01	-0.035260204
134	0x3d166842	0.03672052
135	0xbe48d1fa	-0.1961135
136	0xbee0c812	-0.43902642
137	0xbe367c71	-0.17820908
138	0xbf2aa38e	-0.66655815
139	0xbe889d07	-0.26682302
140	0x3e8102fc	0.2519759
141	0xbf9950ae	-1.1977746
142	0xbfb1ef4e	-1.3901155
143	0xbfc22caf	-1.5169886
144	0x3e778c3f	0.24174593
145	0xbf4103df	-0.7539653
146	0xbdb2775f	-0.087141745
147	0x3ebeb268	0.37245488
148	0x3e6db1b6	0.23212323
149	0xbec7a54d	-0.38993302
150	0x3f1f8427	0.62311023
151	0xbe293c9d	-0.16527028
152	0x3f4a59a1	0.7904301
153	0x3f4498df	0.7679576
154	0x3d077f33	0.03308029
155	0xbd837c4c	-0.06420192
156	0x3e046686	0.12929735
157	0xbf2b3e65	-0.6689208
158	0x3f90a136	1.1299198
159	0x3f331530	0.69954205
160	0x3f2c9893	0.6742031
161	0xbea2a5be	-0.31767076
162	0x3eeb66ea	0.45976955
163	0x3e231c2a	0.15928712
164	0x3e2dfca0	0.169909
165	0x3ef97a28	0.4872601
166	0xbe99027e	-0.29884714
167	0xbeb960c1	-0.3620663
168	0x3e5253db	0.20539801
169	0x3efd8b90	0.4952054
170	0x3ee1f5df	0.44132897
171	0x3f06ee81	0.5270768
172	0xbe977791	-0.2958341
173	0xbeb1ad4c	-0.34702528
174	0x3ebbe514	0.3669821
175	0x3e56deac	0.2098338
176	0x3edc63a5	0.43044773
177	0xbe0badca	-0.13640514
178	0xbe7413d5	-0.2383569
179	0xbf191d82	-0.5981065
180	0xbd4a05ce	-0.049321942
181	0x3ecb68f9	0.39728525
182	0x3e62a6bf	0.22133921
183	0xbebcace5	-0.36850658
184	0xbdec0758	-0.11524838
185	0xbd56fa87	-0.052485015
186	0xbeb75544	-0.3580724
187	0x3e5a9833	0.21347122
188	0xbf0c867e	-0.5489272
189	0x3d46000a	0.04833988
190	0x3efe2121	0.4963465
191	0xbedc758d	-0.43058434
192	0xbf815ed1	-1.0107061
193	0x3f0b1d9f	0.54342073
194	0x3e6e12e9	0.23249401
195	0xbfd90a0d	-1.6956192
196	0xbef29863	-0.47381887
197	0xbdf4b7cc	-0.11949119
198	0xbe48f9fa	-0.19626608
199	0x3eb92ea6	0.36168402
200	0x3f3c7402	0.73614514
201	0xbe8706cf	-0.26372382
202	0x3f102d59	0.56319195
203	0x3f394aea	0.72379935
204	0x3eda05e5	0.42582622
205	0xbee40abd	-0.44539443
206	0x3f5bc0c7	0.8584103
207	0x3e9a4ce4	0.30136788
208	0x3e41f8de	0.18942592
209	0xbf3cd534	-0.7376282
210	0xbfb4aa30	-1.4114437
211	0xbed11dd3	-0.40843067
212	0x3e3e6485	0.18593033
213	0x3e00248f	0.12513946
214	0x3ef4d009	0.47814968
215	0xbf787af4	-0.9706261
216	0x3ec73fce	0.38915867
217	0x3ec6d5ea	0.38835078
218	0x3ea613fa	0.32437116
219	0x3e228e3e	0.15874574
220	0x3d5efe7c	0.054441914
221	0xbf0f4756	-0.55968225
222	0xbd3952c0	-0.045244932
223	0xbf2424a6	-0.6411842
224	0xbef93b70	-0.4867816
225	0xbf0d54a2	-0.55207264
226	0x3e902366	0.28152007
227	0x3f8cc48a	1.0997479
228	0x3eba5bbb	0.3639811
229	0xbf59e539	-0.8511539
230	0xbeaf3b4c	-0.34224927
231	0xbda39e87	-0.07989221
232	0x3d6d96e3	0.058005225
233	0x3e014e54	0.12627536
234	0xbf43db41	-0.7650643
235	0xbe24bc99	-0.1608757
236	0xbe8be23d	-0.27321044
237	0x3b8b73e9	0.004255761
238	0xbc867f76	-0.0164182
239	0x3f678474	0.9043648
240	0xbec3f14c	-0.38270032
241	0xbf8df50a	-1.1090405
242	0xbf560466	-0.8360046
243	0xbecdcb59	-0.40194204
244	0xbf73e585	-0.95272094
245	0x3ef79a3f	0.48359868
246	0xbe0557ff	-0.13021849
247	0xbfadec99	-1.3587829
248	0x3e90a657	0.28251907
249	0xbea257fa	-0.31707746
250	0xbe54f206	-0.2079545
251	0x3f127dca	0.5722319
252	0x3e138bba	0.1440877
253	0x3eb12286	0.34596652
254	0x3eea70f0	0.4578929
255	0x3f18a907	0.59632915

decoder.1.cnn.bias f4 [16]
0	0xbe48de5d	-0.19616075
1	0x3d3c7fec	0.046020433
2	0x3ed0b58c	0.4076351
3	0xbe9860c5	-0.2976133
4	0x3f2fe50a	0.6870886
5	0x3e75f62c	0.24019688
6	0x3e5a56e2	0.21322206
7	0xbb8a06f7	-0.004212256
8	0x3f13319d	0.5749758
9	0x3f550752	0.83214295
10	0x3f10ba0d	0.5653389
11	0xbe888c7e	-0.26669687
12	0xbdb9c5a5	-0.09070901
13	0x3e26ada4	0.16277176
14	0xbe099845	-0.13436992
15	0x3f8f81e1	1.1211511

decoder.2.BachNorm.weight f4 [8]
0	0x3fa0f4e0	1.257473
1	0x3f981486	1.1881263
2	0x3fa1afff	1.2631835
3	0x3fdd7d48	1.7303858
4	0x3f8b3dcb	1.0878233
5	0x3fb6191b	1.4226412
6	0x3fa647f3	1.2990707
7	0x3f8e185a	1.1101182

decoder.2.BachNorm.bias f4 [8]
0	0xbdf8afac	-0.12142882
1	0xbee86ce5	-0.4539558
2	0xbeab9be6	-0.3351738
3	0xbcc9e942	-0.024647359
4	0xbe888176	-0.2666127
5	0xbec0aa3c	-0.3762988
6	0xbeb6e3b8	-0.3572061
7	0xbed2a666	-0.41142577

decoder.2.BachNorm.running_mean f4 [8]
0	0x3fc6d0c3	1.5532459
1	0x3de9469f	0.11390423
2	0x3f0d4e0a	0.55197203
3	0x406c958b	3.6966274
4	0x3fe978b1	1.8239957
5	0xbf8c77fc	-1.0974116
6	0x3fc7044d	1.5548187
7	0x4001a3f9	2.025633

decoder.2.BachNorm.running_var f4 [8]
0	0x420f5ad9	35.83872
1	0x41d1db5d	26.232111
2	0x4255f385	53.487812
3	0x4213dca4	36.96547
4	0x41fe1df4	31.764626
5	0x42064e08	33.576202
6	0x41f29b3a	30.325794
7	0x41fd263c	31.64367

decoder.2.cnn.weight f4 [16, 8, 6, 6]
0	0xbf820c00	-1.0159912
1	0x3f2cddda	0.6752602
2	0x3fb8f0bf	1.444847
3	0x3f1a5c45	0.6029704
4	0x3f3146a6	0.69248426
5	0xbfbfb4d1	-1.4977056
6	0xbfcaa6cc	-1.5832152
7	0x3f879d01	1.0594789
8	0xbf1c90df	-0.61158556
9	0xbf57c078	-0.8427806
10	0xbfd3d069	-1.6547977
11	0xbf8398d1	-1.0281011
12	0xbf3785e9	-0.71688706
13	0xbff4d33d	-1.9126965
14	0x3d061472	0.032734342
15	0x3e52fd1f	0.2060437
16	0xbebc7400	-0.3680725
17	0xbfa291be	-1.2700727
18	0xbf684317	-0.9072737
19	0x3e00e1a4	0.12586075
20	0x3f076607	0.52890056
21	0xc0008537	-2.0081308
22	0x3f224380	0.63384247
23	0xbf1eb903	-0.62001055
24	0xbe8f6723	-0.28008375
25	0x3eb06342	0.34450728
26	0x3f367aee	0.71281326
27	0xbed44b7d	-0.41463843
28	0xbdefa6ab	-0.11701711
29	0xbea7e814	-0.3279425
30	0x3e68b5e9	0.22725643
31	0x3eebd719	0.46062544
32	0xbfd71b11	-1.6805135
33	0x3ef8bf05	0.48583236
34	0xbf9cd687	-1.2252969
35	0x3ebcf981	0.36909106
36	0xbcba8f84	-0.022773512
37	0x3d9dcbbc	0.07704875
38	0x3e662369	0.22474445
39	0xbf78c259	-0.9717155
40	0xbf4c1ebc	-0.79734397
41	0x3f338599	0.7012573
42	0x3e9e8ad0	0.3096528
43	0xbf21d382	-0.6321336
44	0xbea2d7ba	-0.3180521
45	0xbf8baa44	-1.0911336
46	0xbefd00ab	-0.49414572
47	0x3f81afee	1.0131814
48	0xbe858427	-0.26077387
49	0x3dda00cd	0.10644684
50	0x3e0bfcc8	0.13670647
51	0xbeeed622	-0.46647745
52	0x3ffb0794	1.9611688
53	0xbe1059d5	-0.14096768
54	0x3d1e06e0	0.038580775
55	0x3e98c4f3	0.2983776
56	0xbee115cc	-0.43961942
57	0x3f2f17a5	0.68395454
58	0x3d5810b8	0.05275032
59	0xbf0b4a0f	-0.5440988
60	0x3ec0083c	0.37506282
61	0x3cf02bf3	0.029317832
62	0xbed49177	-0.4151723
63	0x3ef8b24e	0.48573536
64	0xbf152518	-0.58259726
65	0xbf8fe3f3	-1.124144
66	0xbfb0640a	-1.378053
67	0xbbe2c955	-0.0069209733
68	0xbf586ba5	-0.8453925
69	0x3ed30741	0.41216472
70	0xbe9e8806	-0.30963153
71	0xbfd65e5a	-1.6747544
72	0x3f10a521	0.56501967
73	0xbe1ae59a	-0.15126649
74	0x3fa70529	1.304845
75	0x3e46f768	0.19430315
76	0x3e65bc33	0.22435074
77	0x3fcd12e8	1.6021395
78	0xbed1aa8e	-0.40950435
79	0xbf0b7f2e	-0.54490936
80	0xbe630904	-0.22171408
81	0xbe8a4e74	-0.2701298
82	0x3fadab2c	1.3567863
83	0xbe4638c5	-0.19357593
84	0xbf53329c	-0.824991
85	0x3d773adf	0.06035888
86	0x3f975d13	1.1825279
87	0xbf911da8	-1.1337175
88	0xbeb8bc6a	-0.3608125
89	0x3e009290	0.12555909
90	0xbf4502eb	-0.7695758
91	0xbedcf6a5	-0.43156925
92	0xbf09e56d	-0.538657
93	0xbeb9815c	-0.36231506
94	0xbe4c2f82	-0.19939998
95	0x3d1639ae	0.0366761
96	0x3f20edd3	0.6286289
97	0x3da4a33e	0.080389485
98	0x3f183c2b	0.5946681
99	0x3f0d8e97	0.552957
100	0x3d489e9a	0.04897938
101	0xbe26c60b	-0.16286485
102	0x3f27258d	0.6529167
103	0xbf040998	-0.5157714
104	0xbe9f6d09	-0.31137875
105	0xbe6c13d0	-0.23054433
106	0x3e33e891	0.17569186
107	0x3dc65894	0.09684864
108	0x3f15a7a6	0.58458936
109	0xbda55f28	-0.0807479
110	0xbf80a366	-1.0049865
111	0x3e568308	0.20948422
112	0xbe01df6c	-0.12682885
113	0x3e6e054b	0.23244207
114	0xbf3bf9ba	-0.7342793
115	0xbecad7d4	-0.3961779
116	0xbf7ce2b2	-0.9878341
117	0xbca10e8f	-0.019660262
118	0xbfe4ddd1	-1.7880193
119	0x3dc734c5	0.09726862
120	0xbe48ecbf	-0.19621561
121	0xbe3b9397	-0.1831802
122	0xbeaf6a33	-0.3426071
123	0xbf990d26	-1.1957138
124	0xbefc4e6d	-0.49278584
125	0x3e76dbf5	0.24107344
126	0xbbf7ae85	-0.007558646
127	0xbf36b1e5	-0.71365196
128	0x3ea61eb0	0.32445288
129	0xbf02656b	-0.50936
130	0xbe919bb0	-0.28439093
131	0xbe32d99c	-0.17465824
132	0x3f28690c	0.6578529
133	0xbef6739f	-0.48135087
134	0x3f0be39e	0.5464419
135	0xbf6a224e	-0.91458595
136	0xbf0d7f9f	-0.5527286
137	0xbecd1912	-0.4005819
138	0xbd55ee9a	-0.0522295
139	0xbf2184d7	-0.6309332
140	0x3d5f1308	0.05446151
141	0x3f116cdf	0.5680675
142	0x3dbfb345	0.09360365
143	0xbe65b22c	-0.22431248
144	0xbe3f5281	-0.18683816
145	0xbe4ed5a2	-0.20198682
146	0xbe947804	-0.28997815
147	0x3f952189	1.1650859
148	0xbe95c806	-0.29254168
149	0xbe9e5dbb	-0.30930886
150	0x3ec60518	0.3867576
151	0x3f0fda9f	0.56192964
152	0x3f196e0e	0.59933555
153	0x3f6b4bc0	0.9191246
154	0xc011e6c1	-2.279709
155	0xc0055ceb	-2.0837963
156	0xbeef4d51	-0.46738675
157	0xbe14c2ff	-0.1452751
158	0x3fc07e72	1.5038588
159	0xbdcf25f9	-0.101146646
160	0x3f9824fb	1.1886286
161	0xbf3ab2ca	-0.7292906
162	0xbf05c0e8	-0.52247477
163	0x3eb2fc6a	0.34958202
164	0xbf67c7f1	-0.9053946
165	0x3f8a45aa	1.080251
166	0xbf670bbf	-0.902523
167	0x3f60a3f9	0.877502
168	0x3e763ea6	0.24047336
169	0x3efcf622	0.49406534
170	0xbf3c4e1e	-0.735567
171	0xbf48412e	-0.78224456
172	0xbf14654d	-0.5796707
173	0xbf1ee8b8	-0.6207385
174	0xbf05b217	-0.5222487
175	0xbf7f6335	-0.9976075
176	0x3ee5af57	0.44860336
177	0x3d9e9805	0.07743839
178	0xbf879113	-1.0591148
179	0x3ea65a93	0.32490978
180	0xbd6546f3	-0.055975866
181	0x3e80594e	0.25068134
182	0x3f6fe963	0.93715495
183	0x3e35d615	0.17757447
184	0x3fb6be07	1.4276742
185	0x3ee1eb17	0.44124672
186	0xbe899e7d	-0.2687873
187	0x3d1d89cd	0.038461495
188	0x3fabb52c	1.3414664
189	0x3fc292a1	1.5200998
190	0x3fa88aeb	1.3167394
191	0x3ea5eeac	0.32408655
192	0xbeb18637	-0.3467271
193	0x3dc133cb	0.09433707
194	0x3fa79f08	1.3095407
195	0x3fdcd4ef	1.7252482
196	0x3ec5f1a9	0.38660935
197	0xbf12385d	-0.57117254
198	0xbc2a9b74	-0.0104130395
199	0xbf090065	-0.53516227
200	0xbf44e4ac	-0.76911426
201	0x3d4d7ef9	0.05016992
202	0xbe428c7d	-0.18998905
203	0xc03bda3a	-2.9351945
204	0x3c23229f	0.009956985
205	0x3ed970b0	0.42468786
206	0xbde79cac	-0.1130918
207	0xbf0ff008	-0.56225634
208	0x3ebcff97	0.3691375
209	0xbea07107	-0.31336233
210	0xbef7dbf1	-0.4840999
211	0x3e8c4ba9	0.27401474
212	0x3f2da5c0	0.6783104
213	0x3fc7ee62	1.5619624
214	0x3f88e048	1.0693445
215	0xbe03a1af	-0.12854646
216	0xbf774008	-0.9658208
217	0xbf3a1a4c	-0.72696376
218	0x3ec25ef1	0.3796306
219	0xbf4e4c91	-0.8058558
220	0x3f7ae030	0.9799833
221	0xbe36c821	-0.1784978
222	0xbd9c9027	-0.076446824
223	0xbf8de5db	-1.1085771
224	0xbf07219d	-0.52785665
225	0x3f3502bf	0.70707315
226	0x3f846949	1.034463
227	0xbd8f8c9f	-0.07009243
228	0xbee5cada	-0.44881326
229	0xbe0e6dea	-0.13909116
230	0xbc2cdaf4	-0.010550249
231	0x3f626876	0.88440645
232	0x3fe50f00	1.7895203
233	0x3f8f9e25	1.1220137
234	0x3dc766e0	0.09736419
235	0xbece8fe2	-0.4034415
236	0x3e57beee	0.21068928
237	0xbf3ac669	-0.72959
238	0xbe9ca4dc	-0.30594528
239	0xbec973f6	-0.39346284
240	0xbe87b579	-0.2650564
241	0x3f228dc2	0.63497555
242	0x3fc244a5	1.5177199
243	0xbe56b588	-0.20967686
244	0x3f9e9a18	1.2390776
245	0xbf8b9b3a	-1.0906746
246	0xbe08ad77	-0.13347422
247	0x3ec72799	0.38897398
248	0xbc9b3ec3	-0.018950826
249	0xbe39dc8f	-0.18150543
250	0x3e41be02	0.18920138
251	0xbf117c07	-0.56829876
252	0x3ed0f3a9	0.40810898
253	0xbcf91615	-0.030406037
254	0xbedd251e	-0.4319238
255	0xbe7c4efb	-0.24639504

decoder.2.cnn.bias f4 [8]
0	0x3e33d323	0.17561011
1	0xbf309079	-0.6897045
2	0xbdce364e	-0.100689515
3	0x3df24c5c	0.11830971
4	0xbf14fb26	-0.5819572
5	0xbf95cb7d	-1.1702725
6	0x3c5a5099	0.01332488
7	0xbe148e96	-0.14507517

decoder.4.cnn.weight f4 [8, 1, 6, 6]
0	0x3cbb584e	0.022869255
1	0x3e19025e	0.1494231
2	0x3dd8761f	0.10569405
3	0xbe53aabf	-0.20670603
4	0xbea563cf	-0.3230271
5	0xbe40ad12	-0.18816021
6	0x3e5df8bc	0.21676916
7	0x3e88f9cd	0.26753083
8	0xbd9149ee	-0.07094179
9	0xbf11e941	-0.5699654
10	0xbf4953a2	-0.7864324
11	0xbee83c76	-0.45358628
12	0x3e4da796	0.2008346
13	0x3da8cea8	0.082425416
14	0xbf07aab5	-0.52994853
15	0xbf98e373	-1.1944412
16	0xbfa3deed	-1.2802407
17	0xbf2ab9b2	-0.666896
18	0xbd131480	-0.035908222
19	0xbe80ab96	-0.2513091
20	0xbf6f26d4	-0.9341862
21	0xbfc509ed	-1.5393654
22	0xbfc1c2fc	-1.513763
23	0xbf35c476	-0.710029
24	0xbd243535	-0.040089805
25	0xbeaa99e0	-0.33320522
26	0xbf6b1d46	-0.9184154
27	0xbfaa3ccc	-1.3299804
28	0xbf93596a	-1.1511662
29	0xbf0a60f6	-0.540542
30	0xbccd3683	-0.025050407
31	0xbe7fcb91	-0.24979998
32	0xbee9583c	-0.4557513
33	0xbf2fd30e	-0.6868142
34	0xbf0fe8f3	-0.5621483
35	0xbe24631b	-0.1605343
36	0xbd404452	-0.046940155
37	0xbe39aa10	-0.1813128
38	0xbe78b0e1	-0.24286224
39	0xbe45721f	-0.19281815
40	0xbe0dfee5	-0.13866766
41	0xbdf0bb4a	-0.117544726
42	0xbd2ffad1	-0.042963807
43	0xbd944b00	-0.072408676
44	0x3c310546	0.01080448
45	0x3d0e79c2	0.034784086
46	0x3cd0ca32	0.02548704
47	0xbb897647	-0.004195008
48	0x3d40711c	0.04698287
49	0x3ea59af2	0.32344776
50	0x3f0c0c82	0.54706585
51	0x3f039dc8	0.5141263
52	0x3eb46c16	0.35238713
53	0x3e03c2bb	0.12867253
54	0x3eb99a2e	0.36250442
55	0x3f55cb95	0.83513767
56	0x3f8bcb70	1.0921459
57	0x3f822a26	1.0169113
58	0x3f354534	0.7080872
59	0x3ec47afa	0.38375074
60	0x3ec50843	0.38482866
61	0x3f61aba5	0.88152534
62	0x3f8f4347	1.1192406
63	0x3f81aa9f	1.0130194
64	0x3f1799b0	0.59218884
65	0x3e9c9eaf	0.30589816
66	0x3e923003	0.28552255
67	0x3f09889c	0.53724074
68	0x3f1e64e8	0.6187272
69	0x3f113b89	0.5673147
70	0x3e958455	0.29202524
71	0x3dcd9e9b	0.10040017
72	0x3d220518	0.03955564
73	0x3d684f98	0.05671653
74	0xbd24c025	-0.040222306
75	0xbe934f25	-0.2877132
76	0xbea30123	-0.31836805
77	0xbe43d113	-0.19122724
78	0xbd878758	-0.06617612
79	0xbe54ec89	-0.20793356
80	0xbf105000	-0.5637207
81	0xbf667de0	-0.9003582
82	0xbf5be05c	-0.8588922
83	0xbef46af1	-0.4773784
84	0xbe6ba6a3	-0.23012786
85	0xbf1d79f2	-0.615142
86	0xbf97c152	-1.1855872
87	0xbfbe3e03	-1.4862674
88	0xbfad8271	-1.3555433
89	0xbf29ffc2	-0.6640588
90	0xbef46707	-0.47734854
91	0xbf872989	-1.055955
92	0xbfd36928	-1.6516466
93	0xbff0919e	-1.8794439
94	0xbfbe92ad	-1.4888512
95	0xbf2e327f	-0.680458
96	0xbef20f12	-0.47277123
97	0xbf909f70	-1.1298656
98	0xbfc71cd3	-1.5555671
99	0xbfc43af0	-1.5330486
100	0xbf8e0b06	-1.1097114
101	0xbecb4fda	-0.3970936
102	0xbe9b449d	-0.30325785
103	0xbf1d2788	-0.61388445
104	0xbf489c33	-0.7836334
105	0xbf24d95c	-0.64394164
106	0xbeaf0d99	-0.34190062
107	0xbc6f7ca8	-0.014617123
108	0x3d4b3b42	0.04961706
109	0x3dc9ecce	0.0985962
110	0x3e9dc650	0.30815363
111	0x3ed3c747	0.41362974
112	0x3ec911f3	0.39271507
113	0x3e240838	0.1601876
114	0x3e57bfdc	0.21069282
115	0x3f03fbf3	0.5155632
116	0x3f654a5b	0.8956658
117	0x3f8471d0	1.0347233
118	0x3f582a56	0.844396
119	0x3eca38fd	0.39496604
120	0x3eb585cf	0.3545365
121	0x3f61bf55	0.88182575
122	0x3fa1f103	1.2651676
123	0x3fa1938c	1.2623153
124	0x3f63f39d	0.890436
125	0x3ecad6f1	0.39617112
126	0x3ed02357	0.40651962
127	0x3f5e9a3d	0.869541
128	0x3f916983	1.1360325
129	0x3f80b4dc	1.0055194
130	0x3f0d75e8	0.55258036
131	0x3e38abc6	0.18034276
132	0x3e805073	0.25061378
133	0x3f1087d4	0.5645726
134	0x3f2a8f58	0.66624975
135	0x3edd2a67	0.43196413
136	0x3d417fd6	0.047241054
137	0xbd310845	-0.043220777
138	0x3da7bcad	0.08190284
139	0x3e7d0835	0.24710162
140	0x3e5f046c	0.2177903
141	0x3d2ecd53	0.04267628
142	0xbe0d3a82	-0.1379185
143	0xbdb25fbb	-0.087096654
144	0x3d112fa9	0.035445843
145	0xbd8c6908	-0.068559706
146	0xbe7f1d5b	-0.24913542
147	0xbee7903f	-0.4522724
148	0xbefd6861	-0.49493697
149	0xbe74db95	-0.23911889
150	0xbda1a783	-0.078932784
151	0xbec15e74	-0.37767375
152	0xbf5642ac	-0.83695483
153	0xbf926d41	-1.1439592
154	0xbf89d43b	-1.0767893
155	0xbf06dac8	-0.52677584
156	0xbe954719	-0.29155806
157	0xbf4f6d91	-0.8102656
158	0xbfbb347b	-1.4625391
159	0xbfe51318	-1.7896452
160	0xbfbf769b	-1.495807
161	0xbf308595	-0.6895383
162	0xbec36797	-0.3816497
163	0xbf7f64ea	-0.9976336
164	0xbfcb7d50	-1.5897617
165	0xbfde4d87	-1.736741
166	0xbfb2b243	-1.3960651
167	0xbf231523	-0.6370413
168	0xbeb293bb	-0.34878334
169	0xbf6a8beb	-0.9161975
170	0xbfa21d22	-1.2665141
171	0xbf9c0af5	-1.2190844
172	0xbf648402	-0.8926393
173	0xbead7f67	-0.33886263
174	0xbe3b0123	-0.18262152
175	0xbedccee0	-0.43126583
176	0xbf0ab2a1	-0.54178816
177	0xbf048a48	-0.517735
178	0xbebb696e	-0.36603874
179	0xbd62359b	-0.055226903
180	0xbd4fc6f6	-0.050726853
181	0xbe5e5eec	-0.21715897
182	0xbe664d91	-0.22490527
183	0xbd6e1fea	-0.058135904
184	0x3dd10471	0.10205925
185	0x3e00b39c	0.12568516
186	0xbe7312c5	-0.23737629
187	0xbefcdf5b	-0.49389157
188	0xbeab0342	-0.33400923
189	0x3e038f4b	0.1284763
190	0x3ed29505	0.41129318
191	0x3eaf95de	0.34294027
192	0xbe8d1fbb	-0.2756327
193	0xbeff61d2	-0.49879318
194	0xbe0f7474	-0.14009267
195	0x3f087812	0.5330821
196	0x3f5510cc	0.83228755
197	0x3f07251c	0.52791
198	0xbe8ae118	-0.27124858
199	0xbe980873	-0.29693946
200	0x3e8a5d32	0.27024227
201	0x3f790cfc	0.9728544
202	0x3f96697f	1.1750945
203	0x3f23d9c6	0.6400417
204	0xbe29b160	-0.1657157
205	0xbd8aa2e6	-0.06769352
206	0x3eed4fbd	0.46349898
207	0x3f846637	1.0343693
208	0x3f81be46	1.0136192
209	0x3edcfc2e	0.43161148
210	0xbd805500	-0.062662125
211	0x3c172491	0.009225027
212	0x3e8326c2	0.25615507
213	0x3efbc48c	0.4917339
214	0x3edfa22e	0.4367842
215	0x3e016465	0.12635954
216	0xbd89ea4f	-0.06734144
217	0x3d26459d	0.040593732
218	0x3e4ddcc1	0.20103742
219	0x3ec48b96	0.38387746
220	0x3eece0c1	0.46265224
221	0x3e870f7f	0.2637901
222	0xbbb30efa	-0.005464432
223	0x3e9f9b97	0.31173393
224	0x3f2e4019	0.68066555
225	0x3f747f2e	0.9550656
226	0x3f6fe533	0.93709105
227	0x3ed65362	0.4186049
228	0x3e21fdd0	0.15819478
229	0x3f281c92	0.65668595
230	0x3f877e62	1.0585444
231	0x3fa447a8	1.2834368
232	0x3f85de0c	1.0458388
233	0x3ebca0fc	0.3684157
234	0x3eb0375f	0.34417245
235	0x3f47b169	0.7800508
236	0x3f88d885	1.0691077
237	0x3f87a537	1.0597295
238	0x3f2ddc6a	0.6791445
239	0x3e2cbd11	0.16868998
240	0x3e8afdfd	0.27146903
241	0x3f1507ed	0.5821522
242	0x3f28334f	0.6570329
243	0x3f09cabf	0.5382499
244	0x3e4f1c73	0.20225696
245	0xbd5365cd	-0.051610757
246	0x3dccc464	0.09998396
247	0x3e76324b	0.24042623
248	0x3e812143	0.2522069
249	0x3d8456d5	0.064618744
250	0xbdb0e1ea	-0.0863684
251	0xbe0b5856	-0.13607916
252	0x3d3105c6	0.043218397
253	0x3e9011e2	0.28138644
254	0x3ed5541e	0.4166574
255	0x3eaa026b	0.3320497
